COLA_Emulators/PCE/LCDM_PNN_HIGH/MODEL_Z0.417.pth (torch, 60802 bytes, 12 tensors)

layer1.weight f8 [64, 19]
0.01141054599745168 -0.017774852777779827 0.0014234806007775837 0.15875405857839217 0.19248745165362952 -0.1324721611261248 -0.12907628176752176 0.20408032855624286
0.2140507359381222 0.18172006331873458 0.09833772084159878 -0.2894286497927531 -0.2186967998600638 0.007599903501101101 0.044058081365527454 0.18139666125784967
-0.035894802636031176 -0.03522820149233938 -0.20569052814110486 -0.04631400215611827 0.008979802180569495 -0.3233589794187087 -0.5967933886818549 0.22875759560875944
-0.1436134612737012 -0.4529432682364469 -0.20798206674827754 -0.11320717818006126 0.01870852611258498 0.10895050111222904 0.1947807976926359 -0.0999829604431433
0.025380047696703066 0.045678363119628806 0.07696956377068032 -0.2419515651441408 -0.14545343422495458 -0.05138114107765274 0.056541086300333984 0.030330626656254196
0.19021123685293592 -0.04154969080166773 -0.05104202432470343 -0.11110483873182889 0.14351764278143384 0.23311019703082297 -0.11273219789714033 -0.08993961044315371
-0.0383318903615314 -0.17701471937038016 0.14877080415908062 0.2259151383439608 0.2305783010298534 -0.049491712013128214 0.29328021382031944 0.11796812667046791
0.05753412463080929 -0.040618306682669726 0.09877373526764444 0.13594108669046215 -0.17688987653957644 0.06863801592298456 -0.03512865245534056 0.13582626002422551
0.2628313850020751 -0.05640714255487547 -0.20234718741775048 -0.15611047517771376 -0.1953716450266547 0.12127993373896978 -0.09775431588358909 -0.00034587480768485685
-0.17653767216249963 -0.1775335076297859 0.2128948701222613 0.03399308583601924 -0.05384648317845102 0.10097863349459568 0.07925968548387821 0.03770320484875685
-0.03929115734809294 -0.09050972963559588 0.02997454667423246 -0.0571510804281542 -0.14537219305730972 -0.23351394607335388 -0.14123637619586055 0.13928005689390976
0.03561266081694776 0.2437514842021878 -0.17355250921855447 0.1348251824591821 0.22735970164233574 -0.012162502207050318 0.0717434729561396 -0.004525373294185231
-0.10644756378230062 0.19097559047076632 -0.1293581142391842 -0.06764324339040108 -0.414365740040897 0.11703292391361286 -0.19024512000718194 -0.07625018672679108
0.30048218417371797 0.1747168224626311 -0.12941273245087845 0.05448793424152604 0.04423143291220956 -0.23933037270583687 -0.07285501686656098 0.03737546824097402
-0.23349044919763934 0.09185428881690107 -0.03892597395434871 0.24966448480093456 -0.10680688320146225 -0.23583702209248342 0.24986948968422348 0.17469965222190087
0.39192903651737687 -0.1300175103399849 -0.11351043251123781 -0.31478915379427985 -0.06865988344721367 0.03267692622217998 0.19673918092013162 -0.05358610585688979
-0.029635172448046237 0.08047002412067057 0.2901814115858518 -0.08517508479476721 0.10280443827855985 -0.0382172212504244 0.04786666338761858 0.1048980896499215
-0.23087934496287718 0.12878957269620397 0.08086037352879023 0.001708890019538731 -0.03304202179165729 0.03491052418917569 -0.22877356133772983 -0.07317120925868963
0.0008963767191221287 -0.11887912984519805 -0.13605573446247055 -0.10226835199788428 -0.19547565659109792 -0.01001454057162513 -0.16329540158541186 -0.19298653182215503
0.04734347454218189 0.05350024798027558 -0.0508125325252406 -0.08236704606229102 0.21380463312177095 0.22326613132957987 -0.2696845833863239 -0.2554056288797464
-0.17131878846658566 0.15043256611444283 -0.03449936640325919 0.09660252935971483 -0.2976563763256392 -0.15031017253717655 0.042763655308963 -0.1995541240047998
0.29457256599613363 -0.01941778845752861 -0.19662565794195494 0.05938453170117388 -0.06735130763989364 -0.11137224958707388 0.34790381843860463 0.07182336644554116
0.20155723120295316 -0.1644936409597906 0.14141774739069057 0.16285215347579826 0.023548241395806063 0.04947304383093495 0.27359815543702287 0.25172879033842005
0.1858241394509059 -0.13976498964354023 -0.0716071739845661 -0.13318626836818406 -0.1492791604506608 -0.015133582572167353 -0.07705170061469627 0.13911494411483058
-0.0710029404925058 -0.22718485480971895 0.17963619378286697 0.08829073621859693 0.0077453391866665324 0.24291221104213528 -0.02874198808206936 -0.0600862167479833
0.14361333494182438 0.08031856506761256 0.14799030722117362 -0.07599148271192768 -0.14839411758770502 0.12805743693210758 0.14359609976181478 0.08893264028174695
-0.22222684030817708 -0.04320127526477568 0.08851348391601149 0.14446491511503484 -0.06927781885897616 -0.10158852094864056 -0.1824980881412083 -0.008856132792318876
-0.11783829502194765 0.12627940586127842 -0.20783920098793715 0.09484172677288825 0.13941607293139682 -0.15970914558278126 0.06698194520125729 0.08966781781904053
0.04440444753356376 0.049760864737561944 -0.01913263414720283 0.1363527360961169 0.01673157115575159 0.005701312436454619 -0.06334611347160492 0.17363064194954117
0.36933969390332566 -0.006082580905968615 0.16503786425528102 -0.3502108194802924 -0.32388879646489155 0.14242351902051706 -0.0832750312044146 -0.028740353586191376
-0.18534710108645172 -0.05511193053986664 0.13574246339119866 0.08273911717277464 -0.10033860362177656 0.06816772632368044 -0.13682527803718572 -0.082220256238008
0.08978025480393763 0.16883722306938578 0.1502386426040815 0.1382806670381277 -0.07471884330404589 0.027251444831241502 -0.10975618711746242 0.17014384035566155
00000000: a5c4 1b8f 695e 873f aab3 7c2d 9233 92bf
00000010: 39fc 1da8 8252 573f 87c9 d990 0d52 c43f
00000020: 7211 dfc6 6da3 c83f 2065 d507 d9f4 c0bf
00000030: a1bd 7054 9285 c0bf bef7 73e0 4d1f ca3f
00000040: ddfc 44b7 0366 cb3f e091 7d60 9a42 c73f
00000050: 0254 fa2e a92c b93f f3a8 58be ff85 d2bf
00000060: 3ac5 91b9 41fe cbbf a5fa d68f 1321 7f3f
00000070: 0ecc 2de5 c78e a63f ff5f da7b 0138 c73f
00000080: f014 d6b6 cd60 a2bf 0ced 9c4a 6e09 a2bf
00000090: 0344 bb35 1154 cabf 53fd 3609 78b6 a7bf
000000a0: c650 85a5 0064 823f a229 5edc e9b1 d4bf
000000b0: 5371 db72 ee18 e3bf 9df4 eccb ed47 cd3f
000000c0: dfcb b707 ed61 c2bf 9435 01c3 05fd dcbf
000000d0: c34e 6b07 289f cabf d4af f447 25fb bcbf
000000e0: 3a5a 3def 5328 933f f8ea 2817 2ee4 bb3f
000000f0: d844 fdc1 93ee c83f 33b4 42b9 7b98 b9bf
00000100: 5623 502b 3afd 993f d09c 7787 2763 a73f
00000110: 98b5 2eff 46b4 b33f e64a c1d5 44f8 cebf
00000120: 0325 8bd7 379e c2bf 788e 1e01 a14e aabf
00000130: 669b 1409 f4f2 ac3f 0223 39e6 fd0e 9f3f
00000140: 9bba ce80 d758 c83f c4dc 4d46 0046 a5bf
00000150: 4579 6422 2e22 aabf bad2 c7e0 5d71 bcbf
00000160: 2b98 123f c95e c23f aa45 4e10 8ed6 cd3f
00000170: a3a6 2c6f 04dc bcbf 2ae4 7745 4806 b7bf
00000180: f146 fece 3ca0 a3bf 889e 4d17 6ba8 c6bf
00000190: 643f 3bf5 eb0a c33f 7fe7 6d89 c9ea cc3f
000001a0: 4f94 0bfb 9683 cd3f 84f3 0949 fa56 a9bf
000001b0: a804 bb5f 1ac5 d23f ac21 05be 2833 be3f
000001c0: 0dfa 62df 1c75 ad3f 7d55 a435 eccb a4bf
000001d0: b8a4 ad4a 3c49 b93f 8d55 c27c 8466 c13f
000001e0: 0c90 5dd5 53a4 c6bf b7cb a6d1 4292 b13f
000001f0: 6d7f e5fa 61fc a1bf 31fb 5e40 c162 c13f
00000200: 2390 bcba 3ad2 d03f 7468 11a1 65e1 acbf
00000210: 08cb 323c 83e6 c9bf 36c4 b994 6dfb c3bf
00000220: 1744 fa24 f001 c9bf 6ce6 11a5 330c bf3f
00000230: 594b c345 6d06 b9bf d0e5 cdfc d0aa 36bf
00000240: 8196 3954 c998 c6bf 8767 9b00 6bb9 c6bf
00000250: d1a4 549c 2340 cb3f b161 e9af 8a67 a13f
00000260: 761a 8328 c491 abbf 303d 7458 bcd9 b93f
00000270: 8a64 0bdd 5c4a b43f da41 8f9f d54d a33f
00000280: 5c02 aa77 f81d a4bf 1f33 c148 a52b b7bf
00000290: 3688 b6c6 a5b1 9e3f 106f bd0a e842 adbf
000002a0: 9fe7 7657 8e9b c2bf 55c1 c5f4 c8e3 cdbf
000002b0: a625 6298 0814 c2bf 0c14 accc edd3 c13f
000002c0: b98d 109b d23b a23f 53fb 7fa6 3f33 cf3f
000002d0: 44c0 9df7 f736 c6bf 1d72 ab9a f341 c13f
000002e0: 13b7 7d69 1f1a cd3f 5306 bc69 a7e8 88bf
000002f0: f94e 0cbe c75d b23f 00bd cfa4 3289 72bf
00000300: 2311 2fc5 2540 bbbf 5dff b35d e371 c83f
00000310: 6094 1083 ce8e c0bf 613a 284e 1151 b1bf
00000320: 4ebe 83e1 f784 dabf 28a4 c3a4 def5 bd3f
00000330: bfc4 53bc f359 c8bf b132 4eda 2185 b3bf
00000340: 14a2 83a0 193b d33f 74de 44ef 1e5d c63f
00000350: af00 c8ae 9890 c0bf 981a 30af d7e5 ab3f
00000360: 4256 a09b 80a5 a63f 0704 dbad 60a2 cebf
00000370: b499 ca5a a0a6 b2bf 0d0c 899b e022 a33f
00000380: 12b9 9dd9 03e3 cdbf 1947 773e c383 b73f
00000390: cf9f 32f2 1aee a3bf 7eaa 987e 01f5 cf3f
000003a0: 5885 5626 b257 bbbf 1e60 8954 e82f cebf
000003b0: 2721 3b33 b9fb cf3f a033 75e6 8e5c c63f
000003c0: a079 8c86 5d15 d93f 5da6 68ed 69a4 c0bf
000003d0: 27fd 630b 050f bdbf 02a5 2b68 8125 d4bf
000003e0: d3f4 f3b1 b193 b1bf de87 eab2 07bb a03f
000003f0: cb67 f2dd bf2e c93f 9ac5 5958 a36f abbf
00000400: 5b18 e7c1 ae58 9ebf ad17 e8f9 ae99 b43f
00000410: 3bc6 2a0e 5592 d23f 40a7 a0cb 08ce b5bf
00000420: b541 4a44 6451 ba3f 6442 d426 3591 a3bf
00000430: 800d a3b3 fa81 a83f f693 75e8 99da ba3f
00000440: affe f751 748d cdbf ade3 653d 2d7c c03f
00000450: 2d37 d9f3 43b3 b43f 27af c4af 9aff 5b3f
00000460: 734f fa45 e2ea a0bf 0a82 5bcf cadf a13f
00000470: ab47 11ba 7348 cdbf 335c c62e 59bb b2bf
00000480: 0d70 c558 5a5f 4d3f 2cb0 dcd6 dc6e bebf
00000490: 8c8b f938 466a c1bf a629 3f3b 422e babf
000004a0: bd87 1ca8 5805 c9bf d3b0 eae1 8082 84bf
000004b0: 83c1 b21c dde6 c4bf ae4f 5f5d c8b3 c8bf
000004c0: 5ee4 ac65 673d a83f c76c ce6e 6264 ab3f
000004d0: 197f d8aa 1904 aabf e50c 1bb9 0116 b5bf
000004e0: 6ae2 7e41 f35d cb3f e1b7 2e0e fc93 cc3f
000004f0: 1f4c 7820 8342 d1bf 442e d0d9 9058 d0bf
00000500: 00c1 d328 c6ed c5bf 8281 dbd3 5f41 c33f
00000510: 8a93 dea4 e6a9 a1bf 3294 4f80 f1ba b83f
00000520: 63ed 7054 cd0c d3bf 3ad2 a61d 5d3d c3bf
00000530: c3d1 042a 1ee5 a53f 31f7 3052 fd8a c9bf
00000540: f923 50e4 46da d23f 3efd 8ab9 41e2 93bf
00000550: 9724 3591 072b c9bf 43f2 163b a667 ae3f
00000560: 4afb a76f ef3d b1bf fd8e a849 e482 bcbf
00000570: a23a 9660 0e44 d63f 9ce3 f821 0463 b23f
00000580: c6fd 249a a0cc c93f 0940 29ac 200e c5bf
00000590: 08fa 0e0c fa19 c23f 3f80 a1e0 56d8 c43f
000005a0: ab75 b1ba 071d 983f 5b2b 93e2 8754 a93f
000005b0: 9d44 76d6 a182 d13f 19c5 7d12 531c d03f
000005c0: b7de dfdc 15c9 c73f 4888 d2b5 d1e3 c1bf
000005d0: a335 6c06 d954 b2bf e574 7565 3f0c c1bf
000005e0: 0412 0e5c 941b c3bf c30c c011 5bfe 8ebf
000005f0: 12c6 3d06 a9b9 b3bf 13d5 adbb 84ce c13f
00000600: 2acc 55ab 3f2d b2bf b4f1 c6b0 6414 cdbf
00000610: afd7 bc9c 51fe c63f 3e40 99c0 389a b63f
00000620: 7ff1 0ca8 93b9 7f3f 7ecd 1c51 bf17 cf3f
00000630: b489 562b 8a6e 9dbf 0ef4 bedf 9ec3 aebf
00000640: d41c 6cf8 eb61 c23f 8e1f 3aea c18f b43f
00000650: 56e9 d1ac 58f1 c23f 10b4 0585 2d74 b3bf
00000660: cf9e fa14 94fe c2bf a405 d1a3 2f64 c03f
00000670: edb2 2764 5b61 c23f df99 8e1d 4ac4 b63f
00000680: 6861 b5d9 ed71 ccbf bfbe d040 7a1e a6bf
00000690: 5c9e acd6 d1a8 b63f aa53 eb8a d37d c23f
000006a0: 5c67 56ee 30bc b1bf 9798 1f8f b401 babf
000006b0: ed12 13ec 185c c7bf 7643 b205 2a23 82bf
000006c0: 20ee 5587 a62a bebf 698f 2a6f ec29 c03f
000006d0: 7bf4 8895 799a cabf 1f25 c922 8c47 b83f
000006e0: 0578 e3c8 62d8 c13f 1038 936a 5971 c4bf
000006f0: 55d6 0f90 ba25 b13f c755 0959 78f4 b63f
00000700: d03e e803 2ebc a63f b446 568d 417a a93f
00000710: ac55 cb57 8197 93bf 5d60 20a7 0174 c13f
00000720: 73d7 b2bb 1422 913f cc73 5767 425a 773f
00000730: 9172 b06d 7337 b0bf addd 6064 8739 c63f
00000740: da7b 9bf4 42a3 d73f 2603 1061 0cea 78bf
00000750: d1ff c9f2 f51f c53f c4e2 17a4 da69 d6bf
00000760: 70e1 1613 98ba d4bf dbea 2f12 ef3a c23f
00000770: c0a9 982f 8351 b5bf f2a4 e97a 1c6e 9dbf
00000780: 4d90 c92c 74b9 c7bf 8288 9386 a137 acbf
00000790: 5cca 7850 0260 c13f fb62 5b0a 642e b53f
000007a0: 4df3 146d caaf b9bf 53f0 33ab 7073 b13f
000007b0: f1c8 379f 7d83 c1bf 7869 9cff 620c b5bf
000007c0: 1b9f 35ba d6fb b63f 9919 b747 759c c53f
000007d0: 353c 4a14 053b c33f 7c85 4c4f 2eb3 c13f
000007e0: 79c5 622c c620 b3bf b795 4681 cde7 9b3f
000007f0: 2302 3442 fb18 bcbf b4c1 f8fa 45c7 c53f

layer1.bias f8 [64]
0.2597988893243149 0.2161726141594472 -0.13889281621787922 0.07512180474431894 0.18134908173476394 -0.038680624700918036 -0.04839884857588092 -0.1043861707243198
0.1932491104952676 -0.08561061025521961 0.14717727275274883 -0.09500940105185934 0.16788249174935838 -0.11713481508758082 0.13989945762153544 0.16553059478434862
-0.09785590855134045 -0.13522340632275406 -0.015550477029440197 0.07835559193505964 0.2333197526161252 -0.03947869539538588 -0.2035370445370416 0.08051563241981502
0.12394422389960942 -0.19291783247798444 -0.10237101211644754 -0.03408725262123311 -0.20414909377240126 0.13830333958574734 0.20910039260831834 0.11238135296264053
-0.1974219633010911 -0.04206968785960045 -0.3409527063982596 0.012788116488543687 -0.07843407518567756 -0.18942727537809817 -0.14972072542640694 0.1372085104201872
0.1370148779611085 -0.2563564820547504 -0.09010268803252808 -0.18520940167870534 -0.18612909234387254 0.1790515238887269 0.19341667755997183 0.043079138365456925
0.14592499066062686 0.2735355629547519 -0.225724695696159 0.23127782098378422 0.06279138760520353 -0.07089566397237825 0.05407815578439344 0.21312941026681834
0.1761725648630032 0.11038309114714483 -0.09608750136960739 -0.027352239481365254 -0.011399209408710864 -0.1218902884869434 0.15727555100718185 0.19625843789953035
00000000: f5d7 4b85 8ba0 d03f 0386 0d52 8bab cb3f
00000010: 7d0e a763 3dc7 c1bf 9fe5 97be 2e3b b33f
00000020: c4ef 9a5b 7236 c73f 0f99 2864 f2cd a3bf
00000030: 4c4d 98df bbc7 a8bf 7a66 6a55 0db9 babf
00000040: 3875 c708 63bc c83f fd9c 3cb3 93ea b5bf
00000050: ec00 9872 b4d6 c23f 7c8d 543e 8952 b8bf
00000060: c636 d169 2c7d c53f cf2f 0618 8cfc bdbf
00000070: 8c37 9bb5 39e8 c13f c808 8b45 1b30 c53f
00000080: a3c8 f2b6 150d b9bf 63ac e725 004f c1bf
00000090: 2aaa 3ab2 edd8 8fbf 94de d1b0 1c0f b43f
000000a0: ee9f 7ff1 6bdd cd3f a54e 3933 8d36 a4bf
000000b0: c5d1 e77a 800d cabf 2c53 0f28 ac9c b43f
000000c0: e54a 2d04 cfba bf3f 7471 a712 88b1 c8bf
000000d0: 5b3b 1995 fc34 babf adf7 6f66 e273 a1bf
000000e0: 1658 a1b8 8e21 cabf 1764 3980 ecb3 c13f
000000f0: b7af ea39 cdc3 ca3f 419f a73b 06c5 bc3f
00000100: 4df5 f175 1f45 c9bf 3513 057b 288a a5bf
00000110: 50a5 dd4c 2bd2 d5bf ec0f c4f0 a730 8a3f
00000120: 6f82 d06b 4114 b4bf 9a12 5c28 273f c8bf
00000130: 35b2 9e79 0c2a c3bf ff68 7e68 0c90 c13f
00000140: 3246 f419 b489 c13f a5bc a204 2568 d0bf
00000150: 58a3 6142 f810 b7bf 0f96 8f11 f1b4 c7bf
00000160: 88bd 39fe 13d3 c7bf 6f55 b30b 29eb c63f
00000170: c47e 4fb0 e0c1 c83f 3bc8 d604 780e a63f
00000180: 523b 478b abad c23f 3ec0 4b4e 9b81 d13f
00000190: 2210 f5fc 8be4 ccbf f72e b5fa 829a cd3f
000001a0: 701c 3cac 1813 b03f a987 30de 3726 b2bf
000001b0: be3e 0bcd 21b0 ab3f 45b4 7413 d347 cb3f
000001c0: 2eff 4496 d28c c63f cf24 82f6 1042 bc3f
000001d0: 5ed3 efc3 3099 b8bf 48e6 2db8 3902 9cbf
000001e0: 40a6 e2fc 7758 87bf 895d c0b2 3334 bfbf
000001f0: 0da3 04f2 9a21 c43f 04d8 2b1a ff1e c93f

custom_layer.alpha f8 [64]
-0.12870816250074113 -1.779063726864679 0.1626566087470933 -0.9556239583692689 -1.004254882141051 0.9060680059835251 1.5441936937446006 -1.0154448251337373
1.807367766905232 0.7391389602314682 -0.9913161306401415 -0.5960633729092445 0.8704399063015565 -0.37683759766205116 0.6806039188737062 0.04367972551833476
-0.020530693347221515 0.7202963335724646 -1.3829304332409982 0.4186236831686033 -1.713976941790988 1.3047168088756629 0.9021133256679688 0.6539788940794187
0.4980664219365375 -0.8531740177927624 0.5412541956092345 -0.014713320573225783 -2.3408252885221206 -0.9661220480610627 -1.4796579272806534 -0.5579518884295138
1.028453100356157 0.8926368860831605 0.021112856563460857 0.9969427382586196 0.02259631357531806 -0.5871783900830453 -1.666631297478195 1.1251846616774779
-1.1529442486073875 -0.03912422590072037 0.7229357237431211 -1.05332282095882 -0.4187936864130052 0.9023800277885443 0.9344255430174812 -0.19664934603237835
-1.3566572809833521 0.7942983261631209 -0.22770959022438964 0.2501602539167999 -1.0309881164644128 -1.1343321705263136 -0.39841315873059685 -1.770977730025982
-1.641420208450694 -0.8879164833032421 -0.3852792511222807 2.0811937951197024 1.0517897233390479 0.206299109633182 1.5632989836990285 -0.3719504885436456
00000000: b89f 5552 8279 c0bf 8623 c686 0b77 fcbf
00000010: 3005 8687 eed1 c43f dc0a 0fb2 7894 eebf
00000020: 6f4e 3a91 6d11 f0bf 68d6 b454 82fe ec3f
00000030: f528 5572 04b5 f83f 2e78 ad12 433f f0bf
00000040: 883d ab76 faea fc3f 6098 acbf 06a7 e73f
00000050: ee17 239b dcb8 efbf 15a3 9f7e f312 e3bf
00000060: 075a 56ca a4da eb3f 5a26 7771 1b1e d8bf
00000070: b5f1 a2de 81c7 e53f 3ff2 3261 305d a63f
00000080: 2f4b f681 ff05 95bf 0ceb 83e5 aa0c e73f
00000090: 769c 76a9 7b20 f6bf ea92 22fd baca da3f
000000a0: 3c72 f115 736c fbbf 6a99 8abb 1ee0 f43f
000000b0: 7ef3 e0c3 1cde ec3f 1e0d 4b25 65ed e43f
000000c0: aa00 5dfc 51e0 df3f 53f0 0699 334d ebbf
000000d0: c4dc 9e51 f451 e13f 25a9 6b75 0422 8ebf
000000e0: 74d1 de9b 02ba 02c0 ddbc 0bc9 78ea eebf
000000f0: 3700 6fca adac f7bf 7e7a 31eb bdda e1bf
00000100: f4fd f73c 8b74 f03f 43c6 1d3b 7b90 ec3f
00000110: 435e dcd1 9b9e 953f 52c6 1975 f4e6 ef3f
00000120: 53bd 43ef 7c23 973f 3563 ca55 2aca e2bf
00000130: d58a 5294 85aa fabf 77d9 bda1 c100 f23f
00000140: 9314 1eab 7572 f2bf 6c27 732d 1708 a4bf
00000150: 08c7 5219 4a22 e73f a560 c207 69da f0bf
00000160: 9a91 ba08 84cd dabf b44a 7d14 4ce0 ec3f
00000170: f3d3 7965 d0e6 ed3f b792 fe46 ce2b c9bf
00000180: af42 db43 deb4 f5bf b06b c452 e46a e93f
00000190: 8ce9 7f7d 9625 cdbf c33a 5527 a002 d03f
000001a0: fb77 2c65 ed7e f0bf 2061 737d 3926 f2bf
000001b0: 69d0 c2e7 997f d9bf 9b7e 86be ec55 fcbf
000001c0: b3a0 24d6 4143 fabf 75bc 2bd4 cf69 ecbf
000001d0: bc71 d94d 6aa8 d8bf 006b b5ee 48a6 0040
000001e0: 5d29 0076 21d4 f03f 7cc2 885c 0268 ca3f
000001f0: c4b7 8dcb 4503 f93f f1ac 016c 09ce d7bf

custom_layer.teta f8 [64]
2.0613456725470125 1.0797436620881091 0.23891411119042544 0.3193358080556657 0.5566579055242264 -1.246353813502703 0.5854027830048242 0.7894638698167097
-0.875322322354954 -0.5048914210844644 0.24748652236994026 0.2873469567847084 -0.8071137726922094 -0.20606617330779065 0.5021152340296133 -0.7252785636226765
-0.7671565697069086 -0.41859854039773664 0.006833702288785024 0.021754544384528986 0.5526911816893414 -1.1660767737891358 -0.4424916516231417 0.73496466137194
0.2720502472170822 1.1257297768630623 1.1115988290918513 1.4550278015108777 0.8323566833308751 1.2078574778539246 -1.4315795882857427 -0.36083795452529044
-0.7135120727356635 -1.3576879785896692 -1.3964390424672877 -0.27119455693727657 -0.5833202280785093 -0.41408729227334995 -0.03873312219934344 0.8649509289920264
-2.1160095147755813 -1.3478838567662024 -0.8887633168180595 1.3929039667222223 -0.49970649007563495 -0.06966505025313241 1.5230944073680976 0.5613602035758799
-0.43860942599135344 1.1259388595787356 -0.26326168971618036 0.7404691442882897 0.7132192376786313 0.06878562688503455 -1.7972125622803552 -0.15401320909249241
-0.7721559146743842 -0.842406644684006 0.5193361447161133 0.8776247037189423 -0.3583798399593494 0.5989916708584784 0.694426830615549 0.4017595543854826
00000000: 6fb9 cacc a27d 0040 0fb5 4b4a a146 f13f
00000010: 0ad2 0ed3 bc94 ce3f c19c 0275 ff6f d43f
00000020: 462a 693d 24d0 e13f ead2 43b2 10f1 f3bf
00000030: 83c7 ff9d 9ebb e23f 5790 c7bb 4943 e93f
00000040: 4025 7ff5 a302 ecbf f4d6 b20d 1228 e0bf
00000050: 17cc e36b a3ad cf3f 6bb5 7f7d e463 d23f
00000060: aba7 3b43 e0d3 e9bf 309c 9559 6060 cabf
00000070: e060 9ff7 5311 e03f ddf9 e763 7b35 e7bf
00000080: dbaf 39ef 8b8c e8bf e157 4a88 51ca dabf
00000090: 2475 74fd a7fd 7b3f ea08 afc2 d246 963f
000000a0: 0a96 c46a a5af e13f deca 801e 40a8 f2bf
000000b0: e15c 1e81 c851 dcbf c0dc 099c d484 e73f
000000c0: 1ba1 aa70 4569 d13f e729 fc39 fd02 f23f
000000d0: d58a 93da 1bc9 f13f f528 643b cb47 f73f
000000e0: 9e6b b07b aaa2 ea3f 52c9 d95c 6253 f33f
000000f0: 3fef 94ff bfe7 f6bf b8dd 7513 f817 d7bf
00000100: 596d 3645 17d5 e6bf 8c70 a307 17b9 f5bf
00000110: a912 2477 d057 f6bf 2686 396a 405b d1bf
00000120: 9e28 d62e 8faa e2bf f234 80fc 6780 dabf
00000130: 607e 3cea d3d4 a3bf 5d4c 1592 adad eb3f
00000140: 3ae3 7f65 96ed 00c0 00e0 b9a9 ee90 f5bf
00000150: 16c7 73c4 bf70 ecbf 5ea6 78ab 5549 f63f
00000160: c052 1eee 30fb dfbf 20eb 8298 91d5 b1bf
00000170: 1bdd c53d 985e f83f 3d4c 74ac a9f6 e13f
00000180: 9a69 1645 2d12 dcbf b3fa 3277 d803 f23f
00000190: 74b9 e78e 47d9 d0bf 374a cd58 ecb1 e73f
000001a0: 12a6 9626 b1d2 e63f f9f4 e751 ef9b b13f
000001b0: 9645 aff5 61c1 fcbf 5925 1a70 b4b6 c3bf
000001c0: f20f 1e52 80b5 e8bf 8e3a 9bc7 fef4 eabf
000001d0: 3cf7 a5d5 669e e03f 354e 1467 8015 ec3f
000001e0: a0f3 0aff b1ef d6bf e43b 9d94 f02a e33f
000001f0: caad de9d be38 e63f 503c bcb4 6db6 d93f

custom_layer.gamma f8 [64]
-0.0809548149836342 0.0025149695855264183 0.03306288522086555 0.027377687058399713 0.005891441454680262 0.0680658264827907 0.012598112078226172 -0.0050535975911109
0.023820280292152 0.11371984736696135 -0.029978727435064398 0.01786443606940894 0.08893956402832012 0.08333927401674734 0.06968216845553958 0.18837014906036223
-0.13692917177917147 0.09493496208198449 -0.004230242205911862 0.07227649785355875 0.004497474016999609 0.194672113349887 0.027338081769116403 0.01650255993348273
-0.044810042537830774 -0.0008324198046742686 -4.340712835990084e-05 0.005972269087637464 -0.012085943711909563 -0.0038486014120484606 -0.09781056196500953 -0.05842309516167997
0.009898675651854679 -0.03923807174869417 -0.14175758977106684 0.11976189331929926 -0.04263851010164284 0.0373690093589896 -0.01139602002730938 0.00949963665230564
-0.059182122886618456 0.17705849846129343 0.19494788509958527 0.008666857439125647 0.004269742683145354 0.043945021274147934 -0.13040155809929554 0.026039687926205445
0.14972034589632552 -0.004058399282689855 0.0003736897680313533 0.009294702683409792 -0.0010434992632679726 -0.03964688832544864 0.02866491175791784 -0.039223380705497884
-0.09741976503468447 0.1732912142187962 0.02891342527791335 0.002810608525068951 0.08380677523365357 0.03212528294794888 0.024875613638930014 0.038966246618266635
00000000: e7f5 ce6a 74b9 b4bf d141 d903 469a 643f
00000010: 7254 7855 9eed a03f c04a 397a e508 9c3f
00000020: 1f85 fcc5 9f21 783f 1103 b812 c36c b13f
00000030: 9147 f0fa 09cd 893f 7c6f 18c6 14b3 74bf
00000040: 216b 58f3 5764 983f cde2 5871 be1c bd3f
00000050: 6c1f a357 beb2 9ebf 8ae7 b702 0e4b 923f
00000060: 4e77 d246 bec4 b63f f0d2 5f00 b955 b53f
00000070: 0383 a1ca b0d6 b13f 21e2 e056 831c c83f
00000080: da77 5425 e586 c1bf 989d 635d a84d b83f
00000090: 9b57 dbfe ba53 71bf 3aea 8c6a b680 b23f
000000a0: edfb 147d f16b 723f d0f6 230c 04eb c83f
000000b0: 32f0 889c 83fe 9b3f 06bd db0c 0ce6 903f
000000c0: d8f6 7686 57f1 a6bf db16 37eb d746 4bbf
000000d0: b56f e192 01c2 06bf 6a08 a1c6 6076 783f
000000e0: 5920 dfe7 83c0 88bf 061e 6726 1a87 6fbf
000000f0: 3cd5 d7ec 1c0a b9bf 9edc 19c6 a1e9 adbf
00000100: 1161 96c1 c145 843f 7b65 d635 0317 a4bf
00000110: e264 03da 1c25 c2bf d409 1d27 b7a8 be3f
00000120: fa99 dffc b6d4 a5bf c45b 29e2 0722 a33f
00000130: 9e28 93ea cb56 87bf 65db f6a5 8b74 833f
00000140: 399c 9c84 1e4d aebf 2560 2f56 daa9 c63f
00000150: b4aa 7663 0df4 c83f bdc3 14ea edbf 813f
00000160: 51ad fb52 267d 713f 2594 633a f67f a63f
00000170: 3c24 b18d ffb0 c0bf b615 2ae0 25aa 9a3f
00000180: cbd3 954a 092a c33f b89a 1743 8a9f 70bf
00000190: b8a2 2155 797d 383f f209 69e0 1909 833f
000001a0: 1d7c 62cd c018 51bf 45ef 7dd1 984c a4bf
000001b0: bc03 2caa 555a 9d3f 6cc2 bc42 1615 a4bf
000001c0: 64d7 ce70 80f0 b8bf 7b7e e010 682e c63f
000001d0: d097 ef1f 7b9b 9d3f bc11 4ef6 4506 673f
000001e0: d2cf cf5e 5c74 b53f 4aba 459f b972 a03f
000001f0: 6944 302c fe78 993f 8f24 bf45 62f3 a33f

layer2.weight f8 [64, 64]
0.003861076907356661 0.09890363449649768 -0.0009352620814794722 -0.12085159308362722 -0.07547461949527573 0.08580422564120878 -0.043160739035618345 -0.1457069190254179
0.15540149601913292 -0.03644963043351159 0.0539072745332546 -0.007106211987086636 0.23637632728600647 0.018754160020531645 -0.06523082618303384 -0.019536873536291476
-0.03935510654485098 -0.012590122310514795 -0.08597830209423793 0.013598544400149749 -0.0743202689490242 -0.02504916435674077 -0.03159957377691931 0.025978361939990945
-0.15323244925963242 0.033348670225699505 -0.020362271200160854 0.1153637298099632 -0.01114643263029537 -0.019678843842207278 0.19151520630947866 0.10427722456060513
0.06896137211629146 0.1680128655135871 -0.07074198062768029 -0.09331331438926736 -0.030924115346253726 0.11129718961963421 -0.1703556992040191 0.13640655199808946
-0.012280174159709027 -0.0033285605437100405 -0.1074555735594773 -0.01696971656382901 -0.05967990572548611 -0.04926634899345977 0.11358849992999322 0.021902356544353466
0.001811710730163362 0.08751506746295395 0.0868001838932741 -0.07999525632522052 -0.0900034335677964 -0.0794205254268397 0.09361560315944442 -0.04089859868140546
0.019420684019035794 -0.0766828569385779 -0.1865661895349203 0.16110527307576128 -0.005578807098583453 0.05681300532596632 -0.04946308220258316 0.1389421310044294
-0.003681329280070234 0.02461243326612179 0.01410331036556821 -0.12827511881164103 0.10136633832761437 0.12081867691247852 0.1131620303525894 0.11534488413207424
-0.048539108417507124 -0.09966790156134757 0.036785334591150055 0.11632346171780586 0.11773221169036452 0.03210683590106659 -0.13125964017579866 -0.15205843151763146
0.04326138876413354 0.025463752780144847 -0.09273569496330628 -0.04642909631197691 0.03385436938073203 -0.11629372613952141 -0.08583041387127348 0.013244166044961075
-0.17049796006762008 -0.10977692875286309 0.010987864920122072 0.05514715370676183 -0.09257955714132987 -0.0740955012298148 -0.13493355515784272 -0.08450657554650236
-0.17275947694936367 0.1035491416229468 -0.09403319719205361 0.09174179057339027 -0.021806337717829874 -0.04816430479754689 -0.04525133797872544 0.03650857405576119
0.05170494298654886 0.1791874263652476 0.036426119229257044 -0.15044305693712737 0.0994288308426882 -0.07447726799508977 -0.024319102925920016 -0.09276201808291897
-0.07760725794786037 0.08463316944514082 -0.014303467975343404 -0.10777542620879695 0.03456958320401044 -0.0027936847346607986 -0.10166117019320589 0.16553579864978557
0.014312443825014988 0.0012049201477528093 0.10987797155209977 0.1523210785093406 -0.06536482092714169 0.041167320278373526 0.10930837277670544 -0.005736332243079479
-0.04334663018383178 0.06111118792053436 -0.09453368167443373 -0.07272721861888226 -0.05432073937152901 -0.10044053071707022 0.03060463859991687 0.10552195821498885
0.08573373381293814 0.2183141495734168 -0.1104075835965488 -0.11876084082163861 0.029038219653092577 -0.0455277519296801 0.08769392576899324 0.06421397556240482
-0.048659721095450345 0.12152474857801877 -0.043610589415132156 0.11097796531441823 0.049287213200219795 0.11916159379828205 0.08305641055119652 0.060159375098375024
-0.0017557844511028665 -0.059388076022301325 0.045696943607476385 -0.10066627143620833 -0.08830609599228417 -0.01406300031001954 -0.13323975673451943 0.0026145467654590665
-0.15464297660001722 0.10288131507992192 -0.0007270794586212679 0.022506035884874157 -0.13700367243786687 0.019299982488003617 0.055946783648294286 0.1251447067416537
-0.12334509208313904 0.10638743992156031 0.024243399871242157 0.03337948118568178 -0.1326604386537158 -0.014246256736094299 -0.1779798546737556 0.028983518341842877
0.01932538130326631 0.049411978076358845 0.060796487657032446 -0.16634801354754558 -0.00013717876695254095 -0.10629781603411427 -0.022886881043581504 0.008220486059402208
-0.03434346125548765 -0.042530661107470474 0.1214473078132854 0.01826840523779817 -0.058652143268947986 0.0695929316461911 0.19891149304860087 0.02521003227040822
0.06808674061810502 0.04211582119993305 0.044606424075252955 -0.026228430318118973 -0.08269729314888215 0.08470081138303255 -0.2148461050413709 -0.07361144990472539
-0.0071274851959725076 0.09956165030833078 0.1186025592631171 0.07134090858383152 0.08548414150173163 0.022040172744250932 0.09383560692340832 -0.007562555915382691
-0.016992379910813704 -0.10294213792017388 0.1111809899800332 0.04526087965713489 0.09919708374674212 -0.17441075360608246 0.005015464965859008 0.10271958184691639
-0.041234185647183196 -0.060007661342653486 0.02573940865727074 0.05341978109982866 -0.005093605311142116 0.07823409960478461 0.09282638501940729 -0.07472548812101044
0.08683522181659166 0.008515853472973392 0.04496822445405237 -0.1438154425272972 -0.10021400879531331 -0.03639381184481593 -0.16260331576347412 -0.13634494418861226
-0.08729800783255864 0.04218339476043665 0.006275915217550505 0.013797512128137656 0.07886231737123842 -0.009935248765811127 0.1034513898385722 0.10334021911513568
0.08115165238496487 0.12705698865522105 -0.03513627760383814 0.10169324064027975 0.06513128212464227 0.020930785187366845 -0.04866978154834372 0.10982856571657527
0.048880825213032705 -0.10049386464033304 -0.07462063226255741 -0.04856095464383437 0.16146620295319766 0.015773505453012003 0.10747865826126915 0.018326294142406736
00000000: 9208 6ce1 43a1 6f3f eb34 9ea3 bf51 b93f
00000010: a565 cd06 8ca5 4ebf a6b3 f647 21f0 bebf
00000020: 5c06 69fe 4d52 b3bf 1dd3 fc06 44f7 b53f
00000030: c022 4215 2a19 a6bf 79ee 013a 86a6 c2bf
00000040: 4569 933b 32e4 c33f 6391 53a5 86a9 a2bf
00000050: 8e0d 46fa bb99 ab3f 20e3 5341 671b 7dbf
00000060: 89f9 9e59 9441 ce3f 3efc ce5f 4a34 933f
00000070: 4dae 25a9 f7b2 b0bf b32a 9e63 7901 94bf
00000080: a1da 143f 5a26 a4bf b343 9c9c d9c8 89bf
00000090: 5e0d a98b ac02 b6bf c757 c6bb 8dd9 8b3f
000000a0: 47e4 9034 a706 b3bf 033c d1f6 7ca6 99bf
000000b0: 0afa e0bf d12d a0bf c65f be5b 129a 9a3f
000000c0: e8c7 20f3 1e9d c3bf 3b0c f8af 1313 a13f
000000d0: 5a05 82e3 d8d9 94bf cea9 ad36 7a88 bd3f
000000e0: 48da e9dc f0d3 86bf b8c7 e6da b026 94bf
000000f0: 7e98 e4fd 9183 c83f 2d98 3485 e9b1 ba3f
00000100: 0540 edd5 73a7 b13f c113 5811 7281 c53f
00000110: fd09 407d 251c b2bf 2751 95a1 61e3 b7bf
00000120: a191 4740 92aa 9fbf 0194 8dfd f87d bc3f
00000130: 665d 622e 37ce c5bf 8f5d e517 c575 c13f
00000140: 2fb7 3d13 5926 89bf 5919 b255 7f44 6bbf
00000150: 0efc 355e 3582 bbbf d1f8 a766 8260 91bf
00000160: b27e a356 5d8e aebf 47c2 705b 7039 a9bf
00000170: 31a9 66cc 2214 bd3f 81d9 4044 926d 963f
00000180: 63cb 7e95 ddae 5d3f 741e a930 6367 b63f
00000190: fcbf 1b6f 8938 b63f 6780 c0b1 917a b4bf
000001a0: 918e b30b 770a b7bf c4e3 564f e754 b4bf
000001b0: a212 f731 31f7 b73f 23e6 933f a9f0 a4bf
000001c0: 702c e90a 04e3 933f c80c b7da 7ca1 b3bf
000001d0: c3c0 4ba1 66e1 c7bf e469 89fb 189f c43f
000001e0: 5130 a0a0 cdd9 76bf 7e99 b91f 9816 ad3f
000001f0: b7c2 d6a0 3953 a9bf 57ac 5912 dbc8 c13f
00000200: ce80 a39b 4e28 6ebf d3d8 cf6f 0034 993f
00000210: b99b 4846 32e2 8c3f a5df 17b0 516b c0bf
00000220: bb49 08f4 24f3 b93f 2ac8 150a f9ed be3f
00000230: a669 83d3 2ff8 bc3f e9b0 1b09 3e87 bd3f
00000240: a6db 7536 1eda a8bf 43bc aae9 d583 b9bf
00000250: 4d33 1502 87d5 a23f 4ae2 d5d7 5fc7 bd3f
00000260: 6057 e5be b223 be3f 25a3 58a4 4e70 a03f
00000270: 027e ebaa 1dcd c0bf 1982 3993 a676 c3bf
00000280: 3fce d753 5b26 a63f b154 b285 2b13 9a3f
00000290: 220b 0ac9 86bd b7bf 034d 7cf4 8dc5 a7bf
000002a0: fd46 a222 5c55 a13f 32cd 7ff6 6cc5 bdbf
000002b0: ab4a 9464 fbf8 b5bf d60b 35e0 c11f 8b3f
000002c0: dc37 438d e0d2 c5bf 7b4f d93e 571a bcbf
000002d0: 8ed9 e043 ce80 863f 81ab 466b 3f3c ac3f
000002e0: ac3e 333a 4bb3 b7bf 8112 903a ecf7 b2bf
000002f0: e699 44b3 8045 c1bf 0be9 4412 39a2 b5bf
00000300: a029 c987 fb1c c6bf 5fa7 cc50 3282 ba3f
00000310: d09d ad42 8f12 b8bf e86e 30d6 637c b73f
00000320: 74db 5f8d 6654 96bf e54c e1e3 fda8 a8bf
00000330: 880f 70f1 2e2b a7bf 48a9 2f77 40b1 a23f
00000340: 4669 56fe 1179 aa3f 3aec 0b14 9def c63f
00000350: 69a5 9ebd 71a6 a23f e944 bad4 b741 c3bf
00000360: 6bb5 bff8 2a74 b93f 2e97 5536 f110 b3bf
00000370: 8885 f05e 1be7 98bf 1123 fa69 40bf b7bf
00000380: df7b d1ba 11de b3bf 0478 ecf6 84aa b53f
00000390: 304b 63f9 224b 8dbf 2516 e19a 2b97 bbbf
000003a0: d95b 98ba 1ab3 a13f 0832 4312 c8e2 66bf
000003b0: aabe 4069 7706 babf 1e50 c2ec 4630 c53f
000003c0: 54f5 3bb1 d74f 8d3f 05bb 3f28 cdbd 533f
000003d0: 68f9 5d76 f620 bc3f 5333 58d1 417f c33f
000003e0: 68e3 30b8 bfbb b0bf 9ce6 840c e213 a53f
000003f0: de42 412e a2fb bb3f 1ad6 20f6 fa7e 77bf
00000400: f00e 108e 8731 a6bf dda9 1333 f749 af3f
00000410: cd83 29ff 5b33 b8bf ac44 7f41 409e b2bf
00000420: 7cc5 308e edcf abbf 4569 9f7a 78b6 b9bf
00000430: 94f6 9187 d256 9f3f cd12 8baf 7c03 bb3f
00000440: 58fa e35e a5f2 b53f 1500 56d2 b7f1 cb3f
00000450: 610e c7e0 ab43 bcbf a7d8 5f47 1c67 bebf
00000460: 96f4 f9ee 31bc 9d3f 765e 32db 694f a7bf
00000470: 5e55 3cef 1b73 b63f 8896 fcbc 5370 b03f
00000480: ce91 794d ede9 a8bf 2916 ccf4 3e1c bf3f
00000490: 9c34 988e 2054 a6bf dc1f 9a4b 0d69 bc3f
000004a0: 02a2 9c71 2c3c a93f 1788 4dcc 5f81 be3f
000004b0: b960 0a57 2f43 b53f 75cd 30a9 35cd ae3f
000004c0: 1fc7 f632 4bc4 5cbf de87 9328 1d68 aebf
000004d0: 277d a4fc 9665 a73f 51f7 a0c7 43c5 b9bf
000004e0: 2405 5372 3a9b b6bf 9645 52f3 0fcd 8cbf
000004f0: 2ad3 d916 000e c1bf 6090 3f1b 1a6b 653f
00000500: 2fce 864f 57cb c3bf af42 a30b 6e56 ba3f
00000510: df1b 893f 2fd3 47bf 9140 5a80 d20b 973f
00000520: 76b9 461a 5689 c1bf 8cbb 65e6 5fc3 933f
00000530: 7def 2b8c 0ea5 ac3f 6d88 5ce3 bd04 c03f
00000540: 4883 9e40 8b93 bfbf 8113 2b0f 353c bb3f
00000550: 0704 5d06 43d3 983f 1e93 1988 1d17 a13f
00000560: 08d0 be6a 04fb c0bf 5af1 2c36 242d 8dbf
00000570: a6d6 953b 0bc8 c6bf 61dc 9afd daad 9d3f
00000580: ba95 b862 08ca 933f 1abd bcdb 864c a93f
00000590: c9b1 659c b720 af3f a47b f846 e44a c5bf
000005a0: 7153 b2a2 f4fa 21bf e9b3 806b 5536 bbbf
000005b0: a2c6 5b96 a86f 97bf 1244 42f6 e6d5 803f
000005c0: 68f7 d855 7795 a1bf 1c54 112d 94c6 a5bf
000005d0: 61cc 3eb7 2b17 bf3f 4488 2fec f3b4 923f
000005e0: 6362 5c5a a707 aebf ea01 74a5 d7d0 b13f
000005f0: 5f9c b88a ee75 c93f 29b0 87a0 a8d0 993f
00000600: 96f9 3ef4 216e b13f 9d52 6575 3490 a53f
00000610: f17e 3039 a7d6 a63f 6856 c429 a0db 9abf
00000620: e5cb 8a59 a62b b5bf c1b4 d5ce f3ae b53f
00000630: 83af 69c1 1380 cbbf 33b2 f331 33d8 b2bf
00000640: 835e 1cbd b531 7dbf e293 0250 df7c b93f
00000650: 15ca 41c1 bc5c be3f 0407 3cd5 6543 b23f
00000660: 559a 13e8 49e2 b53f 77fb 89f4 b291 963f
00000670: a1b4 ef3e 9c05 b83f 07b6 4a25 eaf9 7ebf
00000680: a01b fe4f 7366 91bf 155a bf7b 6a5a babf
00000690: 86b1 e67b 5b76 bc3f b2c7 d41b 6f2c a73f
000006a0: 3b03 8de6 fa64 b93f 0388 6771 1753 c6bf
000006b0: 68a4 0aa0 188b 743f 1df9 b09c d44b ba3f
000006c0: 83e7 a9ad a51c a5bf a5c8 f3fd 52b9 aebf
000006d0: 5bfd 9a79 6e5b 9a3f 3a05 9169 d659 ab3f
000006e0: 0370 ae43 08dd 74bf e40b 3c63 2607 b43f
000006f0: 0e40 dd4f 78c3 b73f d149 a8a7 3521 b3bf
00000700: c9d9 d745 d53a b63f 5bc4 4f81 c270 813f
00000710: e357 c73a 1306 a73f d541 285f 8b68 c2bf
00000720: 4a7e 6012 a0a7 b9bf 1fef 4caf 35a2 a2bf
00000730: a96f b679 2fd0 c4bf aaec 214a c073 c1bf
00000740: 1c94 a588 2959 b6bf a154 dcd9 0f99 a53f
00000750: 4821 ca29 c6b4 793f 5324 daba de41 8c3f
00000760: b209 ff21 5230 b43f 16da 3684 ee58 84bf
00000770: 1b19 1550 ca7b ba3f e702 762d 8174 ba3f
00000780: 3d81 02cd 5ac6 b43f 374f 8045 6743 c03f
00000790: f85e 6cd6 61fd a1bf e135 c676 9108 ba3f
000007a0: d900 ac96 71ac b03f 4ef7 6f37 e16e 953f
000007b0: 8771 1be0 3eeb a8bf c755 eb91 b91d bc3f
000007c0: 0e08 6253 e806 a93f 8f31 1446 f7b9 b9bf
000007d0: c6ad 2c77 561a b3bf 0199 1d40 fbdc a8bf
000007e0: aff0 8bae ecaa c43f d67f 4108 ee26 903f
000007f0: 4a07 40aa b883 bb3f 457a fec7 20c4 923f

layer2.bias f8 [64]
0.05343056156314332 0.015042922128010167 0.10347536849624876 0.08056970365017616 -0.06912809960749139 -0.028065986036535526 -0.0033805394814079947 0.10210179315443317
0.03912707207070687 0.051936317592567637 0.05188238672856696 -0.0646214742137408 -0.04280185404652618 -0.0428876972345372 0.019013145937377518 0.04960167805805349
0.022025132640197717 -0.11079763135188166 -0.05802755704532496 0.07611717555336676 0.02819005792851305 -0.09778694946053303 -0.08108103087981065 0.04747409265730955
-0.12977944227636792 -0.10185363412195296 -0.10067220732714766 0.08484743302248106 -0.007169266453143025 -0.08426689567872457 -0.08208133401008774 -0.08801264275411556
0.08733067101874084 0.11586931198061293 0.06717883838933764 -0.11107582565191342 -0.02074439985813528 -0.11292500765266154 0.0926680833249728 -0.0005208503008672708
0.0975386441234764 0.055609713746542326 -0.0015731369606533923 -0.09334294877163939 0.040112293480099426 -0.004543480399413454 -0.06142702394809269 -0.08985946997009545
-0.058212128119522324 -0.016006008581122853 0.041210965721533675 -0.05236532527439874 -0.05751500077899984 0.008513605679691253 -0.010789300767808159 -0.0870015117743764
0.06499797984241622 -0.11585332782575855 -0.07533483713716756 0.10828297994733563 -0.0375129779589109 -0.04120941103108571 -0.04459377198564966 0.045815528371210716
00000000: 138e 0a25 405b ab3f fdce 9bd4 d2ce 8e3f
00000010: 2b08 a29b 5c7d ba3f cad5 3952 37a0 b43f
00000020: 8c7e 0c0f 61b2 b1bf bcad a070 54bd 9cbf
00000030: 97d8 7e50 81b1 6bbf 4b14 76d6 5723 ba3f
00000040: c024 ddad 7608 a43f 6bca 11a3 6597 aa3f
00000050: 44a9 7904 5490 aa3f f308 5e6e 088b b0bf
00000060: b50d ade6 1fea a5bf 0cd2 0b52 60f5 a5bf
00000070: 90fe fa9f 2e78 933f 2010 2c22 6465 a93f
00000080: 0cd3 84a1 c18d 963f bd6e 21cb 3b5d bcbf
00000090: 368a 8db7 c9b5 adbf d364 aa4b 6a7c b33f
000000a0: 0451 80c3 dadd 9c3f a199 e8c5 9008 b9bf
000000b0: af6a f4f7 b9c1 b4bf 76a7 bd36 864e a83f
000000c0: 4b93 22de 9c9c c0bf 6354 886b 1413 babf
000000d0: 3813 165e a7c5 b9bf cd29 fbb5 8fb8 b53f
000000e0: baae 3d4f 855d 7dbf 4758 13e9 8392 b5bf
000000f0: 0675 2f45 4803 b5bf f771 431e ff87 b6bf
00000100: 0a96 f687 4d5b b63f c216 9179 9ca9 bd3f
00000110: bc8f dde1 a132 b13f 3719 8d1e 776f bcbf
00000120: a704 dd1b 053e 95bf 8fcb c43e a7e8 bcbf
00000130: d985 4373 18b9 b73f 362d 1181 3511 41bf
00000140: 7c44 9be6 4af8 b83f 7f3c c35b e078 ac3f
00000150: 7da5 14f3 36c6 59bf 2751 49d0 52e5 b7bf
00000160: f843 5439 9989 a43f 95a3 9b3b 2f9c 72bf
00000170: 9934 e5e5 5c73 afbf 82e8 c1bc 0701 b7bf
00000180: 8a00 02e5 facd adbf 76e8 940d e163 90bf
00000190: ab68 058c 9a19 a53f 9ff2 febe a0cf aabf
000001a0: af1c c02e 9b72 adbf 6ff6 b8cf 946f 813f
000001b0: 8438 8e6f b318 86bf 7604 c627 bb45 b6bf
000001c0: cbaf ba25 b5a3 b03f 62f7 244e 90a8 bdbf
000001d0: 4ded c0d5 2449 b3bf ba54 96f1 6eb8 bb3f
000001e0: 98a7 04ab e634 a3bf 67f5 5461 6619 a5bf
000001f0: 163a 91b0 fed4 a6bf dfb1 0108 2275 a73f

custom_layer2.alpha f8 [64]
-0.6344032191874203 -0.9034756036140665 1.1199652857692546 0.12193316561962801 -0.37074944056488235 -0.3525418060257748 0.24193264274719192 -0.2955671160114452
0.5530421238537707 0.7229373060371117 1.311998913728213 0.3103856916399819 0.348914684405684 0.0804222615127479 0.46153151095972544 -1.8966961694185196
-0.04163210530718386 0.4116242001679378 -0.17903728813070513 1.760305795452063 -0.34868786991006523 0.3936076971987379 0.7306540341390173 1.0481557225106073
-0.1669937192330991 0.9780596979890854 0.8533779967770541 0.3788717116729184 0.6942020857461151 -0.8107675411329528 0.5701442196747554 0.5840619355111059
-0.21087294101389642 -0.902898888934278 1.1046615997471803 0.4660915446968152 -0.356585811934984 0.532873430542914 0.15963082063268202 -0.16068722503872843
-0.5770222077438172 -0.06953146541574835 0.0055620528097695306 -0.4433227220273688 0.5191351886751632 -0.9992532415410732 -1.312314458742238 0.9704726976331203
-0.27809634631675595 2.202160697081029 -0.16857453725680516 -2.2087547051049197 -0.40244392298681264 0.19955149511616882 -0.18223035287625847 1.2060652688950415
-0.3227988308443623 0.9259551179167027 -0.35134827377114886 -0.2753341171459548 0.6031087101890552 -0.6807048563287589 -1.297001485303806 -1.58195052291752
00000000: 0a63 dcfa 074d e4bf 6833 48ab 45e9 ecbf
00000010: 428c 30b8 60eb f13f 5b51 a20e 0337 bf3f
00000020: 4022 8fdc 5bba d7bf 649f d681 0b90 d6bf
00000030: a78e 371a a6f7 ce3f 53b3 4256 92ea d2bf
00000040: fb64 6865 85b2 e13f 8d9b cf6a 4d22 e73f
00000050: 6c9a ad92 f2fd f43f 315d aff2 5bdd d33f
00000060: f375 a741 9e54 d63f 004f 11a7 8d96 b43f
00000070: a64f 6976 bb89 dd3f c49d 2115 de58 febf
00000080: 4f16 84a5 cd50 a5bf 2da9 7d07 0d58 da3f
00000090: 9e98 a4a0 b1ea c6bf 63d0 e668 362a fc3f
000000a0: f7a3 71ed e650 d6bf 6c09 bb56 de30 d93f
000000b0: 5829 aa91 8461 e73f e0c5 54ef 3ec5 f03f
000000c0: 332d 5fd9 0c60 c5bf a2c2 0cda 434c ef3f
000000d0: f211 695f df4e eb3f 45f1 c022 6f3f d83f
000000e0: 9206 e34a e736 e63f 3761 3ac5 cef1 e9bf
000000f0: 5d35 3017 9f3e e23f 267a fba7 a2b0 e23f
00000100: 040d a270 e2fd cabf a328 f235 8ce4 ecbf
00000110: 99fa 40a4 b1ac f13f 6f8e 5aa1 71d4 dd3f
00000120: 7f9d 1e4c 4dd2 d6bf 43da a294 4c0d e13f
00000130: 8a87 0661 c86e c43f 0392 3624 6691 c4bf
00000140: c869 ea46 f776 e2bf 8deb 006a d0cc b1bf
00000150: 1455 aa2e 3cc8 763f 9099 2b44 665f dcbf
00000160: f200 3266 c19c e03f a3e8 1aef e1f9 efbf
00000170: 89da 2572 3dff f4bf 41d8 3fc2 1c0e ef3f
00000180: da52 249e 54cc d1bf 25ff 736d 069e 0140
00000190: 6c68 3ab6 d993 c5bf 797e 3a96 87ab 01c0
000001a0: 88f2 ec27 a4c1 d9bf 1a28 b244 e78a c93f
000001b0: bd95 f8fe 5253 c7bf 2eee 6b18 0b4c f33f
000001c0: f777 6a6d bca8 d4bf 9483 a0a0 6ca1 ed3f
000001d0: d499 5678 7d7c d6bf aa5a 27fd 129f d1bf
000001e0: 433b 46a3 aa4c e33f fb21 058d 55c8 e5bf
000001f0: 71e4 23a1 84c0 f4bf 3022 fd59 ab4f f9bf

custom_layer2.teta f8 [64]
-0.4852581668099654 1.7159766143732582 -0.16025460472871692 0.577253495567212 -0.12673218246651616 2.036087526340387 -1.3267717137204211 -1.844320907044986
-0.8302186929679427 0.4762275749888317 -0.9688504719392328 -0.14488134159312555 -0.40619567608201973 0.9325105760034211 -0.04377197190871421 -1.2693815414738336
0.020344447063177146 -0.3401651548500919 0.14989865516861942 1.086952322121119 -0.9321261356297229 0.04758415898540447 1.6382829325747592 -0.13594109090462472
0.7561028489633221 -0.019785280945884148 -1.1679521965148332 1.3584931695465607 0.9427496799631282 -0.7239364814446955 0.18441149272909033 0.7477000328867616
0.3274573298224991 0.38155175138967173 0.7744663522534638 0.07803328061991353 -0.7033420714591613 -0.28493070423907774 -0.9692993490084237 -0.6353429511330583
-1.1896057165625866 -0.13824716896808634 -2.5786061651048695 -0.9046440168210615 0.6967068886965785 1.6966041208640739 0.24001443499553085 0.2955299632656897
0.5044234207533612 0.0029247159955765553 -0.5296683939178588 0.8897245867489846 0.16301930438888193 1.5480194119488928 0.9615710950550315 -0.251445877108215
0.7372293483406422 0.6062725800257551 0.06877214481002854 -0.6980573153274904 0.6314534649258216 0.27781481648111966 -1.8672767206195717 1.0129486259909721
00000000: a934 2445 780e dfbf 73f1 f6e4 a374 fb3f
00000010: 7def 2b0f 3983 c4bf b8cf 9e52 dc78 e23f
00000020: 9fae 8599 c238 c0bf 6d67 cb41 e849 0040
00000030: 4bfe faf9 743a f5bf 7665 b1a3 5682 fdbf
00000040: de67 daca 2691 eabf 66f2 0139 837a de3f
00000050: 742e 76b4 d200 efbf ceb6 f8c7 788b c2bf
00000060: eb20 2326 1cff d9bf 6c7b 636b 20d7 ed3f
00000070: a4a1 a8a7 4769 a6bf 3f6b ec04 634f f4bf
00000080: d88b 2abb 2cd5 943f 9479 d411 44c5 d5bf
00000090: e7f0 d40e e12f c33f b724 3d1e 2864 f13f
000000a0: 41d9 8830 fad3 edbf c0c9 4c6d f35c a83f
000000b0: 990e 102a 6836 fa3f 3518 cf85 8466 c1bf
000000c0: 78b7 169a fe31 e83f 1b42 6bba 9742 94bf
000000d0: 4329 75a4 eeaf f2bf 77ab 7055 63bc f53f
000000e0: fd31 7860 012b ee3f fdf5 05d7 7c2a e7bf
000000f0: 0195 23b9 cb9a c73f beef 8e9e 28ed e73f
00000100: 6214 9b96 0ff5 d43f 77cf 7c09 586b d83f
00000110: 4efe d8a8 6dc8 e83f 3f1a 4334 fdf9 b33f
00000120: ff2c 5a3b c781 e6bf 4e51 15fe 4d3c d2bf
00000130: 03cf 8011 8004 efbf 218a 9bbd ba54 e4bf
00000140: d555 fc00 a008 f3bf 1dc3 bd4e 15b2 c1bf
00000150: 791d e344 fca0 04c0 d397 5802 d8f2 ecbf
00000160: e130 bb3e 6c4b e63f a3eb d55c 4a25 fb3f
00000170: 27d6 6f02 cbb8 ce3f c2b5 cd81 f6e9 d23f
00000180: b91b ef95 3c24 e03f 3586 a2f1 92f5 673f
00000190: fc43 b321 0bf3 e0bf 8f16 51b2 9f78 ec3f
000001a0: f1c3 7b0a d1dd c43f 604c be00 b0c4 f83f
000001b0: df49 c1be 30c5 ee3f 5234 b972 b017 d0bf
000001c0: 4cc8 9800 6297 e73f 5882 f5c0 9566 e33f
000001d0: a5b8 d520 0d9b b13f 8d15 824b 7c56 e6bf
000001e0: 55ac 99e5 dd34 e43f 955c c8cb b7c7 d13f
000001f0: 814a fa8d 5de0 fdbf be8c 529e 0935 f03f

custom_layer2.gamma f8 [64]
0.0968220643602349 0.02349212507006807 -0.045575496232974445 -0.0040335418539985115 -0.04823215334189241 -0.054004093833092515 -0.002302868365160866 -0.09432152229827331
0.018476733844634496 0.028692182052334283 0.05030003909839179 0.029543326885173908 0.04568611157491629 -0.0056505234937141114 -0.010428049809417054 -0.0647674968668979
0.024507345928739883 0.0045406650676485805 0.029789488499859938 0.020345016617815462 -0.029453127484597542 -0.019548415155240695 -0.015130833135959003 -0.059604096792543325
-0.028609067478551783 -0.0004213785489096777 0.01226155008897139 0.00603855372470988 0.0010339999295602288 -0.04573075000470009 -0.004846506302776148 0.009372743656343604
-0.012577274557391613 0.021028682863042963 0.007489811949645028 0.06990418599181805 -0.0028949297276653204 0.11190015137506262 0.11551679797785668 -0.04589258005543271
-0.04644803602244248 0.033167210855744346 0.07460264305269938 0.029702965762540754 -0.007653610651101478 0.005166337876639945 -0.01574768623404235 0.0032270336654635938
-0.003821816618771515 0.020116704519796757 0.05824002693550845 0.0020592973778408765 0.01681860881201661 -0.024715973176642064 -0.00020571334804563756 0.09032707969295295
0.005662065695159167 -0.0032362180239366447 0.012263026143823247 -0.035285668608547434 0.015277885122342924 -0.0010203275395353386 0.06769996333114077 -0.010739867088966966
00000000: c15a f5af 54c9 b83f e9d4 8ed3 510e 983f
00000010: 25a2 a3e3 ab55 a7bf ff7a 99a5 7985 70bf
00000020: e92b 7082 e2b1 a8bf 98fb b9b1 6ca6 abbf
00000030: 8f6b 170a 77dd 62bf 1a7c 948d 7425 b8bf
00000040: f0fd 659e 90eb 923f c73a 43be 7b61 9d3f
00000050: d589 d43d edc0 a93f 7ebe 251b 9b40 9e3f
00000060: fdfb 3086 2b64 a73f 1bc3 c5d9 0025 77bf
00000070: cfd9 2327 4d5b 85bf 9219 e348 9a94 b0bf
00000080: 3250 1a25 7418 993f 6074 7b7f 3b99 723f
00000090: b961 7cbb 2281 9e3f 1156 0af4 52d5 943f
000000a0: 4dbc 3eed f528 9ebf 701e 1fef 7f04 94bf
000000b0: 0f67 d70b eafc 8ebf a3f9 dc9c 6d84 aebf
000000c0: ccfb c104 b24b 9dbf b8b8 3816 8f9d 3bbf
000000d0: 1d0e 0b65 951c 893f 234c 34ec e1bb 783f
000000e0: 43f2 6af8 e8f0 503f 942b 6257 056a a7bf
000000f0: 6cdf 1f21 eed9 73bf 1e82 d25b 0432 833f
00000100: a5aa 2c37 1dc2 89bf 28eb b204 8b88 953f
00000110: 70d8 0716 a3ad 7e3f 5a38 b0a0 3de5 b13f
00000120: 9e32 2590 1bb7 67bf a2c6 9202 7da5 bc3f
00000130: c31a 7445 8292 bd3f ad2d ef74 3b7f a7bf
00000140: 6a11 5c77 09c8 a7bf 1d94 d9eb 4afb a03f
00000150: f143 1ba8 2819 b33f 4962 2d4a 746a 9e3f
00000160: 7ab3 1577 6459 7fbf bc29 8643 4c29 753f
00000170: 2797 7355 2920 90bf c6db cc81 946f 6a3f
00000180: 8723 722c ee4e 6fbf c333 1030 7999 943f
00000190: 7028 0306 a3d1 ad3f 6c82 7fdc a8de 603f
000001a0: 0950 3fbb e538 913f 1812 eee1 244f 99bf
000001b0: 0e6f 5434 98f6 2abf 8073 39ed ac1f b73f
000001c0: 18f2 d02f 1b31 773f 83c5 6a52 d782 6abf
000001d0: 83d6 e681 5b1d 893f a1e5 6191 f610 a2bf
000001e0: 6bbc 9e07 034a 8f3f d3fc 765a 90b7 50bf
000001f0: 1d99 72e8 c854 b13f 24b4 488f c8fe 85bf
