COLA_Emulators/PCE/LCDM_PNN_HIGH/MODEL_Z0.000.pth (torch, 60802 bytes, 12 tensors)

layer1.weight f8 [64, 19]
-0.16201249556216277 0.07381834049553743 -0.06158902330318668 -0.0757501655299116 0.24155228319488017 -0.3692982378672929 0.17784556739285137 -0.00922242738961664
0.14277100817870178 0.15288875372764194 -0.18940964089986426 0.023877565766666952 -0.1341762082137434 0.0709360804703799 0.21038558868832558 -0.15745874835857757
0.19501405050607884 -0.17406932579553594 0.07820788897542638 0.0926598603851799 -0.10323620555240966 -0.21331940257823692 0.3138575829415295 -0.07918506569342211
-0.07055585344873465 -0.13458317987031082 -0.050088091972100034 0.12179717700406349 -0.10847807667259408 0.16207809264855516 -0.027300125422785922 -0.19611436695750986
-0.2021038512746862 -0.0623642692421949 -0.10319086391014505 -0.218965359381337 0.2788480080193781 -0.012432078616015729 0.03141998434879403 -0.12538673327279973
-0.21340765815077595 -0.16154406396969634 0.1954610973966138 0.20379899363905127 0.19453335543225414 -0.11051755782251382 0.19876586385349476 -0.11358310383312743
0.11015433969502893 0.020442300470731322 0.0013832217703785277 -0.09970827333937243 -0.17604000445742465 -0.06660803062496011 0.11553898083906425 -0.20479654691118498
0.14025768404196998 -0.014428953703572245 0.059007046686997085 0.09057338340862493 -0.004856887321059179 -0.14321726593901893 -0.2804405234931265 -0.10669188004939464
0.10771116959405479 -0.2178435102445908 0.04458628077296801 -0.10844024739889904 0.10676620068841283 -0.19324309179615481 -0.21122491468269572 -0.212260189774403
-0.18674899134193643 -0.11802453634381517 -0.2176497627731166 -0.1393480345831847 0.08382840071419653 -0.26649680193867914 -0.30428438876313996 -0.01879041228995722
0.07216089530279815 0.04367765924352086 0.2589383251787412 0.026974141394872354 -0.07237366622606498 0.1485778652553967 0.12677922255233534 0.1437136824224625
-0.15192668716046898 -0.043421584431127785 0.009317436377942051 -0.10281134948288972 0.046046482200450184 -0.03745344155190475 0.17670523595869844 0.019174293728748956
-0.09134342152256221 -0.32025650600772604 -0.18020641496759288 0.01720362133424173 0.2808388298987725 0.07317036484158267 -0.11804769797891676 0.09408600475601392
0.012748710702390408 0.0500193630483784 0.050422282341275305 -0.09294592329927538 0.2293415337715188 0.2991092137038891 0.16188928801074431 -0.030878530534716894
-0.2596502684870716 -0.15886485064149838 -0.06317632036287192 0.1508021279717699 0.2020548476450682 -0.1146021331776154 0.33816846366149456 0.0636006868748893
-0.12022288569506166 0.015178060397845665 0.21362909518966458 0.13591832108695168 -0.20311507923923944 -0.2550923369975153 -0.016733292096641133 -0.05858808547053393
0.22271887846780375 -0.17794032540590488 -0.07179541096241022 -0.09738428328637166 -0.05491190102474455 -0.1120461318587142 0.3034493533989346 0.21219356118028027
-0.17888902114325292 0.3329437198155901 -0.14219082126968766 -0.028541481173868535 -0.1885090479171758 -0.05095029819882568 -0.07052086513866328 0.05818953845906459
0.15164804072484286 0.18594531127581593 0.08423983381534607 -0.3079718578464929 0.11653822574609565 0.11059882320648236 -0.22873696821854722 -0.06211802173420811
-0.012813619094013068 -0.06325031121329987 0.32895677427473335 0.17415036661150532 -0.08011485060016851 0.2296373219273558 -0.057169124649043085 -0.049212427077041265
-0.13544462274616367 -0.10449783671033935 0.04119650572330513 -0.03815794871307861 -0.004204159279713442 0.1940651969751876 0.12213398023465154 -0.02211504751837914
0.11455658702128801 -0.09023129698021148 0.15853950499013206 0.07650892708480922 -0.0949980135813653 -0.06196806837346415 0.061439203499024056 0.1462019096128495
0.052014922037231334 0.17296489521376662 0.20888522477430183 -0.15118260343106554 -0.06390045977867385 0.14500291129221285 -0.03653389611463414 0.1800252872716589
-0.15112116283403487 -0.12720989428410084 0.10141708373897824 0.055224384963555445 -0.1632862331745951 0.028848771184132597 -0.04508450175397736 0.11212755214936185
0.09955933860953595 -0.13534801556631823 0.07840595840237534 -0.1955401090388202 0.07624586917916769 0.25968670848942765 -0.2325398727062643 -0.34795748124192805
-0.06735556344743865 -0.24712656666608507 -0.028765701414326585 0.09650881550681528 0.08138160793063545 0.05936881676043337 0.017396702815023406 0.06372138494575418
-0.14619763108132167 0.04627256307364158 0.01962600640424279 -0.0013387499083769917 -0.002336988301261834 0.0644543529341682 -0.05278352343882028 0.04154747590140469
-0.059794229017419515 0.039876295502719435 0.09769345501753451 -0.1607891408394705 0.15338782488886063 0.030802386254055878 0.18219350239553364 -0.12711510303007995
0.16764279664922427 -0.0470436125988412 -0.07949496096356176 0.003194082719127609 -0.05864346967162031 0.007873932384660786 0.2220977016313771 0.21137134629949858
-0.12231483965552094 0.067850060151357 0.013762042729353531 -0.09992822491935013 0.16986957028362717 -0.0066836908315603925 -0.0012385147793573604 -0.17117367947592396
-0.14307819674303782 0.298047964371633 0.24202091853040328 0.1945701506154699 -0.23904786024330818 -0.021851846723082043 -0.2736668621581065 -0.037871875399544244
0.10379129031896439 0.34367607510583686 0.11197563290255874 -0.030996648365390213 0.024747052750418514 -0.23692698568913878 -0.10131470604976438 0.07809325995257017
00000000: 83cd fd50 d3bc c4bf acf8 453e c2e5 b23f
00000010: 0a71 c2b1 9888 afbf 3418 9ee3 5c64 b3bf
00000020: 574e 4c6a 2feb ce3f a411 8713 95a2 d7bf
00000030: 1f6e d8bf a4c3 c63f 7aa0 3940 35e3 82bf
00000040: 7be4 7805 5246 c23f 9edc 97d2 db91 c33f
00000050: 8123 9b3a 933e c8bf f3be 4d50 5c73 983f
00000060: c7f3 169d af2c c1bf 6709 baf1 dd28 b23f
00000070: 0ca8 7b3b eaed ca3f d5a7 55b7 9b27 c4bf
00000080: 9e90 976c 38f6 c83f 09a9 c356 e747 c6bf
00000090: b64b 70a5 6e05 b43f 269b 017e 8eb8 b73f
000000a0: 0159 9c1e b06d babf 2580 d6d8 0c4e cbbf
000000b0: 7378 951d 3e16 d43f c11f 7cf3 7845 b4bf
000000c0: 0b8b 1acb f20f b2bf e23c 118a 053a c1bf
000000d0: 1be0 e079 25a5 a9bf 6b42 fa8b 192e bf3f
000000e0: 2d4b a41f 38c5 bbbf ce6b a995 f9be c43f
000000f0: 9f62 7867 90f4 9bbf 11db 2d8c 461a c9bf
00000100: 176a cffb 89de c9bf c817 aba1 35ee afbf
00000110: 8d74 bd69 b76a babf 20f7 bf90 0e07 ccbf
00000120: d1de bf50 a5d8 d13f 93e0 9d58 fd75 89bf
00000130: f413 70ba 4716 a03f 4525 6127 ac0c c0bf
00000140: a69c 3c30 f150 cbbf 806f ced3 79ad c4bf
00000150: 91b7 7a86 de04 c93f 8b97 51de 1516 ca3f
00000160: c005 c80f 78e6 c83f a842 7bf0 e04a bcbf
00000170: eeed 67ea 2871 c93f 9169 5744 c813 bdbf
00000180: f5ab 8026 1333 bc3f 533d e88f d3ee 943f
00000190: fbbd 1411 a7a9 563f 941b 223d 7b86 b9bf
000001a0: b156 f796 7a88 c6bf 4f67 2f51 390d b1bf
000001b0: 8af0 1d70 f693 bd3f 489c a8f3 c536 cabf
000001c0: 068a fcba f6f3 c13f 0dc1 2d62 ed8c 8dbf
000001d0: 3126 82ef 2b36 ae3f 05cc a037 d12f b73f
000001e0: 9bd6 44c3 d0e4 73bf 971e b780 f154 c2bf
000001f0: fd11 38cf bcf2 d1bf 7697 8fb7 2850 bbbf
00000200: 1704 d28e f592 bb3f e0bb 12d0 4be2 cbbf
00000210: e153 8a53 03d4 a63f e2fe 2574 bdc2 bbbf
00000220: 3a60 469c 0755 bb3f eba0 b88b 30bc c8bf
00000230: 0acf 5402 6b09 cbbf c172 a986 572b cbbf
00000240: 07f3 2f15 64e7 c7bf 59e5 b823 db36 bebf
00000250: 66dd 8b8a f2db cbbf cdf8 a509 28d6 c1bf
00000260: 0220 8b2f c775 b53f 812c 349a 480e d1bf
00000270: 41f2 9a3a 6579 d3bf 550d 0e39 cb3d 93bf
00000280: 3227 60ed 2279 b23f 0194 080c eb5c a63f
00000290: 9db7 940d 7292 d03f 8dbe 83fc 1b9f 9b3f
000002a0: 6e56 88a1 1487 b2bf e338 1778 9904 c33f
000002b0: d558 5633 4d3a c03f 9f00 ffbe 3565 c23f
000002c0: 1036 5f6c 5572 c3bf f4f6 249a 5a3b a6bf
000002d0: 10e2 3424 0515 833f 80c7 af37 d851 babf
000002e0: b426 4b8e 6793 a73f 9c18 2df5 182d a3bf
000002f0: cfbe bcf4 469e c63f 8f9b f411 6da2 933f
00000300: d5e6 2450 4862 b7bf 309a e824 157f d4bf
00000310: 0259 68f9 0011 c7bf 8b6a 037c d39d 913f
00000320: 382d 776d 43f9 d13f afee 0704 4bbb b23f
00000330: 2602 30ba 5f38 bebf b039 7039 0516 b83f
00000340: d971 43fc fe1b 8a3f 5148 eb50 239c a93f
00000350: 2d79 4a0b f3d0 a93f f5ed ddd4 4dcb b7bf
00000360: 31e2 9439 105b cd3f 3497 b2f8 9a24 d33f
00000370: 7818 cac6 c9b8 c43f df3a 2e1b 9f9e 9fbf
00000380: 842c e328 1c9e d0bf cd9c fef4 ae55 c4bf
00000390: 5114 d7c5 522c b0bf a629 e7ef 7b4d c33f
000003a0: 5c21 51e9 eedc c93f cbb8 0cbe 9056 bdbf
000003b0: 60bd fd56 8da4 d53f 317b 2176 2248 b03f
000003c0: 5781 4a52 edc6 bebf 4f24 34c8 ac15 8f3f
000003d0: ad26 a8bc 3258 cb3f 9872 ff83 c565 c13f
000003e0: fc17 54c7 acff c9bf 9c54 37cf 6e53 d0bf
000003f0: abea 3c39 8822 91bf ecf8 0fee 41ff adbf
00000400: 3e4a 9c5d 0d82 cc3f d004 21a3 bfc6 c6bf
00000410: 6520 161e 2f61 b2bf 64ff db27 2dee b8bf
00000420: a4fb 1fa6 691d acbf acfa f927 0eaf bcbf
00000430: 2fcf 35d6 b66b d33f 4675 d89a 2829 cb3f
00000440: 953c b6df d5e5 c6bf 1a0f 012d f34e d53f
00000450: 3185 920f 4f33 c2bf 1779 e260 fa39 9dbf
00000460: 7ff5 e681 1021 c8bf e086 f850 2816 aabf
00000470: 8fc8 74c9 a70d b2bf 0e52 4de9 04cb ad3f
00000480: e134 b5f7 3369 c33f fc17 6353 0ecd c73f
00000490: 11e4 41e3 bd90 b53f c37f 6298 cfb5 d3bf
000004a0: 7237 50fc 72d5 bd3f 95de a558 3450 bc3f
000004b0: d242 f1c2 4047 cdbf 8168 aeef eecd afbf
000004c0: 5d14 9ed7 063e 8abf 5379 1f22 2c31 b0bf
000004d0: 46b0 d3b6 a00d d53f d566 9728 8f4a c63f
000004e0: 1e6c 4027 6882 b4bf f23b cf79 c164 cd3f
000004f0: fccb 6a81 4545 adbf 1892 b409 5f32 a9bf
00000500: 0192 8ed8 3f56 c1bf b474 2cc7 5ec0 babf
00000510: 7007 9559 b517 a53f 6a38 9c4b 7089 a3bf
00000520: ac13 d169 6138 71bf e66d 26dd 20d7 c83f
00000530: 4390 d62a 2c44 bf3f 471b 5db7 53a5 96bf
00000540: 483d cc9a 9453 bd3f 500d 9bf5 6519 b7bf
00000550: 2d40 87c2 054b c43f f469 aecb 1696 b33f
00000560: 6155 8431 ca51 b8bf 52e2 1e56 47ba afbf
00000570: 1af2 7093 f574 af3f 2031 3382 beb6 c23f
00000580: 8e98 1b2a b3a1 aa3f 024c 26b4 b623 c63f
00000590: 60f9 8244 c0bc ca3f c2f3 ba98 f359 c3bf
000005a0: 6fe2 f2d0 c75b b0bf 7794 e994 748f c23f
000005b0: 5700 0422 92b4 a2bf ac73 a490 110b c73f
000005c0: 9c86 0d32 f057 c3bf 26c3 d6ef 6948 c0bf
000005d0: 8d23 ea51 78f6 b93f 246a b8de 5e46 ac3f
000005e0: f39a af33 90e6 c4bf 1103 1043 888a 9d3f
000005f0: 9df8 2dd9 5015 a7bf 7e48 7629 64b4 bc3f
00000600: 72df 5687 b87c b93f 77c9 3772 1553 c1bf
00000610: 4355 26b3 6912 b43f 8662 b052 7507 c9bf
00000620: f361 946a d984 b33f 24c0 0a00 b59e d03f
00000630: 540b 25d6 ddc3 cdbf 8e49 9574 ef44 d6bf
00000640: e8dc 35d6 363e b1bf 56dc e6e4 d7a1 cfbf
00000650: 0abd 488b c174 9dbf d4a1 603e cdb4 b83f
00000660: 5ad7 8ed0 6cd5 b43f 5fcc c6ec 9665 ae3f
00000670: ab53 98f6 70d0 913f e7d8 6570 0b50 b03f
00000680: 0c9c 1f9e 9ab6 c2bf 40ef 3492 09b1 a73f
00000690: b315 a1fe d618 943f 9f73 bcc4 1fef 55bf
000006a0: 02d8 660a 0525 63bf 65e5 ef99 1480 b03f
000006b0: 9bf0 df25 7106 abbf daac 74f4 b545 a53f
000006c0: 941b 3d64 599d aebf 61be 2372 aa6a a43f
000006d0: 0c64 5532 7002 b93f 2c8e ba12 bd94 c4bf
000006e0: 1d49 c055 36a2 c33f 0954 6626 a98a 9f3f
000006f0: d78f 2adf 1d52 c73f 32c2 2bc5 4e45 c0bf
00000700: d25a 82b4 5175 c53f e607 32b3 1916 a8bf
00000710: 0e09 8921 c859 b4bf 484b 381a 7a2a 6a3f
00000720: c726 ba50 8406 aebf 660d aa50 3520 803f
00000730: 0c03 838e b26d cc3f af7b d55d 370e cb3f
00000740: 61cd 227c 0650 bfbf d2b7 611d 9f5e b13f
00000750: b4fe 961b 462f 8c3f 46d7 f969 e594 b9bf
00000760: 8d14 7a3c 49be c53f fc2a 9c98 5b60 7bbf
00000770: a4da 441e b54a 54bf 7f7d a4e5 04e9 c5bf
00000780: 9d18 e4e7 6250 c2bf f564 e7c4 3713 d33f
00000790: 6b9a 049d 8afa ce3f 1ceb d5b8 ace7 c83f
000007a0: a93e f6ca 1e99 cebf 5fa1 219c 5460 96bf
000007b0: d5f3 bd03 c283 d1bf 2af7 8e44 f163 a3bf
000007c0: 7093 87e5 1092 ba3f 46d2 bfef c9fe d53f
000007d0: b0f0 4361 6faa bc3f 6a52 0fdc 95bd 9fbf
000007e0: b515 f198 4a57 993f 2290 899b 9f53 cebf
000007f0: 636c 16b5 c2ef b9bf e5c8 887d ebfd b33f

layer1.bias f8 [64]
0.02646882162148038 0.1045264557745475 -0.1573564193480074 0.1344769849829904 0.13994511852576724 -0.09032421588116993 -0.034158750348548365 0.2346653402718504
0.09273506443939948 0.15680101273656757 -0.15971339500959378 0.013672122717926248 0.1602002619533437 -0.047559553576594124 0.02708289211114759 0.16918657122431227
0.04256230841707831 -0.06826126162926574 0.21514354522870796 0.12160129129464509 -0.04358154504985555 0.4482072303821385 -0.17314888564518882 -0.09811112426512092
-0.08505934098172936 -0.16517282872840447 0.053712411664780836 0.14693386631490432 -0.24477711503889463 0.08467660899362246 0.1631771552987656 -0.06549294914355144
0.0854544196710366 0.5844794902842599 0.1720153788497153 -0.2172053361393737 -0.42425547788562024 0.00038591843802411477 -0.06451229323732417 -0.1596152088794441
-0.03825385474776279 0.06306578220485835 0.21208417763022125 -0.11725627510411703 -0.15128001260475432 0.02024003576970759 -0.03479441456336166 -0.04318230891445853
0.06339355361121313 0.052239563039295785 0.019050338354443055 -0.1363998708029837 -0.11294122162809857 -0.12691425949196145 0.1211212677274781 0.21470187959192003
0.024881005164292043 0.09510393252483873 0.011504150225623408 -0.17343651675000726 -0.005529899907234887 -0.01621214244561648 -0.18969362580027424 0.12614396681947113
00000000: cb62 e98c a41a 9b3f 2c54 1eed 3ec2 ba3f
00000010: 4d2a 7551 4124 c4bf 3b87 48b6 8a36 c13f
00000020: 2ac9 a6bd b8e9 c13f 9218 3fe1 7c1f b7bf
00000030: 870d 3d77 417d a1bf a174 fc8c 8309 ce3f
00000040: 27ad f534 7cbd b73f 5174 d73a 0e12 c43f
00000050: 9b50 2610 7d71 c4bf 2cec 853f 2100 8c3f
00000060: 343b f332 7181 c43f 0e9a 72ce b959 a8bf
00000070: e809 981f 9ebb 9b3f 8557 2ad3 e7a7 c53f
00000080: c021 6315 baca a53f 9209 48ee 9179 b1bf
00000090: 45f5 59dd d289 cb3f ec09 4321 4321 bf3f
000000a0: fe84 65fd 5150 a6bf 049c 1461 6daf dc3f
000000b0: c8ab 9720 be29 c6bf 30ad 1786 cf1d b9bf
000000c0: 0560 bcef 72c6 b5bf 69c4 c91c 6224 c5bf
000000d0: b5a2 fa76 3180 ab3f 2ba9 3f9b bace c23f
000000e0: 375d f343 db54 cfbf 3521 5dc2 5dad b53f
000000f0: 9333 bb30 fde2 c43f 52ad b05a 25c4 b0bf
00000100: a727 c941 57e0 b53f 4584 fe54 0eb4 e23f
00000110: 24c7 4895 9904 c63f 361e 9e6b 62cd cbbf
00000120: ccb9 aa72 0027 dbbf ea0c fb11 a34a 393f
00000130: d5ee a4ad e083 b0bf 036c 0a6b 456e c4bf
00000140: b3d6 2c5e 0296 a3bf cf07 1140 1425 b03f
00000150: 94de 7507 9325 cb3f 9dad d2da 8104 bebf
00000160: 7c83 56b9 245d c3bf 2795 cdce cdb9 943f
00000170: 4426 44d1 92d0 a1bf 2353 1bd9 fd1b a6bf
00000180: f091 8957 8f3a b03f 4149 9fdd 24bf aa3f
00000190: e71b d790 ee81 933f 2a83 230c 8d75 c1bf
000001a0: 1552 4345 b7e9 bcbf 00ff f4f8 b93e c0bf
000001b0: 0755 bdab cd01 bf3f e156 9ee7 597b cb3f
000001c0: 4293 e3fd 677a 993f c848 ea37 bb58 b83f
000001d0: e509 e6e7 7c8f 873f cccc aff3 2a33 c6bf
000001e0: 2d13 0734 85a6 76bf f276 6876 ea99 90bf
000001f0: 0b32 8977 e147 c8bf 33e6 094a 7c25 c03f

custom_layer.alpha f8 [64]
1.1954335178276598 -1.2121330654999294 0.10231679281099473 0.16939804538487696 -1.1018613623962072 -0.4579542896386618 -1.7744905882215871 0.1750137490683559
-0.2408355317190465 -0.5934458298425992 2.736780922813298 -0.9631763541461035 1.8027926567908952 -0.6469220413536191 0.0534207446589898 0.5856021802744227
0.4033722560350164 1.066280760406412 2.0681194336773854 -0.9361060148302385 1.7936871519112088 1.8977657189137362 0.8544031225838303 -0.36395600954148455
-0.5300061382659882 1.184967418395422 -0.062220882213626955 -0.652857855002128 0.2948560886888898 1.3887528039989248 -0.7039072537983796 -0.908775495639455
1.2753002685474482 -0.06930336196708088 1.5118197767306807 -0.10462710048819074 -2.8524250849514647 0.3572223135505539 -1.455878395707321 0.37981444558407035
0.15507124177197504 0.2832383020369938 -0.3906579540823841 1.0629937290276799 -0.6205000278063137 -1.2129272612444124 0.08973337291060053 -0.18019742003991335
1.5378063730798524 0.9818756297223669 0.08590310943816167 0.1784993970255523 -0.08587555736944308 -0.24842053000466494 0.8544394606234897 0.12851828639386817
1.6528642058483842 2.0765743706578967 -0.8583052565075003 1.9431730300837544 -0.10304529555486071 1.6663731326038227 -0.9904785693770738 -1.4624228555337535
00000000: e2ca 79e5 7e20 f33f 0b8f 2ba4 e564 f3bf
00000010: c26f f4ee 6e31 ba3f 7299 77cc d5ae c53f
00000020: c27b 4361 39a1 f1bf d6e6 4382 1f4f ddbf
00000030: 588b 373e 5064 fcbf 09aa 4cbc d966 c63f
00000040: 895a 39de b2d3 cebf b1e3 e31b 82fd e2bf
00000050: 0666 7e65 ede4 0540 21d1 aa37 57d2 eebf
00000060: 6e2c e61c 3dd8 fc3f 7f9c 55da 95b3 e4bf
00000070: 1c06 7abe f659 ab3f 90d6 97c8 40bd e23f
00000080: 412f f2dd d9d0 d93f f6ca 246a 7c0f f13f
00000090: 69ee 9e33 828b 0040 cc1c e999 94f4 edbf
000000a0: a66c 8b4c f1b2 fc3f 5445 2396 3f5d fe3f
000000b0: 6d21 a337 4557 eb3f 2a74 8a25 0e4b d7bf
000000c0: 7803 d16e cff5 e0bf 9957 4d65 a0f5 f23f
000000d0: 3cba 785c 6adb afbf 9a77 0528 36e4 e4bf
000000e0: 187f 7c12 ecde d23f 7975 36dc 5438 f63f
000000f0: 1766 4f81 6886 e6bf 4faf 2559 b014 edbf
00000100: 65dc 1f41 a167 f43f 41c6 2679 ddbd b1bf
00000110: 9811 28ef 6930 f83f f440 df76 d7c8 babf
00000120: a440 313e c4d1 06c0 3478 86fa badc d63f
00000130: 1641 0825 474b f7bf bb3e 953f e14e d83f
00000140: 97f9 fadb 5fd9 c33f 254d 0e8b 9320 d23f
00000150: e530 2d38 8a00 d9bf 796e 60b6 0502 f13f
00000160: f20b d3df 22db e3bf ac8b 776a 2668 f3bf
00000170: e5c3 022e c4f8 b63f 748f f284 b510 c7bf
00000180: 5d55 ffda da9a f83f fdb3 cc70 866b ef3f
00000190: 7d5f a905 bffd b53f bc4c 4a78 11d9 c63f
000001a0: 9872 6dc6 f0fb b5bf f133 0372 3ecc cfbf
000001b0: c845 796c 9157 eb3f bbf3 7f86 4973 c03f
000001c0: ae90 cdbc 2172 fa3f e57f 0d06 d39c 0040
000001d0: 49e8 d595 3c77 ebbf fadc 6a9a 3c17 ff3f
000001e0: 152f 6a2e 2d61 babf be76 b7df 76a9 fa3f
000001f0: f7a0 db1c 00b2 efbf e50b 1782 1566 f7bf

custom_layer.teta f8 [64]
0.014020155818584625 -0.41654211924593054 0.7960676230777126 -0.04881392699885782 -1.2568185775569707 -0.8510751522309664 1.2690526262110657 -1.5508814795622343
0.5067590457582962 0.09959135810709666 -0.9066375812139009 -0.6913685732139148 0.452993184633155 1.6144711624616357 0.9972900902989466 0.09856337596104464
1.110930719077884 -1.4066430042770863 -1.4019541566096576 1.68645632440136 0.3215484656070161 -1.6006858979394085 0.27246965356153774 -0.8221207492999534
0.594221135336247 0.10776615658304668 0.46353581041670644 -0.5934367455811751 -1.77841268305752 -0.13509230441517478 -0.3649314616859565 0.9194738489897264
-0.12328694621337852 1.0767602328906851 0.6241067364078325 1.4437262961335247 1.4867254071094131 -1.513278543846057 1.8234073746530455 1.7903888929919793
0.631329893222956 1.8328696195412997 0.8877425283244322 -1.6302663132962165 1.206520824434648 0.29272744152072877 1.364321204777201 0.073702575939683
-0.5361855797889731 -1.168497470564534 -0.7129783457333376 -0.1194221179011345 -1.9383209998321003 0.7272340930256812 0.09583074922215337 2.5327410265629693
0.6925838541115314 -0.9529899177908836 -1.5549700601250414 1.861220863383773 -0.28655784724820466 -0.01951505993223678 -1.729126525943254 0.9934571099772237
00000000: 011f ce75 99b6 8c3f e656 e446 a0a8 dabf
00000010: 4ebe d0ce 6279 e93f 564e 1998 23fe a8bf
00000020: 82cc f9cb ed1b f4bf a9a5 28f5 013c ebbf
00000030: c9ab 6720 0a4e f43f fa11 2b19 69d0 f8bf
00000040: 567d 0fbf 5e37 e03f a2c1 08ba d17e b93f
00000050: 886c 14d1 2c03 edbf 44f3 6dfc b01f e6bf
00000060: cddb 5320 d7fd dc3f aab9 b1b6 dfd4 f93f
00000070: 00af 4ee8 cce9 ef3f ac06 560c 733b b93f
00000080: fcfa 284a 5fc6 f13f c146 4818 9c81 f6bf
00000090: 6c13 527b 676e f6bf b5fa 76a0 b9fb fa3f
000000a0: 821c f703 4094 d43f 2817 edd0 689c f9bf
000000b0: 96c0 cc8e 2470 d13f ee66 732c d04e eabf
000000c0: b68e db0a dc03 e33f f9c9 2316 9096 bb3f
000000d0: 60ef 901a 92aa dd3f 9881 d00e 6ffd e2bf
000000e0: eb60 88db 6074 fcbf 16c5 b362 b44a c1bf
000000f0: 1140 4e7d 095b d7bf 0f05 de6b 546c ed3f
00000100: 9e9a 02ba bb8f bfbf a261 1ef0 683a f13f
00000110: c6b7 c2b0 aef8 e33f 984c a4be 8019 f73f
00000120: eaac 9a94 a0c9 f73f c5ea f88f 6336 f8bf
00000130: 86b8 1636 ad2c fd3f e95a e8d2 6ea5 fc3f
00000140: 0f27 8cbf da33 e43f 8430 1c18 6f53 fd3f
00000150: 4e7f cd04 6368 ec3f 390b 3621 9215 fabf
00000160: 803c aec7 e84d f33f 434a fee0 0bbc d23f
00000170: 4d1e bc78 42d4 f53f a1b9 4a09 2cde b23f
00000180: 59f9 38a9 6e28 e1bf ca88 5867 2ab2 f2bf
00000190: a8c9 b5f6 b7d0 e6bf 0cef cdaa 7292 bebf
000001a0: bedc 76e1 5c03 ffbf d59b c26e 8045 e73f
000001b0: 563e dc2d 5d88 b83f 769a 32ba 0d43 0440
000001c0: 76b1 649d a529 e63f de8b 4ab6 e47e eebf
000001d0: 76f0 2749 28e1 f8bf e9db 2d87 8fc7 fd3f
000001e0: 08f7 95b9 f656 d2bf 9df5 c080 c1fb 93bf
000001f0: 6f28 7993 80aa fbbf 5596 aa90 66ca ef3f

custom_layer.gamma f8 [64]
0.05303320303957328 0.0433695148170287 0.0025330168373432936 0.11673384934752286 -0.04143954911971416 0.05919777482065794 0.014467963732871202 0.04633937220608533
0.008378410927877214 0.026168214846984603 0.11237324318367582 -0.020920823491679705 0.08786334183173686 -0.014471351409160484 0.0005114297515024561 0.112699661054743
-0.003026913938871907 -0.0001660710148386279 -0.031329935109706664 0.019464414941737788 0.06303050231856078 -0.02006472557440523 0.017604593215841596 0.00954337946003493
0.015314111122713862 0.10010488908663355 0.03561473172051035 -0.09174959199152763 0.15633718698802365 -0.03541543046845472 0.06562712294993195 -0.005944214524290615
0.09827529187370079 0.012381352796111921 0.018393830261183394 0.006516968586648537 -0.029719635296071658 0.0016372834908599963 -0.02099896700517566 0.008995875789243466
0.0026261768915484527 -0.02242650030091595 0.002793438656394373 0.03762770019944875 -0.0005184939535761543 0.0061966379207258485 0.007826420369862246 0.03481871636914998
-0.04400008032268166 -0.006671039022013084 -0.11626921862689281 0.05991472886600315 0.2719805734588886 0.003036602794146926 0.034616374469179166 -0.008930464601794627
0.04974857587303536 0.1455284338265709 0.13458061868529278 -0.02941644806195694 -0.05301384792015759 -0.022794370453812447 0.11374423480725816 0.0014998327811262854
00000000: c36e 5001 2b27 ab3f 35a7 906f 8734 a63f
00000010: e65c 400f 1fc0 643f 39a7 4801 45e2 bd3f
00000020: 42d7 7588 9037 a5bf b48e b3b5 2b4f ae3f
00000030: 4c44 9438 61a1 8d3f 94dc 4850 cbb9 a73f
00000040: 5be4 6b47 b328 813f bc99 d92b d7cb 9a3f
00000050: 095a 6b2c 7ec4 bc3f 2901 cfb2 446c 95bf
00000060: 8a40 af43 367e b63f 5409 40e8 27a3 8dbf
00000070: 2ca5 4807 2fc2 403f 9c1a 808e e2d9 bc3f
00000080: 2924 020c e6cb 68bf 1c09 b427 6bc4 25bf
00000090: 182e 5d2d 7a0a a0bf c130 71c6 7aee 933f
000000a0: d8d1 1b5a c422 b03f aac5 94f0 d88b 94bf
000000b0: 5856 7c40 f006 923f 47b2 64b5 7a8b 833f
000000c0: 42d2 8333 015d 8f3f fbfa cb58 79a0 b93f
000000d0: d3a5 fd17 183c a23f 6e63 06b9 e67c b7bf
000000e0: b78f a160 db02 c43f 4c84 45a7 f821 a2bf
000000f0: 74ef cc6a f0cc b03f 813d b7ef f558 78bf
00000100: da36 9acc 9128 b93f 2660 b70a 655b 893f
00000110: 6c09 ae0d d5d5 923f 94ef 2d6f 89b1 7a3f
00000120: d72b 95f6 d26e 9ebf c7a3 0ac3 43d3 5a3f
00000130: 9ce6 25d2 c080 95bf 126a 8202 6e6c 823f
00000140: 3d55 9bfb 7d83 653f 59b7 6cf5 f8f6 96bf
00000150: 13e8 85f5 43e2 663f c486 8f1b f043 a33f
00000160: 64bb 7149 71fd 40bf d14a 6f53 a561 793f
00000170: 3c36 445c 4c07 803f db3a 3040 c2d3 a13f
00000180: a1bb 03b4 2d87 a6bf 2ad0 e066 1753 7bbf
00000190: d3b2 88cb d1c3 bdbf 036f 0eb2 24ad ae3f
000001a0: e2ce 0935 2168 d13f 9b40 23b6 37e0 683f
000001b0: 1b9f 80c8 3cb9 a13f d8eb 38ab 224a 82bf
000001c0: dd65 cb34 a578 a93f 252c f6fb aca0 c23f
000001d0: 3be2 f60d f039 c13f 35f6 8f69 581f 9ebf
000001e0: 3cb9 1a8e a124 abbf b233 874e 6857 97bf
000001f0: 6110 9b98 571e bd3f 9359 a42f c192 583f

layer2.weight f8 [64, 64]
-0.08366113673124116 -0.12273285925607264 0.004479821673258724 0.14651916252409836 0.06275820548520793 -0.11052683144431757 0.126459987560143 0.1159783191776885
-0.09705123245834688 0.03925500586075394 0.07333028526031524 -0.08612395474579537 -0.1947372620989207 0.18711469764402816 -0.03971353694869447 0.09785684297840694
-0.10723814841703741 -0.08989626691179495 -0.39027125488334063 -0.1514688648727438 0.03029137865626922 -0.3257794427236319 0.07636893715971182 0.09094430868325017
0.007501299606749353 -0.11449726538091931 0.10704818096178303 -0.20642396493274068 0.2436092829117108 -0.10994760197986059 0.07417490917881155 -0.07977941945839645
-0.05885974603282289 0.05744671943622281 0.10850598546496933 -0.03254280488454298 0.151585738365357 -0.0572480254566694 0.004675690866272159 -0.1031187090286408
0.15394207599254756 0.17072627436675164 -0.10727405270165609 0.29768507049288695 -0.12072432369329163 -0.1595620010431526 0.14769269199929463 0.1407691110808281
0.015759184685043302 -0.20802907044726915 0.1374394160574654 -0.07383869071559303 0.0697782238537135 -0.00018516454277168475 -0.16584216470675095 -0.11471871388135486
0.09781279905115829 -0.13332338861855686 -0.1080560053869322 -0.10252377910682677 0.03025340846413799 -0.031786035991077384 -0.02571017338440954 0.002191648003275497
0.06593825223719096 0.10399652843134186 0.10569089197172972 0.12375736224410916 0.18135441792302928 0.2060175849874722 -0.2182980968616044 0.06540879001300406
-0.015709699108744767 -0.08268789266268388 -0.21173287041936467 -0.03981519381192311 0.1501306150145021 0.10900063749889592 0.04453298464320678 0.015841385655203582
-0.10557657733917117 0.0045822600606795025 0.18336201556246212 -0.015544151166411614 -0.052985973546939666 -0.24083583192876076 0.0006918437916488443 0.2244814934432935
-0.06975977659195165 -0.006428698776068604 0.11079098163159914 0.05634738495603598 0.23432851761860923 0.01495983197586164 0.1688144912262321 -0.16448086805622766
0.06665753196054534 -0.07137271063011451 -0.00971147435566826 0.08363402424194377 -0.19359930598119934 0.12171005956816792 -0.16652564419147453 0.02630775728732874
-0.13014283748858857 -0.09068575494955347 0.025457150566635663 0.00251833417916488 0.027490233618937807 -0.13156625966972077 -0.10419417094162968 0.03574676731077323
-0.01895553763720659 0.11052279525914134 0.16218004259207214 0.027753431209210214 0.19666984585556613 0.16819348819256558 -0.04070222873848244 0.05548655054285565
-0.06343149198171644 0.13317583648526712 0.16194094902620373 -0.03230777999987238 0.2211597627521821 0.09396318089327092 0.08733149967251619 -0.24892384726318656
0.014904630328083571 -0.06093856967347293 0.021678061958107158 0.008399532796631104 0.05716080886527034 -0.1549030608335489 -0.07275399582882036 0.10491632491148219
-0.12285237299773474 0.017954699569697134 -0.024079694371726898 0.110395969688825 -0.14634992542272332 0.010663572925425661 0.1093944264661682 -0.10090897787943354
-0.06639392122041805 -0.1004127293258605 -0.15780812096979166 0.026571736310000052 0.1186549349220602 -0.12829940388025426 0.03202373256066463 -0.13222312098156605
-0.029195436263945825 -0.021821911692226335 -0.10831706444007168 0.07991421103870579 -0.05715868477638371 -0.018711896732220377 -0.13605263606076207 0.03360291892539198
0.1478014009315892 -0.09087496196388072 0.1285587646720527 0.09772353293497348 -0.08739508897709088 -0.07612680238377047 -0.049057532167755845 0.034890934552525565
-0.06821689946514993 0.023805073183244575 -0.03154952245612652 -0.1401983257549446 -0.02172246839104309 0.0791989563433658 -0.021807406914455464 -0.09319175609356241
-0.060087284322885307 0.13999693768358512 -0.03759172232695137 -0.07404050485551368 0.07040021018131035 0.12074731582864609 0.01676650224126959 0.08165215660346076
0.13418517522699525 -0.10156889872086991 -0.02883616786379115 0.08551799109043462 -0.02636743024706953 -0.176211923560994 0.06307768448709626 0.043573512782859314
-0.06465641202183775 -0.000142043318042634 0.0853818960358992 -0.060015068994086714 -0.01744332411474113 -0.16654696946433595 0.01937873470708995 -0.09598602595460287
-0.1514910204671869 -0.006807948441821178 0.16984121738667174 0.04974622784807477 -0.010400276811051937 -0.14013670643200607 0.01834527215780547 0.02336004133771441
0.0504875315643639 -0.028720178418464113 -0.08671252483442739 -0.13226773009509812 0.17958623530128195 -0.06706733025320676 0.006163694543200962 0.0014768528663042337
0.04411682120325319 0.035507184862718144 -0.11846551664563215 0.07840252998935276 -0.010275993013951266 0.06966810847800178 -0.08472570391568837 0.0860581436563026
0.15190166531765384 0.07157760639440004 0.043947475978066156 -0.07819744371153096 -0.11044649953090449 0.03690553678230152 -0.1216347852925301 -0.02521247556384602
-0.03407736144763777 -0.045266921532610964 -0.09435968312553038 -0.11576349734926174 0.12427957253858617 0.07146448720289866 -0.045366536874176515 -0.2192897685201355
-0.03704523620837608 -0.008482211625490555 -0.14827307133616296 0.040000073165084846 -0.05926700843186663 -0.035520187185864124 0.05380035918075646 -0.1262424444731411
-0.06015079277429453 -0.06875648784672168 -0.10303094638126722 0.22340204595947827 -0.13094119548447716 0.04926251143471161 -0.104655194777373 0.08062717852604478
00000000: 1df5 34f6 d06a b5bf 443f a6b0 6b6b bfbf
00000010: 43c6 41f9 6e59 723f b49f a3d1 23c1 c23f
00000020: 7757 1df8 eb10 b03f e443 6286 7c4b bcbf
00000030: 8d64 6943 d72f c03f e6c8 e94f c1b0 bd3f
00000040: a6f1 717d 59d8 b8bf c3a0 c06c 3b19 a43f
00000050: fed8 ff08 c6c5 b23f 580e 0931 380c b6bf
00000060: 4f83 038e 26ed c8bf 22b3 7dd9 5ff3 c73f
00000070: 1b67 ce2c 5555 a4bf 6a35 4864 250d b93f
00000080: 7ab3 5594 f573 bbbf 662c 6b16 7103 b7bf
00000090: b3bd 1249 34fa d8bf 88ce 7eee 5463 c3bf
000000a0: 2abc b702 b404 9f3f 3241 0d05 92d9 d4bf
000000b0: 70ff 8727 ea8c b33f 8d48 8d4f 2048 b73f
000000c0: d6d6 d0c7 aeb9 7e3f 10e0 4a5a b14f bdbf
000000d0: f8bf 5374 8267 bb3f 3a96 3fb9 196c cabf
000000e0: b4cc 8dc7 962e cf3f bcf1 c6aa 8625 bcbf
000000f0: 0155 1b79 20fd b23f ccb9 778d 6c6c b4bf
00000100: e60f 8658 dd22 aebf cf6c 7b0a a869 ad3f
00000110: 0507 fe5a 0cc7 bb3f 5100 6655 73a9 a0bf
00000120: 3adc 6856 2967 c33f 1fa6 31fa 9c4f adbf
00000130: eda2 b535 d126 733f 953d e2da fc65 babf
00000140: 2ee4 eeba 5fb4 c33f 3e8f 7cca 5bda c53f
00000150: 5520 10f4 4f76 bbbf d68f 91ae 450d d33f
00000160: f52a 180e cae7 bebf 8613 1514 876c c4bf
00000170: c661 ff18 98e7 c23f eb87 30e4 b804 c23f
00000180: f6e5 55fb 2c23 903f 401a 1853 b2a0 cabf
00000190: 9ef6 9262 9d97 c13f e18c cda9 17e7 b2bf
000001a0: f3b6 6c55 fcdc b13f 3599 a84f 1745 28bf
000001b0: c04e dbe8 503a c5bf c50e 5ca4 345e bdbf
000001c0: db10 0e75 420a b93f 044d f4a4 bd10 c1bf
000001d0: 43f5 45f1 8ea9 bbbf 817e 5396 ff3e babf
000001e0: d1b4 c8df bffa 9e3f 2931 1a62 4246 a0bf
000001f0: 692e 7187 c453 9abf a4fd f20f 38f4 613f
00000200: b004 ea4c 54e1 b03f 0699 8238 849f ba3f
00000210: 15ef 80ec 8e0e bb3f d848 7aff 8fae bf3f
00000220: 9f75 fb1e 9f36 c73f 2a07 f6c2 c85e ca3f
00000230: 505a 6629 31f1 cbbf 820e fa65 a1be b03f
00000240: 63b5 9b0f 3416 90bf 2bea c2a2 082b b5bf
00000250: 823d f80c 101a cbbf a0ba 9c36 a862 a4bf
00000260: b8cd cee0 7a37 c33f 6308 4d3d 77e7 bb3f
00000270: 428d 4501 07cd a63f cbeb 3f65 b938 903f
00000280: fa35 e50a 1107 bbbf ea5e a311 d9c4 723f
00000290: 7caf 1512 6878 c73f 0105 3ba7 9cd5 8fbf
000002a0: 8ec8 0f3f fa20 abbf b363 eb62 b5d3 cebf
000002b0: 9ce2 c23a 9bab 463f 28b6 7240 cfbb cc3f
000002c0: 28e8 09d7 c6db b1bf bb1b fcaf fa54 7abf
000002d0: 16a9 cc3a cc5c bc3f 31dd 337f 90d9 ac3f
000002e0: 4a96 d813 7afe cd3f db47 b8a8 42a3 8e3f
000002f0: 762a 7497 b69b c53f 9541 8f86 b50d c5bf
00000300: 4f78 cdcf 7710 b13f dfb3 fb61 7b45 b2bf
00000310: da3e 0706 9ce3 83bf 90b7 f316 0a69 b53f
00000320: a0d8 dbaf dcc7 c8bf 9f82 70f5 6328 bf3f
00000330: 24b5 df59 b650 c5bf cb81 b8b4 6bf0 9a3f
00000340: 943b 693f 85a8 c0bf d2ad b87f 2e37 b7bf
00000350: bf3d 8874 7011 9a3f adc2 135e 54a1 643f
00000360: 0c34 6959 6626 9c3f 63ed 44c7 29d7 c0bf
00000370: 53cd a01c 78ac babf 4532 1379 664d a23f
00000380: c16a eb98 1469 93bf 69bb 19cf 384b bc3f
00000390: 5a98 7fcd 50c2 c43f f4d4 943d 656b 9c3f
000003a0: e48d 073e 7a2c c93f 32f7 973d 5d87 c53f
000003b0: 47b8 9c2a ecd6 a4bf dd19 e6af bb68 ac3f
000003c0: cc13 99d7 0b3d b0bf 592c 29e3 e70b c13f
000003d0: 1db2 f923 7bba c43f 27fa 0235 a58a a0bf
000003e0: 551a 1b8e f64e cc3f 97f8 f694 f80d b83f
000003f0: 280c 016f 5b5b b63f 2a4e 9893 bcdc cfbf
00000400: 1572 8b9e 5186 8e3f f60a a017 5733 afbf
00000410: 7b59 9a1c c632 963f 0d41 4e35 c633 813f
00000420: 75e4 6079 2e44 ad3f 414a 2a0e ddd3 c3bf
00000430: 60f4 bc80 01a0 b2bf 11b3 4fd8 cbdb ba3f
00000440: 36e2 42cc 4073 bfbf 4e6d d87d b762 923f
00000450: 2c06 4cef 58a8 98bf 4d78 6c07 e942 bc3f
00000460: a537 bb27 98bb c2bf 8f24 c987 c8d6 853f
00000470: 4470 09ec 4501 bc3f a86d ddb7 2bd5 b9bf
00000480: 4d7e 4b28 31ff b0bf fd81 8e0c a6b4 b9bf
00000490: 3fe2 4d77 0e33 c4bf d42b cc09 9f35 9b3f
000004a0: 4ccf ff78 2b60 be3f cf88 e167 1d6c c0bf
000004b0: b57a 1628 6a65 a03f 4708 32ee afec c0bf
000004c0: 5fce c88f 68e5 9dbf 999d 37b4 7b58 96bf
000004d0: cd6b 5ec9 aaba bbbf 299a e5fa 4175 b43f
000004e0: aa08 9833 e743 adbf b947 0b22 3629 93bf
000004f0: 2e31 353b 2c6a c1bf 8a5d abdb 6634 a13f
00000500: b3ee a603 28eb c23f 13fd a8dd 9443 b7bf
00000510: 5fb8 f014 9d74 c03f af5a 01d2 6804 b93f
00000520: 5dd4 fc48 865f b6bf 815c 96ce 0b7d b3bf
00000530: abe2 90a0 111e a9bf 50f2 a87d 39dd a13f
00000540: 3dc2 3ca8 a976 b1bf ea24 346b 5b60 983f
00000550: 1095 4e4e 4227 a0bf ff24 09cc 04f2 c1bf
00000560: 42cb 4f2d 6a3e 96bf 2641 5fff 6146 b43f
00000570: 9a58 084e ae54 96bf 9dbc ad38 6adb b7bf
00000580: 6afd 24b2 c2c3 aebf 2411 726e 6beb c13f
00000590: 2b38 fde3 383f a3bf ed0a ef8a 51f4 b2bf
000005a0: 9e39 5c88 bf05 b23f 6256 90cc 4be9 be3f
000005b0: 14a2 2deb 3c2b 913f f47d 42de 27e7 b43f
000005c0: e49e 9ad5 fa2c c13f d6ff 4b5a 6b00 babf
000005d0: b9f4 aa77 3a87 9dbf 2cfa f3ce 81e4 b53f
000005e0: f8e6 5c4a 1000 9bbf 570b 6ec0 1c8e c6bf
000005f0: 87bf faef db25 b03f 9899 bf78 444f a63f
00000600: 5c49 1c97 528d b0bf d0e8 abcf 2e9e 22bf
00000610: 6108 2583 96db b53f f18d 318d 4bba aebf
00000620: bce4 6caa a9dc 91bf 2672 8c3d 6951 c5bf
00000630: 8020 38df 04d8 933f 4418 594a 8a92 b8bf
00000640: 79a9 45c9 0e64 c3bf 684f 91be a6e2 7bbf
00000650: 7223 1865 5bbd c53f aae7 696b 5678 a93f
00000660: c2b9 2e86 bd4c 85bf 791c 8ce5 ffef c1bf
00000670: c3e3 d05f 1ac9 923f 8094 50d6 b1eb 973f
00000680: ad73 d971 80d9 a93f 499c 2b8c d268 9dbf
00000690: a144 51c2 ca32 b6bf 8a8c 8923 26ee c0bf
000006a0: 5d23 b787 aefc c63f 3f4b 1116 532b b1bf
000006b0: 69f1 c427 1a3f 793f 2f03 c1b0 5e32 583f
000006c0: bcfb 8ae0 7a96 a63f 184d 846b ff2d a23f
000006d0: 245d b28f c153 bebf 9459 3a2e 3012 b43f
000006e0: 5f46 6e6f 940b 85bf 02b9 7ce7 c4d5 b13f
000006f0: 52ce 726f 95b0 b5bf 10ec 8e10 e807 b63f
00000700: 3da6 5f86 8371 c33f 4104 97f6 e852 b23f
00000710: 9294 2298 4880 a63f 0330 5f67 bf04 b4bf
00000720: d262 71c7 3846 bcbf 28e9 0a53 48e5 a23f
00000730: 8e2c e310 7523 bfbf 2bde fd97 4cd1 99bf
00000740: e534 e781 9672 a1bf 8775 25d7 392d a7bf
00000750: 8bc7 15c9 f427 b8bf 8987 2f33 ada2 bdbf
00000760: d334 9d3b c9d0 bf3f e0a2 5c23 7f4b b23f
00000770: e72b 6a60 483a a7bf 2419 12e8 af11 ccbf
00000780: d1a2 f9db 97f7 a2bf 7ade 3b2c 1f5f 81bf
00000790: f415 22ac 9cfa c2bf 96cd 29bc e37a a43f
000007a0: d3ab e4cd 3e58 aebf 7e46 9fb4 b32f a2bf
000007b0: b488 637e b88b ab3f d68a 3061 b628 c0bf
000007c0: 1990 96af 15cc aebf 7d82 b072 069a b1bf
000007d0: 0af8 2e71 3c60 babf 86b2 a030 7098 cc3f
000007e0: 5509 275c aec2 c0bf c0d3 0f97 ef38 a93f
000007f0: 3ce2 ecce aeca babf 5c28 f096 fba3 b43f

layer2.bias f8 [64]
-0.0895422334250367 0.09264813772149155 -0.07714252979453264 0.09477142447754763 0.07587447403043943 0.010974210841918757 0.037647900376733205 0.00815689497688122
-0.07307173082852479 0.06665217014867099 -0.1284587954207585 -0.12044756093838471 0.0765649176730021 -0.0018993654920338957 0.006547226043568163 -0.09139474914368419
0.06439486914034136 -0.09060911010725188 -0.07141642977786138 0.1302945458108141 0.11999581497309078 0.12320709479631935 -0.05441412485615541 0.03970613048355694
0.12706155339610145 0.00485148231752802 -0.05562334676705827 0.0640825688440185 0.0408789682748826 0.08467109925932008 -0.03346721069392636 0.026733659375092977
-0.03500363255329558 0.07350321869901735 -0.09820885869482063 -0.052061562102616935 0.10677340036748947 -0.05530996409693318 -0.054017424013690585 -0.09542666864004883
-0.11335084381199376 -0.028543695529470246 0.055600927669047846 0.032765580095360625 0.05616961538766746 0.06733222841095467 -0.09937656211516768 0.05304585919420406
0.10396242600562974 0.05836478801232747 0.08806578544049769 0.041309465478983905 0.1165037076914045 0.061979248737660815 0.12029022685908916 0.03162774707619458
-0.033643670427770306 0.07067485063835402 -0.029867675503144075 0.10697280389671636 -0.08501449277746888 -0.09009475566275273 0.09758764453554496 0.11830080717709449
00000000: 54dc 2b64 3dec b6bf 7c92 8cd1 c9b7 b73f
00000010: 2925 99e2 9cbf b3bf 6af5 b9a8 f042 b83f
00000020: 36db 8f70 826c b33f 49d7 52a5 a579 863f
00000030: 2724 c3e9 9546 a33f 4407 4de9 8fb4 803f
00000040: 57ae 2b36 d4b4 b2bf d9f7 feda 1d10 b13f
00000050: 769c 9b7a 5671 c0bf 2803 1dbf a6d5 bebf
00000060: 8f2d 6d29 c299 b33f edd0 f82a 841e 5fbf
00000070: fc4b c99b 43d1 7a3f c126 9972 a565 b7bf
00000080: 53eb fca0 2e7c b03f fd5b a19c 2832 b7bf
00000090: bb01 4bde 5848 b2bf 3364 8dde 7dad c03f
000000a0: ea5e f7b4 0bb8 be3f 930d c90a 808a bf3f
000000b0: 2532 650d 2bdc abbf ea52 c1a7 5c54 a43f
000000c0: b725 3590 8d43 c03f be25 41de 25df 733f
000000d0: f064 84ce a97a acbf 1ec1 6d19 b767 b03f
000000e0: 7370 ab8f 16ee a43f c332 3c52 01ad b53f
000000f0: 1467 d63e 9d22 a1bf a0ab df82 1160 9b3f
00000100: 787e 1d02 ffeb a1bf 2a88 7660 1bd1 b23f
00000110: be90 453c 3724 b9bf f204 3825 d0a7 aabf
00000120: a63c a966 8055 bb3f f9e6 e06d 9651 acbf
00000130: 601e 1bfb 2ba8 abbf 3ba9 f9d4 e16d b8bf
00000140: 2682 2597 8f04 bdbf c666 39fb 8e3a 9dbf
00000150: 3980 ee8b b977 ac3f 8859 e36d a6c6 a03f
00000160: 68e4 3c8a 43c2 ac3f 09ea fd56 af3c b13f
00000170: e207 460c be70 b9bf a7ca daac d328 ab3f
00000180: eefd b413 489d ba3f 8078 804f fde1 ad3f
00000190: b70d 5db4 7a8b b63f 49b5 7ea6 8326 a53f
000001a0: 28b7 65de 2fd3 bd3f 11c2 b77c bebb af3f
000001b0: a661 631e 57cb be3f c744 ad16 8331 a03f
000001c0: 44cb 6840 be39 a1bf ca33 243c bf17 b23f
000001d0: a363 f9c5 a195 9ebf cf3d 4cd6 9162 bb3f
000001e0: 494e 2a82 82c3 b5bf 91d5 1c2d 7310 b7bf
000001f0: 4b1a c6fd 80fb b83f 7a80 ea31 f648 be3f

custom_layer2.alpha f8 [64]
1.489132331051996 -0.014918887840385992 -0.5611819195861408 0.4699430640804803 -1.535755576907669 -0.42344416655018363 0.29021931666845247 -1.528631025247469
0.8017930059590819 -0.8329167718083741 -1.5645531295970416 -0.4324207446030842 -0.6293415213548149 -0.7383541258712808 -0.1920561862204646 -1.2019472898882035
-0.8817469549454389 2.6667948698263046 0.18427445231578027 -0.6389949899703197 0.5433513010929085 0.4563536541245442 0.6141602083220361 1.6060035324511075
-0.4025347287514173 1.0120518290279696 0.9286258762211662 -0.3791905848732132 0.43203056763077186 -1.7447412213905442 -0.7243659204829134 -1.1365606603951677
-1.589508489191559 -0.7808964524513071 -0.38997019117945814 1.0360340179719203 0.22978114822223902 0.6427347480793243 2.0980192911434017 -1.2017657702616786
0.7621092063432559 0.04086684711764822 -0.7130970647933739 0.2896705013348313 0.21454593940868077 0.16308609762276305 0.7041032982939807 -0.8207629340062923
-0.14149235350266048 -2.215643940727134 1.361253805053641 -0.8403751485461965 0.8061399182265819 0.5205915839586476 1.3507212092046028 0.19944697332884814
-1.0456049371213472 -1.1500833243062734 2.3331540973474585 -1.0882677349359817 -0.209783522286172 -0.37247324400242027 -0.6846641770333919 -1.4440486643387296
00000000: 978d 546c 7cd3 f73f 4aec ef3a cb8d 8ebf
00000010: c753 f7c8 33f5 e1bf e14a cd12 8c13 de3f
00000020: 237d 9770 7492 f8bf 05f6 c08f b519 dbbf
00000030: ca8a 700a f492 d23f d96b 51ce 4575 f8bf
00000040: 6e2f 58ce 49a8 e93f 9c9e e612 41a7 eabf
00000050: 7494 c7dc 6808 f9bf 6aa9 0b0f c8ac dbbf
00000060: 6b7b 87d4 9023 e4bf 717b efd4 98a0 e7bf
00000070: 58db 670f 4c95 c8bf e35e d914 2d3b f3bf
00000080: e8d2 da63 4537 ecbf 405b 788c 9855 0540
00000090: 92a0 1725 4e96 c73f 335f 079f a572 e4bf
000000a0: e2db 8d44 2263 e13f 3600 f8f4 e534 dd3f
000000b0: 18ed 274f 33a7 e33f 2c35 92c2 30b2 f93f
000000c0: db75 df05 21c3 d9bf 8983 3842 5d31 f03f
000000d0: 29db 129d 4db7 ed3f eed1 3e96 a844 d8bf
000000e0: c02c b689 63a6 db3f 0fb0 5dc5 75ea fbbf
000000f0: 1ef4 5970 012e e7bf 1a14 253b 5a2f f2bf
00000100: 81ac 1c74 a06e f9bf b2e7 9a8e 1afd e8bf
00000110: 03f6 6188 45f5 d8bf dab9 0b68 9893 f03f
00000120: 4309 6dfa 7769 cd3f a51c 6076 4891 e43f
00000130: 40b4 8e56 bec8 0040 599e 8bbe 6e3a f3bf
00000140: 8f31 a7d8 3263 e83f f2cb b8d7 7fec a43f
00000150: 0228 85ef b0d1 e6bf 6c56 7624 f689 d23f
00000160: 1efc 9fc8 3d76 cb3f 806b dc57 01e0 c43f
00000170: 49b5 e5a3 0388 e63f da6e eaa0 b043 eabf
00000180: a2c8 76e3 6b1c c2bf 6107 c887 a3b9 01c0
00000190: d72c e411 b2c7 f53f d810 6c6c 5ae4 eabf
000001a0: a910 19f1 e5cb e93f 7b9b 75ae afa8 e03f
000001b0: ebc1 b8d7 8d9c f53f 2ee6 dd79 7a87 c93f
000001c0: a28e 173e ccba f0bf 6220 99c5 bd66 f2bf
000001d0: fc15 05b2 4caa 0240 fd78 ad6d 8b69 f1bf
000001e0: d3b9 babb 2fda cabf ef06 6804 9ad6 d7bf
000001f0: ce3c 23d9 c4e8 e5bf 5dad b2c5 d21a f7bf

custom_layer2.teta f8 [64]
-0.24607386955266644 -1.2250051368525654 0.5665673737270228 -1.6326787358299975 -0.8903235897872664 -0.17015749858800244 -0.6897038992861334 0.17565140732503218
-1.4993208503511495 -1.3895794357531797 0.17349284255697137 -0.5713025672746194 -0.018720820481051375 0.2463227200295572 -0.6905388480153496 0.12737611681585792
-1.6729527886351978 0.22570718460084166 -1.3725904693785225 -0.6125234320905455 0.3721079750929198 0.48284535337804013 -1.531780923119198 -0.24525018597875997
-0.7176525290996969 0.1679363190291209 0.151574676497885 -0.41247687021593393 1.271291364335097 -0.27212050699917395 1.1102421233751762 -0.6279931863692324
0.955493065759343 1.7586012411474372 -0.13671052777229373 -0.8639786815216683 0.7168272996214033 0.2412688873041584 1.7716369407979908 1.6866410934493585
-0.23491020538832483 0.02693992494356857 -1.223861161222517 -0.06750916835025662 0.6119631400061482 1.933042325067967 0.7951922392439406 0.22690653555316906
-2.6742086615350225 1.8338240470378344 -0.1556703751812556 1.8729064887300764 -0.0035298146816045936 1.3532684244094113 -1.6104760559545914 0.38892763530221347
-0.5235097826557534 -1.699099617813882 -0.4421019656188748 -0.5924014652409048 -0.41762122431782284 0.8656047234603225 -0.23745902757059076 -0.050204992887608914
00000000: e57e 103b 597f cfbf 9d6b 83fc 9e99 f3bf
00000010: e96b a4e6 5121 e23f 3d3b f4bc 731f fabf
00000020: cfcb 9fe5 877d ecbf bc64 cd8d b8c7 c5bf
00000030: a171 6be9 0d12 e6bf b18b facc be7b c63f
00000040: 6c81 27dc 37fd f7bf 8c10 7ca5 b73b f6bf
00000050: 83a6 6f72 0335 c63f 2f17 5252 1c48 e2bf
00000060: 3bb1 e1fe 8c2b 93bf 87f4 64bd 8087 cf3f
00000070: 78fd 1aed e418 e6bf b4fe 0150 dc4d c03f
00000080: f50a af24 6ac4 fabf d29a 2a18 f9e3 cc3f
00000090: 4083 8c6c 21f6 f5bf 2c9a 9bbd ca99 e3bf
000000a0: 3eb6 e6f7 9dd0 d73f 1431 7232 f0e6 de3f
000000b0: 36f0 96b6 2c82 f8bf c2ef 0eac 5b64 cfbf
000000c0: 12ff cb6f 02f7 e6bf 8d35 05f3 ef7e c53f
000000d0: b3e7 3a8b cc66 c33f 92c4 fb62 0566 dabf
000000e0: 781a 189d 3557 f43f 1979 8821 6c6a d1bf
000000f0: 909b a83e 8dc3 f13f 4b22 b22a 8518 e4bf
00000100: 8cb7 9f31 6693 ee3f 9aee 160e 3b23 fc3f
00000110: ef83 e606 bb7f c1bf dc74 b29e b6a5 ebbf
00000120: 1e20 18ce 3ff0 e63f f0bf 411e e6e1 ce3f
00000130: 45ce 11fa 9f58 fc3f 5946 075f 7bfc fa3f
00000140: 13db d1a0 8911 cebf 2377 5bc2 2396 9b3f
00000150: 86b9 e470 ef94 f3bf 3d98 3ee6 4748 b1bf
00000160: 4fe2 15b9 3395 e33f 2536 ffc9 bded fe3f
00000170: 52be b2fe 3672 e93f f389 b9fa 450b cd3f
00000180: 68c8 bf82 c764 05c0 7655 4ae2 5757 fd3f
00000190: 8005 2ec1 01ed c3bf 6cfd 58cb 6cf7 fd3f
000001a0: b532 cad3 8eea 6cbf 13c4 98ca fca6 f53f
000001b0: 7c0e 758a 82c4 f9bf 438d 88bc 30e4 d83f
000001c0: 998f 7496 97c0 e0bf ef81 b214 832f fbbf
000001d0: 0225 f50a 664b dcbf 45fd e9ea f3f4 e2bf
000001e0: b5df 235f 4eba dabf 83ce 50ad 08b3 eb3f
000001f0: 871f c7b2 0e65 cebf bdac 1805 78b4 a9bf

custom_layer2.gamma f8 [64]
0.05476293356686459 0.0011838320896664521 -0.0017243414650751996 0.12374188005615797 0.1387740329081764 0.06242874191195161 0.14296236627981598 0.03354612493515331
0.031663833342682274 0.016152415369150547 -0.003627671369872407 0.005018318220331797 0.10475212933844515 0.004178558733596783 0.027079012849054663 -0.03951730735831381
0.022033422636422936 0.13117952722840656 0.037898244238652755 0.006113032237691619 -0.000483862091875235 -0.001360447102974386 -0.08680459274013956 0.027843083541531553
-0.06003429249962393 -0.01792198455354527 0.006114306254049689 0.04785881772614163 -0.0066188802253393676 0.026420823733364983 0.004867661062374336 0.0411484054775632
0.0019522797010078973 0.029608547513793194 -0.018161836348912153 -0.011434871819894785 0.0006144386362775812 0.027245850638127053 -0.0036153004165081484 0.00708576839267655
-0.007797513549379548 0.052983388673834966 -0.2594056052571838 -0.0020896709217885228 -0.001319892330991139 -0.004872746902604489 0.0020348973733736115 0.019811903489387234
0.04128133285316468 -0.039566737601737414 -0.01680426549671145 0.0030645924097532627 0.0028372051238486364 -0.024342986983298634 -0.03743043441757401 0.004109747449539945
-0.0596771247274232 -0.04164597240001278 0.05740297694870692 0.002698012056146129 0.031507126312116725 0.002509246943676208 0.02223370255431825 -0.03319469180552876
00000000: d3c8 6721 e309 ac3f 470c fb06 5a65 533f
00000010: a8d0 c68c 6940 5cbf da9b fc3f 8cad bf3f
00000020: 61f4 6ff6 58c3 c13f 443c aff9 a8f6 af3f
00000030: bd83 dd3f 974c c23f 120e 022b f52c a13f
00000040: 2c7b 58f1 3d36 a03f f831 0c3f 428a 903f
00000050: fa97 9d3c c7b7 6dbf da28 328a 168e 743f
00000060: 79ea b119 09d1 ba3f 34f4 ae51 891d 713f
00000070: ddec 60ca 99ba 9b3f 6eba 75cd 9c3b a4bf
00000080: bfcc 91f6 ed8f 963f 4de5 aca1 7dca c03f
00000090: 1363 290f 6667 a33f cefb a498 fa09 793f
000000a0: 46c0 41dc dbb5 3fbf dd72 2cf4 204a 56bf
000000b0: c324 f666 d338 b6bf c635 ecb4 e582 9c3f
000000c0: b648 d995 d0bc aebf 91c7 2506 245a 92bf
000000d0: 46c7 6196 500b 793f 7e02 eb71 f380 a83f
000000e0: 52e0 a921 661c 7bbf 0605 7977 0f0e 9b3f
000000f0: ef72 22d1 1cf0 733f 770b 9e5f 6711 a53f
00000100: 9978 fb5d 74fc 5f3f 2ae5 03fd b351 9e3f
00000110: 2d93 9d34 0499 92bf c5d1 0084 2a6b 87bf
00000120: 012e 92ec 4822 443f 4c13 c515 56e6 9b3f
00000130: fe54 bba1 d59d 6dbf c09b 3778 f705 7d3f
00000140: 208a f41a 49f0 7fbf aab6 2b83 a320 ab3f
00000150: dca2 bef7 199a d0bf 816b 9788 5b1e 61bf
00000160: 7a93 5599 07a0 55bf 51f8 6909 72f5 73bf
00000170: 325d 6b35 7dab 603f 25d4 3b56 9249 943f
00000180: bc4a 14ad d322 a53f 5a8b 0468 1742 a4bf
00000190: 247a f72a 2335 91bf 7d5e 9d85 ea1a 693f
000001a0: c3d4 01e7 0c3e 673f 24bf eb33 5eed 98bf
000001b0: c3a8 65f7 142a a3bf f1de 3fee 61d5 703f
000001c0: b814 0c06 008e aebf 71b4 eff2 9e52 a5bf
000001d0: 351f 6049 ec63 ad3f a099 7331 241a 663f
000001e0: 81f5 33ba b321 a03f 7411 f1b1 458e 643f
000001f0: 87f1 5b85 6ec4 963f 393d 6907 e5fe a0bf
