COLA_Emulators/PCE/LCDM_PNN_HIGH/MODEL_Z0.000_4.pth (torch, 63922 bytes, 16 tensors)

layer1.weight f8 [64, 19]
0	0xbf914e2c36e74b03	-0.01689976773361491
1	0x3fc3040fc02ee323	0.14856144794409784
2	0xbfc1662215a8283a	-0.1359293561693578
3	0xbf9a9cfbee247bdc	-0.025989471826615915
4	0x3fc90bea4b4ac986	0.19567612339376356
5	0x3fc78a8d5929addb	0.1839157758107451
6	0x3fd23bf9a0946e46	0.28491058999654617
7	0x3fb28b097d5eb2e2	0.07243403731144896
8	0xbfd8637f90f902be	-0.38107289464464233
9	0xbfd2ca0c176a2791	-0.29358198439205646
10	0xbf9de53d5a98aa51	-0.029194792418062502
11	0x3f904e1cd7067746	0.015922976135349452
12	0xbfce60f544b7ac0c	-0.237333925775005
13	0xbf39d6fb7e3cef0c	-0.0003942836758488034
14	0x3fc308555d48b8aa	0.1486918168533909
15	0x3fa4bbadbedfbc13	0.040494374799770715
16	0xbfa73b374f58bd1e	-0.045373657642239204
17	0xbfa17771cc58ac49	-0.03411441440069802
18	0x3f70909e23a705d2	0.004044168216240833
19	0xbfa5d05a93050536	-0.042605238386850194
20	0x3fb99626d765eb19	0.09994738348715905
21	0xbfb1fb8623e87208	-0.07024420143756782
22	0xbfd7eec512a8f374	-0.37394835302602947
23	0x3fd3bee25ad1000e	0.308525646865747
24	0xbf9cfaf3048539dc	-0.028301045561699087
25	0x3fd114642939fb71	0.2668695833780737
26	0xbfc43d38682de42b	-0.15811829649808948
27	0xbfd4676adb90ad1f	-0.31881209794910775
28	0xbf98fbaf5ea065c1	-0.024397602224871088
29	0xbfa1cac9e8396eac	-0.03475027999658428
30	0xbfb4a2891492f837	-0.08060509445474016
31	0x3fb372f6edae0617	0.075972970034876
32	0x3f86812e513c878b	0.010988580564631941
33	0xbfbdf9bfca6b96ef	-0.11709212009335677
34	0x3fa9f184778a5d6d	0.050670756904930815
35	0x3f9c925bce67a3bd	0.027902063820792956
36	0x3fc4cb2f12e07e04	0.16245067998623608
37	0xbfa10c99cd963656	-0.033299261423149915
38	0xbfc1013ccfce9bdd	-0.1328502669032038
39	0x3fd9aad4b7da8cf4	0.40105169252838313
40	0x3fbc44cf4a3858b3	0.11042495309843296
41	0xbfded0ab0c7d0f5d	-0.48148609370786294
42	0x3fdc9ce49b871452	0.44707598865745013
43	0xbfd86d80d1677b66	-0.3816835446322585
44	0xbf9e2e60fa5e514e	-0.029473796159053926
45	0x3fcca26467551957	0.22370581670311182
46	0xbf967f3747bc4fd9	-0.02196966529216113
47	0xbf71b0c10683b33d	-0.004318956380512881
48	0xbfd099485e1a4126	-0.2593556326837806
49	0xbfd76bf22d991299	-0.3659635014812835
50	0xbfd46f8cd3765cab	-0.31930847788448585
51	0xbfb05b56d9844405	-0.06389372644868281
52	0xbf9280e6d5e1f452	-0.018069845966682437
53	0x3fac34e16aa7308b	0.05509094645421538
54	0x3fcedf15ca52189f	0.24118301752986768
55	0xbfba250d0b84548b	-0.10212785273718532
56	0xbfd0bcb8cf6d6ba2	-0.2615186715753969
57	0x3f97c3ac6d4ddc20	0.02320737282886054
58	0x3fb84d914e37573f	0.0949335876424273
59	0xbfc7a443c1d3cda5	-0.1847004600927963
60	0xbf9fe4e731c2e350	-0.03114663354128605
61	0x3fc1bd6c84896158	0.13859325858607963
62	0xbf6ee3bb38dd24b2	-0.0037707001382939137
63	0xbfcd8018c0d559c6	-0.230471700817999
64	0xbf74b9619fee5bce	-0.005059605928997747
65	0x3fbb3b777ebe6b46	0.10637614101726198
66	0x3fb3b05d3c485684	0.07690985414259371
67	0xbfc7e0c7e7b8584d	-0.18654726805169944
68	0xbf817f07e43b1078	-0.008543073322819547
69	0xbfae5be5841550a2	-0.05929486501068594
70	0x3f9cbe0b5a0b1ea2	0.028068711634459682
71	0x3fc7503572556362	0.1821352775830532
72	0x3fa51dc8432d2e3d	0.04124284572625612
73	0x3fc56aad6d084d01	0.16731803726052166
74	0x3f9b9218ef373927	0.026924504852837174
75	0x3fc2f3b109314346	0.14806187580918556
76	0x3f9e9f33959f1962	0.029904180533571696
77	0xbfc39453245876f9	-0.15296401285825548
78	0x3fc89ac266aa1afc	0.1922228814402941
79	0x3fd0c26674fa562c	0.2618652479517063
80	0xbfc924b739ef339b	-0.19643297509028632
81	0x3fc426812c8b28e8	0.15742506670932888
82	0xbfd80b703188c38b	-0.3756981357319595
83	0xbf6fd01460cd9438	-0.0038833997736440716
84	0x3fc106ee11136477	0.13302398523117961
85	0x3fcb6c361f103341	0.21423985020410366
86	0x3f9c2611f70aabc2	0.02748897619555258
87	0xbfbbf2b54195163d	-0.1091721806634149
88	0xbfa587048ee5e0ca	-0.04204572910652045
89	0x3fccd67fff579fa4	0.2252960202015376
90	0x3fb18218a4933afe	0.06839136140773047
91	0xbfc2ffb190cc8dda	-0.14842814989343261
92	0x3fca064f6467b838	0.2033175697574181
93	0xbfc663560fb8ecd2	-0.17490649955457244
94	0x3fcc3d698decf30f	0.22062415533027788
95	0x3f7dee68d84f95ad	0.007307443190233282
96	0xbfa3fe8da1e53814	-0.03905146218549774
97	0xbfd886d0ae82e8a3	-0.3832284645283243
98	0xbfd21327ec56f6be	-0.28241918640183516
99	0x3fd62bcd7418dfdf	0.34642349565137737
100	0xbfcab4fe65c5776a	-0.20864849061302532
101	0xbfd730a2c94c502e	-0.36234349878327776
102	0x3f9fda3dd6149dd0	0.03110596293586615
103	0x3fc0f67739c349bc	0.13252153702212677
104	0xbfc32222125f1c37	-0.14947915932700237
105	0x3f62df9080080492	0.002303869463731242
106	0xbfbbe2c71225c278	-0.10892910187772908
107	0x3fa662d92a5c6dc8	0.043722902699495914
108	0xbf94e3a2bb570fe0	-0.02039961117203848
109	0xbfb86c2ae0791a2d	-0.0954005048780366
110	0x3fd6cb8f04451926	0.35617423455222974
111	0xbfcaf141bf149256	-0.21048757391067124
112	0xbfd096cf154d3d17	-0.2592046459221406
113	0xbf9d0bd32356b69f	-0.028365420371918245
114	0x3fa0fcca899b7c13	0.033178643510602644
115	0xbfa28563961835c7	-0.03617392737588037
116	0xbfcffc315a17b66e	-0.24988381289533684
117	0x3fae60cc8e810d11	0.05933226813842841
118	0xbf92a99ec8aa40ea	-0.018225174901602616
119	0xbfc67f202cb8bf94	-0.17575456794429256
120	0xbfc26f146b973a1a	-0.144014885458504
121	0x3fce3673e6cb3ea0	0.23603676575884425
122	0xbfa3f9dfb3071ae4	-0.03901576099774731
123	0xbfa2b9041fc5e630	-0.0365678108964399
124	0x3fc96a0f6d77a3f7	0.19854920239529836
125	0x3fc78b3064f62bcd	0.18393521241918478
126	0x3fc67830e54b92f2	0.17554293819480155
127	0x3fcce841bf687a5b	0.22583791586017096
128	0x3fc0e9fed98dca60	0.1321409761690857
129	0x3fbea94a347226e7	0.11977065830628995
130	0xbfb55e5200ec859a	-0.08347046396786198
131	0x3fc0d61e0332b4f8	0.13153433948665572
132	0x3fc50d12622ac58e	0.16446141999544434
133	0x3f9f9b5beeb101ca	0.030866085475510542
134	0x3fadacc03310a4a4	0.05795860885002327
135	0xbf637d7ea70ae956	-0.002379176490959238
136	0xbf98935c3350b33c	-0.0239996343918165
137	0x3fbe6e9f0d96809a	0.11887544709907374
138	0x3fbcff39428dad46	0.11326940417136652
139	0x3fb8964a9ec09222	0.09604326606547223
140	0xbfab07aeae883042	-0.05279298668401157
141	0x3fc9e4a6e86be551	0.20229040478424534
142	0xbfcf593af5dd6376	-0.2449105930816377
143	0xbfcabb6e0124cd76	-0.20884490066383038
144	0x3fac6ebc1ae0a468	0.055532339364000205
145	0x3fc8cf5eed9cdb21	0.19382845499213722
146	0xbf8845115c1d9c4e	-0.011850486396452944
147	0x3fb7fcd4abad6a1f	0.09370164100020205
148	0xbfc7900905207649	-0.18408310652096052
149	0x3fbce1fb3089ba97	0.11282319960603569
150	0xbfc1cac8c703aea6	-0.13900098531245425
151	0xbfc0650bd6cda1d2	-0.12808368671836817
152	0xbfb1d74bb0ae52b2	-0.06969140113353481
153	0xbfafbab65144f835	-0.06197137586649185
154	0x3fca2c9f931f8e94	0.20448679622414956
155	0xbfc07973c09f070c	-0.1287064257176599
156	0x3fd1e2aff7384805	0.279460898805269
157	0xbfe19360c6ec2db7	-0.5492404828268523
158	0xbfa46d11334f6f45	-0.03989461661669095
159	0x3fd1c18d87c496d9	0.2774385286196384
160	0xbfb44c0019de0fc2	-0.0792846739914799
161	0x3fd1c89f943b31b3	0.2778700778551652
162	0x3fc7a694081c45a4	0.18477106472032034
163	0x3fb74d0bccda5ace	0.09101938010494878
164	0x3f92ca5d191f7da5	0.01835008111799898
165	0xbfc19b4ec0a0e0ed	-0.13755211263356362
166	0x3fb19108580a8421	0.06861927174988171
167	0x3fc3a9532648d43b	0.15360488290176186
168	0x3fc2bb08aa6e35f2	0.1463328201465824
169	0x3fb418443316fc9a	0.07849527594861386
170	0x3f80f04fa98410f8	0.008270857201303702
171	0xbfae56a3c0fce71a	-0.059254758174985336
172	0x3fb921970d5bf4aa	0.09816879345085519
173	0x3fc9f6136d421f98	0.20282214007260957
174	0xbfc3c296627cbf85	-0.1543758374114043
175	0xbfbc9ee1a7115f8d	-0.11179933861546783
176	0xbfc155b016404648	-0.13542748533704896
177	0xbfb14330967fab88	-0.0674314849308485
178	0x3fb7e2180c59b648	0.09329366971515995
179	0x3f84d1d9a686b95a	0.01016588248679955
180	0xbfbf79d0aa095b44	-0.1229525008323949
181	0xbfbf395c4a11baa6	-0.12196900184947398
182	0xbfc28d90853f1d9a	-0.1449452067010782
183	0xbfc5d3e2887b5787	-0.17052871383810617
184	0x3fcafdf44ab96918	0.21087506912847043
185	0x3fc5874d0e790d88	0.1681915589016223
186	0xbfb62a285673cdc9	-0.08658077345517436
187	0xbfa48f1fe23c2a35	-0.04015445362718532
188	0xbf9ef591fc24836d	-0.030233651175083965
189	0x3f785db6b24ef224	0.005948747308988565
190	0xbf938948d9c65e8a	-0.019078386585162956
191	0x3fa5adcd966790b4	0.04234163723939002
192	0xbf865f2e3a54b0cf	-0.010923730044475026
193	0xbfd68d7e861ea13d	-0.3523861226808725
194	0xbfc02a4f599e1da7	-0.1262911975465901
195	0x3fcd04c8ed62898e	0.2267085227113736
196	0x3fcf20c7c0c04728	0.24318787490533933
197	0x3fde7d2dbbd692e1	0.47639029830524576
198	0xbfc118bbe4a2bd73	-0.1335673204789419
199	0xbfa61300d1c471f6	-0.04311373291622893
200	0x3fcb1638b38d4b68	0.21161564604934857
201	0xbfbd37c94997b19c	-0.11413248106663904
202	0x3f942af7628bee42	0.019695153608138456
203	0xbf956c814a67fc02	-0.02092172638549173
204	0x3fbb5c26e81b1975	0.10687487761160759
205	0x3fc8c73faf2ee618	0.1935805898081504
206	0xbfcdf14d18334de9	-0.23392642671261335
207	0xbfc2175d9ef39128	-0.14133806477833244
208	0x3fc195d3e5093f99	0.1373848789539778
209	0x3fb186966cf084c9	0.0684598937955513
210	0xbfbb90f729f24a75	-0.10768074773867815
211	0x3fbb9fb8db305ebd	0.10790591574947946
212	0x3fdc3b22eb5f4f27	0.4411093996579773
213	0xbfcc0c93a012c6fe	-0.21913380924302567
214	0xbfc3a9e5c1b15a39	-0.15362235982566277
215	0xbfc31a727cc7eacd	-0.14924460499590567
216	0x3f8a68f94b96e732	0.012895534152324115
217	0xbfc852b39a172bfe	-0.19002385162306717
218	0xbf91b1eb251236c6	-0.017280267846721008
219	0x3fbefef4eb585cf2	0.1210778307507672
220	0x3f8a5b5c5252b55c	0.012869569074917812
221	0x3fd306258a72db6e	0.2972501613652899
222	0x3f83b46351f19a4f	0.009621406496262667
223	0xbfc9f7b5a5bf81bd	-0.20287199586074492
224	0x3f60f4f41aa4b022	0.002069927945873588
225	0x3fb6569c8965febd	0.08725908617452212
226	0xbfc9478501052509	-0.19749510335740464
227	0x3f78ada28563fae1	0.006024966094854562
228	0xbfb595457be18fac	-0.0843089511341179
229	0x3fdb6f33e54ed39b	0.4286622752509232
230	0x3fc72edcab73bd93	0.1811176144760621
231	0x3fa9f121dfe94180	0.050667818625359295
232	0xbfc0b8c93d82bdf7	-0.13063922408535664
233	0x3fbf6462cce627af	0.12262551786821406
234	0xbfcae64507894e72	-0.21015227191911695
235	0x3f75a08b7bf04834	0.005280060634520512
236	0x3fc5746b5e477e5a	0.16761533835868897
237	0xbfced966851f323e	-0.24100953579035606
238	0x3f5b6c94bf62c3c9	0.001673836957291496
239	0x3fbff2156b6a3e38	0.12478765366017164
240	0xbfd0974afd41de34	-0.2592341874328412
241	0xbfc2ccf8036ee500	-0.14688015144000843
242	0x3fc21ec063e8c986	0.14156346205124865
243	0xbfd25b713d4e95f3	-0.2868311976147588
244	0x3fba56c5bbdd81cb	0.10288654171518556
245	0x3fb9442affddbb26	0.09869641062480791
246	0xbfbafb644b21cea9	-0.10539843401221084
247	0xbfa396269a4bdf16	-0.038254934630400125
248	0x3fb2b2c537ad45ad	0.07304031953142127
249	0xbfc42576d5339aa2	-0.15739331636651338
250	0xbfd3cf8732165bb4	-0.30954151049939616
251	0x3fc55453c8a4792a	0.16663596436496536
252	0x3fccc22a4a23f14c	0.22467545147072554
253	0x3fbc60c504096e1a	0.11085158680491994
254	0x3f86db7a46dce09a	0.011160807883797742
255	0xbfc38bb93f379321	-0.15270152651569283

layer1.bias f8 [64]
0	0xbfcc607085bea1a5	-0.22169310122013744
1	0xbfd5cc8ca3138ef4	-0.34060970235280696
2	0x3fb064810fd7a49d	0.06403357159401186
3	0xbfa8de57c1c58a62	-0.04857134094597339
4	0xbfb27a1070d7f6a9	-0.07217505221339117
5	0x3fcafa75bc59d6f9	0.21076842972586698
6	0xbf885f9875422672	-0.011901084021036488
7	0x3f52c8fa6267c8ac	0.001146549716960747
8	0x3fcb1e65938835ac	0.21186513618196778
9	0x3f9bf6c120acbadf	0.02730848085337356
10	0x3fc8f5b8feb2161a	0.19499885975180647
11	0xbfc5d7a2441fe04f	-0.17064312292473224
12	0xbfd026d9b010e2fc	-0.2523712367433715
13	0xbfaf38e494746f5a	-0.06098093330567052
14	0x3fc3237d27fb0554	0.14952053501296325
15	0x3fb92a3a6847fe8e	0.0983006004898874
16	0xbfcfc924c759a5b2	-0.2483259175672124
17	0xbf9cd36ca6507cd8	-0.0281502701292283
18	0xbfc663465fb8e193	-0.1749046294587627
19	0x3fce35eada0de454	0.23602042815380975
20	0x3fad7a59c26ac994	0.05757408617263873
21	0xbfc6e415941d9c0e	-0.17883558017931062
22	0x3fc31b8d6d73adb1	0.1492783340866999
23	0xbfc95ffea4c3faeb	-0.19824202580635783
24	0x3fbe59c329297003	0.11855716471603732
25	0x3f909d65d40791a1	0.016225424829728777
26	0x3fce59d1441c9621	0.23711601091160708
27	0xbfc0673eb62c3c22	-0.12815078635364424
28	0x3f9c8d643d538f54	0.02788311600023914
29	0x3fa3e1b382a9b65b	0.038831338596406716
30	0x3fc2dbff017dc701	0.14733874867265942
31	0xbfc0ae494e1a054f	-0.13031879724079906
32	0xbfc2578455734044	-0.14329580471394554
33	0x3fcc56cf1d0a28f1	0.22139920156434514
34	0xbfc45cfc87aa096c	-0.15908772110203573
35	0x3f84fa4b07b2ed75	0.010243021175816417
36	0x3fd1cfa633645dfb	0.2782989026904656
37	0x3fb1c65f1d9d8fc1	0.06943315957101871
38	0x3fc10232fd699eab	0.13287961362515452
39	0xbfd02736e618cae9	-0.25239345999140866
40	0xbfb0592357772828	-0.06386013875376817
41	0xbfc17afbd4b6b8b3	-0.1365656651154886
42	0x3fcccb4d46463a16	0.2249542801987025
43	0x3fc87d3e45626281	0.19132212055116685
44	0xbfd3299af8986a27	-0.29941438938991144
45	0x3fcc533f99e0ccc6	0.2212905408247023
46	0x3fc753f46b147969	0.1822495959140256
47	0x3fc81f031ded2a03	0.18844641648531998
48	0xbfb1f9c80bcad107	-0.0702176121511152
49	0xbfc4eb6d14b20d72	-0.16343463430903743
50	0xbfca77738e5db18d	-0.20677036715950373
51	0x3fca651362ba4221	0.20620958634073452
52	0xbfae3f4d6f3312d8	-0.05907670957961891
53	0xbfc197169fc400a5	-0.1374233512979163
54	0xbfd028f11da829e3	-0.2524988927476938
55	0x3faf94004cd66f28	0.061676034335702845
56	0xbfac41dabf623e1f	-0.055189929830813826
57	0xbfb8673ad84d9edd	-0.09532516270484899
58	0x3fc92b0db1bad51e	0.19662638834203333
59	0xbf9d9e54a166ff79	-0.02892429576036146
60	0x3fb732993faf9d56	0.09061582379182673
61	0x3fd12f93c6bf139e	0.26852888497188043
62	0xbf83c2b919cc224d	-0.009648748492979165
63	0xbfc9e87578e7e0ad	-0.2024065819130149

custom_layer.alpha f8 [64]
0	0x3ff8a52470aab0ef	1.5403179551167872
1	0x3fe4854db711f522	0.6412724090184023
2	0x3feba79e8d2738d5	0.8642113453768397
3	0xbfef38a4d09ec28b	-0.9756645273792669
4	0xbff5f78b7a048838	-1.3729357496563477
5	0xbfbdd40e5140db8a	-0.11651696666454661
6	0xbff6be7b2fb528de	-1.4215041984157817
7	0x3fc070215f98a738	0.12842194717205202
8	0x3ff17ddaeda38490	1.0932263643992748
9	0xbf9c23da57ff609a	-0.02748051797956972
10	0x3ffd03b61379f273	1.813406063155665
11	0xbff34fcae23037de	-1.2069805942041891
12	0x3fd3addca4ac2b42	0.30748668748190167
13	0xbffc13acdc0659f8	-1.7548035235137132
14	0x3fefdbabf308c830	0.9955653902782213
15	0xbfec8ac3ffdfe104	-0.8919391629742965
16	0xbfe8aa546165b3d5	-0.7707921888628514
17	0x3ff430855bfd2e70	1.2618459313697734
18	0x3fb9d760d7b8e6c9	0.10094266192109126
19	0x3fd099fb2d93349b	0.2593982644146508
20	0x4003551e62bb4184	2.4165618623157474
21	0x3fe52f46968c27a5	0.6620209637051074
22	0xbfe5a7396b052c24	-0.6766631212461829
23	0xbfeccb3e0b65f776	-0.8998098585723102
24	0xbfdf9d23d25fcb90	-0.49396606010776
25	0x3ffb11a90ffae74c	1.6918116211149536
26	0xbfcf6baf49ec7849	-0.24547377690845654
27	0x3fead4f2d7ae6d20	0.8384947025801104
28	0xbffcd0060cd13492	-1.8007870197937206
29	0x3fd60fc0098a52fb	0.34471131259606097
30	0xbff35e2fd0b3e962	-1.2104948189213123
31	0x3ff6db48c115eb5a	1.4285361807257773
32	0x3ff150a908ace3c4	1.0821924532776714
33	0xbfe45458e2ac8caf	-0.6352962901331888
34	0x3fd75e0cd4ab3abc	0.3651153637737641
35	0xbff7d0b53cb5c8bc	-1.4884540912139945
36	0xbfe75d31377dd603	-0.7301260074443124
37	0x3fecbf71e6605fd6	0.898369741395977
38	0x3fd1ba56fb60708c	0.2769982771731143
39	0xbff6631f85c2f7ee	-1.399199984079583
40	0xbff97b7b08669236	-1.5926466301108468
41	0x3fefc240a405ee34	0.9924624637200794
42	0x3fe87ffe94078e0f	0.7656243220521349
43	0x3fb9aa9a4e2f90e3	0.10025944145997161
44	0x3ff55cbb108a4ea3	1.335139336214447
45	0xbffac8fa2229a698	-1.67406667084507
46	0xbfdfc74e265517a3	-0.49653962844274185
47	0x3fef1ec2023bcb91	0.9725046199440489
48	0x3fbc8cf7cba5faeb	0.11152600023158825
49	0x3fd2397eb2a61aff	0.2847592110269232
50	0xbff6546f172a73e6	-1.3956137566485665
51	0x3fef04c36921f981	0.9693314603207882
52	0x3ffcd59279d4adca	1.8021416434302062
53	0x3fd9ed254c003150	0.4050992242998932
54	0x3fe5248f77f628a6	0.6607129424094367
55	0x3feedd64b7ad5ca9	0.9645255649037568
56	0xbff5d9528cfb046d	-1.3655572421123694
57	0xc002f15d63071517	-2.367853902486455
58	0x3ff45c6ac4b122b2	1.2725627597120988
59	0xbfd28b062583fedc	-0.28973535216935686
60	0x3ff236c7940eb959	1.1383739264961916
61	0xbfec29b63cd1d2ed	-0.8800917804606719
62	0xbfdba4195a2194a2	-0.43189081003067475
63	0x3ff3d65b8e5d84e6	1.2398334084648979

custom_layer.teta f8 [64]
0	0x40009da088995cc5	2.076966349773644
1	0xbfd6f75a44b819e6	-0.35884720526556035
2	0x3fbe7d9c101d586a	0.11910415070937722
3	0x3fd90426ff930cb8	0.390878438553226
4	0xbfc9aaa96f55f2d6	-0.20052068649592653
5	0xc005d8d370f142ce	-2.7308720420481682
6	0x3fe73147938a533f	0.7247655755660175
7	0xc001459f78d18e89	-2.1589955748511938
8	0xbfe47763bd3dc339	-0.6395739265554773
9	0x3ff5e4e7500729b7	1.3683846593945483
10	0xbff48e67570c26d0	-1.284766521481675
11	0xbff15764de920b45	-1.083836430946307
12	0xbfe27f4da6d028fe	-0.5780399568623407
13	0xbfd31011a520b714	-0.29785576940308656
14	0x3fdf1319babc9dfb	0.48554080234541147
15	0xbfe9e3c56a831aa1	-0.8090540962519591
16	0x3fd92464a7dc9c8a	0.39284626381636
17	0x3fed3768ecc842f4	0.9130138992933028
18	0x400a9cb450818823	3.326515797570225
19	0xbfe8fd6cec7cbd19	-0.7809357279674344
20	0xbfde196fa89487c1	-0.47030250037107285
21	0x3ff1557987a11c67	1.0833678529759483
22	0x3fd894ea9c3f4611	0.3840891385890198
23	0xbfe32fdd21c4ba46	-0.5995927485981347
24	0xbff46a48f6f030c3	-1.275948490717426
25	0x3fe28f7a1f97fd1d	0.5800142876686639
26	0xbff5045fb74a5e03	-1.3135678443703689
27	0x3fc755330f091e15	0.18228758081589605
28	0xbff702677ed695fc	-1.438086982213803
29	0xbfbeee1c70a067cf	-0.12082078694984875
30	0xbffc457e7ece9138	-1.766966338481394
31	0xbffe059b7335f7fb	-1.8763689518377749
32	0xbff1052bfecb5e5d	-1.063762660303744
33	0xbfd3cded9921ee2f	-0.3094438548502891
34	0xc0028255d8a664f7	-2.3136403013019122
35	0x3fe6f2f0ef148912	0.7171559018645743
36	0x3ffb2c3e5291f2ab	1.6983016229052434
37	0x3ff7d56f7a0d88b7	1.4896082656564837
38	0x3fbc34f725a58572	0.11018318814378406
39	0xbfec02a7517a652c	-0.8753239241952193
40	0xbfc15e85637987bb	-0.13569705350078984
41	0xbfc9c5978fcfdaf5	-0.20134253046099784
42	0x3ff5de731489fa73	1.3668089678100415
43	0xbfaa9489ae6e79be	-0.05191450361529658
44	0x3fffa33e2a9a52e9	1.9773542083905176
45	0x3fb1dcef7063ae71	0.06977745527154312
46	0xbfbaf5964f433020	-0.10530986247175678
47	0x3fd82daa05d345ce	0.37778711861491565
48	0x3fc78a92e6353698	0.18391643753641485
49	0x3fc13a4de8d9d25a	0.1345918070761794
50	0xbff06706ef8e6f8f	-1.025153098837993
51	0xbfc01d628ea194a0	-0.1258967586938171
52	0x3fda4b29439b11d2	0.4108374748432456
53	0x3fd77f28d419e8f9	0.3671361991215601
54	0x4000ace8411ad70c	2.084427364951699
55	0xbfb203f3091625c9	-0.07037276241148684
56	0xbfa6ca10842ef61f	-0.04451037992064876
57	0x3f653833889e7b4a	0.0025902754322965392
58	0x3ff5fcc712421996	1.374213286706071
59	0xbfeadab601adfbc1	-0.8391981156163341
60	0x3fe4fad529a3641e	0.655619221996975
61	0x3ff0759a8d332a70	1.0287118449802186
62	0xbfede9ec407b3015	-0.9348050364874348
63	0x3ffdec481021ed3a	1.870185912149124

custom_layer.beta f8 [64]
0	0x3fe2ba34470fb703	0.585230006019373
1	0x40015a33e9642379	2.1690443261799683
2	0x4000d098234a4ffc	2.101852679925285
3	0x3f9a9c7876354f77	0.025987512793406133
4	0x3ff576177b7b4f53	1.3413309882643787
5	0x3fe47f7882907ed0	0.6405603933416959
6	0x3f80e04fcf79ea12	0.008240340727970117
7	0x3feb536ba9659812	0.8539331730396518
8	0x3ff46286757618d7	1.2740540111859013
9	0x3fcdb8457e281bba	0.2321860185622578
10	0xbfe8c836e76df8a8	-0.7744402427777191
11	0x3fdaf2c117eb7f9a	0.42106654487542416
12	0xbfd8e6cbf1794aa0	-0.389086709799054
13	0x3fd8dc8ce3ecd55e	0.3884613252478938
14	0xbfe76a1bdf790c62	-0.7317027439788826
15	0xbfe5f93c63421e98	-0.6866743029249447
16	0xbf9ec848b073c0a2	-0.030060897607598343
17	0x3fc1d5a690e01e63	0.13933260034558534
18	0xbfc5be0a6a18ac61	-0.16986208134162253
19	0x3fc81b2d1d1f6018	0.18832935258865358
20	0x3fe4fa6fe21fb2da	0.6555709282380022
21	0x3ff27718f4bf3762	1.1540765343119905
22	0xbffd57e9e05e44ac	-1.833963276327533
23	0x3f94bac2183bc070	0.020243675927247684
24	0xbfc90dd77e50c3db	-0.1957349173331114
25	0x3ff9cb5c768c81fe	1.612148726541022
26	0xbfd0a417724a5454	-0.26001535569350165
27	0xc00116e203af1cf4	-2.1361732757392193
28	0x3fd1144e55048483	0.2668643789530238
29	0xbfdf4eb546bb8a60	-0.48917896182516607
30	0x3fe3a18c3dc2a86b	0.613470192552325
31	0x3fffe138069fce98	1.9924850710639586
32	0x3ff56f34b74bf9c6	1.3396498832731694
33	0xbfdf709e989abcf5	-0.49124874975946337
34	0xbfc974d3c7b05bdd	-0.19887778520998625
35	0x3fe70f37811b6f13	0.7206075212120332
36	0x3fad33ee470ebd1f	0.05703682534601228
37	0xbfdbb6830664f6a8	-0.43301463722660083
38	0x3fefff9bedfa3e37	0.9999522827146795
39	0xbff8eb14c83da56b	-1.5573928663164576
40	0x3fd34d87874e5c6b	0.30160701955305197
41	0xbff552fc185121df	-1.332759947765332
42	0x3fd00ce1f1e55aca	0.25078629133842567
43	0x3fe7bfb88e483a53	0.7421534327457472
44	0xbfd041437e625bb4	-0.2539833769055193
45	0xbfd70fb9f977fd71	-0.36033486711672597
46	0x4003c2a72d433def	2.4700454269548042
47	0xbfe6425e5910d5a0	-0.6956016292157763
48	0xbfdd9c1e592074d4	-0.46265371993815774
49	0xbfdc44591d3799ad	-0.4416716370891674
50	0x3fe4fb5464bc5855	0.6556798903936946
51	0x3ff9e6f560de3b01	1.6188863548192673
52	0xbfe7f1e60c280b89	-0.7482786405019947
53	0x3fe1087c77545eda	0.5322859125762662
54	0x3fe1d9d8c9a048ac	0.5578426301965655
55	0x3fe1fdfd50a52150	0.5622545790766171
56	0xbfb2db417b52aa22	-0.07365807781995007
57	0xbfd3df7147785634	-0.31051284770487375
58	0xbfe01f175a059fed	-0.5037953146211273
59	0xbff5a9a8a4d08177	-1.3539205968919228
60	0xbfd588f5bf390847	-0.33648437189197405
61	0xbfe5cac9cacf9997	-0.6810044251586075
62	0xbfd1adc02e08bc37	-0.27622990127105446
63	0xbfbd82ded6e4602d	-0.11527817484272936

custom_layer.gamma f8 [64]
0	0x3f975570b25bb80f	0.02278686607944996
1	0x3fc90bec9bdb6899	0.1956763993283104
2	0x3fc2b812d912e98d	0.14624248122511255
3	0x3f71b9c971932ccd	0.004327570809617498
4	0x3fd4c4d46b2b79e7	0.32451353517345044
5	0x3fa40626bb73c4d2	0.03910943067774898
6	0xbf3931575201fb6e	-0.0003844106850080996
7	0x3fc441ae2d8c5683	0.15825440620453798
8	0x3fa1b6b2cb7525b5	0.03459700330365526
9	0x3fab7bbfcaae686c	0.05367850636612634
10	0xbfc16621117c9036	-0.13592923501812643
11	0xbfa9172b58225210	-0.049004892834236924
12	0x3f7d5d3dc5f85833	0.0071689999599780395
13	0x3f97aaf919893efb	0.023113147910691172
14	0x3fcd209fe53a0315	0.22755812351899665
15	0x3fb00a9ec23cb97a	0.06266205064887301
16	0x3f9651444b7a97d6	0.02179438315092582
17	0x3f55388074f7681e	0.0012952093564906407
18	0xbfa032cdd5bcef6f	-0.03163760408503335
19	0xbf933162fac291e4	-0.01874308257596792
20	0x3fca92252132afb8	0.2075849926089839
21	0xbf9b60fe17c8a5d1	-0.026737184716841448
22	0x3fa421d1affe733c	0.03932051919330212
23	0xbf4f683211f44baa	-0.0009584660037112909
24	0x3fb8b40332e20a13	0.0964967726922981
25	0x3f94ea6ede4c1531	0.020425541227287517
26	0x3fabf38334101368	0.0545922280362337
27	0xbfa8a08366aa005e	-0.048099619180903316
28	0xbfa5e321a2b28248	-0.042748499975691134
29	0xbf9dcb799d658ca9	-0.029096508247118767
30	0x3fb3129435f0168d	0.07450224224893472
31	0x3fcdbcc6fac10748	0.23232352489326957
32	0x3f86d18f0697d33d	0.011141888989166676
33	0x3faeced719baf98f	0.06017181576816021
34	0xbfc95b2ad958cafb	-0.1980947076095488
35	0x3f9914e56b67e41e	0.024493775063067706
36	0x3f95f23360327d77	0.021431734796917703
37	0xbf6b30db4a66d63d	-0.0033191950817250946
38	0xbfbaab402cd82037	-0.10417557806806675
39	0x3f99384208ae262f	0.024628669528772015
40	0xbf1bf0aa4f0dc62a	-0.00010658301813550793
41	0xbf9065b539ce3e22	-0.016012984898735046
42	0x3fccb20775e778b0	0.22418301827469156
43	0xbf7e86cfb3acb2d4	-0.007452784858099821
44	0x3fdd1405253c8ef3	0.4543469298971409
45	0xbf8cfb0ddec36e8b	-0.014150722847652083
46	0xbf7f8b51f91f14f2	-0.007701225478688333
47	0x3f8396b98a1e3e6d	0.009564828422099237
48	0x3fd803eabc24e4cd	0.3752390706391225
49	0xbfa302fd62e585b3	-0.03713218528970277
50	0xbf2d24e64ca8a386	-0.00022235213539658851
51	0x3f791e1825fa8e92	0.006132215814122726
52	0x3fc1adc42c76ee10	0.13811542674180588
53	0x3fb0ef8e20c09a82	0.06615532207124811
54	0x3fc235bc9d6695df	0.14226491628248447
55	0x3f9709109178f8a9	0.022495516661586255
56	0xbfad172068e0e5b9	-0.0568170669580001
57	0x3f7836ead1ddf1a5	0.005911748184982112
58	0x3fc19370e4269b78	0.13731204166580446
59	0xbfc26796e11b32d9	-0.14378629676357127
60	0x3fa7242ea2e3f400	0.04519792307289805
61	0x3faaf71ea9789146	0.05266662424790751
62	0x3fae318eecd10bf6	0.0589718498308897
63	0x3fb5b07e4670dd3f	0.08472432346103619

custom_layer.bias f8 [64]
0	0x3f97b4af090b137a	0.02315019123740878
1	0xbf98956e812b0723	-0.024007536538881113
2	0x3f611a1a26b3875e	0.0020876417889760654
3	0x3f53099aacdfcc83	0.001161957788551133
4	0xbf8cca2569443581	-0.014057438158966875
5	0xbf76a10e100e661b	-0.005524687702654708
6	0x3f8b55c7aa111d9c	0.013347205998924853
7	0xbf74246cc407ba5a	-0.004917549959357526
8	0x3f8f3fb2a917aedd	0.01525821283845324
9	0x3f943a7b639ded93	0.0197543410827002
10	0xbf9904b2f29072d0	-0.02443198781485273
11	0xbf7fac729d792179	-0.007732818332052077
12	0x3f715d5e7e64778f	0.004239434352966045
13	0x3f74b17526be64fe	0.005052049276764279
14	0x3f83b06d388124e9	0.009613850867156564
15	0xbf98cc678dfebb72	-0.024217241326990054
16	0x3f834be6b5e3cb2b	0.00942211382468868
17	0x3f8e8c8099d34b50	0.014916424459817584
18	0xbf8c40d6ed75bd90	-0.013795546647741103
19	0x3f81ea04c16da94c	0.008747136261906839
20	0xbf7ee1cd5e845aa4	-0.00753956053110608
21	0x3f88566a8ad6bea6	0.0118835757847074
22	0x3f8205166157cc9a	0.008798765988990365
23	0xbf6b546b6de4cae0	-0.0033361528614020836
24	0x3f741a00af99b4d0	0.004907610587548919
25	0x3f87d7fbb2f5daeb	0.011642424010216831
26	0x3f9823c50e165e79	0.023573950753045445
27	0xbfa02b90bda80191	-0.03158237757816374
28	0x3f86dd81ec0cee4a	0.011164679542722617
29	0xbf60da914c8d3e79	-0.0020573461410220953
30	0xbf8a46b85bcfcc08	-0.012830200483199064
31	0xbf98a38e2b015159	-0.024061414122415446
32	0x3f93435b269fe8df	0.018811630470715875
33	0x3f5fe90ebd74192c	0.0019476551004245597
34	0xbf828fb91c55c52e	-0.009063192536560818
35	0xbf6a0a5987923140	-0.003178763258409628
36	0x3f8592c3eece223c	0.010533838963753366
37	0xbf8888ed16841172	-0.01197991585696265
38	0xbf82cef06049cd99	-0.009183767260060803
39	0x3f7f003725ec4f8f	0.007568564817819991
40	0x3f875b5574fd1fb8	0.011404674179757865
41	0x3f50b91b34182006	0.0010206952723610398
42	0xbf89955bcff3037e	-0.01249191025124374
43	0x3f6460f0c72af283	0.0024876311011595167
44	0xbfa584d65d2e1157	-0.04202909362269008
45	0xbf83f18188fe4438	-0.00973797988243251
46	0xbf721c6f5dc05c24	-0.004421649002345016
47	0x3fa66aa7af6fd5ee	0.043782463231689536
48	0xbf803260ac9ed9fc	-0.007908587711296093
49	0x3f89d58ff20f4795	0.012614368986678485
50	0xbf95325e2fc6b2b6	-0.02069995085337225
51	0x3fa8e4e09492a312	0.04862119496949026
52	0x3f9343142ad5b354	0.01881057273333238
53	0xbf95155c5ac89452	-0.02058929733370391
54	0xbf78b99adaf76bb1	-0.006036381629622876
55	0xbf8091b58274715e	-0.008090417903581833
56	0x3f8952900eb94862	0.012364507150014418
57	0xbf73fb598a61e632	-0.004878377692983759
58	0x3f90fb1ceb81347c	0.016582919954363437
59	0xbf7319e88cb8f36d	-0.004663380048040772
60	0xbfa6e7075160d7a7	-0.04473135822665535
61	0x3f8f735e3b5001f8	0.015356765923571367
62	0x3f92ef2310a883aa	0.018490360156764453
63	0x3fa7c0a0d3880e83	0.046391511747086354

layer2.weight f8 [64, 64]
0	0xbfb4e76762d8f877	-0.08165594256658602
1	0x3fb4878ec643d757	0.08019344654516423
2	0x3fbdcfeb5886ccf0	0.11645384703915673
3	0xbfa2e26d60465fff	-0.03688375282507649
4	0xbfb35de108879f0d	-0.07565123041387896
5	0x3facee78ce2ab1fe	0.056506896178095886
6	0x3f75398592e84109	0.005181810162426589
7	0x3fbebf0779bbbbd4	0.12010237428670162
8	0x3fb1ba0797c653f3	0.06924483733594382
9	0x3f949aa43246819e	0.020121160095756367
10	0xbfae597fd94519c7	-0.05927657630177268
11	0x3faab4375d86ac3c	0.05215619103122335
12	0x3fab5a9a9542d243	0.05342562744172998
13	0x3fba5c00a6582434	0.102966347323801
14	0xbfa535198074ec26	-0.04142074292254731
15	0xbfaaa43a2ea1dc0e	-0.05203420466653351
16	0xbfb42db1026757a9	-0.07882219608958842
17	0xbfaa34a82e722fad	-0.051182990712816824
18	0xbfa847c91cbc9fec	-0.04742268062392427
19	0x3f906fc71873768a	0.01605139815079907
20	0x3fa234ae73928701	0.0355581775741154
21	0xbfb24a5bbaaa1212	-0.07144711787447758
22	0xbfa94b660c072002	-0.049403370826951246
23	0x3f9dfe55d8aa5158	0.029290524815750757
24	0x3fa981e7273e2e93	0.04981920579947743
25	0x3fc27bc5a7b536e1	0.1444022244344785
26	0x3fae5d506c1f007b	0.059305680464150044
27	0xbfbc77fa383c632b	-0.11120571015306939
28	0x3fbc449c6982e599	0.11042192054710255
29	0xbfb016008e4be86e	-0.06283572649036426
30	0xbfa8fc89a42baa72	-0.0488017094520118
31	0x3fc158252701ebfe	0.1355024757829994
32	0x3fbe438245294a71	0.11821760357387646
33	0xbfbd723afce16ae0	-0.11502426790086018
34	0xbf83b4436e6d662c	-0.009621168906664833
35	0x3fc512ff347aa8d3	0.16464223921258866
36	0xbfb19ea72154ff00	-0.06882710040826723
37	0xbfaebed541ad5ce3	-0.06004969050143829
38	0xbf9fbe15c2a9a64d	-0.030998554235713894
39	0x3fab9954d30e274b	0.05390420032843098
40	0xbfb59191ef90eac2	-0.08425247286588003
41	0xbfc2eb9570cab9e2	-0.14781444556633888
42	0xbf98cf93e5337878	-0.024229346145937275
43	0xbfad69abf159a9fa	-0.05744683571977656
44	0xbf92aded968585f0	-0.018241607963664863
45	0x3fa80a2b5f164ee1	0.0469525865147753
46	0xbfbc548c974a2566	-0.11066511815638122
47	0x3fa22cf1f1ef938a	0.035499153884109694
48	0xbf803634c9b0e31a	-0.007915890126342574
49	0xbf8b92078a4630f3	-0.013462122828763223
50	0xbfb2b6b08a5b9550	-0.07310012224077878
51	0x3f715cd846840f5f	0.004238934350954653
52	0xbfd2d3ad9d5653ae	-0.2941698109146341
53	0x3fc13ee0e6f21b70	0.13473140026709585
54	0x3fa26f66a9232cc4	0.03600617232003736
55	0xbfa38925b9a1d907	-0.038155726347143974
56	0xbfbbedd7fa964e93	-0.10909795635080348
57	0xbfb742865e98a1e5	-0.09085883912542377
58	0x3fc325f01bb1ccd1	0.14959527351638838
59	0x3fc1244a4f1e31df	0.1339199911420925
60	0x3fb2b8ff108170be	0.07313532021493338
61	0xbf990083a73eb4e1	-0.024416024287053587
62	0xbfbfaadf2c73ca4a	-0.1237010463262688
63	0x3fb3d80bebf897dd	0.077515359029888
64	0xbfcb5d563fd89edb	-0.21378591649521791
65	0xbfafcb481e917736	-0.062097791415665446
66	0x3fbcefb2d3978674	0.1130325094777847
67	0xbfb8cb5f7cacec62	-0.09685322564921386
68	0xbf75644d19cbea44	-0.005222607779382719
69	0xbfb586223820d810	-0.08407796736068485
70	0x3fb005f2772837d1	0.06259074601277283
71	0xbfb825a1e0b3ff7f	-0.09432422386089277
72	0x3fd5d6b3100ad5ef	0.34122921530374034
73	0x3fba64abb83b4c1f	0.10309861419527565
74	0xbfac2b383d34af64	-0.05501724002019051
75	0x3f9742a4172ee6de	0.022715152659407482
76	0xbf72fff471ac3d72	-0.004638628825673551
77	0x3fbce6f3f208fe78	0.1128990617662512
78	0x3f8ad62d710e633c	0.013103823673917263
79	0xbf8bdaacfef24e3a	-0.013600684671735686
80	0xbfa34b45dcbe9ac9	-0.03768366164813625
81	0x3fb879ee418e4ec5	0.09561051464543897
82	0x3f614131d66e9f62	0.002106282557594528
83	0xbfb48df4dd4e3754	-0.0802910843178471
84	0xbfb1a0ec807ccd10	-0.06886175286199525
85	0x3f8e5df2b134f897	0.01482762912075612
86	0x3f9004566b5fc62b	0.015641546538921396
87	0xbf74d0bcbdc49a0d	-0.005081879873876105
88	0xbfa0d3334a5984d3	-0.032861330819977795
89	0xbfab88fb93360c8a	-0.05377947017680025
90	0xbf99a6fde3a8fd41	-0.025051085491438533
91	0xbfc3c2fe4d66d75e	-0.15438822535878222
92	0xbf7f3c2cd7c988f4	-0.007625746886875218
93	0x3fc3c55d1cfe22dc	0.15446056285534027
94	0x3fc139b9f640f870	0.13457417034254915
95	0xbfb284e2142de20d	-0.07234013550431247
96	0x3fab63f869bfe4b0	0.053497088345417665
97	0x3fab97c5dbf6ee3e	0.05389231023897566
98	0xbf9d4f1cae36943a	-0.028622100957040632
99	0xbfae5821199e1e99	-0.05926612317767627
100	0xbfccd92b61ac89a7	-0.2253774859355648
101	0xbfb31d34fff62c45	-0.07466441392004793
102	0x3fbe3582c2048a9a	0.11800400959740856
103	0xbfc128210d3725b2	-0.13403714318546417
104	0x3fb20835b14b5d16	0.07043777063823983
105	0x3fb7aff0d4cd0271	0.09252839274723514
106	0xbfc5c968d1cc869b	-0.1702090286644776
107	0x3fa18f1bf2ff624b	0.03429496136931628
108	0xbf8dcb7b159e6409	-0.014548265073061744
109	0x3f9d12e142004381	0.02839233365381544
110	0x3fc545f3a5f8120a	0.1661972580333358
111	0x3fcbb0f59af13462	0.21633787217652684
112	0xbfafbda143eaef43	-0.061993636646973126
113	0xbfb1a7caa19b0376	-0.06896654553839973
114	0xbfc65a8133fd973f	-0.1746369842396067
115	0x3fd24491b49236be	0.285435129488956
116	0xbf60007d734d0c4b	-0.001953358669568616
117	0xbfc27a6d1c71a20b	-0.14436115158902427
118	0xbfcb1b5a99cad07b	-0.21177227506052873
119	0x3fad79ad633b37d1	0.057568949092100426
120	0x3fb61d812894cf4b	0.08638770333055594
121	0xbf90bb8cc0276757	-0.016340445736069267
122	0x3f934445d8423aa4	0.01881512768209838
123	0xbfb591494faeade0	-0.08424814410562176
124	0xbfd277f3fb3515d3	-0.2885713532635609
125	0x3f9d3c68b93415c4	0.028550754836961692
126	0x3fb7e32f611fa8a7	0.09331031914885789
127	0xbf979edd7ca36983	-0.023066960079498166
128	0xbf7c80fca0ff437b	-0.006958948928471704
129	0x3f98e106f5b3ff0c	0.024295910593536127
130	0x3fb37f9bc12c884c	0.0761658999076939
131	0x3fbc457176fcd80d	0.1104346194741483
132	0xbfab604f480e7daa	-0.05346915964696149
133	0xbf6d02cb38c82825	-0.0035413712669241254
134	0xbfb72118a2696108	-0.09034875836494305
135	0x3faf0b10f674ce32	0.06063130386828809
136	0xbfbbdc3e56498768	-0.1088293991720356
137	0x3fbbd7bef7c5efe5	0.10876077222013654
138	0xbfa446f50318e7ae	-0.03960385954674393
139	0x3fb082e2f3580e8e	0.06449716988577789
140	0x3fbb70b1f46572f2	0.10718834130006963
141	0xbf8e6fed99a6ac1c	-0.014861923457678165
142	0x3fb0d73b5ec76344	0.06578417838990186
143	0x3fc6f6cf374c8a22	0.1794070262922825
144	0xbfb0cb3589f5cd71	-0.06560072534721485
145	0xbfb2b9d129096a5b	-0.07314784290194025
146	0x3f94abd1283f4b87	0.02018667991780945
147	0x3fb083a091bea42f	0.06450847204418218
148	0xbf9b4dfd4a0d57db	-0.026664693493635965
149	0xbf61d4ea4bb1dd1b	-0.002176721199755994
150	0xbf9cc10f24a8f34a	-0.028080212223574187
151	0x3fb55a9f2ded814e	0.08341402884753288
152	0x3fb065a7495f460c	0.06405110875427783
153	0xbfba4613c49f38cd	-0.10263179350224334
154	0x3fab3be4f1e44fd5	0.05319133236676491
155	0x3fbe1851ba2473af	0.11755858225337933
156	0x3f95a16968be97cb	0.02112354947862353
157	0xbfb3753b25867dfd	-0.07600755373140795
158	0xbfc9f64f7b184871	-0.20282929907313332
159	0x3f7ddd727bce988e	0.007291266633648997
160	0x3f944d9a07b2c3e7	0.019827276916377114
161	0x3fb056d5fa12a46d	0.06382500987332813
162	0x3fb1839c517895ca	0.06841446866072612
163	0xbf9c4449529ff224	-0.027604242008225324
164	0xbfbde4a4d7b32629	-0.11677007928951667
165	0xbf94d1db2ef3bec8	-0.02033178781579073
166	0x3fb667d6b68151f6	0.08752195316021258
167	0x3fa7800303d41fc0	0.045898527352675966
168	0x3fb593636caaf689	0.08428021815321975
169	0xbfaab3dbbee4cf4f	-0.05215346055265845
170	0xbfa91f58e7c9ccf1	-0.049067285818546476
171	0x3f99e56e4c4d0fd1	0.0252892717428635
172	0x3f999343a8574ad8	0.02497583117458188
173	0x3fa30771da32517c	0.03716617382557083
174	0xbfbf8765db4c35d8	-0.12315975765178366
175	0x3fb0c25458b67230	0.06546523252331649
176	0x3fa5c2319dd766ed	0.04249720622801854
177	0xbfbe4c257e32ccc1	-0.11834940272346996
178	0x3fc3756ae14e5641	0.15202079774160107
179	0xbfcd657b93c4feac	-0.22965950694378046
180	0x3fc3e84a163d3754	0.15552640996832656
181	0xbfac25503858653d	-0.05497217834290289
182	0xbfa6c546088c9156	-0.04447382788046876
183	0x3f502d9306c4cfa0	0.0009874282651027647
184	0xbfb29cc7a588ab31	-0.07270477095941598
185	0xbfad949396db5351	-0.057774173894051935
186	0x3fad6cd9fde9d353	0.05747109627274107
187	0xbfb97a537cf9598f	-0.09952279854892353
188	0xbf907bb1001c2b15	-0.016096845275607913
189	0xbfa72740321f3714	-0.04522133457031266
190	0x3fcae853b1936bd3	0.21021505518623815
191	0x3f86896fed6f65fb	0.011004328187413917
192	0x3fc897cdd7be545c	0.19213269266461708
193	0x3f7ebe827300f86a	0.007505902831381398
194	0xbfb9b2a64ea1502c	-0.1003822271316614
195	0xbf8e72d7c2ac61e0	-0.014867482784709674
196	0xbf9ac55af220c68a	-0.026143475559541808
197	0xbfc2b03eb27e78e0	-0.14600356784371282
198	0xbfa7afcd3540b6e5	-0.046263134718499
199	0x3fbf08e5a25fca79	0.12122950758183916
200	0xbfac5cba35420f9b	-0.055394953728892214
201	0xbf978737eb96ea40	-0.02297675490783946
202	0x3f95745b21edd60c	0.020951675363411623
203	0x3fc0097c1a54e6f2	0.12528945241665884
204	0xbfb93a579495d17c	-0.09854647996491467
205	0x3f287e0a0bd9370b	0.0001868617309121401
206	0x3fb3228fc7eea6a6	0.07474611884267776
207	0x3fb723db45d55655	0.09039087729373681
208	0x3fa6e799d40e3bce	0.04473572457856499
209	0x3fb26b7d75e260a6	0.0719526684573589
210	0x3fb464fc024791b5	0.07966589980748646
211	0x3f9014af53a3c479	0.01570390651699369
212	0x3fb27d81038287e7	0.07222753844919759
213	0x3f724fd22e555544	0.004470654506197495
214	0xbf85452038a72e1b	-0.010385753373063846
215	0x3fc2880e9ec6e8df	0.14477713349135166
216	0x3f74c08b22b0d7ad	0.005066436288918935
217	0x3f94dca2ba938c39	0.020372908246724306
218	0x3f9e3163ce8e68b6	0.029485282404132028
219	0xbfb50ee1755a2a6d	-0.08225831141514002
220	0xbfa90de789f4fb69	-0.048934207525681846
221	0xbfbd7867d353d293	-0.11511849316941385
222	0xbfab7db5d04f3bad	-0.05369346778717641
223	0xbf9f8516cfa72295	-0.030781132148862318
224	0x3fbc00abf0e6c202	0.1093852484834841
225	0xbfa84cc5ff35abed	-0.04746073475219945
226	0x3fa652ff2c15e06e	0.043601965075993884
227	0x3f815d6d5a6ccbc0	0.00847897941785003
228	0x3f8f04fddd8e8431	0.015146239589571038
229	0x3f9b8a9cb314e89a	0.02689595072772786
230	0xbfab0185369e5001	-0.05274597446182839
231	0xbfc027a0a9e6c383	-0.12620933814971744
232	0xbf87446bd7b8c8f2	-0.011360971947486285
233	0x3fb4ea964fad16e4	0.08170451588838606
234	0xbfb58cb3a9955095	-0.08417818918434457
235	0x3f917a5238f14603	0.017068180776112395
236	0x3fc0a7da59c2ca3c	0.13012246497017255
237	0xbfa8245b2f21f071	-0.04715237570141618
238	0xbfb2890a59dac4d2	-0.07240357106890663
239	0xbfb73aade779cb6a	-0.09073912526382136
240	0xbf827e5877adc80b	-0.009030047561939388
241	0xbfaf1e66cc6762c1	-0.0607788204685611
242	0x3fb336833ddfc578	0.07505054722402871
243	0x3fbba847140bb925	0.10803646315955413
244	0xbfbfdec034e43984	-0.12449265757843447
245	0x3f86b203c6d9f2d0	0.01108172369571872
246	0xbfabb7b94b1e7b8b	-0.05413607637387149
247	0xbfb3d74efbeb927b	-0.0775040974654732
248	0xbfbd75476fad6488	-0.11507078625199274
249	0x3fb14aa781b33138	0.06754538456442993
250	0xbfc2792a782344f8	-0.1443226896867953
251	0xbfb27f57e211bf3a	-0.07225560445089921
252	0xbfb0c66761d6b1ce	-0.06552740229262285
253	0xbfa15ca7fe6cd849	-0.0339100359037024
254	0x3fb177fd936690c4	0.06823716019295306
255	0x3f9cc468b2ae7d54	0.028092990785464636

layer2.bias f8 [64]
0	0x3faf73fa06295fae	0.06143170666899721
1	0x3fb0b42559f34bfc	0.06524880834631114
2	0x3fa217679ee1f297	0.03533481420979461
3	0x3f784c73c2c9cbe4	0.005932285490973552
4	0xbfa479e953867da9	-0.03999261040302866
5	0xbfba1715a0bfbcfb	-0.10191474127326565
6	0x3fb6e32c213ced5d	0.08940387546038182
7	0xbf83f751810bd39d	-0.009749066115071698
8	0x3fa89e25b4d1a063	0.048081568071950874
9	0xbf881520a2582681	-0.011759047464710239
10	0x3fb6b1e63dba90bd	0.08865202910471033
11	0xbfc1fb52538394dd	-0.14048222616035036
12	0xbf920a06ba125366	-0.017616372210415142
13	0xbfadc281b09ee556	-0.05812459260000462
14	0xbf8951cf1ee9d37c	-0.01236306965913924
15	0xbfa257c603b7dc7f	-0.035825908616907924
16	0xbfb14fd5f6d4d7c2	-0.0676244475951924
17	0xbf79e390f8eb0498	-0.006320539758861397
18	0xbfa7e54814470ff9	-0.046671154475490036
19	0xbf9dc56a2c699c0a	-0.02907338996956458
20	0xbfb970d9aae8f4a0	-0.09937820837599753
21	0xbf8433a8bc859e34	-0.009864156964524452
22	0xbf97b0fe0c380da6	-0.023136109824930216
23	0x3fb2927e216e05df	0.07254780117184322
24	0x3f8e9bada6c3a20a	0.014945370342005954
25	0x3fb94bde3b664a3e	0.09881390524086783
26	0xbfb6fa8a203647cb	-0.08976043020655237
27	0x3fb07f39d17ca386	0.06444131245065252
28	0x3fa4a75fde0d3ff4	0.040339465957572346
29	0x3fb395df245f80a9	0.07650560987485967
30	0xbfc0143cf0c0c8e9	-0.12561761622925552
31	0x3fb50891269a1c08	0.08216197197371866
32	0x3fbd981647f2621d	0.11560191399110704
33	0xbfb7d3c216d58b9f	-0.09307492310976649
34	0x3fc05971be503caf	0.12772962372443916
35	0xbfc16e1dfc4b50a7	-0.13617300814678865
36	0xbfc14d3587f5bada	-0.13516873491922504
37	0x3f7f98bac5d1997a	0.007714013653730917
38	0x3fb111dc4d8332f5	0.06667878048319749
39	0x3fb19b14b12cfae8	0.0687725956495161
40	0x3fb901a1d8aebfd3	0.09768115558722394
41	0xbfb07197f1aa9604	-0.06423329973275577
42	0xbfbed7e01dc2b994	-0.12048149801805713
43	0xbfb64d53f3d1b320	-0.08711743071189604
44	0x3fbdda2ec7af12ef	0.1166104543218116
45	0x3fac71ddf6fada46	0.05555623664752267
46	0x3fb90d7e7aca1a5d	0.09786215303220432
47	0x3fb61bbe11309323	0.08636081618949425
48	0x3fae92ec5c7dfee8	0.05971468571715183
49	0xbfb04aaa0c1e496a	-0.0636392860017502
50	0x3fa1627025843cf4	0.033954147891671754
51	0x3f99ce02cf34b5cf	0.025199932000011856
52	0x3fc1b020e9b043e6	0.13818751726697015
53	0xbfbaf934992dfd28	-0.10536507358300595
54	0xbfbb94a46f8e4268	-0.10773685191657878
55	0x3fb7d5fc622112c5	0.09310891528827898
56	0xbfb4468651572a95	-0.07920112119533436
57	0x3fb77dc84dcd079b	0.09176303767620057
58	0xbfbed7488344ca5f	-0.12047246174624025
59	0xbfbf653bc0fa0969	-0.12263844930024494
60	0x3f91f6422b3fb433	0.017540964021396554
61	0x3fa7c8788e457039	0.04645134674748914
62	0x3fa13c4edbe15dcd	0.0336632388504615
63	0xbfb6f7b90c9d37b4	-0.08971745069467724

custom_layer2.alpha f8 [64]
0	0x3fe8e7908890c2cc	0.7782671611112959
1	0x3ff00a622de7a9e2	1.0025350373422204
2	0xbfe47da451dc0898	-0.6403371428316573
3	0x3f61ba32adf06385	0.002163981421756169
4	0x3fd87aaf57bc3139	0.3824880940235463
5	0xbfd71e8c66781e80	-0.3612395287204677
6	0xbfd5bb5864925a38	-0.3395596487183954
7	0x3fd63ad5229c89fb	0.3473408544543017
8	0x3fc4e1dcbb5665b9	0.16314276835764277
9	0xbfdc6e56e854b824	-0.44423458756034706
10	0xbff0bc46062d1fc7	-1.0459652177105327
11	0x3ff4d68359baa746	1.3023713593524504
12	0xbfe9ce12f4fbc1c4	-0.8064055237610366
13	0xbfe2a381b86e798a	-0.5824593164614253
14	0xbfa0e06cb7fd66f4	-0.03296222444505573
15	0xbfea355c01f0b85b	-0.8190135991951694
16	0x3fe3e70c48682a5b	0.6219540991017526
17	0xbfe363dac7a66b41	-0.6059392833152303
18	0x3f7f31f3c1334e0f	0.007615997473482418
19	0x3feaefc55bbd3847	0.8417689124851301
20	0xbfa51f8ea7e55a50	-0.04125638770590412
21	0xbfee4096fae1f604	-0.9453844928791004
22	0x3fca98b879b06d46	0.20778566305021168
23	0x3fc383d488c5613c	0.15246063879272664
24	0x3fc752b19ddcd767	0.1822111149610308
25	0x3fadde6e80fab545	0.05833764385657018
26	0x3fd8ab1f0e16827e	0.38544441581510813
27	0xbfe3a5c3a7b81acf	-0.6139848972096277
28	0x3ff027fcb0e04f7c	1.009762469217974
29	0x3fd65d992bc18797	0.34946278832478
30	0x3fb90a6b88741c5d	0.09781524735818566
31	0x3ff433203a692096	1.2624819070497657
32	0xbfb5b2bb1adc79f9	-0.0847584667758169
33	0x3ff64923375b130b	1.3928558504423474
34	0xbfdd1da95bbc39af	-0.4549353977062322
35	0x3fdf13b31f0220d3	0.4855773737731514
36	0x3fe3d61e1c1cac2e	0.6198874043524307
37	0xbfd478a311c3a60e	-0.31986309752264297
38	0x3fe442b82ad570c6	0.6331444584461898
39	0x3fd76bf957d5d9dd	0.3659652097479958
40	0x3ffb6be2bfbd5229	1.713839291555937
41	0x3fba8a15b60d4e69	0.10366950697544443
42	0xbff2aaa488f934f1	-1.1666608191038075
43	0xbfdb891f31763047	-0.43024425344697587
44	0x3f9e2deec9a522bf	0.02947209459060462
45	0x3ff35f8e52d0fb46	1.2108290896428158
46	0x3fe18499db0c3815	0.5474366453433982
47	0x3fdef4bc7ee9c3b8	0.4836875190149459
48	0x3fe3ef716ae76e6f	0.6229788864106477
49	0x3fa3f8a6de4fe1e5	0.03900643790979411
50	0x3fd46f4bffbdf02b	0.31929302191543013
51	0x3fe79148519f2e90	0.7364846796203484
52	0xbfd0635c1c27ca84	-0.2560644411998185
53	0xbff0619591802f58	-1.0238242801305741
54	0xbfc6414c5e931a4d	-0.1738677465238702
55	0x3ff72b00951db567	1.4479986023755715
56	0xbfd7a69517a9922c	-0.369542382343101
57	0xbff05a791997cf13	-1.0220881461836526
58	0x3ffc6c7f760996c7	1.7764887438619767
59	0xbfddb44d1055704e	-0.46412970156757616
60	0x3fd01dd4c65bd703	0.2518207490060009
61	0xc004b6550eafd71c	-2.589029421559543
62	0x3fdb5708616a76f8	0.42718705666798895
63	0x3ff5c85e3b02e36f	1.3614179902199017

custom_layer2.teta f8 [64]
0	0xbfe4f6c2d486c868	-0.6551221991451373
1	0x3feb1b1d5fde17e2	0.8470599052823184
2	0xbff5be06966d4ac0	-1.358893001179851
3	0x3ff7763aea65485c	1.466364780052138
4	0x3fd33b4c8f3efa45	0.3004943274390011
5	0x3fee7832323da57b	0.9521723729387043
6	0x3fb23b64ceaab282	0.07121877713752592
7	0xbff0508f9fcf06c4	-1.0196682207610346
8	0xbfcbf77cabfadb7c	-0.2184902038331663
9	0x3fa40999d1ccd4c3	0.03913574873005523
10	0xbff15513801860c4	-1.0832705501289164
11	0x3fe0776f46d00d8a	0.514579428011005
12	0x3ff5950bb411d87e	1.348888114354423
13	0x3ff5c47d5a4c6df7	1.360471108177874
14	0xbfe9476afe68fab6	-0.7899680108019627
15	0xbff14da75ed57a45	-1.081458445019636
16	0xbfd79252fc035c9b	-0.36830591784150507
17	0x3fd1425d3a1e4c26	0.26967554736728727
18	0xbffe0eb6479d4fe4	-1.878591804260389
19	0xbfd18f8da8ea91f7	-0.2743868016789572
20	0x3fc8c1c7705150b4	0.19341366752872136
21	0xbfbc9b1b4671e902	-0.1117417380318422
22	0x3fe2a8850766c921	0.5830712456284212
23	0x3fd71dfa0678a07a	0.3612046302027988
24	0x3feb1873887037bf	0.8467347779094253
25	0xbffd7d6280cad563	-1.8431115179967825
26	0x3fb6dfab798b2e83	0.08935043065428698
27	0xbfd846b831e7aa58	-0.3793163764336547
28	0x3ffa5b8465d0c56e	1.6473430611771067
29	0xbff179a47d012634	-1.0921978838909014
30	0x3feeb62d1da4fa47	0.9597383097641988
31	0xbfd991c3d9ad0596	-0.3995217920056232
32	0xbff8a91582c8b8dc	-1.5412802799942744
33	0xbfa46d5d70b3e3dd	-0.03989688874020889
34	0x3fe2b022625703fe	0.5840007706357253
35	0xbfbf3a4a359a3ebb	-0.12198318298964754
36	0xbfe68e94c878750f	-0.7049049296798858
37	0xbfcbe29b8641d82d	-0.2178530126145132
38	0x400000e227a7d6ae	2.000431356248405
39	0xbff8576627f0a222	-1.521337657943271
40	0x3ff4fb5bfe5583f7	1.311367028705943
41	0xbfd134a7cf33245d	-0.2688388369975366
42	0xc0039fde36cf432b	-2.4530605585099656
43	0x3fdcebe0d300ed89	0.45189686399290757
44	0xbff8bc3d1283342e	-1.5459566805977931
45	0xbff080945a14b636	-1.0313914793763508
46	0x3fe4d83fa51df32a	0.6513975357953303
47	0xbfe3373ffc62c671	-0.6004943780337283
48	0xbfd8c4ffe224b34a	-0.38702389797508785
49	0x3feef9b4f8eb33a1	0.967981802148291
50	0xbffd3ba65a5ec554	-1.8270629434667471
51	0x3ff0cbf97017f70c	1.0497984293610356
52	0x3ff6d63129ec77d7	1.4272929799694702
53	0xbfd1e5320a9e3c4a	-0.27961398159908823
54	0x3fecb98d011e399a	0.8976502439343677
55	0x3fa42163995962bf	0.039317238301639794
56	0xbff880b68b71742c	-1.5314240881919075
57	0xbfd71fea43e34493	-0.36132294301666795
58	0x3feceee9546554fc	0.904163994632341
59	0x3ff0bb85c0a4020e	1.0457818532014502
60	0x3fbcd47586a16486	0.11261686837078075
61	0x3ff2ad26284636a8	1.1672727177823763
62	0xbfe3c9def39480d2	-0.6183924443648954
63	0x3ff028e1cfc54ff9	1.0099809757275564

custom_layer2.beta f8 [64]
0	0x3fe163bc42325991	0.5434247296241655
1	0x3fd8f9a9e2f99613	0.39023825803300943
2	0x3ffbb624543442ab	1.731968239710265
3	0x3fe58670e1899abe	0.6726612477330816
4	0xc000b1a1f82e67e2	-2.086734713474457
5	0x3ff20e05a77419ea	1.128423360934557
6	0xbfeb19d94cf114ac	-0.8469053747909547
7	0xbfef569fc6deb5d4	-0.9793242344073243
8	0x3fd4778a1ca83bba	0.3197961120467273
9	0xbfec53adead1c330	-0.8852147661510568
10	0xbff65434a5cbf035	-1.3955580212050454
11	0x3ff0a72c69373437	1.0408138380037266
12	0x3fdde664b2e9dfcc	0.46718709442165784
13	0xbfe6c21f51c0a2f1	-0.7111965748527763
14	0xbfd0c6197e86df1b	-0.2620910392392816
15	0xbff3d18f8ae25f5a	-1.2386622834364602
16	0x3fe6c7f7c8918270	0.7119101445533271
17	0xbfe563cdb8a6d272	-0.6684330564954293
18	0xbfd73101730c08fe	-0.3623660682207087
19	0x3ff569c75c9223eb	1.3383248916672936
20	0xbfe9316d8d94c854	-0.7872836842782456
21	0xbfe47cc0847ba277	-0.640228518253095
22	0xbfe944b1528de401	-0.7896353351962945
23	0xbfd33570677c0a6f	-0.3001366625395922
24	0xbfebde60ec006848	-0.8708958253294066
25	0x3fbbf0156f6df32a	0.10913213701674054
26	0xbfec171a07aaec26	-0.8778200292357539
27	0x3ffe96a772ce60da	1.9117807850471338
28	0xbfef166f45486253	-0.9714886048487393
29	0x3febf9022558860e	0.8741465310487813
30	0x3ff399a9e0fc659d	1.2250155247223582
31	0x3fd7165bfdcdb937	0.36073970590122734
32	0x3fd23d8f36904317	0.2850072892043029
33	0xbff45dd18bb1c615	-1.272904916459429
34	0xbfe5c1c5a32ab2c4	-0.6799038111544964
35	0xbff2f271ff332449	-1.1841907471409903
36	0x3feb9e37a34c3b05	0.8630636395845107
37	0xbfeaa158b917940d	-0.8321956267433294
38	0xbfd423cc66d03c1f	-0.3146849636113433
39	0xbfd36fb7fb6e3668	-0.30369376710664264
40	0xbfd1c9ddae06c046	-0.27794591898691967
41	0x3fc03ab81881da7c	0.1267919654526003
42	0x3fcc721477bcedaa	0.22223144384939292
43	0x3ffa0199b7ab784b	1.6253907370187501
44	0xbfe49bc98a7e3be0	-0.6440170006698018
45	0xc000f9a6b1c8c7df	-2.1218999757193013
46	0xbff2a6ee04602cd3	-1.1657543345379977
47	0xbfd0750258918811	-0.2571416726042353
48	0xbfec3bd777d83fb5	-0.8823048916547039
49	0xbfde8fc2ed3aa988	-0.47752450148495784
50	0x3ff07328188bfa80	1.028114410291579
51	0x3fd239e92d0451e8	0.2847845973604124
52	0xbff18ded8d67065d	-1.0971503757031293
53	0xbfe021951e66e376	-0.5040994256770392
54	0x3fe290d85c08f052	0.5801812932545636
55	0x3fc6ebe7e1baca5e	0.1790742733188208
56	0xbfdc51111f525100	-0.4424479299425599
57	0xbfcfbd38184c3eb0	-0.24796200930039936
58	0x3fc8e4e702c47648	0.19448554644707117
59	0xbfd9f77c5a30fa4a	-0.4057303314947701
60	0xbfede94e7331b0f3	-0.9347297906765831
61	0xbff9f5df06222edb	-1.622527145346729
62	0xbfdcf54caada9323	-0.4524718922132697
63	0xbfd91080c0a039ad	-0.39163225947495556
