COLA_Emulators/PCE/LCDM_PNN_HIGH/MODEL_Z3.000.pth (torch, 60802 bytes, 12 tensors)

layer1.weight f8 [64, 19]
-0.05915016039154539 -0.14981966162032898 -0.09311166160930685 -0.10426481060605011 -0.06073920440461035 -0.012470306604734633 0.10069991912997676 -0.14718841704647442
-0.008692301457045542 -0.17007674902873351 -0.25949600903115644 0.09302971616137136 -0.09658259391825562 0.14822257196800376 -0.21257209378432304 -0.09554977893734423
-0.0613353781675594 -0.03541096434755531 0.20087490387214615 0.030971884843825764 0.03711923219418072 -0.07055723918358027 -0.039316338188027995 -0.12953869178291955
-0.04638198530406263 -0.11001494001517753 0.0586914748633477 -0.11124434604366976 -0.10179091749618314 0.29662142377506684 0.1329716727088824 0.16202192638763438
0.02605459853445067 0.09705610921331094 -0.12735940991408806 0.06321977106993178 0.032081707538823515 -0.11608049027977756 0.05439911651080197 0.21028565194048396
0.06515381753773454 -0.1829524561399236 0.17716470349953922 -0.11893012602522895 0.07985570754267746 -0.11312967895487461 -0.07876287589793418 -0.11687572896467335
-0.07707932542776247 -0.016123386292928397 -0.09855121581480032 -0.17276147560856256 -0.06794140727241181 -0.010467609645787855 -0.2051973938581495 0.2128445227520045
0.006329887484875724 -0.04287024974525063 -0.13827110244162322 -0.08159919409288788 0.148022051425098 0.3119660984002584 0.24777089593501134 0.07998734057982226
-0.22489120325881026 -0.32044179701334174 -0.0027606901556629943 -0.0326465434542451 -0.20470780880526046 -0.11817868952312428 -0.0772592146373645 -0.15231699397092996
-0.21755378145154844 -0.0932217802024177 -0.11168995018458262 -0.016612517331949416 0.0024791931109674707 -0.11375632313878059 0.001538757288591117 0.09086190589701679
0.05725452081127678 0.12079512715889634 0.11645502126412512 0.2960599636033691 -0.046930692043088085 0.12192438721919902 -0.006006123436714625 0.026437521215228445
0.04117107986700019 0.2040355112022301 0.12879871798030296 -0.07589410329597299 -0.18868629216885913 0.21792953089882122 -0.058579868147127116 0.08380197674157344
0.012574857314464711 0.0006475640562558645 -0.3599858092766607 0.18587326832830786 -0.1712265548520151 0.11013261223719006 -0.18816858693409014 0.25261716975459475
-0.27806394572009246 0.10653382585680972 -0.04407015816792046 -0.04093930990804498 -0.3116266129143492 0.061174204137145485 -0.13455356709524074 0.13489344531426437
-0.09262470233216816 -0.20330920331649777 -0.0763142008582819 -0.04500056253172318 0.16916895775901603 -0.12391377291374449 0.0853361172981648 0.09014995255042817
-0.12296149917765897 -0.10033129277140208 0.08357557402149966 0.2365336746457198 0.06327593181476192 -0.031425573573573354 0.1945784276685195 -0.20794715756709092
-0.17835684806371965 0.16220897458101352 -0.16763980312802443 0.07341451420629531 -0.16766723876674364 -0.11713923775255691 -0.05851372936485279 0.06838550929271024
-0.033165693078738685 -0.0857268243558697 0.12318922169663815 0.09720026390768152 0.26082039793739376 -0.18821052962289908 0.2213603313188764 -0.0387680312048743
-0.11579905954577357 0.20658085286584038 0.04673291263805864 -0.02646382403911808 0.16136563859987302 -0.1568458638886994 -0.13952023640674227 0.1873085770212724
0.01688642484023113 -0.005172782696674033 0.13536932860881026 0.012025858544565466 0.06550805619508736 -0.10388827415820638 0.15283344985027744 -0.09088298646798537
0.16688310962385372 -0.041795837937716365 -0.1582122043786893 0.07825935902185453 -0.137755832407021 0.10267978440319937 -0.004173588840281779 0.15093277122262452
-0.19195571615468365 -0.1926517873042865 -0.2221894078628971 0.013448429449523288 0.11403621371481325 0.02632449039504148 -0.03967726688144897 -0.031363647108933475
-0.17116082727960072 -0.2775665941325809 -0.14124637519558714 0.1728168927065126 0.10968512526912144 0.11173638192547487 -0.033902202488476016 -0.2258600729730333
-0.03702959574401042 0.07362627338462917 0.05736799205841041 -0.19567916656168954 -0.21230947375544004 0.03814802336241005 -0.04610813272507221 -0.07660295648721083
0.11363886099601178 0.11444894356892689 -0.14126216068090147 0.2186870167512263 -0.047501269769719454 -0.22267972222478544 0.25313362346138485 -0.09647858620945426
-0.0332917742820338 -0.08068690984385658 -0.1831701791145632 -0.1289774523803783 -0.03305804451588276 -0.21140469356937672 0.027475193458208744 -0.12353443713515494
-0.005779310049439539 -0.0862504770039102 0.11096873803457645 -0.13231438993206823 -0.1884672591079075 -0.023294472435142977 0.17518579364168826 -0.022903238782877554
0.16568944583167064 -0.14470509200368692 -0.0398239189361987 -0.012477236386908787 -0.01099903284376489 0.02085626015124729 -0.08143598604331763 -0.2181190220675904
-0.23015291712208488 -0.16573229768562844 -0.18874285477910938 0.19040332866984014 0.007610440417080983 -0.19706535819472656 -0.02758945742632436 0.14206137418945722
-0.2500269533355314 0.1316841551949137 -0.16696949750208426 -0.2717977002492675 0.11389043179691875 -0.06182654692181378 -0.2399943494334395 0.08662795530260275
0.24989573665504905 -0.05713989687112088 0.2736837450632934 -0.03954767589774972 -0.11338922455258706 -0.12351789685012765 0.014088057953564753 0.02488071213026271
0.03900654091936063 -0.00573780710493524 -0.06746460039372988 -0.037323102230817945 0.2536968667159482 0.22252171431332954 -0.12647824095207338 0.17114238968435008
00000000: 9ca3 de08 ee48 aebf 3b82 7a69 4a2d c3bf
00000010: 21fa 7c75 2ad6 b7bf ea36 ad3f 19b1 babf
00000020: f276 0181 3519 afbf 5db3 4e38 088a 89bf
00000030: 2783 5f4b 78c7 b93f 5b45 c8ee 11d7 c2bf
00000040: 293f e1f3 44cd 81bf 6db7 712d 13c5 c5bf
00000050: 3cce 0e26 959b d0bf f120 78a4 cbd0 b73f
00000060: bfe3 3d0a a3b9 b8bf b2d7 900d f5f8 c23f
00000070: db46 6cf7 8f35 cbbf 4c09 ad47 f375 b8bf
00000080: 1f8a a2c6 5967 afbf 00cc 95cb 6221 a2bf
00000090: cde7 5bd3 44b6 c93f e8b3 ff01 18b7 9f3f
000000a0: e73c a7c0 4a01 a33f 711e ca0a 0a10 b2bf
000000b0: e99e 6e65 4521 a4bf 101b 634e b994 c0bf
000000c0: 094e 022c 61bf a7bf 50c4 6f69 f029 bcbf
000000d0: b125 2f1a cf0c ae3f 1a5a 1f6c 827a bcbf
000000e0: 750a ad35 f80e babf 240a 9a6c d8fb d23f
000000f0: d31e ca3c 3705 c13f 81ef 886d 22bd c43f
00000100: faa7 7682 0eae 9a3f 95bb f24e abd8 b83f
00000110: 6a9d 352a 504d c0bf 0dba 34c1 2b2f b03f
00000120: dab0 5b79 036d a03f eb8d 7475 73b7 bdbf
00000130: 7ebc b074 33da ab3f 6b82 f3e6 a3ea ca3f
00000140: 29bc 88ab ebad b03f 2803 ec6f fc6a c7bf
00000150: 8a9d c43f 55ad c63f b49a c969 3472 bebf
00000160: 1874 4b74 6c71 b43f 5273 510f 11f6 bcbf
00000170: 50db 1ec8 cd29 b4bf 6074 9959 91eb bdbf
00000180: 84f4 e87d 78bb b3bf b9cb 5023 a682 90bf
00000190: c1d5 e708 a73a b9bf 5bad df4b 0c1d c6bf
000001a0: 4f7b 47aa 9b64 b1bf ff82 c4c8 0a70 85bf
000001b0: f82e ec7f e843 cabf 9421 2d44 7d3e cb3f
000001c0: 7a27 c23b 5eed 793f db20 41e1 16f3 a5bf
000001d0: 50fc 7b13 deb2 c1bf ea47 024e afe3 b4bf
000001e0: 7e93 faf6 62f2 c23f bdbf 85a7 40f7 d33f
000001f0: d882 78eb f4b6 cf3f c864 e2e3 0c7a b43f
00000200: 83cc 9325 3cc9 ccbf c866 9c4f 1e82 d4bf
00000210: 84d2 da3d 969d 66bf 1e46 ed38 0cb7 a0bf
00000220: 0ef7 0690 dd33 cabf 4101 9666 f540 bebf
00000230: bf9f 2e88 42c7 b3bf 5276 dd8d 1f7f c3bf
00000240: df4e 3a64 cdd8 cbbf 6a89 3ef1 61dd b7bf
00000250: b9ab 556b b697 bcbf 536f 942a df02 91bf
00000260: 3459 a0aa 3e4f 643f 2022 9867 221f bdbf
00000270: 5b62 c80e 0436 593f 9ea8 47d2 b942 b73f
00000280: cd7b ddec 7650 ad3f 14e3 a9f0 6dec be3f
00000290: 91ce c80b ffcf bd3f ff35 557d a5f2 d23f
000002a0: 60e6 01b7 4c07 a8bf 0cf9 b0c7 6f36 bf3f
000002b0: 3069 c87b e099 78bf 9adf 0604 7012 9b3f
000002c0: e0b8 2333 6014 a53f 4109 ebeb d51d ca3f
000002d0: 10fe bef4 797c c03f 1e8e 9dc3 cb6d b3bf
000002e0: d4cc 0857 df26 c8bf f282 0568 1de5 cb3f
000002f0: cfb3 ca33 2efe adbf 52f9 71dd 0b74 b53f
00000300: 3706 57c7 d8c0 893f 82a3 ca38 2938 453f
00000310: ae82 77eb 010a d7bf fcd9 55fc b1ca c73f
00000320: 68e8 a572 c0ea c5bf c822 c89f a631 bc3f
00000330: 091b 8283 e815 c8bf 9942 a034 e12a d03f
00000340: 0921 44b8 cccb d1bf 9906 f901 cd45 bb3f
00000350: ad1c 1f20 5d90 a6bf 940a 5a4a fff5 a4bf
00000360: c3f1 c1bf b0f1 d3bf e277 41ac 3952 af3f
00000370: 4afa 1d21 0d39 c1bf 5be6 083c 3044 c13f
00000380: 7a82 51a3 40b6 b7bf 9e2e 9c35 0906 cabf
00000390: 391d e8d4 5389 b3bf 672e c050 500a a7bf
000003a0: 7e64 8912 54a7 c53f bf41 3022 d0b8 bfbf
000003b0: bf96 f678 96d8 b53f 83a6 f039 1114 b73f
000003c0: e89a a2a1 677a bfbf 69f4 37c5 4faf b9bf
000003d0: 53b1 2a75 3565 b53f efc6 8046 bc46 ce3f
000003e0: 2bb1 c4f9 d932 b03f 2259 8345 0317 a0bf
000003f0: 4bf4 ab27 f2e7 c83f 04fe 8530 039e cabf
00000400: c0c4 b9ae 65d4 c6bf 16b9 7880 43c3 c43f
00000410: d1ab f897 3875 c5bf 1959 9129 4bcb b23f
00000420: 9590 8ebd 1e76 c5bf f4c0 394b d6fc bdbf
00000430: 2263 faf3 82f5 adbf f7b7 ee75 b681 b13f
00000440: 79a5 3efe 17fb a0bf ec96 ff72 31f2 b5bf
00000450: 1021 682e 5489 bf3f 4664 a5d2 1de2 b83f
00000460: fc54 d109 48b1 d03f e020 bf5a 4817 c8bf
00000470: eab9 d20b 8955 cc3f f57b 4f44 67d9 a3bf
00000480: 7c1a a8d5 01a5 bdbf f0ef 84cb 3d71 ca3f
00000490: 5bc5 da56 60ed a73f a4b6 192b 5519 9bbf
000004a0: b207 3e16 a1a7 c43f 3119 f577 8613 c4bf
000004b0: 80a2 3f92 ccdb c1bf 6288 483a baf9 c73f
000004c0: 3399 bdc9 ac4a 913f b939 2f48 0e30 75bf
000004d0: 01cf a03b c853 c13f aae9 3d69 03a1 883f
000004e0: 8f80 fbce 22c5 b03f 6387 f203 6c98 babf
000004f0: 07c0 6be6 0b90 c33f 0c8f a47e 1b44 b7bf
00000500: 0a6c 0bfd 6c5c c53f 2252 1a9a 4366 a5bf
00000510: 8f38 d129 4c40 c4bf 5fd3 9a2b ce08 b43f
00000520: a2bd 82ad fba1 c1bf b9d9 f8eb 3849 ba3f
00000530: ae22 3739 5318 71bf 81dd 25da c351 c33f
00000540: 7012 9541 0192 c8bf 2672 fe52 d0a8 c8bf
00000550: b4f5 24d8 b370 ccbf be9b 58a5 d98a 8b3f
00000560: 73fc 7630 7a31 bd3f c180 52a5 cef4 9a3f
00000570: aa0c 4d27 9450 a4bf 9178 3b5d e50e a0bf
00000580: 1dd7 c215 99e8 c5bf 14bd 10ad a6c3 d1bf
00000590: 3c61 1279 5c14 c2bf c976 2f2b dd1e c63f
000005a0: 5877 e309 5314 bc3f 01ae 246a c19a bc3f
000005b0: 7697 e625 a15b a1bf ce17 729d fbe8 ccbf
000005c0: aec4 680d 8bf5 a2bf e336 50e4 2bd9 b23f
000005d0: 56c4 7463 565f ad3f 120c 72d2 030c c9bf
000005e0: 0f8e 34f3 f42c cbbf dc47 7f41 2388 a33f
000005f0: 1283 4434 7c9b a7bf 10b5 e358 409c b3bf
00000600: e455 88b7 6f17 bd3f e1b6 b0a5 864c bd3f
00000610: d8b4 24e4 e014 c2bf 21cf 80a8 effd cb3f
00000620: bedc 5b20 1652 a8bf 6a0a 38e6 c480 ccbf
00000630: 5137 925e 5733 d03f 28af 8814 d2b2 b8bf
00000640: c3c7 8893 9e0b a1bf 55a2 feb6 e5a7 b4bf
00000650: 2f23 73d4 1e72 c7bf 5d93 f249 5582 c0bf
00000660: dc7f 21e8 fbec a0bf d7f9 8c1a 4f0f cbbf
00000670: 4cc8 6a05 7522 9c3f bcdd 6cef f39f bfbf
00000680: 781a 7eba 0bac 77bf 9806 ffe1 8214 b6bf
00000690: 4ba5 bc7c 7268 bc3f c832 c68c adef c0bf
000006a0: b71b 1ef5 b11f c8bf 8d63 2595 81da 97bf
000006b0: ff19 35f3 7c6c c63f 3604 2e56 f273 97bf
000006c0: 7fd7 91cf 4f35 c53f 8e39 dc4a b285 c2bf
000006d0: 2aeb dbfa cc63 a4bf 0154 cf51 aa8d 89bf
000006e0: b413 d032 a986 86bf dbde 10ed 575b 953f
000006f0: 2308 c620 fdd8 b4bf 0939 35f9 52eb cbbf
00000700: 3126 0f9a a675 cdbf e3b0 3947 b736 c5bf
00000710: 45a2 50d2 b928 c8bf 51df d7e2 225f c83f
00000720: 473b 310b 202c 7f3f df78 4f0a 7039 c9bf
00000730: 2319 7125 6940 9cbf a192 152e 112f c23f
00000740: be74 ec0c 7100 d0bf 5f55 fbc1 06db c03f
00000750: 8dba 99a9 415f c5bf 1cb6 6c2e 2265 d1bf
00000760: 4324 e55f ec27 bd3f a18b 1baa baa7 afbf
00000770: 364d 0585 22b8 cebf dcab f1ea 3f2d b63f
00000780: 14f0 2b60 95fc cf3f 1270 b7c8 7041 adbf
00000790: e897 9fd3 0884 d13f 592f 3acd 973f a4bf
000007a0: c912 2c83 1307 bdbf e426 716f de9e bfbf
000007b0: 16d0 6521 33da 8c3f ee48 9a53 547a 993f
000007c0: 9150 2853 aaf8 a33f 22fe dcdd 8680 77bf
000007d0: d52a 542c 5c45 b1bf d4e9 ee7e 031c a3bf
000007e0: 7b21 69c8 913c d03f d713 d06e 977b cc3f
000007f0: ccba 4562 7030 c0bf 3aa8 536b fee7 c53f

layer1.bias f8 [64]
0.09964421358610798 -0.2580769472486114 -0.17212794084712768 -0.044768485952519324 0.09181401159971976 -0.07668819321340568 -0.06538814150860123 -0.1632988498937754
-0.19632060157899614 -0.1163404950186542 -0.23462526981735443 -0.20899836891574664 -0.11153784774557432 0.09874432501579643 0.23937156784661703 0.03830162643054656
0.20588737960319167 0.10028107005419172 0.09899749969981161 -0.06678238421063176 -0.006572490864341479 -0.01814824054487685 0.16167876936778275 0.17421360084788126
0.06375932793825234 0.17134935150906788 0.16291753135123285 -0.15950012374960143 -0.13115905067634775 -0.08974771197662056 0.04705063455900996 -0.12349099245675137
-0.08063252944688282 -0.0020796786430811926 0.061400367135450586 -0.3011158906617898 0.10903991191922101 0.14548136749460097 -0.06281325590620572 0.0399740901244238
-0.05256759475389404 -0.09167755925312308 -0.09778601181240663 -0.08045036362463637 -0.13545354614880392 0.19889985693438667 -0.0132620414485178 0.19695136000555938
0.13199133041540315 -0.21971384905777674 -0.2066121492183047 0.06851659548142552 0.014493131981993312 0.09670291141336035 -0.016042588595261194 0.2202403935388822
0.11684072483923115 0.004252193226714489 0.009149629888665033 0.12936501282512688 0.0537680501809338 -0.13027731375882062 -0.12451435134698718 -0.13563803367029167
00000000: 6085 967e 4882 b93f 0632 122c 5584 d0bf
00000010: 3847 55d2 4908 c6bf 6a71 1d1e e5eb a6bf
00000020: 05a7 2281 1f81 b73f a745 d761 d6a1 b3bf
00000030: 9c5e 53f9 46bd b0bf ac53 e209 fae6 c4bf
00000040: f50a a891 0821 c9bf e239 4e9d 7dc8 bdbf
00000050: 9c21 576a 3308 cebf 708a b463 75c0 cabf
00000060: 3a5e 5590 be8d bcbf bfc2 9bde 4e47 b93f
00000070: df29 bf3f baa3 ce3f ae3c ce51 459c a33f
00000080: 2f05 0785 845a ca3f 4767 4a2c 05ac b93f
00000090: a6b1 986f e657 b93f a831 227c a618 b1bf
000000a0: 46b8 0c95 c1eb 7abf 6112 7bce 7395 92bf
000000b0: 1632 72d1 e3b1 c43f 737c 149b a14c c63f
000000c0: a84a 4f04 8852 b03f 720c 768a c6ee c53f
000000d0: eb9e 8c4e 7bda c43f e832 9b03 806a c4bf
000000e0: 5e5a 9ddc d1c9 c0bf ef95 d4bf b4f9 b6bf
000000f0: d4bd 5f51 0517 a83f e3cb f30d 1b9d bfbf
00000100: a0d6 f75c 55a4 b4bf ad5d 43f8 6609 61bf
00000110: 5d49 9e71 de6f af3f eeb0 ac95 7b45 d3bf
00000120: b7da a627 0aea bb3f 9988 c829 229f c23f
00000130: bb57 df8f 8714 b0bf b523 8be3 7b77 a43f
00000140: 0e3f 98c8 23ea aabf 9bee c436 2e78 b7bf
00000150: 1795 bd0a 8108 b9bf 5418 b820 6598 b4bf
00000160: 2d0d 6bb3 8a56 c1bf a62b 5bee 8c75 c93f
00000170: 6b8a 6512 2129 8bbf 6d34 10c1 b335 c93f
00000180: 0dae be87 17e5 c03f 2639 175a 951f ccbf
00000190: 73a8 ec53 4472 cabf b073 d3b8 4d8a b13f
000001a0: 40c0 083f 93ae 8d3f 3cc8 f2a1 85c1 b83f
000001b0: 1f77 70e5 776d 90bf 4afb c053 d630 cc3f
000001c0: c182 0614 46e9 bd3f b82a 856d bf6a 713f
000001d0: e678 2389 0abd 823f 274f aa61 088f c03f
000001e0: 738f 3162 7c87 ab3f 6e9f 0051 edac c0bf
000001f0: a8ff ea2a 2ce0 bfbf 4394 5a4b 965c c1bf

custom_layer.alpha f8 [64]
-0.8132318955411341 -0.8132072598526333 -1.0526237871822854 0.732558807751249 0.03125481220183561 1.8016824688872666 -0.29747314945744663 -0.5622460960759403
-0.18871867505874682 0.11258453871226637 0.09489981145618688 -0.47362469802947277 1.1317477526002293 -0.4468992879794965 -0.26923843686932125 -0.5327217536940597
1.0058500245609798 0.2845747462166906 0.9570926776821502 -1.318058110313638 0.2905629683443388 -0.06445176191647843 -0.9875360746288424 0.07363177312604213
0.2555025728489032 0.5054754497797744 -0.4049851315304647 -1.0828406238752686 0.9644842470752572 -1.3066688836456037 0.9104424932441367 -0.6820584913962829
-0.76879534915293 -1.2313087647424912 -0.6429796312674368 -0.9074312137256145 -0.430236602490334 0.6416071864666885 -0.8437624552853232 -0.2648164040443998
-0.48178682078738155 1.9345027756183557 0.7482760840573548 -0.9206086955671156 1.0691038864349365 0.2841867293271974 -1.8419433933936384 -1.1346891212411525
-1.1824536456183317 0.6758794279442565 0.23689135433497915 -1.483336347446769 -0.17035970721444083 -0.3185227115786663 0.8946316473242331 0.1461705059438549
0.46143083599330725 1.178111395219843 -0.027928899483478573 1.086120421889839 -0.3162338788909038 0.05962296857372116 1.6034311068615774 0.24110509183038578
00000000: 6b39 6de5 fe05 eabf 8bfa 3d3b cb05 eabf
00000010: 8508 4f0a 8cd7 f0bf 1807 362b 1f71 e73f
00000020: 36bf 7f78 a100 a03f 895b 1aff b0d3 fc3f
00000030: 12e7 16d2 cc09 d3bf 1265 5e86 ebfd e1bf
00000040: 4fc9 c2fc ee27 c8bf 20ef cd1f 57d2 bc3f
00000050: d9d3 99a2 5a4b b83f 5553 27f7 dd4f debf
00000060: edd4 0b88 a31b f23f 6291 9e78 ff99 dcbf
00000070: 6883 4bda 333b d1bf e97a bf7d 0e0c e1bf
00000080: 29b9 0232 f617 f03f f529 11ff 7836 d23f
00000090: 5459 bcd2 80a0 ee3f e864 e019 c416 f5bf
000000a0: 76ed 9d6b 9598 d23f 83d1 9921 e97f b0bf
000000b0: c2d5 0441 e599 efbf 04d9 8529 88d9 b23f
000000c0: 6e83 9b76 275a d03f 4c85 b7d9 da2c e03f
000000d0: e188 d2c1 46eb d9bf 3731 a5b0 5053 f1bf
000000e0: d340 5611 0edd ee3f d356 9fa1 1de8 f4bf
000000f0: 9fe9 ab4b 5822 ed3f 3d32 5054 6cd3 e5bf
00000100: 34b8 3db4 f899 e8bf f58d bdd1 70b3 f3bf
00000110: 7f35 0905 4a93 e4bf 7546 4a2f ad09 edbf
00000120: a23d 4f1a ff88 dbbf 9518 58cb 0b88 e43f
00000130: 4961 e11e 1a00 ebbf 4729 b480 c0f2 d0bf
00000140: 4e3d bb63 98d5 debf 41d5 b42e b9f3 fe3f
00000150: 1af8 acaf e0f1 e73f a8f7 fb5d a075 edbf
00000160: 993b 44ad 0c1b f13f 99b8 1a89 1d30 d23f
00000170: d157 bba2 9978 fdbf 42b9 adc7 af27 f2bf
00000180: a377 8f83 54eb f2bf a3e9 e1e4 cda0 e53f
00000190: 0275 c9b5 7452 ce3f 0d08 d4e4 bebb f7bf
000001a0: 7465 85cd 58ce c5bf 06df 5015 ad62 d4bf
000001b0: 8a2c 678c d2a0 ec3f ae95 5513 b7b5 c23f
000001c0: ac42 7d33 1588 dd3f fc39 9855 8bd9 f23f
000001d0: 8949 94b7 6499 9cbf a58d b8ce bf60 f13f
000001e0: 6450 ee05 2d3d d4bf ada8 3ad8 e686 ae3f
000001f0: bec0 5560 a7a7 f93f 35c1 271a 88dc ce3f

custom_layer.teta f8 [64]
-0.37652520756532826 -1.3481976040262886 0.06419158788462126 -1.0036519767067444 -0.8495253797888677 -0.0004929529496643295 -0.44855059435802697 0.2156735940112112
1.0465226208779315 1.3615140400642103 -0.6778568824644253 0.058689366382702945 0.8535962819959775 -1.8241496116321234 -3.1698226114890904 -1.333348642252574
0.876445027270034 -0.6710625545422004 0.5496646736334756 0.6671581245486938 -0.6525837536404402 -1.1251270271413543 -0.2914871758605187 1.062712637967523
-1.9910228011394326 0.43713760669941154 -0.40914462789690126 0.6198291575954109 -1.212201198564836 1.577907756038947 -0.0850506416674522 0.18343564765622283
1.3785069243416712 -0.10390710523090493 -0.5490146784689386 -0.6613985282707329 -1.3905885422648088 -0.10687098151374805 2.203627837412399 -0.6980888194941663
-0.35886104554411474 0.27072427371250773 -2.8736261462190313 0.008006262855479566 -0.40799022714220606 -0.3621758780894983 -1.1023763067013386 -1.101395755950024
0.448070487957851 -1.8365522059344794 -1.2585641160498613 0.069648788654165 -0.45295978145591476 0.0816015023445682 0.4287913525571649 -0.05225997793434326
1.359116115785652 -0.6778577695834341 1.5200449959055846 -0.1609428348368957 -0.42482848889639785 0.05565057225192173 -0.1789113740695559 -1.0796963700430866
00000000: 6c36 272f fd18 d8bf 5d6a 9da6 3792 f5bf
00000010: cc8b a422 dc6e b03f ec56 0860 f50e f0bf
00000020: d715 6ad9 4f2f ebbf b11b 0d66 3027 40bf
00000030: 239f 578d 0db5 dcbf 93c8 713c 319b cb3f
00000040: 671e f380 8ebe f03f 0cee 31f2 c2c8 f53f
00000050: 00b4 b1ea 00b1 e5bf f02c 795a 880c ae3f
00000060: 0a1e 6526 a950 eb3f 8289 cf80 b72f fdbf
00000070: 54bc 13f5 cb5b 09c0 c140 ca62 6555 f5bf
00000080: 63bb 1b71 d60b ec3f e686 aa2d 5879 e5bf
00000090: 9cb6 a05e da96 e13f 9150 c6fe 5b59 e53f
000000a0: ec2b f952 f7e1 e4bf 65af 9632 8500 f2bf
000000b0: 998e e1d3 b9a7 d2bf c5dc 91f7 de00 f13f
000000c0: 2ebf 87b9 3adb ffbf 310b 2803 10fa db3f
000000d0: 93ae 09f3 6c2f dabf 3a58 1ff5 a3d5 e33f
000000e0: a820 8015 2d65 f3bf 21ac 0434 1c3f f93f
000000f0: 752c 77fc e0c5 b5bf b651 cdbd d17a c73f
00000100: 5fb6 d546 5d0e f63f a6ec c9f2 a799 babf
00000110: 9989 213b 8791 e1bf 5673 113f 2d2a e5bf
00000120: c283 73c5 d93f f6bf 2e33 7e8a e55b bbbf
00000130: 82ee b1a1 07a1 0140 3ac8 2d5d be56 e6bf
00000140: d7e6 9a51 94f7 d6bf 5807 75e7 8b53 d13f
00000150: b087 77b4 2ffd 06c0 020c 0569 9665 803f
00000160: ed74 aa0a 831c dabf bbd8 f2bb e32d d7bf
00000170: 24ae 9256 55a3 f1bf 0623 fc27 519f f1bf
00000180: 183b 05d7 2fad dc3f f829 de90 8462 fdbf
00000190: 21a7 6520 1423 f4bf 7fc4 79c5 80d4 b13f
000001a0: dc69 f005 4bfd dcbf e0d7 df07 d6e3 b43f
000001b0: ab99 0249 5171 db3f 5541 3ce0 d1c1 aabf
000001c0: 3a41 4c8a f0be f53f 4b69 f6c6 02b1 e5bf
000001d0: 9ace 9db3 1a52 f83f 1633 135a c699 c4bf
000001e0: 3106 8ed4 6330 dbbf b2c0 a657 3b7e ac3f
000001f0: db6d 4162 91e6 c6bf 9a1e 6fb3 6f46 f1bf

custom_layer.gamma f8 [64]
0.17358976498243467 -0.025565628804754967 -0.058082358206609196 0.06658048716489826 0.0508438850154097 0.051558932982633136 0.0696200809912877 0.0253830572932202
-0.011879007169952601 -0.02924914707958144 0.0774188427659134 -0.004932186002241852 0.009280445712882585 -0.021563488400454564 0.46846861364989806 -0.00010934606373412906
0.007528336212521011 0.19913015075497695 0.06323901940865022 0.010539060695517372 0.15209617973163117 0.126966139811737 0.06616747590414854 0.00015118869942583926
0.3111251543586686 0.021684703770332162 0.14521682248049175 0.004763606302509573 0.048767367324751544 0.0428089441150714 0.0396640966472555 0.10365013699628856
-0.006498127520252123 0.026561448005555734 0.11645911720639451 0.10158300232203661 -0.13094831203100016 0.024761086589578315 -0.079362258466483 0.1868755526299077
0.09420311380059718 0.09476507135974614 0.23322198884468467 -0.013460434897796804 -0.01868157273892286 0.05883418107960945 -0.116102821519515 -0.09232757061313349
-0.009811131186246335 0.15733185894036103 0.09814834449479534 -0.08503276129564014 -0.030372983642566694 0.05812610002797693 0.049019329441540554 -0.04095241279091906
-0.06370320041877311 -0.012648764372696877 -0.01764421578956432 0.051455006786428246 0.14562600274260198 0.09049596486977386 0.018246242018031426 0.06618309624059118
00000000: 868b c27d 3038 c63f b9ee 784e e02d 9abf
00000010: 9ba2 f189 f8bc adbf decb ec36 6b0b b13f
00000020: 6f7f afae 3508 aa3f df41 f4b5 ee65 aa3f
00000030: b1a0 0023 9fd2 b13f 9c99 c923 04fe 993f
00000040: fe60 6e5a 0554 88bf f31e 9208 7df3 9dbf
00000050: 6a15 c6a5 b8d1 b33f 621a 3d99 c533 74bf
00000060: 1011 a256 a001 833f ccd9 de35 bd14 96bf
00000070: 970a b5c7 63fb dd3f 11dd 1b12 17aa 1cbf
00000080: 7095 375d 08d6 7e3f 47f1 91c6 187d c93f
00000090: 8bf6 30b0 6e30 b03f 8a77 24c8 8095 853f
000000a0: 519e e53a e377 c33f 486b 182d 6d40 c03f
000000b0: 1a33 1109 5af0 b03f de9a 030a 0dd1 233f
000000c0: 60bd bb7a 79e9 d33f e16e 11d6 8334 963f
000000d0: f1fd b0ff 7696 c23f dc19 7cd4 0083 733f
000000e0: e52c 8b4f 09f8 a83f feaa e6cd 0deb a53f
000000f0: e7c6 d93b da4e a43f a0fe 9fbc d088 ba3f
00000100: 6d9d f4d2 c79d 7abf 67b4 129a ec32 9b3f
00000110: 74f5 b8c3 43d0 bd3f c579 cdf8 5701 ba3f
00000120: bedc d10e eac2 c0bf 5f70 7664 f85a 993f
00000130: 5d76 a6c0 1551 b4bf 1fd3 7bc1 89eb c73f
00000140: 5e76 f4fc b11d b83f 3310 4b12 8642 b83f
00000150: 3fe3 65d7 37da cd3f 4165 68fd 2491 8bbf
00000160: f45a ce1f 4321 93bf 2d6b 3f87 831f ae3f
00000170: ef4e 661d eab8 bdbf 3273 4d98 c7a2 b7bf
00000180: 064f a7bc db17 84bf 2b45 624a 7323 c43f
00000190: f6fd c2f9 3f20 b93f 1475 da00 b5c4 b5bf
000001a0: 6202 b56d 181a 9fbf 2310 5445 b4c2 ad3f
000001b0: 3483 a5c1 0f19 a93f 3a32 42f3 b6f7 a4bf
000001c0: 6afc 725a da4e b0bf 6e3b 866a 98e7 89bf
000001d0: a075 1e47 5311 92bf 13f1 b986 4f58 aa3f
000001e0: e903 9d73 dfa3 c23f f11f 8959 be2a b73f
000001f0: 8e29 f892 24af 923f 82bf e619 60f1 b03f

layer2.weight f8 [64, 64]
0.0796077376278896 -0.01521179655231152 -0.07283887429388168 0.12088673386531722 -0.07627326516244155 0.04336311051687385 0.004803760075939792 -0.02331129025736192
0.028241773705870995 -0.0712647498898243 0.15856349412147772 0.011131743314658575 0.0453798593238415 0.10739680067814716 0.10878180583697783 -0.1255045367888822
0.16866466783045664 -0.1957387457108226 0.04472735759523019 -0.03764941446121883 -0.012006332944214033 -0.001755762256815988 -0.025272238971365112 -0.03178218552148875
0.04845457834834773 0.02389413315756966 0.054789229841700496 -0.12883036416424215 -0.030423314957949744 -0.07254852707985045 0.060682443288261265 0.16367145729320187
-0.03846468036727597 -0.050659824626729084 0.11852940459837695 0.04009321812395957 -0.003944246420628603 0.008362444379746366 -0.010984378823544331 0.003591939591810343
0.11047794501528775 -0.04684250881948644 -0.08724180018328152 0.014159020026706461 0.1084877103937932 -0.05364823810860352 -0.050494840780212054 0.09719319094211448
0.06371922455677691 -0.06398227480114482 0.12296845895952133 0.0388715092302122 0.06696988868257084 0.012043278517912133 0.15010875319751923 -0.10882548610476196
-0.007947663170029524 0.10845104641101758 0.07000392451724441 0.04587254026056672 -0.11634229519373238 0.06709376529207253 0.24038779436659927 -0.04740375106466571
0.08689682734435013 -0.002167595798157365 -0.08809408553924049 -0.03488232358726549 0.022178828129131585 0.1776071887774069 -0.07209081372413824 0.09896736532350035
-0.028943522617489535 0.010004127581139517 0.007788716605631358 0.08694432987045905 0.06150622116475805 -0.020907175131257037 -0.0913776287714099 -0.030020242089126334
-0.10440770588885193 -0.12265484944955637 -0.053082076505603495 0.02087908349745171 0.041915511779478894 0.05705900454224694 0.01464251020494138 0.006102741811652987
0.12990534141812113 -0.019425436682009682 -0.05368759178768945 -0.10384646278269097 0.10343329822673379 0.054895708394439025 0.04577579536323415 0.04282556033596397
-0.08611733508024541 0.10316157814857957 -0.06071790586280797 0.06311362944354014 0.07240442463750765 -0.03049803684967221 -0.005745504596510049 -0.00044326790894933676
-0.04835273689519069 -0.0012319574270427086 0.13890307103013996 -0.01400007819598816 0.03285468883184375 -0.068748473836201 -0.020943088213423045 -0.093467828456809
-0.0769099894753524 -0.10016097197623888 -0.0724125150853534 -0.10583954860332365 0.08553976632260389 0.041190423567503374 0.06259535314141247 -0.013516041953171312
-0.018603173245373236 0.0014710163674982418 0.04175714188503759 -0.07688599175236474 0.11313779341073228 -0.12276731680970397 -0.06269992927364136 0.049883282795617295
0.05269088363312587 0.026119481304092553 -0.014912585080567193 0.03510013713682574 0.17625234224577857 0.05666213165154984 0.06734099962800769 -0.13616740654850612
-0.1050249276384248 0.002691489478389472 0.006213282600399845 -0.10828034350316536 0.027684560965438646 -0.10487442737949071 0.014038579830951779 -0.020753318510444933
0.09202308421010562 -0.1743824804500763 -0.1741378670905474 0.10688608914547097 0.053658329672054035 0.09201605068726293 -0.0993732749453316 0.038074589205417585
0.07511988679293609 0.020909947266235688 -0.07338343647922706 -0.049035443506960964 0.07732716623081014 0.12374850190135954 0.07937636091210001 0.13582790734522132
-0.18319887867169485 0.1430974057277612 -0.011471910156751848 0.08796740424107184 -0.07537937922762443 0.09738367095395939 0.0932597213521802 0.08229993596342403
-0.12435072843955823 0.10601390930990832 -0.07855927411425526 -0.08461358681258015 -0.10062085276312141 0.02650933056576495 0.008951748025382525 0.003177606028734664
-0.02511889424715299 0.01855761069163315 0.024494623334151523 0.10478736121119035 0.05244724571532293 -0.044889367248904063 -0.21886680571054393 -0.07333756005373854
-0.002167415821048209 0.07654369105335546 -0.03479195343736027 -0.021815376004206424 -0.08151713233365526 0.103587305781437 0.0020097154279077297 0.07589387509719159
-0.06984719167408786 -0.05097953702207243 0.012043646841648345 0.04516352857279279 0.036504780741565886 -0.022126955115108617 0.049358754642750836 -0.11169627985143168
0.03186674631952973 0.07946050257624158 0.10856713264567563 -0.024015095266353613 0.028102680308125412 0.12456004440584552 0.02569981416163178 -0.004307589501311883
-0.1636964613000781 -0.11788450164110435 -0.03186020062671412 0.014936709772595421 -0.11360696173174818 -0.04316288203443854 -0.03718334140635754 -0.07355481494067366
0.08377260536173431 0.10274835321811003 0.14279652050730615 0.07775198606611959 -0.11989778221393883 -0.11616060047882812 0.06981845971551172 0.049107472796242314
0.031759528037694953 -0.1089113315824512 0.05685266337804442 0.03260328806010401 -0.03850883620160732 -0.1116817504594384 0.008594813124155826 -0.027355361247530883
0.15291250977776322 0.1747374214120946 0.12705924372858823 -0.08092965165322547 -0.06888669405671351 -0.0069285903107984105 -0.05008098755603952 0.12357079528136769
0.03453915172587906 -0.043574579064994505 -0.06770574738285037 0.07188083669701752 0.12101014973094397 0.07692107731986496 -0.039465912706916684 -0.025034186296493656
-0.09888513642584938 0.06734595254602684 -0.13696920597548903 -0.0003987831984301327 0.017088394785558823 0.08931942824977364 -0.03685174009732256 -0.045326990681954664
00000000: 3dce 9e35 2c61 b43f fb08 a5c5 5c27 8fbf
00000010: bf3c f886 91a5 b2bf 6fc7 78d8 6ef2 be3f
00000020: ed8b 6e0b a586 b3bf 57ad 0b8b b033 a63f
00000030: b6ab c886 1bad 733f 27b9 2135 eade 97bf
00000040: 9f7e ca59 69eb 9c3f 0569 221a 683e b2bf
00000050: 97ad cbfe ce4b c43f 2f14 df4b 3dcc 863f
00000060: 43ce 6267 073c a73f 7090 9b52 5b7e bb3f
00000070: 703a 78da 1fd9 bb3f 2502 815c 8810 c0bf
00000080: 2848 29c8 cd96 c53f 67ab b19b f70d c9bf
00000090: 334d 3714 81e6 a63f d022 a6b7 c846 a3bf
000000a0: 37e8 b8ba c696 88bf a9ae 3e5e 33c4 5cbf
000000b0: 83cc 833f f7e0 99bf 9705 d22e c145 a0bf
000000c0: abfb b1da 09cf a83f ef80 e921 b477 983f
000000d0: daae af7c 550d ac3f b299 686c 837d c0bf
000000e0: 6d07 1f1b 4a27 9fbf 4d51 2e4f 8a92 b2bf
000000f0: 169a baea c411 af3f 9075 2eb2 2ff3 c43f
00000100: a903 7580 a4b1 a3bf f95c fca3 15f0 a9bf
00000110: 1348 5d6c f157 be3f 8b81 4429 1987 a43f
00000120: 64b8 2496 d727 70bf 1e4a 0149 5420 813f
00000130: 4f11 835e fa7e 86bf c9dc 6ee2 d76c 6d3f
00000140: 411b c558 4848 bc3f 4a73 e2c6 bdfb a7bf
00000150: dfa0 a186 7a55 b6bf 4e37 aa7f 67ff 8c3f
00000160: 55c5 28c0 d9c5 bb3f cf35 5428 c877 abbf
00000170: f114 89b3 75da a9bf 0482 7d28 a7e1 b83f
00000180: d70b 9931 e74f b03f 086b cb71 2461 b0bf
00000190: 86b0 ab65 dc7a bf3f 0fa4 c769 f7e6 a33f
000001a0: da59 b549 f024 b13f 17ea f77a 25aa 883f
000001b0: abd0 e97c c336 c33f b18f caaf fcdb bbbf
000001c0: 97c1 284b dd46 80bf 7263 8da1 72c3 bb3f
000001d0: e4a9 64f6 c6eb b13f 4b3b 6808 9b7c a73f
000001e0: 16a8 ffd0 9bc8 bdbf 56e8 b197 0e2d b13f
000001f0: 3fc0 94f9 06c5 ce3f 0899 0ff1 4d45 a8bf
00000200: d9f4 91d7 de3e b63f b98e 0c22 c7c1 61bf
00000210: 41b0 5c80 558d b6bf 3e16 088e 18dc a1bf
00000220: d2b3 e9f5 0bb6 963f d8ae aa15 d5bb c63f
00000230: 0d86 4927 8b74 b2bf 3f8b 6fdd ec55 b93f
00000240: d9e8 4aec 5ea3 9dbf 6abd 4946 0b7d 843f
00000250: c77f 95b1 0fe7 7f3f 0ec3 5dcd fb41 b63f
00000260: 756d ce50 be7d af3f b910 c3c5 b068 95bf
00000270: 92c3 2837 8664 b7bf 5c94 f657 a0bd 9ebf
00000280: 9e35 3ea2 76ba babf e6e6 14e7 4e66 bfbf
00000290: 02d0 30ed 922d abbf 4004 2b93 5361 953f
000002a0: 1970 9330 f375 a53f 580c e77c d636 ad3f
000002b0: 584b b173 e4fc 8d3f bda2 f347 30ff 783f
000002c0: bbb7 7bfc bca0 c03f fefb 09fd 42e4 93bf
000002d0: 30b6 dba5 f07c abbf f2f9 7489 ae95 babf
000002e0: 3b84 33c9 9a7a ba3f 605f 7d50 4a1b ac3f
000002f0: 2d24 11d0 ec6f a73f 81d4 265a 3bed a53f
00000300: d6cf c921 c90b b6bf f415 5a14 cc68 ba3f
00000310: 5abb ecd7 6a16 afbf 6f51 64fe 3628 b03f
00000320: ea5e e7ab 1889 b23f db38 729b e03a 9fbf
00000330: 21da 7425 9988 77bf 8318 1c2c cd0c 3dbf
00000340: 8e1c 469f b0c1 a8bf 6e57 fd36 342f 54bf
00000350: 9fb7 b169 93c7 c13f 0b19 f2af 12ac 8cbf
00000360: 2326 1b6c 54d2 a03f d2c1 c6fe 7f99 b1bf
00000370: ddc9 d0db 1a72 95bf e73b 73f2 81ed b7bf
00000380: 9d47 8881 5fb0 b3bf 8238 f942 26a4 b9bf
00000390: e0d9 1c68 a089 b2bf deea dff7 4c18 bbbf
000003a0: e3f1 dc22 efe5 b53f 23fa 4244 e916 a53f
000003b0: 5dba 9fc2 3f06 b03f 2829 4871 4cae 8bbf
000003c0: ec46 c3d2 b50c 93bf eea3 2dcc e319 583f
000003d0: 0795 8a2d 3161 a53f 8ed0 18e4 ccae b3bf
000003e0: e104 a432 99f6 bc3f 2721 b7ca ad6d bfbf
000003f0: fb19 b141 1a0d b0bf e4d6 7238 4d8a a93f
00000400: fbd3 00ac 4cfa aa3f 774f f5b7 10bf 9a3f
00000410: 9d42 c249 7d8a 8ebf b7f1 2c2a a5f8 a13f
00000420: 8cfe e4ce 6f8f c63f 3be8 baa4 d102 ad3f
00000430: c20d 157f 423d b13f 9817 f4fe ee6d c1bf
00000440: f4c7 78e5 e9e2 babf e0d4 3069 760c 663f
00000450: 54c4 1c59 1973 793f 4d4f 25b6 42b8 bbbf
00000460: 517e cd6f 5759 9c3f 8819 c8eb 0cd9 babf
00000470: b2be 0c4a 42c0 8c3f 41b1 24a1 5b40 95bf
00000480: 37d2 2829 d38e b73f d3a3 4345 2a52 c6bf
00000490: 9215 134e 264a c6bf 8bf2 4601 e35c bb3f
000004a0: 39ec 32c6 1a79 ab3f e0ab 6828 5d8e b73f
000004b0: d492 fce5 8670 b9bf 6b4d e436 837e a33f
000004c0: cd0c 0e91 0e3b b33f f1a2 adce 6a69 953f
000004d0: 5712 bfc3 41c9 b2bf 0d1d 6a74 2c1b a9bf
000004e0: 4fbe 0d92 b6cb b33f bf67 9858 fbad bf3f
000004f0: fa65 315a 0252 b43f a846 f711 cf62 c13f
00000500: cd86 4794 0f73 c7bf 7020 df0a 0451 c23f
00000510: b733 91b7 957e 87bf 8f54 5424 0885 b63f
00000520: 4b4f 9320 104c b3bf e863 e9e1 22ee b83f
00000530: 31df 3d7d dedf b73f 4201 6dcd 9b11 b53f
00000540: c3b5 e107 73d5 bfbf 0b3c 6841 ba23 bb3f
00000550: 0a44 1ee9 751c b4bf 1144 286c 3ca9 b5bf
00000560: f2c9 e9c7 49c2 b9bf 1577 460f 4325 9b3f
00000570: a8a1 1648 4b55 823f 59b7 223f ec07 6a3f
00000580: 467b 3675 c4b8 99bf 72c3 0c2c c400 933f
00000590: 5d92 9758 1e15 993f e7aa 6f31 58d3 ba3f
000005a0: 26a5 398a 5dda aa3f b65a 8b38 bdfb a6bf
000005b0: 8377 5ad6 d303 ccbf 64ce ff15 40c6 b2bf
000005c0: 43fb 2e82 66c1 61bf e00e ca09 5e98 b33f
000005d0: 6cd6 5a3c 40d0 a1bf d4b8 f319 c556 96bf
000005e0: 14cf 6f89 4ede b4bf 95ad 9c9a b284 ba3f
000005f0: fa2b 30c1 ad76 603f 7057 82ef c76d b33f
00000600: 9b28 f56b 81e1 b1bf bacf 8c68 fd19 aabf
00000610: abc2 79ea 56aa 883f cb5b 628c ac1f a73f
00000620: b987 dd2e c1b0 a23f b75b 51d2 72a8 96bf
00000630: 8d7e ecf9 8c45 a93f a6f8 0b9d 2098 bcbf
00000640: 076c 8b92 d650 a03f 9f80 e303 8657 b43f
00000650: 4038 223c 0ecb bb3f 4604 1ec3 6997 98bf
00000660: 72d2 69f3 f2c6 9c3f a585 1cc5 2ae3 bf3f
00000670: f895 5955 0d51 9a3f 420d 86c0 d5a4 71bf
00000680: 249c e071 01f4 c4bf 23f9 40bf ad2d bebf
00000690: 5fb2 78ef fa4f a0bf fe78 dd3f 2397 8e3f
000006a0: 355c 3c89 5815 bdbf c360 7afd 7119 a6bf
000006b0: b8b5 97e6 b109 a3bf bb2e a204 7dd4 b2bf
000006c0: 2451 5418 1f72 b53f c725 ca50 b74d ba3f
000006d0: 5bde c708 2847 c23f 4360 5add 8de7 b33f
000006e0: bdc7 78fd 9eb1 bebf f6e9 237c b3bc bdbf
000006f0: 899d 2261 9fdf b13f f552 4c5b 9d24 a93f
00000700: 3a3f 84ec c842 a03f fc78 4fef 9ce1 bbbf
00000710: a363 ccd3 ca1b ad3f 2ca1 ebcf 60b1 a03f
00000720: c693 2f20 6eb7 a3bf b887 c8d9 2c97 bcbf
00000730: 9d91 444a 289a 813f 59b1 b637 0b03 9cbf
00000740: ee87 521a a392 c33f b518 2dbb cb5d c63f
00000750: f800 3c30 7a43 c03f 2495 203f ceb7 b4bf
00000760: 8567 1af2 8ea2 b1bf 8d1a ad4c 2761 7cbf
00000770: c1bd 6817 37a4 a9bf 3664 79ec 55a2 bf3f
00000780: 3f3f 309e 1daf a13f efcf 0a40 684f a6bf
00000790: 5eb5 c2f2 2955 b1bf 79a3 d252 c866 b23f
000007a0: 7316 946b 85fa be3f 8f3f 7687 19b1 b33f
000007b0: 5018 c448 e034 a4bf 1a9f b3cd 8fa2 99bf
000007c0: ff6f 024b 8950 b9bf d901 b497 953d b13f
000007d0: e9a5 1cfa 3488 c1bf f7b8 a2cb 7822 3abf
000007e0: a9fe fac2 9e7f 913f 25ee 3a57 a3dd b63f
000007f0: 0892 0935 3bde a2bf 9fce 356d 1935 a7bf

layer2.bias f8 [64]
-0.03780092188262282 0.12558478454809288 -0.006754919563582983 -0.08836851995944679 -0.025648780775834483 -0.013042829810165002 0.06254756191912844 -0.018470280549994125
-0.026777382349969476 -0.10992162434447895 -0.07630480256327335 -0.10385273911978406 -0.014023746438852947 -0.03570996580065677 0.06380974831074043 -0.02552273327644258
-0.09284946198764096 -0.12475128962739084 0.005136100996935543 -0.05915185236406154 0.029512023648736164 0.043591519256530674 -0.09762664932814903 -0.09752134692114788
0.06361925838531536 -0.11097082879197512 -0.08885554258860595 0.030352316021139622 -0.004761134276306685 -0.012377413793684122 -0.03862872668839657 -0.05047412919150063
-0.10140303005337918 -0.09961045619245906 0.07013051049849209 0.07247052237743157 0.08785256792419008 -0.12404436192686329 -0.12650515907441803 0.03298133036711839
0.1066408833788171 -0.122298498569109 0.022131260476136224 -0.07532651390492144 0.07003560337949195 -0.04479607241658111 0.06679347090821634 -0.054744635187203065
-0.08030343777111432 -0.09564812392135802 -0.05996432171282083 0.025632617579682708 0.07776201544322922 -0.0829008331183573 -0.05587496006175569 0.06727506721860996
-0.02485931459506458 0.02634859814951039 -0.06650667951932628 -0.09939440413244861 -0.09222591413896881 -0.06169464628806154 -0.02324399808792198 -0.06833218183433792
00000000: 2c31 7d76 a45a a3bf 992f 4187 2913 c03f
00000010: ff9d cde9 0bab 7bbf 6dc4 38bf 519f b6bf
00000020: ee3a 758a ac43 9abf f309 dbfb 32b6 8abf
00000030: fe1e e3f4 1d03 b03f 8403 a48b dfe9 92bf
00000040: f5c7 dcb5 876b 9bbf b1c7 aed5 d223 bcbf
00000050: 9278 8927 b688 b3bf 0d97 1ed6 1796 babf
00000060: 3a02 9462 7bb8 8cbf 609c 829e 9348 a2bf
00000070: 7c1e 29ee d555 b03f d74b e8a2 a122 9abf
00000080: 2e28 b07a fbc4 b7bf 235e 1555 b3ef bfbf
00000090: 2500 f99c 9709 753f c58c cdce 2649 aebf
000000a0: 5df1 a361 6638 9e3f 2bf4 2dab a051 a63f
000000b0: 211c 1562 0ffe b8bf e72d b0b3 28f7 b8bf
000000c0: d923 290a 5a49 b03f 64b7 7890 9568 bcbf
000000d0: 9084 7ca1 3cbf b6bf fcb2 ac72 ad14 9f3f
000000e0: af3b 2340 6980 73bf 209b 9f5b 5459 89bf
000000f0: 7125 a0fb 24c7 a3bf 90d8 57bc bed7 a9bf
00000100: db68 cb89 8cf5 b9bf 3cae af23 1280 b9bf
00000110: 7af5 0ab9 12f4 b13f a0fc 889b 6d8d b23f
00000120: baa0 1a82 817d b63f 07a4 ba0d 5fc1 bfbf
00000130: d3fc 7f30 5231 c0bf 3356 9cce ede2 a03f
00000140: 5350 8722 d14c bb3f 2748 b453 f44e bfbf
00000150: 9f67 dbbf 93a9 963f ab4a be31 9948 b3bf
00000160: 3d0f 1272 daed b13f 0e74 09c4 82ef a6bf
00000170: 131a 237d 6019 b13f af5e 8523 7d07 acbf
00000180: 04ba fb1e c48e b4bf 307e 2a3c 657c b8bf
00000190: 0ee5 5dc1 a4b3 aebf 5ec9 dcd8 6f3f 9a3f
000001a0: 9e20 3321 36e8 b33f 9af3 0d2f fd38 b5bf
000001b0: 09d7 428c a49b acbf 0e46 8a55 f038 b13f
000001c0: b242 bf5c b874 99bf 7cef 637d 20fb 9a3f
000001d0: 6d45 80ed 9406 b1bf 817e 2763 e971 b9bf
000001e0: 3511 1215 1e9c b7bf 9080 4ad0 7096 afbf
000001f0: 7db1 764e 46cd 97bf 9428 3ec6 377e b1bf

custom_layer2.alpha f8 [64]
-0.29119951594372967 -0.9108572061061829 1.0634556712834218 -0.11785942903049475 -1.2639615927358827 -1.1252640792966737 0.46004539850336523 0.05758655499324661
-2.1113690559689884 0.46660418750475235 0.9885358982228778 -0.7946743353792861 0.141156567126014 0.20043299287618127 -0.09672597877877412 0.971210624907688
-0.410114516395728 -0.7242106069894247 -1.795277151331283 -1.4848297528533334 -0.18335181322781835 -2.1949372446828996 0.4079472884849993 -0.08533814440769118
0.5492465975000346 -0.32256134247788504 0.7424150698668726 1.5031750054421353 0.2619434704350244 -0.10355443860053826 0.9171402513065735 0.022498792373228726
-0.9253013759278268 1.0543303770800718 -0.2733080994865425 -0.26297320712600314 -0.38397763679119407 -0.26416094279185126 -1.4194453223486103 -1.5611767292194032
0.4402296243410653 0.440444595595992 -0.24582061057491802 0.9333109968884085 0.5348534841616543 -0.29779862314524397 -0.8238723101563297 -0.25683985082577127
0.9739491143022535 -1.2640190364132542 0.30215971454306917 0.5992636055948405 -0.3854805316504124 0.265816341337648 -0.7655038980060059 1.5998972447887292
-1.3684456254956217 0.7702658276639877 -1.1871122179947486 0.9830331390918898 -1.5200633935002976 0.917913390485611 1.1161681288950158 0.46711102799767434
00000000: e7b7 654b 03a3 d2bf e1a9 f102 be25 edbf
00000010: 4387 0e18 ea03 f13f b911 3619 092c bebf
00000020: 0436 83ca 2f39 f4bf 9015 3fe8 1401 f2bf
00000030: ccd2 4f41 6271 dd3f 0046 c524 fc7b ad3f
00000040: b662 a975 15e4 00c0 af9c 60cf d7dc dd3f
00000050: 7e41 3909 16a2 ef3f 1396 2ddf f86d e9bf
00000060: 78ff b51b 6b11 c23f 1aa7 b8ce c9a7 c93f
00000070: da46 87a3 08c3 b8bf 2433 f04d 2814 ef3f
00000080: 5f35 e2f4 503f dabf ccf2 0db9 bb2c e7bf
00000090: 1c95 c388 74b9 fcbf 1220 cad7 dcc1 f7bf
000000a0: 5ce6 bc7c 1278 c7bf b57b 1542 3b8f 01c0
000000b0: 9c3c a2f1 ce1b da3f 7915 557b b8d8 b5bf
000000c0: 2976 b699 6d93 e13f 285e 3954 d8a4 d4bf
000000d0: 4058 a43f ddc1 e73f 149e 083c 010d f83f
000000e0: bad3 ba8b aec3 d03f 901b 252f 8b82 babf
000000f0: 5f9f 2683 3659 ed3f c321 c565 ec09 973f
00000100: e0b8 91a1 119c edbf e6cf 8b87 89de f03f
00000110: 0db4 4141 e17d d1bf 9025 1593 8dd4 d0bf
00000120: 8577 1af0 1693 d8bf 51fa 8a4c 03e8 d0bf
00000130: cb28 5f4c 0cb6 f6bf 9a60 3473 94fa f8bf
00000140: 8c9d d1df b82c dc3f 0939 7287 3e30 dc3f
00000150: 250f 8dbd 0c77 cfbf 7d40 1406 afdd ed3f
00000160: dc07 d40d 851d e13f 3ef8 ccf4 210f d3bf
00000170: e871 8676 295d eabf 15cc e669 1070 d0bf
00000180: dbae 3c55 972a ef3f 69a9 6e06 6c39 f4bf
00000190: 3765 08b3 9556 d33f efcf 76de 2a2d e33f
000001a0: c8b9 2b89 b6ab d8bf 9067 328b 2203 d13f
000001b0: 9dae dc07 027f e8bf e43f 75da 2d99 f93f
000001c0: 33ba 7d3d 27e5 f5bf e361 6185 04a6 e83f
000001d0: f182 8f61 69fe f2bf 9815 e9e9 0175 ef3f
000001e0: 90e3 2efe 2d52 f8bf 1547 16e7 8b5f ed3f
000001f0: d110 a71c d3db f13f fe75 36a7 25e5 dd3f

custom_layer2.teta f8 [64]
0.645684437924448 -0.3566323555346041 0.4931115648722031 0.1475428261702461 0.27410259343032317 -0.08605367880236967 0.1556598490962824 -0.24720542768269854
0.0837768788777033 0.044758555338068676 -0.8495018746895943 0.42888568071363253 1.8697464094790577 0.8244221161239231 -1.1315044847106872 0.6594352139425474
1.9209835440993108 0.5607190847742124 0.7394098746840472 0.41938198865761966 -0.9825515780390669 -0.6984018094458778 0.5382472901644718 1.1640464765835137
-0.06962852324451622 -1.4345866750350198 -0.8752214054255985 0.6619978063395298 0.9010077487144887 0.9322321295792243 -1.4217071990497645 0.21258672322940655
-2.316641814657453 1.2700043786551791 0.3297280481427403 -0.16436781151950808 -0.013779325055793067 -0.7345538605176227 -0.5082721990565194 1.2944269296537934
1.4697255637425763 0.1013339731993329 0.6145469194056081 -0.9700272819964407 0.4711551376276203 -1.232077083732954 1.0138850117372404 -0.45669702584933236
-0.08184972658358554 -1.0900712588558663 -0.3624872260686083 0.45432087140201666 -0.5560484738420319 0.03393992541564024 -0.4820291414324046 -0.646492605824705
0.11312731015081062 -0.9027018785428355 -0.5240298058621942 -0.039512717975296374 -0.5126548652017436 1.0226039984949848 -0.07332608919815373 0.06089384214341949
00000000: 207e 0d69 72a9 e43f 45dc ed83 10d3 d6bf
00000010: a0f3 19cf 238f df3f 328f 94ee aee2 c23f
00000020: a80c a29a e58a d13f 461b 2828 9d07 b6bf
00000030: 289c 9574 a9ec c33f aa3b a56d 6da4 cfbf
00000040: fcd0 f0ca 6672 b53f fa52 c9e6 97ea a63f
00000050: 05d7 358e 1e2f ebbf e4d0 18ed dc72 db3f
00000060: 676a 0836 7bea fd3f 603e 5b7d aa61 ea3f
00000070: 78c1 5172 a41a f2bf 20d9 b6e0 171a e53f
00000080: aff8 a03d 59bc fe3f 3925 6b26 69f1 e13f
00000090: 2870 c3e5 3ea9 e73f 0638 748d 27d7 da3f
000000a0: 95f3 c901 1071 efbf 4f31 61c0 4e59 e6bf
000000b0: 4d58 8d61 5239 e13f 1b34 bf32 ef9f f23f
000000c0: 9337 34c6 2cd3 b1bf 3ad8 4828 11f4 f6bf
000000d0: befc 2152 d001 ecbf 9010 0806 162f e53f
000000e0: 6a7b c533 0ed5 ec3f ad57 9a79 d8d4 ed3f
000000f0: 0781 460c 50bf f6bf f1c3 eaaf 0a36 cb3f
00000100: b3ff f380 7b88 02c0 db9c 811c f051 f43f
00000110: f934 d6ab 431a d53f 84e5 7e23 010a c5bf
00000120: 4cff cdb3 5538 8cbf 0a5c 0219 7781 e7bf
00000130: 773d 0d0f c443 e0bf b7cb 1e03 f9b5 f43f
00000140: 97e9 e5f3 fe83 f73f 7868 ddf4 05f1 b93f
00000150: 5e8c 164d 5eaa e33f 23e1 8ca7 760a efbf
00000160: 16fe dce0 6727 de3f a38b cc75 96b6 f3bf
00000170: 6f0e 757d df38 f03f ac03 8d29 863a ddbf
00000180: 4df0 dc8a 1af4 b4bf 2787 718f ee70 f1bf
00000190: f4ac 4b9f fd32 d7bf e5f5 23d9 9713 dd3f
000001a0: 388d 442b 26cb e1bf 7ab1 60eb 9260 a13f
000001b0: e6f3 8ac1 90d9 debf 05ef e342 11b0 e4bf
000001c0: 94d6 6151 e9f5 bc3f c122 cc0c efe2 ecbf
000001d0: d6d5 c927 dac4 e0bf 88be f5ce 023b a4bf
000001e0: 29a8 052d ab67 e0bf 79b7 a402 965c f03f
000001f0: ceb5 0ca3 7fc5 b2bf ba4a 1149 7a2d af3f

custom_layer2.gamma f8 [64]
-0.0002713236753297845 0.017811402866951632 0.012773116175565515 0.05722286600437733 -0.06574391430416185 0.03548735527258327 0.08731350131564211 -0.005292237130160042
-0.01663312274603015 0.07937955021130158 0.016607032509932253 -0.014379885879901902 -0.028773907582032427 0.012372351525711698 -0.07514889745647069 0.016923588602150184
0.023126781439038534 -0.001453584495198197 0.0030394979728441763 -0.005353630401595656 0.07915302950207564 -0.0029808253603581547 0.0013931686485183896 -0.002083275548653286
0.08441203637609912 -0.07610558803030387 0.02970386794978352 0.019064664253888235 -0.0005286878078583883 -0.0009412455514781816 0.02684243453228168 0.0946454455856308
0.07538412747514425 -0.03309284118442867 0.018571703153502563 0.16917497860940045 0.012541007175756019 0.025008730764510614 0.02260597057585875 0.008674619784316722
-0.011787104036333478 0.09128240443305542 0.01581878538005293 0.08425658788388381 0.044619736050263765 0.04136894259188742 -0.0019876433285166417 0.03123733304018458
0.05383068603822809 0.04982471211203793 0.024491989422954892 0.01100244075909149 -0.04775892847517922 0.051897317071863444 0.004921104506827459 0.1421719398473127
-0.010704859369689254 0.43289340924383196 -0.02732501982579082 0.07683632088866717 -0.022553658456555423 -0.0007491182896241039 -0.0026227091720653936 -0.016368879275551113
00000000: 2d80 ea4f 0ec8 31bf 4add 3c03 273d 923f
00000010: 74be efa1 ca28 8a3f 32f6 24c4 504c ad3f
00000020: 52ef d8d9 97d4 b0bf 4d72 a20c 662b a23f
00000030: 3262 a678 2d5a b63f 11f1 5816 50ad 75bf
00000040: 47f1 e5f8 4508 91bf 76f4 20dc 3752 b43f
00000050: 2719 0e16 6f01 913f 3b5a 989c 3373 8dbf
00000060: 95fc 2b40 e876 9dbf ff9d 6be9 ac56 893f
00000070: 90ef e748 f53c b3bf c90b 4fce 6a54 913f
00000080: 3607 c507 8cae 973f 8638 9b77 c6d0 57bf
00000090: d2cc 770c 4ae6 683f 8ee9 d537 b0ed 75bf
000000a0: 9c3a 1779 5f43 b43f 05ab 026e 3e6b 68bf
000000b0: b5ee 1f72 5fd3 563f 0262 330b f210 61bf
000000c0: 8cc5 9ff7 069c b53f 900c a2e3 a77b b3bf
000000d0: dfd6 a2d5 b06a 9e3f ab2e ebf5 af85 933f
000000e0: e512 1a6c f452 41bf 35aa 386e bdd7 4ebf
000000f0: 2d3d d849 957c 9b3f 1771 8115 af3a b83f
00000100: 5aab 24ca 5f4c b33f ffd8 3c7d 8bf1 a0bf
00000110: 6785 b3e6 7504 933f 5ce5 3694 86a7 c53f
00000120: c320 6e7d 19af 893f c4fe fd82 e39b 993f
00000130: 7746 4501 0526 973f c322 3bc2 ffc3 813f
00000140: 5c08 ce52 d623 88bf f57e bd9d 485e b73f
00000150: 0ea5 7ab7 cc32 903f 890f 6ff9 d691 b53f
00000160: 391f 2fe6 65d8 a63f f427 015f 4f2e a53f
00000170: 006a f2e2 6348 60bf d793 49ef adfc 9f3f
00000180: c661 1c18 b28f ab3f 088e 1bea 9f82 a93f
00000190: 729f 5796 6d14 993f 324d e499 7288 863f
000001a0: ea29 c9b7 db73 a8bf 96c8 25ff 4892 aa3f
000001b0: 6a1f acee 2628 743f 90cb 06ac b032 c23f
000001c0: 0b71 35e7 6dec 85bf 05cc d68e 86b4 db3f
000001d0: bdaa 0e0a 17fb 9bbf 159e 5c8d 8bab b33f
000001e0: 1c7c e765 4e18 97bf 4dbc 0247 0f8c 48bf
000001f0: c7bd de43 387c 65bf 2885 a4e4 00c3 90bf
