COLA_Emulators/PCE/LCDM_PNN_HIGH/MODEL_Z1.667_teste.pth (torch, 97098 bytes, 17 tensors)

layer1.weight f8 [64, 19]
00000000: ca77 972b e211 a13f a86c 8c5e 08d5 acbf
00000010: d5f4 b3ab 5bb8 bd3f b084 ff50 f0d6 95bf
00000020: 06ff cfb9 fd8b bbbf 2175 f13a aaee c9bf
00000030: d6d9 182b c62a c6bf 338e b083 c331 cd3f
00000040: 096a d938 9b3d c2bf 9ce6 3b5f fe64 c9bf
00000050: dcf9 2db2 6f74 a5bf ca27 c1ec 96a5 d1bf
00000060: 2fec 388d 90eb c8bf c255 4ad8 9b7f c1bf
00000070: 20a8 0f70 2b84 bb3f f8cc 30a5 c835 d1bf
00000080: 9554 b453 44d8 573f 09da 2eae 3f7e cc3f
00000090: b90d c5ff a081 b53f f295 505c b18f b9bf
000000a0: 93f6 178b 85b9 b43f e8d5 f9a1 3cab cc3f
000000b0: 4d9b a0d8 7fd7 c2bf 7c17 07dd c4a7 a73f
000000c0: 6652 781e f339 c23f c01b 5c67 df81 b6bf
000000d0: a7c0 a390 eb33 c8bf a854 3774 a343 cdbf
000000e0: 492c 1a4a 698b c0bf 14bc 1b66 8410 c3bf
000000f0: 8d95 1b8c 207e c6bf 6fc9 fca0 ef38 c0bf
00000100: 00a9 3b14 6521 a9bf f8b6 36a3 8541 c33f
00000110: 7a75 6c23 fa07 a23f e984 fc01 4a60 97bf
00000120: acf4 afca cf40 b33f 1242 78de e9f0 ab3f
00000130: dd7d 5933 9c21 be3f 5507 32c1 f94a dabf
00000140: ed1e 74e0 a9fd d43f c86a e61f cc52 a63f
00000150: 4b78 f9e2 fc1a c03f 2dba 1227 fb7a be3f
00000160: e7d3 4ccd 1091 d33f edab 9a99 2d07 743f
00000170: 6d2c 2bba dc34 78bf 6b8a 720a 60a1 bb3f
00000180: f3f3 c12f 3c50 85bf 0353 cba4 162c b1bf
00000190: cb58 26f4 bb16 b13f 6313 a60b 56ac b5bf
000001a0: 9b36 4b69 ccc2 b93f 585b df36 eb77 ad3f
000001b0: 43d9 9b6b 44a7 c53f c926 d885 cd6c cbbf
000001c0: 5e7f ae22 b30b c23f c1b4 c09a 9458 bd3f
000001d0: 7c73 094d ba65 cfbf 8357 8dfb 327b 903f
000001e0: db6c 2d87 2ece c73f 8609 ec1c 8ae0 9a3f
000001f0: 16db a3a1 b20a c03f 358b db11 747b c1bf
00000200: 4fb2 fa64 7cb2 bc3f d463 460a 744d be3f
00000210: 7c3b a976 e8af c2bf 898a aca6 09a8 833f
00000220: 9f7d 70ff 4d5d bc3f c55a e2f7 8bb3 ca3f
00000230: 45c8 7ce8 3578 d03f ba7b 8ee5 f956 a83f
00000240: fc6a 3070 9af8 b23f 3f54 7c2b cb23 c8bf
00000250: 7531 f04d 3f5d b83f be36 f747 8ae3 ccbf
00000260: 780e 75e0 80e1 90bf 7d19 c91d 574e 8e3f
00000270: 4635 31ef 130d a33f 2802 102c ab28 b2bf
00000280: a5ed 07b7 6895 ab3f 5fce e745 e101 cf3f
00000290: b0cf 5e43 01e3 98bf 3998 2092 9be7 cabf
000002a0: 27fd aefd 0e4f b2bf fb17 98da 454f c8bf
000002b0: 6d10 19cc 9f27 b23f 4d69 9502 d9aa ccbf
000002c0: 41ff 534f 664d ad3f 427c 832e e2a1 cdbf
000002d0: 0cc1 ce15 c84e a6bf 70b6 1c9a 24ee c6bf
000002e0: 0e17 2583 3ecc 92bf c984 5917 fdad cc3f
000002f0: a22a 12e4 eae4 963f bdef bdd4 7389 a33f
00000300: b780 7174 3d5d bdbf bc3b 221f ac0b b63f
00000310: 0db7 2da5 18b7 c33f 71bb 4690 1b94 b7bf
00000320: 9df0 c669 ad18 bc3f 79f0 f4e8 a37b a13f
00000330: dc58 69bb a233 c03f bde0 6dd9 d96c c23f
00000340: 0a31 adbf 79ac b7bf d7b4 fc7a 82a7 c73f
00000350: ac5a 800b 5d05 b1bf ccf3 55e3 54e6 a6bf
00000360: c243 48c5 80fa a63f 2856 c6c7 d346 bcbf
00000370: db12 eed6 6da9 bb3f b1ef 4e68 0d74 a53f
00000380: d0a8 c536 60eb cc3f 9f26 4da9 f78f c9bf
00000390: e126 dbfb 9812 a0bf b230 bc8a 75b3 b1bf
000003a0: 2e21 78d5 21cf b9bf 616b 2c81 d92b b43f
000003b0: 8af0 38d3 327f b3bf 77e6 78f1 9f68 a13f
000003c0: 4b8b 193a 0080 c43f e74a 1afe 8711 5c3f
000003d0: f7c7 00b4 95d5 c1bf b537 d32b d053 9fbf
000003e0: c13d e6ed b6fc a0bf 0755 7506 e77d b1bf
000003f0: fce2 12b7 f549 a93f 5108 44f0 ae41 a53f
00000400: 97a5 d675 17e5 8e3f ab38 e834 8ae6 a4bf
00000410: 825c a4fa f4f6 973f af8c 2c1b 45d8 a23f
00000420: 23af 0b43 11ef c33f be41 8baf fdbb b03f
00000430: acbd 3d83 2506 ae3f 82a3 7221 02aa cdbf
00000440: 48eb f4b7 4002 d13f c74a f793 eb60 bdbf
00000450: 5fe1 9a20 a0f1 cf3f 5008 6a7b 38ee ccbf
00000460: 631d 10b9 b1a1 b93f f0d2 eabb 5375 ce3f
00000470: e8a7 59ad dffd ccbf 6568 da2e 7a06 cabf
00000480: ce89 e9e9 295c b43f b6f1 50fb 21b0 b3bf
00000490: b1c6 4de8 0a41 a03f f085 fb7e 9247 ca3f
000004a0: 1442 f5a8 bfcc cb3f 3171 3ea0 9134 be3f
000004b0: ba19 af03 86c8 993f 8ff1 b272 901c a4bf
000004c0: a386 99d3 9c3f 943f b466 16f7 ab99 8c3f
000004d0: edd9 282f a285 a33f 0a89 8f50 3071 b43f
000004e0: 04ed 0c9e 9f8e a2bf 698b c893 710b 9bbf
000004f0: 446d f402 c3d8 9e3f 4b7b 81de e5d7 c73f
00000500: e15c 8da9 199b c43f c5f8 261a 2b24 89bf
00000510: a337 9c90 3773 c23f ca36 13ef e146 c63f
00000520: f17a edf4 72eb 773f bd34 776c ded7 bbbf
00000530: 1647 b3b6 2259 c33f de26 2b6a 9d70 763f
00000540: 2d91 e516 108a 9abf f143 4115 64a4 c83f
00000550: 04d9 9c7d ad2f 943f 108f d723 f4f9 a23f
00000560: cb5c 3558 ee20 b3bf 9fa1 7688 646c 7fbf
00000570: b84f 3246 ed02 cf3f 9041 8b74 952f c83f
00000580: 6e52 bde9 a0e2 c13f 3073 6715 c458 c63f
00000590: 55f1 232c 3a81 c3bf 0482 348f 4060 ddbf
000005a0: c7e3 4ab7 b686 bf3f 87af 4d24 3d67 b93f
000005b0: 2c7e 51dc cb23 b93f 8240 5444 c617 bdbf
000005c0: aec9 40b2 6d66 bebf 57a1 45a6 0030 d03f
000005d0: da6e 21b3 c137 8fbf 2461 ce26 4732 c1bf
000005e0: f6dc 4d90 9247 94bf f6f2 d551 9fd1 c8bf
000005f0: 4e43 cb4b f043 433f 0414 1156 de46 903f
00000600: 939c abe7 53d3 b13f 3737 d72c 4811 bc3f
00000610: 04b3 dbb8 f949 c1bf 600a 9977 25b8 babf
00000620: fc50 7854 706a c63f b56e 0cd8 0f0d a73f
00000630: a677 c3c7 bc48 cc3f c2f9 3650 7f1a cd3f
00000640: 8a07 27e1 0f48 c73f e2dc c126 df61 cabf
00000650: f192 b512 c3c6 5ebf 7fe4 158a 00fb c2bf
00000660: ce05 7e25 d46b c23f 2f05 5558 2a75 c93f
00000670: 95dd a279 1b8e c5bf 9b81 a61a daff c7bf
00000680: ded1 88d4 0f49 813f 9f44 7dc0 e67b a33f
00000690: 333a 9e3f 0cdf 95bf c3bc de76 d44b b73f
000006a0: 3939 96f7 0501 a33f 7e97 82dc e2f8 b93f
000006b0: 5401 907d 2f87 c7bf 7d60 d145 4121 c7bf
000006c0: a88f 8d3d f871 c93f 2bfe 6928 1ff1 96bf
000006d0: 9e50 eff9 8ee9 c03f 543e 92a1 37a5 b63f
000006e0: 574e 0cda c098 bcbf 4174 bc57 3ef6 5f3f
000006f0: befb 8da7 b034 c6bf 631a 042a 769b a2bf
00000700: 3097 0d69 1bdd cabf 67be da80 16d3 b8bf
00000710: f710 dfa3 1293 c83f 103a cfc2 36c5 c5bf
00000720: c96f 4f75 9d0d c0bf 138e 5f78 421b d13f
00000730: 4e0c 3f21 184f c93f 8a60 d63d 620b d0bf
00000740: bea2 e956 3aa0 c6bf c51b e5e4 dff3 bebf
00000750: 5eb6 648c 856a d33f 895e 0ab9 d7e8 d13f
00000760: 6b72 b47c 09e1 c9bf 2bf2 94dc 2d1d d0bf
00000770: 6dac d281 bbc2 b1bf 11b3 2995 5441 d13f
00000780: 510e 693f f002 b03f 8dfc 7cc1 f4b0 b5bf
00000790: da76 1fee 088b c1bf 5d80 5448 154b b23f
000007a0: 6810 8e10 8091 993f 4286 a3bf 15d4 bf3f
000007b0: 4635 ef48 7273 bcbf 3987 61e8 c9b5 b9bf
000007c0: 18f6 f4f1 6596 c4bf 5839 8609 7a8a c4bf
000007d0: 7ea9 bdb3 e9e7 91bf f679 d624 5473 be3f
000007e0: 594b 170d a826 97bf 8fdb fde2 a8d9 b3bf
000007f0: 2c32 5ba0 25eb bd3f 2847 8b08 2d16 ab3f
0.033339565106629346 -0.056312810460633245 0.116094331187884 -0.021327738708241284 -0.10760484491765618 -0.202595976620537 -0.17318036178921997 0.22808116846236856
-0.14250507617801159 -0.19839458131882715 -0.04190396356624479 -0.2757317840629382 -0.19468886275885341 -0.136706810579808 0.10748549924724715 -0.2689077008428309
0.0014553706412859014 0.22260280613927844 0.0840092300832599 -0.09984882835177425 0.08095583577957148 0.22397573384266356 -0.1472015197516278 0.04620185087291781
0.14239348399918866 -0.08791919969017581 -0.18908447802050896 -0.22862666296592704 -0.12925449484132148 -0.1489415644241211 -0.17572409478377118 -0.1267375503608252
-0.04908290740952914 0.15043707341595058 0.03521711046617333 -0.02282825123905222 0.07520769785328935 0.054572399527504825 0.11770035031940247 -0.4108261477159563
0.3279823963098199 0.04360044373898614 0.12582360346545082 0.11906404212889106 0.3057291035541411 0.004889658093513366 -0.005909788337429151 0.10793113951744153
-0.010406942565390742 -0.06707898639008296 0.0667531462735013 -0.08466089043038276 0.10062863894128286 0.057555532882978155 0.1691670918878093 -0.21425789866798642
0.1409820479720975 0.11463288095611103 -0.24529198419159204 0.01609496746399187 0.1859796676679711 0.026247175231227902 0.12532647030430927 -0.13657999870255258
0.11209847894014867 0.11836934328893217 -0.14599328798291455 0.009597850226389386 0.11079871641458404 0.20860433200569709 0.25733707145548507 0.04753857543186464
0.07410588492386333 -0.18859233496974245 0.09517284062184735 -0.22569397462796376 -0.016485227298530053 0.014797859760744764 0.037209151218670786 -0.07093305421586449
0.05387427553429384 0.24224487222055566 -0.02430345510192894 -0.21019310603259259 -0.07151883786626866 -0.18991921590367142 0.07091711743220382 -0.22396385790018272
0.05723113745079767 -0.2315027930371532 -0.04356980577665767 -0.17914254689224007 -0.0183572547478184 0.2240597118389245 0.02235762612375914 0.03815805408427717
-0.11470398037772865 0.08611560592747386 0.1540251547370918 -0.09210369369860218 0.10975154716919851 0.03414642542563313 0.12657579565956822 0.14394686810169857
-0.09247551850893757 0.18479949002486393 -0.06648808985515114 -0.044726040602632716 0.044879936296758696 -0.11045573832810673 0.10805403230012749 0.04190103433890558
0.2259331004564218 -0.1997060372034882 -0.03139188837446994 -0.06914457928741305 -0.10081683599139943 0.07879409221315604 -0.07615964562222835 0.034001348711581274
0.16015627705481914 0.0017131641438125568 -0.13933059014522062 -0.030593159365529938 -0.03317805913968242 -0.06832736880945244 0.04939239368235879 0.04151674921924154
0.015085395129818475 -0.040821379621875785 0.023403003499961723 0.03680625874246723 0.15573325895035692 0.06536851440183164 0.05864064433159952 -0.23175074227517817
0.26576250042460403 -0.11476013529253769 0.24956132499734004 -0.22601991678317512 0.10012350814951314 0.23795553851746076 -0.22649761165968063 -0.20332267081977587
0.07953130684612761 -0.07690632234238745 0.031746235711478284 0.20530921173398964 0.21718593358902238 0.11798963701443622 0.0251789989231612 -0.03928042793401964
0.019773912825604822 0.013964980581295229 0.03812891793898019 0.07985212294400781 -0.036244380992195985 -0.02641084160326149 0.030123755507799346 0.1862761818365136
0.16098328379550877 -0.012276016936877085 0.14414114533468333 0.1740381638868967 0.005839776086615998 -0.10876264713370438 0.15115770264542822 0.00547849168897027
-0.025917292974001405 0.19251681363905918 0.019713125983991567 0.03706324517750492 -0.07472123769308607 -0.007671730716005603 0.24227682044567955 0.18895214262603277
0.13972865498603276 0.17458392186281335 -0.15238120227139498 -0.4589997671592132 0.12314931845584375 0.09923154960932666 0.09820245865693583 -0.11364401977721353
-0.11875043489343426 0.2529298423528607 -0.01524306610024644 -0.13434686083633907 -0.019804277475000874 -0.19389716621289893 0.0005879329033523313 0.015895341876120753
0.0696308556176624 0.10963870138877217 -0.13507005239753067 -0.10437235040539283 0.17512325405608198 0.0450215293151052 0.2209697699935848 0.227371133963926
0.18188665860912706 -0.20611180679745816 -0.0018784432421280995 -0.148284976410455 0.1439156706874613 0.19888810456363035 -0.16839927138583435 -0.18749548245706368
0.008440135644470933 0.038054667470200025 -0.02135867250722807 0.09100082304097427 0.03711718222904143 0.10145395167873336 -0.1838130343530887 -0.180702361193429
0.19879057889477036 -0.022404181329419053 0.13212763980721304 0.08845851606951644 -0.11170583079756945 0.0019507988753908608 -0.17348297292116216 -0.036342327717694876
-0.20987265233559915 -0.09697094579564124 0.19198830606013192 -0.17008099090749385 -0.12541549900094953 0.26728879695130664 0.19772626517633046 -0.25069480933007837
-0.17676476711064554 -0.12090873087173211 0.30337656698507043 0.27983658857690635 -0.20218008603196166 -0.25178095380013826 -0.0693776313734575 0.26961245123565997
0.06254483745674945 -0.084731385458314 -0.13705550791831095 0.07145817771788772 0.024969101915772646 0.12432990959816784 -0.11113657265305674 -0.10043012545932307
-0.16083978952694689 -0.1604759737496788 -0.01748624000121301 0.11894727610931696 -0.022608400153170425 -0.07753997365749242 0.11686930813738944 0.0529035637788538

layer1.bias f8 [64]
00000000: aea3 fcd7 e56c a6bf ce2e 7998 b47d c2bf
00000010: 61c6 c59f 2275 b13f c01c e644 d569 c53f
00000020: aff8 07a3 4625 c83f 8e4a 8f1d 109d b1bf
00000030: 9d7e 2d5c fc49 c0bf 5a9d 2b0f fd61 cdbf
00000040: 177f 144f 3f8a a63f 8dd2 d5bb 17b5 c3bf
00000050: 74e0 4d84 7705 8c3f 9645 ac49 6979 ca3f
00000060: 0a95 266c f91c b43f 8aae 9e9b 05ac a93f
00000070: 139a c614 85b2 c1bf 9053 4ca5 116f b8bf
00000080: bd12 696b 6196 a5bf 3a46 8ed7 5f84 97bf
00000090: e94c 5c70 d3e4 cb3f 7407 135d 6746 c5bf
000000a0: 4822 90f3 768b ba3f 298a 859e e200 983f
000000b0: 60c4 be3c a0a9 c0bf a628 1b52 84db bf3f
000000c0: 51f8 e656 ff88 bf3f c1bb 72b8 4b4f be3f
000000d0: a9b7 c38b b628 93bf 7a20 8863 2db1 c2bf
000000e0: 73eb 0d5c 8b98 c03f b6ae e6d3 e918 c33f
000000f0: 4e33 a489 c8fd bcbf 261d 7cd4 df2a babf
00000100: 4bed cd24 a635 babf bdb8 4025 78d4 bd3f
00000110: 5eea 759b 6ad6 be3f 479c 7291 2650 2abf
00000120: d3dd d99b d189 b73f 431f c82f ffa5 a0bf
00000130: 8b55 68d4 eab7 903f cab8 cd60 a39f abbf
00000140: 41de 95ba 3c50 bc3f 2fa7 c836 037d c9bf
00000150: 9fa9 76a6 c234 b0bf 7f0c 7515 079f cb3f
00000160: 136d cddf 5627 a7bf 5725 74b2 d018 b43f
00000170: a953 ccd0 4dc9 c93f cc6c 80c4 14f3 cb3f
00000180: bab5 2860 18f0 a6bf 431a c504 f05b a8bf
00000190: 1bce c048 4c4b d0bf f1fd edff 102f 8abf
000001a0: dd1d aeb0 b30f b9bf d863 0663 a955 c13f
000001b0: 47c7 74cc e652 603f 7623 714b 7802 dc3f
000001c0: 1244 f536 cacf b8bf 9404 faf6 5f68 aa3f
000001d0: 62a7 79d8 cf56 a5bf bf89 de2f 1565 cb3f
000001e0: 74cb 33a9 438e 90bf 9864 136b 7b88 cdbf
000001f0: f6f1 ed73 351e adbf bc91 6b83 d896 b6bf
-0.04379957448538306 -0.1444612259386901 0.06819359207818244 0.1672922693653387 0.18863757095818331 -0.06880284043954019 -0.1272578668676844 -0.22955287209263525
0.04402349319775405 -0.1539640109218862 0.01368230221281428 0.20683017823516242 0.07856711283109888 0.05014054798752195 -0.13826049341624067 -0.09544477735137336
-0.0421629375091803 -0.022965905696372448 0.2179207132945529 -0.1662110523666872 0.10369056173670643 0.023440876889603644 -0.13017657247613368 0.1244433117346114
0.12318416473041906 0.11839745762948352 -0.018709995537328137 -0.14603202209423555 0.12965528483240582 0.1491977963136059 -0.11324742660890516 -0.10221671044938727
-0.10238111876053783 0.11652327451222085 0.12045923514771448 -0.0002007529335277 0.09194669775921875 -0.03251645525239024 0.01632658883507569 -0.0539523177784403
0.11059932284649056 -0.19912758040418896 -0.06330505909014626 0.21579063937869944 -0.04522201044047782 0.0785036502531019 0.20145580954763645 0.21835574717338202
-0.044800531137620905 -0.04757642801500996 -0.25459582428740796 -0.012785084543565058 -0.09789584220390375 0.1354266866226499 0.001992655542971375 0.4376507508027808
-0.09692062227010492 0.05157756700374097 -0.04167794721145303 0.21402230107658046 -0.016167695238390192 -0.23072760322864805 -0.05687109985499099 -0.08823922356129449

custom_layer.alpha f8 [64]
00000000: 6ff2 e959 81c1 f3bf 85e2 fe92 c371 cdbf
00000010: 38aa 6934 87fe ee3f 4c88 4dc2 db1d e53f
00000020: e476 47f3 0141 f6bf 4802 939f 8644 cabf
00000030: ca77 93bf 7315 f8bf 828b 3308 3358 acbf
00000040: 51d4 50f4 7141 efbf 3d54 5f39 70b5 f13f
00000050: d992 97fc 648d dbbf ca04 b0f3 f387 bbbf
00000060: 6627 d3cd 30dd f93f 1cc4 3e66 e385 ebbf
00000070: cc1d 3be4 49c2 e33f 8f3c f5d7 6ebf e53f
00000080: 8f7c 0139 6f2a d93f 274e 07f5 016b f13f
00000090: a8cf 4421 f2e4 ef3f dc4f 2b1f 5129 d4bf
000000a0: a0bf b580 e919 01c0 6e83 e244 7a7d fb3f
000000b0: 3d6b 4d80 8395 e33f 0889 9208 0fb6 e4bf
000000c0: 7f90 a21b 8327 e63f 6fc0 fe28 c15b c3bf
000000d0: 61db de27 5f33 d0bf c55a 224a 0d02 763f
000000e0: 1343 e9eb 035b f6bf 3c7d e6af 47e9 e5bf
000000f0: 62f2 f96e 2878 f3bf 1762 acd5 3a60 eb3f
00000100: f67d 5112 f1e9 cd3f e31a d525 af3a e83f
00000110: 2064 22a7 1bb4 df3f fc0a e9df 8c48 f03f
00000120: eda0 9161 1780 e4bf d7b6 04e4 0dd4 f1bf
00000130: b686 5624 9d68 d1bf 0106 6675 774b edbf
00000140: 2cef 4828 004a f03f 4b96 e287 46e6 c5bf
00000150: 784f b563 a5b1 e43f e3f0 e30d 6bd1 f13f
00000160: c028 b2fe 2f10 f2bf 2885 2a31 ee78 e8bf
00000170: 943c abff 0e06 f33f 2546 1db7 8f60 0240
00000180: a13d d1ae 790f d23f 9ae0 c060 c6ed dfbf
00000190: 8c44 0b58 a818 e6bf 64bf 7b76 fc14 e63f
000001a0: 3031 e1ce 3e3c eebf fa95 a3ea 81d9 f9bf
000001b0: d2a6 ec49 333e f53f 69fb 8dbf c79f 05c0
000001c0: 4aa1 174f 3fd7 f13f 92ac 9801 f973 debf
000001d0: 56ca f0f7 56b0 d33f 7acf b715 eb6a f2bf
000001e0: 289f e6f0 2fe3 e53f 8427 75c6 dbf0 dabf
000001f0: 246a bed6 bfc8 f1bf d54f e8cf ad1b cc3f
-1.23474249956703 -0.23003430058976818 0.9685703300177186 0.659894828317428 -1.390871000584803 -0.20521624366485214 -1.5052373393477745 -0.05536040759195428
-0.9767389079849044 1.1067964783772049 -0.4305050341338706 -0.10754322719005241 1.6165016212493923 -0.8600937840439005 0.6174668748507712 0.6796182840279402
0.3932149941155751 1.0886249133517454 0.9966974878102421 -0.315021782339725 -2.1376524024453403 1.7181341830075456 0.6120011812121003 -0.6472239653997187
0.6923232593294556 -0.15123762609210042 -0.2531354798660939 0.0053730506062012505 -1.3972205367355783 -0.6847265658906632 -1.2168354353917938 0.8554968045528452
0.23370183367204306 0.7571635950960992 0.49536792108261984 1.017712473535254 -0.6406361489908058 -1.1142710597009022 -0.27201012180931217 -0.915462235731127
1.0180665563229452 -0.17108995089545184 0.6466853091646803 1.113627485522607 -1.1289520215091642 -0.7647620163226394 1.1889791476312768 2.297149115162727
0.28219453880316264 -0.498887629018563 -0.690509960137335 0.6900617899063772 -0.9448541679971978 -1.6156024137102336 1.3276856315300631 -2.703017708321046
1.1150506104987294 -0.475828410681694 0.30763792241046894 -1.151103100620246 0.6839828209967651 -0.4209508359968981 -1.1115110767774548 0.21959469463092654

custom_layer.teta f8 [64]
00000000: 7d8b 0b50 5549 ea3f 697f 84d9 8c22 c0bf
00000010: 9482 b301 438b da3f 52ea e5f9 96c0 eabf
00000020: 0f84 23a0 61b2 f5bf e4f6 6928 dd83 e1bf
00000030: d604 c65d 7bc6 d5bf e543 90ba 7160 cbbf
00000040: 13f7 da75 4e39 01c0 58b7 9122 0c55 f6bf
00000050: 1911 3e2a 02fe ce3f 259a a450 0162 e13f
00000060: d812 c10b e934 d4bf b281 a915 1fd2 a2bf
00000070: e252 4987 fd9d e7bf ee04 620b e66e fd3f
00000080: 7ccf f11b 728c d8bf e372 767c 5461 ea3f
00000090: 021d 8417 c935 0a40 a463 3342 6012 f0bf
000000a0: d9fd b2c2 3c71 ef3f c0e7 64d2 15e6 563f
000000b0: 9eef ec9f 6682 e03f 1b87 279a ba6c dcbf
000000c0: 1e8e 0004 e0bd d3bf 9dbd 36c1 267c e33f
000000d0: 3bd2 2de4 2300 e6bf 3548 a205 dad7 963f
000000e0: 4dcb bfee 8751 d8bf 422d b626 f022 f03f
000000f0: 19ff c35a b8ba 01c0 7761 3105 8621 efbf
00000100: 8b8b d2cd d973 ec3f a1b3 4c10 b39a ec3f
00000110: 6bef 958a 7b82 ddbf 179d 3e6f aade f4bf
00000120: 120a 28b8 0949 80bf ac9f 491e bd4a d83f
00000130: d357 07a6 80e8 dabf 4c5d 0100 6a9e 0540
00000140: 1f15 aee6 c653 f4bf 373f baeb c6d6 eebf
00000150: 7615 ff94 93cb e6bf 7756 a00c 2ea9 da3f
00000160: 4cd6 24ec 6d2d f53f b44c e853 91ff fcbf
00000170: e42e 0ab3 1f94 f9bf 0092 15bb 729b edbf
00000180: 44df 045f af48 a1bf 6ee1 f992 09a3 f23f
00000190: 260e 611e 49b9 ecbf 08de 30a1 1a87 c73f
000001a0: 2609 6f19 9485 d5bf cce4 cc3e 15e7 9e3f
000001b0: d882 a073 3617 f8bf 8003 61cd a005 f8bf
000001c0: 9ea7 d6ac b801 e63f 1421 6329 e518 e33f
000001d0: f3c2 c199 027a d83f 8c97 5276 f58b bcbf
000001e0: 8826 fa6a d3e8 b33f d4b4 9f04 3335 eabf
000001f0: 7058 dbde 749e a9bf 06c9 16f1 26c5 f3bf
0.8214518130665592 -0.12605438824629836 0.4147498623479262 -0.8360094910452267 -1.3560501342219629 -0.5473466672262615 -0.34023937375611746 -0.21388074502513557
-2.1529816825340133 -1.3957635259971166 0.242126722933002 0.5432135176714082 -0.3157293906008767 -0.036759349245360964 -0.7380359308541211 1.8395748562473346
-0.3835721276184285 0.8243811064636158 3.2762624585335525 -1.0044863306013463 0.9825729181974864 0.001397630033876926 0.5159180758996518 -0.4441362862981905
-0.30846405402027866 0.6089051984508164 -0.6875171143170243 0.022307783693186607 -0.3799762565169445 1.00852980729799 -2.2161719409049394 -0.972842226164217
0.8891419429750028 0.8938842123367189 -0.46108902486570597 -1.3043617578021605 -0.007951808865077434 0.37956169088146896 -0.4204408284543863 2.7023506164947886
-1.270453358739651 -0.9637178997090591 -0.7123506460272171 0.4165759204200649 1.323591158330049 -1.812394454730378 -1.5986630433789566 -0.9252256063451227
-0.03375766787433901 1.1648040524724723 -0.8976178735105733 0.1838105475487597 -0.33627798541796705 0.030178386648206865 -1.5056671635322143 -1.501374056111871
0.6877101302863939 0.5967889602989396 0.3824469090969124 -0.11151060236679039 0.0777713905501064 -0.8189940538701657 -0.050037052349282685 -1.2356328408755544

custom_layer.gamma f8 [64]
00000000: cd52 bbd2 5ad5 673f 1524 60bb ace2 acbf
00000010: db33 b974 e99b 903f effc 455c c2f4 b93f
00000020: 999b f047 76eb b2bf 6cf2 17fb 2d0c 93bf
00000030: cf13 c1a2 573e b6bf 9ca2 b305 1668 993f
00000040: ff47 315c 8577 b13f cd1e 3121 ebe8 c63f
00000050: 5822 ac46 275c 5dbf 1c22 538c 4f13 a03f
00000060: 9261 4fad 0053 9a3f aedc 691c 0a76 943f
00000070: fd0a 3d7c 5a40 c23f 32a4 ea1d 4b0d a1bf
00000080: bddd 4d7e 87a9 c53f 08a4 d7d8 3dca 7c3f
00000090: 0272 efa6 b4bd b5bf 429e 4a5e de94 a83f
000000a0: 267e 9e61 3697 5abf 2460 3af9 cbd5 563f
000000b0: 6b96 f1e3 7961 933f a333 0727 325a a53f
000000c0: f5a3 413b 05a9 a93f 3b2c e716 91bb 71bf
000000d0: dba2 970a 9e4f c03f 197b d678 3ab5 b63f
000000e0: b646 32a4 df07 95bf bcc6 c909 d789 4abf
000000f0: 8fc2 aca0 96ed 803f 8ebb 2830 61ab ab3f
00000100: a4c2 2e3e 089c 633f fa71 d474 972c 68bf
00000110: 3aab 2802 6576 b43f 5fce 6fab 48cb b43f
00000120: 4bfe e5df f233 a6bf 4bba b501 5603 53bf
00000130: c1f0 dbb9 3527 b63f f8e0 900f df84 70bf
00000140: b29f 0e00 6e58 c03f 0dd8 95de 8edd b73f
00000150: bbf1 fedc 5fbe c93f 277a b681 4c1c 9f3f
00000160: 10bd f4ed ad58 5a3f fdef d13e 1947 e1bf
00000170: 1af9 9e46 f95c 993f ed81 a849 935c c43f
00000180: f505 592c 899f b33f a67c dc40 8054 373f
00000190: 9ed7 f086 a557 ba3f a9dc f2b3 7638 a43f
000001a0: 0e54 a746 aa42 83bf 8681 8dd1 bc65 833f
000001b0: 7a07 5d16 601c c13f 7461 fceb 037f c5bf
000001c0: cb84 56b0 cd3f a43f 1b40 4a11 844c 823f
000001d0: 80b0 67b6 5a75 a83f 0be0 71bd 41e3 a83f
000001e0: 15a1 7187 a76c 70bf ae6f 17be f418 c13f
000001f0: c491 299b 0d16 aebf 35fd 38c0 6a37 9fbf
0.002909352673535848 -0.056416890976898205 0.016219756840928894 0.10139097931640938 -0.07390536552757822 -0.01860114903500902 -0.08688876842013758 0.024811119173053883
0.06822999478143287 0.17898310776421625 -0.0017919906192124437 0.031397329215512054 0.025707254961021393 0.019981534942840433 0.14258891168909563 -0.03330454578583221
0.16923612277217429 0.007028810110093715 -0.08492592883653319 0.048010777483167746 -0.0016229659144996272 0.0013937465600175692 0.01892652944333976 0.04170376516740439
0.050117648585747 -0.004329268222544032 0.12742972867206145 0.08870282602445591 -0.02053784789729348 -0.0008098888388998397 0.008265663889319512 0.05404189789657386
0.0023937378877792615 -0.002950950444427611 0.07993155768114671 0.08122686562983848 -0.0433650873483172 -0.0011604633244492065 0.08653579509331434 -0.004032965976016316
0.12769865992345114 0.09322445806705577 0.20112226763548144 0.030381389061966992 0.0016080568819452669 -0.5399290301279503 0.02476872914825732 0.15907517525285134
0.07665307362278624 0.0003559887999120083 0.10289988083317644 0.039493283716575185 -0.009404497414758264 0.009471392769854214 0.13367844669306433 -0.16793869993922395
0.03954928185999903 0.008935004975938956 0.04777034260391222 0.048608831763829206 -0.004009870920619348 0.13357409745992527 -0.058762002173156996 -0.030484836561524637

layer2.weight f8 [64, 64]
00000000: 8e7e 048f 82e8 c33f abe8 c48e 886c ad3f
00000010: ccce 0730 458c c0bf a1d9 92a8 833a b0bf
00000020: e8ba 5792 9bd2 c3bf fdfa db61 203c 65bf
00000030: c8ab 77c3 1fce c8bf c3f4 a3fc a0e5 b83f
00000040: 025f 2f3e b434 ac3f ee9f fe44 6432 a5bf
00000050: 74e9 139f ff78 70bf 59f4 9582 7ce5 bd3f
00000060: f333 4113 ee0f a9bf d5e0 9ca3 a734 bf3f
00000070: 3c24 7168 2f42 90bf e8af ccb5 f16b 973f
00000080: 81d4 d6cd 781a ba3f 5bc1 7521 b595 a33f
00000090: 6181 93fa ad08 a6bf e52f 57c2 c071 a6bf
000000a0: 8f83 c4cf 5bd5 ab3f 981c fe3b ad22 bdbf
000000b0: 6a3c 042d 191b b93f 8e11 5739 9bb6 92bf
000000c0: 5c60 04af db54 9a3f 970b ccd6 2918 b0bf
000000d0: 64bd d8cf e7ed a33f 8ebc 9640 7614 c5bf
000000e0: f7f2 43fc a7da ccbf ef82 81c6 f49a 9d3f
000000f0: aaaa 2815 c0e7 c03f a412 c4a3 b57d b33f
00000100: 42fb 7a21 0e33 c53f 0f7f 674a cd15 b0bf
00000110: bcfb c5fa f18b 90bf 9c99 ccbc f68a 893f
00000120: 55e3 fde4 da56 ac3f db5b c3af 7347 71bf
00000130: 2feb 0b3d 3635 a0bf bef8 4c3a f1ac b33f
00000140: 63e3 2195 6545 abbf 4795 0343 0f96 b7bf
00000150: 0eda 5ebb 6174 b83f 3527 914f c8f4 acbf
00000160: cf54 1abf e277 963f e8d6 8b27 cd81 c13f
00000170: 43c3 e765 6c50 b2bf 4aa7 c190 ac42 b6bf
00000180: 1e3d da38 8690 bcbf e301 2860 7855 9bbf
00000190: 01d3 2289 bc80 943f 5e7d 739c 3497 bebf
000001a0: 5e75 c483 b8a8 babf fea0 73fc cd0e b43f
000001b0: 024d ed90 d108 94bf 11f3 691b 2691 993f
000001c0: 7ec5 e329 e050 ba3f 1ce1 f24c 6225 b9bf
000001d0: aabb edf1 6afd a8bf fcad 20e6 8b92 b73f
000001e0: 03b6 4c06 9d40 bebf 4747 73d6 10e5 c1bf
000001f0: fab9 c21a a9d6 a0bf 31ff f8e2 870d bb3f
00000200: 261e de80 c169 a13f 459e 8167 f7f5 b3bf
00000210: 9d5a 137d a3c0 c0bf 474b 4a48 35f1 acbf
00000220: 7a61 2996 42b0 b9bf ddb4 d983 c8d3 a7bf
00000230: 9546 b703 2afe 8dbf 299e a359 44d0 b43f
00000240: 8891 8ee6 bbd6 91bf 6860 033e d394 bc3f
00000250: be11 dc46 9bfd bb3f 7fa2 b4c5 1255 b23f
00000260: 46a6 415a da40 b53f be6e 26c0 0c35 aabf
00000270: 1858 5b39 8560 bd3f ab1c aa35 aefc a93f
00000280: 1c62 95c4 a8d1 b03f 8f97 63d7 8d07 a3bf
00000290: 07c5 34de e08a aebf e81f 60c6 421a b73f
000002a0: a086 f5fd 35ea b6bf 9c72 9fc3 ef39 ba3f
000002b0: 94a4 1b23 8b9b b93f 6038 c03f c881 aabf
000002c0: 6f32 2bf3 078e b4bf eaff 3bff 694a 743f
000002d0: a64c b47a a3fe b73f 92e8 fb18 dc2b a1bf
000002e0: 147e 789a 6284 a23f c046 e9b3 7726 b7bf
000002f0: 8d59 0c82 92d3 a4bf 815d 08fe 6951 94bf
00000300: 1dc4 3d7f ff18 8f3f 9af8 7640 c3d6 bbbf
00000310: 64eb 461f abc2 ab3f 3a41 643d 4add 8a3f
00000320: ebcc 101d e1fc a23f ac7a 07b5 88d7 b7bf
00000330: cea1 931a 8b80 97bf 50cc acda 134d 89bf
00000340: 2746 0eff eb8d 9f3f 7122 5cbe a65e 84bf
00000350: b0aa c4dc 9cd0 ac3f 0c01 7e1b ad12 b53f
00000360: 6127 e2ee 19d9 c23f ac24 158c 3422 bebf
00000370: dd95 9970 a5db 8c3f 479f 96a4 ccf3 c83f
00000380: 226c 3e94 a62b c63f d435 ee9b 8f57 973f
00000390: 581a 965b 1328 793f fffe 0f31 c8cc a6bf
000003a0: 5acd a9b8 9420 be3f e59f fcf8 12b8 b83f
000003b0: e4c2 2c5e c773 9b3f 2e42 17dd 52ae bb3f
000003c0: ae1f c7ea 2097 79bf 8e1c a3fe 071f b03f
000003d0: 5bab dac1 9230 a1bf f7cc 6f3c 5839 b83f
000003e0: 0793 61c0 543e ac3f 3286 682a 54ba c63f
000003f0: 784e c0cd 59a0 b93f d944 8009 fc01 85bf
00000400: 9553 b8c0 b860 b03f 9de8 3db7 e8cf b1bf
00000410: f02e f347 2e7f bdbf 1698 80c5 31be adbf
00000420: aaa4 9a9c f14d 90bf f7d6 df49 d487 ba3f
00000430: 44d5 19eb 29a3 b53f 0eb6 96c5 719b a03f
00000440: b3f9 54d2 c382 71bf c804 4fe7 8373 9e3f
00000450: e986 a8b9 738c b73f d856 f2c7 bb77 b7bf
00000460: d454 dcfd b646 763f 59a2 6e31 7d6c 93bf
00000470: 150f 2857 2848 c8bf 856c e792 5f87 a33f
00000480: 89f8 00d6 fc63 b8bf c63a 11ac 5ac9 adbf
00000490: 2dd0 d225 6197 a93f 84da 3e66 226a 953f
000004a0: aa1f a0c8 7c59 a7bf 753a 31bf a191 adbf
000004b0: b45f ab4c 3d0b b43f bb5a 04a2 da9c a5bf
000004c0: e482 bf35 9f57 b1bf 3b61 1896 e03d bfbf
000004d0: fe2f 4771 194b b5bf a893 68cd 3002 b53f
000004e0: bfc6 694d 1710 a93f 3e51 86cb af7c 78bf
000004f0: 9579 2833 39aa a93f 03b3 544f 04fa c13f
00000500: d595 c0d1 f7f1 a93f 557c 3e49 aa4a be3f
00000510: d0b6 4b78 be12 b3bf 25af cbd3 5ea6 c23f
00000520: 87e2 e04c c109 adbf 6632 0379 371c ba3f
00000530: 1b7f f7a7 4662 c23f 62af 264e 7984 b73f
00000540: 4057 b5ee 1d3b abbf e257 6e92 c18b bb3f
00000550: f126 d85e 9509 c53f 9afa 6092 a713 b0bf
00000560: de40 e2e5 e5c3 ad3f 7cc4 483c d61c bb3f
00000570: 5d21 3581 3ca8 bfbf b5ba 9004 abbd d03f
00000580: 8958 c9a8 10b6 a33f fb01 61a5 6962 b73f
00000590: dfe8 bcc4 f540 b23f 7a1d d777 950d b7bf
000005a0: 5a5c 9faf 0c87 97bf 5cf5 fddf 92e4 b93f
000005b0: 8ad6 117c c7f0 aa3f 0355 acde 458b a33f
000005c0: 5079 7318 fc71 b93f cd76 b217 dc25 963f
000005d0: c733 e42f 9991 933f 86fe 130d 3803 c0bf
000005e0: df46 33ad 9332 b13f 5627 afb4 248b bb3f
000005f0: 7f4e 8ba8 b503 843f 982c 07c4 f70a b5bf
00000600: 64be 63ae 323a ab3f 86ff 2f42 3cca a53f
00000610: 37ee c471 1f53 c93f 8365 59cc 4bb5 cb3f
00000620: 9cec 5352 183c afbf 95a0 36dd 0f5a a2bf
00000630: e5d5 17ce 6c6f 7e3f fa4f 90a7 8ab3 a53f
00000640: d590 91f1 bd47 c13f b0d8 f008 d0e4 d03f
00000650: 6de1 7b5e 3291 b23f d6df f492 8c09 b53f
00000660: 84ec c439 eccc b03f 2020 598d 9a82 833f
00000670: 5db1 9967 0996 bb3f 98b2 fbc3 2e54 bcbf
00000680: fd0d d709 69e5 c23f a183 59cb a87c c4bf
00000690: 344d 6d8b e986 c93f 8550 6d23 6555 1abf
000006a0: 850c 1ec4 5f91 8c3f cc41 6223 be20 9fbf
000006b0: 9877 72fc c844 b43f c7e8 9069 b16d 713f
000006c0: bb00 8a3b 1752 83bf 26a5 8114 ed4c a43f
000006d0: 6cb0 d7a2 10f6 c4bf 31dd 7125 8890 aa3f
000006e0: fe92 3c97 fbbd babf b6c5 2bf3 3387 c63f
000006f0: 0aa7 5cc3 fe13 913f d51c abcf bd3a bfbf
00000700: c6d0 501c 1f08 b33f fc35 7467 3a9d b5bf
00000710: 0a34 eba9 11db b0bf 1092 f059 fb00 b23f
00000720: 8ef9 1606 851b b4bf 65cc b557 c6d9 953f
00000730: 574b 0d76 abc1 b73f 0441 b642 fa72 c23f
00000740: 9a4f 6893 7cd0 8b3f f15e 0ce8 1c4c b1bf
00000750: a5c1 c7d4 6215 a3bf 2f7b 8dac 186d b63f
00000760: ef14 8d67 c514 b6bf eebe e31d a1c9 a13f
00000770: 5fc7 7ab6 dbf7 c73f 7b39 4e0c ab72 b53f
00000780: 4f1e 0024 cc29 b1bf f70a a828 e291 b13f
00000790: 585e bb5a 82ee b23f 804e d97d c29e 8d3f
000007a0: b5c1 95a3 3c40 b4bf 46a4 3cc6 4590 c43f
000007b0: 0f14 6945 7b1c b6bf fc4f 741e bbd0 b03f
000007c0: 910c 930f 1cf1 b23f d878 be2d f8d2 b13f
000007d0: 6acb 65de ef1e a8bf dd2a ec2e 9b4a ad3f
000007e0: b2b9 8b53 7871 c5bf 1580 614d 7d55 963f
000007f0: ba65 ea9e 68ed b03f 5b76 c92b e30a b23f
0.15553314193038087 0.05746866934573921 -0.1292807087444231 -0.06339285722319811 -0.15486473699225844 -0.002592147108657071 -0.19379040760335742 0.09725385826091597
0.05508960017294663 -0.04140008299083307 -0.004021643181881241 0.11678293407563113 -0.048949661112238994 0.12189719910100234 -0.015877476453429504 0.022872711869396684
0.10196642899866683 0.03825155290076295 -0.04303497012893121 -0.04383661625215022 0.054362172233829324 -0.11381037439979236 0.09806973790203846 -0.01827471291996257
0.02571433311194969 -0.06286870473927163 0.03892445003691128 -0.16468694833517755 -0.22542285745284804 0.028911423316801906 0.132072458583328 0.07613692520323895
0.1656205810049532 -0.06283267084608844 -0.01615884869670102 0.012472083698935425 0.0553501514941163 -0.0042185324675391945 -0.03165597434231981 0.07685764001232351
-0.05326383061851094 -0.09213347803195858 0.09552584480739076 -0.056555041992920975 0.02194170276068946 0.13677372389763964 -0.07153966415331774 -0.08695486578076586
-0.11158026588440292 -0.026693230503953457 0.020022340650672103 -0.11949471301658351 -0.10413697449663092 0.07835090077754 -0.019564890356673643 0.024967761443337958
0.10279656431864301 -0.09822668436652687 -0.048808424026780386 0.09207987182951877 -0.11817342189598183 -0.13980303260046353 -0.032887730137520735 0.10567521373104395
0.034009978276170735 -0.07797189976701542 -0.13087886435706234 -0.05652777202080599 -0.10034576574378731 -0.0465376530599799 -0.014644935835266973 0.08130290211158155
-0.01742070765216533 0.1116458917998685 0.10933847885104961 0.0716106159858416 0.08302082732702684 -0.05118598790724381 0.1147540345221788 0.05075592427334049
0.06569914626505419 -0.03716700796375882 -0.05965330803372564 0.09024445861007246 -0.08951127481625543 0.10244654203365616 0.10002965552452486 -0.0517714097805857
-0.08029222189652228 0.00495377926904437 0.09372922654829327 -0.03353774838429148 0.0361662686884722 -0.0904307188259521 -0.04067666852477023 -0.01984181988708889
0.015184398718448172 -0.10874576877447098 0.054219577377316225 0.013117389677547043 0.03708556632809653 -0.09313253802927574 -0.02295129155837277 -0.012354045020037813
0.03081482643353275 -0.009946158108065735 0.056279088925596965 0.08231622620769857 0.14725040592412156 -0.1177094308851731 0.01409081697347408 0.19494016682187462
0.17320711363285662 0.02279495610451028 0.006141734710928569 -0.04453111266047748 0.11768464573269935 0.09655874804286631 0.026808848498322116 0.10812871835447233
-0.006247643072533933 0.0629734989807835 -0.03357370964416503 0.09462501025682345 0.05516304825213152 0.17756130285947475 0.10010300896856872 -0.010257691421460201
0.06397585587576622 -0.06957869027783876 -0.11522187477674684 -0.05809169326703072 -0.015922331984857742 0.1036350899083479 0.08452093114631959 0.032435946817127456
-0.004275097778473502 0.029737530701599707 0.09198687822984265 -0.09167073852071483 0.005438532649141698 -0.018968540327167414 -0.18970207458198077 0.038142191584221975
-0.09527569031431161 -0.058176835541066604 0.049983058802724 0.020912683001109503 -0.04560460995713751 -0.0577517076386486 0.07829650041401132 -0.04221232631441781
-0.0677432543011594 -0.12203792252001204 -0.08317717567041424 0.0820646764264682 0.048950889777996213 -0.005978285502710455 0.05012682675827588 0.14044240830971697
0.05067419467404092 0.11832680023370419 -0.07450476109417115 0.14570222226699872 -0.056715050348832334 0.10199305252462806 0.14362414552214706 0.09186514051424191
-0.053185401334003846 0.10760125946975976 0.16435496455260748 -0.06279990504934077 0.05813520842741736 0.10590876552375222 -0.1236608329246613 0.2615764183600889
0.03849842129118126 0.09134540832111064 0.07130371144458846 -0.09005102325237671 -0.0229761106673688 0.10114400833659459 0.05261824979326686 0.0381719431226575
0.09939551922750423 0.021628798433645003 0.019110101268825532 -0.12509823454455588 0.06717799166224435 0.1075919095157166 0.009772700506267327 -0.08219860587921557
0.05317839030055607 0.04255855853989403 0.19784920745029108 0.21647021749485526 -0.06100536351183303 -0.03584336829527605 0.0074304819295227574 0.04238541884856768
0.1350018910917529 0.26396561501622795 0.0725280266450505 0.08217695796781696 0.06562687311536491 0.00952645057545004 0.10775812892251709 -0.11065952572580284
0.14762604694816153 -0.1600543015402112 0.19942969615895267 -0.00010045461463664876 0.013949154064681455 -0.030398341092736023 0.07917457736263456 0.004255002038059347
-0.00943391943405946 0.03964939952204309 -0.16375930739684763 0.051883940287491 -0.10446140711117022 0.17600106595595627 0.01667783801455073 -0.12199007339505681
0.07434267464924735 -0.08443036103945895 -0.0658427276459436 0.07032748170656355 -0.07854491614032197 0.02133855734195968 0.09279891616942613 0.1441338372938007
0.013581250427740877 -0.06756764092676427 -0.037272537683637176 0.0876021786948342 -0.08625444200614017 0.03474143495429681 0.18725153360497424 0.08378094721249411
-0.06704402808110753 0.06863225452984155 0.07395186152586442 0.01446296640930389 -0.07910517686628434 0.1606528490022205 -0.08637209362593999 0.06568498128427785
0.07399154072031623 0.06962538830564158 -0.04711103048148042 0.05720982501778391 -0.1675253303469169 0.021810491416886253 0.066122568891294 0.07047862833993561

layer2.bias f8 [64]
00000000: eaab 4ad2 1fc0 a73f cddd 51f9 3b92 a5bf
00000010: b375 b2cc 45c4 a6bf 9ef9 13d4 9b77 96bf
00000020: afef b1aa 84ce 633f ccee 3704 ddb1 95bf
00000030: 6469 5b37 4131 b83f 93f9 338c 4d7f 9b3f
00000040: 5f58 19b5 c45f b1bf ef99 42da 4a35 bc3f
00000050: 1ec2 f350 cd5e c0bf e2a6 b384 592b 86bf
00000060: 4207 2b97 c9ae a8bf 69f8 aa12 3f71 ba3f
00000070: 2ba6 2fcf 3745 ab3f 9af8 5dc3 00db 9bbf
00000080: 6ffc d79a be1d bfbf bf5a d4ce ae9f 783f
00000090: af16 dcb0 7e58 bd3f 958e 265b aa5d bc3f
000000a0: 92c6 4dab e071 823f 85f7 37ce 5a14 733f
000000b0: 66d4 1ff6 5ec1 a53f 811a 8a87 afb3 b6bf
000000c0: d267 179b 86a5 b7bf d3d1 207b 64e4 afbf
000000d0: 1b0e 21ce 58ae adbf d105 6705 7ea2 bb3f
000000e0: b1e8 9a92 d14c b6bf ba79 3cdf a06c b13f
000000f0: addb 9935 cebf 9bbf 93d5 5e14 d385 bdbf
00000100: 29f9 ec49 abc2 b53f 6472 c5c8 de25 b8bf
00000110: 7a24 50b1 93d6 ba3f 8d11 9833 cae6 b8bf
00000120: f981 d167 e52e a93f ecbd 67b3 6396 a33f
00000130: 5822 a84c ce72 823f 14d5 2a73 6793 973f
00000140: 4130 1c38 6c9e 7d3f c476 3092 2551 b4bf
00000150: 11dc f136 df71 afbf 0289 3ffa b8d7 a03f
00000160: 1734 1e95 f254 b7bf f75d c9ea bdba a8bf
00000170: 5e91 fe11 4420 943f 3d20 d412 c5d2 75bf
00000180: efd2 a178 52dd b43f 3edd a5df 59c2 813f
00000190: ce1d b195 9232 b5bf d827 169b c078 b43f
000001a0: 8ad1 4c8f c9d7 7bbf ee95 674a d658 96bf
000001b0: d421 df60 e24c abbf d004 8303 02b9 a83f
000001c0: 9c08 006c 2057 b53f 1979 1f72 0e65 a53f
000001d0: 66f7 0eeb e63b 963f 7582 75ba ef56 af3f
000001e0: 1223 38a1 5cae 813f 5ad1 80d6 4fe6 b53f
000001f0: 46f9 5fe8 ad4f 84bf 957f f784 2580 8abf
0.04638766710316829 -0.04213130396322704 -0.04446619151824951 -0.02194064599916034 0.0024178115032195894 -0.021186307318187755 0.09450156785479674 0.026852809603036553
-0.0678675596367113 0.11018817738167973 -0.1278931279444046 -0.010824870455013739 -0.04820852251351805 0.10329050260313156 0.05326246647002749 -0.027202617573032307
-0.12154761581767713 0.006011660426586018 0.1146315748011044 0.11080422139508024 0.009006266811158601 0.004658083638330872 0.042490928215479326 -0.08867928561276452
-0.09236947332774939 -0.06228937151937299 -0.05797078624939563 0.10794818527121854 -0.0871096594736709 0.06806378793814974 -0.02709886743692962 -0.11532325026822425
0.08500166468454452 -0.09432785417215822 0.10483668402607008 -0.097271573635288 0.049185913966315505 0.038256755495122835 0.009008037294749346 0.023023239521269792
0.007231161814854004 -0.07936320132327085 -0.06141564889633611 0.032895832584261 -0.09113994732452145 -0.048299727354500215 0.019654334638873443 -0.005327958887626547
0.08150210805053935 0.008671476495449523 -0.08280292658411456 0.07996753488819708 -0.006797587721667839 -0.021823261538790044 -0.053320955586574265 0.04828649800175244
0.08336069714281041 0.04178662436582865 0.02171288308794974 0.0612101473914252 0.008633350057623033 0.08554553019422909 -0.00991760125543507 -0.012939732666325013

custom_layer2.alpha f8 [64]
00000000: 3ebb 0dcf 2e9c c3bf af9f 6a58 dc51 b83f
00000010: bd34 56b2 d938 f13f a55b ac5c fed9 f6bf
00000020: c37b 0ee9 f08a be3f 0f97 8a45 1fdb e4bf
00000030: a7a4 f94d 6141 0040 b74c 4463 93a8 ea3f
00000040: 9826 700a 2818 f73f 55aa b149 c74d f93f
00000050: 2ba2 66a9 2cf2 d43f 21ea a548 92a1 f3bf
00000060: 8c39 bb11 ac8c e53f 7e69 d3ec 4676 e0bf
00000070: 63fa a644 7a3f e5bf 5648 8dd3 0614 f23f
00000080: f6f0 03b6 87f2 e7bf ea2e 206e 0ebb e43f
00000090: d338 39cd 1f50 c63f 7917 98c3 f307 d33f
000000a0: 3771 2f8b d178 eabf 3ab7 c49c d57a d5bf
000000b0: 5b73 8e42 8f8e cbbf 1cb3 ba65 f65a fe3f
000000c0: 5565 98a4 e2b0 f83f 28f5 6688 a561 f3bf
000000d0: 7a6e c86d 8e07 00c0 6a01 c767 16a3 b13f
000000e0: 7f11 c83a 5f27 f1bf 56bb 132c 8a8e f03f
000000f0: 3ae0 3fff 39c7 c8bf 5a13 092b 17ea e8bf
00000100: 0dff 7e7a 352a e63f 7642 de27 5d14 e4bf
00000110: e5ae 5609 7dee e33f 06b1 39de 9e77 e83f
00000120: aa33 2bd9 8b65 f63f 10d6 dafe e85e a7bf
00000130: 5475 94aa 94ef e43f f961 8d35 d7fd e13f
00000140: 1e12 d559 259f ca3f 7a2f 5cab 8ec9 d63f
00000150: 5d75 a4b5 bba1 c03f b217 6884 48fc ea3f
00000160: f87f ac2d a752 f83f 97a6 2712 7132 ddbf
00000170: f7d1 4af3 9956 bf3f 2c3b e5b9 0190 e03f
00000180: 688d ed3f bfd2 d33f add9 9273 54e2 df3f
00000190: f548 bc65 dd09 d03f fbf2 58dc c39e dbbf
000001a0: e88c a113 10ce fa3f 1086 09f4 1984 f33f
000001b0: f245 bb83 7bf5 fdbf 3bc0 f175 ce08 e8bf
000001c0: a2d6 da44 19a1 fcbf e8a3 2465 f3cc e4bf
000001d0: d183 d6a1 d7a1 d7bf 20ef 712e 5d47 d03f
000001e0: 08c0 927b f305 eebf 7613 a73f dc32 8fbf
000001f0: 4264 c88d 9bd6 edbf fee4 bfd9 eea7 fcbf
-0.1532038222316831 0.09499909552198348 1.0763794866827958 -1.4282210941362135 0.11930757226808368 -0.6517483099202951 2.0319238750276614 0.8330780924610711
1.4433975608575675 1.5814888838455279 0.32728115599687396 -1.2269461477104715 0.6734218927684181 -0.5144381165985548 -0.6639987316955963 1.1298893226380833
-0.748355727671451 0.6478340292828453 0.17432019730262613 0.2973603639696801 -0.827248355718928 -0.3356222182218179 -0.21528807401491687 1.8972076391029935
1.543184893560768 -1.2113395050249185 -2.0036896302024703 0.06889476808192332 -1.0721123024132735 1.0347997400055724 -0.19357991183619722 -0.7785755005394137
0.6926524536611126 -0.6274858263660252 0.6228623564142849 0.7646021213854801 1.3997915728716444 -0.04564598189373836 0.6542456943167658 0.5622364088004012
0.20798174749701642 0.3560520814360114 0.12993570679911218 0.8432962976519234 1.5201789650091069 -0.4562037160199934 0.1224151820159206 0.5175789480943869
0.3097379802986411 0.4981890801094789 0.2506021016607883 -0.4315652515249863 1.6753083006704461 1.2197513134673308 -1.8724322458041311 -0.7510750106430416
-1.7893307389871684 -0.6500184035731964 -0.36925307087409204 0.25435571227693465 -0.9382264531650444 -0.015233727161907611 -0.9324472207255285 -1.790999270042732

custom_layer2.teta f8 [64]
00000000: d19c 29b7 e4ea edbf cc5d 3525 8ac2 dd3f
00000010: 2262 5a4d 8ce2 b0bf ad62 f247 a28d eabf
00000020: 7a41 7d92 891c e3bf 0512 bdea f164 e33f
00000030: eb37 3d6b 23dd b6bf d946 b9b2 3da0 ea3f
00000040: 2624 bc94 f0fe ebbf 52ba 1ce5 8b86 ea3f
00000050: fa6d a9a5 14df f4bf 4dbc 15f2 18ca fa3f
00000060: 3705 848a 32a2 e23f ae4f 8fc3 1c1d e33f
00000070: 1e86 2d4b 85d2 d2bf 729e 2c51 a091 f6bf
00000080: 5101 7d73 277a f73f ca44 f68c 7d02 e8bf
00000090: 07f4 068b e598 e73f a486 c27f 45f6 f1bf
000000a0: 611d 52fa 94bc dfbf 0d1d 669e b08f f43f
000000b0: 3901 22cf f0e3 e9bf 30fb dd4c c103 e23f
000000c0: 9275 462c aa6b 98bf 0378 8a83 5b14 fa3f
000000d0: a6bf 3e53 899d debf c5e5 e5a1 1157 853f
000000e0: c85a 5bc3 90d9 e0bf e35a 8625 9c21 de3f
000000f0: 4120 25f9 93a2 00c0 146b db4b bc77 c03f
00000100: eea0 3c53 dd8c d9bf 62b5 248d 1507 0040
00000110: 7c67 1150 c671 d1bf 8e6b 93c6 ff3a f93f
00000120: 22bd 0d9e 3d05 ebbf aa58 8be7 4010 fa3f
00000130: 8822 7d86 4656 f73f a8dd 6a72 879b e8bf
00000140: dc85 1cee ac3c 0040 3666 2fed 6a76 f3bf
00000150: 4ad3 34de 67e2 ee3f 12ef 99e8 55f8 edbf
00000160: f64c 1e2e e12e e5bf a011 1b36 1619 f53f
00000170: 2499 85ae 7477 e0bf fbfc db43 02ce ea3f
00000180: 229e ff6c 34bc c7bf 01a7 325b c169 d2bf
00000190: 3d5d 259b daf2 e53f 1eb3 02ed 4e4d f2bf
000001a0: 3b73 9ded 762f d6bf bab7 3d34 f6ff c1bf
000001b0: 0e9c 871d ccf1 dd3f 64d6 9e9a ab37 aabf
000001c0: bd4b 7a24 58bf e3bf 071a 6edc c499 dfbf
000001d0: 658c be95 e104 febf bf35 4e1b 73c0 e9bf
000001e0: e3f7 7950 a4d8 903f 495b fc2d ab0b e03f
000001f0: ee43 8666 c03e f0bf 7ba7 8533 b030 c5bf
-0.9349235131639039 0.4649987567294971 -0.06595684898855628 -0.8297892956935208 -0.5972335682982213 0.60607238623976 -0.08931180351393635 0.8320606699655527
-0.8748705773333583 0.8289241289947518 -1.3044630499997525 1.6743401962701399 0.5822994904885154 0.5973037547614604 -0.29409916249832857 -1.41055328091343
1.4673227797757884 -0.750304007831937 0.7374141421674957 -1.122624873220425 -0.49588512845408245 1.2850805461365014 -0.809074787670432 0.5629583836851904
-0.02384820838198249 1.6299700868908082 -0.4783652604046388 0.010419976952777863 -0.5265582862437777 0.47080138840230584 -2.0793837990241006 0.1286540384670266
-0.3992226899013208 2.003459074671512 -0.2725692541040343 1.576904082953408 -0.8443897330270469 1.6289681477260651 1.4585633519620007 -0.7689854845729558
2.029626713033151 -1.2164105668110898 0.965137418743873 -0.9365644019121382 -0.6619726086377387 1.3186246980195406 -0.5145820053701624 0.8376475644471663
-0.18543105432694157 -0.2877047911266431 0.6858952551073468 -1.1438740976547659 -0.34664700703233436 -0.14062383223375524 0.4678831375480862 -0.05120598089653752
-0.6171074593024667 -0.49376031423926786 -1.8761916970622903 -0.8047423871336646 0.016451423084156046 0.5014243982467202 -1.0153202061521784 -0.1655483485768022

custom_layer2.gamma f8 [64]
00000000: 8cc1 18f2 5ddc b63f 94c1 2b04 65dd 963f
00000010: d538 206f 4a34 8ebf 85bb 7d24 9f91 9cbf
00000020: 3055 2624 2e44 993f fc32 95a4 85fa 6f3f
00000030: 868e 2315 c226 94bf f4b3 1e06 07d7 803f
00000040: 4cfc f43b 1262 953f b364 719e b1b3 8a3f
00000050: 33dc b0ab 4eae 563f 25c1 68aa 0baf 8cbf
00000060: c5c4 1ece 0efc 683f 35e1 0238 4a12 7d3f
00000070: d09b 1327 9ed8 a83f 7af4 2d13 895a ba3f
00000080: 3411 ed03 6d38 863f e5fb 1d9f 7d01 723f
00000090: ab73 23d6 0054 753f 5293 24ef d132 933f
000000a0: f9cf c60c da21 a63f ddac 9fd1 c340 78bf
000000b0: 7f86 3342 042d b2bf de14 7ecb fb30 7dbf
000000c0: 1a2d 8066 ef26 b73f d223 3e2d 2f3c 91bf
000000d0: f6cb 3e5c 3004 943f 2b0f 8b92 8a58 9e3f
000000e0: 8164 44bb fedf 993f 6082 06f5 fdb2 923f
000000f0: be66 044c a5dd a63f ae6f 21c9 2f79 a0bf
00000100: 4267 5988 66ca b03f e056 54d4 11ef a73f
00000110: ea51 7a8a 5d65 9ebf b40b 717c acb7 8e3f
00000120: f011 f868 be75 a3bf 03b4 5c41 5dbe 863f
00000130: cca0 5bad 265a 393f 6061 4858 1d0b a03f
00000140: c8f9 e624 232d abbf f869 2159 699a b53f
00000150: 543c 5c5e 7b38 353f 9193 cf41 ad59 8d3f
00000160: 5a52 06ac d6c5 99bf e70e 77bc 1f19 733f
00000170: c8d2 1c20 5e9c 913f de74 8261 ac12 593f
00000180: 3bcf 0a4d a6ed a43f 5914 1518 f48f 9bbf
00000190: a496 dede 23b4 173f b8ca 5775 94e3 a13f
000001a0: 801e 98a6 000d 573f ca37 d2a5 6896 38bf
000001b0: d2b1 1f2b 4823 703f 5990 cb51 1f60 843f
000001c0: 38ad 2049 ebe7 c5bf 9dce c33d 44a2 a9bf
000001d0: 4a65 a64d b913 b9bf ffb9 f54e 26d3 b0bf
000001e0: af62 cd6e 739c 533f 85d6 1393 8ba8 433f
000001f0: aa94 bf72 8a5b 533f 6b4e e155 868d 96bf
0.08930003319324537 0.022328928355763347 -0.01474817420605882 -0.0278992525122095 0.02467414947166907 0.003903637906353173 -0.0196791005518109 0.008222632288232369
0.020881924542887995 0.013038051269335637 0.0013843315380322018 -0.014005747926689136 0.0030498780406210423 0.007097520749248344 0.048527662534801785 0.10294396131753727
0.010849811250985476 0.004395952901062626 0.005207064883703187 0.01874855062591802 0.04322701841320504 -0.00592113963828497 -0.07099939934007614 -0.0071267925012581095
0.09043785335977753 -0.016831147323987335 0.01954722941418293 0.029634633249556657 0.02526853578556088 0.018260925369420256 0.044659772424166175 -0.032174580862118204
0.0655883868106715 0.04674583165085067 -0.0296835532922887 0.014998767421394145 -0.03800768882141259 0.011105278546517999 0.00038684314982485586 0.031334797884656096
-0.053078745131176996 0.0843873827556435 0.00032380115440928015 0.014331201144111268 -0.02516875672297867 0.004662631959437147 0.017198057851788545 0.0015303309828945048
0.04087562265831798 -0.026916326494092455 9.042233406705375e-05 0.0349394219628229 0.0014069086413445453 -0.0003751759994167185 0.003939897449509693 0.009948963817301303
-0.17114010878263186 -0.05006612066236225 -0.09795721193076648 -0.06572188785296616 0.0011969687722822966 0.0005999261394708666 0.001181492999415649 -0.022024249068933004
