COLA_Emulators/PCE/LCDM_PNN_HIGH/MODEL_Z1.824.pth (torch, 60802 bytes, 12 tensors)

layer1.weight f8 [64, 19]
00000000: 8671 036b 1fc9 a4bf 098e 8643 ba79 c03f
00000010: 301c a636 4866 a43f 72a4 5f7d ed2b b93f
00000020: e9ca 3a70 2815 b93f 62b3 bfe9 b9c7 c1bf
00000030: 15ad 9975 66c2 9a3f c707 9c75 7758 c4bf
00000040: f5de fe38 1a33 acbf ab90 e79a a47b c4bf
00000050: 0c22 70df 36b7 d1bf c0af 1e88 8d82 903f
00000060: af44 953f 412e 76bf dbc2 a219 644d ac3f
00000070: e71d 40ca 972b 563f 2b98 e02c d864 b8bf
00000080: b8eb 4a24 6335 c3bf 3eca 60b8 0f98 aebf
00000090: 928b 1848 01b3 a73f d104 9e48 8a96 a13f
000000a0: 3bb7 fe93 1d2b c1bf c0b8 f290 e30e c33f
000000b0: 67a3 0e19 893f d0bf ec69 7a47 3a59 a5bf
000000c0: 75c5 52ed 18de 90bf 143d bd6c 75a3 98bf
000000d0: 6426 fd5b 1133 bebf 88ac adad b30b 96bf
000000e0: ec10 e357 61c7 c43f b22b 9bd0 c1b0 9e3f
000000f0: d8f3 dfbe 3142 c3bf cf5e 0297 2a94 ccbf
00000100: 41a1 5d66 cd83 c83f b745 868e 1ec3 c5bf
00000110: 1cb6 c910 846a c5bf 466b fe31 788e c9bf
00000120: f2c8 8096 e1a1 c73f aa15 2b24 7aff 813f
00000130: b69c 465f 8829 903f c8f8 2d7b d35f a23f
00000140: c54c c694 6cb7 9a3f 8319 2619 66d6 c8bf
00000150: 7d36 6019 80ee d23f 1bf9 d26a 8ff2 cbbf
00000160: 7ef7 1dd5 15ec a43f 4079 25bc d102 ca3f
00000170: 863c a3fe dc42 cf3f 5203 f2b9 efc9 98bf
00000180: a9e0 edc7 1af9 a93f 7ded 4d7d 9efa c13f
00000190: c4bc d04c d77c c13f 711c 6265 1936 c13f
000001a0: 1259 3dd5 d548 b7bf e4dc 8354 eb5e c73f
000001b0: 1a50 6706 c1f4 c0bf 7c36 1419 9222 c8bf
000001c0: bea0 e740 4409 8a3f 7f8c 523c 6536 50bf
000001d0: da78 83d6 8eba aebf 5190 cb0a 2bc3 babf
000001e0: c9a3 8133 00cf c03f d8e4 edeb 92ea cf3f
000001f0: 1983 34ca 8b74 abbf 39d6 91cd c42d cfbf
00000200: f9b9 6db6 fc49 c5bf 5dd8 4663 3260 cdbf
00000210: be0a ba0f f113 a0bf c799 58bd 6160 d23f
00000220: 774e 4e48 5629 c1bf 370f 5a87 c942 be3f
00000230: 5056 7783 48b3 4d3f 3cbf 8f30 3f9f a53f
00000240: 94cb 00a5 5a95 c83f 3a23 5fe7 d046 b13f
00000250: ff36 9e3f 4543 cb3f 23f2 12f7 fb8f abbf
00000260: b4c4 1b12 7ec1 a73f 9e57 a43c f301 c33f
00000270: 0a3c 884d f803 b83f 3d2f ff31 c785 86bf
00000280: 11f1 f14a 68c6 c43f 0810 0c01 655d c8bf
00000290: baaa a896 234c ca3f 2178 6f78 17e7 af3f
000002a0: a23d 2cd3 b6a0 b63f 8975 ebd8 57fb bd3f
000002b0: ecb9 29c3 af46 be3f 49d5 a7bf 2bc7 c5bf
000002c0: 38d7 53a9 d41d c3bf b276 3301 7cec 653f
000002d0: 43bb 2fe3 e320 b2bf 0550 cf33 8fd0 a5bf
000002e0: 93f9 70b3 ab99 c83f 4dfc 2eef 46f4 c43f
000002f0: b5c8 fb82 1595 ca3f b6d4 d5d8 37a8 be3f
00000300: eec6 fe70 3923 9f3f f6a6 c4b0 2f50 c43f
00000310: af03 f716 917c a63f 9201 30c4 6ce0 bb3f
00000320: 6a04 fa94 3244 c03f 4668 a61a c69f d1bf
00000330: edfe 322c 7c94 bbbf 3b56 177b 57bb b43f
00000340: efdb 759c 47da c2bf ce24 cb8d ba04 d9bf
00000350: eacd b3e7 4796 b13f 474a a656 1d50 c0bf
00000360: bd1a f453 109f c63f a57a 4831 9e17 d0bf
00000370: 4d59 eb88 087b cd3f d7e4 325b 123a ca3f
00000380: b1bf 7c63 9a3c c03f 0c6a 4330 1d19 9d3f
00000390: e0e0 ed5a e186 adbf 2cb7 27ec c1b3 be3f
000003a0: 4ac8 1653 9d77 8a3f b5a8 4b84 a84e 993f
000003b0: 4388 79b0 afc6 ca3f 005b 5695 a26f 9f3f
000003c0: d98e 288a 2bf8 b5bf 4b67 04a4 be20 be3f
000003d0: fc61 88ad aa61 9e3f 485c bd33 047f c1bf
000003e0: 83fd d723 0873 b3bf a50c 518c 0525 b6bf
000003f0: 8e7e 0a22 532a c3bf cbc0 3959 3333 95bf
00000400: e927 d4db 357a b7bf 5d58 9ecd dfac b93f
00000410: 9611 8eb4 2ba7 c83f 0909 c7b1 227c c2bf
00000420: 36aa f228 334c bfbf eb76 2c92 02f4 2c3f
00000430: f69f a00a 40a5 963f 388e ab96 8289 d0bf
00000440: d2de 6448 7da1 b1bf 8ae3 e95e 0633 ce3f
00000450: 5551 cb34 b37b c73f 18c0 24d2 05e3 cdbf
00000460: 4fe6 3d79 eef6 c83f 4f72 54dc f210 bcbf
00000470: 8191 ef17 febe d0bf de24 c23c d12e b23f
00000480: 7a2e 08e7 2dd2 d03f d568 c438 8714 cc3f
00000490: 5151 d078 f590 b13f a3b3 4783 9ce5 963f
000004a0: ef27 a93c fd2b 94bf 7702 dec4 5f47 c1bf
000004b0: 7f2f 4a8b 233b bcbf 3c65 dbb4 efce c03f
000004c0: a41b e782 1e8a b6bf 2848 fee2 f1b9 ca3f
000004d0: a982 bbad 6820 cdbf 26fd 5c75 c5c7 53bf
000004e0: 57d9 1b1a 8427 d4bf 353c 4b08 81d3 8a3f
000004f0: adae fddb 9d23 ce3f 62c4 0c61 bcac c83f
00000500: 05bf ebbd 47e0 d13f f225 c4b2 7435 91bf
00000510: 954f 8f09 2769 7fbf 7615 f14f 9745 bbbf
00000520: 6e6f 3514 3b54 b63f 0158 92ed 21ab cd3f
00000530: 8d62 7b63 4f9e 9cbf ef8d 6015 1c01 b9bf
00000540: 113f a4b0 53f6 a5bf 6c57 7f49 6483 cb3f
00000550: d29e 38aa 5eea bfbf 8493 2ecd c38b 8b3f
00000560: 0f75 18df 818f 83bf 3e09 2378 e68d 9abf
00000570: ac0d 2332 e818 babf 3ee8 ce73 7f2f c53f
00000580: 56af 00a9 8395 bfbf 2249 c8f2 e04b 9f3f
00000590: 12fe dba2 561b cbbf 8004 ff8e 3e79 c73f
000005a0: a95a 4785 24ce 9e3f 2f71 0757 7c68 b53f
000005b0: c7d0 8523 5285 cd3f 2c54 7e64 354e bbbf
000005c0: f2bd 6bc1 4e24 8bbf ece8 69f9 8e60 bdbf
000005d0: 48f0 f508 484a cabf 20ed fdd5 9cb2 bfbf
000005e0: 29db 6151 40d7 c23f bd21 0638 a96c ca3f
000005f0: d4a6 c0b0 2f1e c1bf 5c06 abe9 6db4 a9bf
00000600: fa31 59d6 9fde b53f d7fb a790 7e2a c23f
00000610: 80dc 4ea1 ea12 ab3f 4321 cfb0 5df8 9a3f
00000620: 51a9 3c60 ac35 c73f d4da 05de 6961 abbf
00000630: d882 5680 72de 833f 0fbc 0488 6c98 c0bf
00000640: b5ce e487 1cbb d13f 6af9 dcd6 f20e a8bf
00000650: d90e cb02 7782 ba3f c729 928e 83c6 9f3f
00000660: 69e5 4392 1623 c93f 7010 8ec8 6849 c2bf
00000670: 7389 e548 0713 c03f f975 9d39 5c6a bcbf
00000680: 43a8 5441 f924 a2bf ce88 2e13 74bd a6bf
00000690: 8702 be11 4087 ad3f 6247 0b82 d490 a03f
000006a0: 3693 e804 e21a bebf a957 1454 cb58 bbbf
000006b0: 301b 4948 96a6 ab3f c725 5965 cb11 ba3f
000006c0: 92e2 f8c5 079c c13f b96a 0aef 4b0a 813f
000006d0: ad1b 7044 d572 a23f 8250 d2e9 2935 c2bf
000006e0: fd68 ed05 a42e d03f b6c9 a252 6d01 cd3f
000006f0: b77c e3ef 8e22 c53f deff 2a1a c617 b23f
00000700: 187e 9043 0007 bfbf 3db5 d583 159b ce3f
00000710: bfb8 bb05 2d6b c13f 49e3 5779 f220 c6bf
00000720: 8ef4 b82c f424 c23f 9f1d 7f2f b33e c9bf
00000730: 1e22 a241 1221 b93f 5779 012b b4f2 c33f
00000740: 9879 5ed1 e1d5 873f 9a76 74d1 39fb cfbf
00000750: 6705 df51 6948 bc3f d253 4815 2a67 ae3f
00000760: c093 2fb2 1170 b4bf c89b 9f41 b8fb a3bf
00000770: ea68 b98a 5717 a7bf 6ed2 08db 27bc bfbf
00000780: 1de3 75df 9dd7 b8bf 19af da11 b00c d0bf
00000790: d233 27f2 7032 cc3f 9556 074c afc1 d43f
000007a0: 21e2 fd74 d962 7fbf 8772 b71f 92c6 9dbf
000007b0: f9c2 71a0 1ea1 ab3f 5f96 d7e5 6021 c23f
000007c0: 049a 07ba c867 c3bf ae00 9af8 4a49 adbf
000007d0: 3bb4 5484 16a3 d53f cf13 5de5 f315 573f
000007e0: 01b0 d288 ee1f b93f 5183 1c57 3f17 c6bf
000007f0: 4da2 1570 20c2 b8bf 9bf7 3075 5432 a4bf
-0.040596944630780604 0.1287148313250415 0.039842850371364924 0.09832653342131595 0.09797909488660718 -0.1389076606132234 0.02613220303321125 -0.15894978754664477
-0.05507738061663573 -0.16002328456591405 -0.2768075162898931 0.016123019631478774 -0.005415205837679667 0.05527794659554327 0.0013531668018930078 -0.09528876395833723
-0.15006675026037697 -0.05975388646802003 0.04628757481648117 0.03435165535393881 -0.13412828184430645 0.14889187409921156 -0.25387790152540507 -0.04169637796913492
-0.016472234234873057 -0.024061045419611807 -0.1179667329389758 -0.021529014087189796 0.16233460227352425 0.02997114978533561 -0.15045759029444983 -0.22327167867182715
0.191522288306496 -0.17001707038120425 -0.16731310672496214 -0.1996603244886847 0.18462772225172547 0.008788065174836063 0.01578343469159612 0.035887345110482693
0.0260903325848403 -0.19404293277711923 0.29580690839870966 -0.21833985057851 0.040863687768236 0.20321103751025227 0.24422800477484347 -0.024207826351360602
0.05072864237348657 0.14046078794840958 0.1366223454547023 0.13446347666124184 -0.09095512825055987 0.1825842058821997 -0.1324692994372761 -0.18855501389082352
0.012712987166154096 -0.0009895313863033382 -0.060017074285257 -0.10454052938035942 0.13131716265641405 0.24934612770065345 -0.05362355082821164 -0.24358425176221646
-0.16632040889403735 -0.2294981941938116 -0.0314021426866211 0.2871326779444669 -0.13407400637207775 0.11820659212577032 0.0009063819952028294 0.042230581930083194
0.19205792481224349 0.06748681687089411 0.2129904327998062 -0.053832887564088126 0.046398105345255486 0.1484970136740999 0.09381057637095594 -0.010997348988801664
0.16230491313388787 -0.1903501753914727 0.20544857841863068 0.062309964610662634 0.08838980346285166 0.11711644216435081 0.11826609148713602 -0.17014071329291827
-0.14934786098427266 0.0026762411085730848 -0.07081436440033166 -0.0426068068260577 0.19218965780050876 0.16370474509128244 0.20767468352966537 0.11975430530385975
0.030407807847672545 0.1586970914007037 0.043919118932087435 0.10889320173010322 0.12708122514962678 -0.27537682154218535 -0.10773445204813088 0.08098360781817686
-0.1472863687483534 -0.39091361853622864 0.06869935423656384 -0.1274449036687477 0.17672924136441806 -0.25144152462773156 0.2303171795417235 0.20489720776621453
0.126849459245475 0.028416114874611195 -0.057669679975278276 0.1199303819227821 0.012923459146666389 0.024714119982413425 0.20918842427187387 0.030699291577174215
-0.08581802485474145 0.11768714432073783 0.029669443933103765 -0.13668873335220355 -0.07597399592486025 -0.08650240588854048 -0.1497291485038556 -0.020703127213381117
-0.09170853249466372 0.10029410142883095 0.19260164562377885 -0.14441331558743567 -0.12225646733956172 0.0002208951128403394 0.022114754341743002 -0.2583929511440348
-0.06887038247520685 0.2359321559377146 0.18346252515642428 -0.23349068413654162 0.19503575248727364 -0.10963361624858091 -0.2616572602985557 0.07102687581404463
0.2628283268138386 0.21937647125088824 0.068618146892111 0.022360272896481025 -0.019699055507125193 -0.1349906646028278 -0.11027738714818545 0.13131519633206234
-0.08804503150814341 0.20879958709389368 -0.2275515411665954 -0.0012072971635033818 -0.31491186666189236 0.013098724427804334 0.23546193353410186 0.19277147997630367
0.2793139795967224 -0.016805480395339197 -0.007668640603657813 -0.1065306253595589 0.08722275966050372 0.23178505039385303 -0.027947655150315987 -0.09767318269637547
-0.042894950211232914 0.21494725788823688 -0.12466994910993925 0.013450174044757686 -0.009551062222323851 -0.025931931574413307 -0.10194255088850096 0.165512019679058
-0.12337515712777977 0.030562891786822928 -0.21177180244556887 0.18338758451685422 0.030083246836364683 0.08362557530148672 0.23063112959392226 -0.10666211799100783
-0.013252845075355933 -0.11475461568071282 -0.20539188802274766 -0.12381916260158166 0.14719394658796972 0.20644107089561983 -0.1337337124871768 -0.05020469167130834
0.08542822821727461 0.14192182601251943 0.052878696623730015 0.026338066021510242 0.18132548045225375 -0.05347758136024586 0.009701628247797897 -0.12965160981681875
0.27704537649990907 -0.04698904869882166 0.10355323618119473 0.031030707909431656 0.1963833059487954 -0.14286527435990903 0.12558070239453975 -0.11099792868250082
-0.035438336586893125 -0.04441416486885573 0.05767250267581852 0.03235496604396705 -0.11759770030819258 -0.1068236427566648 0.05400533325569368 0.10183402275392615
0.1375741688405197 0.008320420486872636 0.03603235683845383 -0.14224742810313634 0.2528467233547785 0.22660604987102112 0.16511713708221062 0.07067525996080756
-0.12120057725450584 0.23910778939481672 0.13608324794717494 -0.1728804676529541 0.14175274070467875 -0.19722595042388222 0.09816087820411964 0.15584423160448566
0.011638416482864497 -0.24985430457393393 0.11047991036232006 0.059380831811871496 -0.07983503914108692 -0.03902984429424056 -0.045099960025895516 -0.12396477792283075
-0.09704004960611852 -0.2507744001729733 0.22028934310802 0.3243215792148047 -0.007662629548456341 -0.029077799974276643 0.053963620267387165 0.14164363119850784
-0.15160473903161187 -0.05719980511367005 0.33807909892022153 0.0014090425297166203 0.09814349022298076 -0.17258445504651346 -0.0967121385234659 -0.03944648676450343

layer1.bias f8 [64]
00000000: 30e8 6dc4 e9c5 b83f a819 4b3c 30b8 c6bf
00000010: a020 6837 eb90 83bf 4ff3 7d22 5143 bfbf
00000020: 50f7 1132 321a a7bf 3086 e342 7ac0 883f
00000030: c81e bc66 434f c23f ca56 64d9 70f5 a6bf
00000040: 786f 57dc 7e08 c1bf 65a6 b744 1f3b c13f
00000050: d779 aae9 c067 d43f 0d97 66c1 3f2d be3f
00000060: 6404 0e8f fce1 d8bf 1324 5681 1cfe bdbf
00000070: 3ac9 df26 aa2c c53f 770e 4b60 324c c1bf
00000080: 01fe 9f26 7ee2 bd3f df50 3708 dc36 d03f
00000090: 3fe2 0516 1401 c4bf 8fc3 71b7 5cf5 c1bf
000000a0: e8ae a732 d649 b43f b65b 609b 4c2d c03f
000000b0: 1d7c 704f a44f c33f 58b6 f8ab 2b90 c1bf
000000c0: e819 13ae c99a b8bf 55d6 ea2e 9dbc cabf
000000d0: 687f 5e6e cd18 c4bf 3f56 dffa 3518 d0bf
000000e0: 472e 1b60 d4ba d23f f39e 67a1 dee5 a53f
000000f0: 4ec6 015a ebc0 a3bf f1a2 d2af 61de cbbf
00000100: 182a b159 19b1 b03f 2b0c f976 cb61 b4bf
00000110: c2fb e082 6175 b43f 5678 2a22 505e ccbf
00000120: a80f ea12 0215 aabf 638a 2bdd cdd9 a33f
00000130: 7184 ab54 f846 bcbf 87f2 1545 0873 c23f
00000140: a9d0 bfd9 ced6 ccbf 51e8 477f c194 c93f
00000150: f45c 7d33 2353 c2bf 4352 44a0 d656 acbf
00000160: 6944 90f0 84c6 c0bf d610 5163 091a c5bf
00000170: 3d8e 5ee9 a9f6 c9bf 804c af95 421f b0bf
00000180: c026 8363 03cc bd3f 8761 160e 961e b0bf
00000190: a513 a8c1 0a3b 9ebf 91b3 d077 0b8a a93f
000001a0: 7356 c8aa b0e6 bf3f 163c f2e2 802b cb3f
000001b0: 5cd1 4fcb 910a c63f 82b1 6267 28fd c9bf
000001c0: 0932 e83f c540 a53f ad69 b2c9 6707 c33f
000001d0: c891 a745 7c84 bfbf b05c 39d9 1f9f b43f
000001e0: 8755 3c14 af5d cb3f 4061 070b e5fc c03f
000001f0: 8431 6aae 691c bb3f d10c 06c5 731c 803f
0.09676991506231114 -0.17749598449718218 -0.009553754452113872 -0.12212092487420743 -0.045121735202867996 0.012085871855052138 0.14304392353391493 -0.04484131482801741
-0.13307176360001072 0.13461676459637598 0.31883261507928523 0.11787794563005267 -0.38879312486830586 -0.11715868146542645 0.165425557118917 -0.1351378412419881
0.11673725550644322 0.253348358176721 -0.15628291201916686 -0.14030035931821458 0.07925165878958362 0.12638242327440502 0.15086797598721172 -0.13721223732993582
-0.09611187457912929 -0.20888104239354513 -0.1570069111739898 -0.25147771357783094 0.29265317330711976 0.04276939125321446 -0.03858123277394708 -0.21772404751870725
0.06520231666323928 -0.07961722998247527 0.07991609044346062 -0.22162820499665042 -0.05094152909171551 0.03877108883695681 -0.11045791690004748 0.14413550732924227
-0.2253054202298064 0.19985216822516574 -0.14316215528626908 -0.055350024284198905 -0.13105832811610021 -0.16485707616278117 -0.2028400792597597 -0.06297699121869194
0.11639424495219952 -0.06296670764857569 -0.029522102422578595 0.049881323219188485 0.12461380166527096 0.2122651203285108 0.17219755580266394 -0.20303826377984185
0.04150978474726592 0.14866349552614846 -0.1231153173499201 0.0805530457813457 0.2137965058142692 0.13271773375050522 0.10590229519056577 0.007866768312629809

custom_layer.alpha f8 [64]
00000000: c9f8 9e7d df17 bd3f 6e20 6e78 216c ddbf
00000010: 1913 4430 cc18 d73f cae4 f284 6b2e 0340
00000020: d133 377a cd8b e9bf b0fe 6711 445d e93f
00000030: 2960 831a 13fb eabf 6d85 ba83 8ed5 f13f
00000040: 0b5c c36d 402f f83f 681d 5f16 915d e5bf
00000050: 4dbd a228 8f33 f03f 93b9 112c 1618 e0bf
00000060: cf59 2e96 3dad dc3f 133c 20f6 e2df d23f
00000070: aa7a d8b3 448d e43f 2b31 7291 df1b d6bf
00000080: e1d1 e64a 7941 a63f 70fe 54dc 3542 b4bf
00000090: 7402 f813 9cb0 933f eb4f 68a0 ead8 01c0
000000a0: b05a a778 0b75 c8bf 2a5d 1c39 31ce f7bf
000000b0: 6411 2cb7 cc6b f3bf 80c4 2afb 1c76 dabf
000000c0: dea8 128d da90 f83f a5fc 1fe2 1da1 f7bf
000000d0: 1f17 6253 e72b e23f 9be6 0f5c 600f f53f
000000e0: 663c 6326 0b13 00c0 759e 4d33 67c2 eabf
000000f0: 8e83 2346 980f f4bf 693d 0cc1 a05f 0040
00000100: 589d 3fb6 98e2 d1bf c36b 743f f35a d1bf
00000110: eff2 ceaf 4dcb cd3f 6da3 f35a 81ca 0140
00000120: ff94 ef4c d487 dabf 847a 66ff 5492 f23f
00000130: 68b8 9512 b94e b23f 5148 e0d8 ac5d e7bf
00000140: d0d9 92bd 8250 e0bf 25ce 01e2 9e02 e63f
00000150: d937 c4e3 d82f adbf 452b dec4 627b e5bf
00000160: ba69 97fd 863a f2bf 6c28 3e79 7351 e83f
00000170: 10db f09e 9862 cd3f 7c11 28e2 dbd4 0140
00000180: 178d 43bb 4c7e ecbf fcdf 36b0 e050 f13f
00000190: 4e74 534b 2881 ee3f f372 2957 7135 fb3f
000001a0: 196c 122d 92d0 f0bf aae5 873d cea0 04c0
000001b0: a72e 172b 74af f93f 9079 f46a a83c dabf
000001c0: 6142 4a43 14df d03f 1049 1284 cc9e f03f
000001d0: 0714 572c 7147 f63f ce19 66e0 d771 e73f
000001e0: d951 2663 66c2 973f 5d2f c856 afc2 fd3f
000001f0: 20ba 534f fd87 e2bf 15ac 0270 8240 c3bf
0.1136455232326369 -0.45972477684745783 0.36088852609127425 2.397666014349487 -0.7983157526992902 0.7926349964108876 -0.8431487577281632 1.1146378656051994
1.511536053430748 -0.6676717221206845 1.0125876986820288 -0.5029402600028327 0.44807376543158467 0.29491495166524934 0.6422446739778327 -0.34545125201909127
0.04346827544523869 -0.0791352904243412 0.019228399962232648 -2.2309162647088576 -0.19107192412658014 -1.4878399115458003 -1.2138182788049443 -0.4134590580752686
1.535364676538442 -1.4768351395612538 0.5678593281342933 1.3162540050674696 -2.0092986105951693 -0.8362308504119499 -1.2538073291582097 2.0466933328495327
-0.27945535466866067 -0.2711761588740808 0.23276682934183365 2.2238795381166967 -0.4145403624846295 1.1607255913328638 0.07151371673327989 -0.730184959016933
-0.50982796693898 0.6878199018669348 -0.05700567036011223 -0.6713117451739455 -1.139288893310193 0.7599427574180146 0.2295714164808591 2.228935019347942
-0.8904174478051655 1.082245529496503 0.9532662841044244 1.7005475430261725 -1.0509206543563379 -2.5785183722589027 1.6053353961205319 -0.4099522633058763
0.26361567088409826 1.0387692603149539 1.392441914752682 0.7326468832769082 0.023202514459244348 1.860030497543412 -0.5791002797466867 -0.15040617436656648

custom_layer.teta f8 [64]
00000000: 7a3f a4a9 92fd d6bf c9f9 408e ef8b d0bf
00000010: ab58 c912 9545 f73f b734 de62 036b d3bf
00000020: 8ce7 d949 4874 a8bf 9193 980e e8d9 f53f
00000030: 6831 4d44 e740 e73f 8f26 2341 aafc f4bf
00000040: 2073 e676 b686 c13f 6efb e81d 7364 f23f
00000050: 21c5 e84d 6140 fe3f 4066 2530 50bf d2bf
00000060: 5055 4f57 827f f5bf ef0d 1765 51bc c53f
00000070: 67ba ad3d 1536 d43f ab07 061a db77 ccbf
00000080: ec6e 5133 f050 d13f 4794 867a a27e f73f
00000090: ba24 8378 07d3 e4bf fa3d 9ad1 00ab dcbf
000000a0: 2143 06cc ac38 eabf 1f14 bcbb 0fde c13f
000000b0: 979c 1226 5cd1 a5bf 6c16 9ef7 dc21 dc3f
000000c0: 0290 a0fc 93a1 d9bf 83c3 57e5 3bd1 cbbf
000000d0: 1195 7315 01a6 eabf b44d 806e f719 d73f
000000e0: ed19 2f80 2117 e5bf c6e9 daf1 28be d1bf
000000f0: d26b b5fc 6f45 c2bf db3a 6deb 11a3 98bf
00000100: 1323 a57b 3026 f6bf 4eab 20cf 7d99 ecbf
00000110: 890a fabe 85d4 ebbf baea aa99 778c f43f
00000120: 0760 1398 a212 923f 32b8 74ec 1cc0 c33f
00000130: 1d9c d91e 98b6 8f3f fc7a ad94 e73a f6bf
00000140: b8ed 0ab3 c723 e7bf 032b 1378 7ec0 e9bf
00000150: b028 e0ca 09cc e53f a798 c8b7 55a4 0540
00000160: ebb4 2fdd 75b6 c23f a096 72a4 cbdc c03f
00000170: c23a a6d1 045a d1bf ab24 5609 23a8 e43f
00000180: a027 ada0 ae42 d13f 6f3c 7918 628f ccbf
00000190: 7f5b e14c acac d73f 860b b36f d1d8 edbf
000001a0: fad6 a7bb 2211 e5bf 74da cb3d 3fc5 c1bf
000001b0: b4b7 0c08 dce2 f2bf 507e ca2a d5f7 eabf
000001c0: 3c7e 6c63 6650 e93f 00bd 9b22 e3b4 d8bf
000001d0: a781 a767 6e9f c8bf 5699 8cdc 9d2b e6bf
000001e0: b5a3 9a14 f7f0 be3f 0605 73e6 7bb2 dd3f
000001f0: 12bb a4c0 6929 95bf 4126 a7e0 8135 e03f
-0.3592268616348445 -0.2585410012433412 1.454487870583345 -0.30340656905248004 -0.04776216413024689 1.3656998224407497 0.726672776605068 -1.3116858047891673
0.13692360692666572 1.1495238464701418 1.8907177966432942 -0.29292683316962 -1.3436301622908395 0.1698095077136794 0.31580096267035745 -0.2224077107494485
0.27056508075268826 1.4684166704330595 -0.6507603982692196 -0.44793720692629757 -0.819418333516385 0.13958927790386697 -0.04261291470293676 0.43956684285544756
-0.4004869429647898 -0.21732281397228456 -0.8327641886686782 0.3609598712075368 -0.6590735915750067 -0.27723144167580605 -0.14274406279841273 -0.02405956267767349
-1.384323580730954 -0.8937367482625207 -0.8696926813139082 1.2842937472002363 0.0176492123908645 0.15430032296848278 0.015484989587276893 -1.3893810088845262
-0.7231176850249801 -0.8047478051388172 0.6811570131697149 2.705241618928159 0.14619324970354994 0.13173814325016497 -0.271119312987974 0.645524519191118
0.26969495478680905 -0.223125707578649 0.3699141264709666 -0.9327170545224 -0.6583417573117167 -0.13883200185201228 -1.180385619586997 -0.842753013206627
0.7910644475813977 -0.38604048137399616 -0.19236545621153064 -0.6928242976762629 0.12086433651951618 0.4640187979203606 -0.02066579092314231 0.5065316570045938

custom_layer.gamma f8 [64]
00000000: fd38 53d7 242c b43f e043 a768 9af2 b93f
00000010: 8909 0de9 f9cd a5bf 408d 929a 4509 aa3f
00000020: 9140 ae8d 7033 b03f 82da fe61 25b3 79bf
00000030: cd95 e836 64e2 8a3f 25f7 5d5f a3bb bc3f
00000040: ba62 6f65 d2bf a13f 9297 87da bffb 60bf
00000050: e890 2da1 7d30 a73f 0d1e cfcb 8623 adbf
00000060: 8287 eecb d340 b4bf 5b6f 79d6 9ad1 a03f
00000070: 4a73 9a91 070a b13f bac4 db2a df17 a53f
00000080: f00a 93bc 2374 813f 511a 37d7 3d9c b5bf
00000090: b4ec d1bb 7af3 b03f 19a5 3547 a583 c1bf
000000a0: 395e 5e25 7bcc b53f 25e9 5241 2984 993f
000000b0: fe1e 3d9c e538 92bf 9e36 37a6 862a 9b3f
000000c0: cffe 68b5 b40e 78bf 04fc b8d3 f011 853f
000000d0: 87bd 0219 a441 a83f 5646 d3f3 e3be c23f
000000e0: febc bd2f 8780 bcbf 69cb dcd5 e9fa aa3f
000000f0: 31e6 cf17 69b9 96bf 45bf d397 da31 a1bf
00000100: 98f9 0b27 d58b d13f 5a7a a9b4 56b5 cd3f
00000110: 701f 4b86 2d2e b2bf 6996 35c3 8eeb b8bf
00000120: d01e 6438 02f5 913f ebc7 40c1 6d28 b63f
00000130: 7369 021f 1782 a8bf d49e 9036 ee86 bcbf
00000140: 1975 1ca4 7f6a d03f 2d7f 537b 5678 c43f
00000150: deb0 2a56 24c6 913f 4f75 a71d c820 ae3f
00000160: 539b db3b 8ce0 a1bf 0608 7c3f 8474 ad3f
00000170: 8056 c63b 0d7d 893f 230e 8371 0bed 993f
00000180: 871f 8e2b 4110 b03f 1a97 4a93 1cb1 9c3f
00000190: 57c9 cdd4 3e70 aa3f 9c2e c2bf ed38 923f
000001a0: 5c4d 9999 8129 c9bf b66e 3134 bd96 b4bf
000001b0: 6a72 4e54 ed5c a53f 4dc3 e81c 56d3 933f
000001c0: 9156 64f6 6a28 a13f 1bb0 87c5 4285 a73f
000001d0: 128b dfbc 49cb ab3f 61cb e065 5163 b93f
000001e0: 0576 c8f1 4202 a53f 8db4 eb65 b2ae 693f
000001f0: 572d 1231 5c09 9f3f d68d ffa7 834d a23f
0.07879858262024082 0.1013580804349341 -0.042587098787879425 0.050851988905629586 0.06328490695000456 -0.006274362589400286 0.013127119947124033 0.11223813131615808
0.03466660965177 -0.002073168481945006 0.04529182999138631 -0.056911671046290115 -0.07911418656160943 0.03284915798278006 0.06655928902405353 0.04119775198149385
0.00852229994996409 -0.08441530708578539 0.06621520123910579 -0.1368300054266818 0.08515138304061844 0.024918217289021122 -0.017795169507080814 0.026529411215782
-0.005873399632548361 0.010288125478039596 0.04737580113703204 0.14645051389247737 -0.11133618274265086 0.05269556747079813 -0.022191660002112982 -0.03358347991331682
0.27415970624124375 0.23209651776683665 -0.07101711777351993 -0.0973443247399587 0.01753619641479426 0.08655439346401265 -0.047867510352449204 -0.11143387634421781
0.2565001585624756 0.15992241880211946 0.01735741401596235 0.05884385454167306 -0.034916288668503846 0.057529576062748375 0.012445548426323727 0.025318316271990448
0.06274802506788833 0.028019377222015064 0.05163761470511712 0.017795290783893067 -0.19657917022650906 -0.08042509578938958 0.04172460226184145 0.019360871805648206
0.03351148851122077 0.045938574421455956 0.05428533964711425 0.09917172181375868 0.04103287888959176 0.0031350597704347728 0.03030914353852884 0.03574763704071031

layer2.weight f8 [64, 64]
00000000: 0f7d c9ab 3002 b53f 316d 3fb4 1856 923f
00000010: 93ca b2e8 5088 c23f dae8 cc05 a79e b33f
00000020: 5744 db1e f16e a33f fe4f b57f f2e6 ba3f
00000030: 9626 55a5 3ae9 9dbf d065 da7b cc0f 7a3f
00000040: 1bca 7765 16b1 9a3f 837f 6d2d 8bed a53f
00000050: 40a9 f5ed 97f4 c5bf 4ac7 70b2 58d4 743f
00000060: bb00 235b dd7d 90bf 5ba7 50e0 b176 7bbf
00000070: dda3 b971 ba34 a7bf ec3c af7e c5a6 973f
00000080: 0262 e094 7cd8 c03f 5a4a 34e5 289b c33f
00000090: ba27 e0ec 1168 aebf b516 65ab 8778 a3bf
000000a0: 905a 570b 2ba6 6f3f a1ed 1703 b52d a13f
000000b0: 43dd e22c c8d9 a23f b1ea bc90 9f6a 9a3f
000000c0: 8724 80b8 ace3 be3f 58ec 9aad c98d c2bf
000000d0: 4556 5c7d c826 c53f 1d8d 17b6 4c48 b33f
000000e0: ed64 a030 4424 92bf 4231 43f0 7429 c1bf
000000f0: 07dd dac5 a420 cbbf 54bb 2739 696d b03f
00000100: 7eec 1d1d 9384 a03f 092b 20f4 561a c53f
00000110: 19c9 4af1 7f3a c23f a7ce cb8a bbe4 cb3f
00000120: a2ab 6e74 b3ee 86bf 1f2e ebf3 201a ba3f
00000130: 0970 062a db68 b3bf 7261 0f4c 9081 a6bf
00000140: ef8e b652 3ff9 95bf f954 308a 9a9b b03f
00000150: 48aa 9758 c846 babf a6b3 bdf8 3c07 8fbf
00000160: 56e9 6496 fea3 c6bf 4194 da76 b78d 983f
00000170: c86a 13ff de6e ba3f 3864 cc26 fdf4 b73f
00000180: be03 5127 51e6 c3bf 4702 fff5 e4a3 92bf
00000190: a7d5 16f2 ec90 a6bf c5c6 ad5b be35 b0bf
000001a0: b899 7524 7f6f 97bf 3ee4 f41a 44f8 89bf
000001b0: bb63 ea98 ad17 aa3f 9363 d5a6 8694 bd3f
000001c0: d812 3e8a bd0f a3bf bae1 2f8d a80f bebf
000001d0: eeaf 180e a587 a7bf 8e14 1d3a ebca a23f
000001e0: cae9 fd39 d316 6d3f 861a 43aa 64a4 c83f
000001f0: eec6 d51c 81bb ba3f 48d9 fce7 186b a7bf
00000200: bd6c b2c7 fcc2 adbf 0a63 ce1f 8afd a73f
00000210: 466e 307f 00af ad3f 38e9 d84e 191c b13f
00000220: e453 6120 de21 b1bf 9469 02c0 91e3 b43f
00000230: 6a5a 9d49 95b4 9abf 6fcd b18b 3fc7 76bf
00000240: abb6 4c0d 2132 bbbf 4990 b033 f798 b33f
00000250: 1914 53f3 a648 b7bf 6643 e0b2 8f4f b0bf
00000260: b1b9 500b 518c b1bf c455 5127 c16b bc3f
00000270: a7fd 482f 1cfe b5bf cb16 b08d b0c4 aabf
00000280: 6b27 c2b3 df67 7d3f af97 7d95 5b52 86bf
00000290: 8642 c4d7 5f8e b33f 12cb a9c0 0de3 9fbf
000002a0: 6745 3ebf 0a4d c23f e056 b666 5aab 7f3f
000002b0: 8419 b0b3 1015 89bf 568d c4e2 7860 c2bf
000002c0: ecc1 8d47 c1ef c13f 5585 bbbe 2003 b53f
000002d0: 92ee a217 d12d ae3f dafd 616c a04e cc3f
000002e0: 6517 164b d355 a63f 63ba b1e6 5f0b c4bf
000002f0: f126 9b51 44ed a1bf db2d d529 1021 b83f
00000300: 539d 5dca f4a7 b6bf 9a6d 2676 bd6a c13f
00000310: 7e65 764a df93 983f d68e 08e5 65dc bf3f
00000320: a1ce b223 afab 9dbf c8fa 81ec dc6c ab3f
00000330: 40c4 b1b2 c250 acbf ca91 7f6b 1161 8b3f
00000340: 6b4a c6ad 609a 9ebf 19ab 3445 1c61 a03f
00000350: 2920 d664 88fd bebf f577 a7d8 0c40 b53f
00000360: 103a 38b6 9974 8f3f 0f67 045f 5376 8cbf
00000370: 45c2 3d24 250a ba3f 36cb 7199 2ecb c33f
00000380: e950 f6f5 7b94 c03f e9bd 8e8d e026 c13f
00000390: 9d77 7ced 37ea a53f dc24 0ddf 9588 a83f
000003a0: d7ad c6a6 de76 9e3f 1f87 166b 9ed9 873f
000003b0: 9dfc 57d2 1ffb a9bf 98ae 5770 121e 71bf
000003c0: 22da 428f ffcb 8d3f 9737 807b 0a0d 88bf
000003d0: 3839 c069 4a29 b2bf 483a a136 9d01 bf3f
000003e0: 5271 69b4 2d9e 90bf 9330 ab2f bb91 a63f
000003f0: 0fa1 3ffc 2eb7 be3f c131 6238 5bc8 be3f
00000400: fe33 974a 59a4 a23f 2882 6bfd 45a2 a2bf
00000410: 4ad2 4879 0ef9 96bf 81ec 7530 1e2d 8abf
00000420: 4139 d7c7 bf7b b7bf 3241 f752 87ab a63f
00000430: 8111 811f c0e6 a4bf 235d 8ece d484 b3bf
00000440: 5359 910a 13e3 b5bf cef0 8e54 6a2d a33f
00000450: 52fc 0883 9e2b 823f 82a9 f015 2e73 b63f
00000460: 285d d6d8 a2f5 b63f 4666 30eb 9694 b8bf
00000470: a3fb e248 bea8 83bf bd2b f23d 3035 a0bf
00000480: fa45 3355 8348 a0bf 6c6e 97f4 bc21 a13f
00000490: 0985 825b cb73 9e3f aef4 eba2 20b0 c03f
000004a0: 395d 5551 40b7 b33f 4915 3c14 21f9 b33f
000004b0: eb1b 1e62 32f5 c0bf c292 7c88 d229 b7bf
000004c0: 645b 30ed 9485 a9bf 8de5 07fa 9152 b13f
000004d0: 303e c462 8dd5 b53f 3f47 47ff 8574 853f
000004e0: 5a07 b9a3 8d97 ab3f 9615 a7c7 bb0d be3f
000004f0: a84f d5af a351 b83f 1d7d 62f2 8386 80bf
00000500: cb1f be96 6b6f 8dbf 2cc5 203b 1770 85bf
00000510: aede c661 2f1f bd3f eb9b 5b3c ad1d 4abf
00000520: 166a 0e32 5e41 bb3f d7aa 88f2 aa63 bbbf
00000530: eac5 6192 1e62 93bf 54a4 81e4 7e9e abbf
00000540: 30b0 39b6 a068 b7bf 03a4 27bc ba64 bd3f
00000550: c899 608c b0c6 8d3f 3c93 cc5d fc59 723f
00000560: f290 2fec 02ed b33f 0e11 8ddb 89fc bc3f
00000570: 09d0 955e 9952 ba3f ef89 b401 34f9 b0bf
00000580: 641f 655b 25f2 a23f 154f ef01 0e5c 9f3f
00000590: be0a a82c 8a07 953f 9d4e 2d31 529a b1bf
000005a0: 94e4 484d 3e30 a4bf d84c affd 833f bc3f
000005b0: 1f74 7720 1963 81bf c9fb 9473 e653 a9bf
000005c0: 1237 0c87 8fb4 b43f 8304 f314 a3f7 b0bf
000005d0: 8887 b452 e3ef b03f 2f36 6214 105e a73f
000005e0: 3580 5a25 d513 a53f 3930 5722 d378 6e3f
000005f0: 6bd5 e3fc b753 be3f 64b5 3440 ddd6 b8bf
00000600: de63 7110 6eb9 bb3f 3bbd 0777 a119 c03f
00000610: 60d7 cda3 02df 983f 7e9f dbb3 d5fc c63f
00000620: 02c5 7eb9 7bcd b23f 0e75 9e1c ea63 91bf
00000630: 0707 5ded e778 a5bf 6500 f8c7 f529 c6bf
00000640: 7877 88ea b14f aabf ad56 43f3 c1f9 833f
00000650: 95ab 346a 67ed ab3f f39d 7231 719d aa3f
00000660: 93e5 eba8 1345 adbf e097 773c 8c86 c13f
00000670: 141e b5e9 5d90 95bf 5f42 9d4f d5bb b2bf
00000680: 27e0 f029 b2a2 ae3f f228 218e 4079 b1bf
00000690: 9802 134a 8578 b33f 8b6f 143c 7f72 a03f
000006a0: eff4 6ab9 14d6 b83f 38ee 1589 b181 c0bf
000006b0: 9493 14bd 90a1 c33f 9f76 9f08 4c6b bfbf
000006c0: bc99 276e 8a96 c1bf 3c41 9980 5708 cbbf
000006d0: c0fc 3b71 ea27 803f cb42 e20b 53f3 b1bf
000006e0: 548d 5d6a 4bfe bd3f 8af9 77a3 660e c2bf
000006f0: 54e1 09ba 07fd 99bf 2b8c 9e09 952e c93f
00000700: e90c e78b 7919 c0bf 1a3e ee2a 0128 c13f
00000710: 45ae ddd4 d3b4 a5bf fa53 b396 7209 d5bf
00000720: 166e b48b beed 72bf a97d 824a 21fd b8bf
00000730: bfe0 c6bb 0893 c3bf b4d1 e4da b456 b0bf
00000740: 9a6b e729 ea56 b33f 5c64 2394 b1f7 b1bf
00000750: 5f22 0e0a 8ba4 b1bf 2d87 2beb ff46 95bf
00000760: f1e0 ef00 a655 a5bf 84d1 5ba2 55a3 96bf
00000770: 0123 cec2 ca60 bb3f aeea 0956 d1e5 be3f
00000780: 2992 137d a21a 95bf 9626 1bb2 9f4d b5bf
00000790: ef89 1d86 1bf4 c33f f188 61c6 76b0 bbbf
000007a0: bd05 98ab 5cf3 c63f 4c82 b155 da33 a9bf
000007b0: 5263 d2d1 2b10 c2bf 408c 451c 977e b1bf
000007c0: 5e63 8ade 391f 8ebf 35fd ebd2 6b48 c33f
000007d0: c73b fbee 6e3b b4bf 4944 32e4 e0b2 b9bf
000007e0: 13da 79ee c9e4 b8bf 2e88 884d 247e c0bf
000007f0: c185 a9e0 7d27 9cbf e662 7890 81eb c1bf
0.08206466859836702 0.01790655708451289 0.1447850357268022 0.07663959399806988 0.037955794350303655 0.10508647554280512 -0.029210010853864952 0.006362723126267025
0.026066160147772615 0.04282793931520159 -0.17152690047380226 0.005085321877276014 -0.016105135619682836 -0.00670499308493241 -0.04532415998693982 0.023097120148858716
0.13160664815292483 0.15317259971250757 -0.05938774124668052 -0.03802894561026219 0.0038634148320214126 0.03355184233438569 0.03681779430319889 0.025797360619643942
0.12066154007347239 -0.1449520204240311 0.16524606820228108 0.07532195516209979 -0.017716470210960834 -0.13407766086164413 -0.2119337049568701 0.06416947980299642
0.03226146440916809 0.16486632271001891 0.1424102714714273 0.21791786458162685 -0.01119747351716233 0.10196119265599933 -0.07581872726444784 -0.043957242283513845
-0.021458615706832992 0.06487432359456936 -0.10264255679036538 -0.015150524464582048 -0.1768797144266709 0.023978106145154724 0.10325425841748903 0.0935819835398356
-0.15546621722935855 -0.018203332437908306 -0.04407444434347534 -0.06332006204845715 -0.022886263466171036 -0.012680561134958631 0.050961899677708776 0.11554757664761288
-0.037229464650442246 -0.11742642828892871 -0.045956762285953676 0.03670439800638646 0.0035509229200531888 0.19251688302593467 0.10442358926755066 -0.0457389624775027
-0.05812826097209143 0.04685622823962461 0.05797578384973838 0.066835004567939 -0.06692302980930226 0.08159743249635759 -0.0260794950657676 -0.005561111665076764
-0.10623365950297152 0.07655282031970602 -0.09095233383693858 -0.06371400944796121 -0.06854731107953317 0.11101920328049802 -0.08590866236135374 -0.052281873031501634
0.0071791399351556024 -0.010899272441473899 0.07639121072521435 -0.031139578708869804 0.14297613466309686 0.007731774453892476 -0.01224721001018448 -0.1435690982117232
0.1401292418845651 0.0820789781241918 0.05894330419093054 0.22114949504974285 0.04362354556637519 -0.1565971256672639 -0.035013327562024694 0.09425450345332058
-0.08850030842369465 0.13606994885490736 0.024001587791280247 0.12445675698887312 -0.028975235513554968 0.05356493365342413 -0.05530365401580939 0.01336873635586579
-0.02988577900539228 0.031990893791166104 -0.12105610334231244 0.08300857819946812 0.01535911643352697 -0.013897563302225828 0.10171730170055422 0.154638123439861
0.12953137884017643 0.13399893676749677 0.042802570095076244 0.047917064168879725 0.029750327042774884 0.011645543711725602 -0.0507440513865671 -0.00417906954451621
0.01454925208996111 -0.01174362363238028 -0.07094254571731973 0.1211183794377827 -0.016228403221576322 0.04408059079068596 0.11998265894328973 0.12024469496299785
0.03641013179331053 -0.036394297776272844 -0.022434450295081988 -0.012781368116284721 -0.09173201207088245 0.044277409436860884 -0.040822986455654416 -0.07624559443353411
-0.08549613006593874 0.03745586664396826 0.008872259496568589 0.08769500766417163 0.08968560975914797 -0.09601729623718666 -0.009599196051906683 -0.031655795633092045
-0.03180323042910156 0.03346052633034166 0.029738595447843106 0.13037498431359523 0.0770149420326235 0.07802016014109826 -0.13248281279467675 -0.0904819091052316
-0.04984727282879112 0.06766617159146034 0.0852897993211108 0.010476157048205812 0.05389063476151419 0.11739705681164589 0.0949957184105289 -0.008069067797178914
-0.014372673547555245 -0.010467702381080267 0.11375709664468545 -0.0007969947698399626 0.10646618578031339 -0.1069895593761133 -0.01892898338741659 -0.05394360103020604
-0.09144024323330835 0.11481825917839221 0.014539126667000427 0.004480348402272235 0.07783525720839515 0.11322843179829453 0.10282286223610994 -0.06630253831512055
0.037003676802270374 0.030624598377314422 0.020536574340449525 -0.06876100254640467 -0.03943056767861566 0.1103441709849905 -0.008489795974066237 -0.0494682327357548
0.08088013693869936 -0.066278641333172 0.06616040009660484 0.04563951729606363 0.04116693573928424 0.003719723101971464 0.11846494602271711 -0.09702856843496971
0.10829818631590579 0.12578218757651335 0.024288216827208386 0.17959090501903668 0.0734479263180852 -0.016982706066859747 -0.04193806431295682 -0.1731555200967733
-0.05138927448227454 0.00975371860151183 0.05454562350708795 0.0519824383603086 -0.057167639131829116 0.13691857292650322 -0.02105852831780737 -0.07317860788067197
0.05983502161001324 -0.06825641126593832 0.07605774935201237 0.032123542865718134 0.0970166161232162 -0.12895793145786327 0.153368084263232 -0.12273097239036666
-0.13740663889548255 -0.2111920717166046 0.007888633328091976 -0.07011908569462404 0.11716147753536649 -0.14106448156230683 -0.025379296045202906 0.19673407525724093
-0.12577742892435786 0.13403334232542435 -0.04239522908650576 -0.32870163647504536 -0.004621261901117465 -0.09761245793423846 -0.15292462509910895 -0.0638230356606247
0.07554496310278438 -0.07018575541168687 -0.06891697879303525 -0.020778654793395624 -0.0416690708297568 -0.022107446703516512 0.10694567924486977 0.12069424009852511
-0.020609415897427184 -0.0832156953648798 0.15588707016566114 -0.10816137641225844 0.17930181864362096 -0.04922373100339836 -0.14111850495535322 -0.06833786430574751
-0.014707996467494485 0.15064761923711392 -0.07903188070780152 -0.10038571902465877 -0.09724103996436666 -0.12884954248244312 -0.0274943989155696 -0.13999957613193387

layer2.bias f8 [64]
00000000: e80c 7c3c 8101 a5bf 34ee 0724 e3e0 bebf
00000010: e0d1 9fe9 a0e3 bdbf 1ff2 29f7 9dca b7bf
00000020: 7bb9 1980 f3f4 babf 8a67 320c 5ac0 803f
00000030: 6715 bb71 4b4b b0bf f847 99ea 27ad bc3f
00000040: 87e4 2b11 f22f b53f b94e 414e 43aa 78bf
00000050: 58bf 1580 0027 a3bf fcbb 6552 344d bd3f
00000060: e517 faf5 46ee bc3f 8986 bfad b563 9bbf
00000070: 9506 ae25 76aa a63f 9b53 4064 7b04 b3bf
00000080: 80f4 4ff3 cb13 af3f c96f b0a6 1647 703f
00000090: 6c07 f2ac 0628 b5bf a23b 65b3 a844 bdbf
000000a0: 30a6 6d4e 1ce5 afbf ff09 3fed 083b a83f
000000b0: 0a6e f11b f323 83bf d74e 12a0 f555 af3f
000000c0: 236d 5f66 d0b4 ba3f d877 6ab9 c632 b7bf
000000d0: c6ed 9be0 7dcb a03f bbc0 3d76 f3ae a3bf
000000e0: 074a e865 58ae 85bf 11ab 0109 3dc0 a03f
000000f0: b937 a43d a5a9 aabf 16bd 88b5 3dbe 863f
00000100: ffa3 56e0 669c a53f 05d6 717f 1374 a73f
00000110: 4d36 da44 32ff 793f 2b58 aef5 93a1 73bf
00000120: 9c21 7cbb a676 bd3f 45e4 ad31 97e8 6abf
00000130: b877 f43a aee4 b13f 7ba2 174e 990d b2bf
00000140: 0b46 6ecc 1c9d ac3f 0de4 452e 86ae aa3f
00000150: 261f 229d f414 a23f 8475 8af1 b19f a83f
00000160: f04b ac42 a351 b5bf d0fe 99bf 85a5 b8bf
00000170: fe09 4cf5 6b98 b2bf b2cb 56eb 2f32 563f
00000180: 88d4 047e 9002 99bf fa66 f7ce 96c7 be3f
00000190: 8bca 708d b77c ba3f ebc4 4a8e f095 50bf
000001a0: 633c c5f3 e0cd bcbf db39 9634 bdaf b03f
000001b0: 84b7 cdb7 9ce5 8d3f 432d 7764 cedf acbf
000001c0: d57b 5878 f400 acbf 061a ccfc 14d3 b4bf
000001d0: 859d a236 9df9 bdbf 7eca bdc5 9bf7 aabf
000001e0: b776 70cf e385 b3bf 95e5 a639 9d20 b0bf
000001f0: 57d9 8e50 7d2a a53f fa62 8718 99fd b0bf
-0.04102710593545017 -0.12061900739347992 -0.11675458625524682 -0.09293544086717319 -0.10530015828564913 0.008179381844730011 -0.06364890600805993 0.11201714971073773
0.08276284140801425 -0.006021750367000749 -0.03740693629776953 0.11445929538398042 0.11301082139297554 -0.026747549752946163 0.04426926813085889 -0.07428713986912643
0.060697911692821016 0.003974045258498601 -0.08264199945736345 -0.1143289030053283 -0.06229484994294088 0.047325400315020964 -0.009345912256484307 0.06120269373891823
0.10432150363287866 -0.09061853434329181 0.03280251852808251 -0.03844414537786763 -0.010586443529097002 0.03271666274016217 -0.0520755422349874 0.011105043508989481
0.04220887650019022 0.045807465846262864 0.006346889842132675 -0.004792764632744843 0.11509172513263483 -0.0032847359665848807 0.06989563884096028 -0.07052000195074896
0.05588617320530539 0.05211276354652492 0.035316127950009865 0.048093376860587816 -0.08327694299468624 -0.09627567222377853 -0.07263827074715576 0.0013547389947745456
-0.0244238449970067 0.12023298790827744 0.10346553042544764 -0.0010123109033595655 -0.11251645995547359 0.06518156560762327 0.014598106726875455 -0.056395005954608134
-0.054694785776738954 -0.08134585544403458 -0.11709005912654476 -0.05267035282931419 -0.07626174749790492 -0.06299765260236818 0.041339794238796905 -0.066369598854532

custom_layer2.alpha f8 [64]
00000000: e8e6 e434 8d49 e03f 466f d680 936e e23f
00000010: 24d9 8ea3 9f49 d6bf b30e f0cd 0d75 e4bf
00000020: 2b16 9865 5a0e db3f eed1 de69 ebbd d4bf
00000030: 9b9d 6085 9ce4 ef3f 9593 efcb a266 f2bf
00000040: 6a0c 251a 4f1b ff3f ab22 38b4 c727 f9bf
00000050: 32b4 edee 1ff6 edbf b17c 56b3 f77b f03f
00000060: cbd4 5dcc 35e5 f03f 1768 3a91 1677 b4bf
00000070: fe93 794d ea96 f0bf 0272 6607 b039 e13f
00000080: 1f5f 569d a066 bebf 6279 d65e a3eb ee3f
00000090: dd6a 6c10 14aa debf 6916 4a6d 1120 dcbf
000000a0: 0c36 1406 ae67 ec3f cb9c 00a0 836d efbf
000000b0: 1a1d 7e8f c586 be3f b724 4968 1d3d e93f
000000c0: b755 4c23 4c6e d63f f880 1bc9 7e33 debf
000000d0: f104 c654 cf50 d8bf 0cc7 9011 d4f6 ad3f
000000e0: 82a6 e23e 5f69 f33f 33ca 1d0b 3454 dd3f
000000f0: 122c 6b7b 8da1 c0bf 791d ae16 04c8 cc3f
00000100: 316f 5ca5 0fb9 f8bf d5d9 ec2e 9748 b13f
00000110: 42f5 4f73 8369 fe3f 1113 c1c4 d7c5 d93f
00000120: 0a14 6607 41d0 efbf 58d9 42f8 fd8b dcbf
00000130: 453c fdff 397a e13f 7b8d fff2 6ce8 f23f
00000140: a3a3 f4cc 763b d0bf 75f3 6b66 23fa d3bf
00000150: f16e 3e30 10e8 db3f 913b 1da7 a90a 06c0
00000160: 3ad7 b5fa 130c c33f e2c8 7695 b5b2 f4bf
00000170: cb84 cdfb 7a0a e3bf 2922 a1f0 7d97 f9bf
00000180: 3e6a bd64 2170 e53f 3fab 0315 d4d8 fdbf
00000190: 82a0 0a75 a1e4 d03f 7887 3921 7dee bcbf
000001a0: dab9 e70b 9cae cebf 9fd8 f907 89cd e3bf
000001b0: cfea 32dd fcbf e7bf b9de 9923 f44a b7bf
000001c0: 084a 8c3b 8974 d73f 2468 b810 cfc3 e4bf
000001d0: caee a78d 84c2 da3f c7b1 cee5 942d ea3f
000001e0: aa0b 7b3c 7de7 b9bf c54f c356 4ec3 e2bf
000001f0: b7c0 823f da07 f03f 47c7 c14a c2fc f1bf
0.5089784653748355 0.5759980694160525 -0.34824362728558556 -0.6392888090344598 0.422751044476487 -0.3240917714968238 0.9966566662814559 -1.1500575987094852
1.9441672345426704 -1.5722119369330965 -0.9362945238659732 1.0302655225166684 1.0559595091884144 -0.07994214101418638 -1.0368445421565862 0.5382919449362478
-0.1187534698605046 0.966264424543436 -0.47913076022966355 -0.43945727989953426 0.8876562231759535 -0.9821184277579048 0.11924395325887752 0.7887103115873718
0.3504820198735063 -0.4718930210056125 -0.3799322440973603 0.05852377619193136 1.2132255989512548 0.4582643612440364 -0.129930196059235 0.2248540030234201
-1.545180936757742 0.06751389403948534 1.9007601265323761 0.4027003690173823 -0.9941716331965165 -0.44604443783045644 0.5461702346600609 1.1817445270652047
-0.25362939849088145 -0.31214222910039463 0.43603901587788046 -2.755206399516688 0.14880609266008965 -1.2936302030980689 -0.5950293462775788 -1.5994853400790225
0.6699377982689112 -1.8654366322395644 0.2639545100196373 -0.11301405011320564 -0.2397036607867012 -0.6188397556095601 -0.7421860046664167 -0.09098745221296668
0.3664877969287379 -0.6489024473733065 0.4181224234923603 0.8180641640115532 -0.10118849493578233 -0.5863410658444016 1.001917121971969 -1.1242087288087121

custom_layer2.teta f8 [64]
00000000: b34f ce94 7180 cc3f fab9 3c47 d70e c93f
00000010: 6218 571d b660 bcbf c644 e884 9a79 f53f
00000020: 084a e8a7 da45 f4bf bdfa d97f 623e ed3f
00000030: 895e bb8a 974a e33f f21b e439 54d1 cf3f
00000040: 503c 66aa 3cc6 f5bf d368 77d7 5b51 d8bf
00000050: 253c 732e e242 e4bf 16d4 3fe2 98ed e53f
00000060: 8831 72b3 1cc5 ef3f bc96 1c09 51df d1bf
00000070: 4d90 3f67 d2d1 f1bf cbe7 8254 c6a9 c93f
00000080: 667b 5556 3f17 cf3f 13c7 a75a 1b70 f13f
00000090: 3c4c a6f5 74ab b4bf 1cb3 ad41 edc3 e0bf
000000a0: 9beb d12d 4c36 f7bf bfa2 ff9f f1b7 f13f
000000b0: e0da 24c3 fb94 fd3f b995 bb89 8f0f dfbf
000000c0: c9aa c3da 0413 f03f 06da 30a9 9ded 993f
000000d0: 4e53 f39c 6689 f8bf 6533 e92b d242 99bf
000000e0: ebc6 ac0d fd72 e8bf 6e2c 63fa f617 e9bf
000000f0: ff2f 4422 645c 03c0 e8f9 01ea fc08 ee3f
00000100: add0 543b bbb4 e2bf a4cf 8bb4 2b2e d3bf
00000110: 0915 52f9 3efb b4bf 9c17 2413 7b18 c63f
00000120: 8c09 adb9 de2a a63f b414 f027 ef7e c13f
00000130: 376e b753 b5c5 e03f 9fdc 3c06 b788 b9bf
00000140: eb61 6613 9078 df3f 19a6 767a 4823 f0bf
00000150: 5fff 4f33 07e7 963f 5e00 805b 4eb7 f6bf
00000160: 5f99 a206 f02d b03f 0a6b c3d8 b54f c6bf
00000170: 53f5 02ea 0d2f 04c0 be2d 6cd8 063a e8bf
00000180: c414 c782 fd51 f73f c0f0 3a85 8420 e73f
00000190: 190f 27cd d5a6 f2bf 3a3f 4844 437b 09c0
000001a0: 2687 deb1 0fab dd3f be18 b02c e37e d73f
000001b0: 6fb3 b917 b792 f53f 2a68 bdb6 85f5 babf
000001c0: 8e80 99b4 a900 b33f d98d 0319 8b06 f83f
000001d0: 8b13 d699 6b0f a6bf 06b1 15a6 5712 d73f
000001e0: 95ad 5540 9ed7 f0bf 03e7 f968 afba c1bf
000001f0: 7368 3a2d 3fe2 e33f 4d0f 45c0 078a bd3f
0.22266978994286787 0.19576540926341562 -0.11085069862665045 1.3421883765879996 -1.267054229629709 0.9138653275584471 0.6028554639442102 0.2485757143660688
-1.3608976989960588 -0.3799657444157109 -0.6331644923428753 0.6852535647327638 0.9928115372472783 -0.27925516023456587 -1.1137260468613193 0.2004936134961198
0.2428969546844783 1.0898698369241557 -0.0807412242632361 -0.5239168436797601 -1.4507562436908532 1.1074081659264008 1.8488729117213367 -0.48532474947418397
1.0046433015328822 0.025320495082462834 -1.5335451250914107 -0.02466896431933509 -0.7640366808975306 -0.7841753855112878 -2.4201128651675385 0.9385971613372108
-0.5845619353117592 -0.2996930373330946 -0.08195870959214714 0.17262209353083058 0.04329582230140536 0.1366862244614474 0.5241343150223149 -0.09974235441483124
0.4917335690929849 -1.0086140426377652 0.022365677363267774 -1.4197524618357629 0.06320095216742548 -0.17430756649158524 -2.522975757804184 -0.757083342266405
1.457517157411801 0.7227194406655357 -1.1657312406322886 -3.185186894850543 0.4635657536510841 0.3671195923237852 1.3483191420338831 -0.10530887328550934
0.0742288652340923 1.5015974976639568 -0.04308639767535912 0.36049452990734243 -1.052641154582351 -0.13850968004026507 0.6213680156099727 0.1153874248894315

custom_layer2.gamma f8 [64]
00000000: 9d48 461e be4f 8bbf 5699 4044 e3f7 89bf
00000010: 6651 e368 ea99 9ebf b856 6dc4 099e 893f
00000020: 3999 38b1 8942 cb3f eae4 b97e 809b 39bf
00000030: d9bb f492 7a31 723f b3da 1131 b109 843f
00000040: 554f 9098 b186 9c3f f499 7ea6 a602 953f
00000050: 778d 435e 1866 a9bf 92fd ac93 3bc1 493f
00000060: 0e21 671b 4200 673f a8be 68c2 0bda 37bf
00000070: e714 6060 ae9d 9fbf 742e 0e35 fe9f b53f
00000080: 61ea 9f8a 7c07 82bf bacf 8a23 7fd9 98bf
00000090: 4a9f 750e 7c26 7f3f a0b4 bc76 87de ab3f
000000a0: 1071 850e 0ca0 9abf 1ba2 77e1 c5ce 68bf
000000b0: 8013 b18e 7b61 b5bf 3161 d2ce 52f7 b33f
000000c0: 24bd 8318 6f25 203f 7cfa 39a7 c651 a2bf
000000d0: b205 d7ff 4ed0 90bf 7a1c f97f 727f a1bf
000000e0: c7d1 b62c 49bc 92bf 41d5 b8fa e122 93bf
000000f0: 7dd3 5b89 a039 c63f 5b6d 9991 118c 33bf
00000100: 1762 5e35 f0c7 ab3f ff80 201f 1573 913f
00000110: f33a ec33 4ca9 b63f d183 63ae fe7c 78bf
00000120: c256 963e 36de 8fbf b520 826e e926 a1bf
00000130: c2d9 bc41 f816 663f 08cf f061 904c 593f
00000140: 24f4 7705 c2f3 52bf cec9 2a1c d340 6b3f
00000150: 24e1 a4a2 c956 b23f 3dd7 0fb2 93b6 aabf
00000160: 0ab2 b296 66fc a83f d147 8bb2 337e a43f
00000170: 9c81 4436 d588 c0bf b25d a9e0 41fb b3bf
00000180: f7b2 ab5c 45e8 643f 43f0 0548 ea69 853f
00000190: 77dc c3ae e10b c03f edd1 bd50 cd43 c23f
000001a0: 3ce4 632e efa0 893f 073c 0509 adec 6d3f
000001b0: 8de7 cf11 7057 96bf c0e3 db56 6ff1 2d3f
000001c0: f880 e914 a3c3 be3f 8b00 3ab5 19df 80bf
000001d0: 9a42 e1dc b2e3 b63f eaa7 2275 c9bf 82bf
000001e0: efd0 4d9e ab11 c23f 6a9c 7bcc 3666 603f
000001f0: 6a4f c59e 4ec1 72bf 7fbe 0c71 47c2 78bf
-0.013335690783410842 -0.012679839630504713 -0.02988401665864284 0.012508465105990893 0.21296807435391843 -0.0003907383640818345 0.004441717915411447 0.009784111318578459
0.02785756581950179 0.02051792517854696 -0.04960704947168442 0.0007859745886448658 0.0028077403214618107 -0.0003639486989497156 -0.03087494338253274 0.08447254939363252
-0.008803341846932601 -0.02426718382294244 0.007605061145433309 0.05443213772228117 -0.026001156221682697 -0.003028284536174886 -0.08351871713337111 0.07799260663376086
0.0001231859316770191 -0.03578015128458831 -0.01641963421366705 -0.034175470468249494 -0.01829637847341006 -0.018687754562241258 0.17363363940208024 -0.00029826573299881137
0.05425978328202435 0.017040567421759963 0.08852077739377844 -0.005978579376660202 -0.015560554299365651 -0.03349999879816449 0.0026964997067821803 0.0015441331850185053
-0.0011567492236956934 0.0033268092386944175 0.07163677426149612 -0.05217420147520933 0.04880066480231811 0.04002534441464401 -0.12917580747399604 -0.07805263266469956
0.002552161667486504 0.010455923388455917 0.12536259683085735 0.1426941532369165 0.01251398907014522 0.003652894935079146 -0.02181792362896533 0.00022844776270128202
0.12017268429326922 -0.008238030284019501 0.08941190617157205 -0.009154867064655254 0.14116425733266832 0.0020018644607833662 -0.004578883276128079 -0.006044653958084844
