COLA_Emulators/PCE/LCDM_PNN_HIGH/MODEL_Z1.824_2.pth (torch, 97014 bytes, 17 tensors)

layer1.weight f8 [64, 19]
-0.05406937731879774 0.106132086068585 0.2589291692505532 -0.139935816820331 -0.15228875776455783 -0.21546125302887462 -0.14987466266203445 0.17371851070912214
0.22203257431983472 0.1570490895846823 -0.08026990455391902 -0.11702480116213192 -0.10119833160830786 0.07492320810943896 0.15409615357097184 -0.18929492642697407
0.039774871538923055 0.21662556312879247 0.08062315745944729 0.03911133219277457 -0.04898703636362655 -0.15730408477226626 0.12029340123792588 -0.072292973200662
-0.15773667983147308 -0.11645184885148567 -0.18922556242114363 0.15498693043311454 0.06842568946286638 -0.18058419461096165 0.028148302039660615 -0.205208394322072
0.12381894755789352 -0.04219255135244962 0.19593644205431712 0.19686599910829816 0.06547134287551011 -0.015636781666616636 0.150873644390462 0.07914486415534275
-0.19349417318335244 0.021590196094174143 -0.06923409603205222 -0.18510643266450952 -0.08600752725335462 -0.05150588691829268 -0.17958416838087612 0.06450414926102538
0.16222199920444857 0.2305823299029532 -0.16043858851150414 0.20536042544218874 0.1587354971694999 0.22584788417420262 0.20420555735928608 -0.13009278968060478
0.09217376287771978 0.03081925285717247 -0.12260265145557693 -0.11298836293188119 -0.23366479371913046 0.30208785125785165 0.15115397787654386 -0.0710291867494812
0.050194655205163315 0.05758183931418176 -0.07116729997502672 -0.11993610824059196 -0.17285669650677052 0.21030651297205208 0.11688227062160032 0.0827019098830004
-0.12090362938186604 -0.1691485803211725 -0.15344792792708847 -0.12025403211017129 0.13008767023065873 -0.03633544944622965 -0.1366474703471805 -0.16734013181087357
0.10801746835356459 0.12386403686422343 -0.0917665724877609 0.148587013399142 0.2575966111961305 0.1340893410863329 0.07273474615874459 0.1007564020759149
0.174345145143328 0.0011148322241447393 -0.06946730793190314 0.1988103745874533 -0.2058332934072524 -0.0014208835828161258 0.14015509075442809 -0.037102920488011455
0.14687403410838823 0.05901368101705861 -0.05834410923423245 -0.07963805901861973 -0.2057200594570481 0.24591602702596316 0.22410158776259062 -0.05961634407923478
-0.20338202228737234 0.014322406073696557 0.03445139167313158 -0.2132597814762864 -0.10553052330281118 0.16559123399961848 -0.07800996876883799 -0.14367810057664254
-0.1802582212493594 0.05708859562386262 -0.006135863951471954 -0.033245780883978775 -0.06032549646854359 -0.02696019947392814 -0.07841545800300333 0.167758636441912
-0.2320912608547185 -0.14893718876774284 -0.09256408153011814 0.232539558992193 0.01565640211815364 0.21416204804413821 0.21325633579020883 0.11436269217888943
-0.06638169336097667 0.14368036381208688 -0.13516327688928279 -0.14480925528377905 -0.04223569370941053 -0.04116121620038141 -0.13526173270324582 -0.028865061698681138
-0.11092632709136059 0.16578139957065216 -0.2344404201959111 0.14069473549712502 -0.11129633616635624 0.01761471214439596 0.09679907572563602 -0.17313018907894834
0.11108925878361749 0.10418628187986029 -0.15361972857069528 0.03267819874794596 -0.10399605949759316 -0.21150242542711398 0.101303117014999 0.19144407119495938
-0.07129916376171824 0.0999523218387947 -0.08818155023686718 -0.011465365982298546 0.23645880676764255 0.12172601028949692 -0.030188534106032686 0.18456235209829605
0.22055015126744856 -0.01398560164782058 -0.17685507506044462 0.02655014692283198 0.0814670138036734 0.2179353817683836 -0.11624840759731539 -0.193061167501698
-0.22585736358601416 -0.1486843766236727 0.17613742895236847 -0.15116906295582988 -0.06285729717831064 0.06364975565445992 0.02629716519473224 -0.053612387379401855
-0.2196238915306604 0.05122874617943852 -0.1531171650419554 -0.09634228597411731 -0.20596845686684082 0.17067447757688614 0.16125819223350732 -0.07378151372212578
-0.12421983885214373 0.07841181485862332 0.12021835695611224 -0.024612102209375656 0.1398229299584085 -0.04631460666136444 0.05228132871642923 0.056770474979900246
0.12202802322241088 0.05770626836708328 0.14614364949186176 0.09647055970675647 -0.15424679956496695 -0.13799034358692644 -0.08728216683887222 -0.1444470820746109
-0.16336746575522323 -0.11020681720741778 -0.0741966407932264 0.17828940618974265 -0.09293606075921318 -0.038769695304946006 0.11662783066277156 -0.04441826877775863
-0.04583566985173866 0.08279336773085469 -0.05915872221992525 -0.04225549649028709 0.08027836758046353 0.16847859603691628 -0.07477001079234467 -0.11050409233761317
0.05868569931370259 -0.02484709502365623 0.019758125158381084 0.1977082975756885 0.0004886441043314922 -0.14784688647725647 0.08528118121701779 -0.023096228106375547
-0.03117832310116561 0.18978011061058403 -0.03526415024818869 -0.19828936968178237 0.013502364364184132 -0.18580570789013842 -0.18324521978125705 0.20264612716881217
-0.13515157906266212 0.1754133799344752 0.08071488651996757 0.08547145700084798 0.09481598664794735 0.17931305032811548 -0.1440592718527758 -0.19714608134417638
-0.016067191257390343 0.08766489991448415 0.21929122603198922 -0.004314443071038243 -0.0517522340944941 0.09807238713149326 0.08088510684599363 -0.08881462425914788
-0.10001282531634365 -0.21141212913416407 -0.04883988246114519 -0.26596497980576245 0.06203736282292708 -0.16697825576396286 -0.1741258879870976 0.06283204189121591
00000000: 8840 993e fbae abbf 4d88 b8ee 782b bb3f
00000010: 3e57 7aa6 4b92 d03f a524 64b6 6ae9 c1bf
00000020: d3d8 12b1 327e c3bf 9f37 a8fd 3b94 cbbf
00000030: c9f4 50cb 172f c3bf 004e 1a7d 683c c63f
00000040: 3dd9 ac3a 906b cc3f 17ff d03f 2f1a c43f
00000050: f080 e986 918c b4bf 3bf0 cf5d 56f5 bdbf
00000060: b3dd aa44 22e8 b9bf f79b 8ad8 2a2e b33f
00000070: 7c6b 033a 6cb9 c33f efba 26ef d03a c8bf
00000080: 67af ec38 5f5d a43f cdd0 8eee 62ba cb3f
00000090: 7aad 9620 b8a3 b43f e887 5789 6606 a43f
000000a0: af2f 382e d414 a9bf 5ae2 cf4d 8a22 c4bf
000000b0: c9d2 3d60 8ccb be3f 6aa0 a0d3 ca81 b2bf
000000c0: 0bbe a02c b730 c4bf c338 60d2 c9cf bdbf
000000d0: 1840 1511 8b38 c8bf 7d42 c29a 9cd6 c33f
000000e0: e502 7392 5884 b13f 80a8 0305 621d c7bf
000000f0: ee07 cb92 e8d2 9c3f 2a2e 3dc7 4444 cabf
00000100: 04e4 623a 99b2 bf3f d41b 6318 439a a5bf
00000110: dbe3 5b01 7214 c93f 20a8 eeb1 e732 c93f
00000120: 95bb 79dc bac2 b03f 1fc2 7da7 1603 90bf
00000130: 8b20 3edc d34f c33f 228d 317b d642 b43f
00000140: e2ff e4c4 6ac4 c8bf a708 8e88 bd1b 963f
00000150: 38cd 3962 53b9 b1bf b761 494d 91b1 c7bf
00000160: 1a53 c3dc 9604 b6bf 3a28 bbc7 fa5e aabf
00000170: d1a0 0931 9dfc c6bf cc4b 880b 5883 b03f
00000180: 1c2e a3c2 b0c3 c43f 46fd fbc6 b883 cd3f
00000190: 132f 566d 4089 c4bf 3e5b 951b 4049 ca3f
000001a0: b155 87dc 7151 c43f 4f12 335e 95e8 cc3f
000001b0: ca81 425f 6823 ca3f 40d2 8f6a e1a6 c0bf
000001c0: b4eb 1b21 b398 b73f c251 6f0c 158f 9f3f
000001d0: 3193 672a e362 bfbf 68fa 9e2b ceec bcbf
000001e0: 3e08 a05b bae8 cdbf faf7 6a48 6855 d33f
000001f0: 99ed d177 0359 c33f 0e87 2602 f82e b2bf
00000200: 8191 1425 1db3 a93f 1858 65e9 5d7b ad3f
00000210: eaf6 ef29 0538 b2bf 57bb 80fe 21b4 bebf
00000220: 1512 3211 2b20 c6bf d1e5 ace5 52eb ca3f
00000230: 8b4f cd19 ffeb bd3f 4fa4 43ce f32b b53f
00000240: 87ae 294e 8af3 bebf 4777 5222 a9a6 c5bf
00000250: d3fb 0a84 2ea4 c3bf f114 20df f7c8 bebf
00000260: 1573 a078 b6a6 c03f 6b31 1d5e 8f9a a2bf
00000270: 5873 1c10 aa7d c1bf dfcf b7c4 666b c5bf
00000280: 9dab f965 08a7 bb3f 207d 7bb3 8db5 bf3f
00000290: 3a71 b39b 037e b7bf b66e 9435 e604 c33f
000002a0: af75 297f 767c d03f 629f 5aeb d629 c13f
000002b0: 1ce0 088c be9e b23f a357 c7eb 2bcb b93f
000002c0: 18b1 4d14 f150 c63f 7adb 5dfc f143 523f
000002d0: 686c b507 9cc8 b1bf 1bb4 7a4c 9e72 c93f
000002e0: ff59 cecf be58 cabf 3d6e 4121 9e47 57bf
000002f0: 433f 941d 9af0 c13f b108 2a6c 27ff a2bf
00000300: 5645 90b2 c4cc c23f 4f3d f88b 0a37 ae3f
00000310: 198b 2672 47df adbf d67b 00eb 2863 b4bf
00000320: b1e5 bfef 0855 cabf 04c3 d126 2d7a cf3f
00000330: 1d04 365f 5caf cc3f 213a 4190 0886 aebf
00000340: 20c8 280f 6c08 cabf 5f12 7ecd 1055 8d3f
00000350: cd58 13e1 9ca3 a13f a712 7fb5 184c cbbf
00000360: 1eba 5062 0c04 bbbf b32d 44f3 1732 c53f
00000370: adc7 9f18 76f8 b3bf e064 9043 0b64 c2bf
00000380: dbf1 8c8e b312 c7bf 94ad 5b66 b73a ad3f
00000390: 2785 1170 eb21 79bf ffda 404b 9705 a1bf
000003a0: 230c e5c4 fbe2 aebf 41fa 225c 749b 9bbf
000003b0: c9ae 9f13 0913 b4bf 4bdd 9170 1d79 c53f
000003c0: 577a 879b 2ab5 cdbf 7f33 75b1 5f10 c3bf
000003d0: 44c5 f496 47b2 b7bf dfe8 7234 dbc3 cd3f
000003e0: d82f 485c 3b08 903f 196d 3278 a969 cb3f
000003f0: 6f1e f1cd fb4b cb3f d374 ca96 df46 bd3f
00000400: d1da 0902 64fe b0bf de3c d33f 1e64 c23f
00000410: 6909 eebe 074d c1bf 930c cd13 1c89 c2bf
00000420: 755d 69b6 ea9f a5bf 4571 e33a 1513 a5bf
00000430: 8c2c 2ea7 4150 c1bf b0af f87f cd8e 9dbf
00000440: 556f 1ff3 aa65 bcbf a374 b82c 5338 c53f
00000450: 3e0c cdc8 2402 cebf 96fa d6fb 4802 c23f
00000460: 77c6 ffab ea7d bcbf 0dc3 5a52 9709 923f
00000470: 6d4e 8600 d3c7 b83f 3aae 054a 2129 c6bf
00000480: c59a 697d 5870 bc3f 84a7 5dc1 f3ab ba3f
00000490: e0a2 1daf cfa9 c3bf 8e48 d465 32bb a03f
000004a0: 087d 745a 7c9f babf 15f8 1df0 8212 cbbf
000004b0: b4f1 8f46 00ef b93f 2ed1 6544 3d81 c83f
000004c0: e4b6 9678 a940 b2bf bbf6 74b1 7996 b93f
000004d0: bbbf 60ea 1093 b6bf 0cf5 715f 277b 87bf
000004e0: d987 f53c 4844 ce3f 3815 4491 6f29 bf3f
000004f0: 9461 cc3a bee9 9ebf e3e1 2a39 bd9f c73f
00000500: 5f28 69c3 fc3a cc3f 7bc6 89ad 7ba4 8cbf
00000510: fc13 c2e5 2fa3 c6bf 8242 f332 f62f 9b3f
00000520: a953 fdaf 05db b43f d911 ab7c 4ee5 cb3f
00000530: 32b1 d7a4 74c2 bdbf 4010 4674 3ab6 c8bf
00000540: c0d3 14e3 e4e8 ccbf 572d 83f3 1608 c3bf
00000550: 5fd9 79d8 ab8b c63f f4f7 c702 8259 c3bf
00000560: c51f b273 6a17 b0bf 0d2e efb2 594b b03f
00000570: 209e f4e1 a4ed 9a3f 9cf7 e834 1573 abbf
00000580: 23b0 c5bb a21c ccbf 215b e97a a73a aa3f
00000590: 09dd 27e0 5799 c3bf 0810 7b57 e3a9 b8bf
000005a0: e315 20a5 2c5d cabf b430 ba49 a9d8 c53f
000005b0: 7b70 edc2 1ba4 c43f 4d64 7c64 58e3 b2bf
000005c0: 9964 6211 dfcc bfbf 4513 70f4 cb12 b43f
000005d0: 065f 8157 a1c6 be3f 31e1 4c38 ea33 99bf
000005e0: 5c7d b3bf b7e5 c13f 7f15 e051 8cb6 a7bf
000005f0: 2396 0e4a 9ec4 aa3f 9a88 d50a 0511 ad3f
00000600: 7e8f ef80 3a3d bf3f 4357 d20e ad8b ad3f
00000610: 08f6 8ac9 d5b4 c23f 3aa3 f76a 4bb2 b83f
00000620: 2675 d2ef 5bbe c3bf c550 6fe6 aaa9 c1bf
00000630: 26d3 18c4 1f58 b6bf a9ac c1f2 3d7d c2bf
00000640: 2d15 53a1 39e9 c4bf 71bd b393 8336 bcbf
00000650: 4f12 ae11 8dfe b2bf 4073 67f0 2fd2 c63f
00000660: a473 945d a8ca b7bf d03d d21a 9fd9 a3bf
00000670: f501 804e 52db bd3f 8aa6 7dc7 fdbd a6bf
00000680: eac6 01de c577 a7bf 1acf ba36 f231 b53f
00000690: 415b 6a52 0d4a aebf 8809 012f 83a2 a5bf
000006a0: 7498 5583 1f8d b43f 84fb 06e6 b490 c53f
000006b0: b71e 139f 2024 b3bf d909 aa06 ff49 bcbf
000006c0: ff29 974e 0d0c ae3f 60dc 1b52 8471 99bf
000006d0: 2bc6 8a55 793b 943f 2f22 1e68 814e c93f
000006e0: c940 4739 0b03 403f 621c 1e93 a5ec c2bf
000006f0: 5195 4acc fcd4 b53f 39e8 82a1 89a6 97bf
00000700: 9827 41d8 35ed 9fbf ee79 40f4 b64a c83f
00000710: f90b 1388 240e a2bf 2dbf f6ca 8b61 c9bf
00000720: 291c e7aa 20a7 8b3f d52d 663f 7bc8 c7bf
00000730: 2fee 0d51 9474 c7bf 05f1 6cec 4ef0 c93f
00000740: 9ad7 099e a54c c1bf eeb8 0c15 f273 c63f
00000750: 1d53 e715 bba9 b43f 8563 8f18 75e1 b53f
00000760: da78 ca49 dc45 b83f 7fdf 73e3 baf3 c63f
00000770: 1189 a5c2 8870 c2bf 9232 f431 153c c9bf
00000780: 69ce f4f3 ea73 90bf 6acb 23f6 3471 b63f
00000790: afb6 0d22 bc11 cc3f 0dbf 3f7e 05ac 71bf
000007a0: 4a90 dcd1 447f aabf 81d3 5e9f 451b b93f
000007b0: fb12 a3e8 e2b4 b43f 507d 9922 8ebc b6bf
000007c0: bc0c eac5 709a b9bf 84f2 4d7a 8d0f cbbf
000007d0: 0a7c d283 8a01 a9bf 4569 89fa 9105 d1bf
000007e0: d5bb e878 5cc3 af3f b41d d321 8b5f c5bf
000007f0: 4c51 25d1 c149 c6bf f64c 10bd c215 b03f

layer1.bias f8 [64]
-0.16756384934302604 0.16405875780677068 -0.14264637905541425 -0.0397291866389977 -0.0584924412284434 -0.04493861510521772 -0.22562054204258725 -0.1178006450803619
-0.18249741368597144 -0.10074377861376553 -0.146566744811507 -0.139693832192649 0.12580265667035576 0.1243762311146878 0.12392140087112787 0.0293497331678331
0.08641432854540752 0.10255457517958788 -0.20205106412142768 -0.057189086329830184 0.18001379133333587 0.14771125287160172 0.028717633249943933 0.03295070856583371
0.1583738467723475 0.0977386521514499 -0.11781401088560467 -0.1384811739576681 -0.15842436530167595 -0.20940444416163098 0.2017302036528154 0.20344533129305784
0.03495150559616679 -0.19755821941653148 -0.05989565266898444 -0.08935572242551214 -0.07317638578796526 0.04211423937423426 -0.070441956913611 -0.2093115983832348
-0.21370798169068136 -0.11321109428280775 -0.106282721239379 0.1815842848377155 0.21424775941817686 -0.06068127133421308 -0.11760767802330896 0.026153491748167803
0.20654274694265243 -0.12538788926858266 0.2250466672882561 -0.16434246518653622 0.22349503166877308 -0.13356256327955018 0.0315374097872397 -0.12669620809933413
-0.08639593381835968 -0.1880112214154773 0.12458227473645446 0.08295295149182792 -0.10106489871341894 -0.08323425462763212 0.14737985277902108 0.12246205928434155
00000000: 10c8 7572 bb72 c5bf f783 b39b e0ff c43f
00000010: 11c9 778e 3c42 c2bf 5e52 9f4a 6257 a4bf
00000020: 0b5b 47a4 b8f2 adbf 95ac 68b4 3102 a7bf
00000030: 6a79 b048 22e1 ccbf 1e5f 11de 2e28 bebf
00000040: e262 b143 135c c7bf 23ed 6b22 58ca b9bf
00000050: ccc3 d2f7 b2c2 c2bf 1534 5ccc 7ce1 c1bf
00000060: 8515 132c 4d1a c03f eb8d 09e5 1ed7 bf3f
00000070: 9518 041c 50b9 bf3f 299f 6840 db0d 9e3f
00000080: 8f21 02db 3f1f b63f b895 7342 0441 ba3f
00000090: 0f03 432c cfdc c9bf 4b11 f34e e347 adbf
000000a0: cd85 4d21 b10a c73f f5d7 2acc 33e8 c23f
000000b0: 8414 82be 2768 9d3f 502f 574f eade a03f
000000c0: c2e7 361e 9845 c43f 45ac 8b7a 6605 b93f
000000d0: 8ca6 c31b 0f29 bebf 7743 a148 c0b9 c1bf
000000e0: d91c eee5 3f47 c4bf 79d7 a7cb c3cd cabf
000000f0: 0ef2 a699 4bd2 c93f 93ba 3622 7f0a ca3f
00000100: d286 f6ea 29e5 a13f 6f99 b975 9649 c9bf
00000110: df8f c59a a4aa aebf df2c 8741 04e0 b6bf
00000120: 807d cc07 b0bb b2bf 29d3 9d61 ff8f a53f
00000130: b1cf 35ed 7b08 b2bf 995f ddf2 b8ca cabf
00000140: ebb8 207c c85a cbbf 3131 7dfb 66fb bcbf
00000150: 595f da2b 5835 bbbf 8c3a 6c62 273e c73f
00000160: c89e f877 786c cb3f 4065 b897 9d11 afbf
00000170: 385d de6a 891b bebf 7737 f01e fbc7 9a3f
00000180: 011f ac23 fe6f ca3f 4f8c dcd9 b50c c0bf
00000190: 51d6 0946 54ce cc3f 0afc a884 2c09 c5bf
000001a0: 9dfd ea35 7c9b cc3f 74b7 a0fc 9318 c1bf
000001b0: 6b03 46df ab25 a03f 402c 28d3 9437 c0bf
000001c0: 2bda 413e 0b1e b6bf bb57 a16f c010 c8bf
000001d0: 1184 a7bb 9fe4 bf3f 719a c395 673c b53f
000001e0: 6768 bfa2 63df b9bf 9059 8811 d74e b5bf
000001f0: 6f39 e3cf 57dd c23f 0387 a06b ac59 bf3f

custom_layer.alpha f8 [64]
0.9690278555237241 -0.5325619729621659 1.631769657488045 1.437394017033308 0.5745141959764136 2.5193575007529234 -1.431034404776838 1.4107843620300022
-0.9159539421748017 0.1678329299505402 -0.2915056945327544 -0.04569542116916043 -0.18071306294871345 1.166704060253359 0.8636252715354862 1.0025543203233833
-1.4757790305683807 0.24873198760299595 -0.10969221064176157 0.17890032790285423 1.9060515968911957 1.3905965482129152 2.5004479554175347 -0.4064022740797562
-0.1452819218384548 -1.034213258756706 0.6921793551509715 -0.2889932896251353 0.7276931495270811 -0.7667814791411822 1.2353551223636519 0.6640478760261769
-0.258827882479427 0.9459726092112409 1.3261889995512994 1.3232598674918983 0.06753820654365832 1.3311804072151483 -0.8600385835184485 1.4078336585403768
1.4645966472177794 -0.463041438629441 0.6185650305018184 1.0438121011566703 -0.05479653939557148 -0.5141978156289628 2.2470203327492415 -0.9824022627522219
-1.405725601880997 0.8166485327397254 1.6541233179107981 0.6068934466578897 0.7477423318202516 0.22904184786395 -0.9379189998966011 0.026744843040199404
1.268248159318708 -0.941241708155658 1.1699800217380372 0.4089024356352576 -0.5953691557711164 0.69664233805112 0.5321787825203655 -1.436613228418977
00000000: a565 8cb4 4602 ef3f 55e7 1e68 bf0a e1bf
00000010: a942 1880 ba1b fa3f 6afc 69de 90ff f63f
00000020: 49ce 5998 6b62 e23f 2d54 c5e7 a427 0440
00000030: 3f7a ff54 84e5 f6bf 8908 8a9f 9292 f63f
00000040: bc0e 49a4 7e4f edbf bb2a aaa8 8c7b c53f
00000050: a96b 2780 07a8 d2bf 193a ffe6 6365 a7bf
00000060: 3790 a90b 9b21 c7bf a060 6ee0 d1aa f23f
00000070: 1ecf 2777 d1a2 eb3f fe09 2466 760a f03f
00000080: d79e 0679 ca9c f7bf 3baa 1c24 73d6 cf3f
00000090: 3612 55e9 c914 bcbf 4f10 cbb8 34e6 c63f
000000a0: 202e 92f5 2f7f fe3f 4f14 882a e23f f63f
000000b0: 70f2 8edb ea00 0440 4153 0caf 7e02 dabf
000000c0: 3483 7f17 9998 c2bf b831 b733 238c f0bf
000000d0: 93df aa51 5526 e63f b504 edb5 dd7e d2bf
000000e0: e2be d724 4349 e73f 54e0 0250 7989 e8bf
000000f0: a8f7 97bb 03c4 f33f 9757 d054 e13f e53f
00000100: 48b1 a2d2 a290 d0bf 912b 6f59 6845 ee3f
00000110: 6334 d6f4 1138 f53f bdca ef89 122c f53f
00000120: b3e3 5514 2f4a b13f 570a a1d3 834c f53f
00000130: 1c51 b0a2 6f85 ebbf 2339 1a96 7c86 f63f
00000140: 151b dae4 fc6e f73f a4cc e68e 78a2 ddbf
00000150: b28b 0ee4 48cb e33f eb30 5a51 74b3 f03f
00000160: 0da2 46c1 4a0e acbf 10a2 39fa 4e74 e0bf
00000170: 1ad7 d4cb e5f9 0140 ad30 c1de d66f efbf
00000180: 28a9 f320 da7d f6bf 3331 8e1a fc21 ea3f
00000190: 6fa5 1f03 4a77 fa3f e8ac 31ce ab6b e33f
000001a0: 9e16 a053 81ed e73f 78db fe46 3e51 cd3f
000001b0: 324b dbb4 6e03 eebf 1cf9 c608 0063 9b3f
000001c0: dbc6 f794 be4a f43f 7d1c 45ee a61e eebf
000001d0: 6d69 a5f8 3cb8 f23f 29b9 131f 752b da3f
000001e0: bdb0 a29d 430d e3bf 7e08 5edf e44a e63f
000001f0: 259a 51cc 9b07 e13f bef7 1027 5efc f6bf

custom_layer.teta f8 [64]
1.6838837514238025 -0.8627194229711929 -0.7592568460595028 1.8755348750184468 -1.5517261402757305 -0.5455916860102664 0.9072836516050539 -2.063218339991821
-0.47428725923599385 0.5317430569964455 0.465458135728266 1.1876569745603491 0.4261710945723954 0.8486297928095401 0.5483745129190449 0.5920335880902136
0.6062456865285608 1.7907171430928575 -0.23793791318422325 -0.8897956249137315 -0.45224537115691943 0.5021309236708866 -1.2798784034704445 0.43828967169144784
0.010020862432963056 -1.1131384412659395 -0.6460710831256791 0.0120149345657688 1.4710685835803776 -1.3113010800039122 -1.8721624421892853 0.6484837251747596
0.354435667239877 0.4377430449191059 -1.5847726009612646 -0.5543510572774384 1.270257252472189 -2.6404547052621052 -0.36320443311521783 -1.5714279427104174
-0.48207106779141845 0.5259180523692883 1.2219445825359028 -0.006478408733001728 -0.9027219458658597 0.29435130451844993 -0.037482158682688047 0.004281598702495794
0.23983103320884505 -1.156700548905552 -1.141521521498204 0.04872951421863156 -0.9814106797403159 -1.1412595651834947 0.3333782089887336 -0.037599086483638036
-0.37507486793576195 0.8665537087615697 0.8928016815007772 1.0476893264965383 -0.431724907386588 -1.178822256989857 -0.6799702298669074 -0.2558901646507845
00000000: ae18 aa16 30f1 fa3f e320 69c3 659b ebbf
00000010: 96de 6203 d54b e8bf 0763 6bdb 3002 fe3f
00000020: 3652 0dca ded3 f8bf 6946 0cb2 7c75 e1bf
00000030: 6fda 7ab9 7708 ed3f a12d f69d 7881 00c0
00000040: 0fff d4f2 b85a debf f197 f503 0a04 e13f
00000050: c20a a7eb 10ca dd3f e7a5 8999 a400 f33f
00000060: f117 6c20 6346 db3f 44e7 d0aa f927 eb3f
00000070: b04f deb4 488c e13f 5f64 5f6c f0f1 e23f
00000080: 4a66 9f5a 5d66 e33f a886 df04 c7a6 fc3f
00000090: aa67 cde1 bf74 cebf 861b a4ac 3479 ecbf
000000a0: f8b9 b891 96f1 dcbf 6041 efde 7411 e03f
000000b0: 2f32 dcc6 617a f4bf d6b7 851f f00c dc3f
000000c0: b617 6b63 d185 843f a485 1241 6acf f1bf
000000d0: 9a50 9d43 9dac e4bf a13e 3038 499b 883f
000000e0: 8869 0a36 7f89 f73f 7438 5dd7 16fb f4bf
000000f0: 1f0a e09a 60f4 fdbf 9da4 f3f0 60c0 e43f
00000100: 8d32 d5ef 12af d63f 3ea8 7e67 fb03 dc3f
00000110: 9b9b cb83 3a5b f9bf d04e b06d 3ebd e1bf
00000120: 74ff cd44 f952 f43f 495c 6db7 a61f 05c0
00000130: 3d7e 7fce bd3e d7bf 8d63 5fa0 9124 f9bf
00000140: a5c3 a09b 40da debf e0aa 6918 52d4 e03f
00000150: d841 38c3 158d f33f 59bc 369a 1a89 7abf
00000160: de02 5c22 19e3 ecbf 7a44 9cda a6d6 d23f
00000170: 7685 738b dc30 a3bf 0fd6 6de6 9489 713f
00000180: 1d54 1986 c8b2 ce3f 9408 4d6f d881 f2bf
00000190: 393d 2812 ac43 f2bf cc85 d62b 13f3 a83f
000001a0: d0c0 ad5e b767 efbf 595d cb63 9942 f2bf
000001b0: 0090 338e 1156 d53f ea07 9dfd 2f40 a3bf
000001c0: be7a d504 3a01 d8bf 6d78 ebd7 ceba eb3f
000001d0: 3982 fbd4 d491 ec3f 00bc 1ae2 55c3 f03f
000001e0: 7e04 8681 61a1 dbbf ef17 19ba 74dc f2bf
000001f0: e505 71ed 50c2 e5bf 60c3 2224 8160 d0bf

custom_layer.gamma f8 [64]
-0.02048853323391775 0.05415700251931383 0.009445313956708199 -0.02945414516462546 0.03617763435424604 0.0775408082632297 -0.002118851292790634 0.0461231042646765
0.027078169095862983 -0.0012993891646795133 0.011489103931348433 0.00028864229592508243 0.005004327657570782 0.0012883279816149585 0.015213138696184802 0.011083021202936017
-0.0057562041887945945 -0.04019609937165808 -0.02901565516427869 0.016890244352857856 0.025560601516536274 0.0028645819211793808 0.07371175817239867 -0.003015552714784431
-0.0010406469636790793 0.03410594108330075 0.03413684171282406 0.019133483940301045 -0.010693617883083073 0.038686531506936295 0.03808068892012291 0.01722837692401238
0.009754324723983064 0.04432184721210599 0.06438746889764725 0.025847002478358402 0.003336187010912427 0.1138680879735838 0.0005234057583726377 0.035391898753929
0.047474449852942906 0.0056716359302783105 -0.009104934930490055 0.021845963280684465 0.08427091314220779 -0.0019099682529850738 0.010741119885900709 0.011935740161610404
-0.0374381307065035 0.0567960292660064 0.00207416738204765 0.01033339163350808 -0.0032966868406791535 0.15934751606612024 0.0007199072467579667 -0.04358925543119173
-0.0036308319115819923 -0.000584339810341789 0.005242139098349299 -0.004360971266862798 0.04652262118924644 0.029280886291106676 -0.014967782873613054 0.003026372297548422
00000000: 0012 bb30 f2fa 94bf 99f5 5675 77ba ab3f
00000010: 322a 5b94 1058 833f eed4 da38 3a29 9ebf
00000020: 11d8 cbf8 df85 a23f 0692 98e3 b6d9 b33f
00000030: c972 3ea0 8d5b 61bf f445 d090 729d a73f
00000040: f424 cf2a 61ba 9b3f aa8f e47d 084a 55bf
00000050: daf4 296d 9987 873f 0d39 a338 9dea 323f
00000060: a433 0bfa 6a7f 743f 7130 0ba3 a31b 553f
00000070: c664 5be9 1028 8f3f fa20 dcec b1b2 863f
00000080: d3eb d64b d193 77bf 58c1 7448 9594 a4bf
00000090: 14a7 02a8 47b6 9dbf d1c7 771c ad4b 913f
000000a0: a085 51ee 8e2c 9a3f 70b7 61b5 7677 673f
000000b0: 6c5d ae16 c6de b23f 8176 4289 12b4 68bf
000000c0: 5c65 3e2b ca0c 51bf 2baa 1a7b 5576 a13f
000000d0: 0199 7d55 627a a13f cae7 205f ba97 933f
000000e0: b38b ab18 89e6 85bf e865 3c97 b8ce a33f
000000f0: aaca 0ae3 4f7f a33f 27a3 cecd 50a4 913f
00000100: 79fa 784d 13fa 833f 9371 8c68 5ab1 a63f
00000110: 5907 3079 b27b b03f cc70 60f9 a277 9a3f
00000120: fdde 5dc3 7d54 6b3f 6e93 e781 7526 bd3f
00000130: aa14 b04e a526 413f 1f08 620f e31e a23f
00000140: 9f28 0733 924e a83f 84a6 5d2d 243b 773f
00000150: d0bd 11ae 9ba5 82bf 0652 5cc7 c95e 963f
00000160: a728 f34f c792 b53f 39c4 b5cb fc4a 5fbf
00000170: 2112 0fb5 70ff 853f d76d 2eed c371 883f
00000180: 23ff 0336 172b a3bf c7f5 7a80 5e14 ad3f
00000190: ab7b 5022 d8fd 603f 323e fb58 ac29 853f
000001a0: b5cf 4e45 a701 6bbf 0af6 19d9 7f65 c43f
000001b0: fd83 5d0a 0597 473f 0e63 11b5 5451 a6bf
000001c0: 221b 290a 68be 6dbf 3888 0530 cc25 43bf
000001d0: 36de d0ff c778 753f bd00 854f cfdc 71bf
000001e0: a063 1021 d0d1 a73f 79a2 1204 cffb 9d3f
000001f0: 1f83 7ccf 6da7 8ebf ee46 6441 c3ca 683f

layer2.weight f8 [64, 64]
-0.04415224289031732 -0.0917216535368788 0.08484407047603204 0.10567726106994822 0.025364927243498446 -0.11938648878213712 0.05083738350940532 -0.08334329645153883
0.07491487421933951 -0.05831692847263679 0.04846394743081383 -0.015405088300713491 0.03727834480020458 0.11290237164629867 -0.018515298370489208 -0.07482166715287715
-0.04945007082319386 0.05757343953302866 0.002650776057340331 -0.008858242661062903 -0.0667917818361774 -0.15387534652726562 0.057512939406108333 -0.10699453972788825
0.09354622266840121 0.07811702389545463 -0.09564944962454627 -0.10209659728682348 -0.07019415322474559 0.05601687491707336 -0.04786872976015291 -0.022489860755216036
-0.05768359686721278 -0.08516108612505068 0.09358023948477681 0.15664045317374417 0.03872441516397522 -0.007574717996502642 0.005920284720320717 0.08244418644948846
0.11785324891281132 -0.029808335728305574 -0.06563197071563168 -0.1203702500820196 0.10719006588655929 0.022585608573882417 -0.01618436670622375 0.0970599278695357
-0.08116348656243216 -0.12251458367246118 -0.0800746797419256 -0.0790285098550448 0.0858683140067148 0.11657621137689349 0.051378247595196685 -0.0036546391931135463
-0.11184305034534106 -0.01330861186949224 -0.0712845522131459 0.07867765083351311 0.06597495543172692 -0.0692766049800821 -0.04134031894016873 -0.03522218544073983
0.020455846924499945 -0.07958085112895473 -0.07003463254692649 -0.11193959472907002 -0.08119445115514498 0.0072860698225401576 -0.009433022764529364 0.10065177961144345
-0.0064083850590663525 -0.029427316842605855 -0.12793655801844206 -0.12244355290152653 -0.003263924295514327 0.10274408524000182 -0.08369488912434933 0.05834403343434909
0.061380209919040314 0.024299011786941785 0.04867901746688169 0.04761098246424295 0.08237413963407057 -0.0562123987629656 -0.12038410526858419 0.049070674269303234
-0.007584835464079791 -0.0018237291654874168 0.08427875014114805 0.025622604108043477 -0.0849047283912579 0.023635961493995897 0.06053210863024715 -0.08196674516114501
0.08462675654527925 0.06968213619549493 -0.11923790289065271 0.025727813010933454 0.10744071664317482 0.1093597830029175 -0.1025659343664769 -0.02390093493052778
0.08880253097152356 0.06669387894358397 0.03044624517515341 0.06211595212402502 0.02555334819181668 -0.004168105212691025 0.1212712007233996 0.10484095375120712
-0.01622091919106557 -0.07402249087126374 0.07074517719661073 -0.021007504678124914 -0.013088133987964299 0.04536922080855341 0.01900455140406722 0.10069821739539246
0.0028109624091653507 -0.10908603432992486 0.0039157576034821 -0.11593692485253845 -0.0667077314095292 -0.039086218990094346 -0.0014682480438966486 0.013650290978993368
0.039157762428122085 -0.021097218622385103 0.061376960795729116 -0.08989190186941001 -0.06703410977909867 0.12143537368120692 0.0272765497926934 -0.04011319765772707
-0.028650719427058328 -0.02798586800176791 0.0724640744985551 -0.10690123013744167 0.09970435282668333 -0.07107731017105884 -0.07232216097842405 0.07628253307751741
0.013451032664970762 0.087136253875287 0.1260984786543967 -0.0627994342384087 0.09824101098963087 0.1089816432068163 -0.0899201735821507 0.06360918489832657
-0.05649110676768193 0.07940693148161738 0.08515709834698161 0.1329010396551511 0.11785114095362267 0.12787444892034225 0.012534465759460559 0.11560394173027061
-0.05662538384334805 -0.05554540277181358 0.0050489169841912065 0.10974591203704707 -0.04178361866077193 0.04292973900542362 -0.0165934623660836 0.0625906654030132
0.05069706792267655 0.09551010992235688 -0.1280377170200137 0.08481668779018163 0.08145754034898438 -0.0027362001648608067 -0.005325147699838706 0.022159315790435567
-0.043297625882341054 0.0899789896683534 0.07087246207306323 0.1133700862375217 -0.03444030404345428 0.030387487597332914 0.08922942185371653 0.12096328739538811
0.026906554050969336 0.11262318421257089 -0.04048147322062512 0.011432593140615519 0.0037678644886992136 -0.03977517238558152 -0.09282841081495373 0.04928791641320129
0.1318025741325308 -0.09823613202638558 -0.06821999459867287 0.044786559774422294 -0.10716880736232638 0.027878875496905604 0.04855740715067668 -0.04743502249761975
-0.07336143035205377 0.060558911143142505 0.006971696677354729 -0.040064567895384234 -0.09913756124179703 -0.10460063492674461 -0.10304990414373989 -0.06432696815902328
0.05556718908276091 -0.01780956443631129 -0.06099465793566055 0.08879691622093039 0.009004642512840885 0.09464543928927678 -0.021225826420631855 -0.11076459818754401
0.01740959244729169 -0.03328356581894865 0.04958691204945487 0.005717698408608839 0.10307352706026097 0.09853609129999277 0.09066312292408688 0.053259601268949484
-0.08334229185539738 0.015510545862072721 0.12061027241642959 -0.047860338461951826 0.05030609576367291 -0.06878147881600716 0.08057521469442658 0.060061735527638986
-0.1112668828893661 0.07546865286969145 0.0028582559488434995 0.023808267736554124 -0.04373860512292667 -0.094890699881102 -0.06651739810982175 -0.10468785260053758
0.004955077130130018 -0.1185548197767198 -0.1292275826468386 0.04091166294906731 -0.0180376169049018 0.007402352977315398 0.06936223718405347 -0.03943531301839083
0.007351108203296908 -0.04925448679028581 -0.013957001903520522 0.08750217376293581 -0.07988481099523238 -0.11814765442123748 -0.13449609351934175 -0.029061730554332317
00000000: 9796 846e 1f9b a6bf d2a3 46fe 117b b7bf
00000010: 603e f44b 57b8 b53f 97ed 393c aa0d bb3f
00000020: d6ac e773 43f9 993f 0a4f e7e8 1c90 bebf
00000030: 1a99 2c87 5b07 aa3f 31a6 997c fc55 b5bf
00000040: 508a c106 9f2d b33f ddb0 2f69 b7db adbf
00000050: 8f35 803a 44d0 a83f 6f67 8cf3 b38c 8fbf
00000060: c722 88af 2516 a33f bf97 dc79 2be7 bc3f
00000070: 3061 e8a3 acf5 92bf 8d2c 7445 8327 b3bf
00000080: 90e5 f009 8551 a9bf 353f d30f 447a ad3f
00000090: 18a1 358f 14b7 653f 2900 3c34 4524 82bf
000000a0: 40c1 a026 4419 b1bf 1b65 7ff6 2fb2 c3bf
000000b0: 6d2f b103 5672 ad3f b45a fb80 fe63 bbbf
000000c0: 126e 062f a5f2 b73f da4e e42e 7aff b33f
000000d0: 3a90 047a 7b7c b8bf dd39 61aa 0023 babf
000000e0: 7c7f 7878 3ef8 b1bf e9fd 956b 3eae ac3f
000000f0: 744f a409 4082 a8bf 52b1 bd01 9507 97bf
00000100: 2ce3 1e54 b488 adbf cf86 ccef 1dcd b5bf
00000110: 2a93 23e4 dff4 b73f 1f51 ce5b cb0c c43f
00000120: 663b 5fc1 afd3 a33f e375 24e1 aa06 7fbf
00000130: 9fcb 1b54 de3f 783f bfbe 8bec 0f1b b53f
00000140: b6d0 ce69 a12b be3f e8b0 678c 1386 9ebf
00000150: e2b0 cbbf 41cd b0bf 4e7c 83af 95d0 bebf
00000160: f558 70e3 ce70 bb3f 2f86 bd88 ae20 973f
00000170: 30bc d676 a292 90bf 83a7 f35f ebd8 b83f
00000180: 3c3c 6a58 21c7 b4bf ba01 28a2 1d5d bfbf
00000190: bfaf ba32 c67f b4bf 956e 4761 363b b4bf
000001a0: 58e7 6b40 77fb b53f 9bf7 5a47 f0d7 bd3f
000001b0: 9c58 4bea 3f4e aa3f 8eef 047a 55f0 6dbf
000001c0: 9aa3 8403 bfa1 bcbf e883 e0a5 8b41 8bbf
000001d0: c928 7754 b43f b2bf 3a8c 41f1 3724 b43f
000001e0: e72f ef13 bce3 b03f ed71 c490 1cbc b1bf
000001f0: 2b5e b5eb 8e2a a5bf 4d8d 1f6d a408 a2bf
00000200: 77f9 35a6 60f2 943f b798 fc20 695f b4bf
00000210: 7c5d 6028 caed b1bf 4125 7dc2 12a8 bcbf
00000220: eef8 53d8 28c9 b4bf 45bb aa79 ffd7 7d3f
00000230: ed67 35e2 9e51 83bf 2021 b7a5 50c4 b93f
00000240: e159 fbc3 ad3f 7abf 50c6 cacd 3122 9ebf
00000250: 3c75 53a2 3960 c0bf 286f 51ef 7558 bfbf
00000260: aa27 6303 f2bc 6abf 2b97 f6b5 6f4d ba3f
00000270: 2aa5 a13b 076d b5bf 4ad6 08e7 44df ad3f
00000280: 19a2 7214 3a6d af3f 94d5 cc13 d7e1 983f
00000290: 4818 0bc8 74ec a83f 798c 3a79 7760 a83f
000002a0: 57b4 c3bb 7816 b53f b31f a21c dfc7 acbf
000002b0: e537 1623 7ed1 bebf a1d0 5b9a ca1f a93f
000002c0: 4560 38c4 4611 7fbf 5887 d747 46e1 5dbf
000002d0: d89e 9acb 4a93 b53f 96c7 bada cf3c 9a3f
000002e0: e459 b7f7 50bc b5bf d441 8186 0634 983f
000002f0: 6e83 d985 10fe ae3f 91a1 d3c9 c5fb b4bf
00000300: d580 ba5f 19aa b53f b237 1340 b0d6 b13f
00000310: efe5 5b0d 6086 bebf 6d12 eb4d 6458 9a3f
00000320: d3c1 3d1c 3c81 bb3f 99c4 7eb3 00ff bb3f
00000330: c2a6 c9d5 c241 babf d854 7b97 7c79 98bf
00000340: e720 533e c3bb b63f 9cf4 e79c d912 b13f
00000350: eacc 40ed 4c2d 9f3f 557c dd7d a9cd af3f
00000360: 890b 262b a82a 9a3f 525c 3239 9312 71bf
00000370: 31bc 0d21 a10b bf3f fd93 a453 dbd6 ba3f
00000380: 752a bf75 379c 90bf b5e5 7551 23f3 b2bf
00000390: 3dbf 681e 5b1c b23f d4a0 40c6 fd82 95bf
000003a0: 9241 8d9b f3cd 8abf 5c48 3c6f a23a a73f
000003b0: 24c1 05db ed75 933f ab8c 7abe 5bc7 b93f
000003c0: 17cb c3f3 0307 673f 6cb9 e5f5 0fed bbbf
000003d0: 2c4b 892d f809 703f 56f5 a3d4 0aae bdbf
000003e0: ed55 cb04 c213 b1bf d0d0 92e0 1b03 a4bf
000003f0: a051 2e55 470e 58bf b06e af0a aff4 8b3f
00000400: 21d2 067a 7c0c a43f dc2d 1460 829a 95bf
00000410: 66e9 b00e cd6c af3f c250 b4da 2703 b7bf
00000420: 5bbb 37bd 2529 b1bf 87cf 897e 6316 bf3f
00000430: b2b5 3a45 62ee 9b3f 56e5 2790 b789 a4bf
00000440: 21cb c83b 9d56 9dbf 7664 45cf 53a8 9cbf
00000450: 0a30 1b6e 018d b23f dfac 5707 e15d bbbf
00000460: b8d1 a876 3986 b93f dc1e ac62 1f32 b2bf
00000470: 39aa 2d84 b483 b2bf 0ff0 d288 4087 b33f
00000480: 59d7 250b 378c 8b3f 38b8 b0c0 8f4e b63f
00000490: bbaf f2b4 fe23 c03f 76e2 42ac 9f13 b0bf
000004a0: a691 53a9 5226 b93f a407 7091 38e6 bb3f
000004b0: 0336 c92c 0205 b7bf 4810 dd08 b148 b03f
000004c0: e800 2a00 67ec acbf e90c ca3d 0354 b43f
000004d0: b12b 6c08 dbcc b53f d02d 76b9 e602 c13f
000004e0: 2e2d 310c 7e2b be3f a7ae 0da0 305e c03f
000004f0: 68e5 1384 abab 893f f42b 054d 3898 bd3f
00000500: b314 7697 00fe acbf 7838 b270 7270 acbf
00000510: 16b4 3c55 2cae 743f 879d 11df 4e18 bc3f
00000520: 6c27 5097 a964 a5bf 4fb4 1b02 e3fa a53f
00000530: 1d4a c268 e0fd 90bf 9ad9 f01c f105 b03f
00000540: db43 7651 f7f4 a93f 99cb 8dbe 5973 b83f
00000550: f6b2 a037 8a63 c0bf 5bc0 36e4 8bb6 b53f
00000560: b3bd cfbf 66da b43f 70fc 2547 3a6a 66bf
00000570: 738e 7973 d2cf 75bf b193 7c82 eeb0 963f
00000580: 4a75 513e 1b2b a6bf 21e4 f3f1 dc08 b73f
00000590: 5372 ca9a b224 b23f 7c1f bc6c d205 bd3f
000005a0: 69d6 0fd7 28a2 a1bf 85aa c0c5 e51d 9f3f
000005b0: 29e4 b348 bdd7 b63f 423d 6133 73f7 be3f
000005c0: 67b2 c946 648d 9b3f 50e1 f67c dfd4 bc3f
000005d0: 0029 27d7 fcb9 a4bf 45e9 2dad f869 873f
000005e0: 9bb0 26d8 c8dd 6e3f c67b 2d51 695d a4bf
000005f0: 4f02 974c 9ac3 b7bf 2f55 2a0a 443c a93f
00000600: 4fc3 b620 e8de c03f cfbf 56ce 0026 b9bf
00000610: 860e bc95 dd76 b1bf d61f 1093 43ee a63f
00000620: 99c3 c53a 6a6f bbbf 22ab 08aa 478c 9c3f
00000630: 1fa5 6137 84dc a83f ede5 9f3c 6749 a8bf
00000640: bf5c 2690 d0c7 b2bf 72ad aedd 9301 af3f
00000650: e242 a193 5a8e 7c3f 8c97 add1 5783 a4bf
00000660: 0db6 5647 1461 b9bf 45b5 2672 1bc7 babf
00000670: 853e 2780 7a61 babf 306c 7e70 bb77 b0bf
00000680: 7ea5 ae77 4d73 ac3f 9766 3da3 ab3c 92bf
00000690: f7f4 201a b13a afbf 7490 270b 65bb b63f
000006a0: 5ead d6a8 0671 823f fd86 76fa ae3a b83f
000006b0: 1d8f 3a19 39bc 95bf 1f24 c596 115b bcbf
000006c0: c48d caf8 d1d3 913f 5190 5f25 8b0a a1bf
000006d0: 50c3 1fab 7463 a93f a51b c6fa 706b 773f
000006e0: 21a4 ced3 0663 ba3f 8af0 9b49 a939 b93f
000006f0: b284 e9cb b235 b73f c3d8 4bab d744 ab3f
00000700: ac82 e4a1 eb55 b5bf d903 c439 fec3 8f3f
00000710: 6518 9797 50e0 be3f 026c f078 2681 a8bf
00000720: ba57 3078 b8c1 a93f 18d4 15ba a99b b1bf
00000730: d411 fbc7 93a0 b43f 8717 aa6b 69c0 ae3f
00000740: 9d3f 2387 fc7b bcbf fcd0 f2e3 e951 b33f
00000750: 2d3a 5d7a 326a 673f 8a2e 36cd 3161 983f
00000760: bab8 260d e864 a6bf 0913 afc4 c14a b8bf
00000770: 8327 7fc1 4807 b1bf e730 35b7 d2cc babf
00000780: 9ead 9163 c64b 743f 3a64 b9d1 9b59 bebf
00000790: a2ca 9a88 878a c0bf dc4d c89c 5ff2 a43f
000007a0: e03b d1fa 7378 92bf 825e 37ff ed51 7e3f
000007b0: 736c 483c b9c1 b13f fa69 7187 dd30 a4bf
000007c0: 2708 2915 321c 7e3f 061e e453 e237 a9bf
000007d0: 2a80 ce15 7d95 8cbf 2206 a4de 8a66 b63f
000007e0: 31f2 abba 5473 b4bf 749c d6b7 ec3e bebf
000007f0: 777b 8d01 2b37 c1bf 3220 2fb9 5bc2 9dbf

layer2.bias f8 [64]
0.12444511746323841 -0.05603556895767801 -0.10480811041515437 0.1032536873222798 -0.06810200364865888 -0.11061918776242856 0.05283334296429664 -0.11665561845327828
-0.11875976959289707 -0.06275953206689257 -0.08684075662993988 -0.09837841933143952 -0.031429412638904045 -0.03521687670427232 0.03288211383915279 -0.006743430685281303
0.07429445701493717 0.028304964919854583 -0.01938177876369937 -0.08171047542326527 0.06059736793855627 -0.08457649933313151 0.0022600450638828344 -0.10757121851027447
-0.10972264661988483 -0.13406979165277988 -0.004735928400043635 -0.05647752075148542 0.050833394375909086 0.08988996513342136 0.014978597303900982 -0.1243635950342071
-0.01639755184562894 -0.0009036200166027473 -0.018928801445059953 -0.10907664807883331 0.029898616621936044 0.03855828192290964 -0.0019237885589248958 -0.028834832569826663
-0.05329501640152531 -0.0020232541129390665 -0.12361525818451354 0.1098925486438518 0.09796662740737026 -0.07932216882524311 -0.005546330025685152 -0.08915514310379566
-0.08986155076949945 0.049122761335014004 -0.09152679143637152 0.011015356273778629 0.11313226805945432 0.10286131446378909 -0.000944638346176508 0.07665050878723441
0.05429078989687246 0.01084322259502187 -0.04542099388913398 -0.08900581182059004 0.023822310293908883 0.06679443132763227 -0.11774761040155696 -0.03394034171240294
00000000: e2c7 a69d a2db bf3f 8d05 2cb0 b1b0 acbf
00000010: 70b1 964e b4d4 babf 1098 3d6a d56e ba3f
00000020: 458b 7606 226f b1bf 43ed bf01 8a51 bcbf
00000030: ff0a 57d0 f80c ab3f adc7 2682 24dd bdbf
00000040: 9363 7b4e 0a67 bebf 4154 bd39 0211 b0bf
00000050: 137c af21 323b b6bf 1724 a9fd 532f b9bf
00000060: 3a4a d516 8417 a0bf 319a 6c4b f207 a2bf
00000070: 5801 20a7 ecd5 a03f a517 19e4 ff9e 7bbf
00000080: 463a 2727 f604 b33f 04b0 940a fafb 9c3f
00000090: 78ad b627 d1d8 93bf 39fc ae4b faea b4bf
000000a0: 5b20 0a43 9e06 af3f 015e a532 cea6 b5bf
000000b0: 862e 6174 a883 623f 6514 7e91 c989 bbbf
000000c0: 9feb dc8a c816 bcbf 5cde 43ed 3229 c1bf
000000d0: dd99 8219 fb65 73bf e66f 2c21 9fea acbf
000000e0: 3445 c7ac d506 aa3f 7593 7c5c 0703 b73f
000000f0: 974e 7b4c 19ad 8e3f e622 7ce5 4ad6 bfbf
00000100: b950 a513 85ca 90bf 3c45 ac35 1d9c 4dbf
00000110: 87d3 a25c 1262 93bf 0782 417c 72ec bbbf
00000120: 1ff1 5832 be9d 9e3f cc9b b23f e9bd a33f
00000130: 23e7 7a3c f484 5fbf 80fe 7ddb e086 9dbf
00000140: bbfa f700 7c49 abbf 68e8 e347 1293 60bf
00000150: ad67 30e3 3fa5 bfbf d1da 7f06 eb21 bc3f
00000160: 0f67 d044 5714 b93f 07c4 f328 754e b4bf
00000170: 7295 2ba1 bfb7 76bf 16a8 e617 dfd2 b6bf
00000180: 4a0c b9a5 2a01 b7bf 5ca0 d85a 9e26 a93f
00000190: be51 edbf 4c6e b7bf 58eb 9817 388f 863f
000001a0: 990a 707f 3cf6 bc3f 7f42 a57d 1e55 ba3f
000001b0: 3903 d566 33f4 4ebf bd82 7624 5e9f b33f
000001c0: 9682 299e 00cc ab3f eb51 6eb3 f834 863f
000001d0: ac7d 9ca6 6b41 a7bf 9d61 ecba 15c9 b6bf
000001e0: 1890 822e e064 983f ce6a 1b9a 7019 b13f
000001f0: a459 db17 b524 bebf a6f4 56e3 a060 a1bf

custom_layer2.alpha f8 [64]
0.6363738669767681 0.333573805335626 -0.46054923992728236 1.5641063427377462 -2.391580830047133 -0.3382444280690757 -0.30059846523093997 -0.5800046850937695
0.07260113368316594 0.3980927939622526 0.6112988251975353 0.891760464803456 0.6946287500269743 -0.5050468968649797 1.432573852002558 -0.6603430902295507
3.0218429440015733 0.6271700910397413 0.13199882301324015 -1.0767664104805041 -0.5134406608386101 -0.18201030496136283 0.13917274321544817 1.588459661346819
2.904273705774288 -1.5576315448448832 -1.7180057640243687 1.1872536203158506 0.9012715904964296 0.9503182219935313 -1.713021572601096 -0.6955900159849352
-1.3905844013408433 1.569192738575696 0.645450936317402 2.196516391241102 -0.10338070505699086 0.111684522592335 0.2195110276900177 -0.915859183323001
-0.07326671225069255 0.41924740351892403 -0.7487912687098311 -0.04579050058267295 -0.7745156175698908 -0.7026489908692164 1.8307828530966284 0.4398244620492711
0.07076585068226962 -0.17835700021521453 -0.4277468759960665 0.23994227436545298 -0.2955428215624096 0.9466337158479138 1.1005267831959735 -0.309964620587724
1.0914740976852686 -1.0610396799964965 0.3071408888683716 0.06750120962645668 0.45510434161727326 0.6694319121227497 1.3075418441046152 1.132808616716734
00000000: 7d37 56ba 2c5d e43f 8e00 2ef2 4559 d53f
00000010: 88dc eb84 a379 ddbf 8765 585f 9406 f93f
00000020: 0158 5621 f521 03c0 0f19 27f5 cba5 d5bf
00000030: 7142 5958 013d d3bf 0425 40fc 658f e2bf
00000040: 5b5c d2e6 fc95 b23f 42d5 b532 5a7a d93f
00000050: f4cf c98d c28f e33f 924a 063e 4d89 ec3f
00000060: 5645 8712 663a e63f 6867 1f1c 5829 e0bf
00000070: ac4a 378f d2eb f63f ad9d 15d5 8721 e5bf
00000080: b814 51fe bb2c 0840 e670 c102 c711 e43f
00000090: e3e6 f961 56e5 c03f 091f 676a 6f3a f1bf
000000a0: 73a1 d71b 1b6e e0bf 8009 ac19 1d4c c7bf
000000b0: 316f 4d96 69d0 c13f 46ff 87ad 546a f93f
000000c0: 6277 47da f33b 0740 4a3a 050e 0fec f8bf
000000d0: bf2f ad9c f37c fbbf e106 f5a6 fdfe f23f
000000e0: cddf bf84 37d7 ec3f a829 88c2 0169 ee3f
000000f0: 8da0 fa4e 8968 fbbf 8f8a 42fe 4542 e6bf
00000100: f662 e16d d53f f6bf 49da 54d8 691b f93f
00000110: 7bfc d4b8 88a7 e43f 5b11 8c2f 7792 0140
00000120: b3d7 416b 2877 babf 3ae2 005c 5b97 bc3f
00000130: f31d 85f6 ef18 cc3f 44a2 03eb b74e edbf
00000140: 058e 0075 9bc1 b2bf 09fd c20f f3d4 da3f
00000150: 4973 541b 19f6 e7bf 4caa f03c da71 a7bf
00000160: 8c86 f6f9 d4c8 e8bf d438 8bbc 197c e6bf
00000170: 9d0a 02f6 e24a fd3f d9df 1e80 1526 dc3f
00000180: 9a9d 5af6 b51d b23f fdef 77f5 66d4 c6bf
00000190: 2ba2 d76e 3460 dbbf dbea a9ae 6db6 ce3f
000001a0: 3366 4b70 2cea d2bf a972 5bca d24a ee3f
000001b0: 3d2e e3f8 c19b f13f 3cd8 15d9 75d6 d3bf
000001c0: 54d4 1f8b ad76 f13f fc7d 55be 04fa f0bf
000001d0: c50e 3d42 32a8 d33f 013c c95f c247 b13f
000001e0: 1be2 e0f5 6d20 dd3f 1ce9 2e79 fc6b e53f
000001f0: 2c4b 29ff b0eb f43f 52ce 96ed fb1f f23f

custom_layer2.teta f8 [64]
1.3563166355939533 0.31139039063908075 -1.4789844256615299 -2.0848199309784197 -0.8606339934956804 0.38031043503835216 1.0647244276323202 -0.4381391560020648
0.1694786885738874 -1.3282580701614868 -0.445522512076842 -1.1381506708574598 1.202625649745703 -0.36493611490700534 -0.3684178829655346 -0.5244552868543634
-1.957887417210473 -0.8159193019099068 -1.4792512740825627 -2.0524792503835787 0.4679800807619396 0.15023369572814974 -0.5668803698631533 -0.314964115951764
0.374288849956049 1.0997073533269834 0.9780642528879931 0.44517419214153536 0.8689728075927527 -1.4436654419528907 -1.86268841680746 0.11209869046691433
-0.6008175973963795 0.1385844460563596 0.5579737474539342 -0.3746489694063019 1.4759322442100673 0.2475691510601827 -1.353056128947524 -0.4616368040237917
-0.35122147023427525 0.3243321083258403 0.05846613426323384 0.7189979377340222 0.014795294458022724 -0.2202928185923961 -3.5945633035671904 -1.8455329040965018
-0.9768461634097655 -0.5067930379543241 0.6738134731146742 0.5273416692647952 0.24580380497628268 0.8326454877612132 1.2457809711611731 -0.6983570498307675
0.9301160577801819 0.35036308184418935 -1.1720615497222844 1.2613567051730892 -1.3065029890186377 0.04255607650789746 -1.3851778286143013 0.14940021792125974
00000000: 3559 8e12 79b3 f53f 5558 05f6 d1ed d33f
00000010: 6127 b892 eba9 f7bf 71cf 6c12 b6ad 00c0
00000020: 7079 fc4c 508a ebbf e84d 3494 0157 d83f
00000030: 1eee 3e7b 1c09 f13f eb0e 88d0 780a dcbf
00000040: bd9b 6548 7ab1 c53f d6dd bf88 8b40 f5bf
00000050: 841d c0da 7083 dcbf 500d 547a dd35 f2bf
00000060: 15d1 af64 f43d f33f a7e9 a901 1d5b d7bf
00000070: 434e a699 2894 d7bf 0b1f 2874 56c8 e0bf
00000080: c5b3 a2c1 8153 ffbf 371a bccb 021c eabf
00000090: d903 4c62 03ab f7bf b4ed c03d 7a6b 00c0
000000a0: 7753 83b9 62f3 dd3f 5d6e f494 db3a c33f
000000b0: e4cf 294d e223 e2bf c849 5b40 5f28 d4bf
000000c0: 4765 7438 59f4 d73f 9d5c dbbc 6698 f13f
000000d0: a14c 7167 4d4c ef3f f159 11e5 bb7d dc3f
000000e0: 6e2c b70f a0ce eb3f 4dd9 38ef 4019 f7bf
000000f0: 8837 8d5e 92cd fdbf bfd5 7af1 7fb2 bc3f
00000100: 47b8 75d3 e539 e3bf 7eee c597 22bd c13f
00000110: 33eb aac2 ebda e13f 8621 c5ab 3ffa d7bf
00000120: efe7 ff20 6b9d f73f e7a6 a68f 58b0 cf3f
00000130: 2bb6 f72e 1ea6 f5bf 9c60 fa17 758b ddbf
00000140: bfca 139e 697a d6bf 7757 9375 dbc1 d43f
00000150: aa13 2bed 45ef ad3f b3b0 8ef6 0702 e73f
00000160: f4b9 a7ce fe4c 8e3f bbf1 b219 8e32 ccbf
00000170: 4dc8 c167 aac1 0cc0 0395 ac82 4d87 fdbf
00000180: 2d2d a2e2 5242 efbf 7f56 7b08 a637 e0bf
00000190: e536 d445 e18f e53f 56ee e9a2 fbdf e03f
000001a0: e680 cdc3 7f76 cf3f 8915 6326 08a5 ea3f
000001b0: 9adc 1107 b8ee f33f b788 3ee2 f058 e6bf
000001c0: 7ccf 34c0 82c3 ed3f b7c7 8f46 596c d63f
000001d0: f64c 8f9c c3c0 f2bf 91f0 545e 842e f43f
000001e0: 7861 9fad 6fe7 f4bf aaea b1f9 e8c9 a53f
000001f0: f8ae 103a b029 f6bf c258 fedc 8b1f c33f

custom_layer2.gamma f8 [64]
-0.007181862306450279 0.00035079626500637037 -0.03959870820645583 0.010185744177037255 -0.0016043942215849796 0.011504647445155669 -0.00017633459500173587 0.03653238366251861
-0.006354075819910427 0.03731169163355491 -0.0004402690011900517 0.03721691491027355 -0.001568853275954626 -0.003814315995374415 0.038261910219417494 -0.016990302827399772
0.026216923273588762 -0.013234514735548028 0.052809244931539635 -0.023730585682281854 -0.00020084675553825484 0.018424476629442625 0.06564948053290853 0.01389965588498468
0.018521281718446716 0.001285876942618359 -0.00041206553156953414 0.0066173205360390355 0.004548292754967758 -0.006809399074773643 -0.0124154005340362 -0.0043262468652295934
-0.012297761874585296 0.006709422546932448 0.008369663516107143 0.0813140918146117 -0.005408440302999367 0.021504013611776025 0.01560187655011781 0.015093595861992087
0.021083216420739258 -0.010986874601292728 -0.012040340675890587 0.0006849679771191049 -0.01473462801060649 0.007984048043872193 0.02374853649102718 -0.017392258915345717
0.01085314255000862 0.01713599030977539 0.006973204573488912 0.015222566051616582 0.006197783192340253 0.001239620376534471 -0.006643281009310147 0.022229982247658982
-0.0002612659576392821 0.0004826712468633229 0.004493618154366329 -0.014904616540909911 0.016448190546019766 0.0798581950557996 0.08695578053044926 0.06652816370932495
00000000: b073 b07b ba6a 7dbf 6cda 5a7c 62fd 363f
00000010: 6fd0 6b29 4846 a4bf 17a2 0171 43dc 843f
00000020: f7d5 8a2d 5149 5abf 004c 3ba4 bf8f 873f
00000030: 0acb 2aa3 ce1c 27bf 5aa0 2662 5fb4 a23f
00000040: 7a30 7c3d bb06 7abf 182c a69e 841a a33f
00000050: c264 28f6 7cda 3cbf 6d97 cb70 180e a33f
00000060: f1f0 cb60 3fb4 59bf 13a3 9d4e 333f 6fbf
00000070: 8057 26aa 1097 a33f 60a5 f8eb e765 91bf
00000080: cf49 3ff0 9bd8 9a3f b8a9 bd7f b21a 8bbf
00000090: e598 d037 d009 ab3f 0c6a aea5 d44c 98bf
000000a0: 0b15 3b7e 4c53 2abf 8e09 47b2 dddd 923f
000000b0: 1863 e383 67ce b03f 9001 9d3b 6c77 8c3f
000000c0: 27fd 0a2d 3ef7 923f 6b11 93da 5b11 553f
000000d0: 78cc 5dfb 4f01 3bbf 8888 a174 c31a 7b3f
000000e0: b9dc 290a 3ba1 723f 9417 4e25 2ce4 7bbf
000000f0: 725a 15da 3e6d 89bf c630 cf0c 66b8 71bf
00000100: b7d0 85a8 912f 89bf 2d3c a0e6 567b 7b3f
00000110: 4842 a438 1d24 813f f935 0c15 00d1 b43f
00000120: 867b 9423 2927 76bf 2501 c8ec 2505 963f
00000130: 86d7 4f6c e0f3 8f3f 36b2 d924 64e9 8e3f
00000140: 3615 16b4 d696 953f 264e c858 4980 86bf
00000150: 5635 7c2b 9ba8 88bf 9692 bf87 ed71 463f
00000160: 21ed 644b 302d 8ebf 79ad e7c9 f059 803f
00000170: 2930 3a4e 8951 983f 8ada fabc 46cf 91bf
00000180: d928 7d22 2c3a 863f 3838 dcd7 188c 913f
00000190: e796 7659 ef8f 7c3f 9ab9 d23a 022d 8f3f
000001a0: b09a e6c1 d862 793f 12c6 813e 584f 543f
000001b0: ac1e c52a fc35 7bbf 6f38 fada 74c3 963f
000001c0: decd 5dbe 501f 31bf d2c1 5138 e1a1 3f3f
000001d0: 7f2d 3870 e667 723f 012f d2c4 4f86 8ebf
000001e0: 62e5 e461 cbd7 903f 370e 1530 9671 b43f
000001f0: 1f91 93e9 bb42 b63f f3fc 645f fd07 b13f
