COLA_Emulators/PCE/LCDM_PNN_HIGH/MODEL_Z1.667_2.pth (torch, 60834 bytes, 12 tensors)

layer1.weight f8 [64, 19]
0	0xbfd02939b50df51c	-0.25251619988542173
1	0x3fd502828acd60ef	0.32827819399746166
2	0xbfc8ccb1aa7aedc1	-0.19374676536777538
3	0x3faa7984a968d0cd	0.051708360366690444
4	0xbfd4bea3648016e7	-0.32413563551413777
5	0x3fa4386f2186cf5a	0.03949305805454513
6	0x3fca24a4ccb08690	0.2042432784519872
7	0xbfcd319b6b3a5502	-0.22807638869986852
8	0xbfd2a70b7827b5a5	-0.29144560560129157
9	0x3f9fb0c5ef393ea2	0.030947773672152075
10	0xbfcceade998d349a	-0.2259176492465585
11	0x3fd50247ece1a8ca	0.3282642186446877
12	0xbfb943ad4b1cacd7	-0.09868891795911182
13	0x3fc422ba4fa9a226	0.15730980767990949
14	0xbfd12b946e14c9ca	-0.2682849001895674
15	0x3fb10d82abbc7834	0.06661240284708542
16	0xbfae3e2e734d832d	-0.059068156790777905
17	0xbf6761d124c3ea46	-0.0028542599521846094
18	0xbfbaadb50f6d7521	-0.10421306254052755
19	0x3f94c7ba7e162d52	0.02029315371104918
20	0xbf8a12d776a79134	-0.012731250103521143
21	0x3fb0cdb2d047bf89	0.06563870987861099
22	0xbfa0415aede6887a	-0.03174862054881174
23	0xbf70fe94d16b34b6	-0.004149037666775593
24	0xbfc142548aca8cf5	-0.13483673836626733
25	0x3fb519773cae307a	0.08241982680755369
26	0x3fc8b3cadb6f12eb	0.19298682894272842
27	0x3fd24992cd55cf43	0.2857405667521002
28	0x3fc3af896a3fd49b	0.1537944573207469
29	0xbfcd55b97ac9a918	-0.2291786050366873
30	0x3fdae7956e8bff15	0.42038474841682333
31	0xbfd87a8179cf8033	-0.38247715850411906
32	0xbfb8c2edd9c71ff8	-0.09672438208428946
33	0x3fa4d6f30ff3b845	0.04070243425108847
34	0xbfb96e04ffa2ab67	-0.09933501473521532
35	0x3fd40650c993734c	0.312885472156087
36	0x3fb320909f0d8083	0.0747156513512
37	0xbfd5254ab4b95eaa	-0.3304011120685383
38	0xbf877ed3d46c5800	-0.011472372932569641
39	0x3f91a2b7b136d8c9	0.017222280684756428
40	0x3fa8a97d83cdcd47	0.048168108310074724
41	0x3fbae8edae0cfc45	0.10511670588765394
42	0x3fb72a58dfa666f6	0.09048991642194068
43	0xbfc7f63892fb4bc6	-0.18720156838261753
44	0xbfb0c149d7108046	-0.06544934750172712
45	0xbfc376012b60d255	-0.1520387136275924
46	0x3fcbc5b79dd18242	0.21697135168052922
47	0xbf7a983f3489f653	-0.006492850203924388
48	0xbfa926f39eb02f3b	-0.04912530243026799
49	0xbfb5bdbf7a670ad4	-0.08492657411901955
50	0xbfc5723a21796f36	-0.16754843363275435
51	0xbf84f18015ca4a6e	-0.010226250329002453
52	0xbfb1eecb4e225358	-0.07004995973177353
53	0x3fb774e01eb3771f	0.09162712811982175
54	0x3fa397bf5d37535a	0.038267116669578896
55	0xbfcef995444788df	-0.24199167093235638
56	0x3fc50c0f0428cf55	0.16443050101372117
57	0x3f76c86bf3cad163	0.00556223076698745
58	0x3fab9f90f0bb3ca4	0.05395176828971529
59	0xbf831c6440753a32	-0.009331496445750796
60	0x3fbba4eb08e25a2e	0.10798520056628355
61	0xbfb6dfa7d01aac31	-0.08935021238964748
62	0xbfc73a59b4f2d359	-0.18146821341874889
63	0xbfc67ef6b935e7af	-0.1757496265743703
64	0x3fd127018f341c21	0.2680057428810319
65	0xbfb2ac72486d1507	-0.07294382351127036
66	0x3fbd5e08dd7ade70	0.11471610457635406
67	0xbfb55045742456b2	-0.08325609288689398
68	0x3fc114f75f9f8fbb	0.13345234078508192
69	0xbf854ab286a1dd7a	-0.010396380170489595
70	0x3fa8d502881b9f05	0.04850013648484545
71	0x3fc886f39fd490c4	0.1916183977529099
72	0xbfc863e5101fa1b4	-0.19054854666980037
73	0xbfb68a24d298d8e2	-0.0880454076912858
74	0x3fb319eaad6e6e1b	0.07461420759357688
75	0x3fb6c649b306416e	0.08896313305581824
76	0xbfa0af7fbe7b61fc	-0.032588951112931114
77	0xbfc09c2dd13bcfb1	-0.12976620403753494
78	0x3fcad3d2ea719ac6	0.20958935210656743
79	0xbfc73ded44088e64	-0.18157735654777973
80	0xbfd9a1816638e18e	-0.40048251135478885
81	0x3fc3876378e5f349	0.15256923106417222
82	0x3fc3adc3ea723dc6	0.15374039599963235
83	0xbfb26a073a0f9868	-0.07193036239149964
84	0xbfd4255061740fa5	-0.3147774650280957
85	0x3fba6d073e7b4a3f	0.10322613978795746
86	0x3fb1d87d9c49a6d1	0.0697096354066631
87	0xbfc454b937246788	-0.15883555595865695
88	0xbf900fe320761e03	-0.015685604912077277
89	0x3fabe32c3bb81f0c	0.05446756581301146
90	0xbfd93637789f5ec6	-0.393934123797845
91	0xbfc6857740de307d	-0.1759480540025641
92	0xbfc12d53dda6e200	-0.13419578860136028
93	0xbfb2a2f990c85fde	-0.07279929909452629
94	0x3fcdd828fb47b396	0.23315918225798943
95	0xbfa3c72cea4dd085	-0.03862896309047507
96	0x3f93c6bb6e6e5d1c	0.019312790503673502
97	0x3fc4bcac1f06a510	0.16200782313288942
98	0xbfb30a34d39a1298	-0.07437448659954737
99	0x3fa288ecc4a594b3	0.03620090389703403
100	0x3fcfc2ae4b5b55f8	0.24812868766336726
101	0xbfba6ea2234f3da2	-0.10325063097047019
102	0xbf9303ea389410f1	-0.018569621756811597
103	0xbf95e0a2f5168261	-0.021364732941608348
104	0xbfbac3067af217e4	-0.10453835012057727
105	0xbfc61c21f655ed46	-0.17273354080303188
106	0x3fb065e8f17a3300	0.06405502219622505
107	0xbfc16cd2cce1b5fd	-0.136133527793774
108	0xbfc1ce8cbd8ea05b	-0.1391158986637063
109	0xbfc53961d77b3cd9	-0.16581366559555624
110	0xbfc2abe2ff3c224f	-0.14587056601182488
111	0x3f8d9c4b3154bd2e	0.014458262865984919
112	0xbf913767185dc4eb	-0.016812907087516853
113	0xbf88c9b9e54cfd79	-0.012103512106135682
114	0xbfa00a401a887c14	-0.03132820438280973
115	0x3fc5bc97b95e7182	0.16981789160935185
116	0xbfc5266eb6077d39	-0.16523536575457756
117	0x3fcd85ea8f297f1e	0.23064929952942576
118	0x3fbe6a23a1811d66	0.11880705540635503
119	0xbf9899198b2a88e2	-0.02402152931120661
120	0xbfa2f662e4b4ab50	-0.037036028307133706
121	0xbfcaf0b89771ba06	-0.2104712237809993
122	0x3fb4a9c8009df8f2	0.08071565642419268
123	0x3fb9e460cf72086c	0.10114102425180399
124	0x3fbfcc3dfbc7aa8e	0.12421023747416823
125	0xbfc28f76e2d44a86	-0.1450031859936482
126	0xbfbd5985b3ecad0c	-0.11464725153625838
127	0xbfd186233f55e5ca	-0.27381211457358445
128	0xbf9cb85ed9f187ad	-0.0280470676920072
129	0x3fd0149986fc3bc8	0.25125730688244774
130	0xbfc9a7bbfa3d2e05	-0.20043134421062817
131	0xbfc1a89c5af5e385	-0.1379580921309548
132	0x3f9babb4455effb3	0.027022186979365603
133	0xbfb7182c8297ff18	-0.09021261394809377
134	0x3fc1acb7da42568a	0.13808344037231662
135	0x3fc2684d246c8e3d	0.14380802420156327
136	0xbfc1fbdd46b229e0	-0.1404987902827335
137	0xbfbc4a666f254ff2	-0.11051025594252886
138	0xbfaebc7f2e05e7dd	-0.06003186642460865
139	0x3fbdbb2d1548c638	0.11613733071933374
140	0xbfb4f5689b78176c	-0.08186963840134148
141	0xbf911d5673e82d83	-0.016713476967237916
142	0x3fb7e47f303ad4b8	0.09333033492551379
143	0xbfc21df793cb76ea	-0.14153952328245306
144	0x3fb341b3fb17d58d	0.07522129898264591
145	0x3fb1a0eff9f63088	0.0688619599588397
146	0x3fc5b4c8699023c0	0.16957955507703382
147	0xbfc7593b0bfa1b1b	-0.1824106033784226
148	0x3fb03d62893b1a70	0.06343665933955278
149	0x3fc8ca31f32de5fc	0.19367050527561946
150	0xbfc532bafdeb92b1	-0.16561067007491695
151	0x3fbc80a907a82d7f	0.11133819996773829
152	0xbfb42b487031dbc8	-0.07878544558648948
153	0x3fb753f49cce2dd0	0.09112480953461177
154	0xbfc4cc7fc8e09d35	-0.16249081905810106
155	0xbfb9eca69d377147	-0.10126725519461842
156	0xbfb45a54395f464f	-0.0795033111637846
157	0xbfa6ef940571363a	-0.044796586670241514
158	0xbfbb92a2fc1e2b1d	-0.10770624785633882
159	0x3fc4645f7d74987d	0.1593131411147545
160	0xbf76e012517eb1e3	-0.005584785038007275
161	0xbfc59acd5d76e6d6	-0.16878668845838857
162	0xbfb1f5f8b81aa7a1	-0.07015947813729763
163	0xbfcbb728efef3732	-0.21652709689663535
164	0x3fb54330eb40c6e7	0.08305650466425228
165	0x3fb13e16a6bcfc20	0.06735364504582764
166	0x3fc54ff2caf4b8ff	0.16650233182867422
167	0xbfb2f53a2c0be1df	-0.07405437064506469
168	0xbfb0e39d25e892c9	-0.06597311187267531
169	0x3fb77552d51b3d40	0.09163396551888514
170	0x3fd06f9d76ad44e7	0.25681244458708224
171	0xbf72fc7873429f89	-0.004635305889827531
172	0xbfb0c8dd0265b286	-0.06556493099714986
173	0x3fa79a482e8a4227	0.04609895294300186
174	0x3fd110b3238afbc0	0.26664427252756795
175	0x3fbc0209a7868377	0.10940609302498482
176	0xbf8b9bd286ae9163	-0.013480801329770647
177	0xbfc8b0a5e59919ed	-0.19289087019770026
178	0xbfc9f977f7acad12	-0.20292567819101542
179	0x3fc00ad18d3ae5b5	0.12533015628814118
180	0x3fa6d107bec54a7e	0.044563524281916664
181	0xbfb2b2e4d0f7cd0c	-0.07304220296628133
182	0x3fc11bd899c10d93	0.13366229541325633
183	0x3fb966c0035d2999	0.0992240913593946
184	0x3fcf4d8bbb8fb6a7	0.2445540109469466
185	0x3fc0cb72a5972454	0.13120873532742172
186	0x3f92ac84070c070d	0.01823622029315346
187	0xbfc50f5529863358	-0.164530415797709
188	0xbfc6903c1003267e	-0.17627669126368412
189	0xbf9bcd47b4472194	-0.027150268915450207
190	0x3f923774857b436a	0.0177896696539536
191	0x3fd0e5707aa3451e	0.26400386787743624
192	0x3fb05d73beb22c72	0.06392596631683192
193	0x3fd33e62973d1b75	0.3006826855602676
194	0xbf9bcd9cc8578e31	-0.02715153668203935
195	0xbfcb7ad3207ecd32	-0.21468581282315707
196	0xbfd60b6812b96279	-0.34444619968920837
197	0x3fe2f086da002bcb	0.5918611772370864
198	0x3fcc1107bf8c0e02	0.21926972248921578
199	0xbfb63d1b08e64eae	-0.08686989753032989
200	0xbfa280a5acc00dea	-0.03613774999396553
201	0xbf61700cdc9418a1	-0.0021286250308803632
202	0x3fbbf1be2541fb54	0.10915745172131369
203	0x3f9a2b769dd43b0a	0.02555642450630117
204	0xbfa1640d11e68df5	-0.03396645396722057
205	0x3fa03749efe80a57	0.03167182019753472
206	0x3fc6554424fc6fb7	0.1744771175952999
207	0x3f8f8e43392a539b	0.01540806310848968
208	0x3fc026e82c33769e	0.1261873451066337
209	0x3fa8f9fbccebece0	0.048782223477212616
210	0xbfc5e93510d4eba8	-0.17117942163335198
211	0xbfd08c4fd0b9e381	-0.25856395133410365
212	0x3fc2d16ab447db50	0.14701589396255565
213	0xbfa4802c5488b3c5	-0.04004038364323707
214	0x3facf63b1526c37c	0.05656609185405778
215	0x3fb1edd0014de052	0.07003498107758446
216	0xbfc0954f134aa2ac	-0.12955654565782504
217	0x3fd0e3112156a25e	0.26385906463341324
218	0x3fce6c0426081d87	0.23767139298454884
219	0x3faf8c07cfb81f63	0.0616152230323326
220	0x3fbf11b51b8c3397	0.12136394426870677
221	0x3f9cede512c17b9b	0.028251246709597316
222	0xbfc1a8fb66d3a9e9	-0.1379694225391426
223	0x3fc3b21535868a10	0.15387215722610437
224	0xbfc925ee6251a9cc	-0.19647006798488886
225	0x3fc0920fddcbfcd7	0.12945745782778914
226	0xbfb60c58d8a90908	-0.08612590112264595
227	0x3fd263b83da1c59a	0.2873364068865044
228	0xbf7aadffb2b43903	-0.006513594456249774
229	0x3f859d4ce7e307ce	0.010553932978272142
230	0x3f9e7ecb03e95f02	0.029780552018876534
231	0x3f8aab99ac15e7de	0.013022614063391499
232	0xbfcf44e49614dc41	-0.24428994491765546
233	0x3f9b5f2fbeca9d36	0.026730295200335173
234	0xbfa94b1ed89a704c	-0.04940124887545547
235	0xbfa031ad06d8ccce	-0.031628996930885486
236	0xbfcf7193b195dc1f	-0.2456535927883303
237	0x3fb60c3fdb04b1f8	0.08612441155555206
238	0xbfc4ac49459d8fc5	-0.1615077581328689
239	0xbfc11d58e9119cfe	-0.13370810871422373
240	0xbfc2f55031a456ac	-0.14811136650012224
241	0xbfc6ba215632ba67	-0.17755524357694982
242	0xbfb45cc461625296	-0.0795405137781223
243	0x3f8b4156fa3dfc12	0.013308219444068601
244	0xbfbe7547334f33da	-0.11897702219648867
245	0x3fd29c05461127f2	0.290772741722889
246	0x3fb6b312ca0de542	0.0886699431702214
247	0x3fbc0eb4a519b4b4	0.10959939032337013
248	0x3fa16feebdb6330b	0.034057102831047535
249	0x3fd18b7400f7a167	0.2741365441748002
250	0x3fcd69a5888867ea	0.22978657881395687
251	0xbf46754f11071f89	-0.0006853710238425718
252	0xbfba22928adb732c	-0.10209003343647954
253	0x3fb040b0beed9484	0.06348709737138064
254	0x3fd6d654099cf545	0.3568315595510579
255	0xbfd2b6f9898096b7	-0.2924178927226921

layer1.bias f8 [64]
0	0x3fb2ffc441ae64b4	0.07421518901391516
1	0xbfa275b0dc309f17	-0.03605416000237776
2	0x3fbffa0480f29638	0.12490871570715789
3	0x3fd02adb0c8c4cca	0.2526157019176024
4	0xbf98466dd9f3ca1f	-0.02370616572165762
5	0xbf9ccfbf39a83f76	-0.028136241811864214
6	0x3fa2c7f69a0d4fc0	0.036681848817039064
7	0xbfb71d8e457b7366	-0.09029473491996284
8	0x3f74b98c6db29269	0.005059765385486339
9	0x3fcfb9342f10f7c2	0.2478394727531264
10	0x3fb7d407146043ff	0.09307903525792936
11	0x3f92b4b14a7a69c2	0.01826741234854424
12	0x3fb8fcb89664598c	0.09760621711425282
13	0x3fcd684ef29dbdd5	0.22974573942654666
14	0xbfae5e4f4434903d	-0.05931327540955109
15	0xbfb8382505eaaca4	-0.09460669893694501
16	0x3fbc81b45f36e917	0.11135413479397403
17	0x3fbf22a686a5c2a5	0.1216224745492221
18	0xbf7b63a883d32b40	-0.00668683839939882
19	0xbfdbffff1d926388	-0.4374997891223349
20	0xbfce8255ed9e8bba	-0.23835252859598005
21	0x3fc168f142f0dc8e	0.1360150887355513
22	0x3fb6b5284f26c9ff	0.0887017434350028
23	0x3fb01006048db1b2	0.06274449931306128
24	0x3fc78326448ee0ae	0.1836898646122384
25	0xbfb94d5881bf4c5f	-0.09883645217569058
26	0x3fc3ee3d071a4c2c	0.15570795866787657
27	0xbf6ff70160b7544d	-0.003901961031923784
28	0xbf86c3af39fabf59	-0.01111542602242792
29	0x3fb3e306095dd4fb	0.07768285492587161
30	0x3fcb92da78fd0a65	0.21541911037100472
31	0xbfc1d8488d005e4b	-0.13941294560275916
32	0x3fb0804c5280b507	0.06445767416217417
33	0x3f92a5b321f74098	0.018210219333753302
34	0xbfd17a518eaf8ecc	-0.2730907338538884
35	0x3fb00f8259f5f5f3	0.06273665138538558
36	0x3fb053b2c998ff91	0.06377713605706804
37	0xbfcbb1ff8078055c	-0.21636956951992203
38	0xbfd0afccdbf9cdf1	-0.2607299946023139
39	0xbfcdf403194ca52f	-0.23400915847131773
40	0xbfc969dd3aeb3f9d	-0.1985432183923849
41	0x3fc367bd2309d0f3	0.15160335741860073
42	0x3fc2cdc4561a218c	0.14690450863077975
43	0x3fbffe8a492c7b11	0.12497772489994598
44	0x3f619b21b5e03d4d	0.002149167862633006
45	0x3fb03a2dce28bda3	0.063387739974806
46	0x3fb2c6d6b8a4b684	0.07334653861900092
47	0xbfb22c854f44dd28	-0.07099183259275732
48	0x3fd227443c3c1f9b	0.28364663965521125
49	0x3fd0024f9ba024b8	0.2501410503178465
50	0xbfc6b407665ef9b6	-0.17736904619773747
51	0x3fa5d7883fd5205f	0.04266000537114744
52	0xbf9b366a1b93a753	-0.026574762280609687
53	0x3f9931b3b052401b	0.024603660237119223
54	0x3fbedb4ed6f4f898	0.12053387401553761
55	0xbfd06fce7ca876de	-0.2568241326679138
56	0x3fc7de3d71d05cb1	0.18646972710914647
57	0x3fcdee7eafdfc03f	0.2338407858619593
58	0x3fcbb093a483a892	0.21632619412350046
59	0x3fc2cd2304d74066	0.14688527809494473
60	0xbfc27efa5ee7c4fa	-0.14450006135988486
61	0x3f899bd475375dda	0.012504253222615103
62	0xbfbcd708febc8bab	-0.1126561757960604
63	0x3f82b33957dc9cce	0.009130905145481451

custom_layer.alpha f8 [64]
0	0x3ff05ab64d1b4038	1.022146512219491
1	0x3f9f5d3ed21f483c	0.030629140448418676
2	0x3fa6dc4e85dce9e9	0.04464955696171897
3	0x3ffaf920552d6d9a	1.6858218505138667
4	0x3fef24693d768979	0.9731947136354356
5	0xbfcf374fc27974c3	-0.2438754748899666
6	0x3fe65a0d9ff73878	0.6984928249674018
7	0xbfdeccc46af886e8	-0.4812480015408327
8	0xbfd8711139906771	-0.3819010793828204
9	0xbff8699d22e11c9f	-1.5257846224283538
10	0x3ff19579337b3d41	1.0989925395004578
11	0x3fd6542a64b015ac	0.348887060478172
12	0xbffd6e944c62f96b	-1.8394968971111563
13	0x3fe920df261b570d	0.78526265566572
14	0x3f936c2ad88a393b	0.018967313257740797
15	0xbff111d95c8500aa	-1.06685768261381
16	0x3fc9bbc76e2434b2	0.20104306104659525
17	0x3ff571a405a2b471	1.3402443142070093
18	0xbff3ba2c4ac8efd5	-1.2329523965154199
19	0xbff4e13f006498ef	-1.3049917235708184
20	0xbfe4f30b39439d0d	-0.6546684378089666
21	0xbfc0d525e00c434e	-0.13150475921477284
22	0xbfda1f015abd9442	-0.4081424127710457
23	0x3ff95ff35e0e5c74	1.585925452620157
24	0x3fe1148cd2cfe6bd	0.533758556120311
25	0x3fa4dffee7e487ab	0.04077145176621796
26	0xbff2bf951451f106	-1.1717730325463562
27	0x3ff18a19d9c61e4f	1.096216059378907
28	0xc002de1b80b962f2	-2.3584508949828598
29	0xbfed949a42340afb	-0.924389962485605
30	0x3fc28f2af528a129	0.1449941346229562
31	0xbff26d8bb294e24c	-1.1517445541232005
32	0x3fcf94b2c275a46b	0.2467254113683198
33	0x3ff7ac1cb1a180f6	1.4795195521074311
34	0xbfe999020d6b45d1	-0.7999277364817151
35	0x3ff01d1bf3d92dda	1.0071067357374575
36	0x3fe82d04357a5a42	0.7554951710215578
37	0x3ff17fee2f4cc3d0	1.093733010068025
38	0xbfd5ef17eb1eebe6	-0.34271810494436605
39	0xbffa0a84470483d7	-1.6275675558210787
40	0xbf8561635f143f3c	-0.01043965944202762
41	0x3ff742f15dfa0f71	1.4538434668511082
42	0x3fd0cbcf6df2f9d1	0.26243959176272563
43	0x3fe88a31dfd7a1b8	0.7668694850845474
44	0x3fd4b43edcfa78da	0.3235013158790828
45	0xbfd52f675479d858	-0.3310182881317636
46	0x3fea6576a095d657	0.8248856674606014
47	0xbff18bcb0c499ded	-1.096629188535981
48	0x3fd4348d9fbd6666	0.31570759391397585
49	0x3ff34d7cffcb4eaf	1.206418036647772
50	0xbffba69fdc51b37d	-1.7281797987190821
51	0xbffe2eb45c1b9b5f	-1.8864024732553941
52	0xbfe3b7e25fb843d9	-0.6161968106772476
53	0x40006c9fad5126c5	2.0530389347448783
54	0x3fe9a1a9b2427fd0	0.8009842378269187
55	0x3fe481b0c6158f3b	0.6408313626129493
56	0xbfdd3a13e7f3e0f6	-0.4566697850382434
57	0x3ff685950fe07fa4	1.4076128597443835
58	0x3fd4164c384e19d2	0.3138609456877052
59	0xbfd541b5ac1585a7	-0.3321355991848471
60	0x3fcd1bf8d47662e3	0.22741613744871989
61	0xbff21f01091bb4c3	-1.132569346980106
62	0x3feb6e753e461d70	0.8572336403166627
63	0xbff3297861506a29	-1.1976245690663154

custom_layer.teta f8 [64]
0	0xc00175fa4feba118	-2.1826063388617847
1	0xbffd62f878df1070	-1.836662742761316
2	0x3ff076f83f07865c	1.0290453397832584
3	0xc006570e77ba8d2d	-2.7925080636793127
4	0xbfe59614bc578c73	-0.6745704344324522
5	0x3ff494d0d853a148	1.2863319826374937
6	0x3fef0fa623a4e8fc	0.9706602760482208
7	0xbfc2b822a5d61e3f	-0.14624436471443578
8	0xbfdd249a888595f5	-0.455359109232034
9	0xbf962b8a970f92ca	-0.021650472135564404
10	0x3ff624cde059549d	1.3839854014998203
11	0xbfe681734a13260e	-0.7033020445607592
12	0x4004bcdb9d74afa3	2.5922157574877516
13	0x3fdb170092e51a19	0.4232789454003139
14	0x3fdd79be1720c1f7	0.46055557497587024
15	0xbfe206693f693e2c	-0.5632826078889983
16	0xbfd3fec2b24201fd	-0.31242434890739884
17	0xbfc86c515a4e6adf	-0.19080559644211
18	0x3fbae35bb821ac6b	0.10503171201132637
19	0x4000e07f20599e8d	2.1096174743032123
20	0xbfef0d3b974f8d12	-0.9703653292930616
21	0x3ff656e8b4c66f2e	1.396218019631259
22	0xbfe3736308f35af6	-0.6078353094879663
23	0xbff334eaf9a9ee04	-1.2004194023601267
24	0xbff59371e956aaa0	-1.348497306326557
25	0x3fe925896233004c	0.7858321111634807
26	0xbfe078aea7f81a0b	-0.5147317200324449
27	0x3fb18282cf407be4	0.06839768943653685
28	0xbfdc49bc3c33b202	-0.44200044516654213
29	0x3fc860ad7d02edf6	0.190450368920082
30	0x3fe50a15f35ab89a	0.6574811699881764
31	0xbfd7401bbe69d93f	-0.36328786463799995
32	0xbfe1b446379963da	-0.5532561384126169
33	0x3fe9c8e9b22d1694	0.8057754974367577
34	0xbff7936c5d1842bf	-1.4734920155062097
35	0x3fec34486263baa8	0.8813821717902401
36	0x3f8856d25432fa23	0.011884349054864412
37	0xbfe4606af4f4227f	-0.6367697510005
38	0x3fd130baf33691b9	0.2685992598656202
39	0xbf6c6bb2cad5b613	-0.003469323352581774
40	0xbfe4dca9a9e2e3ff	-0.651936370667613
41	0xbfe00fc4915a4a64	-0.501924785511005
42	0xbfe7260e5e131c11	-0.7233955228228998
43	0x3fe25ac017f7206f	0.5735779254982968
44	0xbfef2b9b989a177a	-0.9740732174402489
45	0xbfccec555002364e	-0.22596231848403864
46	0xbff34283ca3b5c23	-1.2037389659578899
47	0x3feb6f5f608a8869	0.8573452840394228
48	0xbfe0de4a8fa70ec1	-0.5271351628984676
49	0xbff77e3e5ebb4fb5	-1.4683211994606442
50	0xbfd94042f5738a74	-0.3945472142205866
51	0xbfb6b8f7f050ce78	-0.0887598954876071
52	0xbfc6b2d30cb1d2da	-0.17733228797773998
53	0xbfd9132befae92bb	-0.3917951431888402
54	0xbfef9d4fa4179adf	-0.9879530148435512
55	0x3fe78a5f73aef7ae	0.7356412181322776
56	0x3ffa7c257bf21dd0	1.6553091851836719
57	0x3feb86280012bc3e	0.8601264954976455
58	0xbfdc5cbbb4a25a77	-0.4431599868779936
59	0x3fb3df265fc4f3d9	0.0776237472354774
60	0xbff3091d8c22faee	-1.1897254442298464
61	0x3fe14f40a3020d68	0.5409243758917173
62	0x3ff1b9eb3b77e3fc	1.1078903506261204
63	0xbfa71930cd233782	-0.04511406425591159

custom_layer.gamma f8 [64]
0	0x3f97391455fd5c19	0.02267867827262302
1	0x3fe2eeb158bf9c00	0.5916372998589168
2	0xbf81b0af2e156f55	-0.008637779802192528
3	0x3fb9847bfc6fbc4d	0.09967780030250246
4	0x3fbf823692a455f7	0.12308064537167938
5	0xbf8f83d6a992de1d	-0.015388180780390443
6	0x3f43a210587ad414	0.0005991535008066395
7	0xbfb11f2dbd2eb6a3	-0.06688199871742966
8	0xbf8ebc4d6fcc9822	-0.01500759599145957
9	0xbfc3baa395d15897	-0.15413327040977684
10	0xbfb16671bdc12e3f	-0.06796942598992305
11	0x3fc7cdaedbef9956	0.18596444834765674
12	0x3f90c999bb07122a	0.016394044914493623
13	0xbf749c25081c0374	-0.005031723647108122
14	0x3fa3f118fce2933e	0.03894880377746411
15	0x3fa2883048c8f8ff	0.03619528664101956
16	0x3fc127f85b191e04	0.13403229187154875
17	0x3fa427d9fb056e1d	0.039366542713391996
18	0xbfa05ddf2472abd4	-0.03196618385239672
19	0x3fc74f69b7e75377	0.18211099128407301
20	0x3fc527b8521e9d6e	0.1652746582960662
21	0xbf833a4ebc7a3789	-0.009388556601404268
22	0xbfb23d8421b9f446	-0.07125116179845845
23	0x3fa8c989f1cdca89	0.048412619368623906
24	0x3fc86a70554ff577	0.1907482544483334
25	0xbf7717519a66c143	-0.005637472879627406
26	0x3f995a2b2b0c0d2b	0.024758028509507184
27	0x3fc4408cf5517d9b	0.15821992853578312
28	0xbfb110bc08f46c67	-0.06666159838316475
29	0xbf9fedddc7a22bfb	-0.031180825528775085
30	0x3f94ac055d1a35c2	0.020187457854765396
31	0x3fa128d448271214	0.03351462727326662
32	0x3fc59fdeb82b1557	0.1689413451442003
33	0x3f9164aee1332dff	0.016985638136970845
34	0xbfa9e5086139a706	-0.05057550608473886
35	0x3f7ea0c6397df6f3	0.007477545084723525
36	0x3f88e2c246120155	0.012151258242966515
37	0x3fa8f7b38d5a002a	0.04876481152041408
38	0x3faa4c2cbd6b8d2e	0.051362417337964636
39	0xbfb44a19071d5b6a	-0.079255642163259
40	0x3fd049959a128e3e	0.2544912342657176
41	0x3fac600f91767fa2	0.05542038584394439
42	0x3fbb14dc7d570184	0.10578706798606247
43	0x3fa55a79d9c2b988	0.0417059019394968
44	0x3fd3fa3d98b08d48	0.31214847479914853
45	0xbfb0ed35c3f7118c	-0.06611953768066864
46	0x3fcad1ded0f4c29b	0.2095297355931692
47	0xbf3b87e00830528e	-0.00042008609324398975
48	0x3fc1f81c0e84053d	0.14038420399450927
49	0x3fbd2082db642987	0.11377733093482877
50	0x3fb179f479c7c7b5	0.06826713536409452
51	0xbfa4176efc5b4dae	-0.03924128370786249
52	0x3fb2c5c7b5c26f9c	0.07333038508880779
53	0x3f5ded6d503a5eb6	0.001826626540525495
54	0x3fb1ef06a8b7872a	0.07005349749627202
55	0x3f85cdf695ff61c6	0.010646749928057708
56	0x3f94df85d36f2152	0.020383921651757682
57	0x3f86dca1ccda7934	0.011163009704713824
58	0xbf90de78b3f7fc0d	-0.01647366140786848
59	0x3fa605bca7fbd637	0.04301251936514599
60	0x3fce1fc29f7b8753	0.23534424578888977
61	0xbfa43e5bcc2eec0a	-0.0395382582423381
62	0xbf825a7f578e64c3	-0.008961672648910462
63	0x3fb5df8436fb7fbe	0.08544184057563961

layer2.weight f8 [64, 64]
0	0xbfad9aeaa3074900	-0.057822544480261584
1	0xbfbb5fc318e11b27	-0.10692996365933692
2	0x3f9585fa1bfe1ecb	0.021018894156013695
3	0x3fb08ffb081c49e9	0.0646969694901497
4	0xbf95f70720881abc	-0.021450148926329446
5	0xbfb71fbfef9e06fc	-0.09032821273833841
6	0xbfc515b38f8e2d53	-0.16472477445163722
7	0xbf8d452b12899e49	-0.014292084220144068
8	0xbfb05711ba6a8d75	-0.0638285713308074
9	0x3faf4817ac7d2177	0.061096896940003136
10	0x3fbebfc51ff80787	0.12011367826928963
11	0x3f3956c8f4a340e6	0.0003866425146386146
12	0xbfc3258229d33de2	-0.14958216707462585
13	0xbf796f0c5bb74709	-0.00620941951224708
14	0xbfa3f623927b319d	-0.03898726618863011
15	0xbfc23429eb4d618b	-0.14221691121452937
16	0xbfbbb66fa565ae32	-0.1082525042344791
17	0xbf386b95194a68e6	-0.00037262334925859534
18	0x3fb73bebdac3e5b0	0.09075807658145751
19	0xbfb9fd3b61d282d5	-0.10152026308288538
20	0x3faea52be8ad7bff	0.05985390868476514
21	0x3fad177f698d5051	0.056819898257032826
22	0xbfc2e22c587cc18c	-0.14752725907011344
23	0x3fb84e9129519bff	0.0949488378406471
24	0x3fc194ec57b300cc	0.13735727579297075
25	0x3f43b3bcb49633ea	0.0006012603200119513
26	0xbfb98de1929b6d80	-0.09982118443752164
27	0x3fa4dceb586178e8	0.040747980631509695
28	0x3f9a910363c23d6d	0.025943806613722687
29	0x3fa473e57124646f	0.03994671827440121
30	0xbfbc08823e122c10	-0.10950483336834815
31	0xbf9cf78efedf2059	-0.028288111024977834
32	0xbfa52b0dbb5b742f	-0.041344098206288364
33	0x3fb593a1bc69f570	0.08428393220852626
34	0xbfbdaa0c4c90e351	-0.11587597722326605
35	0x3f9576efd385ef7d	0.02096152046713894
36	0x3fabadc3a844fb6f	0.05406009129591537
37	0xbfa5ccf77ac47026	-0.04257939695000372
38	0xbfc2f1423b6248b6	-0.1479876317940289
39	0xbfac0a90cf10677a	-0.054768109585167715
40	0x3fb02a0fa152e401	0.06314180077141886
41	0x3f80a06a63d2e9c8	0.008118468448050545
42	0xbfa80687108042a0	-0.046924801601681
43	0xbfb441b43963a982	-0.07912756348711095
44	0x3fc14f0f3fdf900e	0.13522520655453757
45	0x3fb125745279b57e	0.06697775853691287
46	0xbf8a6ca32720e46b	-0.012902521735769853
47	0x3fd208ecd29b5ee5	0.2817947441776439
48	0x3fa6a1efd51a4198	0.04420423008298541
49	0x3fa073f2f4414639	0.032134620968133416
50	0xbfbd543cad363467	-0.11456660488893676
51	0xbfc01a8cb928b9a1	-0.1258102325532038
52	0x3fba2e34aa8c2d3e	0.10226754344710273
53	0xbfb818d4953ed4fb	-0.09412888187110362
54	0xbfba8626aa57bcd4	-0.10360948237188278
55	0xbf5c8fd3e3662495	-0.0017432755681474944
56	0x3fb12b4ba4a5f867	0.06706688661322034
57	0xbfc20af52a58aa05	-0.14095940177624314
58	0xbfc067b635c97a3b	-0.12816503168410684
59	0x3fb1762191560d96	0.06820878790136073
60	0xbfa9ede1ba7f12c6	-0.0506430187374796
61	0xbf89833fa53108db	-0.012457368115182657
62	0xbfc27b557ce6e685	-0.14438885306099195
63	0xbfb532353d68ce79	-0.08279736279728835
64	0x3fa00a39d15bf151	0.03132801705030153
65	0xbf93765ba27f2a89	-0.019006187241567694
66	0x3fa9fb115fd2b388	0.05074362082209577
67	0xbfaab2b9b5914b2d	-0.05214481679344938
68	0x3fc2bc5f9c78174d	0.14637370243161243
69	0x3fa75130f784aa98	0.045541315283420036
70	0xbfc379457761aff2	-0.15213840798548933
71	0xbfbc782b0003f881	-0.11120861769083669
72	0xbf75f8005854a774	-0.005363465640849319
73	0xbfb1e126f57d6513	-0.06984179967311759
74	0x3fc08e135174ae4b	0.12933579900105693
75	0xbfb8812d894dfbad	-0.0957210979668008
76	0x3f9231bbc1a4d4ab	0.0177678429547156
77	0x3fd16e8b0738b55d	0.2723720140955573
78	0xbfa71ba796fd4c5b	-0.045132863217667483
79	0x3faacf6a28f97661	0.05236369848419709
80	0x3f541c0bfaf56331	0.001227390002745032
81	0xbfb0b27279097f10	-0.06522288756377415
82	0x3f96518abc8c9841	0.02179543281376817
83	0x3fc2a3230a44d48c	0.14560354234132367
84	0x3f82835683b83aa6	0.009039569754375986
85	0xbfbaa2a6284e1a2c	-0.10404432758341703
86	0x3fa322af4f15e7c8	0.03737399902725219
87	0x3fb1021e3b209b79	0.06643856948413242
88	0x3fb5f74a7197a31c	0.08580460808992679
89	0xbfc32ca0d6db65c4	-0.14979944697442538
90	0x3fb1d7b1a3b58c7a	0.06969747778707527
91	0x3f9f297faca2088c	0.030431742583922047
92	0x3f96fadf1df10852	0.02244137401817909
93	0x3fb266578f75e0fc	0.07187411549046269
94	0xbfc16566e4efa324	-0.13590704134483034
95	0x3fb31b15b72275f1	0.0746320316415774
96	0xbfb147860b6a8edf	-0.0674976137038885
97	0x3fd0d9de148fcfec	0.26329757698044776
98	0xbfb77a66bd0df57e	-0.09171144595707934
99	0xbf7d2498f81f45e1	-0.00711498025516863
100	0x3fad9a146f4318e2	0.05781616075687325
101	0xbfbcc70ff4d106a8	-0.11241245009389422
102	0xbfc53c2de177d9a6	-0.16589902409732565
103	0x3fb8b31be8d70a01	0.09648298677988267
104	0xbfaaafec4c6c9a2f	-0.052123436288003304
105	0xbfa9e901e916c4a8	-0.0506058308632274
106	0xbfb48a6ed2d91a55	-0.08023731849343936
107	0xbfa9a95bda8082cd	-0.0501202301240987
108	0x3fa92ad4479da4ed	0.04915488599983484
109	0x3f8cfe1223630fcd	0.0141564766930812
110	0x3f9abcd499682b27	0.026110956061567905
111	0xbfc35987e9481d17	-0.15116976633746823
112	0x3fb80421ca504238	0.09381304921431244
113	0x3fc5cd358f2aba89	0.17032498827525824
114	0xbfaaaa905b1b4ca5	-0.05208254921094494
115	0xbfc8891ba557426a	-0.19168420384677926
116	0x3fb85deb665f16ca	0.09518309830954333
117	0xbf9454b8606c2d79	-0.01985443199650436
118	0xbfcd0e033a53d7a4	-0.22699013088248166
119	0xbfc635a13f582f51	-0.17351165383331105
120	0x3fc20098a0a735e1	0.14064319462197175
121	0x3fc0cf7aed2381f7	0.13133179263151337
122	0x3fab8b250ab31725	0.0537959647713662
123	0xbfb0b89c01929651	-0.06531691587823586
124	0xbfbe2bef63528401	-0.11785789656507008
125	0xbf8d1c1f07550c8e	-0.014213793193113024
126	0xbf945402515cd5b1	-0.019851719108563596
127	0x3fb6d9ecf7add941	0.0892627815900129
128	0xbfaab7cb33fd8964	-0.05218348512314
129	0x3fa5d84158b0f314	0.04266552169472085
130	0x3fa53f7f821aa098	0.04150007689651253
131	0x3fba61200321a71d	0.10304451061679427
132	0xbfba0f5a86b72cc5	-0.10179677761987012
133	0xbf9179391511d835	-0.017063991461746936
134	0xbfbae1b682e96aa1	-0.10500660606468638
135	0xbf95bf8bc8ae7db9	-0.021238502620347186
136	0x3f5c21714c584295	0.0017169577053019237
137	0xbfab5d0712533e04	-0.05344411944099295
138	0x3fbdb925bf53d207	0.11610637589530635
139	0xbfac0a36ffb0d940	-0.05476543303704995
140	0xbf665ad14748be2c	-0.0027288520307349375
141	0xbfc24f29709f6ab2	-0.1430408286967882
142	0xbfbc550c2e0e87c3	-0.11067272304947466
143	0x3fad506019ff3a75	0.05725384061189668
144	0x3fa4a1707cb8af92	0.040294184899123967
145	0xbfb24a6f46cddb29	-0.07144828299156515
146	0xbfc12f10e2130f19	-0.13424883879462682
147	0xbfabf1abe20a32f1	-0.05457818159366024
148	0xbf9734b1f75e57f3	-0.022661953662087297
149	0xbf794ded583be9cc	-0.006177832725138232
150	0xbf8729096924e864	-0.011308740159268811
151	0xbf8c765a9d3394d0	-0.013897617266091095
152	0xbfb9299f75c4154c	-0.09829136490960372
153	0x3f9e17a062efbeed	0.029387002981763045
154	0xbfc7bb45a072cd5b	-0.1854025872649839
155	0x3fac1c8be87d4428	0.05490529263500604
156	0xbf9c32f2c82c8989	-0.02753810259594894
157	0xbf962462c8e88f20	-0.021623176109769493
158	0x3fa7754ff763026e	0.04581689734323367
159	0xbfb7fd215e434448	-0.09370621253334932
160	0xbfb71e36dc92f67d	-0.0903047836790964
161	0xbfb7f6650fee8455	-0.09360343588788685
162	0xbfc1bed6cc619d13	-0.13863644580417453
163	0x3f8a11c413d87cad	0.012729198318139312
164	0x3fadaf5f788a4184	0.057978614296305714
165	0x3f75e5154117a895	0.00534542372177262
166	0xbfa37206c4d55bd3	-0.0379793277049242
167	0xbfb9dffdc2a006e2	-0.10107408525075415
168	0x3fb6d202c54b798e	0.0891420108486953
169	0xbfc5468706c5ec02	-0.16621482687682493
170	0x3fc071b66dba1265	0.1284702335143663
171	0x3fc0968265bb8579	0.12959318129928102
172	0x3fba3870389b439f	0.1024236810874428
173	0x3f9c2d7b51b13442	0.027517248974892057
174	0x3fc30f247ce9ac70	0.14889961337334823
175	0xbfa2c5f03bbf460d	-0.036666400235514464
176	0x3fb05313c469040c	0.06376765771075571
177	0xbfcc04c590a0f080	-0.21889562189051404
178	0xbfb01c659700398e	-0.06293330132050398
179	0x3fb7fa21d74d0743	0.09366046434754786
180	0x3fb67000cde74e51	0.08764653231565346
181	0x3fb2687994ebd961	0.07190666089795662
182	0x3fb05ea4c864d94a	0.06394414799146833
183	0xbfa00a1bb45da2c5	-0.03132711960535554
184	0x3fa5464c5ebb7f64	0.04155195862199326
185	0xbfbe53d028893b92	-0.11846638669633894
186	0xbfc0bfa4a92626e5	-0.13084848651151684
187	0xbfb5824baf68441d	-0.08401940376667523
188	0xbf9fafd76ffc55fe	-0.030944219789565956
189	0xbfc05108f2edf461	-0.12747299062530984
190	0xbfc11e7030986a95	-0.13374140141316518
191	0x3fb081f0986afbb2	0.06448272439136707
192	0xbfbf4cf59b30cdeb	-0.12226805723985705
193	0x3fc53e4aa613c7fd	0.16596348866693225
194	0xbfa765500cbd3edc	-0.04569482951649004
195	0x3fc25ce4492dcdbe	0.14345983098210796
196	0xbfafa48a6f713e0c	-0.06180222139721189
197	0xbf86a86ac2fc9e89	-0.01106341750671837
198	0xbfc4667f721b0dc9	-0.15937798568312037
199	0x3fbea5e4409755d3	0.11971880509312109
200	0xbfc1ca09f22b0a36	-0.13897823643317658
201	0xbfa1a3b3cd84a917	-0.034452074849769136
202	0x3fa09e0026316f8b	0.03245544878220049
203	0xbf96f20f2fac70fe	-0.02240775803066785
204	0x3fb74e90cc1a3f70	0.0910425661370462
205	0x3fa04053d8b845ab	0.03174078007226496
206	0xbfba1e9c88bd09a1	-0.1020295938333562
207	0x3f810c9edff73d37	0.00832485314359009
208	0x3fc26706ea2a322a	0.14376913484410753
209	0x3fb48dd38e93d342	0.08028909903425777
210	0xbfb68726b9d93d96	-0.08799974477118719
211	0x3fc3512d5cad419a	0.1509148314021445
212	0x3fad5f53288ee57b	0.057367895794821565
213	0xbfb6e6e00ceff908	-0.08946037593702638
214	0x3fc47e09c4cc18b3	0.1600963793682176
215	0x3faf0b7eb0adbb74	0.060634574000565516
216	0x3fc04a46e714772b	0.12726675303650245
217	0xbfb79397584d238f	-0.09209581285280265
218	0x3fa777993f2402fb	0.04583434005508554
219	0x3f8fd757837605be	0.015547450732586007
220	0x3f5c57951310488f	0.0017298656277984525
221	0xbfb5cb9ff10e48fd	-0.08513831744338414
222	0xbfb0894ddbd5ea04	-0.06459509484367493
223	0xbfc2b1124df1a3f7	-0.14602879339079752
224	0xbfbca4527fde4b6b	-0.11188235875878909
225	0x3fcb67cbef0b9fa9	0.2141051213468448
226	0xbfb46bd935f495dd	-0.079770637200077
227	0x3fb336102b4ed028	0.07504368836708919
228	0xbf89abe9569050a8	-0.012534926370826163
229	0x3fa3a129e0cb54ed	0.038338955584245805
230	0x3fb101994ae765b2	0.06643064573963534
231	0xbfc05bd3c42ade9d	-0.12780234411706184
232	0x3fbacdb1dccdbfb7	0.10470115318980687
233	0x3fab9418346b7a5d	0.05386424674883437
234	0x3fc4a90a02b3f39a	0.16140866405467308
235	0x3f82c8003b15ba5a	0.009170533946158677
236	0x3fb2b2309cf8c61c	0.07303146202391314
237	0x3f9b814a059f8c28	0.026860386460509172
238	0x3fa1b0650233593d	0.034548908728242435
239	0x3fb35ac7eff5c2ef	0.07560395820997788
240	0x3f8ce4f643d5316a	0.014108585305301975
241	0x3f96cea585e04116	0.022272669120924148
242	0x3f9fcb198aa883b7	0.03104820164492469
243	0xbfa27bc5d7b29b36	-0.03610056169536906
244	0xbfab6fb730403347	-0.05358669723509606
245	0xbf96503c7e29f7cf	-0.021790452194629325
246	0x3fb457b29b64ebf7	0.07946316045574507
247	0xbfb2205ecc1107a3	-0.07080643159954873
248	0xbfb062c0ec1492f1	-0.06400686038666571
249	0x3fa25194fb35bbbd	0.03577867094542551
250	0xbfba9924324e13c7	-0.10389925220631745
251	0x3fb095c2d6990eb5	0.06478517283636161
252	0xbfa1150151cb08c6	-0.033363381609449
253	0xbfb10007a5909e88	-0.06640670578110008
254	0xbfb2623136331415	-0.07181079457502933
255	0xbfb33e33b3903b3b	-0.07516787656662142

layer2.bias f8 [64]
0	0x3f81496758b6b11c	0.008440787691903533
1	0x3fbdce2278fe25b3	0.11642661527562019
2	0xbfb1bb297705541b	-0.06926211505681616
3	0xbfb7766152e6cf9c	-0.09165008806195235
4	0x3fb3277f9258160f	0.07482144663671185
5	0x3fb3c49572feb0d1	0.07721838052265474
6	0x3f97f2ca9da2349e	0.02338711344832644
7	0x3fa43321542694ee	0.03945259239416453
8	0x3fb5c6948714e1fe	0.08506134317293143
9	0xbfaa0f1fecaa9217	-0.05089664234154528
10	0xbfbf5a6f9718a3df	-0.12247369231103232
11	0xbfb64e29495b2bd4	-0.0871301464168675
12	0xbfa5357f940ac095	-0.041423785039456686
13	0x3f63ff4fd21ecb01	0.0024410780906348743
14	0x3fb9ebbb3b0737cc	0.10125322524183317
15	0x3fa536899e819313	0.04143171367539913
16	0xbfb2dbc54faa2231	-0.07366593546806467
17	0x3fb36f6733ae7744	0.07591862689738799
18	0xbfa6f58d4cdb0c72	-0.04484216273478915
19	0xbfaad0ad476850f1	-0.052373328177198426
20	0xbfaa3985f595dedb	-0.05122011778706589
21	0xbfa62a20ae9d3f93	-0.04329015857240317
22	0x3fa9a46f7acd7dcd	0.05008266805702597
23	0xbfb4e31e198180c9	-0.0815905391950792
24	0x3fb92ec5dce22bd8	0.09836994784033892
25	0x3fb259c9aa612659	0.071682552429729
26	0xbfab0d0b85e07fd4	-0.05283390053978079
27	0xbf97cd0db27112f7	-0.023243154541222357
28	0x3fa7309929f81919	0.04529265057867544
29	0xbf5dd64f89a43d15	-0.0018211151823981965
30	0xbfb4f1362c3507e8	-0.08180559710766
31	0xbfb5cc76298c2a57	-0.08515108599036957
32	0x3fb89f3f81b7f927	0.09617993275603408
33	0xbfb3cb470cb6201a	-0.07732051906907636
34	0x3f7be1acb0b25ae7	0.006807016917398135
35	0xbf754fa7b885ac73	-0.005202918204626805
36	0x3fb31d768a830bda	0.07466832048071073
37	0xbfbeaa697d13d713	-0.11978778175020137
38	0x3fb8fbd3b97e7fab	0.09759257582345408
39	0x3fb6ff251a406585	0.08983070269495926
40	0xbfb6683a42073841	-0.08752788650528577
41	0x3fb2b8f2fe4035b6	0.07313460070891761
42	0xbfb0e84cb671e938	-0.06604461149428154
43	0x3faab3580a8a71d9	0.052149535452574454
44	0xbfae2a13d8a9f30a	-0.05891477603743141
45	0xbfb070b6dd795603	-0.0642198839862758
46	0x3fab537d6ab1d09c	0.05337135245727717
47	0xbfbb775c3baf41ad	-0.10729004342215971
48	0x3fbfcced2606f828	0.12422067812346482
49	0x3fa4deb9f93f8570	0.040761768031880474
50	0x3f63da34dd0feaa1	0.0024233849039750487
51	0x3fa60f8c3de9b546	0.0430873704507158
52	0x3fb7da2d47fa0c05	0.09317286498303197
53	0xbf59310ae1be7edd	-0.001537571551104059
54	0xbfb99994b7609c34	-0.09999970890986348
55	0x3fb721da6fd67471	0.09036030989087053
56	0xbfbda9c7b38a761e	-0.11587188847848792
57	0x3fbf8806edccf951	0.12316935830765387
58	0xbfb9e4c35700eefd	-0.10114689706909626
59	0xbfa3576847b15ae5	-0.03777624011188666
60	0x3fb9fd0084ba88fb	0.10151675453611013
61	0xbf97045480a76ff5	-0.022477455475254222
62	0xbf95f39edcd24db3	-0.021437151172518387
63	0xbfb429a051418481	-0.0787601660135966

custom_layer2.alpha f8 [64]
0	0xbfc6b3ac33feac75	-0.17735817469415208
1	0xbfd51edbf6f6f093	-0.33000849836003815
2	0xbfbcab3fb0905602	-0.11198804913177443
3	0x3fd1611cb6b229f9	0.2715522560253301
4	0x3fc2660b74b0f9e1	0.14373915860956202
5	0xbfdc1b2e50e5e645	-0.4391589918155641
6	0xbfeeea5b013d3312	-0.9661078476143266
7	0x3feccc81be476b88	0.8999642101656358
8	0x3fe58d6dfe4e4c75	0.6735143629943098
9	0xbfd2240078de9385	-0.2834473781934366
10	0x3fd310768e5d640c	0.29787982847989336
11	0xbfe3a30200d9a28e	-0.6136484161953193
12	0x3fee58d32bf9462d	0.9483428820478302
13	0x3fcae5b6f3ae4f3f	0.2101353349540833
14	0x3fe52d9d2dfa4925	0.6618181131364379
15	0x3fe8138edf1817c2	0.7523874623591313
16	0xbfeae5098fb9b84b	-0.8404586608064702
17	0xbfe6da555dcd0dfe	-0.7141520340014151
18	0x3feaae600781a5c9	0.833786024724014
19	0x3ff10d628336f56e	1.0657677770207914
20	0x3fca406a11f75982	0.20509076955086064
21	0xbff801cb8219c664	-1.5004382211740444
22	0xbfdf8deae071a27f	-0.4930369560084173
23	0xbfe3f27c4cb32f36	-0.6233502862973868
24	0x3fd591d375140d81	0.33702551301413314
25	0x3ff30f16d767c56f	1.1911838926574452
26	0x40001c7d3e63a5c6	2.013910758415224
27	0x3fc3c8774017120d	0.15455523137474395
28	0xbffc50eae8c7fb1c	-1.7697552769674934
29	0xbfd80cc80cc94500	-0.3757801174989055
30	0x3fabb29c837bded2	0.05409707169559187
31	0xbfea6925d62defa3	-0.8253354247276444
32	0x3fd65042beb3828f	0.34864872573056344
33	0x3f964c5f8411d2c2	0.0217757152899647
34	0x3ffa69a78f4287bc	1.6507945629204945
35	0xbfcea1e30deac8cf	-0.2393153970675201
36	0xc006f91acc20eb91	-2.8716331431909983
37	0x3fb25d77a6c3b6c5	0.07173869916342841
38	0x3fdaac635f41d550	0.4167717390294756
39	0x3feb88058298a0ef	0.86035418994018
40	0x4005581f50ab08f7	2.668028478831839
41	0xbffb3f3e2c2b1e53	-1.7029401517228464
42	0x3fc201ead6ca7e17	0.14068351257172715
43	0xbff3d0cd8854b506	-1.2384772611069947
44	0xbfd98594bbf236d0	-0.3987781367694483
45	0x40048a80e58d63eb	2.567628663422956
46	0xbff0a5e850066449	-1.0405047536826422
47	0x3feb46aac4dc6074	0.8523763508737958
48	0xbfabcfe8569323d0	-0.05432058388539185
49	0xbfd42182541c1568	-0.3145452329047971
50	0xbfd20271c0ecb31a	-0.281399191286981
51	0x3ff096482d18149d	1.0366899262892624
52	0xbfe20da7ea776736	-0.5641669825956572
53	0xbfe7dcaed3f7186f	-0.7456888332315098
54	0xbff06a04570ff56b	-1.0258830452797507
55	0xbff45e20b6f73f07	-1.272980417928865
56	0x3ff81d6e464f32cd	1.5071852442226146
57	0xbfea046d13d15eff	-0.8130402934138771
58	0x3fd20dad63d718ab	0.28208479642888545
59	0x4005d14acde2a46b	2.7271934590140083
60	0x3ffa50c267833840	1.644716648431782
61	0xbffe69cf69f2964c	-1.9008325708940843
62	0x3ff06ee85a7d28ef	1.0270770582888493
63	0x3ff326f2ca4772a8	1.197008886482914

custom_layer2.teta f8 [64]
0	0x3ff15153e738fbb1	1.082355406964535
1	0xbfd9aad3ada74c13	-0.4010514446101194
2	0xbff57e82c4e94006	-1.3433864299622669
3	0x3f86c571acf1190c	0.011118782129540004
4	0xbff3f0ccb31737b8	-1.2462889667253716
5	0xbfd522981ab66fa4	-0.33023645981460903
6	0xbfda5150f6af99b2	-0.4112131508867619
7	0x3fac484f85a0a731	0.055239186346013
8	0xbfcbe703c35c0e8b	-0.21798750914614504
9	0xbff06ee806b7f7f4	-1.027076746220243
10	0x3fcd37fb92884ec6	0.22827095656304247
11	0xbfb61ac0f05a4e56	-0.08634572856890918
12	0xbfb45bea24d25b68	-0.07952750586478674
13	0x3fcfe22a1a12a008	0.2490894915874835
14	0xbf8321b2748a3c6d	-0.009341615849989016
15	0x3fecdba3359762f4	0.901811222715962
16	0x3fe8a90de9836b5a	0.770636516648078
17	0xbff3d48fda7feff9	-1.2393950019022653
18	0xbfdc6d3576eba3e7	-0.4441655789692604
19	0xbfac762903ca3c30	-0.05558899089111724
20	0xbfec8d13aa5dc972	-0.8922212913005707
21	0x3ff748cab2065248	1.4552714304055758
22	0xbfe0a7b1de7c50d4	-0.5204705567762411
23	0x3ff053ece2c39d21	1.0204895837758345
24	0xbfa95b3af0b2d132	-0.04952415645803611
25	0x3ff853501197a5b4	1.520340031357006
26	0xbfe7ac4443c77c95	-0.7397786449254392
27	0x3fe0a3be7bc36bbb	0.5199882905247856
28	0x3ff18a61058c227f	1.096283933324372
29	0x3ff71e2d2579b3cd	1.4448672737009816
30	0x3ff4691b5703c947	1.275660838986896
31	0x3ff329fa72b82569	1.1977486115668745
32	0x3fc910432b890347	0.1958087885450601
33	0x3ffaf00db655fcc7	1.6836068270202291
34	0xbfd95f8cac5c60d2	-0.396456878968377
35	0xbff57fa26c57af2b	-1.3436607582215838
36	0x3ff9e9e604e27b65	1.6196041289146816
37	0xbfc7d94701ce87a5	-0.18631827915402002
38	0xbfea31b72a98a3f5	-0.8185687858541529
39	0x3febbe3aa28d7435	0.8669713187079028
40	0x3fee0f8d2b57a119	0.939398369458135
41	0xbfe2f0872e2caf7b	-0.5918613340231639
42	0x3fcb078f646d4b64	0.21116821674021502
43	0x3fde6a42c21ee46f	0.4752356429776858
44	0x3fe26b36979f0efe	0.5755875550607639
45	0x3fe399fd00b52963	0.61254739893165
46	0xbfb9816936e31b8a	-0.09963090505617181
47	0x3ff13500f0c982fa	1.0754403501270517
48	0xc001ba38e6df4cb5	-2.2159288441558496
49	0x3fe3a5c29636c340	0.6139843877664148
50	0xc002e807b1ffe855	-2.363295927641085
51	0xbffa9d5a8ed32339	-1.6634164408771552
52	0x3fd54830cc71c39c	0.3325311657454735
53	0xbfe91ec2fae497e0	-0.7850050831082136
54	0x3ffea2b0367af273	1.914718830884479
55	0xbff7cffc89263fec	-1.4882779462241116
56	0x3fdfff3642f9ec98	0.49995190182353033
57	0xbfcf07acf096dca4	-0.24242173907780284
58	0xbfe611bc05341c79	-0.689664850390627
59	0xbfb8f311bb78e4c7	-0.09745894267043119
60	0x3fa330c298c31ddd	0.03748138537190091
61	0xbfe28d62b9d248c9	-0.5797589902233763
62	0x3fc0c02fc5be51c1	0.13086506991807137
63	0xbff80da974cbc765	-1.5033354341835203

custom_layer2.gamma f8 [64]
0	0xbf6b71b112cde3a4	-0.0033501108613873277
1	0x3fa15ec1e97a996a	0.033926067114680006
2	0x3f9d212545975557	0.028446752903467622
3	0x3fb5e46d054f4287	0.08551675204877017
4	0x3fb6c98b43c32879	0.08901281742433466
5	0x3fada2f841048d72	0.057883985459080814
6	0xbfb37ecca162aed7	-0.07615355434489444
7	0x3fa8982ce8f5fc27	0.048036006391150736
8	0xbfa1b9b689a4c72f	-0.03462000303478729
9	0xbf99a5f33bdb4b05	-0.02504711201511169
10	0x3f52ee67a2a79e95	0.0011554729522859398
11	0x3f9727c2e8d95f00	0.022612615072232778
12	0xbf82c2b816160b21	-0.009160459684385782
13	0x3f621f99e4150963	0.0022123342211283633
14	0x3f749b2c714cd9b4	0.0050307975805509615
15	0x3f77cdf1f55ed402	0.005811638975434798
16	0xbf7d06c16480401c	-0.007086520614407756
17	0xbfb12a3ac1f45d57	-0.06705062136858451
18	0x3fb2f02ca44aad59	0.07397727023151414
19	0x3fc1874f295f893c	0.1369418098466414
20	0xbf983014fd6f481d	-0.023620918243814615
21	0xbf8e962927bb261c	-0.0149348464250521
22	0x3fb7a21c6ddbd036	0.09231736833663792
23	0x3f5978075fffbd4f	0.0015544960042424732
24	0x3fb550f1609ce215	0.08326634033881704
25	0xbf861a78de84feef	-0.010792679110294993
26	0x3fb5df8371eb098c	0.08544179469303098
27	0x3fa8c3fd808253c2	0.04837028688158497
28	0xbf51c29387799347	-0.0010839882578689995
29	0x3f758875c350c996	0.005257091533211874
30	0xbf820905c5fe32ff	-0.008806271652952
31	0xbf78a73801fea2a8	-0.006018847256122818
32	0x3f9295b3bb68d4b7	0.018149193109100206
33	0xbfa7f426423acea5	-0.046784587464029394
34	0x3f9c2e4542e659b1	0.027520258148422353
35	0xbf9cc257b35dd3ac	-0.028085108111060172
36	0x3f40392eecac62c1	0.0004950980304299844
37	0xbf9b4319f984c06d	-0.026623159269718522
38	0x3fb08847427faed5	0.06457944272522849
39	0x3f7e8b9ddfa28ec4	0.007457367604874757
40	0x3f6b092d54419dcf	0.0033002744040009145
41	0xbf87c2b3238b4776	-0.011601829073160746
42	0xbf89ab711f426f64	-0.012534030691589933
43	0x3f5c49cc3fa55903	0.0017265791526220326
44	0xbf9da2f66fe65a41	-0.028941965656111405
45	0x3f694ab4a8d0a6e1	0.003087380266625015
46	0x3fa8122589a133cd	0.047013447809696275
47	0xbf393e621a37a747	-0.00038518805578623524
48	0xbf86894f3994fe82	-0.011004084534419482
49	0xbf7c7dc874323494	-0.006955893538486486
50	0xbfb26b5133d5318e	-0.07195003047417556
51	0xbf91227ebe3843c9	-0.01673315082559038
52	0x3f83d320e58b6d0d	0.009680039410730612
53	0x3f98d198c143485c	0.02423704795439395
54	0xbf99dc27650c0b57	-0.025253882925436368
55	0x3fb46ea29403b452	0.07981315721163298
56	0x3fa8481619d826b1	0.04742497506601973
57	0xbfa49fa8eddbbb53	-0.04028060821098358
58	0x3f7caf8602813a60	0.007003329730720681
59	0x3f95635e89bc3656	0.020886876255693153
60	0xbf5dae651ad1e4e0	-0.0018115985251639308
61	0x3fab5eeeb696e075	0.05345865229486516
62	0x3f8eb2fdfeb0a92d	0.014989837965988595
63	0x3fa22e2372d9641e	0.03550825859992578
