COLA_Emulators/PCE/LCDM_PNN_HIGH/MODEL_Z0.275.pth (torch, 60802 bytes, 12 tensors)

layer1.weight f8 [64, 19]
0	0x3fa561db1f0af1d9	0.04176220659198621
1	0xbfb63c152942456c	-0.08685428864761996
2	0x3f9b87568d8743c6	0.026883461368757876
3	0xbfd02170de365a90	-0.25204106998845877
4	0xbfc84a57508f7d25	-0.1897687095033486
5	0x3fb2124e6dec15cd	0.07059183295867584
6	0xbfd80a7f60b8f705	-0.3756407208019115
7	0xbfdaec9d2eefa06b	-0.420691772304514
8	0xbfbfce3a0be3584e	-0.12424052038417807
9	0x3fb8774c7e7f54ad	0.09557035530390819
10	0xbfa59f271f71b328	-0.04222986468162154
11	0x3fb8e7e2f1e29426	0.09728830724141399
12	0x3fa1af683631aec6	0.03454137479351753
13	0xbfb7688550a37e74	-0.09143861025540351
14	0x3f93175ef850edcb	0.0186438407001626
15	0xbf94aa90ed334139	-0.020181908109237787
16	0x3fc305f0a0e8a535	0.14861877304910256
17	0xbfd00774cd29ae46	-0.2504550937216873
18	0xbfcc63f038182900	-0.22179987658484634
19	0xbfa2de7c19cc9392	-0.03685367407732722
20	0x3fcf47aa58c26c6d	0.24437455495794627
21	0xbfb1ea539a268f6b	-0.0699817897171308
22	0xbfd62a60d7b6e041	-0.3463365656457463
23	0x3fd34c6d7863437f	0.3015397716199501
24	0xbfbe8d00c6f45381	-0.11933903558049332
25	0x3fd5ab28e45add9d	0.3385717611340285
26	0x3fd02ded9f62345d	0.2528032356720525
27	0xbfd14bdbdf69a380	-0.27025505845681863
28	0xbfa71972eeced7bd	-0.045116035128941225
29	0x3fa8d615e171f140	0.04850834252372005
30	0x3fd937810f67088e	0.3940127039351261
31	0xbfa3de9527392778	-0.03880754569816153
32	0xbfd2dd9bb5d1eac0	-0.2947758937440703
33	0xbfbe47806e980bed	-0.11827852916762512
34	0xbfcbaae684fbf1dd	-0.2161529683434215
35	0xbfccaf7f0f1db2ec	-0.22410572279058927
36	0xbfb31c1672f9deb4	-0.07464733416588382
37	0x3fc449d8d8bb7e4c	0.15850363333355444
38	0xbfa16fa9f0ee029c	-0.034055052433364014
39	0x3fa72519d3943bdd	0.045204932286757794
40	0xbfd2fe765c864bf3	-0.2967811492500793
41	0xbfc4e06df993997d	-0.16309904753070362
42	0x3fd1b4591865f227	0.2766325701011589
43	0x3fce6fe4bde1ba82	0.2377897193104737
44	0xbfb3b523a075a413	-0.07698271434277641
45	0xbfcba8dc1a589e70	-0.21609069143709148
46	0x3fc4b595d6b07d86	0.16179154379731758
47	0xbf9ec42d6d2d2139	-0.030045232571212586
48	0x3fb4a911e3c51f80	0.08070480166236216
49	0x3f974abc9df46671	0.02274603571013362
50	0x3fb193cbbb562109	0.06866143535274118
51	0xbfbcfe00c8b4b0a3	-0.11325077915234032
52	0xbfa7fb5d6577f03b	-0.04683963645581498
53	0x3fb65bf6dbf93fd2	0.08734076376390412
54	0x3fa0af3efb4c92d7	0.032587021042024204
55	0xbfc272fcaeaf2a88	-0.14413412599090614
56	0x3fc35c396626fa36	0.15125195968535515
57	0x3fb17dbc5a7d490b	0.06832482537473454
58	0x3f78eceb37df6de4	0.006085318394947834
59	0x3fc58c7edad61d5e	0.16835008321161643
60	0xbfc3353f78a61cff	-0.15006249800737945
61	0x3faaf9437c836f5b	0.05268298048915084
62	0x3fbb74276a92d8d6	0.10724111892600105
63	0x3fcc9adf17a9614f	0.22347630172113006
64	0x3fa5b853389bfff0	0.04242191377670668
65	0xbfd039627804ae29	-0.2535024807027378
66	0x3fbffb38bce0eea9	0.12492708789153063
67	0x3fbaec4476b38af0	0.10516765497190383
68	0xbfb7f06245511f6c	-0.0935117167692831
69	0xbfc0a3fdba50f1e3	-0.13000461194486865
70	0x3fb22a7de02f5265	0.07096087191832508
71	0xbfc603b22b4e0a35	-0.1719877921533041
72	0x3fb0a418d3dec6d8	0.06500392124760468
73	0x3fa2bdeb72aa32e8	0.036605222460911524
74	0x3fc1054c78093945	0.13297420369276317
75	0xbfb29255a97c95a1	-0.07254538905961862
76	0x3f9c092395de16d3	0.027378612539471114
77	0xbf6e492f264af546	-0.0036970063104876686
78	0x3fb073c0f0f495c3	0.06426626093578762
79	0x3fc32948557b4682	0.14969734357741876
80	0xbfbe9a6ccfb0444f	-0.11954383917351773
81	0xbfcb5dfc26f6a3a8	-0.21380569365035496
82	0x3fe2429edac40089	0.5706323883787415
83	0x3fc0eb251632084b	0.1321760519386451
84	0x3fc9625efa81778b	0.19831454498028864
85	0x3fdbc4cdd0bcddb9	0.4338869608359022
86	0x3fbcaac6287c7b0b	0.11198080528673075
87	0xbfce43493ed9ed03	-0.2364284092799168
88	0x3fd9885539bcd1d9	0.3989461006015325
89	0xbfca2c91a6d94b2d	-0.2044851364795134
90	0x3fb4e7f83fd7533b	0.0816645770895094
91	0xbfb6ea2d5cbd2626	-0.08951076044208914
92	0x3fc9a9b0041e6905	0.20049095345604698
93	0xbf90f148e34ec2d7	-0.01654542815566881
94	0x3fd9b1f5ca7a6c51	0.40148682378066264
95	0x3f9a1986d450808b	0.025488001545568777
96	0x3fcc9859b67a5fd0	0.2233993664747218
97	0xbfc03df03f4f9e89	-0.1268902119766049
98	0xbf35890fdec7532b	-0.0003286041017223513
99	0xbfbf6f452aed84ee	-0.12279159830133654
100	0xbfb32eedb63bcf5f	-0.07493482302726083
101	0xbfce91b52dc098e9	-0.23882164701462408
102	0xbfa6d106fff98637	-0.044563502070343146
103	0x3f5accc92ec84168	0.0016357388186670433
104	0x3fbe712522d3ede3	0.1189139566449096
105	0xbfc0ed48d32aacf8	-0.13224134741663085
106	0xbfb109d52ff9014e	-0.06655628606040873
107	0x3fc4e0171272df40	0.16308868790451392
108	0x3f83e6ebe7d2021b	0.009717791568847159
109	0xbfd43984b58112e3	-0.3160106441976451
110	0xbfbf464599bca229	-0.1221660137495141
111	0xbf9a8c6ded4b35da	-0.02592632065607412
112	0xbfc317474d50aa5a	-0.1491479041590818
113	0x3fc772a5b23b09ea	0.18318625643412584
114	0x3fabee6d3357df4b	0.05455342532871884
115	0x3fb33228a327bb6b	0.07498411162644707
116	0xbfb758a06b8d7c25	-0.09119608522222274
117	0x3fbfe78ab459daa3	0.12462679770565414
118	0x3fb180a98b91c243	0.0683694806809934
119	0xbfcccfb41b328a35	-0.2250886090087804
120	0x3fa2f71ab7056233	0.0370415066160529
121	0xbfda82957fd0014d	-0.4142202137154712
122	0xbfb7c7d25458fdcf	-0.09289278563755164
123	0xbf240fb0f85a9d92	-0.00015305552749576547
124	0x3fbeea973dfbdb1f	0.12076707137371699
125	0x3fc0809d1fe0fbb3	0.12892498070320144
126	0xbfbb59cfd78c4bec	-0.10683917057421838
127	0xbfc36e83dc55c148	-0.1518101526121518
128	0xbf92fafdb0ca46e5	-0.018535579600729064
129	0x3fb54c2ef0fc0354	0.08319371589096863
130	0xbfcb6e3bbbb7a6d5	-0.2143015543545547
131	0xbf86ac850e5f4f33	-0.011071242810352188
132	0xbfbf47084178304d	-0.1221776161038985
133	0xbf71cb1defa2cb59	-0.00434409803181065
134	0xbfaad94b5df893e4	-0.05243907472712531
135	0x3fd12b0dc02c5145	0.2682527901354386
136	0xbfb0c1b9c86f03df	-0.06545601981544234
137	0x3fa1c31c838ef9ee	0.03469170671404585
138	0xbfc3cb6f5c3dc880	-0.15464584354373656
139	0x3fbaa442991c8b29	0.1040689109618539
140	0x3fccb4f93a9238c5	0.22427287444992863
141	0x3fc17ef2e6d77ba1	0.13668667098587853
142	0xbfc5847d386222ec	-0.16810574772923503
143	0x3fb8c0581dde0e55	0.09668493966278764
144	0x3fcc1890b9d1c7b1	0.21949967454162114
145	0x3fc00e62115f1ed0	0.1254389366933908
146	0x3fcebe6f0966b9bd	0.2401865764526984
147	0xbfbafbf1409fe904	-0.10540683582067706
148	0x3fb608d50135d382	0.08607226638362245
149	0xbfb3b21677bb0dcb	-0.07693615363228117
150	0xbfca57742ba692cd	-0.20579387790089357
151	0xbfcc83fa4b814f4a	-0.22277764021657226
152	0xbfb5b61257ff7f13	-0.08480944298161956
153	0x3fc056fdc788ef9b	0.12765476458468758
154	0x3fd6614d3c5088de	0.3496888245591786
155	0x3fbbec90b46091a3	0.10907844928494241
156	0x3fd0c0f07a56e264	0.26177608439642186
157	0xbfca30288b144f2b	-0.20459467688544328
158	0x3faa79943c0be810	0.051708824472328385
159	0xbfd4eac6a840c334	-0.3268295901389593
160	0x3fb9d4cf77e69ef1	0.10090347935931356
161	0x3fd08c79b4cd227b	0.25857393890741037
162	0x3fbb71c18c0b88eb	0.10720452946728513
163	0x3fb03385da7ed66b	0.06328617653238104
164	0xbfc21c1b96bdc153	-0.14148278103267362
165	0x3fd79ff5f78727e2	0.3691382329239997
166	0x3fb86a8809d1fb2b	0.09537554015876697
167	0xbfd03da7860de82e	-0.25376308528177816
168	0x3fc3699f15c16caa	0.15166081011088767
169	0x3fb8ac1b6e402481	0.09637614671386709
170	0x3fc189689ceba8ad	0.13700587904106012
171	0x3f9de1354ab7c9f0	0.029179413495464546
172	0x3f87be4bb148fba3	0.011593428943454337
173	0x3fabd579f29d8e48	0.05436307036032112
174	0xbfe093f8dfcbffb9	-0.5180630084068901
175	0xbfc2a05057a24213	-0.14551739005084183
176	0x3fd0727b4d4f2521	0.2569874052974957
177	0xbf6a51e17d7b7914	-0.0032128719429770445
178	0x3f7766ec638e726c	0.005713389772520654
179	0x3fb7b8c2985c6c2d	0.09266296596290209
180	0x3fc4820317564083	0.16021765365121973
181	0x3fc80745b3c804bd	0.18772193220505598
182	0xbfb2ecbd3c94e924	-0.07392485360188467
183	0x3fca97cc39fcc67e	0.20775749999443244
184	0x3f9f0143ecca9b6e	0.03027826435814112
185	0xbf97bc24235d047a	-0.02317863908615834
186	0x3fb49518155fd03b	0.0803999950583724
187	0x3fc74f3d5836d005	0.18210570151643438
188	0xbfd2d6526f7aefaf	-0.29433117758503163
189	0xbfa2b2535176ef14	-0.03651676530304662
190	0x3fae25ed24be4485	0.05888310502553743
191	0xbfa56fd3af3e8f12	-0.04186879648412235
192	0xbfc8751dddbed142	-0.19107411696826132
193	0x3fd21f52ebcbe6ee	0.28316185976983277
194	0xbfca9a572d976a29	-0.20783509946962056
195	0xbfd82c09bd163cdf	-0.3776878687430791
196	0xbfbc16b6539cdab9	-0.10972156087232578
197	0xbfbc609383961749	-0.11084863627010323
198	0xbfc96f7f228d91d7	-0.19871510684164548
199	0x3fbe8cfb81c6439a	0.11933872145006177
200	0xbf87d50efe5d12b7	-0.011636845719871542
201	0x3f9b841f8e10dc29	0.02687119774438088
202	0xbfcbcbb1f1bfcf58	-0.21715378097689597
203	0xbfc0461548ed1f69	-0.12713876782276692
204	0x3f83da93473d5f92	0.009694243060650174
205	0xbf924556896da3ea	-0.017842628610569657
206	0xbf996fb0ee00b50d	-0.024840130354438595
207	0xbfc93dc4c3133ddc	-0.19719752812532831
208	0x3fca4304a6a43978	0.2051702321700295
209	0xbfa945c560f6d396	-0.04936043556828122
210	0xbfbf2c5e3a1051dd	-0.12177075307437897
211	0x3fb4ce8d07cffd41	0.08127671662076798
212	0xbfbcce20c87273cc	-0.11252026456573033
213	0x3fba82f8157e0b86	0.10356092953411009
214	0xbfc35e1d051edd42	-0.15130961179759522
215	0x3fc6352022f86d49	0.17349626262226028
216	0xbfd0db35d4fd39dc	-0.26337953376505907
217	0xbfc215cfe8376a77	-0.14129065359778156
218	0xbfc1673f2f371bef	-0.1359633427184401
219	0x3f9d06d634c56fa5	0.028346392603779375
220	0xbfc6aa1611fc9c39	-0.17706561926135736
221	0xbfc5fb8253e5063f	-0.1717379483834964
222	0xbfa0cb6821a2aadb	-0.03280187044705026
223	0xbfbf386f07c0466f	-0.12195486010775779
224	0xbfbb235d377fce4b	-0.10600836377107574
225	0x3fbdf50925ec2173	0.11702019859160888
226	0xbfcbce302683eea6	-0.21722986107476067
227	0xbfa319f584b6289d	-0.03730742688192488
228	0xbfadfe1bb179e3c8	-0.05857931653458298
229	0xbfabca6a52d9981b	-0.054278681386492354
230	0xbf9e6c661b87ddfc	-0.029710383825628725
231	0xbfc778dd45fcb445	-0.18337598721828577
232	0xbfcd4ccb9522227c	-0.22890610486890128
233	0x3fc2c7775a74948c	0.14671222607390566
234	0xbfb616d4e62fa060	-0.08628588313843144
235	0xbfd3cb5a502886ed	-0.3092866690441117
236	0x3fa470e74cbf2435	0.03992388545845708
237	0xbf7f8f33b211db45	-0.007704927383307252
238	0x3fa9e52ecf4aa25a	0.0505766513863974
239	0xbfb29ee6c9894169	-0.07273714466396587
240	0xbfd1f8139b94bb89	-0.2807663935990879
241	0x3faff55fffe6495b	0.06241893767141234
242	0x3fbb228f0419d204	0.10599607324713395
243	0xbfc95c9c3900910d	-0.19813874038039395
244	0xbfb46929f1c88627	-0.07972967293655896
245	0x3fcb8b185ceaa792	0.21518234764999683
246	0x3fc0f8057c72e2dc	0.1325690133724241
247	0xbfb1d8aef96fe872	-0.06971257772230091
248	0xbfa689df469be4aa	-0.04402063118863826
249	0xbfa13447d60f3d39	-0.03360199440032336
250	0xbfd315dcd5ed6bf0	-0.2982093896040956
251	0x3fca7133937968aa	0.20657963467494272
252	0x3f7b1575534c7fc9	0.006612261106766889
253	0xbfd091d4c9300e03	-0.25890082976567913
254	0x3fc3ffc0f2ad4e8d	0.15624248361074358
255	0xbfa0e995894d2bde	-0.03303210545580958

layer1.bias f8 [64]
0	0x3fb58e23704d3500	0.08420011035669361
1	0x3f903229a3d6cd43	0.015816355347579202
2	0x3fab3b48a2efcfa8	0.05318667401289129
3	0xbfb133282b794811	-0.06718684255000108
4	0x3fc442c62fb9f078	0.15828778581988323
5	0x3fa3c8ae637f512c	0.038640451093359424
6	0x3fb2f99d9570087c	0.07412133119945169
7	0xbfb6dc75ffef6b10	-0.08930146692675245
8	0x3fd08b9131cccbfb	0.2585185037925723
9	0x3fcd46d579d03898	0.228724178771192
10	0x3f72619750c31c84	0.004487601352770491
11	0x3fc6c9c80488bcf5	0.17803287717240548
12	0xbfbc2431e8eecdc0	-0.10992729126774403
13	0xbfb0c9a5d5227ce6	-0.06557690099224409
14	0x3fc6d634f0ec9b6a	0.17841207279090138
15	0xbfa42a4a02ebf164	-0.039385140282294256
16	0x3fa1825325e847bd	0.034197424294816404
17	0xbfbec8e26fbd836c	-0.12025275447878209
18	0x3fc1230c21ec0515	0.1338820615419897
19	0xbfba529dd2c7036e	-0.10282312770779153
20	0x3fc924e6ea27814d	0.19643865998569723
21	0x3fc6d64d6e045693	0.17841499206467812
22	0x3fcc76ac6f6dbc40	0.22237163010456307
23	0x3fc7ac95f7a92799	0.1849544009476716
24	0x3fd18e3c23eb3623	0.27430633075423055
25	0x3fab07e755266e92	0.052794675010969475
26	0xbfbf300a6e7bbe1b	-0.1218267936453618
27	0xbfb5c824bb55d88d	-0.08508519719711867
28	0x3fc407ae8ff9a923	0.15648443250695107
29	0x3fade54ef1dcd28e	0.05839010908531349
30	0xbf92ec1e9a141737	-0.01847884955807119
31	0xbfc2039d05cfe2f0	-0.1407352712992842
32	0xbfafc462a9c97d0c	-0.06204517672153473
33	0xbf75bb444222a68d	-0.005305544504304327
34	0x3ff092f547262c61	1.0358784465086261
35	0xbfc2968baf37e2bc	-0.1452192884023783
36	0xbf76dc5e2785d2ef	-0.005581252852029136
37	0xbfcca12d605ba03f	-0.22366873936630502
38	0x3fab80043221bcbe	0.05371106254539758
39	0xbf869775c164316d	-0.011031074489914439
40	0x3fe0dd291228fde8	0.5269971232118538
41	0x3fb1081e2d0e8b40	0.06653011894244987
42	0x3fca9e715b852a24	0.2079602906108714
43	0x3fb02b509da71934	0.06316093300765574
44	0xbfb1d18cb6a2383d	-0.06960372408704614
45	0xbfc4b91ef719d3da	-0.16189944329712952
46	0xbfb0dd6e059bede3	-0.06587875019970783
47	0x3fb09cf7c3ef8356	0.06489513906082087
48	0xbfc075b261055147	-0.12859182107298237
49	0xbfcaa460b1d3184f	-0.20814140971032422
50	0xbfb09018626d407f	-0.06469871905324175
51	0xbfbbe6a762e04a9b	-0.10898824848144743
52	0xbfaf4eb07b9c23c9	-0.06114722737226647
53	0xbfaeac7524b0ef7a	-0.059909497002506876
54	0x3fc7b9d51f35a088	0.1853586580648463
55	0xbfb02d5eea268755	-0.0631923028618336
56	0xbfbf45ad2f4012b4	-0.122156929050173
57	0x3fb1d00ff64a6513	0.06958102953867167
58	0x3fc10530d310fa64	0.13297090822193802
59	0x3fdb3884eb91f9fd	0.4253246593943059
60	0xbfac3ec6868d758c	-0.05516643898475157
61	0xbfa1b813b0b1dc0a	-0.03460752040785316
62	0x3fc75219b312ec1c	0.18219300502627866
63	0xbf7acdd1a9df218f	-0.006543940542492867

custom_layer.alpha f8 [64]
0	0x3fe5ab1f5294a39b	0.6771389592077982
1	0x3ff2d9a7ddfd01bd	1.1781386062067292
2	0xbfd583f66f0eb133	-0.3361793598694646
3	0x3ff5f6b27d63a7cc	1.3727288148897854
4	0xc002270167bd5d2d	-2.269045649019651
5	0x3fe70177151bf24e	0.7189288532532119
6	0x40011120181113bd	2.1333619957171934
7	0x3fe657ec5a0439da	0.6982328184256474
8	0x3ff0f84a9386c122	1.060617996478023
9	0x3feca3cf52c6cd2f	0.8949963204126216
10	0x3ff34f0b7bdff659	1.2067980612622675
11	0xbff6e61a43b852fb	-1.4311773915589459
12	0x3fda400027821467	0.4101562867948076
13	0xbfd0f0e2153ac9c7	-0.2647023398705212
14	0x3ff3afded123dfd1	1.230437104180954
15	0xbff7e1b9360d71f5	-1.4926082717348639
16	0xbfefd2c68f782e3f	-0.9944794466150099
17	0xbff3e1442682c182	-1.2424966339422956
18	0x3ff348b235f38587	1.2052480800124117
19	0x3fe23db8ec275fac	0.5700344669703461
20	0x3ff13fd6fe7532cd	1.0780858936079085
21	0xbfe55c6a4727a2c7	-0.6675311460249639
22	0xbffa532cf1f68609	-1.645306534927274
23	0xbfdb5665912c736d	-0.42714823891747394
24	0xbfe5b52eaf1c392d	-0.6783669872400303
25	0xbffe8553e0b53d24	-1.9075506951956607
26	0xbfcf0dc8bb697d65	-0.24260815764408075
27	0x3fe23a55c9096edf	0.569620983743757
28	0x3fe3b1b3bf46e996	0.6154421554449978
29	0x3fd02e5556f1be4e	0.25282796373992233
30	0xc0035c22796ae533	-2.419987629484831
31	0xbfc74edf42465d40	-0.18209448562695663
32	0xbfd435f2e656f109	-0.31579277509787623
33	0xbff1c25e6c804c81	-1.1099533308340883
34	0x3fd1c24baab3cdd4	0.2774838606848935
35	0xbff4f4ff277ef823	-1.3098136465846515
36	0xc00603b6fede0aa2	-2.7518138801109027
37	0x3fd5b3fafd6df168	0.33911013363810705
38	0xbfd918cbc9434904	-0.3921384301621773
39	0xbfd8c98835d0b838	-0.38730054145242176
40	0x3fe0d461432a39a3	0.525925284558799
41	0x3f77c64736553c13	0.00580432717590808
42	0xbff8d755edd1b716	-1.5525721826374528
43	0x3ff1643537040e13	1.0869648121887436
44	0x3ff234303c72f745	1.1377413140575794
45	0x3ff6e579d6dec8ca	1.4310243981713477
46	0xc0010baebcc9d475	-2.130704378995285
47	0x3fe96190d27586dc	0.7931598768738826
48	0x3fd48ead454032ec	0.3212083030964965
49	0x3ff06df88aeb2d7a	1.026848356867815
50	0x3fc17e044b4f5ec3	0.13665822674987824
51	0x3fe750f4d5e369c8	0.7286323716646672
52	0x3fdacf6ecb15f963	0.41891069252587537
53	0xbfdbbb8e7172e9f2	-0.4333225353144875
54	0x3ff2ead81b049f8d	1.1823350005524589
55	0x3fe1b07c581b6868	0.5527936669198086
56	0xbff4d447226a33ae	-1.3018256515817757
57	0xbfea134633549830	-0.8148528101489827
58	0x3fea862564c99dbd	0.8288752525813191
59	0x3ff71757a2f95cae	1.4431988111662508
60	0x3fd752023539236a	0.3643804092176227
61	0xbfea271aada34558	-0.8172734633791761
62	0x3fe31dfede0ed6f4	0.5974115693158795
63	0x3fc3c0630b472aab	0.1543086819713911

custom_layer.teta f8 [64]
0	0xbfe27d3960c9fa31	-0.5777861490640303
1	0xbfb3269e54b8ef33	-0.07480802124422041
2	0xbff4fad12f93e91d	-1.3112346514231554
3	0xbfee33d445d2a339	-0.9438268054701445
4	0xbfe1dd3c8cb18ebf	-0.5582564113542147
5	0xbfd9007c6c57b16e	-0.39065466480567224
6	0x3ff4ad427e668826	1.292299741508495
7	0x3ff99e1da2c32c50	1.6011024816423465
8	0x4000248d52edc7c1	2.0178476790251527
9	0x3fd7fd4847379a20	0.3748341269951272
10	0x3fd5f2422898a971	0.3429112812470044
11	0x3fb30f76c1cde21a	0.07445471030758491
12	0xbfc6a31d6786ee6e	-0.1768528705123233
13	0xbff0908eaed78941	-1.0352923230899054
14	0xbfa74e3bf47daf5e	-0.04551875457295183
15	0x3ff5f773c2872e06	1.3729131315948293
16	0xbfd36ca718874e24	-0.30350663562168934
17	0xbfe950daba343e28	-0.7911199223326024
18	0x4000744a22265135	2.056782023233746
19	0xbff103dba550bf8d	-1.0634418923982338
20	0xbfe235eb56fd9188	-0.5690819453271141
21	0xbff1453d1aad0c62	-1.0794039766340338
22	0xbfe43fa6c2c945bd	-0.6327699474733702
23	0x3fee74ce78fd0380	0.9517586100629245
24	0x3fdf9d61dd00d7ab	0.49398085195877667
25	0x3fcc355a84ee10bf	0.22037822237701296
26	0xbfe9d9d319ada595	-0.8078399182824564
27	0xbfdc4606e1e16376	-0.44177410181651255
28	0xbfd8039dce5e3b03	-0.37522072938092793
29	0x3fef9012a578528a	0.9863370162807581
30	0x3fd81fa29be27f69	0.37693085883255734
31	0xbff02dd38d3d6ca5	-1.0111880795655364
32	0xbfe0c32511c5c51c	-0.5238213870162869
33	0x3fc179e76d10a8ef	0.13653271508639572
34	0x3ff99d00ee39e3f6	1.6008309655865083
35	0x3fc674eac6134418	0.1754430262722344
36	0x3ffcc3b419653f98	1.797779177857569
37	0x3ff142cac343882b	1.0788066508762408
38	0x3fe075034ae53893	0.5142837965775179
39	0x3fdad621314b1b12	0.4193194371586496
40	0x40010213c7c21d14	2.126014290439011
41	0x3fcc42620b896a2a	0.22077584803885603
42	0x3ff9b18099ba9fc0	1.6058355336226526
43	0xbfbe7fe0f5fa1cd3	-0.11913877492235096
44	0x3fa9f5b2052ddaf7	0.05070263207647046
45	0xbfd82134c852dd66	-0.3770267444883387
46	0x3fd9d27e32fcc49e	0.4034724710391603
47	0x3fd0a2529fb3e0d3	0.25990739437066884
48	0xbfeed970951ba9ec	-0.9640429413096263
49	0x3fea6312baef9c7e	0.8245938922017471
50	0x3fdcf2831d11c55d	0.4523017677193673
51	0xbfd10295255e167f	-0.2657826294820111
52	0xbff73ffa0c6e8e7a	-1.4531193242663947
53	0x3fdab1e98e36e82e	0.4171089066327366
54	0xbfec3793d3d6bbf2	-0.881784356830279
55	0x3f956ba913e84a76	0.02091850456242602
56	0xbfe9ba93791df34b	-0.8040253987852365
57	0x3ff0ba88044c7cff	1.0455398719712432
58	0x3fc217889f13d252	0.1413431908364538
59	0xc000517b48506297	-2.0397859239131537
60	0xbfe0c2a09c1746ea	-0.5237582253123183
61	0xbff468c510adb886	-1.275578560972947
62	0x3fce6a2a6cd269a7	0.23761492074556864
63	0x3fdb6b8a0b032235	0.4284386737386144

custom_layer.gamma f8 [64]
0	0x3fb3bc4e454b240b	0.07709206763969705
1	0x3fc449b6706450f8	0.15849953163036168
2	0xbfc51990b21f3d3a	-0.16484268853535317
3	0xbfadb611a117f3a4	-0.05802970019792689
4	0xbfc0d4b91e3a57eb	-0.1314917943570316
5	0x3fa76251da853a96	0.04567199509130153
6	0xbf8c648e1ad6e391	-0.013863668626855648
7	0xbfb6def623f98d68	-0.08933962229052883
8	0xbfc678683f5ef1f3	-0.17554953665047854
9	0x3fafc52477cb169c	0.06205095255203938
10	0x3f9ca322b8334242	0.02796606301564198
11	0xbf9cdcecf297f3e6	-0.02818651419328324
12	0x3fb22fb89060f769	0.07104066395637933
13	0xbfa2374bdca7c43f	-0.03557812756106004
14	0x3f9713cb164356ba	0.02253644297964883
15	0xbf8345894bb8a261	-0.009409973738983614
16	0x3fa410d9d67b9340	0.039191062385532494
17	0xbfbc8b2bc4339ead	-0.11149858036116696
18	0x3fb7fd0fb4746fba	0.0937051597178983
19	0x3f9b0e7924da0e0d	0.02642239844727894
20	0xbfa752d0a42b21fe	-0.04555370334634644
21	0xbf93aa955b2c2737	-0.019205411615110548
22	0xbfc87f82c95e6689	-0.1913913233991489
23	0xbf5089cddbdaf8f6	-0.0010094175662938554
24	0xbf813a0807bcef49	-0.008411467300554103
25	0xbf9e2cac450f476e	-0.029467288699215492
26	0xbfad8d62ade9b6d4	-0.05771931050263182
27	0x3fae2f185dca0d18	0.05895305771721321
28	0x3fc4398e4e5b77c8	0.15800646616020075
29	0xbf802270331e7b00	-0.007878185806303062
30	0x3f90563e9f2b295d	0.01595399710166966
31	0xbfb7d920c1d9698a	-0.09315685970924484
32	0x3fa0cbc5f993927c	0.03280466720187733
33	0xbfa74624ce5e0a64	-0.04545702952511446
34	0xbf9e033c3fff5e80	-0.029309216886615364
35	0x3f996ed62ae1409a	0.024836870543652446
36	0xbfaabed95e91375a	-0.05223731307397257
37	0x3f5cd9cfea1cfed1	0.0017609148421370744
38	0xbf6f0cd04e6daae7	-0.0037902897342311117
39	0xbf9cd1e50c5d8a56	-0.028144434814189566
40	0x3fac1ec0f65a3053	0.05492213256101821
41	0x3f78c298dbd56474	0.006044957260507567
42	0xbf73a959d456726a	-0.004800177475229187
43	0x3fbc96a938fcd5f6	0.11167390481281089
44	0xbf70d2c4ed89d883	-0.004107255219983344
45	0x3f9bb6f9d2986e03	0.02706518504974832
46	0xbf7919621f1cfaa1	-0.006127723014116044
47	0x3f727c15ce711e23	0.004512868100455178
48	0x3f9ef3255ec8f016	0.030224403295719147
49	0x3f86c6782d3468b0	0.011120737914599083
50	0x3f81a6475a53ae18	0.008617932743127318
51	0x3fb555ecc7c503ed	0.08334236027896198
52	0x3fb5c8e882b2a6a0	0.0850968665205536
53	0xbfa099eedf7349ef	-0.03242441632905357
54	0x3fc15c6c8168b594	0.13563305205154264
55	0x3fb33ae4c60e66a3	0.0751173957381988
56	0xbfac263b81e23257	-0.05497919044964721
57	0x3f6a90a6de40e47f	0.0032428034919829703
58	0x3f7a1f9f4a6bdcb9	0.006377813557939032
59	0xbfa99b4398897788	-0.05001269566558536
60	0x3fc529e065ff737e	0.1653404710804373
61	0x3f744fa5f3389b7b	0.0049587709832284955
62	0x3fc54a1e591ac662	0.1663244185524944
63	0x3f15fc238c644ae7	8.386580438849885e-05

layer2.weight f8 [64, 64]
0	0xbfca668f038fd4e3	-0.20625484155576776
1	0xbfaa664670ee6eec	-0.05156154755169759
2	0xbfb328a5a23affae	-0.07483897410111126
3	0xbfbe45e519b91d0c	-0.11825401189809187
4	0x3fcc7cba384bf458	0.2225563788305489
5	0xbfa2217677504b38	-0.0354115505835097
6	0x3faa7f4633ed004e	0.051752275312992965
7	0xbfb55f0e21cf4461	-0.08348167729788393
8	0x3fa020a4e93ccf27	0.031499055358294385
9	0xbfd02489e64a4508	-0.2522301434447205
10	0xbf8685e74aa841c5	-0.010997588125094002
11	0xbfbf026db1dad259	-0.1211308058944466
12	0xbfc25f5b4b5b72b4	-0.14353505305816372
13	0x3fc0745bdf1a0d09	0.12855099099770254
14	0x3fcd6c23d633fe75	0.22986267050872625
15	0x3fa802c9eca7bc80	0.04689627660615603
16	0x3fb3f33322696116	0.07792968359115479
17	0x3fb1a6ab4e6d68cd	0.06894941963892905
18	0xbfce3b85d973dcf1	-0.23619149320413826
19	0x3fb162988d39c656	0.06791070411579744
20	0x3fcccb15c65a5f8d	0.22494766411977843
21	0x3fc809eafc530d99	0.18780267067459702
22	0xbfc20b4eca0384fe	-0.14097008575394193
23	0xbfba2ceccc8e8c36	-0.10224800104201467
24	0x3fa32def2a428f61	0.03745982542866844
25	0xbfb0cc88f9fd7c0c	-0.06562095740581259
26	0x3fb0a81a11251ca2	0.06506503027513813
27	0xbf859fcd66b0bf6c	-0.010558705040324155
28	0x3fbcd7919a7bfc7b	0.1126643182906139
29	0xbf8bcf928783d5fb	-0.013579506645764452
30	0xbf75707bf896ba78	-0.005234226476587105
31	0xbfc47c0a5c0ccd5e	-0.16003541464452103
32	0x3fc9bf64474cb9ef	0.2011533115523458
33	0xbfc5d0dac1bb2e91	-0.1704362340882324
34	0xbfcbff061d949876	-0.21872021145208337
35	0x3f91e8e3c10ba2bf	0.017489966065940218
36	0x3fa4561ac8075d37	0.03971942607648276
37	0xbfd09d7f262ec5d8	-0.2596128342512123
38	0x3f95416d222ce462	0.020757394038103512
39	0x3fc8dad9bebf216f	0.19417878927039164
40	0xbfa35652010c1be9	-0.03776794684204516
41	0xbfb68a6bf9474b0b	-0.08804964862728697
42	0x3f7ccd405de83d72	0.007031680519971816
43	0xbf964cba1f0ef13b	-0.02177706541600453
44	0xbfb6723ec4a3b61b	-0.08768074322480184
45	0xbf9189c593c17cd1	-0.017127120154665946
46	0x3fb0168359a90370	0.06284352244348468
47	0x3fac1435432525e8	0.0548416752304311
48	0xbfc33973061b9c89	-0.15019071386561603
49	0xbfbd832c2da7f2fd	-0.11528278460168546
50	0x3fb2df1074b1d57a	0.07371619080534755
51	0xbfccb83ff35463f3	-0.2243728578694398
52	0xbfb1de4539cc9438	-0.06979782734977469
53	0x3fb594f1521b8de3	0.08430393461781409
54	0xbfc2b2c2045b5b74	-0.14608025753724585
55	0xbfb01d5150ebb57c	-0.06294735169986682
56	0x3f80db68e12388a4	0.00823099076336959
57	0x3fb739b46128eba7	0.0907242524344115
58	0x3f9a073c4c84c25f	0.025418226404499197
59	0x3fd3688ef23b6cb2	0.3032567372844809
60	0xbfc4e9ef0d470a8c	-0.16338909290614756
61	0xbfbb0960a1a3d8da	-0.10561183878221261
62	0x3f7533b7810d8631	0.005176274121227163
63	0x3f822681e7375afa	0.008862509602221891
64	0x3fb634542d885c31	0.0867359744228089
65	0xbfc098c928e1e1c6	-0.12966265197952803
66	0xbfa2bc9b568c36ec	-0.03659520560732496
67	0xbf70fbf451735fa9	-0.004146532409514161
68	0x3fac28963b71ed73	0.05499715304992039
69	0xbfbc90761789a59a	-0.11157930445337741
70	0xbfa12c6034994971	-0.03354168550562776
71	0x3f83896612354331	0.009539411001840388
72	0x3facf04a6e6ef07e	0.0565207729154915
73	0x3fa02e0bd82a1497	0.03160130513882924
74	0xbf9cebac1066c0e4	-0.028242767811833228
75	0x3f9f980841c78b62	0.03085339452253367
76	0x3fb54f1ab14886e3	0.08323828533368842
77	0x3fb50f3c4b1a3922	0.08226372560077214
78	0xbf9583190a90e77f	-0.02100791098585075
79	0x3f92dbec7fe7d62b	0.018417067820300097
80	0xbfba0d3ccd11b574	-0.10176448828288703
81	0x3f982e64078877f9	0.023614466628821138
82	0x3fac600a33ca0ff6	0.05542022592729261
83	0x3f876308937e8061	0.011419360161937843
84	0xbfadd5e0f9a843d0	-0.05827239081930424
85	0xbf9a6cc0b8159433	-0.0258054840427528
86	0xbfa582b6ce4733eb	-0.042012894325672644
87	0x3fb16c9e8f4f38f3	0.06806365011945896
88	0x3fb412df2010631d	0.07841295750439455
89	0x3fb747fb65bf4c74	0.09094210847915624
90	0xbfc1819fecadab68	-0.13676833206713046
91	0xbfb7824f8e359ec6	-0.09183213445578095
92	0x3fbe3f18cfb2acb0	0.11815028258085891
93	0xbfa8234a3e628a66	-0.04714424144301148
94	0x3fb21840fe63a722	0.07068258486438286
95	0xbfa0e09415393b64	-0.032963397589461235
96	0xbfc8eed27ef5997e	-0.1947882766646209
97	0xbfa4b906e44d93e5	-0.04047414338018721
98	0xbfa9aebd1b726f42	-0.050161275482621295
99	0x3f9ee1002caf9ba9	0.030155184485831352
100	0xbfb43c0d3ac2a0e9	-0.07904131588532305
101	0xbfa1f4b8316cf7bd	-0.03507018664684789
102	0x3fb687bea3d414b4	0.08800879955022617
103	0xbf94419a0261964a	-0.01978150023969353
104	0xbfb3682f5afe2b80	-0.07580848666672857
105	0x3f923e7784b3a347	0.017816417192906966
106	0xbfa70cc0f22144d0	-0.04501917796791022
107	0x3fbc9a45a0f84b50	0.11172900371483974
108	0xbf94d67d59bc57ec	-0.020349463083299144
109	0x3fa401ff137551bd	0.03907773125198186
110	0xbf7e2f563c9286c8	-0.007369362699280742
111	0x3fb11e42c44e092d	0.06686799328420952
112	0xbf72a659426b6e40	-0.004553173703893132
113	0x3fab197967421974	0.05292872796512685
114	0xbf968d06950d2331	-0.022022345397348878
115	0xbfb99534a9315ed5	-0.09993294840512175
116	0xbf998e85ee227e8e	-0.024957745227423937
117	0xbfba5918a9563b40	-0.10292200216484293
118	0x3f96aa6f4e16291e	0.02213453210928506
119	0xbfb54d0e8756e4a1	-0.08320704273400505
120	0x3fb1d68db4e69a44	0.06968007723353603
121	0xbfb55b0a02ccb316	-0.0834203965029697
122	0xbfc40bb8218245aa	-0.15660764347243844
123	0x3fc2a625a991b6d0	0.14569540767427336
124	0xbf8c08640a56ed48	-0.013687879148042939
125	0x3fbcb10c2fefe96e	0.1120765320810386
126	0x3fa5c2de6c1d87fe	0.04250235624091657
127	0xbfb1fe43494c929f	-0.07028599299935444
128	0xbf9292c4fa3babef	-0.018138005993858227
129	0xbfd342ec3c2dc295	-0.30095964314299667
130	0xbf909ad5b7e40d83	-0.016215648030095686
131	0xbfbbae49da93f306	-0.10812818132758303
132	0x3faf24a609eac935	0.06082648154314755
133	0xbfc251ccab572106	-0.1431213223097602
134	0x3fb515184bb2a702	0.08235313270656877
135	0x3fb90ed08d01f70e	0.09788230364389625
136	0x3fbe935f232209b9	0.11943621261347105
137	0xbfb73140602f69aa	-0.09059526775619156
138	0xbfc06f91cb3f5adb	-0.12840483116334309
139	0x3fb1f6b126b88b44	0.0701704711469065
140	0x3fb16accd94d2b2f	0.06803589158259336
141	0x3fb6a7fda8613a86	0.08850083695254271
142	0x3fa6829f59aeaabc	0.04396532029871511
143	0x3fb904ac692af23c	0.09772756164142832
144	0x3fb7504fecd148b3	0.09106921703031183
145	0x3fc5691ee1d1d1d3	0.16727052713726084
146	0xbfcb434716b1181d	-0.21299065216061389
147	0x3fba0ff021278ab8	0.10180569467005796
148	0x3faf4c4d96ae693f	0.06112902130481012
149	0x3fa65c3cd970347d	0.04367246774936804
150	0xbf7a1b9c20fc6c13	-0.006373987081839355
151	0x3fa3018adc028fe9	0.037121142727556684
152	0x3fc000a5758bc31b	0.12501972426937233
153	0xbfabc79a7ad69346	-0.05425722836961326
154	0x3fb64f084b3dc124	0.08714343869155933
155	0x3fc625c06a294b51	0.17302708800942893
156	0x3fbaeb1c07823ca7	0.10514998610800551
157	0x3fb51315b9328da7	0.08232246180937484
158	0x3f9d1143aa8f0ff2	0.028386170659146566
159	0xbfbac398398e3d8b	-0.10454703717390694
160	0x3f9de0d7ac8f2d1d	0.02917801848142886
161	0x3f6a50129a10b449	0.0032120097462411718
162	0xbfcd10bc9010ad0f	-0.2270732596819944
163	0x3fb5e3afaab997af	0.08550546568002802
164	0x3fc1464589bd2075	0.13495702004934498
165	0x3f7bbd81e73c8923	0.006772525248182756
166	0x3fa5cd43968f117f	0.04258166516186445
167	0xbf9b4d0de0a5524f	-0.02666112598065445
168	0x3fc70ae7ae81c269	0.18002029438823122
169	0xbf9dd33029616cd0	-0.02912593128745017
170	0xbfc31ef55f5293a8	-0.14938227800771853
171	0x3fb897b68e1ff809	0.09606495828481355
172	0xbf896053f74dad97	-0.012390762314416643
173	0x3fbede0f54a2c1b7	0.12057586494734705
174	0xbfa56d43037c56cb	-0.04184922616529504
175	0x3fb0fc0951f14ace	0.0663457703642891
176	0xbfb410b0875f2b43	-0.07837966256117306
177	0x3fa5f7ffa9f4d14d	0.04290770482694715
178	0x3fbbd6bd03b4bfe2	0.10874539700012023
179	0x3fa096fcdea4dd30	0.03240194528410212
180	0xbfc7df568e294ac0	-0.18650323811978886
181	0x3fba67ad53adf59d	0.10314448636014224
182	0xbfca90cf22ebe255	-0.20754422383449148
183	0xbfc18a8453b78d4f	-0.13703970039123667
184	0x3fb5527144ca1dcb	0.08328922204429216
185	0x3fb1e5188f5c2d64	0.06990197658540392
186	0xbfc49a698dd52100	-0.16096229005257356
187	0x3f93cd4abff2fc96	0.019337814298293475
188	0x3f9f825742d58422	0.030770648435808685
189	0xbfad682049fdbea8	-0.05743504431927465
190	0xbfc5e71bb4e93e64	-0.17111536344099243
191	0xbf986c7624c7eb6c	-0.023851247782640625
192	0xbfa34b523688b8b0	-0.03768402972888063
193	0x3fa3681016b9ae09	0.03790331151398269
194	0xbfa945fd7196f1ed	-0.04936210643379355
195	0x3faf520e71db42d6	0.06117291583871569
196	0xbf9c564dde83da48	-0.027672974306336223
197	0x3fa980790eea6b18	0.049808295317424534
198	0xbfc6d61e201465be	-0.17840935293570043
199	0xbfb4595a7e99fab1	-0.07948842612129671
200	0xbfc97f74c23f41a1	-0.19920215115281528
201	0x3fca24f6bfeb5244	0.2042530476670824
202	0x3f8fa91e4173151e	0.015459286091195564
203	0x3fbc1c86df2a236c	0.10981028507570806
204	0x3fc06525d61797df	0.12808678582876973
205	0xbfb1786e904a4107	-0.06824389479357161
206	0xbfb6121cdc93469e	-0.08621387848986692
207	0xbfa17fa461f72f62	-0.034176957091033314
208	0xbfb7a454c5f41050	-0.0923512442860226
209	0xbfa398e707cd0945	-0.03827592821336848
210	0x3fa5ce110c8905b5	0.04258778837221248
211	0x3fb288b93bd51165	0.07239873610257559
212	0x3fc0cb6a0aad83fe	0.13120770951630328
213	0x3fc0aafd0d320c46	0.13021815437613976
214	0x3fb88cd3d31fca04	0.09589885620497546
215	0xbfa99a59cc683c7f	-0.050005727960631845
216	0x3f86ad128d948efc	0.011072297044456551
217	0x3f789c15f190b8f9	0.006008229939693737
218	0x3fa023bd1c52deb9	0.03152266474483895
219	0xbfa77e8523910a22	-0.04588714656030769
220	0x3fd115cd373956ef	0.2669556655213076
221	0x3fb321d2af7094a8	0.07473484786221951
222	0xbf8b336e7e248b31	-0.013281691765376276
223	0x3fbad4afe00ce2d8	0.10480784625986972
224	0x3fb28bbde7404bbc	0.07244479079990546
225	0x3fc76a3e5ab253d7	0.18292979649109384
226	0x3fb7cb235da9d74e	0.09294339214997402
227	0xbf9a77639f971a3f	-0.025846058478942387
228	0x3f88f54400370468	0.012186557060774386
229	0xbf7932fed58abe30	-0.006152148672000687
230	0xbf90d7b3a3b711fd	-0.016447836749437162
231	0xbfa28232450f2089	-0.036149569444718095
232	0x3f876cbffd68b511	0.011437892838410709
233	0x3fabf2cc12728f4c	0.05458677029790113
234	0x3fb4ef49c8dab029	0.08177624849003053
235	0x3fcd0aded01920b8	0.22689423714678525
236	0x3fb644f9c4320e63	0.08698998489313108
237	0x3fa4dca5ea79d14f	0.04074591147665051
238	0x3fc457098758d4a0	0.1589061652063366
239	0x3fbcb7cc95fda104	0.11217955266841179
240	0x3fa9d2724e361b63	0.050433704421314805
241	0x3fc40291c2cf811c	0.15632841121897278
242	0x3f60d0e87d49f18a	0.0020527401741771744
243	0x3fcb69b359b906e8	0.21416322594637127
244	0x3fa0aef5fe26f35a	0.03258484580462691
245	0x3f89b878434c5883	0.012558879426745278
246	0x3fbda44a871235d7	0.11578813359866245
247	0xbfb58c11cf6e9f58	-0.08416854204426494
248	0xbf596ad547652685	-0.0015513499070770886
249	0x3fb01f1d5a83cd10	0.06297477207026625
250	0x3fa2d42e2ae02e2f	0.036775057538843796
251	0xbfb0ec58b31b8239	-0.06610636112919445
252	0x3f58350b3afdc526	0.0014774903938497646
253	0x3fc4054c1ce42524	0.1564116612501404
254	0xbfb975628273d674	-0.09944739994883794
255	0x3fbebf4dfee94ca8	0.1201065776197533

layer2.bias f8 [64]
0	0x3fa3b6460ed26409	0.038500012692743786
1	0x3fb4230639831be7	0.07865942863564578
2	0xbfbd8cdf7dd6ae14	-0.11543080160361568
3	0xbfa2a447b1f6b6f0	-0.0364096073857193
4	0xbf9b6510d82e7a83	-0.026752722925829985
5	0xbfba930c1f657036	-0.10380626455793238
6	0x3fbf985205bce9fb	0.12341797485434107
7	0xbf8fb79985c36358	-0.015486907381658518
8	0xbfc151e82c5d68a1	-0.13531210104230687
9	0xbfba105b4e3e4188	-0.10181208286508625
10	0xbfb4c31d0d46d729	-0.08110219549311339
11	0xbfc08c6296aa12f7	-0.12928421360643202
12	0xbfa7f63aad0a1bcf	-0.046800454733833534
13	0xbfbe5adef0b132f9	-0.11857407928728127
14	0x3f9f6e8c37cd17c2	0.030695143609839944
15	0x3fb4ad8eaf0637e7	0.08077327511838882
16	0x3fbb0c4231bd3f23	0.10565580095612552
17	0x3fb314741bb4224f	0.07453084637030226
18	0xbfa43b815b7dd57a	-0.03951648942794868
19	0xbfb1b3c7da521f81	-0.06914948539826861
20	0xbfa8075f7b844ad7	-0.04693125136158976
21	0x3fbaa45a2f40a7fa	0.10407031682612447
22	0xbfa64de577652d64	-0.04356305201016644
23	0xbfa4d9e06e2ecf3f	-0.040724767160468016
24	0xbfa11614e4a59d0c	-0.033371594344140915
25	0xbfb83738408a29ea	-0.0945925862853653
26	0xbfb68222608dab4e	-0.0879231916166365
27	0xbfbdefa23ec9cb22	-0.11693777115742113
28	0xbfb47e6efaceebfe	-0.08005422232865553
29	0x3fc15496a3e4b636	0.13539393427474672
30	0x3f9ae4fb7f43fa47	0.02626412357585142
31	0x3fb0d553ef557d42	0.06575512498010475
32	0x3fae1a887c08fb79	0.05879618181324182
33	0xbfb84ff122cc5edf	-0.09496981715744422
34	0xbfbda12eef687e99	-0.11574071259428322
35	0xbf96a4b2de9b0100	-0.022112650715599536
36	0x3fba0ef311fef978	0.10179061116557431
37	0xbfa930dc978c1849	-0.04920091009084666
38	0xbfc0ad9183aebe2d	-0.13029688768209394
39	0x3facaad268750740	0.055990767718425705
40	0x3fb93eb44eb65f86	0.09861304208459218
41	0x3fa13386919ef717	0.03359623458480437
42	0xbfb083f8ea7661f5	-0.0645137379091308
43	0xbfb214b03cb1056d	-0.07062818032956893
44	0xbf901cd45212b58e	-0.01573497534689277
45	0x3f9e3bb53705c704	0.02952464245158294
46	0xbfb5b53f3053c4f0	-0.08479685716499197
47	0x3fb15817a373daca	0.06775043240109394
48	0x3fbda6c97ec4e873	0.11582621903372274
49	0x3fbeeb2bf3853230	0.12077593512840035
50	0x3fbb016e1b52dd14	0.10549057166177916
51	0x3fa02c83e322d4b1	0.03158962390572507
52	0xbfc07fb8d0d6684e	-0.12889776417870497
53	0x3fa792638f8467c0	0.04603873373908085
54	0xbfbd64fe18bbb218	-0.11482227424466662
55	0xbfa51773b8640818	-0.041194549807201664
56	0xbfb44f85f9831f72	-0.07933842984777842
57	0x3fbc86802ae14fd7	0.11142731711271324
58	0xbf96457823d4e9cd	-0.021749379336350395
59	0xbfbbed02b64540ef	-0.10908524465526502
60	0xbfb10305e1b4bcd5	-0.06645237694168611
61	0x3fb16cb34c4c3600	0.06806488621460716
62	0x3fbcb3fadcf9132f	0.11212127585265529
63	0x3fa216b342677b60	0.03532943902586427

custom_layer2.alpha f8 [64]
0	0x3ff2ea248222803e	1.1821637233151843
1	0x3fc3955cb5ce98f1	0.1529956710557552
2	0x3fe9443522f85ad0	0.7895761187563384
3	0xc002a542495047be	-2.330692837488612
4	0x3fe31b05205c1285	0.5970483428978502
5	0xbf9625520061b757	-0.021626740716264106
6	0x3ff096c75a716302	1.036811211865086
7	0x3fd866fe63a5b238	0.3812862370603258
8	0xbff2593d2bbaf6a5	-1.14678685266646
9	0xc005e142eca94d75	-2.7349909295241397
10	0xbfe4e12df70c7585	-0.6524877381486226
11	0xbff3ca83fb7b48ca	-1.2369422744273373
12	0x3ff53f8ac4b58a9f	1.328013199229339
13	0x3fd76c72adf85f1c	0.3659941386153933
14	0x3ff070f197c8d3f4	1.0275741509515202
15	0x3fdc8489bc828a59	0.4455894795338842
16	0x3fa6116b6f4564d3	0.04310165150918412
17	0x3fd21b0e57645e24	0.2829013684690571
18	0xbfe1001012730843	-0.5312576637591139
19	0xbff1ed1febcdf12f	-1.120391770468881
20	0x3fe38b52af6041ee	0.6107572007477395
21	0xbfe16be9ac3875ee	-0.5444229472811324
22	0xbfd4b1be7718905a	-0.3233486331030285
23	0xbff09b5edafbe330	-1.037932258039472
24	0x400075ce2cde36de	2.0575221543611937
25	0xbfd98bdd068fee4a	-0.39916158333628415
26	0x3fd91099f8ec684a	0.3916382723706461
27	0x3ff0795cb82f75db	1.0296294398061636
28	0xbfac678f7d02124a	-0.0554776039216774
29	0xbfd4985c3da4e2d5	-0.3217993356698064
30	0x3fe33b809631823a	0.6010134633507456
31	0xbfd5bdb1b0358f3c	-0.33970300872737247
32	0x3fe9a2af50860fbf	0.8011089871147233
33	0x3fe7677604eaec57	0.7313795181320398
34	0xbf7d85651817b0cb	-0.007207293413994796
35	0x3ff0c4b0306d0a6d	1.0480195895803732
36	0x3ff4f100b58d8d8d	1.3088385669624103
37	0x3fc725b79f5fc76c	0.18083853990497845
38	0x3fedd8bdaa27ffd9	0.9327076266636097
39	0xbff5dd3d04c2cbf6	-1.3665132699941274
40	0x3fd8db9097fdb17c	0.38840117304678023
41	0x3ff00dea907cd916	1.0033975261736194
42	0xbff45ca98b52b766	-1.2726226274785062
43	0xbfd7e0c55972ec71	-0.37309392676588177
44	0xbfd5a0785164501d	-0.3379193110315571
45	0x3ff35f43bcf7493a	1.2107579595072608
46	0xbff045e1e7360cc7	-1.01706114117478
47	0x3feacaef4e176695	0.8372723126623948
48	0x3fc0e0a0ebb559ad	0.1318551207466049
49	0x3fb307eec554a43d	0.07433979337351189
50	0x3ffedcacb5a0eb94	1.9288756461016634
51	0x3fe70ae4eef329bb	0.7200798670758596
52	0xbfe54a2ae6b83cd2	-0.6653036600345337
53	0x40001919f8fc3d3e	2.012256570050936
54	0x3fe671180f2b6223	0.7013054176596295
55	0xbff3e222f743b1bb	-1.2427091273085427
56	0x3fc5493f4e93b00f	0.16629782997858952
57	0xbfe98dfbb6ad8d37	-0.7985819404533804
58	0xbfd52f230253f4ad	-0.331001999162093
59	0x3fd9805224cd49f7	0.3984570845979358
60	0x3fe3d8801a7fd9fb	0.6201782720152659
61	0xbfeded605fc12a98	-0.9352266187864471
62	0xbfd9ba2866e7aa93	-0.4019871716433638
63	0x3fe8b557cb3e3172	0.7721365899647437

custom_layer2.teta f8 [64]
0	0xbfe6b9edaae25afe	-0.7101963365156221
1	0xbfd6aabe582674a6	-0.35417135818881673
2	0xbfc3ecebaa0c9330	-0.15566774180583698
3	0x3ffdae15976926b3	1.8550010599596305
4	0xbfaba21cbfbb2e47	-0.053971193699535784
5	0x3feac903ec1cadc7	0.8370380031168957
6	0x3fd3e207affb2a75	0.3106707781377403
7	0xbff86ca83131e548	-1.5265275880504579
8	0xbff2b55b893d1fb2	-1.1692767487420324
9	0xbfc962179c517c0e	-0.1983060372612901
10	0xbff23a467c95ee99	-1.1392273775699435
11	0x400084d03e0df1b2	2.0648503158574494
12	0xbfa3044e2d45e364	-0.03714222242974222
13	0x3f8d0067795ad9f6	0.014160927191693578
14	0x3fc266317450e993	0.1437436883878261
15	0x3fe4164f4461a0ea	0.6277233443807095
16	0x3fe019bf16eace08	0.5031428763963399
17	0xbfe121b344797638	-0.5353638017074394
18	0x3fcc7b1288173481	0.2225058712487318
19	0x3ffb208ab5c3608f	1.6954447841763203
20	0xbfc455d783f0fd42	-0.15886968557786402
21	0x3fdd167f192ccc25	0.4544980760430824
22	0xbfe008f756be0e27	-0.5010945028483932
23	0x3fed079dcb4757d3	0.9071797342573923
24	0x3ff4658c4ccdc2bb	1.2747920036455713
25	0xbff2d33308112031	-1.1765623393166715
26	0xbffd2a9e87c32f4b	-1.8229050925464942
27	0x3fea4da00b12124d	0.8219757286283965
28	0xbfeca6de6189d6e8	-0.8953697114036148
29	0x3ff46c90bde03448	1.2765052239440298
30	0xbf8601474a63b9f5	-0.010744626004876226
31	0x3fdf05b11763543f	0.4847223976515273
32	0x3ff6a9d404f9ce97	1.4164619631164095
33	0xbff1b1ef32c5d2ac	-1.1059410079298386
34	0xbfbd8875afefb01d	-0.11536346001929627
35	0x3ff2c75d1cf76e2e	1.1736727839951402
36	0xbff968a17aee967b	-1.5880446245222675
37	0xbfe57debdfdb4323	-0.6716212627598889
38	0xbfe72bdc4b807e82	-0.724104068245609
39	0xbfb4708557ddbf89	-0.07984193225069992
40	0x3fd1726d6c39f590	0.2726090962313146
41	0xbfe18910d819e86d	-0.5479816647268884
42	0xbff11e829c270c53	-1.0699487781246446
43	0x3ff1f38f5dcac373	1.1219628967048407
44	0xbff5a1a6b4478b9e	-1.3519656221548995
45	0xbfc3e09f1e408994	-0.15529240586427007
46	0xbfee8a9b823913bf	-0.9544198554436817
47	0x3fb3208bcea50de0	0.07471536440885229
48	0x3ff5400749f6a205	1.3281319512553875
49	0x3fa9b2e772ca892a	0.05019305492648336
50	0x3ffb1c8e0e88f8b5	1.6944714134001917
51	0x3fa0eb64bebdf10d	0.03304591015236911
52	0xbfde9a649db9cd86	-0.4781734028140011
53	0x3ff5677bbe539237	1.337764495337195
54	0x3ffadfe253801487	1.6796592008334146
55	0x3fadf5328078fa76	0.05851133173245142
56	0xbff15907a79c3716	-1.0842358157419247
57	0xbff56475c58d7b38	-1.3370263783360326
58	0x3ffc5d0132475694	1.7727062191019387
59	0xbff0d66431d11a2b	-1.052341646763703
60	0x3fee3eab981462c5	0.9451501817994418
61	0x3fec966f0c23e373	0.8933634984124253
62	0xbfc485b2b8f785c7	-0.16033014327608283
63	0x3ff178241c2cf416	1.091831312237678

custom_layer2.gamma f8 [64]
0	0x3fac66e2453eca4d	0.05547244162825802
1	0x3f8166ef9b819227	0.008497116025133767
2	0x3fb43a6b5eaae550	0.07901640950412525
3	0xbf9f37f7764662a3	-0.030486933320932007
4	0xbf850e511843e07b	-0.010281213334096364
5	0xbf700ebd7ad0084d	-0.003920307307455029
6	0xbf993e9613144e1c	-0.024652810015210233
7	0xbf8b5215bf32b4b4	-0.013340158364679368
8	0x3fd08330e31f119b	0.25800726108379884
9	0x3fa1efaa630d7007	0.035031628219002235
10	0xbf95d6a0bfd32e03	-0.021326553066314712
11	0x3fbec5fd90240bbb	0.12020859498083684
12	0xbf742e5c59f3d1a4	-0.004927025554242102
13	0x3fb121140a3653e6	0.06691098450967523
14	0xbf85f3734f80aae3	-0.010718251098372494
15	0x3fa3ff4d73b5d80e	0.03905717885474767
16	0xbf40b370cf3f47bd	-0.0005096722438742079
17	0xbfc3f10c33dfa538	-0.15579369099513385
18	0x3f9c6efaa6466474	0.0277671016679943
19	0x3fb0a15f24702a41	0.06496233596423286
20	0xbfbd41e67e92f473	-0.11428680982767662
21	0x3f8ddf7a544fef82	0.014586406419759394
22	0xbf92b9b850044041	-0.01828659046537973
23	0x3f6c871cc6bd2bc1	0.0034823953664377687
24	0x3f908446a86156e6	0.01612959292136553
25	0xbfaac5e318dc13ca	-0.05229100874388555
26	0x3fb01714a36bff57	0.062852182290951
27	0x3f4dd4e0fa706c77	0.0009103868986842918
28	0xbf80aec8c0406c83	-0.008145874373488354
29	0x3f615411705694bd	0.0021152821161246325
30	0x3f5a4dbde3332680	0.0016054491396055026
31	0x3f96c0edeb718ae9	0.02222034215481986
32	0xbf9c11bf9a672616	-0.027411454962736746
33	0xbfb9e60700908c38	-0.10116618884835382
34	0x3fc3b1cceb290f89	0.15386353952828483
35	0xbf7287d2e21e6931	-0.004524062884139022
36	0xbfa93f2598cde008	-0.04930989733014718
37	0xbfa63aeeb3e2d6c9	-0.043418368777037815
38	0x3fb2272b21123c4a	0.07091016347315918
39	0x3f70cd6b05c2cb3d	0.004102151924757544
40	0xbf9a6d89979c9897	-0.0258084772859993
41	0x3f836b9f5cdd3e51	0.009482617398730716
42	0x3fa0d2d96a00b6a6	0.03285865229586919
43	0xbf3fde1214dd99ec	-0.00048625890200640234
44	0x3fb886e56e405c23	0.09580835286793436
45	0xbf93e7b682422236	-0.019438602161729622
46	0x3f9f80f7b5168c4c	0.030765409877528335
47	0x3fb33ad4ac95dafc	0.07511643613348079
48	0xbf7bb70d4ab0b0f9	-0.006766368790561688
49	0x3f71026f8ac7b33e	0.004152713500371883
50	0x3f9d0e44cf0242e6	0.028374743590179906
51	0x3f6adc9feeefed3f	0.0032790301988804556
52	0xbf947c3109f6a09b	-0.020005003197781517
53	0xbfaa0791eb58b0ec	-0.05083900449639764
54	0xbfa3bdeb0d49c7e5	-0.03855833565911818
55	0x3f8932db315d5f47	0.012304031795494231
56	0xbf76a24f039b3eea	-0.005525883339671836
57	0x3f957df01bcbb840	0.020988227554816996
58	0xbfa000dc311f67ae	-0.0312565622295574
59	0x3f5497a94fb2f183	0.0012568620139027104
60	0x3fafba4269ed5b62	0.06196792166763633
61	0x3f81e6d5a078945c	0.008741063079535198
62	0xbfa9aedb4de3b425	-0.050162175424567836
63	0x3f646e57c3c5090e	0.0024940218119421436
