COLA_Emulators/PCE/LCDM_PNN_HIGH/MODEL_Z2.529.pth (torch, 60802 bytes, 12 tensors)

layer1.weight f8 [64, 19]
-0.1935208264147887 0.181555920509503 0.13153413624135 -0.015554529236633386 -0.053340558424641416 0.11654102507224678 -0.11767355395955159 0.1493515260723538
0.13588519013891448 -0.11507701360357624 0.051733089092244555 0.22829549459190443 0.11140532008810991 0.25222057475695653 -0.13125701245486038 0.035722434496033954
-0.18923729973812636 0.11788027335239143 -0.1547831039356006 -0.0010659914949436497 0.03058766816898757 0.030482081313207066 -0.05321425321528342 -0.07966452016868164
0.15680942014153157 -0.32435460037525926 -0.2501192907249896 0.22600354066646847 -0.02333643280883351 0.24084499267376533 -0.02099289195090365 -0.13495419475659898
0.23697826973388297 0.21562248283527072 0.08338938937982292 -0.16828561286820024 -0.048979955354971884 0.11404975954861368 -0.07909729689723216 -0.08960146939425678
0.23491636895686427 0.10049882456507855 0.08269476914583943 0.12170282047963163 -0.3279837527960655 0.15896087069168943 -0.1058796519799864 0.02298401927122946
-0.27239672971959017 -0.13451037559507756 -0.13503821135130084 0.04603479482731349 -0.18208929514677788 0.10529908915965255 -0.1472654692476837 -0.04758760619986947
0.2024915354098321 -0.09797223157136425 -0.16283218239986336 0.10429842092117954 0.08558172389703363 -0.2660054510948345 0.2896160180133575 -0.12957623700591012
0.2441015269825079 0.14678779922185942 -0.05884816400748724 0.08053115937937004 0.2827147647676074 -0.11381889558821214 0.2216249006339617 -0.09486075504694762
0.20865907712481316 -0.16417250950350873 0.1260849107695364 0.17352383198862897 0.27506210783604546 -0.23622345098283698 -0.3416022070683741 0.35811675925923964
0.07116429945000052 0.23251783837865533 -0.12890247433651555 -0.05895174215302791 -0.11852893037224015 -0.214675325036824 0.21720054194281582 -0.057942987243043545
0.06590885149277441 -0.24634906310740262 0.01719871439863695 -0.11334981461367126 0.12654442343816155 0.12001537477800091 -0.08151089625309409 0.03505779655879243
0.11554699700208623 0.18721062158099536 -0.07525932626525365 -0.014610349241567042 -0.14287106585572262 -0.052338719425263476 0.16798819779896185 0.16355008096338997
-0.09037430156074917 -0.1707494338365131 0.2134401341404245 0.19693255671970014 -0.15591725669065246 -0.16593994792719072 -0.012304204870581608 0.02812073348360185
-0.04847402380686945 0.008319184780076372 -0.043254439146794534 0.04589187157374042 0.008925652045828463 0.0015108033856043271 -0.2075476260480881 0.2650597922541307
0.23226863216686636 0.30287535008903665 -0.1527924701824539 -0.06436882189672016 0.08089227845406054 0.04295483992171698 0.013534339955891168 -0.09772842755381701
-0.0748532932331821 0.15774467661275546 0.21260052913906802 0.2122984670499061 0.08651467377723807 -0.10977118400229785 -0.042114756054512446 -0.189456510964264
-0.05264986002627733 -0.11349533445974251 -0.18140638493029765 -0.013369356537583862 0.08385271498290497 0.2186275752186463 -0.19430657000074897 -0.03062153379993723
-0.21367952543893073 0.012361588045017413 -0.08574738742956145 0.017344621783014463 -0.13281575765604822 -0.021530929719395128 0.19742690189235318 0.1554974074733186
-0.004868189576525425 0.018062472065540576 -0.05131703072363828 0.1628428815506407 0.1514048988496792 0.01399677697977164 -0.16905043287282592 -0.20114129847452095
-0.15663354922210707 0.2110355037091055 0.09544138142421957 -0.05858113717068513 0.0767206878663027 0.15978769286222747 -0.14625759148331827 0.22978546414961434
0.03792983718467953 0.029800706083944528 0.14979859401718068 -0.012547651214319194 -0.025206306339091315 -0.15110328139469972 0.015403386422368066 -0.07337458223657552
0.2542047509928536 -0.12498341830026155 0.0743822622138997 -0.02267358701380821 0.16190712767817758 -0.08526293457388533 -0.10122752424864954 -0.11782003483196334
0.10975307733106643 -0.046185049315954706 -0.09135611616953243 0.1758730795320765 0.08567743650877915 0.05014969611058449 -0.19077288879143695 -0.2602161322756633
0.19470975322156925 0.16795391186567837 0.19433734942739403 0.26894297616448637 -0.007371619839293435 -0.011410049712454936 -0.0753486001561372 0.02843722223712676
0.07419371047483533 0.040277661697714566 0.11019592194250101 0.0732745906537421 -0.006941332905212425 0.11453090930454371 0.1681151234792494 0.04612727583976112
0.1024855465021371 -0.011061942944718215 0.014608860173471917 0.03658973016633644 -0.13822932956585365 -0.20193770361345148 -0.1000960052869727 0.14103068779452424
-0.10306078751244442 0.11867280231691146 -0.12368608862031273 -0.1900045893767369 0.2049348728011694 0.09255360455334655 0.19978902549868935 -0.19910423344295608
-0.1633524905981572 -0.12606034927033552 0.0627092123904733 0.175412085760699 0.09472956167597212 0.09194841837775017 0.05582437448383619 0.12885920218629338
-0.060582914884712624 -0.23186717813607177 0.15907576476971796 0.1006307749223931 0.13436010233815276 -0.13178822977578283 -0.11154816706285436 -0.07575025149497182
0.16209153423976352 -0.2311748539961013 0.1615666353067322 0.03618722466725618 0.1777385019885909 -0.03761966725222337 -0.18640633754111727 0.0919505115250461
-0.23884542114066928 -0.13939479536394406 0.05158069455771539 0.13125209694212178 -0.18580430310136364 0.13113457115889662 0.2174174212973438 -0.11894900933725355
00000000: c7f0 455a 4ac5 c8bf 09e3 7d72 393d c73f
00000010: 1f6b bb4e 1cd6 c03f cd14 0293 0ddb 8fbf
00000020: a8ea f723 744f abbf a4de 53f3 a1d5 bd3f
00000030: e840 dca1 da1f bebf 5c52 0b68 f31d c33f
00000040: 0225 d497 af64 c13f 77de f2e9 af75 bdbf
00000050: a863 8b6b c27c aa3f ff55 8c69 c938 cd3f
00000060: eafb 601e 0f85 bc3f a767 fdc3 6124 d03f
00000070: 0ea1 ee9f 07cd c0bf 2fb6 c9ff 354a a23f
00000080: 4680 c786 ed38 c8bf 245e e4ce 662d be3f
00000090: 1d3a b0c8 eecf c3bf 5b41 f3a6 1777 51bf
000000a0: 336c c9a9 5f52 9f3f 20bd 6ad9 b136 9f3f
000000b0: b43d 7b0a e63e abbf 40a9 c6dc e464 b4bf
000000c0: 8936 9bc1 5412 c43f 0fcf 3acc 39c2 d4bf
000000d0: 90cd 7057 f401 d0bf 01aa f81b afed cc3f
000000e0: ce80 e07e 81e5 97bf 1b37 783b 02d4 ce3f
000000f0: b1a7 8221 297f 95bf 8403 78d6 2d46 c1bf
00000100: 2252 2fcf 4d55 ce3f d3a7 077c 8499 cb3f
00000110: 7b41 38cc 0159 b53f 91ff d309 628a c5bf
00000120: 5d7b d194 e613 a9bf f4c1 6073 5d32 bd3f
00000130: 4428 606f b83f b4bf fccc b834 1ff0 b6bf
00000140: 9f7e fb54 bd11 ce3f ca1f cb7c 4aba b93f
00000150: 3a1a 0801 7c2b b53f 767d ca81 ea27 bf3f
00000160: 8638 f890 affd d4bf 7174 7b6e d458 c43f
00000170: 09df 90ca ed1a bbbf 53fa 666c 1f89 973f
00000180: 20b6 6bb1 f26e d1bf 06a7 13d0 a237 c1bf
00000190: 066a bb9e ee48 c1bf c9d3 8564 df91 a73f
000001a0: 89b5 cdb7 b34e c7bf 7e42 3d90 e1f4 ba3f
000001b0: ccdb 1f4b 98d9 c2bf 4290 a518 675d a8bf
000001c0: bca9 261d 3eeb c93f c0e0 834a b514 b9bf
000001d0: 6a65 1259 afd7 c4bf 3583 e122 4db3 ba3f
000001e0: 55e7 4511 afe8 b53f 85a4 40ba 3b06 d1bf
000001f0: aff7 709f 1189 d23f 7fba 2342 f495 c0bf
00000200: 7d92 a505 b83e cf3f aa0a 8e4e f1c9 c23f
00000210: ac00 afb7 5821 aebf 4fe6 d7a7 b09d b43f
00000220: 387c 31ab ff17 d23f 99dc 3732 3c23 bdbf
00000230: e9de 196a 345e cc3f d3ba 9960 cb48 b8bf
00000240: e1de 2134 57b5 ca3f 0923 9cd3 9a03 c5bf
00000250: 331a 23e4 8c23 c03f 90df bb67 0736 c63f
00000260: b693 6119 9e9a d13f 6a80 42ee 913c cebf
00000270: d267 e680 cfdc d5bf 85bf 4a8e 62eb d63f
00000280: 0ccf c7d2 d237 b23f 0b56 c9ff 24c3 cd3f
00000290: 530c d353 e07f c0bf 42d0 2d39 ec2e aebf
000002a0: 4321 9477 e957 bebf 454a 2526 7b7a cbbf
000002b0: f9af 2834 3acd cb3f 0a9b 7b06 b4aa adbf
000002c0: c3aa ad09 67df b03f 0a28 b9b8 5d88 cfbf
000002d0: 3d66 802f 8a9c 913f 4bfc c552 7e04 bdbf
000002e0: f53b 1490 9b32 c03f 754e b0dd 53b9 be3f
000002f0: 5bb8 ace9 e5dd b4bf 0832 6173 18f3 a13f
00000300: 7664 46ed 7c94 bd3f 0dbd 9384 84f6 c73f
00000310: ef3b 07f9 3144 b3bf 12c5 67e1 07ec 8dbf
00000320: 108f b25d 9949 c2bf 31f7 7d00 24cc aabf
00000330: ee8b d423 a380 c53f 0c7a 7f84 35ef c43f
00000340: ad2d 9a2d c522 b7bf 1cb5 1111 1edb c5bf
00000350: a4bb e49d 0152 cb3f c57b 5005 1635 c93f
00000360: 6327 2fbf 18f5 c3bf bd3e b92c 853d c5bf
00000370: c9f0 2d6c f232 89bf 953d 9b7a aecb 9c3f
00000380: ba7c e955 96d1 a8bf 207d 7a14 a609 813f
00000390: f5a8 1523 7225 a6bf 0076 1faf 237f a73f
000003a0: e3f7 0ebd 9c47 823f ed56 70c8 c4c0 583f
000003b0: c596 1ead eb90 cabf b0d3 cd58 bdf6 d03f
000003c0: 518c 8581 faba cd3f d867 d94a 4f62 d33f
000003d0: e81c 4123 b48e c3bf acaf eda0 797a b0bf
000003e0: 9788 753a 5bb5 b43f 7d5e 5641 2dfe a53f
000003f0: 8a34 de5b e4b7 8b3f adaf 3bf0 ba04 b9bf
00000400: d635 6fde 9529 b3bf a7be 9541 fa30 c43f
00000410: 28de e17f 7e36 cb3f 2532 7c9e 982c cb3f
00000420: 1652 7f5e d325 b63f ec43 55dd f619 bcbf
00000430: b3c5 ddb7 1090 a5bf 2d8a 4d67 1c40 c8bf
00000440: 6b57 e725 ecf4 aabf 23d0 c0bd 070e bdbf
00000450: ead5 470d 5338 c7bf fea6 c7a8 6461 8bbf
00000460: 744a 881c 5f77 b53f d4af c806 fdfb cb3f
00000470: 228c c6a5 09df c8bf 9777 e558 405b 9fbf
00000480: 87e1 cac6 d959 cbbf 0030 0a43 0851 893f
00000490: 6837 ba70 8af3 b5bf 8834 47dd c9c2 913f
000004a0: 275a c353 1b00 c1bf 0f36 fd3b 340c 96bf
000004b0: 8a37 7de3 4845 c93f dff7 dacb 56e7 c33f
000004c0: d6b8 59b0 aaf0 73bf a2c3 39fb f77e 923f
000004d0: 3528 5fd1 3946 aabf 5abd 5219 09d8 c43f
000004e0: 57bc 8158 3c61 c33f bf2b 059b 57aa 8c3f
000004f0: 7f1e 48d0 71a3 c5bf 7259 6981 ffbe c9bf
00000500: fdc3 ae71 910c c4bf 04dd 5c1d 3603 cb3f
00000510: 0aef e6ab d86e b83f af04 9fc8 58fe adbf
00000520: 10f9 4f8d f7a3 b33f 77c2 9251 ec73 c43f
00000530: d335 1b9a 91b8 c2bf fd33 cf2e 9c69 cd3f
00000540: 4a69 8024 8a6b a33f 90ed 1c88 1384 9e3f
00000550: 7931 25af 992c c33f 705f db3c 95b2 89bf
00000560: 8e75 8495 aecf 99bf 674a f431 5a57 c3bf
00000570: 4a2a 7487 cf8b 8f3f 3552 1037 adc8 b2bf
00000580: e522 0001 e444 d03f 4c54 24ce e9fe bfbf
00000590: 5377 9c47 b70a b33f cb4a d4aa be37 97bf
000005a0: 1ffc 2e6d 5fb9 c43f 8f4a 8eab cad3 b5bf
000005b0: ff5d 1a0a 0cea b9bf 8fb7 6a2c 7429 bebf
000005c0: c0b4 c515 c718 bc3f b399 c018 91a5 a7bf
000005d0: 20db 3c4b 1d63 b7bf 4b25 6b52 0283 c63f
000005e0: 5271 cfdb f4ee b53f 7d0a 6691 38ad a93f
000005f0: 244d 29fb 3e6b c8bf 54ff 8090 61a7 d0bf
00000600: 6441 26cb 3fec c83f b263 5987 837f c53f
00000610: 2d4b 17d8 0be0 c83f 5462 c799 5c36 d13f
00000620: df8e 0d22 b431 7ebf 71c5 e2f2 265e 87bf
00000630: 4051 78bd 0b4a b3bf 047c fdad a51e 9d3f
00000640: 6eed 0ee8 5bfe b23f c787 800f 469f a43f
00000650: bd46 e5c8 cc35 bc3f e950 7ca2 1fc2 b23f
00000660: 3db9 18dd 836e 7cbf b21a d8cd e551 bd3f
00000670: 6437 a7de cb84 c53f 88e5 5e8a fe9d a73f
00000680: e513 8a26 7e3c ba3f 5219 6cd9 a4a7 86bf
00000690: e749 6a05 40eb 8d3f 7925 de9c e3bb a23f
000006a0: 20ab eaa8 7fb1 c1bf ceaf 6c3c 18d9 c9bf
000006b0: 57f4 2a4d e49f b9bf c1a9 e727 4b0d c23f
000006c0: 29af dd17 3162 babf f034 e03c 5761 be3f
000006d0: a92a 9839 e4a9 bfbf 6343 bb04 1252 c8bf
000006e0: 34d7 3e50 4e3b ca3f 7cfc aed0 97b1 b73f
000006f0: 1fec 4ed1 af92 c93f 8afa 905d 3f7c c9bf
00000700: fa6b 6b02 bce8 c4bf 6d1e b8da be22 c0bf
00000710: 0e00 6000 b60d b03f 2c2a d539 e773 c63f
00000720: e7da 5c51 3240 b83f e2f2 d979 ee89 b73f
00000730: 7699 742d 0395 ac3f 52e2 9655 757e c03f
00000740: 489c 404c b904 afbf 2a1c 8edd d2ad cdbf
00000750: 14d5 a23b 985c c43f dd47 433f f0c2 b93f
00000760: 74fc b63a b632 c13f 873e 71cc 6fde c0bf
00000770: 4cb5 76b1 6b8e bcbf 87ad d554 5e64 b3bf
00000780: f855 4257 6abf c43f f510 c93a 2397 cdbf
00000790: c032 622b 37ae c43f 6b2e f5c4 2187 a23f
000007a0: c1f8 a39e 22c0 c63f 67c4 1191 e242 a3bf
000007b0: 55cc c0b1 29dc c7bf 42bd d997 118a b73f
000007c0: 5b9c 4c9c 7c92 cebf 680e a94b b0d7 c1bf
000007d0: cdf0 75e8 c868 aa3f 3fec f263 decc c03f
000007e0: 0062 a376 6fc8 c7bf 2550 4083 04c9 c03f
000007f0: 5dc0 0685 55d4 cb3f 0cbf fe38 7173 bebf

layer1.bias f8 [64]
-0.14464110815520037 0.25443896321536547 -0.18701178741686922 0.2235731171222229 -0.18129839321557148 -0.207330879100494 0.18418829215623864 0.18325029106599627
-0.05236491834399163 -0.1832552582009251 0.22316287623769163 -0.1083172495157399 0.05515504577930027 0.06274284038967065 0.17795989998388462 -0.08095327594391835
-0.038251324530156595 0.18440547088839718 0.02855098744361708 -0.04879396147060987 -0.1954684947506662 -0.06837071139173069 -0.10942930711421403 0.18838866559919712
-0.03891767768873687 -0.10132005555543613 -0.22741230168938475 0.09736228023247262 -0.012363521334561428 0.10875772120411015 -0.06928081040870936 -0.20443921431743917
-0.15341563006172165 -0.15793020102359784 0.27221410325689954 0.07711616181989485 0.06345265051604447 -0.08460441950866952 0.13375728193050646 0.21649343927737086
0.1817735320051773 -0.07970195714690297 -0.03313732860544552 -0.03798428060666336 -0.0935139820771024 -0.12190789143315435 -0.1320726123951799 0.21368046054148424
0.07189489465155287 -0.12607794418429716 -0.04377475695749128 -0.1870828217649379 -0.08091503195762141 0.3023650544383316 -0.12123289246970674 0.2652541757248529
-0.18265509348753042 -0.07149032453615167 0.1372574430711651 -0.064661403307196 0.16894712677055543 -0.0013454741630356437 -0.39790865490054833 -0.20253397917311933
00000000: 4086 978e 9983 c2bf 1da4 755c ba48 d03f
00000010: b502 7693 00f0 c7bf 3a01 273d 0b9e cc3f
00000020: 2bd0 d626 c934 c7bf b101 9878 d189 cabf
00000030: 63fe 8e61 7b93 c73f 1e33 8edb be74 c73f
00000040: e584 7d17 93cf aabf 5281 6586 e874 c7bf
00000050: a1a3 8fe3 9990 cc3f 3445 43e4 adba bbbf
00000060: 6bb7 a93b 483d ac3f f422 882f ea0f b03f
00000070: 4c11 37d7 63c7 c63f bae5 ae98 5ab9 b4bf
00000080: 257b c577 ad95 a3bf 93a6 5535 999a c73f
00000090: 66f9 5a55 783c 9d3f 1e61 84a9 85fb a8bf
000000a0: 601d 2d94 1c05 c9bf 6186 6e31 be80 b1bf
000000b0: 9e8c 471f 8f03 bcbf c9c2 d7aa 1e1d c83f
000000c0: 0e9c d191 04ed a3bf c21c 0a75 1cf0 b9bf
000000d0: 2064 3ba7 d81b cdbf 9863 7601 bcec b83f
000000e0: 03db 5cbe 0b52 89bf ec56 c2c7 8bd7 bb3f
000000f0: d71e f21e 63bc b1bf 00b5 c16d 102b cabf
00000100: dcb8 e794 1fa3 c3bf 3639 398c 0e37 c4bf
00000110: fae4 bfb3 f46b d13f 156e 0281 e2bd b33f
00000120: 0399 cfd2 6e3e b03f 5305 e39e a2a8 b5bf
00000130: fa26 bf67 f51e c13f e457 bf98 0eb6 cb3f
00000140: 7bcd 9ee7 5a44 c73f 3786 5ff3 5867 b4bf
00000150: 443e 463d 60f7 a0bf 2f77 eff5 ac72 a3bf
00000160: 1a69 bd46 88f0 b7bf 4d68 d406 5b35 bfbf
00000170: 61a0 775f c1e7 c0bf 43f2 e89e e159 cb3f
00000180: e91c 472d b467 b23f 375d 8273 5223 c0bf
00000190: f8a8 0b1b a569 a6bf dad8 8f74 54f2 c7bf
000001a0: 7945 03f8 d8b6 b4bf 6804 11f5 f259 d33f
000001b0: 2b5c 5b6c 1e09 bfbf 4e67 77a6 ecf9 d03f
000001c0: a906 7dfa 3d61 c7bf 88fa dc9d 304d b2bf
000001d0: 32c6 8fe2 a691 c13f 5493 8454 a68d b0bf
000001e0: 2bc9 1d38 0fa0 c53f d24f c8e1 530b 56bf
000001f0: 13f7 e5dc 5577 d9bf 204b 7028 a2ec c9bf

custom_layer.alpha f8 [64]
0.8456376585595771 -1.5092467652576231 1.050135840621346 1.1011683205372433 0.5716783273238605 -0.14486328007434984 0.8572996871232533 -0.6002042967658345
-1.1353784308567179 -0.6856446790103806 1.253475313458678 -0.44579292242609736 -0.42069579200428936 -0.03271174081631479 0.9053400226297003 0.41568645235784263
-1.0395711276692283 -2.19484521844118 -0.5190782754940966 1.2347110651963162 -0.21070959554572272 0.008423688793266191 0.10394520078295873 -0.47020939435549014
-0.7830859634372993 0.956542343952619 -0.37327252040303294 -1.025490869773994 -0.5212039288227077 1.2892564433513336 1.2675539363773778 -1.1206619310627062
1.5047462533272387 -1.0732082857601049 -0.9025839143949542 0.9289642142338169 -1.1099565112741068 0.6430087138510618 -0.4377379357111397 0.7886949208111147
1.2695086290086772 0.5290155973149527 0.816303491200751 0.24526967655139378 -1.0693398177197344 0.7343065354085028 -2.6868309884268458 0.42588206531404094
-0.7978524208750037 -0.12481779794724181 -1.6376338360084388 -0.5547328942923457 1.5269689003217857 -0.7619070380891954 -1.2457011519821914 0.2626803567032452
0.4835137484753822 1.1058949766350836 0.8010278748603711 0.7155901097393373 0.7368637842103029 0.9911815932875064 -2.5422429277842786 -0.6923128611202
00000000: d4f0 f8b4 760f eb3f 2601 a6ef df25 f8bf
00000010: e837 3d3d 5bcd f03f 4c94 41ac 629e f13f
00000020: cd03 f658 304b e23f 6ec2 2745 e18a c2bf
00000030: cd17 e2c0 ff6e eb3f dee4 30a4 df34 e3bf
00000040: 7dd0 d192 822a f2bf 03d5 201c cdf0 e5bf
00000050: ba5f 5a21 3c0e f43f 42ef a609 df87 dcbf
00000060: 9549 0e0b aeec dabf 71aa 00e2 97bf a0bf
00000070: f58a 9ea3 8bf8 ec3f be19 9159 9b9a da3f
00000080: 6748 b355 15a2 f0bf 0fe5 8702 0b8f 01c0
00000090: 8af5 290b 4a9c e0bf a670 d063 60c1 f33f
000000a0: 0640 e932 88f8 cabf 52b3 075f 7040 813f
000000b0: c55f f015 279c ba3f d0d7 c124 e917 debf
000000c0: 6e6f 5d4b 0a0f e9bf 7780 90b0 fe9b ee3f
000000d0: e418 e86c b2e3 d7bf 156a 401d 6968 f0bf
000000e0: 42e3 9adc b3ad e0bf bd9e 455d cba0 f43f
000000f0: ac82 eaa2 e647 f43f a095 7c34 3bee f1bf
00000100: b61a adce 7013 f83f 892c 9273 dc2b f1bf
00000110: 8f1a 47a9 f7e1 ecbf 0f3c e928 13ba ed3f
00000120: 0379 3ec2 61c2 f1bf 1011 a102 8793 e43f
00000130: ec43 86f9 e503 dcbf 26f6 6c21 fd3c e93f
00000140: 2450 b947 e84f f43f 0355 311e b2ed e03f
00000150: d22b ca7f 281f ea3f d98e be2b ff64 cf3f
00000160: 76ab 9611 041c f1bf da31 5a6b 707f e73f
00000170: 9a61 c93e a17e 05c0 f082 9ed9 a641 db3f
00000180: 8629 d6cc 0188 e9bf 4163 2428 0ff4 bfbf
00000190: 19ab 8789 bf33 fabf 9a08 e032 5fc0 e1bf
000001a0: 2a42 0ef1 766e f83f 25ee 65de 8a61 e8bf
000001b0: 0ba6 c554 64ee f3bf 30e4 5545 c1cf d03f
000001c0: 8c8f 37a6 e3f1 de3f 7a55 57ee beb1 f13f
000001d0: a7b5 b635 05a2 e93f f87c d53a 1de6 e63f
000001e0: 1b48 d95b 6394 e73f f924 f275 c2b7 ef3f
000001f0: ee90 ca75 8356 04c0 fd90 234d 6d27 e6bf

custom_layer.teta f8 [64]
0.1407415099021583 -0.8968005856719512 0.12184916497174611 0.09599359136329512 0.03692886155053319 -0.4693655387227271 -1.3719005338087786 -0.09751370724994879
0.0740638177129007 1.0920668474886552 -0.10353716157916477 -0.11112764148135243 -0.24640583669257782 -0.02324696035983018 -1.6143253226275587 -0.16732377545545932
-0.35496955605333 -0.04840976919621051 0.6652799362122375 0.225788750853054 0.28377410541629894 -0.14384760781192468 0.1222103643233754 0.3517295075665499
1.635580135565674 -0.663546481283336 1.303075878696406 -1.2426912105165582 0.05824649329886836 0.3587733728022594 0.7316296877322822 -0.3061180802287644
1.230053160321465 -0.029997680358381785 1.1384269232189212 -0.7055585413416257 0.17230894034883404 -1.8021938717077155 -0.9005573743463845 -0.20285479044111948
0.16603224420065957 -0.6534376573431082 -0.0825309092494735 1.6931547718025217 0.49321583202729113 0.4563097016392449 0.6633510467734077 -0.8164098355285929
0.8610838487865324 -0.43131535773191004 0.802651059630617 -1.0563830885956642 -0.039156364959511004 1.999828137376037 -1.5471991966366128 1.1108720203812983
0.522630585517338 0.6782964413803279 -0.6379016526067787 -0.6374488838361665 -1.9080362761792378 1.507705481239402 0.7828607131783432 1.4433089997080846
00000000: 4916 1c5b d103 c23f 64d4 4f24 97b2 ecbf
00000010: 1e3b 99c2 8131 bf3f b9eb 8737 0993 b83f
00000020: bdae 46f9 56e8 a23f 08bf abc1 150a debf
00000030: a82d 61f9 4df3 f5bf 10dd 8c87 a8f6 b8bf
00000040: ffd0 e4aa d8f5 b23f 4c27 3016 1b79 f13f
00000050: d536 e752 6981 babf ce11 d871 dc72 bcbf
00000060: 86ae 11f9 398a cfbf f952 e819 0dce 97bf
00000070: e5a3 1cca 46d4 f9bf 3954 b68f dd6a c5bf
00000080: bec7 943a d2b7 d6bf 2c5f 024f 2ac9 a8bf
00000090: c8ed 1626 f949 e53f bef9 5b52 a5e6 cc3f
000000a0: ffbc 8ddd 5a29 d23f 8a7c 9431 9969 c2bf
000000b0: e04a 00ae 2d49 bf3f 4956 027b bc82 d63f
000000c0: 7bde 8313 562b fa3f 189c 8fd4 c53b e5bf
000000d0: 0852 b317 66d9 f43f d21f c32d 10e2 f3bf
000000e0: b490 a6ff 7bd2 ad3f de1f b797 24f6 d63f
000000f0: 95f8 b2a9 8269 e73f 8cff d249 7097 d3bf
00000100: 13c1 fe38 4cae f33f dd64 6140 b6b7 9ebf
00000110: 5ac7 4126 ff36 f23f 5039 8f81 ef93 e6bf
00000120: f0a6 cd27 380e c63f 8394 c03d c9d5 fcbf
00000130: c3a8 dfb2 5dd1 ecbf 8e09 6451 25f7 c9bf
00000140: 4d2f 7669 8b40 c53f a06e 0817 f6e8 e4bf
00000150: d1b8 22e4 be20 b5bf ae54 3f75 2917 fb3f
00000160: 264e 1b23 d990 df3f 36d6 589b 2d34 dd3f
00000170: c717 75f9 2b3a e53f 264c f784 0720 eabf
00000180: e8dc 34b7 ff8d eb3f 6926 eeba ab9a dbbf
00000190: e9d2 6646 51af e93f b70d 19f4 f1e6 f0bf
000001a0: 9dd8 dc95 4d0c a4bf 2969 fac9 4bff ff3f
000001b0: 443a dff1 53c1 f8bf 1544 59bd 21c6 f13f
000001c0: 27f6 15c7 63b9 e03f 1418 17bd 9ab4 e53f
000001d0: c055 00ba b069 e4bf 5456 9e33 fb65 e4bf
000001e0: dc57 dc0b 5187 febf 51c5 5ec8 8f1f f83f
000001f0: 3693 0de9 310d e93f 954c 7c2d cb17 f73f

custom_layer.gamma f8 [64]
-0.00414610839859236 -0.07026636041534158 0.028257985625322647 0.05395710725555052 0.00012740089249873497 0.04337486864536431 0.20555911620772827 0.010250453192011212
-0.0389605957146974 0.0040477583304002985 -0.012080269374428548 0.03760545406693702 0.08439612595849055 0.018199047388732195 0.15501839393089312 -0.004872386896010488
-0.07228202648725039 -0.02504144668970355 -0.004505150385391664 -0.008914894843727676 0.046433540441277815 0.006845513024969926 0.06907875380554078 0.018815688109399077
-0.028344320748302412 0.04944869119692644 0.0014430891221078824 -0.005845819623644231 0.03270857801564486 0.021859882337351873 0.023351122786074718 -0.004319125278013679
-0.010739412797694291 -0.057601456814358985 -0.003851957358255897 0.03492879269802989 -0.002393106175234049 0.12192080487349943 0.018319897817997154 -0.029551493631022222
0.10710413229178886 0.042908955253884246 -0.0035335309090530165 -0.007081285521764914 -0.0010343611633401278 0.03602844540405375 -0.04042642208923034 0.2096130623402675
0.002702652548224939 0.11806682110078544 0.005544261520339328 0.06900927715327981 0.020311872839130152 -0.04546088532460564 0.055883404254862774 -0.005727655609785612
0.005102796322619425 0.029039386912348038 0.13619976667942166 0.20307101258485316 0.1258954187279643 -0.024096819515988722 -0.01749270755809471 -0.003069681894572875
00000000: 3d5a a47f 82fb 70bf d52a fee7 f9fc b1bf
00000010: fa46 7250 a9ef 9c3f e744 1916 44a0 ab3f
00000020: 16ff 6155 ddb2 203f 5dab 9914 3b35 a63f
00000030: ace0 c0d8 c24f ca3f 34b8 d489 30fe 843f
00000040: 78c7 daa8 a4f2 a3bf 9b3c 6bda 6194 703f
00000050: d0cd 1e4f 8abd 88bf 7cc9 bca6 0541 a33f
00000060: b89b e608 fc9a b53f 146e 6965 c5a2 923f
00000070: b816 1b8a a4d7 c33f b9fd f265 11f5 73bf
00000080: d3f1 d92b 1381 b2bf c3a5 4e0a 77a4 99bf
00000090: f2e1 1919 fe73 72bf 8fa1 68ee f841 82bf
000000a0: f4fb 4313 23c6 a73f 70be 1069 0a0a 7c3f
000000b0: bb77 712c 25af b13f 4a90 5374 6b44 933f
000000c0: 24af 902a 4b06 9dbf 95a6 0abf 5651 a93f
000000d0: e72d 6b25 c1a4 573f 4b3f a141 c9f1 77bf
000000e0: a070 c0c1 2dbf a03f 32ef eede 6f62 963f
000000f0: 33a8 c352 5be9 973f e5f4 0f5d eeb0 71bf
00000100: f968 f495 8bfe 85bf 1b73 702a f07d adbf
00000110: 9930 23dc 238e 6fbf 9752 a7cc 2fe2 a13f
00000120: 3184 4518 b59a 63bf b038 a2ad 3336 bf3f
00000130: 6339 fa87 73c2 923f 51d4 c52a bf42 9ebf
00000140: 4aae 7529 2d6b bb3f 4cbb 0a9f 29f8 a53f
00000150: 9782 33f6 59f2 6cbf 8e84 ac1b 4401 7dbf
00000160: 7364 9ad7 6cf2 50bf 57e6 7805 5272 a23f
00000170: 85fa 88a1 c5b2 a4bf 0a6e c8cf 99d4 ca3f
00000180: 8393 d389 df23 663f c5dc 5e8f a039 be3f
00000190: c7b4 905e 94b5 763f a472 7e8c 97aa b13f
000001a0: dd1f 42b6 a2cc 943f 5aca 6e2f a646 a7bf
000001b0: 59db 53e3 bf9c ac3f 03b1 6dd8 e175 77bf
000001c0: 6148 2e75 abe6 743f 9273 5644 80bc 9d3f
000001d0: 7f33 ce73 fe6e c13f 70a5 e81e 3bfe c93f
000001e0: 0590 1351 571d c03f 3aff 082f d6ac 98bf
000001f0: 19a4 85bb 9be9 91bf b700 15eb 9625 69bf

layer2.weight f8 [64, 64]
0.13905970958215272 0.08669301761493346 0.06876116121779259 0.09146469192217824 -0.066290165249921 0.05502952347820523 0.12522990128709716 -0.028417214271103275
0.039637716235190655 -0.057832968006366996 -0.003843316278801926 -0.16232709222217254 0.011656621560806997 -0.026068073898917715 0.10496127032157752 0.041161672225768095
-0.07214782522683078 0.10736585283660602 0.04128773867385668 -0.05710031674837109 0.03324358036376662 -0.019059252218321023 -0.06476112718115004 0.019296397372722256
0.08465257506990508 0.07225397968782936 -0.03053043580991019 0.12265686480626158 -0.08726596781379066 0.02382693277216903 -0.02368160177691622 0.08672767416539391
0.02376996783411919 0.06220100240127446 -0.15149954885131747 0.13924903643609612 -0.018467449622148788 0.07229765027049545 0.10596444851894175 0.04199378279968835
0.18819465802590282 0.017471283200936386 -0.08546320304403456 -0.1225563651889025 -0.16478821303128946 0.13605546621929182 -0.038497994722057484 -0.04595782957096575
-0.013554931340527189 -0.013491454865423795 0.007742864650554681 -0.016524624229147866 0.13979986611778322 -0.1717017383986772 -0.028207238875906933 0.04641872457626156
-0.05400649618242187 0.07801984551553158 -0.03672206367892345 -0.0194024303209297 -0.11839103442561638 -0.16265443365245927 -0.18542467132159987 0.03671553665970824
-0.11860906559470738 0.10435304011241216 0.10927840452795991 -0.031877931014928584 -0.11330640976236057 -0.005263345905879369 -0.0932752921683312 -0.09824196178687374
-0.07490527187999292 0.0074433019241387 -0.010751898370294747 0.06790773735125492 -0.026730836047188664 0.07014921412478015 0.07389074284510595 -0.05187253095792545
-0.06169510811352309 0.10375468666993594 -0.09107032767016209 0.12801476776632995 -0.09657411071160847 0.009807903947434382 -0.03023769887248941 -0.03886715709481417
-0.06653546614473774 0.030947096025371757 -0.025099540657146896 -0.025330536093848048 0.03146124262566574 0.10356121601316384 -0.025016847207082617 0.011969408062079561
-0.03693624152123614 0.07857910960161081 0.06844298682951205 0.03757927425829608 -0.03774179759382162 0.07557764016646999 0.010722167378259076 -0.06167805349090905
0.033064935045098116 0.08773148688544777 -0.14057049198164576 -0.09937538532025644 0.04363562014588756 0.006394110948095449 0.03839535660636663 -0.15124193898749325
0.08234161553043369 -0.04990586276966298 0.0033175562567845265 -0.007616694555832863 0.09413743014716158 -0.02760339749177845 -0.002562107483866025 0.06595172912505601
0.08839542043878038 0.04977193850799888 -0.07771370194353394 -0.07011999550489476 -0.0268120939930581 -0.1096664908226679 0.02355728729585975 0.051347146878581544
-0.08710860342678677 -0.013070527920329334 0.09445519798639405 -0.09789644287686328 -0.11554452122020739 -0.13330816189894107 -0.060070811121497154 0.036499720319124546
-0.041874111891284975 0.051494153323218966 -0.1297266530655415 -0.08145414087790266 0.10181733622873977 -0.0326566988973832 -0.18169329164648115 -0.04275948016392311
-0.05403336266885325 -0.04657765390926781 -0.12424861938106431 0.05797266103401273 -0.1800835488657794 0.021728148920666275 0.03165611663106763 0.03996473213177953
-0.06577991185780449 -0.19992988372988782 0.01384532061472852 -0.02086891736100599 0.053155106644632986 0.11067095431821694 0.02143884476353785 -0.046551697089623506
-0.11185364910091601 0.06978840469092162 -0.11137767759074367 -0.10102063086220191 0.054451660505444796 -0.0008831621165536836 0.11022236301047418 -0.010431890878269661
-0.1315642544409371 0.0031062056077617007 -0.03285420994933475 0.10498813464376804 -0.15416578908662457 -0.06510259836238232 -0.1353236609991168 -0.13074262657212654
0.04908815385225727 -0.0099530424468486 -0.13991458496502032 0.10626455757791271 -0.04854968496535129 0.0085124608394846 0.015463591032739971 -0.08069273946805035
-0.07103120034554894 0.16167486123614172 -0.0609493830611542 0.10730336227572232 -0.012153301175239568 -0.025301503906271075 0.04358803584900682 -0.04004971978205381
0.027800588879726203 0.018470337289155554 -0.07897739139311319 -0.05732425190299433 -0.014897887533071098 -0.036434480701312506 0.044870922203011906 0.09889473142454222
-0.018759066265733537 0.02462081370190778 -0.07052299657966749 -0.09040365401985503 -0.06312247867993905 0.039740152600057 0.08467759020775535 0.11264898560537899
0.05311007724646799 0.08638203119531414 0.10771023109409857 0.10435600080469544 0.10660093711116903 0.09405404229664831 0.032415063095220235 0.11789704833870303
0.044580399117069784 0.06995204325557791 -0.06455628083340856 0.09347903340609653 -0.030726480966332126 0.11278298842843155 0.1069695917589755 -0.09072448876498827
0.09949594922750611 0.12111641506564279 0.006929575084387341 -0.0842180614846994 -0.008972394218943146 0.09502383410361942 0.049659306913904536 0.06047307218507079
-0.08918634364183364 0.02025869377770691 0.04346831842704866 0.009162672648504382 -0.06582418679619077 0.030665210204319178 0.09063775450369257 0.06151497825929071
0.10203926260634047 0.1202242489258984 0.048022595801067554 0.09086777392409293 0.017613555678694246 0.10748829946739373 -0.06904650938031512 -0.0553713355335732
-0.020757888188167477 0.006222224562340887 0.026339732075718797 0.10758987145180982 -0.04468614108804166 0.10763053513356191 0.09249282691129049 -0.018114096823837272
00000000: 835d 6c64 b5cc c13f e39b 727b 8331 b63f
00000010: d557 aada 549a b13f 7262 8be4 3a6a b73f
00000020: 0d7b cb6b 64f8 b0bf a184 4e67 d42c ac3f
00000030: b633 418d 8807 c03f 1052 c0f7 6619 9dbf
00000040: c327 d60d 654b a43f 8798 6f64 489c adbf
00000050: a16e 38b7 047c 6fbf 43ac 2c58 22c7 c4bf
00000060: a488 1543 6ddf 873f 1856 76d3 96b1 9abf
00000070: e7b6 60e7 bdde ba3f 76df 1d88 2413 a53f
00000080: aca6 d3a5 4778 b2bf 66ef a31a 547c bb3f
00000090: ecf6 a89e aa23 a53f ab0d 0db2 403c adbf
000000a0: 10bc ed74 4d05 a13f b709 dbc3 4484 93bf
000000b0: 0a8e 4b6b 2f94 b0bf 3efa 954e 6fc2 933f
000000c0: 978a 7289 caab b53f fbdb c39f 3c7f b23f
000000d0: 9842 58dd 5e43 9fbf 8f08 f9b6 7066 bf3f
000000e0: 9563 d0fd 0f57 b6bf 93f2 1464 1666 983f
000000f0: 1752 9864 fd3f 98bf 9dd1 32ec c833 b63f
00000100: f7e6 e589 2757 983f 600c 2f4e cfd8 af3f
00000110: bd6b d653 5664 c3bf b90b bf94 e9d2 c13f
00000120: 2cae ab90 21e9 92bf dc4a 7d4b 1982 b23f
00000130: a372 ed70 7c20 bb3f 401d 8587 3580 a53f
00000140: 6f67 c036 c316 c83f 6163 def7 fde3 913f
00000150: b1e5 159e eae0 b5bf fc28 679c da5f bfbf
00000160: 692a deb8 c717 c5bf 4e4c edf8 436a c13f
00000170: 2dec 9558 02b6 a3bf c43f 01de c887 a7bf
00000180: 74eb 7416 b0c2 8bbf 3c30 616b 68a1 8bbf
00000190: 3f4a 3967 fbb6 7f3f f34e 92c2 d4eb 90bf
000001a0: ee03 7b46 f6e4 c13f 6859 8b93 52fa c5bf
000001b0: 420f eec1 5be2 9cbf 2843 f4ef 31c4 a73f
000001c0: a806 c04d bda6 abbf 3b9d edcc 1bf9 b33f
000001d0: 69d0 15fd 3bcd a2bf 41e7 c30e 3bde 93bf
000001e0: d864 fff4 df4e bebf 7519 8b48 dcd1 c4bf
000001f0: 2f52 99e1 febb c7bf 3ac5 6afa 60cc a23f
00000200: ee06 bde9 295d bebf 5d5f 857e e1b6 ba3f
00000210: 294d 9b65 abf9 bb3f d8b5 58de 4d52 a0bf
00000220: 7d44 5b1c a601 bdbf 5a58 88a8 048f 75bf
00000230: a948 63b9 e3e0 b7bf 7131 f89c 6226 b9bf
00000240: 5dc6 05ed fd2c b3bf 2535 6a25 de7c 7e3f
00000250: 6f70 f65e 1705 86bf d3a9 11c7 6662 b13f
00000260: 2c3b 780a 545f 9bbf 508b 8184 4cf5 b13f
00000270: 4533 fff3 80ea b23f b2d1 0c50 098f aabf
00000280: a26e 574f 8096 afbf a1d9 0dca aa8f ba3f
00000290: afb6 fa8e 6250 b7bf e10f 7bb4 c962 c03f
000002a0: 4f8a 25b7 14b9 b8bf 8d83 9295 2a16 843f
000002b0: 25f7 0d9f a1f6 9ebf 74b0 3861 65e6 a3bf
000002c0: b2a2 1de3 7708 b1bf cd2f 5775 98b0 9f3f
000002d0: 587a 11a9 b1b3 99bf 3ef1 7380 3ff0 99bf
000002e0: 2067 5620 b01b a03f 8218 e9e3 fc82 ba3f
000002f0: 7aee 6932 049e 99bf 76d1 6ec1 6a83 883f
00000300: 37e2 bd9a 4ee9 a2bf 7d41 e3b1 c21d b43f
00000310: a4c4 12c6 7a85 b13f 7dc2 e433 973d a33f
00000320: 7726 b794 e452 a3bf 7be7 d264 0e59 b33f
00000330: d5d9 daf1 80f5 853f 71b0 3f0d 4494 afbf
00000340: b17c 531d e3ed a03f a2a0 001b 9275 b63f
00000350: 9901 ecc0 36fe c1bf a657 fa4d aa70 b9bf
00000360: 773d ef72 6857 a63f 4688 8b16 b630 7a3f
00000370: c29c e261 8ea8 a33f 8f11 de56 e55b c3bf
00000380: 9d92 cd11 5714 b53f 2ae0 f2e0 428d a9bf
00000390: e756 0474 6b2d 6b3f c4b3 55e0 ae32 7fbf
000003a0: 50c1 cfff 6319 b83f 4755 f1a5 1044 9cbf
000003b0: 61ec 43fb 20fd 64bf a2ee b467 36e2 b03f
000003c0: 5a96 e60f 15a1 b63f 60fe 4c20 b57b a93f
000003d0: 146f 4c90 0be5 b3bf 8e3b 7d4f 62f3 b1bf
000003e0: cb8f 592b a174 9bbf d1e9 8c67 1a13 bcbf
000003f0: 6ca1 12ca 661f 983f bf3e 2c59 2c4a aa3f
00000400: 9314 ebda bf4c b6bf 6d95 ac8f b8c4 8abf
00000410: abec 4942 372e b83f 2805 8dc4 bd0f b9bf
00000420: c66d df63 5394 bdbf 66aa d2e9 3d10 c1bf
00000430: 410b 6cf2 99c1 aebf 14e6 2a62 17b0 a23f
00000440: af85 3e0a 8670 a5bf 04b8 ea10 715d aa3f
00000450: 5203 2b0a e29a c0bf 25c2 31b7 2dda b4bf
00000460: 8fad 4471 b310 ba3f afe7 84fb 60b8 a0bf
00000470: db19 c3cc b941 c7bf 07c8 cb11 92e4 a5bf
00000480: cc7b 1ccb 42aa abbf 4e88 87b8 06d9 a7bf
00000490: 3d98 d0ec c1ce bfbf fa06 68b6 97ae ad3f
000004a0: c58b 764c fa0c c7bf d248 1164 e73f 963f
000004b0: 242f 4c03 3b35 a03f 7fb0 ffe2 4176 a43f
000004c0: 86bc 29ca f3d6 b0bf 2b75 0e6c 4d97 c9bf
000004d0: 3472 f179 ef5a 8c3f 1017 4656 a95e 95bf
000004e0: 03e5 4e69 2537 ab3f 30f2 6981 ee54 bc3f
000004f0: be60 7e84 10f4 953f 947e 25c1 9fd5 a7bf
00000500: 39a2 d3d4 70a2 bcbf 009b c923 a7dd b13f
00000510: 87b5 c15a 3f83 bcbf 0f42 c6f1 7cdc b9bf
00000520: 3ee5 2a8a 16e1 ab3f 4457 2e34 80f0 4cbf
00000530: b1f6 6a64 8837 bc3f 76c8 42b1 505d 85bf
00000540: ccbe 12f5 18d7 c0bf 7be7 ff6f 2f72 693f
00000550: 0160 895a 44d2 a0bf d355 c39c 80e0 ba3f
00000560: c700 255f b4bb c3bf c1de d95a 90aa b0bf
00000570: 8edf 2e25 4952 c1bf a803 a9a4 2cbc c0bf
00000580: 6d3a d51e 1522 a93f 0b77 70be 4262 84bf
00000590: 193f 549b b8e8 c1bf 2563 856f 2734 bb3f
000005a0: e187 501a 81db a8bf 6402 5027 fb6e 813f
000005b0: bd5c 1d0e 60ab 8f3f 8138 0a85 47a8 b4bf
000005c0: 54d1 7aca 192f b2bf c41a cc08 c3b1 c43f
000005d0: 7606 ebed c134 afbf 069e b9af 3b78 bb3f
000005e0: 2a51 b078 d4e3 88bf e4a8 442f a3e8 99bf
000005f0: decc efc8 2b51 a63f ca13 5b99 6581 a4bf
00000600: d21d 31f0 c177 9c3f 157c 695a e3e9 923f
00000610: e624 28c1 dc37 b4bf 37ce 61b6 9a59 adbf
00000620: 4749 df9d c882 8ebf 9125 1e4e 8aa7 a2bf
00000630: de7c ce4e 52f9 a63f 9a11 3745 2a51 b93f
00000640: 0094 75a0 9335 93bf 9237 9ad6 3236 993f
00000650: 94f3 ec8b cb0d b2bf e644 74a1 b124 b7bf
00000660: b9a2 9275 cb28 b0bf ebb5 823f d258 a43f
00000670: 697a a538 6ead b53f 1349 1a5d 90d6 bc3f
00000680: 7025 b979 3e31 ab3f 3528 f2fe 211d b63f
00000690: c566 fecf e592 bb3f d9f6 982a 13b7 ba3f
000006a0: 688c 9df2 324a bb3f 2380 b8fb ec13 b83f
000006b0: 1f93 c807 b598 a03f 85df e83e 802e be3f
000006c0: ef39 80f8 3dd3 a63f 9832 128a 60e8 b13f
000006d0: 3e4e eeaa c286 b0bf a843 57ef 3dee b73f
000006e0: 007b 7c3b c376 9fbf f562 d88e 58df bc3f
000006f0: 0272 45f2 5b62 bb3f 3f23 3158 b839 b7bf
00000700: e540 0408 9178 b93f f337 b741 7c01 bf3f
00000710: b44a cda5 2f62 7c3f 5c2e cf9b 508f b5bf
00000720: c6be e55d 1e60 82bf 84c9 d063 7b53 b83f
00000730: 3245 46d6 f16c a93f 3da5 a596 53f6 ae3f
00000740: b005 318d ead4 b6bf 7591 f0ec b1be 943f
00000750: cdd1 1cbc 7a41 a63f 1649 f41a e1c3 823f
00000760: ab4f 9399 dad9 b0bf 7260 cf6b b366 9f3f
00000770: 0651 602f 0934 b73f baf4 ac27 e47e af3f
00000780: 325c cdbf 3e1f ba3f 5da9 5231 04c7 be3f
00000790: 7985 deec 6a96 a83f 36a9 4345 1c43 b73f
000007a0: 39d1 6cb6 4909 923f ab44 ea6a 5a84 bb3f
000007b0: 4a00 b133 08ad b1bf df4c 81b6 a159 acbf
000007c0: 5edb 9b4b 8e41 95bf f7d5 0eb0 797c 793f
000007d0: 7807 677f cdf8 9a3f a430 4483 028b bb3f
000007e0: 3b7b 1d15 1ae1 a6bf c81a 73bc ac8d bb3f
000007f0: 3ad6 b222 9cad b73f a8e0 d175 808c 92bf

layer2.bias f8 [64]
0.12533144575892216 -0.0988532442674613 -0.020945246040956607 -0.018204659899852718 -0.03348744405235274 0.03444107564528823 -0.06120773577880159 -0.028280324065070594
0.11400637730606834 0.09704018438032262 0.08785221169695134 -0.04401412909622628 -0.03246654278001805 -0.050710040581749036 0.038889606551744 -0.027104144334763654
0.025928870689430752 -0.11945870724110397 -0.019865103555842714 0.09602254473522986 0.06652894306691394 -0.00918290251171316 -0.05462201235078015 -0.028566795975167696
0.0943051897991188 0.08743242655968396 -0.022515154978967385 0.043884306961662824 0.018690634307032328 -0.10260183296142458 0.012592419309961191 0.08040318995103346
0.020541674702057776 0.0035728799484905298 0.01419351278473086 -0.06735789902126199 0.03991975196971612 0.043723745395893916 -0.12591002635070572 0.07185933140123539
0.05265930669616194 -0.11069495577994239 0.11303418982659212 -0.011539567004671552 0.047320854796050756 0.014814943527794352 0.04331388804511956 0.02190282690325623
0.08698243461601321 -0.01376546446364729 -0.10860005916224456 -0.10169760859265915 -0.001040714680207119 -0.09338833540321441 -0.003324507483246995 -0.05890770355563694
0.05420126578505612 0.03569634156752223 -0.025723124529695114 -0.0009414733147949553 0.002793786408438644 0.10058009833865911 -0.0858425160295995 -0.11386423733060892
00000000: bbf4 585e dc0a c03f 7574 3b3b 724e b9bf
00000010: e2a4 02ab ab72 95bf d461 9e0b 3ea4 92bf
00000020: c41e 102a 4425 a1bf e436 12bb 42a2 a13f
00000030: 5444 ddce 9e56 afbf 3346 eb6b 84f5 9cbf
00000040: d9a3 109e 852f bd3f 13b1 4f22 a0d7 b83f
00000050: 00a3 1e88 7b7d b63f 3378 0f1a 0589 a6bf
00000060: 32a2 e866 749f a0bf 7640 c19b aaf6 a9bf
00000070: 6f8d 96a8 56e9 a33f 6ff7 0356 30c1 9bbf
00000080: 8784 880e 198d 9a3f d0ae d288 d894 bebf
00000090: 647e 6a88 8457 94bf c006 51f9 ee94 b83f
000000a0: 29b8 b572 0a08 b13f 7de5 c24f 7cce 82bf
000000b0: 046a 6099 6af7 abbf 8e01 dc39 9d40 9dbf
000000c0: f5c0 078a 6224 b83f 2f0b afb4 f861 b63f
000000d0: 9f36 3279 360e 97bf a57a 6afe 0078 a63f
000000e0: 405d 5c3c a323 933f 9a37 141d 1d44 babf
000000f0: 2111 e9e8 0dca 893f 9871 55af 4d95 b43f
00000100: 569e 3374 e008 953f ef6a 0051 df44 6d3f
00000110: 2364 ce09 7d11 8d3f 7070 6c05 5e3e b1bf
00000120: 0546 599a 5c70 a43f c967 1171 f562 a63f
00000130: 7d17 b5da d11d c0bf 0bde 4786 5f65 b23f
00000140: f21a 2e20 29f6 aa3f 6132 e82e 8156 bcbf
00000150: e393 a204 cfef bc3f d617 2977 0ea2 87bf
00000160: 711d 8967 703a a83f cb3c 8d0f 4c57 8e3f
00000170: fb97 3be9 3c2d a63f 4f2e f5d4 b16d 963f
00000180: 7a92 0018 7b44 b63f df23 7c5d 1131 8cbf
00000190: a70c 72a6 36cd bbbf 25a4 fcbe da08 babf
000001a0: 256f 05e1 120d 51bf b57a 6246 4ce8 b7bf
000001b0: 2fab 4e5d ff3b 6bbf 4502 8288 2629 aebf
000001c0: 7fb1 e5af 44c0 ab3f e21b 3d77 ca46 a23f
000001d0: f284 6caa 2957 9abf 9cce 6d8c a6d9 4ebf
000001e0: 113a 33a8 fee2 663f 9035 fe08 9ebf b93f
000001f0: a217 f46e c6f9 b5bf c1d9 84e7 3426 bdbf

custom_layer2.alpha f8 [64]
0.6657223429842845 1.1595963951339858 -1.1699433528558478 -0.01704221164984645 0.5337989150418875 1.5528181120054674 1.1306947060592702 0.7715851139264486
-0.008271334862686216 0.14852396210065297 0.8694312501539567 -0.1972727740990325 -0.6386513587894399 -0.6017171386716079 -0.24046989437516486 1.245917070729406
-0.47612008270338735 0.9884827976711941 1.0835386246313408 -0.6972320917471653 -0.09306793600830511 -0.3262201726023446 -0.6068835578746137 -0.8674030387094921
-0.26493223230981344 0.9153337741443378 -2.012536318679685 -1.0390522767677246 -0.7194569327616911 0.7485333359249281 -0.019510459296736275 -1.0505946863060587
-0.35160735577419655 -0.45060920091425544 -0.5230173420624823 -1.4905383635406413 -0.23572549482210936 -0.9420334410245877 -1.659599493759746 -0.1915341396937506
-0.27252816472052643 -0.3762370646719209 0.6445185342942382 1.009030121233465 -0.31828969335338964 -0.6607177897873658 1.4442329917960501 -0.08704444125269178
-0.8917575734520395 0.5127507789579856 -0.7988515569831962 -0.42370592617167535 1.6593161382019088 1.5838728378528533 0.7597894559454742 -1.7899318490356573
0.7913990694727235 -0.54526691790156 0.9478625112832303 -1.2059969013527907 -0.6127338878309162 0.07656453281081654 0.3707808416893257 -0.45954418179300094
00000000: 1ab0 6af1 984d e53f 358f 1af3 b48d f23f
00000010: e903 6b85 16b8 f2bf 661a c076 8373 91bf
00000020: 97d8 5776 e114 e13f fc32 fbcd 57d8 f83f
00000030: f28e 0455 5317 f23f ff9f cc43 d3b0 e83f
00000040: 1e05 d6c5 8ff0 80bf d383 f24b d502 c33f
00000050: 3003 317c 61d2 eb3f d6c1 92f8 3b40 c9bf
00000060: cd7d 71f9 d46f e4bf 2d31 014d 4441 e3bf
00000070: b8c7 01ae b7c7 cebf 85f9 04bd 46ef f33f
00000080: e482 0b5e c078 debf ee00 15ad a6a1 ef3f
00000090: 2ee9 cb98 2c56 f13f ead2 f8ac b94f e6bf
000000a0: 813e 76dd 4cd3 b7bf c8d7 2793 cae0 d4bf
000000b0: 9ea6 3111 976b e3bf 51aa 7604 c4c1 ebbf
000000c0: b652 5b52 a6f4 d0bf 4bf9 1b0e 6a4a ed3f
000000d0: 8eee 35a4 ac19 00c0 d6d3 b847 f59f f0bf
000000e0: 20f1 a28b ca05 e7bf 596d b82e fcf3 e73f
000000f0: 2e0c 70c2 8cfa 93bf 0d93 b05f 3ccf f0bf
00000100: 5453 8523 bc80 d6bf d704 4df9 c7d6 dcbf
00000110: 4dc6 6cdd 8ebc e0bf 5572 4dc1 3ed9 f7bf
00000120: 8c14 8cc5 402c cebf df0b 9e50 2325 eebf
00000130: 1080 e232 b88d fabf feac 06d1 3084 c8bf
00000140: 00ab adf8 1971 d1bf a1c5 13a0 4414 d8bf
00000150: 1bb5 4e55 e59f e43f bf06 b6c4 fc24 f03f
00000160: ccd3 e6bb db5e d4bf 5db5 60a2 9924 e5bf
00000170: a417 b90d 941b f73f 7c99 7a64 8b48 b6bf
00000180: 7efa bd2d 4789 ecbf 37f0 5352 7468 e03f
00000190: 8e3f f323 3190 e9bf d0d6 0176 ff1d dbbf
000001a0: dfd5 3414 8f8c fa3f 889c 790b 8b57 f93f
000001b0: cb34 24fa 3150 e83f d1d4 1a94 8fa3 fcbf
000001c0: b60b 2f24 2453 e93f 194b 7f9b d372 e1bf
000001d0: e51b e2c2 e354 ee3f 8133 2668 c34b f3bf
000001e0: 9b4f 2c19 849b e3bf d8ba 74b4 bb99 b33f
000001f0: 187f 4291 dfba d73f 9a8d f7ff 2b69 ddbf

custom_layer2.teta f8 [64]
0.3469357730984512 1.4969030096893376 -0.7631803957043306 -1.2374983762665008 -0.6805237801222744 0.7667637245825151 0.14699241124514856 1.3766993490701325
0.8599884908646306 0.4828297276653069 0.9835822966320603 1.7896117690110493 -1.5485544694002886 0.3141779781733109 -0.16408906090975087 -0.023711640077733565
0.9328905680837017 -0.028038040656821108 0.05512668699732153 0.7220052937959238 0.9780679545313902 1.3635343714520063 1.3177195720553136 -0.3596810148602743
-0.7351920493920291 -0.9997889204016871 0.08972432985312137 -1.504495486778078 0.08704629182093143 -0.6409937305666893 1.644269679110882 0.28603363468071835
1.1506626247988847 -0.9657609848403613 0.4725574247295106 -0.1123467290410696 -0.3443468891042851 0.12561992354414728 1.7609120250712533 2.4450396426430814
1.049401082270198 0.7075906978234707 -0.5001066587286084 -2.116836582231208 0.7731595427864714 -0.25540114388556295 0.0680471749540946 2.653806936334673
0.5940116784717494 -0.7982005116003058 -1.5708815615922405 -0.598859939709148 -0.15310826527904148 0.6109592607380583 -1.357943291816042 -0.688736806565583
0.7008640470426358 0.8885091263187936 0.8504947180056273 0.6963036715991285 -1.6039929009885587 -0.2155164413195861 1.420866071478538 -2.316267138556172
00000000: ff4c d119 3234 d63f 1365 fe91 50f3 f73f
00000010: 36f3 0f4b f96b e8bf ffae ee18 cbcc f3bf
00000020: 99d0 78ce d9c6 e5bf e9e9 1a14 5489 e83f
00000030: ae6f 87b7 a5d0 c23f 2de4 8ae5 f506 f63f
00000040: 4366 6695 0685 eb3f 29fb 76a8 aee6 de3f
00000050: 57b2 9e94 8179 ef3f d006 47f3 3fa2 fc3f
00000060: c861 220d e1c6 f8bf 6b2d 58f3 7d1b d43f
00000070: c58e 1ecf de00 c5bf 0d6e ac3a dd47 98bf
00000080: d352 1552 3dda ed3f 97ec a80e 01b6 9cbf
00000090: 67a5 94ab 9039 ac3f 408e 8cd8 aa1a e73f
000000a0: 404b bf2a 554c ef3f 87bb c56a 09d1 f53f
000000b0: 506d 341e 6115 f53f 3549 f484 0305 d7bf
000000c0: 1b60 0d7a b186 e7bf 99e8 8055 45fe efbf
000000d0: 8eea 5f76 2cf8 b63f 2910 0bdc 6912 f8bf
000000e0: a4e5 9b70 aa48 b63f ec32 b748 0583 e4bf
000000f0: d55e 19b9 ed4e fa3f df9e a004 604e d23f
00000100: 06da 6336 1d69 f23f 1d8c b494 83e7 eebf
00000110: a57e 2c7f 613e de3f 7241 0b57 c1c2 bcbf
00000120: e0a9 cb88 c709 d6bf 9f8f ac4b 5014 c03f
00000130: d206 6d16 b22c fc3f c09a b4f1 708f 0340
00000140: d3cc 0bca 58ca f03f 4861 433f 95a4 e63f
00000150: e109 f8ad df00 e0bf 8f46 9d04 48ef 00c0
00000160: 6f76 db14 b9bd e83f ef5d 160a 7e58 d0bf
00000170: b655 0327 8a6b b13f 9ba4 8b21 ff3a 0540
00000180: ab4d 8fc7 2402 e33f 3929 9fcc db8a e9bf
00000190: 6dd9 4eb4 5422 f9bf 29ee fd51 dc29 e3bf
000001a0: 9275 0f38 0d99 c3bf 92dd 816f fa8c e33f
000001b0: 7fc2 c2be 22ba f5bf 6205 78c5 210a e6bf
000001c0: c1b0 1f70 7a6d e63f 7893 f7b0 aa6e ec3f
000001d0: 3c28 e8b2 4037 eb3f 9f4b 33a3 1e48 e63f
000001e0: 4231 cc75 f4a9 f9bf fbe4 9bf1 0a96 cbbf
000001f0: ecf0 cf0f debb f63f a32f c710 b787 02c0

custom_layer2.gamma f8 [64]
0.10160808291299402 0.003851357225081379 0.042013651851729984 -0.005325672670315023 0.1154227485498004 -0.001605510186012188 0.08210017744672417 -0.042468617215271086
0.000545022233252406 0.004386088733467781 0.0005200008948606427 0.004536088816510623 0.030755702628336008 0.009688402469754252 0.08335253437015135 0.0571580602433513
0.00017071254446185017 -0.0047420972850449016 0.008348091905290237 0.007931553874344535 0.0004023320102586506 -0.011272938552283202 0.0011059215490030485 -0.04387749681997775
0.042441873538547975 0.01406492020206367 -0.02864000769303597 -0.03580765504284772 0.06018063169979129 0.03959560545598233 -0.02792350303521027 -0.01600256144615342
-0.014647475138931634 0.004552923956567945 -0.02230306935238705 -0.017553698998736524 -0.030496117168992136 -0.024492679152983976 0.004174948103113386 -0.013180420792368993
-0.002844880451326212 0.0030699470580381094 -0.05559517142121995 0.061390149884771844 -0.005941926486605827 -3.971571302735994e-05 0.03475432986163324 0.0322385489242005
-0.012030957836375021 0.04855900425074622 0.04576423198551756 -0.03333085684680359 0.0170515904471332 -0.0163743682353459 0.019284668884867698 0.01677740764708565
0.021915862850713848 -0.0018635840153418007 0.00043204217158392306 0.01720014138932226 0.028082128629495617 -0.014348222656402048 -0.020516100300277028 0.027145804993772647
00000000: 65dd 1ec1 fc02 ba3f 5546 76aa e18c 6f3f
00000010: 9d9e 6039 d082 a53f f9d7 2b5f 5fd0 75bf
00000020: f95e 3c62 588c bd3f 1a20 826f ff4d 5abf
00000030: 6925 2169 8404 b53f 6384 1754 72be a5bf
00000040: 5fc1 6d55 fadb 413f 6e7b aeba 25f7 713f
00000050: b835 2d6b 150a 413f b70c e611 6f94 723f
00000060: f51a d143 6c7e 9f3f 528c 105e 83d7 833f
00000070: 8194 2879 9756 b53f 295f e53e d243 ad3f
00000080: 723b 4997 2960 263f dc3a 0f0c 736c 73bf
00000090: e2df bced cd18 813f 8863 f923 6b3e 803f
000000a0: 4d81 81d3 025e 3a3f 9084 4b33 4416 87bf
000000b0: 865c a238 921e 523f 3d8a be7b 1c77 a6bf
000000c0: cc76 a8f5 f0ba a53f da48 4fa2 11ce 8c3f
000000d0: 3c59 9861 ce53 9dbf 8801 b686 6155 a2bf
000000e0: a4a6 01ea fecf ae3f e65d ff0c e045 a43f
000000f0: f9ce 4d91 fa97 9cbf 81fb 40b8 f962 90bf
00000100: 8e85 86d5 7eff 8dbf 9a05 ea37 16a6 723f
00000110: 292d e0a5 9dd6 96bf ea5c 7ecc 98f9 91bf
00000120: fe4d 95c7 5f3a 9fbf f05e d0df 9b14 99bf
00000130: 9bc0 0b19 c019 713f ab85 0122 56fe 8abf
00000140: acb4 fb8f 254e 67bf 2907 df46 2526 693f
00000150: a0a9 2366 f876 acbf ac6f 1a9c 876e af3f
00000160: e29c f6be 8f56 78bf ca62 3b82 8dd2 04bf
00000170: 58db 4ccc 51cb a13f 5c91 9932 9281 a03f
00000180: 5904 93d3 afa3 88bf e0d6 5dce b9dc a83f
00000190: 3aa1 68cf 686e a73f 8098 35f8 bd10 a1bf
000001a0: d9c9 42dd f875 913f c5fe 4040 71c4 90bf
000001b0: 64e3 b238 5cbf 933f 76a2 9fc4 182e 913f
000001c0: 726a d4a8 1c71 963f c92b 8d19 7088 5ebf
000001d0: 229b 58ff 7650 3c3f e5cd 03f3 e99c 913f
000001e0: b353 43c0 8fc1 9c3f 9610 85d8 9962 8dbf
000001f0: d617 532f 2c02 95bf a9f8 af22 1ccc 9b3f
