COLA_Emulators/PCE/LCDM_PNN_HIGH/MODEL_Z0.186.pth (torch, 60802 bytes, 12 tensors)

layer1.weight f8 [64, 19]
0	0x3f8c6a516d1e09fc	0.013874660627839035
1	0x3fcb649cc13111f2	0.21400794442355636
2	0x3fc277245cd953a1	0.14426092656745218
3	0xbfc419a73231b7d9	-0.15703287077798114
4	0x3fa4950b5efc1f6e	0.04019961866839493
5	0x3fce8d2874d923ee	0.23868280129889236
6	0x3fd2af60b6a87a2b	0.2919542106409689
7	0x3fb3a9d220baefa4	0.07681000994756332
8	0x3f985c5502f48aa9	0.02378971891915663
9	0x3fc7d72fee490dba	0.18625449309375403
10	0xbfc080cbd340b118	-0.12893054785798408
11	0x3fc7498383fa9c6e	0.18193096107754364
12	0xbfa698515cdf151d	-0.044130842768519175
13	0xbfc315cd694d0110	-0.1491028560794878
14	0xbfbce0719d397f4b	-0.1127997406815641
15	0x3fb75e798b7362ff	0.09128532080229589
16	0x3fc392a5c4d535cc	0.15291282759646518
17	0x3fcf3e6b2f2c719f	0.2440923672046553
18	0x3fc1342b2bdd3a8a	0.13440456048779864
19	0x3fa1a1ce7e5b867e	0.03443761150789458
20	0xbfc9ab3e0b04c1d5	-0.20053840196625453
21	0xbfbe40880cd7483f	-0.11817217172145521
22	0xbf940b4603aa93c5	-0.019574254964613198
23	0x3fcd8cb50035ccaa	0.23085653791676936
24	0x3fc6dd99687629c9	0.1786376724306378
25	0x3f8ef38842b57100	0.015112938438214929
26	0x3fb7d59c6da612e0	0.0931031959244808
27	0x3fbcd2bee6581c7d	0.11259072421681711
28	0x3fc09a4a705e4c0a	0.12970858084426623
29	0xbf40f965836e2a1f	-0.0005180116339585406
30	0xbfc834c00acb49a6	-0.18910980727248478
31	0xbfabdda334d3c100	-0.05442533511984671
32	0x3fbb4876bb7f8151	0.10657445981587911
33	0x3fca3ebfba28ee9d	0.20503994550550866
34	0x3fb320b0f06f088c	0.07471757764781922
35	0x3fb98ff6bb77fb6c	0.09985296322700571
36	0xbfc00e5fb6f04bd1	-0.12543865616370778
37	0x3fbc36b6dab89c8a	0.1102098735797076
38	0x3fa1fc26dce032ff	0.03512689062345053
39	0x3fa53aaf49ab5452	0.04146335386546042
40	0x3f927269cd1023d4	0.018014577046446892
41	0x3f85ab788cfcc01e	0.010580961039153233
42	0xbf8829d3179f643c	-0.011798524053960084
43	0x3fc4270695f64191	0.15744097063408138
44	0xbfc1f369afab54e0	-0.14024087026215337
45	0x3fa10018c359fbbb	0.03320386299764474
46	0x3fc2ca0a2f42fddb	0.14679076488208306
47	0xbfcbb1dfb8ea9e17	-0.2163657811081385
48	0xbfcb9b07af6d9c43	-0.21566864076450729
49	0xbfbc3cb5963b745a	-0.11030135076312444
50	0xbfcc6056311a26ab	-0.22168996236387292
51	0xbfb93ed40859fa27	-0.09861493305104628
52	0xbfc179faf2cc1fa5	-0.1365350423368429
53	0xbfb6aa1240012a64	-0.08853258192645225
54	0xbf963623907331db	-0.02169089860108096
55	0xbf8e9327ea7a18b4	-0.014929115145843809
56	0xbfc7b1b30af6e563	-0.18511045489666875
57	0xbfa5fd014f88afb3	-0.042945900877696806
58	0x3f9e9a31ef039c4c	0.029885082448256647
59	0x3fc0133bef61fada	0.12558697880373054
60	0x3fcb9bdb54fa9e7f	0.2156938710152083
61	0x3fab3cd57253f138	0.05319849987606279
62	0xbfd5065f20db91df	-0.32851389130362735
63	0x3fce30f3ab46c69a	0.23586889136418138
64	0xbfab64a858720f9c	-0.05350233153970338
65	0x3fd09e0d606d88cc	0.2596467439344792
66	0x3fcfd7b7656b1bc1	0.24877064182348188
67	0x3fba704d58799fc7	0.10327609453236085
68	0xbf97b96abeff48c0	-0.02316824713472765
69	0xbf86f8bfa51cd265	-0.011216637827240203
70	0xbfc601cdac401c57	-0.17193003569284102
71	0xbfccc4624fa693e0	-0.22474316491312063
72	0x3fbb920caea5b3c1	0.10769728912209954
73	0xbfb3e2c02bafa525	-0.07767869059138784
74	0x3fc79980c9268767	0.18437204191018994
75	0xbfb735816d77c2e3	-0.09066018030695093
76	0xbf937698c953e7b3	-0.019007098472662864
77	0xbfcb74e86f62a5c6	-0.21450524748551753
78	0x3fb6d70bcce4c3ec	0.08921884300504218
79	0xbfe02f2fc5e0773d	-0.5057600846082334
80	0xbfb720bb88401b94	-0.09034320904184617
81	0x3fc01b682a0864ab	0.12583639194852955
82	0x3f76da99cf5b8abd	0.005579567737842237
83	0xbfc62cae02b783cb	-0.17323851711901592
84	0x3f8c9f9067999c8d	0.01397621933138129
85	0x3fb731f4a54306cf	0.09060601267540423
86	0xbf86606e5ffa4c47	-0.010926115325935138
87	0xbfaa528981e23ef4	-0.05141095839019086
88	0x3f697733ed5607e9	0.0031085981560758824
89	0xbfb3cb67e1f958d2	-0.07732247607177392
90	0xbfcc49d162c5c498	-0.22100274393918506
91	0xbf943bd468025cb0	-0.019759482238978776
92	0x3f99a34d764bc4e9	0.025037012429440706
93	0x3fcac42fdcd5af21	0.2091121509832812
94	0xbfb12444aedc78a7	-0.0669596602351442
95	0xbfb0283ef8c381f6	-0.06311410497028888
96	0x3f9dbd1a6e98c7af	0.02904168415097502
97	0xbfcde0fde0efcf9e	-0.23342870219459838
98	0xbfd6ef1cc19fe0c0	-0.35834425839085426
99	0xbfba2c0e438ef077	-0.10223473691343253
100	0x3fb4cf6e6a316eb8	0.08129015057186961
101	0xbfa48237f55b84cf	-0.040055988980165595
102	0x3fa3f008d971a790	0.03894069341988804
103	0x3fa9bb252a09c1a8	0.05025592935715234
104	0x3fc288786afc9b3d	0.1447897455593309
105	0xbfcdca002627763a	-0.23272706854815955
106	0xbfc615847bc9e945	-0.1725316624104584
107	0xbfca0a5299616f3d	-0.2034400223664025
108	0x3facfb030218ee4e	0.05660256767847881
109	0x3f995c50f0487414	0.02476622072764563
110	0x3fd194851f36b1e9	0.27468994186599943
111	0x3f8ea30e1058a444	0.014959440111015472
112	0x3fccec58f87c271f	0.22596275456481238
113	0x3fc10ad4760f9248	0.1331430031269909
114	0xbf9ea000b32f32eb	-0.02990723699240309
115	0xbf929ee538ebc4f2	-0.01818426284711889
116	0x3fc64f1b1149356f	0.17428911537210065
117	0xbfba7e61cbdaa362	-0.10349093653588917
118	0xbfc4fed47611f88e	-0.16402679219385558
119	0x3fbcdec4963dd514	0.11277416866308371
120	0xbfa7672771eba4b5	-0.04570887818938144
121	0x3fc18ff7386a7075	0.13720598463703806
122	0x3fada609dacdbb56	0.05790739818518513
123	0x3fcee7909f042dd2	0.24144180073231652
124	0xbfc3107a16764c55	-0.14894033524305664
125	0x3fb609fd69103789	0.08608993353865747
126	0x3fc735d6f90c58e7	0.18133055840070897
127	0xbfc75645bab354a1	-0.18232032409892887
128	0xbfb32c7bfed763dc	-0.074897527424937
129	0x3fc017a9593f12a7	0.12572209222539252
130	0xbfc68599942f069f	-0.17595214591533634
131	0x3fce60071c46dade	0.2373055351324273
132	0x3fc828ad5b262ec9	0.18874136877672346
133	0xbfad94ffd3cc5f93	-0.057777399639405
134	0x3fb7c3fea9b60d41	0.09283439296091435
135	0x3fc192e8845f2e10	0.137295784601847
136	0x3f9eeadac5ff44b4	0.030192774138247017
137	0x3fd3c0d4866c2b3f	0.3086444199295108
138	0x3f5397ddcac04b4e	0.0011958757340877093
139	0x3fc236a6db8114d7	0.14229284017543506
140	0x3fd45751f21d8dc6	0.3178295959862364
141	0xbfd041e64075d86b	-0.25402218146280714
142	0x3fcc65b1d4e6ad45	0.22185347457466711
143	0x3f92cf384993a188	0.018368606081737876
144	0xbfa4540e91600e74	-0.03970380329704151
145	0x3fc3d826875d4f6b	0.15503388986200703
146	0xbfbb79577f04d160	-0.10732027865453153
147	0xbfd2ec6092104365	-0.29567732109085504
148	0xbfafa036d088deed	-0.06176921172703751
149	0xbf887962b94909b8	-0.0119502747339809
150	0x3fc452e5ea5fb1ae	0.15877984947236484
151	0x3fb5c6bed426f93c	0.08506386451242504
152	0xbfb38e648dd2b9f0	-0.07639149153212776
153	0xbfba3f836a547928	-0.10253163667627929
154	0x3fcbb9c6c9d51042	0.21660694937793507
155	0xbf6f5b89dacd3eac	-0.0038278286432740973
156	0xbfc5e78235a3bdb2	-0.17112758273240797
157	0x3f908fd7105c8502	0.01617370641100014
158	0x3faf640ac25fc7fd	0.06131013510447756
159	0x3fda810a9899a576	0.41412606146203446
160	0xbfcd3eb4003b5029	-0.2284760476237591
161	0x3f83ce95a19f3a1b	0.009671372408687031
162	0xbfb6700cede20aaf	-0.08764725501718361
163	0xbfc671cd6ecc84e7	-0.17534797582724268
164	0xbfae11cb846a7b4a	-0.05872951499372066
165	0x3fbc2dddad6fa3cd	0.11007485851554506
166	0x3fb0e44403b60b90	0.06598305788615577
167	0x3fb1025e6fa2ba35	0.06644239640693501
168	0xbfbb7ca10e0da1b3	-0.10737043946358575
169	0x3fa65463bcde223b	0.0436125915576366
170	0x3f9f79dc92fb102d	0.030738302680006924
171	0x3f5a1b78cb6da71a	0.001593463862912653
172	0xbf7ec9752cf9dca8	-0.007516343801049853
173	0xbf94dd2cab999ff7	-0.02037496373523592
174	0xbfc198067d8cf7b4	-0.13745194559481677
175	0xbf947a2f5dbf01b5	-0.019997348877724714
176	0x3fcd6c558b41d0eb	0.22986859607374951
177	0x3fb880e623e2138d	0.09571684242298613
178	0x3fb905405787e3c0	0.09773637902243504
179	0x3fb1b83898e658b0	0.06921724064736412
180	0x3fbc401c42651a1f	0.11035324688882796
181	0x3fc013c6852ef431	0.12560349944206586
182	0xbfb8686287d08685	-0.09534278693947769
183	0xbfc26819f64cfedd	-0.14380192304996955
184	0xbfc4acb91cc82577	-0.16152109055864702
185	0x3fc1f0ceae2544b5	0.14016135695650225
186	0x3fc8fc20ca52e7e1	0.1951943385991504
187	0x3fc833461aa5d162	0.18906475354345803
188	0xbf9db26d75342e8e	-0.029000959662012486
189	0x3fc8e64a8f799ae7	0.1945279312669392
190	0x3fadaeac37881d8f	0.05797327211262903
191	0x3fccb60091d26c26	0.22430426712239288
192	0xbfd44ceac19dc23c	-0.3171946421416896
193	0x3f8696f923210e70	0.011030146011882652
194	0xbfc44f63d6372e7e	-0.15867279014343078
195	0xbfba6fb8f69c3924	-0.10326725025899869
196	0x3fd1a8b8146c2642	0.27592279428845157
197	0x3fd5a7bc89e6f9a7	0.3383628222180967
198	0xbfcad36d80f55487	-0.20957726284783382
199	0xbfc2ef978d7f572c	-0.14793676766446973
200	0x3fb0dc53e5625be3	0.06586193418694068
201	0xbfa66299eec114cc	-0.043721018214037594
202	0xbfd42d09780f67ec	-0.31524883961321737
203	0xbfaa713f2a861d3b	-0.05164525407877326
204	0xbfbad5eb8493ae6c	-0.10482666002979507
205	0x3fc88551786eff11	0.19156854992433428
206	0x3fc577779b14965c	0.16770834991727923
207	0xbfba60ef672608f1	-0.10304161327625018
208	0x3f99912afb84afa0	0.024967834092577967
209	0x3fa1ca060d1610d2	0.03474444303268033
210	0x3fb469aec902c4df	0.07973759086123121
211	0xbfc2ebc6993abc3f	-0.14782030565172197
212	0xbfb7093721badc78	-0.08998436521038566
213	0x3fb709f71e2a035d	0.08999580847195206
214	0xbfaba316856abd2c	-0.05397863749146334
215	0x3fba3c9361cb54e4	0.10248681199603343
216	0x3fcbc5324da0ef5c	0.21695545950376072
217	0xbfc72b8f79218a47	-0.1810168591938057
218	0xbfb1641a9663defd	-0.0679337136424429
219	0x3fc8e16857439b17	0.19437889347974455
220	0x3f49b86ff559ad98	0.00078492609709484
221	0x3f52add1a2003fa4	0.0011400744624587645
222	0xbfadc3c81b57e022	-0.05813432058124614
223	0x3fa4b653a468b9ea	0.04045354253718243
224	0x3fa27a9f80b87662	0.03609178968711714
225	0xbfbbca0e94518c2c	-0.10855189438875418
226	0xbfc70383d4d7242a	-0.17979476826283874
227	0x3fcc7cf27af6e22d	0.2225630855953268
228	0xbfab17aa5ac9ad64	-0.052914928038115844
229	0x3fc4f5290e308e9d	0.16373170082907942
230	0xbfab1433a432e4ea	-0.05288850192432355
231	0x3f8581ae22de19e6	0.010501251639436892
232	0x3fb871c54391b5c1	0.09548600101125883
233	0x3fd12dc0f1394b54	0.26841758305561325
234	0x3fb4cd7dfe069e5c	0.08126056148341249
235	0xbfb85ed3728ef947	-0.09519692942464984
236	0xbfd567cd16562c02	-0.33446051770505403
237	0x3fc509d2c67d194a	0.16436228458241892
238	0x3f9380662cad404e	0.019044491268971613
239	0xbfc3cbcf096ab90f	-0.1546572490673914
240	0xbfb17f6805f7b34b	-0.06835031648342953
241	0xbfab80e0b8bdf435	-0.05371763472701511
242	0xbfd7f9f39c6cc2fc	-0.3746308353029659
243	0x3f9147703b7a1639	0.016874078397924406
244	0x3fbfaa974698da2a	0.12369676087914941
245	0xbfc4e5fc3fe1e197	-0.16326859587912843
246	0xbfbd193e1e43b233	-0.11366642226102712
247	0xbfbf368b60997e4d	-0.12192603214634197
248	0xbf673b8ffa29fb05	-0.002836018758272887
249	0xbfb22b16026b7b27	-0.0709699397952873
250	0x3fbd9589bfcb40f9	0.11556302006215792
251	0x3fc62f044a1a2531	0.17330983751552645
252	0x3fc4d26c45715698	0.1626715983463114
253	0x3fbecdf3d49e4067	0.12033008519051834
254	0x3fa1ef1ee0b5ae24	0.035027470522291076
255	0xbfc4c253fb560939	-0.16218042156476445

layer1.bias f8 [64]
0	0x3fb7efea98607f1b	0.09350458355083584
1	0xbfcb97248c7bb62a	-0.2155500112489091
2	0xbfb275bdeb521a1d	-0.07210909838804765
3	0xbf9f9a78d46c90a9	-0.030862701382958466
4	0x3fab89281ccde7a2	0.05378079749694044
5	0xbfb489a85d547650	-0.08022548941195251
6	0x3fb8b042bc8232df	0.09643952467213122
7	0x3fb519e07f65bb35	0.08242610082900799
8	0x3fcbd72f987f188f	0.2175044531451857
9	0x3fbe348cf3e2d6ed	0.11798935846567433
10	0x3fc387c9d8973f31	0.15258143497202917
11	0x3fc02ff99da8a957	0.1264640827005887
12	0xbfad5b216820218b	-0.05733589550078751
13	0xbfb535a755dcea49	-0.08284993978751588
14	0xbfb3051975543f4c	-0.07429656137923962
15	0x3fc95d01e6bac5d6	0.19815086141674837
16	0x3f909f9713d4c1c9	0.01623378809489554
17	0x3fadf8b104336cde	0.05853799034385941
18	0xbfc1448fcf6aed6a	-0.13490483882729204
19	0x3fb04a3df5375ba4	0.06363284336781178
20	0x3fa25c25faa52c16	0.03585928616174543
21	0x3f9551902060793d	0.020818950630308242
22	0x3fbeacba7211ab19	0.11982312474144087
23	0xbfa40a29ed50931c	-0.039140043467602775
24	0x3faa512f9e4089a8	0.05140065008915268
25	0xbfc37230b0cc846d	-0.15192230828054978
26	0xbfd780528677019c	-0.3672071755536537
27	0xbfc1d68f1db56a1b	-0.1393603224813241
28	0xbfa62732e2777a47	-0.04326781286703301
29	0xbfbd6cfa4fbb99b3	-0.11494411894418625
30	0xbf8ecddf5e6b7e8e	-0.015041108197180433
31	0xbfb3aacce091cc43	-0.07682495577482577
32	0xbfc45fdc2c3c24a3	-0.1591754165640725
33	0xbfc4c5f513058654	-0.1622911780241788
34	0xbfcc20600ea076fe	-0.2197380134029387
35	0xbfc1ea6828ab1a9d	-0.13996602998505106
36	0xbfca69830e25f502	-0.20634496870835767
37	0xbfb44eb5bff7ebbf	-0.07932601868371501
38	0x3fc64353a81dfaab	0.17392965039103578
39	0xbf8261d0e761d0cf	-0.008975631772252161
40	0xbff0b0c17bb2495a	-1.0431532699481836
41	0xbfa635f15f79e9ef	-0.04338030138474724
42	0xbf870a4dfb0dfb0f	-0.011250123237684954
43	0x3fafedacd89bcf4a	0.06236019271992051
44	0x3fcdf429fc95c505	0.2340137942624453
45	0x3fab12d5f5d25a53	0.05287808061364232
46	0x3fd11d94ca6495b1	0.2674304939740422
47	0xbfbdef0da97e43ce	-0.11692891490953558
48	0xbfd4c946a4b3c808	-0.32478490909773017
49	0x3f8bc0477ef64756	0.01355033737380366
50	0x3fca5554de725fa9	0.20572911130579755
51	0x3fc1cfc7d374c2f5	0.13915345978741525
52	0x3fb0c889f9385a86	0.0655599816749178
53	0xbfc599b0648d85e4	-0.16875271711164352
54	0xbfc0cf7025eebd6b	-0.1313305077760377
55	0x3fdd133e6b127e17	0.45429954963944524
56	0x3fc9d59d063a1481	0.20183146289869927
57	0xbfc0a1ebfdcb7731	-0.12994146244357688
58	0xbfa72fb146f23843	-0.0452857398132527
59	0xbfc1f454f83fef10	-0.1402689182431165
60	0x3fce9dbb777c5fc9	0.23918860754269947
61	0xbf9f03ba30e0c910	-0.030287656052856937
62	0x3fc6962e7e50f937	0.17645817916668147
63	0x3fc025098a31f0c9	0.12613028762632997

custom_layer.alpha f8 [64]
0	0x3fec1aa703664318	0.87825346626241
1	0xbfb3617f1f490d58	-0.07570642961313945
2	0xbfd17c02b86000aa	-0.27319400792476733
3	0x3fdf4ab512ba0b8e	0.488934772765952
4	0x3fe4bab380673091	0.6477906711457014
5	0xbfd1fbbd91b5458f	-0.28099002103143617
6	0xbfdfbab8447b79c0	-0.4957714718601913
7	0x3ff2d639a36dcf29	1.1773010620062883
8	0x3ff6072c7e966e24	1.3767514176205475
9	0x3fb2c0a7f4c74d3e	0.0732521984676184
10	0x3fe557839a0d665f	0.6669328698000746
11	0x3fd085db02db4ba3	0.2581698921105106
12	0x3ff62e0d6622820e	1.3862432469978816
13	0xbfb068dea36bdba6	-0.06410018434313133
14	0x3fb04eb2c4fc99b9	0.06370084103818997
15	0x3ff47264490cb2cb	1.2779276708126186
16	0x3fd1de60aa64080f	0.27919785155984383
17	0xbfc5dd50aa6175d4	-0.1708165008484871
18	0x3feec1752103041c	0.9611154217492444
19	0x3ff7af7cb019ee5c	1.480343521018674
20	0x3ff0f4395f51857a	1.059625027024906
21	0xbfbffed65596aafa	-0.12498225774349328
22	0x3fe28f187a6e7eee	0.579967726825968
23	0xbfeae27c67271915	-0.8401472105695428
24	0x3ff317ee96e12449	1.193342770932093
25	0xbff109473ab99b0a	-1.0647651952692194
26	0xbfcf22a73f4f3c10	-0.243245035088393
27	0xbfc3257c8f566f9a	-0.14958149908931945
28	0x3ff026d05aa18be3	1.0094760456347494
29	0x3ff88db3af8d947b	1.5345951898136991
30	0xbfdf2250a70eabe2	-0.4864694243830724
31	0x3fb0b5c912a744c8	0.06527382569699391
32	0xbff100de23453157	-1.0627118470902894
33	0xbffc790438d7f988	-1.7795450420813683
34	0xbffa1f9b97cce4de	-1.6327167443944783
35	0x3ff67b25b7713a2d	1.405065266200505
36	0x3ffd2b30ccef24e2	1.8230445866814127
37	0x3fe1cdc5ba7eddbe	0.5563686983577367
38	0xbfe57bbae783a196	-0.6713537713776982
39	0x3fd43313f984d791	0.3156175553043506
40	0x3ffc5e137cbdb1db	1.7729678032584306
41	0xbfed1e85d6ede45d	-0.9099759290539954
42	0x3ff628f383cbc412	1.3849978588371
43	0xbfd1f13df612f007	-0.28034924536382316
44	0xbf671a59e9d64326	-0.0028201824304193877
45	0x3fc28112a71fb6e0	0.14456399116845997
46	0xbff4cc7a414cb691	-1.2999212790267942
47	0x3fdc2c32e0de8d61	0.4401976772298522
48	0x3ff17780604421d3	1.0916751633068216
49	0x3fe94411fbaf7df4	0.7895593562824943
50	0x3fe3c8ccee3d106b	0.618261781034119
51	0x3fc9f32366bae75b	0.2027324916469365
52	0x3ff60b849d8ff270	1.3778120188500473
53	0x3ff05ac7e41b784e	1.0221632872048931
54	0x3fd72fcfcc4478e8	0.36229319522853
55	0xbfcf1a7eb47d2112	-0.24299606144837377
56	0x3ff72286c53e951c	1.4459293084012819
57	0x3fea37b8279dea64	0.8193016790167573
58	0x3ff950b3a603f72f	1.5822025761585328
59	0xbfde4bce1475ab55	-0.4733767700005747
60	0x3fb3c99d6c47803d	0.07729514974153147
61	0xbff47a3b31964702	-1.2798416077607162
62	0x3fde307c142792ae	0.4717092701742257
63	0x3fb1d99c3ee4121d	0.06972672019407651

custom_layer.teta f8 [64]
0	0x3ffa5e62931606e7	1.6480432267712162
1	0x3fc1b03b3c3cbbfb	0.13819065514823578
2	0x3ff2af6e6e763373	1.167829925051788
3	0xbfcb2240581fedfb	-0.21198276808705416
4	0xbfdaca782da3084f	-0.41860775429461666
5	0xbff0983b51dfc2bf	-1.0371659467893293
6	0x3ffcd63e0f8e2c5d	1.8023052795058654
7	0xbfee6a3c1f07032f	-0.950468121147514
8	0x3f9ddea9c3c9a6ae	0.02916970498555454
9	0x3fcc9d5e5690a9ac	0.22355250574885355
10	0xbfba8d081c3e218c	-0.10371447267073658
11	0xbfad5b85f564624b	-0.0573388921786245
12	0x3f96c2b5d9c5b2c9	0.022227136055721162
13	0x3fa18d1e73f5b432	0.03427977719807308
14	0x3ff27da1754d20b5	1.155671556671263
15	0x3ff9861b3939c12a	1.5952408061385293
16	0xbff39741a9e01133	-1.2244278560402335
17	0x3fdde865796fe264	0.46730934962355364
18	0x3fe4c4f88fc7470f	0.6490443046734259
19	0x3ff1839137d80cd8	1.094620912685789
20	0xbff7fe7acb320953	-1.499628823978658
21	0xbff8714b5888f473	-1.5276597460172325
22	0xbfe18b82b9ffb4ee	-0.5482801087179305
23	0xbfd79fddef024190	-0.36913250294403444
24	0x3ff022303e63cadd	1.008346790037357
25	0xbfdfb8de542c3b0d	-0.49565847606656704
26	0xc0000b30d45fd2a9	-2.0054642287962747
27	0x3ff929e8144af6b6	1.5727310936630778
28	0xbfec45c36637baa8	-0.8835160252036376
29	0x3ff54234a7d9fecc	1.328663497610182
30	0xbfe05b207fc5fee7	-0.5111238952231049
31	0xbfe7d5b2fd345ead	-0.7448363252069236
32	0x3fb388329db4a747	0.07629696226345316
33	0x3fdd2924da603b98	0.45563622785351177
34	0x3fbfc7f6bede0f73	0.12414495620583725
35	0xbfe7bc94bf03947d	-0.7417701464406857
36	0x3f9f590c26f4de37	0.03061312663814261
37	0x3ff6e367f03c6282	1.430519045277976
38	0x3f83aadd83a9ac39	0.009603243427781393
39	0x3ff09b1e0541d9f9	1.0378704266892085
40	0xbffae39e03f3368f	-1.6805706171320798
41	0xbfd13bd7eee0b459	-0.26927755668549974
42	0xbfda6ae72d164b74	-0.4127748432448961
43	0x3fe80eaebf8e4ec8	0.7517923108411759
44	0x3ff2cf4ce7b12b37	1.1756104517432513
45	0x3ff0dcec17108c36	1.0539360905611495
46	0x3fee2162c5f8ee39	0.9415754191063065
47	0xbfd85635c078b72e	-0.3802618388752873
48	0x3ff380594ee3474a	1.2188351708941405
49	0x3fca543892e569e5	0.2056952206865638
50	0x3fd160ece8f2ebc6	0.2715408587352467
51	0xbfba2fa88ccd0062	-0.10228970944899765
52	0x3ff0c50c57b299ff	1.0481074739160474
53	0xbfbf7ffed45e45d0	-0.12304680523654743
54	0x3fe18da3b79abd2b	0.5485399805092234
55	0xc0007bef3adc94ff	-2.0605148886266984
56	0x3fd1ed4acb2a44a4	0.2801081642183567
57	0x3fff823a3638555e	1.9692937963457875
58	0xbfd8b1e2c47931b0	-0.3858572882352531
59	0xbfe79b24645c99d4	-0.7376882515134704
60	0x3fe8ab2adb4377ad	0.7708944590083228
61	0x3fea27f195b6f3eb	0.817375938807911
62	0xbfe2aea5cbd939ef	-0.5838192922035982
63	0xbfa305b3ae8c76c0	-0.03715287690850522

custom_layer.gamma f8 [64]
0	0xbf89e7feff104da4	-0.012649528654981541
1	0x3f6b3c73ab6b2e4d	0.0033247241184193644
2	0xbf7a4431486a80b3	-0.0064126896965321254
3	0x3fbf0e53286022b8	0.12131232963305194
4	0x3fa7fbd1b559f7ef	0.04684310282480896
5	0x3fbf79b601ff3622	0.12295091198685573
6	0xbfa6002b299a8443	-0.0429700363431569
7	0x3faead0d2fe7c808	0.05991402826101938
8	0x3f8e17dcb69525e4	0.01469395096013932
9	0x3f73091a3a2b5f51	0.004647352647871931
10	0x3fb33270aa3a79be	0.07498840480773247
11	0x3f8f6239f1c6ecfc	0.015324070635748026
12	0x3f8ef02810de4dc5	0.015106499686033179
13	0x3fa2957c1ceca1aa	0.03629672864036888
14	0x3f671bf064c9f683	0.002820939558943193
15	0x3f896fd1522b1f3f	0.012420306511003452
16	0xbfc407e8601dfc4e	-0.1564913243600778
17	0x3f99a878c804e774	0.02505673142261551
18	0x3fb75f0c16365f4c	0.09129405538840024
19	0xbf358a3a293cff6c	-0.0003286735529748261
20	0x3fa25a8f141b17fe	0.035847159580541174
21	0x3fa7c300cf92788d	0.04640963109817262
22	0x3fb2f9987256f29d	0.07412102500434022
23	0x3f8b4a4a00b17e07	0.013325288911970835
24	0xbf40ab6430203afa	-0.0005087126921824163
25	0xbfcad165964ea452	-0.20951528395861146
26	0xbf8a1ba4ffa980a7	-0.012748040249050808
27	0x3f8a52325f6d89be	0.0128520903942374
28	0xbfb80fcbfade6e09	-0.09399103998878656
29	0xbfb0aa9ec1bd2f21	-0.06510345678287567
30	0xbfa232170be7322f	-0.03553840656568174
31	0x3fb9ca52696cad6e	0.10074343751755574
32	0xbf99cb4feba9ca6f	-0.025189636954062452
33	0xbfa1b1cc996b5ab5	-0.034559625366161674
34	0xbfa545c0fb94bd56	-0.0415478045564394
35	0xbf9f44cde619cdac	-0.030535905045736264
36	0xbf837112117be357	-0.009493008764808115
37	0xbfa1978956126d12	-0.03435925651248274
38	0xbf8fccba58e40ef9	-0.015527206266149106
39	0xbf71be9f395828e8	-0.004332181900745115
40	0x3fc00a74abc65258	0.125319084047663
41	0xbfbd75301d5d438e	-0.1150693961801734
42	0xbf9d70bafc46e4b5	-0.028750344894181896
43	0x3f7fccdd53242624	0.007763733434566631
44	0xbf7199a1524755e3	-0.004296903764460211
45	0xbf78b013051e5a14	-0.006027292534688051
46	0x3f81bd8bf66b913f	0.008662312944075821
47	0x3fc23ff721f84908	0.14257706793484481
48	0xbf8d34a1622fe40a	-0.01426054078000229
49	0x3fa19ebf334384e5	0.034414267547399104
50	0x3fb40f25eae16f9d	0.07835614189519764
51	0xbf953e1f51aa29b4	-0.020744790419976858
52	0x3f4850f3a0f81e13	0.0007420720666581636
53	0x3f804a5ea534ded9	0.007954348961546941
54	0x3f22e7c9715b9859	0.00014423688906290108
55	0x3fd82a40834e9262	0.37757885764066235
56	0x3fa5c9cfd942f15a	0.04255532767408239
57	0xbf8cf7c5e2c952d9	-0.01414446447703581
58	0xbf486885bec1d1eb	-0.0007448819210496537
59	0x3fa229d52970cc3c	0.03547540789477252
60	0x3f7cded1e947838b	0.007048435178575905
61	0x3f7c4e24355dba38	0.006910458983709726
62	0x3f9b4935e5918d4e	0.026646463524582935
63	0x3f9a28aecb9a704c	0.02554581754394318

layer2.weight f8 [64, 64]
0	0xbfb015fe8311c931	-0.06283560466707595
1	0xbfa6c314bd2cbeea	-0.044457100002885344
2	0xbf7b1577cef33e2c	-0.006612270356711341
3	0xbfaae27aae6492f8	-0.0525091493493956
4	0xbf769df549f65f56	-0.005521734390093366
5	0x3fb0f00ef7e5b5c9	0.06616300155811596
6	0xbfa3a202cfe70fcb	-0.038345420721753586
7	0x3fc04d8bc35ce4c8	0.1273665145797962
8	0xbfbff2d1cbb9b79f	-0.12479888175741259
9	0xbfa22e4178192a7e	-0.035509153280675484
10	0x3fc03a7badf488c6	0.1267847632780727
11	0x3fb13f447f2ca3af	0.06737163643687326
12	0xbfbb73232f6142db	-0.1072256079362534
13	0xbfb030b6feb8a1d8	-0.06324332922725462
14	0x3fa574ce9c6fc6c2	0.04190679225565709
15	0x3f7b5133e6ba78f4	0.006669237841974363
16	0x3fbc9d2659e414e8	0.11177291578868032
17	0xbf73e6ab4a61103e	-0.0048586550747736195
18	0x3fc1a01e883d5885	0.13769895222020892
19	0xbf6777c2e58b4f0f	-0.002864723832638811
20	0x3fb864111e9b3732	0.09527689931129826
21	0x3fac0a2d3f6f9d4d	0.0547651424347416
22	0x3fb6ebca659d5430	0.0895353792269169
23	0x3fb2b83c8979a8ed	0.07312372547463371
24	0x3fab63595f736a6c	0.05349234857722682
25	0x3fc117c3b4632a8b	0.13353773410775135
26	0x3faa516001817a1a	0.051402092155275095
27	0x3f96d8114d64fe14	0.02230860743406822
28	0x3fa420a39e519d4e	0.03931151683428401
29	0xbf951e1473c110c3	-0.02062255817897164
30	0x3fb13b02d80ab0e8	0.06730668806511952
31	0xbf49b7fb7c228e57	-0.0007848718598961285
32	0x3fc0ad65641b23c1	0.13029162776936512
33	0x3fb859d8cea797bd	0.09512095494537127
34	0x3fbc49b9e21f7ee5	0.11049997110921657
35	0x3fc047574e5c10cc	0.1271771557441127
36	0xbfb7514a01907635	-0.09108412302199372
37	0x3fbaad4e4427b8de	0.10420693553871582
38	0x3fb166cfcd6252d6	0.06797503246555023
39	0xbfb959e9d4373893	-0.09902821951911482
40	0x3f97324ecd92c6e5	0.022652846619798068
41	0xbfbe1c7fb52601fe	-0.11762235806055085
42	0x3f93b09e4389298e	0.01922843253331901
43	0x3fa57d242c5789cb	0.041970377362094156
44	0xbf99ebd79e381cb7	-0.025313729316647406
45	0x3fb40d4f5c2d429a	0.07832809448633285
46	0x3fb4a7ffa0f203fb	0.08068845443087007
47	0xbfaf6dc16024e81a	-0.06138424204478117
48	0x3fb6f43c7223403a	0.0896642473846904
49	0x3fab479f98e03899	0.053280818378071255
50	0xbfa567f43a46e891	-0.04180873118771545
51	0x3f7722c071c02776	0.0056483762127842365
52	0x3fb786b655e94809	0.09189929578249702
53	0x3f9af4151d644ff1	0.026321725768028107
54	0x3faa56a105de4331	0.051442176786741796
55	0xbfbb7f0f023e63ed	-0.1074075108030141
56	0x3f9a612724f48813	0.025761233931128013
57	0x3f91c186be71a394	0.017339806913159686
58	0x3f9854e27123ecb0	0.023761308818376292
59	0x3fc0a4de1a1dd5de	0.13003135943624405
60	0x3faac8386620043f	0.052308809725225995
61	0x3fb351ae9b4f960a	0.07546511928338631
62	0xbf7ac6522ae5de42	-0.006536789862699845
63	0x3faa9144f375bb00	0.051889567107414436
64	0xbfb46ae5da550137	-0.07975613193867025
65	0x3fbbcf859da0b64c	0.10863528345427048
66	0xbf5dec12c15a896d	-0.0018263037831408272
67	0x3fa9a6dba880578c	0.05010115081692765
68	0x3fb18a8625e49a93	0.06851995873567267
69	0x3fbf0d14a6f02bb7	0.12129334521902889
70	0xbfc04e0eed8308b0	-0.12738215062387814
71	0x3fb389db79554adc	0.0763222857688492
72	0x3fae737689196997	0.05947466300559084
73	0xbfb1de28539fd918	-0.06979610482799037
74	0x3fb09532799e9c3b	0.06477656811931436
75	0x3fb56890d80e160a	0.08362679743557791
76	0x3fb8bfb0141427d7	0.09667492380336228
77	0xbfb74b1680072b0b	-0.09098950029071433
78	0x3fb1c983b1c03839	0.06948111619587473
79	0x3fb002520ef777c8	0.06253540864369633
80	0x3f9c91191edbd72e	0.02789725542876125
81	0xbfa18393bf73a12b	-0.03420697891289345
82	0x3fc081488a011c81	0.12894541491025183
83	0xbfc04a6c4c01d036	-0.12727121077807774
84	0xbf81ba0c7b08de20	-0.008655641083449572
85	0x3fa94aa936389ca7	0.04939774309996752
86	0xbf7c318aa716fd54	-0.0068831840630417425
87	0x3f6f6af17afdbd67	0.003835174218629045
88	0xbfbdaa3e28f69d2b	-0.11587894916612089
89	0x3faba753c3aace87	0.0540109802581386
90	0xbfbbbd2321086d4f	-0.10835475498645518
91	0x3fbbdd55b1ee8c7b	0.10884605020560116
92	0x3fb9ea8b907231f1	0.10123512531772129
93	0xbfc140c2dfa2db25	-0.13478885574087332
94	0x3fb15857174c2608	0.06775421446595697
95	0xbfaf9e7d8d830812	-0.06175606110038258
96	0xbf8fef52fab560b9	-0.01559319331742902
97	0xbfa3aff2fae46b2c	-0.0384517604126898
98	0x3fb54c91cb9510bc	0.08319960804243726
99	0xbf810e0801d39b5c	-0.008327543788664897
100	0x3f9e71f35b36cf47	0.02973156208254515
101	0x3fc275ddd694f356	0.14422200181607064
102	0xbfb12a106a61fb98	-0.06704809758410446
103	0xbfbc6b905e072d9a	-0.11101629539114413
104	0x3fb7edc9a103a551	0.09347210103046179
105	0xbfa2196632181b71	-0.03535003053189357
106	0xbf911c31461206e1	-0.0167091082589711
107	0xbfb800c28dc4f63f	-0.09376159630934298
108	0x3fb11f3e3ffcf6bb	0.06688298284731335
109	0xbfa79ebdafbac750	-0.04613297243248715
110	0xbf8680145b4c4ac6	-0.010986479793733916
111	0xbf9fe2d48fbd498b	-0.0311387264949388
112	0x3fb3028c5c78fb3b	0.07425763375884468
113	0x3fade4df76895a19	0.058386786670485864
114	0xbfafea79895d38e6	-0.06233577539261308
115	0x3fb7246cf524475e	0.0903995607843888
116	0x3fc1664ac49d1799	0.13593420601153808
117	0xbf85a6cc28872806	-0.010572047221007363
118	0xbfc024aa62c3426f	-0.12611894438170476
119	0x3fc09ed7dd950273	0.12984751052319474
120	0x3fba34bb34236f75	0.10236711523924476
121	0x3fb30f8eb88ec75a	0.07445613866619052
122	0xbfa8390866f065dd	-0.04731012589054349
123	0x3f75a5713bbb4945	0.005284731214219744
124	0x3f93b16698b3e936	0.019231417722928877
125	0x3fb07fe6ac9756b0	0.06445161546374822
126	0x3fb7052b01e31342	0.0899226073843922
127	0xbfb0c343bbbf522e	-0.06547950109172326
128	0x3f9e115627e31709	0.029363008675111355
129	0x3fb7a86dd413b036	0.0924137728467834
130	0xbfaa39faab86dca5	-0.051223596037226295
131	0xbfb41bf6d89f778a	-0.07855170048375562
132	0x3fb6ef430e414b52	0.08958834741615121
133	0xbfa56b03c45630fe	-0.04183208247840929
134	0x3fc350c94807b51f	0.15090290085883226
135	0xbf9ef912b2efd910	-0.030247013255540856
136	0x3fc6c5511a9815ff	0.17789663122691476
137	0xbfb16e3874b61bcc	-0.06808808183096388
138	0xbfbe54f36828f9da	-0.1184837464615848
139	0x3fbed5898a472428	0.12044582010197813
140	0x3fa4b02393e16cd0	0.04040633373434732
141	0x3fbfad581f3a1f95	0.12373877298716558
142	0xbfb8dc359871d325	-0.09711012813370397
143	0x3fbbd9bb7c3747ad	0.10879108221641216
144	0xbfb99c99d1bed5d7	-0.10004578943956886
145	0xbfa8164794c2c05d	-0.04704497996260735
146	0xbfa397f7a3e44b47	-0.038268793827362084
147	0x3fb08b249c4577a3	0.06462315383166
148	0xbfb1543924e774e6	-0.06769139433841395
149	0x3fc2fe987acbd687	0.14839464183721793
150	0x3fa6997f77fc9f66	0.044139846226527266
151	0x3fbc8c3f33c67483	0.11151499761622756
152	0xbfc15d762fbcdbb6	-0.13566472369140364
153	0x3fc223c2136f7eea	0.1417162508869219
154	0x3fbcb6d4503db84a	0.11216475447665278
155	0xbfaa602774744946	-0.051514847722631305
156	0x3fb30fb340dcd935	0.074458316169374
157	0x3fc937385938957d	0.19699768406387
158	0xbfb6da6fdd787998	-0.08927058369633867
159	0xbf54c9344b18e23f	-0.0012686739613753243
160	0x3fb16cab278596a1	0.06806440081489963
161	0xbfcbe5d219dbd62f	-0.2179510713828434
162	0xbfa2d1ae0f520a53	-0.03675598084466416
163	0x3fa555e35880c84b	0.04167089896545003
164	0x3fb084731d8e07f6	0.06452102157166437
165	0x3fb0565e08703c38	0.06381786066070638
166	0x3fa32a0c65bace4c	0.03743017904107812
167	0xbfcb1c3ac699286a	-0.21179899880582137
168	0xbfd2d377be8a74f4	-0.29415696723465534
169	0x3fd05c36cf56c941	0.2556283020777706
170	0x3fbbe047d3afee15	0.10889099996705227
171	0x3fb44303985744e7	0.07914755315075049
172	0xbfa421a0a617c44f	-0.03931905772686461
173	0x3fb2f5bea4e729d0	0.07406226659728721
174	0x3fb24e7a969ae5dd	0.07150999237901297
175	0x3fa1821360aa9fd8	0.03419552378664975
176	0xbfa6fe117c357d2a	-0.04490713731024194
177	0xbfbefabc28e51a75	-0.1210134124604368
178	0x3fb150fa6550ccc9	0.06764187787557598
179	0x3f6f77adfeba8f9b	0.003841247400332604
180	0x3fc46358b538a11c	0.15928181503955663
181	0x3fb0181849f288ad	0.06286765866619488
182	0xbfb7331ba97b452b	-0.0906235970280888
183	0x3fc07a082f06afd7	0.12872412010381026
184	0xbfafb69f228999e5	-0.061940167394641844
185	0x3f53c3252333ecb5	0.0012061941786772172
186	0xbf7400e3580fd74c	-0.004883659422366748
187	0x3fd22ef26f8256c6	0.28411541833461873
188	0xbfb0d1317e7b665a	-0.06569203699054907
189	0xbfbecfd1553aeb87	-0.12035854655088772
190	0xbf96e47073decf3a	-0.022355801651158226
191	0x3fc3610aca4a30d5	0.15139899136955273
192	0xbfc832f2bb805009	-0.18905481486638134
193	0x3f811b6ffabf0025	0.00835311397520406
194	0xbf956244f759c3a3	-0.020882680508694695
195	0xbf99d095ed9559b4	-0.02520975363344187
196	0xbfc53a940993c850	-0.16585016696586985
197	0xbfb8ffdec31cf8f5	-0.09765426887040347
198	0xbfb2e7e7e834d46e	-0.07385110301113837
199	0x3f998e2cf6c75357	0.024956419527217246
200	0x3fab840c63a13f52	0.053741824304437316
201	0xbfa53c1bafdd7463	-0.041474213807966696
202	0x3fc43c61d03ce176	0.15809271495687555
203	0x3fa0daf5a13e6069	0.032920528348029894
204	0xbfc01a48ef01bd3e	-0.12580215139630896
205	0x3fa38e08d3127d6c	0.03819301201405775
206	0xbfb5ffb761a5962c	-0.08593317159610397
207	0x3f8198efe3c1917e	0.00859248555952585
208	0x3fa2d68e928795b1	0.03679318941776034
209	0x3fa4b32319887b19	0.04042920767482467
210	0xbfb652cdcf57af55	-0.08720098793099613
211	0x3fbcdd089c9ec5bb	0.11274770568595376
212	0x3fc48233edcfab1d	0.16022347556948882
213	0x3fb09331bae9bce6	0.06474600613886458
214	0xbfb0cab7b28dcb4d	-0.06559322461343449
215	0x3f9f206abffc3d7d	0.03039709851060256
216	0xbf89fe9d5e95f6f6	-0.012692670296697166
217	0x3f85603be4152538	0.010437457941082515
218	0x3fbd348e3d4669cf	0.1140831851575179
219	0x3faf81864f21978b	0.06153506961781748
220	0x3fc084cb1ecbb52c	0.12905253413865958
221	0xbf8456e0ca3dc711	-0.009931331798472639
222	0x3fb21ae59fc6bdec	0.0707229151801056
223	0xbfb23eaf2a0bd146	-0.07126898552434566
224	0x3fc3daa4dfe87a29	0.15510998662007694
225	0xbfb030eaccf78a02	-0.06324641708446424
226	0xbf7aa87fa0f1e00f	-0.006508348989079606
227	0x3fba95de58018987	0.10384931229194737
228	0x3fbe706a51158459	0.11890282134619791
229	0x3fb832e024afb24f	0.09452629943525291
230	0x3fb31441f37241b1	0.07452785676492259
231	0xbfa6d7f996a1881a	-0.04461650813824765
232	0x3fb463622b47f760	0.07964147144954614
233	0xbfa19b6f3beb4788	-0.034388996185625464
234	0xbfc571a2f43fb3fb	-0.1675304119702615
235	0xbfa7a8edefe48117	-0.046210704358829506
236	0xbfbed449c55d8f8d	-0.1204267603730484
237	0xbf56ed531f6b56ec	-0.001399356054823493
238	0x3fb71b0ebdfc360b	0.09025661600409067
239	0x3f93e8f86faf0782	0.019443399254448497
240	0x3fc00348b0442743	0.12510021788357947
241	0x3fbab6056c04bd53	0.10433992278261899
242	0xbf849775a0750ead	-0.010054511031405278
243	0x3fbac13be36bf673	0.10451101591385185
244	0xbfbe029d211ab410	-0.11722738321505255
245	0xbfb75d122497a927	-0.09126389878625628
246	0x3fc8a3a47d83a5a2	0.19249397400498675
247	0xbf8567fd7e51e718	-0.010452251832464607
248	0x3fc05a16f5200e0d	0.127749318780943
249	0x3fa87b0abacd3248	0.04781373529713001
250	0xbfa16749d643cf4c	-0.03399115314996823
251	0x3faba06ff31788e6	0.05395841448241061
252	0xbf9abb40561a8473	-0.026104932074876474
253	0x3fc2f9713a1c98f7	0.14823737466321749
254	0xbf9743b7394db281	-0.022719252464798338
255	0x3fb6aba1ef34a65e	0.08855640497190495

layer2.bias f8 [64]
0	0x3fbc73e2ea6d2555	0.1111432859735449
1	0xbf9f3fef1a9021d3	-0.03051732635143074
2	0x3fc08bd9038147d8	0.1292678134073515
3	0xbfb850b13b79ffd9	-0.09498126699509103
4	0x3fb547a90b76c27b	0.08312469987755293
5	0xbfbdf30da07a98b2	-0.1169899479669734
6	0xbfa5bc08e00dd922	-0.04245021567378361
7	0x3fb8d2f1fbd629d5	0.09696876905778791
8	0x3fae77d452087003	0.05950797559145828
9	0x3fb0e185f6e9953e	0.06594121244559845
10	0xbf9034bc67039315	-0.015826171672318774
11	0xbfb5fa24b86c06b8	-0.08584813597192464
12	0x3f7e3fcd0f3ffc0f	0.0073850641383606105
13	0xbfb973061e5a47cd	-0.09941137543708507
14	0xbf9142ade402ae1b	-0.016855923692373858
15	0xbfadb0a4f50fd758	-0.05798831454732917
16	0x3fb02030116310b6	0.0629911463211695
17	0xbfbbe88b8711a70f	-0.1090171055563156
18	0xbfb2dff00aa2e5c8	-0.07372951755214452
19	0x3fb8496e87c58544	0.0948704797242686
20	0x3fb7106d45d7c3a1	0.0900944037928313
21	0x3f8a2c9464f2491e	0.012780341463699826
22	0xbfbd31ee664165ba	-0.11404314037772326
23	0xbfba32896453de8e	-0.10233362864880233
24	0x3fc0588e6a7cf5cb	0.12770252418151382
25	0xbfb1a80d5f1aa996	-0.06897052356604258
26	0x3fa3e3d7b23dda08	0.03884767580796128
27	0xbfaeece765fa3520	-0.06040118331757527
28	0xbfb2120f1191d212	-0.07058805636354062
29	0x3f9c21cc6cc55632	0.02747268117794572
30	0xbfacd8f9e3c3d575	-0.0563428965123575
31	0xbfb8eea34fb7e1f3	-0.0973913259148345
32	0xbf54ac9e73e2eb88	-0.0012618586911645486
33	0x3fbceb8aef0796f0	0.11296909652409304
34	0xbfaa4119d6f3ac02	-0.05127793072627897
35	0x3fb1a6b3f1733c01	0.06894993443277998
36	0x3fa4b30998b342f1	0.040428447618642845
37	0xbfb588e27a906350	-0.08411994449887783
38	0x3f8c06f7e81fe99e	0.01368516614092102
39	0x3fbe2db057496116	0.117884656248297
40	0xbf832911373a5881	-0.009355673311159276
41	0xbfb8d4d9a578a2c4	-0.09699783601594009
42	0x3fb29194c96e67a9	0.07253389280086132
43	0x3f8045766c55d2f4	0.007944989377145252
44	0xbfa797e68511aba8	-0.04608078359964135
45	0xbfade28569a1c2f8	-0.05836884417010951
46	0xbfbcb6e6a6e52fc4	-0.11216584753600417
47	0x3fbf5e64c18b6e5d	0.12253408169947862
48	0xbfb9bccbce63f738	-0.10053705014067027
49	0x3fbdbee3e2fffa30	0.11619400302877447
50	0x3fa924cb89cbb18b	0.049108849116097884
51	0xbfb5f033f3f026ac	-0.08569645600814607
52	0xbfa7ca99115c8c7b	-0.04646757447178459
53	0x3fb12203c65c44ba	0.06692527382644445
54	0xbfa7a9556615240d	-0.046213787757160764
55	0xbfb6e1eea883b320	-0.08938495267984736
56	0x3fa944edae945b9b	0.049354007302262214
57	0xbf61960718491ae0	-0.0021467341014472646
58	0x3fa972320a819d09	0.04969936731577646
59	0xbfbc139da5ee09eb	-0.10967431355496841
60	0xbfbc095e60f94396	-0.10951795451661747
61	0x3fad325359b83097	0.05702457876404415
62	0x3f7b6e0a101f653c	0.00669673853732294
63	0xbfacc28ef7ac0e27	-0.05617186330166773

custom_layer2.alpha f8 [64]
0	0xbf7a5204fb1e221f	-0.006425876099350108
1	0xbff5432e651fa838	-1.3289016676085463
2	0x3fe9343810bfa2f8	0.7876243903275215
3	0xbfed3ceb51e2506c	-0.913686428003087
4	0xc0030f4d384cfb37	-2.382471504067691
5	0xbfdd55190df97f5e	-0.45831896176058773
6	0xbfd8cf66c1b57494	-0.3876587764442061
7	0x3ff417019a411408	1.2556167626910355
8	0x3fe55697b4e1d4e4	0.6668203862051567
9	0x3ffd28e4c861d0a5	1.8224838092255962
10	0x3fa3a485795bdec8	0.03836457354003425
11	0x3ffba09248d777a9	1.7267020078065605
12	0x3ff2633f9cf116aa	1.14923058801052
13	0x3fe2635dff671921	0.5746297825178638
14	0xbfd6cd2ec0c496a7	-0.35627335381500774
15	0xbff1c42f9d88e462	-1.1103969720554905
16	0xbfb305258c14d5df	-0.07429728193240902
17	0xbffa55dadfb4727a	-1.645960687491565
18	0x3fda7d78ec8873dc	0.4139082250492814
19	0x3fe4c1f0bb8815e0	0.6486743605352636
20	0x3feee5414c584c68	0.9654852381812704
21	0xbfe301dd61139ad7	-0.5939776321436864
22	0xbff4b032c5f74036	-1.2930171711959821
23	0xbfe4f37be17085b6	-0.6547221568218251
24	0x3fda70ad42119c19	0.4131272454455384
25	0x3fd27451e5218d47	0.2883496034248378
26	0xbfe6cdd2757a2cb4	-0.7126247686841425
27	0xc0053f6dd02bd7cd	-2.655971170747739
28	0xbfb0ff66b7906e49	-0.06639711362407143
29	0x3fa7b728967305ca	0.04631926380671876
30	0xc000b9261f3dedb2	-2.090404743268402
31	0x3fc4c86db85bce37	0.16236659528623118
32	0xbff7059b08dcb598	-1.4388685556581091
33	0xbfefa25e75593134	-0.9885704318963122
34	0x3fe6a4d1f5ad3157	0.707619647824269
35	0xbfd619f7dba23c0e	-0.3453349728451379
36	0x3fc98056528ffa5e	0.19922904044502138
37	0x3ff0620daa92ccd3	1.0239388144516866
38	0x3ff766865a99049d	1.4625304736112306
39	0xbfe41087cb2a0c6a	-0.6270178764392658
40	0x3fed1bee1eb54947	0.9096594428795378
41	0xbfbf34f2f0dbbc5e	-0.12190168743448868
42	0x3ffe4f28819b30a4	1.8943257391684165
43	0x3fce813c7a52d5df	0.23831897709685188
44	0xbfdb4308587cdd0f	-0.4259663452280202
45	0xbff1b019d95e79ec	-1.1054934016207154
46	0x3fed5ef48193142e	0.9178411989929651
47	0x3fe667cccaa827bf	0.7001708944455841
48	0x3fb467c4ee81428f	0.07970839331506795
49	0x3fecf109907153be	0.9044235058923886
50	0xc00671fb05cd73ae	-2.8056545689891754
51	0x3febb98468466080	0.8663961445445381
52	0xbfcb74656d753811	-0.21448963017104508
53	0xbfe76f86b9409255	-0.7323640459258721
54	0x3fdf34b090325f75	0.4875909240886281
55	0xbfe75a24248ce633	-0.7297535623430974
56	0xbff11779662ac49c	-1.068231009569252
57	0x4001055722b56be2	2.127607604180853
58	0xbfeae7d024674115	-0.840797492122905
59	0x3fd373f0fbd30278	0.3039514979573492
60	0xbff131d29fb9f884	-1.0746637572588336
61	0xbff0b0b8d8f066a8	-1.0431450342352182
62	0xbff8b6415da7a1ff	-1.5444959314719424
63	0x3fe29b2bc6a00175	0.5814417724032369

custom_layer2.teta f8 [64]
0	0xbfc698f09cb3c632	-0.17654235507466037
1	0xbfc045a947daa9c8	-0.12712589272025654
2	0x3ff0480f2f3b6e2c	1.0175926060682157
3	0xbff03ff9ea65beb1	-1.015619197478298
4	0xbff2549139164ec9	-1.1456463079420465
5	0xbfffa72619bbee84	-1.978307819866047
6	0x3fad6e715648c9f5	0.057483236105685544
7	0xbfe2ae0b90258a73	-0.5837457480777871
8	0xbfd08f7f40f69285	-0.25875836700496563
9	0x3ff181e67f9a90c5	1.0942139610788655
10	0xbff15f9af86594f1	-1.0858411505699304
11	0x3fedb28c49bed9f5	0.928045410188871
12	0x3fd9019921c08bf8	0.3907225446329785
13	0xbff31df79c00edf7	-1.1948162168399656
14	0xbfe2a988fed8c952	-0.5831952073552122
15	0x4001b4521b4eae24	2.213047231043463
16	0x3ffcd494e1212515	1.8018997949714664
17	0xbff4328283c60783	-1.2623314998058681
18	0xbfea9dee0a7fd6ba	-0.8317785458627533
19	0xbfb713ac1741976b	-0.09014392440584877
20	0x3fe5c79a0b3e7378	0.6806154460533511
21	0x3fe1543d07131157	0.5415330064939025
22	0x3fb15d0c2c703300	0.06782604298514272
23	0x3fdb0c1a34384a8b	0.42261366939161665
24	0x3ff02963cb4b92f5	1.010104936716002
25	0x3fecca064a137430	0.8996612021252357
26	0xbfe89bfcf1266396	-0.7690415105781649
27	0x3fe60bf7f9abad45	0.6889610172633317
28	0xbff4bdd0f6d25b0c	-1.2963418618653035
29	0x3fe3bfea3146a38a	0.6171771013660969
30	0xbff03f7fe8c344b3	-1.0155028431220614
31	0xbff3293c35a65407	-1.1975671859447645
32	0xbfcd693e5dc69346	-0.2297742803467832
33	0xbffa887a454d3eb7	-1.6583197314356946
34	0xbff02617fbe31b9e	-1.0093002166119969
35	0x3fcf8ad14b8d1431	0.24642387570398364
36	0x3fd30e57bf59c883	0.29775041281312314
37	0xbfebbc9aef68da57	-0.8667730976074591
38	0x3ff069cf15993246	1.025832256668893
39	0x3ff1b2ead3a0c887	1.1061809794159971
40	0x3fad7207db90217a	0.05751061015331778
41	0xbfe027639b9244f4	-0.5048082388404098
42	0xbf84ae9375b24f4c	-0.010098602322876758
43	0x3fdf3f702ada44fa	0.4882469576342171
44	0xbff0da72f501a689	-1.0533322878422118
45	0xbfd64d6903c2bba3	-0.34847474448445775
46	0xbfba7f2f2ca7d78f	-0.1035031780264417
47	0x3f7712c66fffdbfb	0.005633139749980916
48	0xbff18ca7ca3daabf	-1.0968397045168528
49	0x3fd59bf979254675	0.3376449282705843
50	0xbfec418c3adef522	-0.8830014371702968
51	0xbffd241f67f1a09b	-1.8213190136248503
52	0x3ff218d4243f37f2	1.1310616889854797
53	0x3fe7a66482fc93f7	0.7390615995724364
54	0x3fdbefcc82d0d7c2	0.4365111615655871
55	0xbfc359cbf2be9db8	-0.15117787697566398
56	0x3fe15c07eebab3eb	0.5424842512780946
57	0xbfe8f02ef4675dab	-0.7793192647467796
58	0x3fe5505a4d31e3c6	0.6660586841309104
59	0xbfe2c821f77ddc94	-0.5869302591153365
60	0x3fe1766e4c1d0aae	0.54570689073474
61	0xbfec11602092e400	-0.8771210323531022
62	0xbff56a0fc0634588	-1.3383939280650754
63	0xbfc62e655b49b8e1	-0.17329089124127164

custom_layer2.gamma f8 [64]
0	0xbf99fe2ad7e4afac	-0.025383634020883214
1	0xbfa6c1d98da63a3f	-0.044447706738641284
2	0x3f625d26587e9aa1	0.002241682905111134
3	0xbf92cc428e4c1510	-0.01835731500161325
4	0x3f9c9641863ae074	0.02791693097853494
5	0xbfa3473a59a245e5	-0.03765280098117411
6	0x3fa55c260924ffc8	0.04171866284968889
7	0x3fbe2e9c753045ef	0.11789872990654947
8	0x3fbbac0bb840cf8f	0.10809396026962602
9	0xbf5364724d889140	-0.0011836162794987698
10	0x3fc1cd366b353a14	0.1390750907398376
11	0x3f4874a7d3242a29	0.0007463283020866007
12	0xbf78f8c72a1b9088	-0.006096628175985448
13	0x3fad610a1e451116	0.0573809778166227
14	0xbfb035dcb7c6812c	-0.06332187163070974
15	0xbf671577c26a35b1	-0.0028178538371494634
16	0xbf959eccf5ded002	-0.021113588816390923
17	0xbf975b04d90e245b	-0.02280814719009459
18	0x3fb9e15e0e52962a	0.10109508371041245
19	0x3fa09ebe8d3051e0	0.03246112321372485
20	0x3f9e810c92a553fc	0.029789158297109694
21	0x3f804c5885b9074a	0.007958118039031032
22	0x3f9b6012af8531c1	0.02673367687502704
23	0x3f6106808d2a8b64	0.002078295781147531
24	0x3f530ff6bf1ac884	0.001163474048024444
25	0xbf5d7462ab4af902	-0.0017977679791978955
26	0x3fa5d7154d14b6a7	0.042656579646388075
27	0xbfa0971368575112	-0.032402616965244616
28	0x3fb41a86369f26d0	0.0785297282556272
29	0xbf862946b09e3cb7	-0.01082091547485074
30	0x3fa391a3072cecce	0.03822049582091723
31	0xbf8dd79290aac70e	-0.014571328201188585
32	0x3f662bed108f0313	0.0027064924401830697
33	0xbfab5af636e8f6b5	-0.05342835827148688
34	0x3fb2528c30db715a	0.0715720767288465
35	0x3f68f87c8236c576	0.0030481750306640644
36	0x3f3fa8b5a82d3ad3	0.00048307833656206534
37	0x3fa2c68ae2a255e6	0.03667100922136139
38	0x3f610434b960cd72	0.0020772008674840243
39	0xbf6a9b3d26f23cd3	-0.0032478517892467833
40	0xbf818007268d043b	-0.008544975151041459
41	0x3fad7c81a6254f0d	0.05759053376337251
42	0xbf9dd6bf517d207e	-0.029139508579902877
43	0x3f92b0cf62057084	0.0182526019647047
44	0x3faa190fe0184e87	0.050972457986202584
45	0x3f819f4dbf308d7c	0.008604628941674568
46	0xbf92d7874b6de667	-0.018400300959433482
47	0xbf96ce54d2622a94	-0.022271466580188262
48	0x3fceb50fece2017b	0.2399005800871342
49	0xbf8fd5ce67ce3c3e	-0.015544521849532807
50	0x3f85b5f81416967d	0.01060098468117165
51	0xbf58202a6290c47d	-0.0014725126186585773
52	0x3f7857a59741a7d8	0.0059429615394978805
53	0x3f57126fcf7d3cd3	0.0014082042598209568
54	0x3f5d673422955df7	0.0017946251994852538
55	0x3f850dabd41a7539	0.010279982004528608
56	0xbf7ddbc03a1d6995	-0.00728964890171326
57	0x3fbff4488a3399ba	0.12482121824323303
58	0x3f92288b6af8eca0	0.01773279037864184
59	0x3fc332f0d983b65e	0.14999209042382494
60	0x3f88fef6fd96e32b	0.012205056775984232
61	0xbf9efe7945a985f1	-0.030267615200846924
62	0xbf9c68c6bced30cc	-0.027743439942512535
63	0xbf8ee4cb6f6b63f1	-0.01508482869887648
