COLA_Emulators/PCE/LCDM_PNN_HIGH/MODEL_Z2.158.pth (torch, 60802 bytes, 12 tensors)

layer1.weight f8 [64, 19]
0	0xbfbf6d2dd982a610	-0.12275969085990135
1	0x3fcd96b693126a39	0.23116190129515404
2	0x3f945aaed34f0245	0.01987717785573497
3	0x3fcf767359792ea9	0.24580232495133217
4	0xbfb967f53c986ab4	-0.09924252251986837
5	0x3f8bf9fbed4b3379	0.01366040056145733
6	0xbfc5196003a7a4cd	-0.16483688524684795
7	0xbf92c6953bb0712f	-0.01833565880598192
8	0x3fb9aab08f00f6a2	0.10026076785376373
9	0x3fc63959e6440942	0.17362521880574816
10	0x3fcd9ec2392069ae	0.2314074305475748
11	0xbfc0597f8810f5f7	-0.12773126739368454
12	0xbfb821f7a7243d97	-0.09426830130200013
13	0x3fc077287b06cc21	0.12863641745715973
14	0xbfc2e9c3a3211b16	-0.14775891747759634
15	0x3fbf877cb35d48b2	0.12316111926091614
16	0xbf9886c2cc8c77f5	-0.02395157216516704
17	0x3fb7cda509b7484b	0.0929816387863706
18	0x3fac8ee8c4f0c41c	0.05577781108912225
19	0x3f875b436d202543	0.011404539840457978
20	0x3fb3c6b0e8e49c03	0.07725053487648385
21	0x3fb4ab5db6dacb5e	0.0807398387358211
22	0xbfc4c78bb926ae15	-0.16233965435581924
23	0xbfd43114b25b3485	-0.31549565713505273
24	0x3fc3fdb60f18882a	0.1561801503858658
25	0xbfcdbf7b22081e4a	-0.23240603601174065
26	0xbfb762e1008a5a7d	-0.09135252249903121
27	0xbfb684b9dc6e1897	-0.08796273833840683
28	0x3fd1303ab78f8c3b	0.2685686867318428
29	0xbfbd73c69f196f07	-0.11504784950505718
30	0xbf8337d6ec68dcf1	-0.009383849229477966
31	0x3fa213f5ba91e53d	0.03530853178467417
32	0xbfbda86648653a65	-0.11585082309213986
33	0xbf2d9de8efabad55	-0.00022595852336535863
34	0xbfc73b228311ab99	-0.18149215125899046
35	0xbfc839bdf3c3ceaa	-0.18926214602071428
36	0xbfb828d8026cadf0	-0.09437322673027615
37	0xbfb54bd15b581ebc	-0.08318813781817885
38	0x3f8afa7b51247842	0.013173068441172945
39	0xbfaafdcf8101c518	-0.052717670915521875
40	0xbf5e67a8fd34f7f9	-0.0018557691845013642
41	0x3fd0be2e53194180	0.26160772433379265
42	0x3fc00146cc29d303	0.12503895729937406
43	0xbfcf5178a631b7ce	-0.24467380633308128
44	0x3fa012424ba112f0	0.03138930485923719
45	0x3fc08741713fc586	0.1291276743864211
46	0xbfc4c945d93c5978	-0.16239235980237843
47	0x3fb3c076849abf4a	0.07715550172247024
48	0xbf944186b09ef886	-0.019781212358559695
49	0xbfa87b0c51c047b8	-0.04781378267229236
50	0x3f4dd85c72523c52	0.0009108020209555123
51	0x3f9eb7b6e53d883f	0.02999768995449181
52	0x3fb3375612269ada	0.07506311362395071
53	0x3fb5dc2bb956ffb0	0.08539078974626935
54	0x3fcae8e5cc7fe627	0.21023247227985672
55	0x3f53ab904951e956	0.0012005719229635967
56	0x3fc7339450f7f2e0	0.1812615771631476
57	0x3fbe2815065e1bbf	0.11779910474261522
58	0x3fc70bf78e7f08f8	0.18005270440887222
59	0xbfa1b3e4dec2398e	-0.034575607483122814
60	0x3fa4b8f94498e0d6	0.04047373735778741
61	0x3fc0a6eb0e1f05c5	0.13009393872748212
62	0x3f9f38345bd6276d	0.030487840752847207
63	0x3fc182a306f10356	0.13679921950281465
64	0x3fb316aa105e9f7b	0.0745645799603362
65	0xbfba9634d4a427a3	-0.10385446731029772
66	0x3fb0c6e9f6cbb5a1	0.0655351855782187
67	0x3fc38303e742e465	0.15243576805167716
68	0xbfc536e34850c57b	-0.16573754340201305
69	0xbfaf1569d31ff3b5	-0.06071024610716994
70	0x3fc86b44e92c5f60	0.1907735956708576
71	0xbfb27ed833c4fc63	-0.07224799407866693
72	0xbf79671d95106e2f	-0.0062018542821778285
73	0x3fbaa6f2be26288c	0.10410992758093779
74	0xbfb75a794f4b6718	-0.09122427163984204
75	0x3fb47a2b0a2063bb	0.07998913762311492
76	0x3f6f8dd76c3f2d48	0.0038518149831127425
77	0xbf7a491a09da6b68	-0.006417371476028368
78	0xbfb495f7749ad585	-0.08041330906674744
79	0x3fbbe8487d9f5122	0.10901310984565218
80	0x3fa180ebed89a05f	0.034186718698777645
81	0x3fb69e5f3568a4b9	0.08835406354832544
82	0x3fb0009d0a51bfc5	0.06250936033188655
83	0xbfbc419e0a2085ca	-0.11037624118082259
84	0x3fa846cf48908aaf	0.047415235145554895
85	0xbfc3f6f16aa7cb26	-0.15597360332284288
86	0xbf8806f29ad8ebff	-0.011732001638952381
87	0xbfcb272fa773eec5	-0.2121333663597992
88	0x3f8e7bea0dc7cc5d	0.01488478521875985
89	0x3f955b946d2d73a5	0.020857161677998132
90	0xbfbae26bcfa0f993	-0.10501741236746502
91	0x3fafb2f9b8108949	0.06191234943277608
92	0x3fbdb15f2f007041	0.11598772904875522
93	0xbf90fab79ab74f81	-0.0165814102345645
94	0xbfbc8452e7e214a1	-0.11139410172661936
95	0x3fa9ce4889078fcd	0.05040194199298718
96	0xbf8360d00991b835	-0.00946199921801503
97	0xbf93f608142a18c3	-0.019493223410358206
98	0x3fb6329b6b745f0a	0.08670970319178309
99	0xbfaead1d4ff28cbc	-0.05991450882836477
100	0xbfc6d86cc3b62cfa	-0.17847976261359816
101	0x3fd20ee63835802e	0.28215938080939196
102	0xbf9d393b4df9e02c	-0.028538633951456102
103	0x3fc0e314aa18aaf5	0.13192995362745533
104	0x3f98f02856557d8e	0.02435362841549487
105	0x3f9dd4c1a167ea4f	0.029131913639483916
106	0x3faf56f07fa82562	0.06121017034827038
107	0xbfb1d3eb6bc999be	-0.06963988667994322
108	0xbfc3053b764cd366	-0.14859717632648567
109	0x3fa0aa9fadca62a9	0.03255175587145704
110	0xbfaee756e357a5bc	-0.06035872960257957
111	0x3fcaa8395d34144f	0.20825879145573586
112	0x3f972f2702c61285	0.022640809578222693
113	0xbfcce9041476251c	-0.22586108206841338
114	0xbfa6c5e39e815738	-0.044478524302276445
115	0xbfc5c7f0dc7bad7e	-0.17016421094681883
116	0xbfbcc734fa111982	-0.11241465668817877
117	0x3f94d777d3d82557	0.020353195481253774
118	0xbf895d4364f78bd7	-0.012384916800277352
119	0x3fb32710ab344cb4	0.0748148363093602
120	0x3fc471858d43949c	0.159714406944805
121	0x3fc15825f9853d7b	0.13550257381073635
122	0x3f7dac3e279b9da4	0.007244341651790807
123	0xbfcc96aff013e763	-0.22334861013933524
124	0x3f96367b89eb04a8	0.021692209523057088
125	0x3fa60b47612fb22a	0.0430548006187091
126	0xbfb24a44402415b4	-0.07144571844044983
127	0x3fc9b48c5031ca5f	0.2008223907065085
128	0xbf6883c5b874cecd	-0.0029925214509150867
129	0x3fa6a1779782b8b3	0.04420064663405423
130	0x3fc74d3b12832760	0.18204439548417906
131	0xbfc7bb48a03ff479	-0.18540294480036204
132	0x3fc1b32fb494efa3	0.13828083341092876
133	0xbfb606f0f908004c	-0.08604341583122838
134	0x3fa88d2b7235f532	0.04795203942465277
135	0xbf9c790a596d4d3b	-0.02780548258608671
136	0x3f90ff5a99136ec0	0.016599097817432407
137	0x3fc25a95f7b55366	0.1433894595635607
138	0xbfb4f8f2ac4863a3	-0.08192364412424395
139	0x3fb6f58466ac0732	0.08968379503860716
140	0x3fa4380c417f98ad	0.03949011134663869
141	0xbfc6aa658f56615a	-0.17707509516618353
142	0x3fb8132bf6ef5e17	0.09404253748595469
143	0x3f8f9ff3c561379b	0.015441803418209157
144	0xbfc29ea8683b93f0	-0.14546685304153995
145	0x3fcd66cfe4afb24f	0.22970007578205062
146	0x3fc749844859e7da	0.18193105252049585
147	0x3fc321da88969d4f	0.1494706313071483
148	0xbf9178e2e2c94a31	-0.01706270703500418
149	0xbfcc7dfa9bf5ae58	-0.22259457221240342
150	0x3fc80fcd684b1fb0	0.18798225014165615
151	0x3fbc8e523dfa79e0	0.11154665005822251
152	0x3fa858b7b4b94975	0.04755186158276362
153	0x3fb5b2d35460f411	0.08475991067912526
154	0x3fb2d7b0376ccf63	0.07360364297056558
155	0x3fa9b0bd72259336	0.050176544364865114
156	0xbf99567573b14f9b	-0.02474387663490028
157	0x3faf5ac4a6f6238b	0.0612393811998749
158	0x3fb4d395f7efda6c	0.08135354331157324
159	0xbfbcd0086c0188cb	-0.1125493301092632
160	0x3fa11fdbb9761332	0.03344618452960048
161	0xbfb55fd160c78dac	-0.08349331486493011
162	0x3fb1ca964ad517c8	0.0694974835106158
163	0xbfb36c78782b560a	-0.07587387975521423
164	0xbfb37cb5618238ff	-0.07612165098746358
165	0x3fae7b34e13a94cd	0.05953374146819499
166	0x3f9131cc7b21a9a4	0.016791529670095465
167	0x3f7e6425de2a8ea0	0.0074197272503259415
168	0xbfba140db3de6f58	-0.10186849252062069
169	0xbfcc2848563ff026	-0.21997932635702105
170	0xbfbfb11e9884e8a9	-0.12379637931454347
171	0xbfae1efbd91fa903	-0.05883013749537904
172	0xbfb7f5231677c6d8	-0.0935842447140901
173	0xbfb341da93664416	-0.0752235994207385
174	0x3f852736d08e39a2	0.010328701247797781
175	0x3fc743aa42009cd2	0.18175247404835787
176	0x3fc2adb7db9156e8	0.14592645855980568
177	0xbfbcc60de7eef75b	-0.11239706909597429
178	0x3fc20e227ac39704	0.14105635637604774
179	0x3fcc3ca5e26daa11	0.22060082965920505
180	0xbfc65b0b645e43e8	-0.1746534576491563
181	0x3fbcef217dec724a	0.11302384685809233
182	0x3fac8489af3e0087	0.055698683397168706
183	0x3fb3d4923f41687b	0.0774623302872061
184	0x3f8cd875052cd8b8	0.014084734173234956
185	0xbfcd2b0ce165b3d7	-0.22787629132963502
186	0x3fb03399ae0a7c4b	0.06328735827490665
187	0xbfba9b0d105655e0	-0.10392839096888151
188	0xbfb1ff4d11bf884c	-0.07030183490090386
189	0xbfc5341385356e06	-0.16565174106914088
190	0x3fb34fb8ea9f881a	0.07543521621803997
191	0x3fb5cfb7cf09bf07	0.08520077519073875
192	0x3fcdc668d4be5df5	0.23261747730133178
193	0xbf61a08d0fe2aafa	-0.0021517520063601943
194	0xbfaacf8aaf972ccd	-0.052364667829886004
195	0xbf994e657834363c	-0.02471312090079024
196	0xbfb3308c39ca7331	-0.07495952998074241
197	0xbfae9f20ee1b9b66	-0.05980780512418597
198	0x3fb6874d5b931924	0.08800204740245882
199	0xbfd2c616e5fe899b	-0.29334042034511193
200	0x3fca25cdc919ad67	0.2042786819396085
201	0x3fc885acac45abf7	0.1915794221089013
202	0x3fbd71c31245b7a1	0.1150171203241528
203	0xbfb352d6e054c28d	-0.07548277832825985
204	0xbfadc3ce68608227	-0.05813450836308603
205	0xbfaf785f01b7cf2c	-0.06146523376437893
206	0xbf82d7e3d455c548	-0.009200839917613238
207	0xbfc739e3a39263c8	-0.1814541386309243
208	0xbfc43941ef929e9f	-0.157997362116693
209	0x3f71c06a713665ca	0.004333892621980204
210	0xbf87a9f91781496b	-0.011554666547600253
211	0x3fb01c11bb3b21ab	0.06292830296582134
212	0x3fa0bc526600dd0b	0.03268678183706627
213	0xbfb6f432e0539466	-0.08966367699356823
214	0x3fd38f1aabfe075f	0.30560938640711827
215	0xbfc08dad34d139fb	-0.129323626317685
216	0x3f8ca35885e5e60e	0.013983432375186868
217	0x3facd955f112533c	0.05634563987511007
218	0xbfc17a48df9167e0	-0.13654433170705627
219	0x3fa30d3010b86588	0.03720998958687988
220	0xbfc7116739893b77	-0.18021860417726618
221	0xbfa644a6837c5be7	-0.04349251132060044
222	0x3fa790e45d08864e	0.046027313572505876
223	0xbfc1045b86e5db99	-0.13294548117457053
224	0x3fc1112eea4ab229	0.13333689155605669
225	0x3fb46751d771ab9f	0.07970153341163531
226	0x3fbb61c5f16e6196	0.10696065086665948
227	0xbfc35051eb785578	-0.15088867185174215
228	0x3fd5343512ce5f60	0.3313114818242777
229	0xbf7f161e8e098453	-0.0075894540355828264
230	0x3fba1b0de9281198	0.10197531645105185
231	0x3fcbb1626030986f	0.21635083863037916
232	0xbfa3e22c393f8c53	-0.03883493613081925
233	0xbfd74b4fe1ead0ac	-0.36397168218833076
234	0xbfa4eb44d99b956e	-0.04085745960564223
235	0x3fc568a152c64675	0.16725555936550376
236	0x3fc0a287b389ab81	0.12996002451412994
237	0x3fa53d7addd3faac	0.041484679773920646
238	0xbfc19ba081313eee	-0.1375618582555868
239	0xbfabe0d7f5268ed4	-0.054449795413601315
240	0xbfbf2091b030e6ee	-0.12159071494616189
241	0x3fa18ed380c9e766	0.03429280230643776
242	0xbf99dc0d9feb9db9	-0.025253498922124005
243	0x3fb791eb314df1b7	0.09207029298517609
244	0xbfa31502fc99d392	-0.037269681296414295
245	0xbfc8c24cb466d305	-0.19342955406832388
246	0x3faee1ca083c2cd7	0.06031638479734063
247	0x3fa9f70ea9c042d0	0.05071302244335174
248	0x3fa75a0127fbca4b	0.04560855496483337
249	0xbfa85a8c27ded51c	-0.0475658224744768
250	0x3fb2f91a901e373e	0.07411352175242045
251	0xbfb0b2f61ebfe186	-0.06523073435517376
252	0x3fb6e1dc8f9feff9	0.08938387400115734
253	0xbfb94e83f3c17faf	-0.09885430050917308
254	0xbfbf522444714155	-0.12234713240582569
255	0xbfc0e59676fe02aa	-0.13200646219413176

layer1.bias f8 [64]
0	0x3fc70492533e6150	0.17982701363213005
1	0x3fc576594ea800c5	0.16767422047269612
2	0x3fbaa91f82859976	0.10414311348504221
3	0xbfac0f386d99cbb5	-0.05480362260723074
4	0x3fc0e446109c6618	0.13196636019783692
5	0x3fc4abd2898ed762	0.1614936038656039
6	0x3fc12834bb4afce6	0.13403948922311953
7	0x3fc2ffd62e84e19c	0.14843251487196774
8	0xbfb857cf87cf483e	-0.09508988443056496
9	0xbfb4f4df61377414	-0.08186145900204195
10	0xbfcd12adfbefbcd9	-0.2271325569304057
11	0xbf7ef53c078a8b09	-0.007558092584676109
12	0xbfc8cf6ac1e3f91e	-0.1938298651438765
13	0x3fa7b8bfb5d91bca	0.04633139700722884
14	0x3fa6330c840624c7	0.0433582221185787
15	0xbfc4e9325ee16f81	-0.16336660034982844
16	0x3fb708ca57feaad0	0.08997788093862913
17	0x3fc878026aafa564	0.19116239747317387
18	0x3fc537344a9843ce	0.16574720041583507
19	0xbfbb87a510d85cbc	-0.10753852521189605
20	0xbfadbcbd03a016c4	-0.058080584232852256
21	0xbfcc7ca52578d616	-0.2225538666695434
22	0x3faae793c1425aab	0.05254804357644124
23	0xbfbbd4e7abac2d20	-0.10871742192482658
24	0x3fb21d77c98e22cc	0.07076214476377202
25	0xbfc3021ced847d0b	-0.1485019836190776
26	0x3fcd966a6705a428	0.23115282087681632
27	0x3fb455e233ebb3be	0.07943547980876439
28	0x3f888abd04ee9fb7	0.01198337241460466
29	0xbf86eeb6d7527628	-0.011197498746976356
30	0xbfd0871871493956	-0.2582455736454866
31	0xbfc0a760ab983cea	-0.13010795954367121
32	0xbfcb0d9ffe864820	-0.2113533013148876
33	0x3fc49ac937d4147d	0.16097369409559184
34	0x3fbdc232cb3891b4	0.11624448262643378
35	0x3f94a92711b536f6	0.02017651601391087
36	0x3fb87559bbcd98ed	0.09554062686001759
37	0x3fa5e1624d171448	0.04273516837160024
38	0x3fc6a027b2ac17fe	0.17676254486303827
39	0x3f9ef6437989221f	0.030236295979451207
40	0x3fa2e5f2b736abc6	0.036910614838539454
41	0x3fb656017a4cb09e	0.08724984393910737
42	0xbfc87fda5c1b2cbd	-0.1914017629372661
43	0x3fa1a20eeed55472	0.03443953195043371
44	0x3fc53f16ef123788	0.16598784135242917
45	0xbf9e765d3297f7f9	-0.029748398030271492
46	0xbfb95b512c7171b5	-0.0990496381286395
47	0x3fb290a27e26a447	0.07251945094925914
48	0x3fc55fa83b17827f	0.16698172459929947
49	0xbfc0788122da2d3a	-0.12867750360269686
50	0xbfb41e2be012f5eb	-0.0785853788429091
51	0x3fb8fb78b964cb84	0.09758715177740213
52	0x3fcd671766f02d11	0.22970860029486365
53	0xbfb5ba732373e074	-0.084876247554236
54	0x3fc86bf9bcb6d1bb	0.19079515184934145
55	0xbfbc5e9daf30fa98	-0.11081872489101341
56	0x3fac3aa1d9b49620	0.055134828400962954
57	0xbfcf569b74dd8c89	-0.24483054357833492
58	0x3fb5cb6b05a2c4b3	0.08513516318886864
59	0x3fc3ae06f9378947	0.15374838990016768
60	0x3faaaab8e8442ec1	0.05208375773699237
61	0xbfc7f1d74f050090	-0.18706790312171906
62	0xbfa1c9115425622b	-0.03473714973614891
63	0xbfc492bc4f933cf5	-0.1607280148077518

custom_layer.alpha f8 [64]
0	0x3ff01650747ee528	1.0054478216755545
1	0x3fde5ea0a5ac77f8	0.4745256059558183
2	0x3fcfcd17b2cb2450	0.24844642858650667
3	0xbff27e574710e365	-1.155844953156895
4	0xbfec25da78ad45bb	-0.8796207768411287
5	0x3fd3beb5020f14ad	0.30851483536782603
6	0xbff193baf7b08101	-1.0985669780130254
7	0xbfe8e531f25db6e3	-0.7779779180252401
8	0xbfe9694400bdf185	-0.7940998091212782
9	0xbfe7786ff91a7978	-0.73345183041583
10	0x3fef51d4f292e745	0.9787392366190281
11	0xbfed59188b2eac63	-0.9171259611515662
12	0x3fefb00e3bc5f18a	0.9902411620565073
13	0xbff36a29af65168e	-1.2134186602938004
14	0xbfb3a49dd5b03443	-0.07673059908866357
15	0xbfebfbfcdb963701	-0.8745102204136118
16	0xbf7ae6d155794105	-0.006567781172251101
17	0xbfc6a6974132a802	-0.17695894893159908
18	0xbfd3a1199b8dfaf1	-0.3067077654922477
19	0x3fe12ba5a786c88f	0.536578013611022
20	0xbf89164c1c0128fa	-0.012249559979086378
21	0x3fa9485d65e5c62c	0.04938022488466873
22	0x3fc7df412609affb	0.18650068623844604
23	0x3fba8e9a1d50cf36	0.10373843398775481
24	0x3ff0ab8687ecc346	1.0418763455929407
25	0x3feb95a09e416c32	0.8620150652817584
26	0x3fea6500aef96854	0.8248294274774346
27	0x3fee388e69dae1f0	0.9444038455467858
28	0xbfc3c7650d6f60b4	-0.1545225444413113
29	0xbfe6e883b5938919	-0.7158831163799589
30	0xbfd6d34b06bc8462	-0.35664630563593935
31	0xbfcd9ec21ddfd3d7	-0.23140741785724003
32	0xbffef62829c4270d	-1.9350968963139537
33	0xbfc0c56ec31d1991	-0.13102516676935896
34	0x3fed9fa94a969b59	0.9257399040987863
35	0x3fc596a04e6537a6	0.16865924671077187
36	0xbfee94e102700098	-0.9556736991508101
37	0x3fedaecd2c302d7c	0.9275880682993569
38	0x3fe2fa53da1bbe02	0.5930575618676246
39	0x40010a6fdde5b2df	2.1300961814616666
40	0x400122cfd78c68f8	2.1419979896282904
41	0x3fcb4c722841c411	0.21327044454258773
42	0xbfeea45339bc152d	-0.9575592162733862
43	0x3fb723f4630df7fc	0.09039237421345087
44	0x40016634a337758a	2.174905085687617
45	0x40042cab9a383f98	2.521811680642667
46	0xbfe5b090d5f82d06	-0.6778034380999152
47	0x3fdb7876f2c8aef3	0.429227578252479
48	0x3fe795fb54b18f14	0.7370583204433125
49	0xbfe87e38965806e5	-0.765407842293112
50	0x3fe82daea1d8df13	0.7555764351918434
51	0x3fe1ce83dfb7fd9a	0.5564593667513009
52	0xc003c2a6d8f6ddc7	-2.4700447988832113
53	0xbfb6f1b507cfc32f	-0.08962565842354019
54	0x3ff23f53e9a9c673	1.1404608848064555
55	0xbfe27604273933e1	-0.5769062772829977
56	0x3ff66389993a0c93	1.3993011460704892
57	0x3ff939075917ac82	1.5764230232405514
58	0xbfcf61e2e5b74f3e	-0.24517475334743638
59	0xbfb5add5ff74435c	-0.08468377577470448
60	0xbfd9794a952c9b02	-0.398028035810441
61	0xbfe36d0373b86afb	-0.6070573101199835
62	0xbfcb218fd48c4a7a	-0.21196172598191138
63	0x3fefef201a8aec81	0.9979401129161404

custom_layer.teta f8 [64]
0	0x40009d313ac48e32	2.076754054187199
1	0x4002bb719dfe7777	2.341525301292616
2	0xbfdf581b9251c3cd	-0.4897526673221904
3	0x3fda4bdda4b40ba1	0.4108804806166351
4	0xbfe17e44f923bdc5	-0.5466637483604521
5	0xbff0f5b9c386475b	-1.059991611259156
6	0x3fded6ca62ab3340	0.4818597758829135
7	0x3fd52cd14b4cb1bd	0.3308604464862375
8	0x3fdd3c5ab15cd19b	0.45680873222888757
9	0xbfe0a7693c03de2c	-0.5204359218759627
10	0x3ff182e3815f32e0	1.0944552472675966
11	0xbfecae619f0f81ff	-0.8962867838527585
12	0x3fe27719284a8ce2	0.577038363164686
13	0xbff6114b09d902c2	-1.3792219528842655
14	0x3fe9ec56e2148b8e	0.8101000228528947
15	0x3fe19ec09bc7c163	0.5506289522727851
16	0xbff160d1bf2713a5	-1.0861375300312173
17	0x3ff38a2ca0c6e647	1.2212339668607386
18	0x3fec49c063036579	0.8840028699734567
19	0xbfe3d53d15687122	-0.6197801035046135
20	0xc005ac5ac75da3ed	-2.7091575217677843
21	0x3fe51a7093358439	0.6594775080849394
22	0x3ff02893b7d19235	1.0099064999022975
23	0x3fcdfe5f7390f654	0.2343253435409901
24	0x3ff286dd13b190d6	1.1579256791383634
25	0xbfee0882cd681b23	-0.9385389339302929
26	0x3fe17c5ca57a2c93	0.546430895993938
27	0xbfe0f6df91584fff	-0.5301359022873838
28	0xc00a278fd2b7c670	-3.2693172895749782
29	0x3fb483f16242dbb1	0.0801382889647886
30	0xbfeefc4ad9299d41	-0.9682974091964881
31	0x3fefceb59dc314e4	0.9939830857553287
32	0xbfb72e00a6f5851c	-0.09054569317006095
33	0xbff469d90193ddee	-1.2758417188286972
34	0x3fdcf0913b73fa28	0.4521830635639241
35	0x3fd88c458e4cd025	0.3835615052842079
36	0x3fe7f2bc3671cc1e	0.7483807624215648
37	0x3ff29a009f29e9f4	1.1625982491810847
38	0x3fecc1be3da96e53	0.8986502842266851
39	0xbfb73ecbe7ad5f8f	-0.09080194860632516
40	0xbfc62643a123e5ba	-0.1730427300279141
41	0x3ff395fdcca6bf39	1.2241189951127593
42	0xbfdaeacf06cd61ef	-0.42058158554348685
43	0x3fdb5550e77574a6	0.42708227733039406
44	0x3fdee4a1b9db82bd	0.4827045741094869
45	0xbfe2d5bba9bccc70	-0.5885904612718047
46	0x3fdba7565e4cc242	0.4320884629151217
47	0x3fecd179458d61b0	0.9005705221598443
48	0xbff7d17ca5e7c79d	-1.4886442642859727
49	0xbfe05b4452cec727	-0.5111409776056676
50	0xbff30c38215cd717	-1.1904832175473012
51	0xbfe98717b7008f0f	-0.797740800310267
52	0xbff4ed96ad38b13d	-1.3080050245726647
53	0xbfc6e017fc81ef14	-0.17871379689665245
54	0x3fe43f6b470a4b46	0.6327415835861323
55	0xbfee6b84734bee1e	-0.9506246806990395
56	0x3f7d07b935378b7f	0.007087443798328929
57	0x3fd8d739d53715c2	0.3881363470248652
58	0x3fb40f2815abf00b	0.07835627106754843
59	0x3fe165ef9fc37a06	0.5436933632261691
60	0xbfe7f697993259bd	-0.7488515846369449
61	0xbfcfdfb98636d399	-0.2490150361387833
62	0x3fb29735386630ba	0.07261974932606821
63	0x3feb4c8fe7380b86	0.8530959621424337

custom_layer.gamma f8 [64]
0	0xbfbbd8399b4f17cd	-0.1087680820629366
1	0xbfb00999f2c30aeb	-0.06264650513461915
2	0xbf8863d543d90f1c	-0.011909166462948977
3	0x3f2b24f69fd61e3b	0.00020709524680405538
4	0xbfa9821e973cfefa	-0.0498208579651855
5	0x3fbae4cecbec1dd9	0.10505382994244118
6	0xbf9c0d0f888fad44	-0.027393572530781243
7	0x3f86bdae3f0ffdec	0.011103974627984813
8	0x3f9405b5fd5b2974	0.019553035343770245
9	0x3f95228ba706ef4c	0.020639593190693348
10	0xbf736d942cee516a	-0.004743174372283535
11	0xbf8eebf4f971adbb	-0.015098489630154135
12	0x3fb9857e0d5c5abf	0.09969318224134847
13	0xbfbe775b43b24c13	-0.11900873568292551
14	0x3f4acd6fe3b96b9c	0.0008179470382388867
15	0x3f48f642318e5ec7	0.0007617781840165366
16	0xbf783136e55f958f	-0.005906309545001944
17	0xbf8b787e823ecca5	-0.013413418149730136
18	0x3f62451eec2238da	0.0022302249863691394
19	0x3fc941f7aca7d74e	0.19732566767168652
20	0xbf92ed0a96b3b744	-0.01848236603557686
21	0x3f8c6d576ecea5e3	0.013880427426403002
22	0xbf42002dbae4c45c	-0.0005493377009654454
23	0x3fa67fae75a4a940	0.04394288240503608
24	0xbf8a71029438aadf	-0.012910862110478259
25	0x3fb2685202b76394	0.07190430227582417
26	0x3fa31b7bf61ad32b	0.03731906298836515
27	0x3f55b58ffc34d072	0.0013250261407167477
28	0x3fcedc90cd3af295	0.24110612889298424
29	0x3f9ef6b59b1565c7	0.03023799666457252
30	0x3fb7a09b0b9477c2	0.09229439766610795
31	0xbf3bdfc8e7e42054	-0.00042532591750488635
32	0xbfb80c4407d7ddd0	-0.09393716041073863
33	0x3fb18ab67afec366	0.0685228395730185
34	0x3fa54d90ebefcee9	0.04160740737998287
35	0x3f97d3449e685441	0.023266861122540176
36	0xbf797b98db120065	-0.006221386997936039
37	0xbf84394aae08208e	-0.009874900280024936
38	0x3f6ae06c78035ce6	0.0032808416873241096
39	0x3f82ca8ae3ad3ea8	0.009175381730215662
40	0x3faa8bc89bca81b8	0.051847714440785564
41	0xbf6ac73834549677	-0.0032688234083647033
42	0xbf72f9beb54051d2	-0.004632706597494667
43	0x3f90d6651506ae94	0.016442851456004506
44	0x3fa6b0745789d7cb	0.044314990697713684
45	0x3fb0c512d48275e9	0.06550710380766812
46	0x3f8eba7eb9a6585f	0.015004148521978232
47	0x3f7431c608e8b2b3	0.004930280278625676
48	0x3fca660ca84be0e6	0.20623930184934308
49	0xbfa493b6582960a3	-0.040189455282132934
50	0x3fd173b2069fc5a2	0.2726864876450127
51	0x3fb105f5f2a90908	0.06649720358203492
52	0xbfc5f3026eae7354	-0.17147856144301932
53	0x3f9b6c31758f3791	0.026779911804446114
54	0x3f9a211fcc479f0c	0.025516983836410254
55	0xbfa9e96078cf2a57	-0.050608649012777
56	0x3fa2eab8afc3d107	0.036947032409360196
57	0x3fb04cb1792821ed	0.06367024619988344
58	0xbf5b84f1310ddce7	-0.0016796450983898538
59	0x3f84d1d4161c7fc8	0.010165841030868608
60	0x3fb385e6c63a3114	0.07626192416700334
61	0x3fb1b7c02a1e936a	0.06921006229692997
62	0x3f9f0f9f2ae734ac	0.030333029740906056
63	0x3f9cb8295b658e4e	0.028046270564472224

layer2.weight f8 [64, 64]
0	0x3fa244ad621cc6a1	0.03568021605168537
1	0x3fca9bc374fcd3ff	0.20787852489743838
2	0xbf7321a2e62b553b	-0.004670749973873452
3	0x3f9eda5d39f939cb	0.030129868186401326
4	0x3f9023b7bedd3fea	0.015761252426557272
5	0x3faaec9366d8612d	0.052586180023526864
6	0x3fb9b7dac5c63fed	0.1004616482589424
7	0x3fb4951ad63a6dfa	0.08040015916997581
8	0x3fbe5ffe69a28d6e	0.11865224913576863
9	0x3fac74a73c6b016c	0.05557749378704355
10	0x3f80812dccd5ec41	0.008058889211261301
11	0xbfbaff6de58250fc	-0.10546004155395744
12	0x3f8278dd28e2397b	0.00901959210412139
13	0x3fae12677fd93e18	0.05873416362430478
14	0xbfb151e9e396a4e7	-0.06765615278586133
15	0x3f8fd7a867661b9b	0.015548053412897824
16	0x3f8565d065b14cb0	0.010448101142321725
17	0xbfa3dd16ff7300d5	-0.03879615658070327
18	0x3fb2ec75c4a58e0a	0.07392059374756613
19	0x3fa8bdf4f1b46135	0.048324255471188605
20	0x3fb6eb34efaecfde	0.08952647067673022
21	0x3fae0ec8c7865579	0.05870654521565206
22	0xbfc1061521648bb8	-0.13299812441354475
23	0xbf9c85bbf4a54e0c	-0.027853905493726613
24	0xbfabdfc3e52d1a98	-0.05444156811295392
25	0x3fb3d957f4d0c813	0.07753514983122071
26	0x3fb5740340fc73e1	0.08380146347594987
27	0x3f922da60b69e0e8	0.017752260634069567
28	0xbf90f5e84695794e	-0.01656306200799778
29	0x3fbafd2501e8ca34	0.10542517944922097
30	0x3fb8ef8e3f79fd6a	0.09740532922477532
31	0x3fc384f4a3e0b7e3	0.15249498369070044
32	0x3faf508fe0b7b2a7	0.061161514455169645
33	0x3f5abdd5894b4756	0.001632174045131459
34	0x3fa99e817d18769d	0.05003742839856538
35	0xbfaa93ca43952e7d	-0.05190879893288256
36	0xbfb26f192f03a265	-0.07200772664840256
37	0xbfb810a4de933f1e	-0.09400396760906601
38	0x3fb3305adaa52df8	0.07495658720034004
39	0x3f5ea08dcedd3881	0.0018693337292066405
40	0x3fb53b29b7e96d0e	0.08293400516543079
41	0xbfb93e3908ed1366	-0.09860569446489151
42	0xbf7b0386b4b48d14	-0.006595159716457095
43	0xbfa09b5b2c6d5054	-0.03243527333566534
44	0x3fc418d908a9cf79	0.1570082943250062
45	0xbfbeae4998de3cad	-0.11984691602832483
46	0xbf7e3cc624e93ee7	-0.007382177353590902
47	0xbfbca143d148307d	-0.11183570727752286
48	0x3fc2f6b3e0a070a8	0.14815376728154672
49	0x3fa9e1acf3d76393	0.0505498931558527
50	0x3fb15c67db5fa734	0.06781624894906885
51	0x3fb3ab68a2558b25	0.0768342396091098
52	0xbfc040bad5db0596	-0.126975397512109
53	0xbfb3727bd2bd991d	-0.075965632391306
54	0x3fa15f9b37075e19	0.033932543246631926
55	0xbfb5872c76fe2a8a	-0.08409383683298635
56	0xbfc0776ec954fdbb	-0.1286447985712423
57	0xbfad5f5d78bcb0dc	-0.05736820315209609
58	0xbf8f0db47ab07c4d	-0.015162858957465409
59	0x3fbd01dae91f7674	0.11330955687977867
60	0xbf99112365fc9a4b	-0.024479439830566368
61	0xbfa91ea9722c3933	-0.0490620567198782
62	0x3fb950ba179e4fb7	0.0988880450880164
63	0x3fceb785fb01b73f	0.2399756885164894
64	0xbfa0d0480ecf98eb	-0.03283906155393076
65	0x3fc13b35afc3ab51	0.13461943704836668
66	0xbfbf7866f0e69975	-0.12293094045035054
67	0xbf94da90bbf3d8f1	-0.02036501071139524
68	0xbf9443e8cb76b95f	-0.01979030362934375
69	0x3fb27d1373ed5ce0	0.07222100811246746
70	0xbfad61d8bc7dc9f2	-0.05738713551444964
71	0xbfb1cfe9210d53fc	-0.06957871491370321
72	0x3f7c7c4119d96a30	0.006954435635260256
73	0x3fb67573bd9eba09	0.08772967700381441
74	0xbfa609a4c9d16266	-0.043042325626349506
75	0xbfbc52c3d664cff9	-0.11063789352630228
76	0xbfa1243321545fd8	-0.03347930700164142
77	0xbf8669c097ad8a65	-0.010943894032327603
78	0x3fc25b971a76c65d	0.14342011253534084
79	0xbfba2dfb0bc948eb	-0.1022641090178557
80	0x3f71a2bf5997ef7f	0.004305598698461809
81	0xbfb3df15a934c9f1	-0.07762275105486773
82	0xbfb32032992a2608	-0.07471004714366114
83	0x3f7cff5a923b12d2	0.007079461854748019
84	0x3f4b951002b1e37b	0.0008417442490006166
85	0x3fafd865928e2e09	0.06219785131460404
86	0xbfb16ed1425b8169	-0.06809718961767931
87	0xbfac528a62d0cd2e	-0.05531723457570546
88	0xbf8069c121931b1b	-0.008014210545650926
89	0xbfbd61c9b1d58ba6	-0.11477337447790478
90	0x3fc4362880b70888	0.15790277752791249
91	0xbf87c677316b695e	-0.011609011836686885
92	0xbfc8863ecbcee214	-0.19159684135026167
93	0x3fa914c0189e5acf	0.04898643780250255
94	0xbfb6d9bf4e53fad7	-0.08926005995088403
95	0x3fa7b0ddf18b7604	0.04627126287025976
96	0xbfa6b51fa1845552	-0.04435061308519529
97	0xbfbef2dcb519d16c	-0.12089328214080347
98	0x3faded4f48c075a9	0.05845115435679855
99	0xbfc7f71a27fd9024	-0.18722845986042203
100	0xbfaaadfc3340655f	-0.052108651405613264
101	0xbf95c46438d16910	-0.02125698658742531
102	0xbfb32c969631649a	-0.0748991123849855
103	0xbfa17bb9af6e6239	-0.03414707437986348
104	0x3fb1fce3ef2350fe	0.0702650507767579
105	0x3f5ebc193bf7aa27	0.0018759008815957352
106	0x3fc0de6e59df7539	0.1317880572159227
107	0x3fa713445aee157b	0.045068870639663104
108	0xbfafbdec25fef3eb	-0.061995868337795766
109	0xbfbb582842d9aae2	-0.10681392318808094
110	0x3fa4440d637e48a8	0.03958169784086013
111	0xbf6e3cf827b844fb	-0.0036911818294887966
112	0x3f8b6a45dea93687	0.013386293275426965
113	0x3f93d8052c2add50	0.01937873918606431
114	0x3f82182c55f9ca33	0.00883516919495717
115	0xbfc24d5d0eb85887	-0.14298594683413432
116	0xbfb7a13cd9d21c8c	-0.092304042033094
117	0xbfbe5ea1d6118d96	-0.118631472361406
118	0xbfb12ea4959fbc9b	-0.06711796429566379
119	0x3fa174863976625e	0.03409213496633322
120	0xbf90c30902bf15ab	-0.01636900023711056
121	0xbf9b5b355a1cfe51	-0.026715119957996972
122	0x3f8ce8b90f955466	0.014115758693757207
123	0xbfadfe2fd6b0d565	-0.05857991691338319
124	0xbfc22b036c0fbf24	-0.14193766380730566
125	0xbf968b06b4f75da9	-0.022014717860512487
126	0x3fb5ab23511ccd22	0.0846426079777314
127	0x3fbc92e7efa61a20	0.11161660767366088
128	0xbf7755c690fd73c0	-0.005697036409256506
129	0xbfaa5cd1675b6576	-0.051489395014594416
130	0xbf716f5ba2b29aee	-0.004256589843101051
131	0xbf69ac142b66adf5	-0.003133811372398427
132	0xbfa57c08c7bdfb67	-0.041961931593496975
133	0xbfb928b4d3f4b8c6	-0.09827737974839854
134	0x3fa7c490c86e32ca	0.04642155119572562
135	0x3fb8bcc2710cfd09	0.09663024196651206
136	0x3fb713a4c8a8c773	0.09014348887356309
137	0x3fb97faa5f000703	0.09960427111948537
138	0x3f9f11bd02ba83ec	0.030341103831805258
139	0xbf86e3b1611bbe35	-0.01117647721863966
140	0xbfb3eb1c82afa19f	-0.07780626478746065
141	0xbfb1219effa83c98	-0.06691926709776153
142	0x3f854a2b07d15d85	0.010395370651322686
143	0x3f9fb42f810b591f	0.030960790873757135
144	0x3fa483233106345f	0.0400629994720496
145	0x3fa6b58e3d8a14d1	0.044353909504062046
146	0x3f906e024513e6a2	0.016044650522394684
147	0x3fa38879c1d711f1	0.038150601303218575
148	0x3fac219edbde0921	0.054944004382394114
149	0x3fa38dad0b77a56d	0.03819027676565665
150	0x3faff65fe77c8c85	0.06242656422389196
151	0xbf91870df5634042	-0.017116754629398885
152	0x3f9ed9ba3f80aa3d	0.03012743961896035
153	0xbfd1c77fc79f5ad0	-0.2778014611662174
154	0x3f69d713373da69c	0.0031543135937013977
155	0x3fb81371edc50969	0.09404670767711355
156	0x3fb2842757e00d37	0.072329005197436
157	0x3fb803393474006f	0.0937991860446361
158	0x3fb632790ea7a6f2	0.08670765502725056
159	0x3fc0721cd02808e2	0.12848243869672787
160	0xbfb2ef947567b220	-0.07396819940886035
161	0x3fa982b387f090b9	0.04982529673023479
162	0x3f81dc6a3b2e29fe	0.008721189433136264
163	0x3fb15fdb2f3c5ee7	0.0678688993760904
164	0x3fc26323c9ffd7b8	0.1436505066228031
165	0xbf707e14e2d3b629	-0.004026490770440407
166	0x3faf6e971355867b	0.06139061079990157
167	0xbf9213446fb6579c	-0.01765162402951824
168	0xbfbe92bff730d91a	-0.11942672524387313
169	0xbfa914b00f2e50d9	-0.048985959866657054
170	0xbfa516afa5094bb0	-0.04118870629886062
171	0x3fb27711f351c1e0	0.07212936582960294
172	0xbfb7cee3dfecb9bc	-0.09300064293777316
173	0x3fafcf8d8c167f7d	0.06213037810380138
174	0xbf901760ce762b24	-0.015714180566230543
175	0x3f98923e1952008c	0.02399537114661192
176	0x3f9cce6977fa4803	0.02813114924226313
177	0x3fbd5a784f843a15	0.11466171208687854
178	0x3fb4bcce320d4914	0.08100594255418897
179	0xbfb32f1502de6d19	-0.07493716545143449
180	0xbfb5a94afe7c06b4	-0.08461445534706052
181	0x3fb154c09995a3ff	0.0676994681322327
182	0x3fc05e06c328b7b5	0.12786945847750322
183	0x3fc155e0164263a7	0.13543320738679407
184	0xbfcc9fc6cdfa22f5	-0.2236259942767657
185	0xbfb37ba66a41a116	-0.07610550016545789
186	0x3fad1d30bcbbd911	0.056863329924384705
187	0xbfa5a2f37e4a6338	-0.04225884358056081
188	0x3f9fe677ce3b8959	0.031152603113591002
189	0xbf6b2cb52a71df6a	-0.003317216720059625
190	0x3f96d621efd38b96	0.022301225912893928
191	0x3fb7f44f422eec84	0.09357161870768677
192	0xbfb4ed969600da4c	-0.0817503086299009
193	0xbfa1609875fb7598	-0.03394009056294606
194	0xbfb34afb84ebdb2f	-0.07536289210461854
195	0xbfb00bcb7732cc34	-0.06267997417562371
196	0x3fab5d36adff8550	0.05344553827286325
197	0xbfad9a4da4b477ea	-0.057817865710816665
198	0xbf96c9535ab83e42	-0.02225237122735125
199	0x3fc2e625c2f488d1	0.14764854449555867
200	0x3fbc462925b09733	0.11044556780015284
201	0x3f80815a558702e4	0.008059221015061131
202	0x3fb39c144f531284	0.0766003316558202
203	0x3fa326af6ee64ed7	0.037404520309022686
204	0x3fb6c0f930206218	0.0888820402618723
205	0xbfbbd213caefc10a	-0.1086742754412208
206	0xbfae33ee9bab7ab2	-0.05898996019617665
207	0xbf844d0dac24e24f	-0.009912592712326388
208	0xbfa4308f46a80485	-0.03943298089507955
209	0x3fa66ba59adfd56f	0.043790030627785075
210	0xbfa00bcec78df48a	-0.031340085849458424
211	0x3fb5ccf1d3ecd349	0.08515845703079807
212	0x3fbe9f158bb3b56c	0.11961493168538134
213	0xbf4a5a70b1d9c094	-0.0008042383448820961
214	0x3fabf9919b4b6843	0.054638433653693606
215	0x3fb29d13193bb95a	0.07270926824614801
216	0xbfaa068c2fa05149	-0.05083120423674587
217	0xbfbdc1abf8257474	-0.11623644645938375
218	0x3f9e8238cdcaee83	0.029793632088269916
219	0x3faae56d62ef22fd	0.052531641318244816
220	0x3fa148614f86a311	0.03375534148955784
221	0xbfbd3b6b545d3618	-0.11418791589422772
222	0xbfbf7adcd5893f34	-0.122968485005228
223	0x3fabd4a96fbdfa68	0.054356856241601303
224	0x3faf9ecd3f0f4d81	0.06175843615315114
225	0x3f82f8bdb4a08c73	0.009263498377612067
226	0x3fa7a34b9af901e9	0.04616771952396787
227	0x3fade07a859c89ca	0.05835326081275445
228	0xbf6ae62c2301e986	-0.0032835828824861494
229	0x3f9c1fbede20931f	0.027464849765368556
230	0xbfb5c76de6d6ec5a	-0.08507429967623761
231	0x3fc2939f7302c6d3	0.14513009181751232
232	0x3fc3b698045cad5b	0.15400982106198566
233	0x3faba44dc61cd86e	0.053987913545299956
234	0x3fb4483b3c66fde7	0.07922716355005087
235	0x3faed039f1d50e1a	0.060182390947854894
236	0xbfbcd2d0339c79da	-0.11259175548591518
237	0x3faf15ee6ee9c567	0.06071419814987671
238	0x3fc075b13831a8ec	0.12859168285223832
239	0x3fa5d94c1f08fa54	0.04267347220274034
240	0xbf9b6f3e48aacc02	-0.0267915469982647
241	0xbfb93f3dc67889e9	-0.09862123580436556
242	0xbfa963a087c10685	-0.04958821923402205
243	0x3faade708de769ce	0.052478329965839884
244	0xbfa597f5f99e6826	-0.042174994202653956
245	0xbfc14327bd4075cb	-0.13486191502390307
246	0xbf9b085bb0dfe5c1	-0.026399071379250353
247	0xbf73b04a7dd37045	-0.00480679605717788
248	0xbfa2cf6a3be53f0b	-0.036738700686894964
249	0x3f90839cc9060566	0.016127061624051996
250	0x3f888283a6eec4b5	0.0119676862067045
251	0xbfbd644d7ca6f92c	-0.11481174748675887
252	0x3fa6acee4ac871df	0.04428810751798883
253	0xbfb2f11903943364	-0.07399135911346161
254	0x3fa279b868f68de1	0.03608490258491393
255	0xbfae71162c20a22b	-0.05945653237023792

layer2.bias f8 [64]
0	0xbfb17a37e6cb8d5b	-0.0682711542572653
1	0xbfb1924334709585	-0.06863803892391303
2	0xbfb27d42f96870d7	-0.07222384060918628
3	0x3facdcc86d211d30	0.05637193996568113
4	0x3f80771a0faf3c22	0.008039668658879565
5	0xbfbe144984a0f46a	-0.11749705780035105
6	0x3fa965736a225988	0.0496021334703754
7	0xbf43480b35e70cbd	-0.0005884222735449623
8	0xbfa30cc140ac2071	-0.037206687111450594
9	0x3fb3e0cbd58f5d54	0.07764886821620581
10	0x3f90b3fc696fe9d2	0.016311592040418273
11	0x3f9d927bb634dc7a	0.028879101749421633
12	0xbfa758fa1a83560d	-0.04560071538587005
13	0xbfab68a8da25ad71	-0.05353286421708504
14	0xbf90fe78aed87032	-0.016595731422157374
15	0xbfbd5d4ce6463512	-0.11470490095071664
16	0x3fa29ad0b5356230	0.03633739673631842
17	0xbf941ab4bd97f28b	-0.0196331253737179
18	0x3fb39388e8dd99a6	0.07646995244213048
19	0xbfa6a89e8a32afaf	-0.04425521313655111
20	0xbfa0f9c9778ebf41	-0.03315572342341833
21	0xbfbb0c78899260ec	-0.10565904005705179
22	0x3fba20621f283e69	0.10205662975953946
23	0xbf8b7ac111789cdf	-0.013417728753735534
24	0x3f98f049a6efbf60	0.024354124845501146
25	0xbfa58b3797a70ab6	-0.0420777676222505
26	0x3fae9cdf976f07ea	0.059790599093972066
27	0xbfb501fbd5b261a7	-0.08206151931006521
28	0x3fbad3b0ee13f6f9	0.10479265034151898
29	0xbfb6e52433190528	-0.08943392035964293
30	0x3faea78b8e0b5973	0.059872017945667454
31	0x3fb1b788b5188baf	0.06920675679479758
32	0xbf903196fa887653	-0.015814169923137843
33	0xbf776102e20321be	-0.005707751523182867
34	0x3fad7340612d9f4e	0.05751992403275939
35	0x3f91f8e609027eb9	0.017551035213385833
36	0xbfaaf3d6e857d2b8	-0.05264159761637671
37	0x3fbe994cf69e5cc2	0.11952668209993347
38	0x3fb1427eeca3bd78	0.06742089536031937
39	0xbfbb251e9160c386	-0.10603514718310522
40	0x3fbae30fb1208885	0.1050271804274719
41	0xbf588756a6c15071	-0.0014971109585717702
42	0x3f85a35bc9f24ac6	0.0105654879573981
43	0x3fae7e1042f38dce	0.059555538342262446
44	0x3f93be0b63fa970a	0.01927964971277788
45	0x3f7c224e16e97c3f	0.006868653332815332
46	0x3fb5c2409e6f17f6	0.08499530666367136
47	0xbf9467e57639fcd2	-0.019927583065961603
48	0xbfa31fb32588b6c1	-0.03735122521571333
49	0xbfb6d96e6ad91b68	-0.08925523861499374
50	0xbfb08bc515b4c099	-0.06463271884854506
51	0xbfa9e2d5fa2564c9	-0.05055874517956622
52	0x3fbc81764b1e6173	0.11135043462707532
53	0x3fb141078da72ea5	0.06739852150274801
54	0xbfb1f1a962afb846	-0.07009371432624886
55	0xbfb298289f9b0789	-0.0726342572843618
56	0x3fc01c0263a3acce	0.12585477700426967
57	0x3fbb9842bcc7a8d3	0.10779206379780541
58	0xbfb8afa97c0164f2	-0.09643039014317248
59	0x3fb4df3e3ccc7761	0.08153141960471323
60	0xbfb2d26c0c0db03e	-0.07352328581117804
61	0x3fa0b7f8eceb82e2	0.03265359775628497
62	0xbfb0f3a88240502c	-0.06621792964898593
63	0xbfbc485471dd0f90	-0.11047866611357748

custom_layer2.alpha f8 [64]
0	0x3ff2cdac246023f3	1.1752129956169
1	0xbff48c4e5815071d	-1.2842544022282205
2	0xbfe4f4613fb2876f	-0.6548315280999598
3	0x3fe479158ce6f4a3	0.6397807838435664
4	0x3fe6cad67c85b29c	0.7122604782176327
5	0x3fcaa91914db18ad	0.20828546064712353
6	0xbfd4ecaa158d9049	-0.32694484810622676
7	0x3fc8e5557fe425ce	0.1944987177342185
8	0x3fd9f1ccaa517789	0.4053832686675994
9	0x3fd1927740fdc74b	0.2745645651512986
10	0xbfa6216b07655677	-0.04322370972901706
11	0x3fda9cb47740c3b3	0.41581451078223636
12	0x3fff6e68ea4b851f	1.9644555236957968
13	0xbfabd64dc129f906	-0.05436938269575546
14	0x3f70b4287484b9d9	0.004078062084131828
15	0x3fd8d12ec088fdd3	0.3877674942231952
16	0xbff7336c9fdba310	-1.4500547642184678
17	0x3ff832ce89d1dbb1	1.5124040015777889
18	0xbffc8e753c85c08a	-1.7847797741087867
19	0x3fb8225230cca203	0.09427369777097998
20	0xbff0d84d1a57e61d	-1.052807906059008
21	0x40009962f0b0cf58	2.0748957447012053
22	0xbfe7968e3c837746	-0.7371283704667142
23	0xbff842be89cc00f1	-1.5162949927035323
24	0x3fdaf42ad13061bd	0.4211527865277523
25	0xbff2e7fd2a3f6c60	-1.1816379213621744
26	0xbff0034d7029dbdb	-1.0008062726390026
27	0x40014bf4c088cc6b	2.1620879213092414
28	0xbfbcfd0c1c634b0c	-0.11323619549811442
29	0x3ff5344acd0e00eb	1.3252666482877042
30	0xbfe9d4c5fbb7735d	-0.8072233120288775
31	0x3fe35c7b0a56c99a	0.6050391389783727
32	0xbfd20535a9753c21	-0.2815679697859555
33	0x3ff67db953ef09d7	1.405694320551097
34	0xbfdbc9f17350946c	-0.43420063267905706
35	0x3ff558f97fa0c1b1	1.3342223153559696
36	0xbfee6588c221c4a2	-0.9498943130148698
37	0xbfd773d0748b66cd	-0.3664437425737617
38	0x3ffe5aa0e24b2994	1.8971260871499895
39	0x3fc6a78faf5ae7a0	0.17698856413136088
40	0xbfb6b0448953490d	-0.0886271319643905
41	0xbfc23f882a108ad3	-0.1425638394731182
42	0x3fb3713005893fb4	0.07594585547599203
43	0xbfbdde472828e04d	-0.11667294245205646
44	0x3fef032923ce13f4	0.9691358279529809
45	0xbfecfdea05eefcc6	-0.9059953800096074
46	0xbfd4f2f642c8b2b8	-0.3273292209803844
47	0xbfe653ef7d7738f1	-0.6977460337164115
48	0xbff02993674e65d8	-1.010150340595251
49	0x3fe1c81e367ba7fa	0.5556784690973011
50	0xbff0ee0111944926	-1.058106487912093
51	0xbff6b0fbc7c02c24	-1.4182088663826642
52	0x3fe9f4fef0a29222	0.8111567211058779
53	0xbfb35a9482c1d6e4	-0.07560089294733136
54	0x3ff31fa83ce43e2b	1.1952288034989447
55	0x3ff4b480d13f4088	1.2940681623186112
56	0x3fbe2e81321c7004	0.11789710496344702
57	0xbff08b0ef097dece	-1.0339497945951055
58	0xbfcdcf4885eb087e	-0.23288828410119672
59	0xbfa1b3b5d20e2969	-0.03457420529510353
60	0xbfd9ecdca35539a2	-0.4050819010780292
61	0x3fe2f064208ead4c	0.5918446193585765
62	0x3ffb90831e4165a0	1.7227812940458094
63	0xbfff3589636ee87e	-1.9505704769240135

custom_layer2.teta f8 [64]
0	0x3fed62e95b43e632	0.9183241636776016
1	0xbfe146c696686e1d	-0.5398896157889258
2	0x3ff3f08e4b3a7754	1.2462294520004962
3	0x3f98e1bbee0d0a43	0.024298607258297144
4	0x3fd6fd9c0e77233e	0.3592291013015262
5	0xbfdf17a1f4afe1f8	-0.48581742186755106
6	0x3ff5557a1a7c9adb	1.3333684000623893
7	0xbfcc4d556cde7e55	-0.22111003700136914
8	0xbff9dff9b0ce49f2	-1.6171814829327755
9	0x3fe55644415d2285	0.6667805935513377
10	0x3ff32216d184faa7	1.195822542605734
11	0xbfa3e4fc535f43ad	-0.038856396844159626
12	0xbf881801bd142726	-0.011764539320683175
13	0xbffa16810cb2b4aa	-1.6304941650408105
14	0x4001cca3bcf0d99e	2.22492168054596
15	0x3fc5783d87b66194	0.1677319443376858
16	0xbfc00494f45655e8	-0.1251398270657511
17	0xbfb58a6e73bebbf4	-0.08414354635054605
18	0x3fd8bdc9045e89ae	0.38658357073486627
19	0xbfd43f54df4c08dd	-0.316365449965941
20	0x3fe358eab124d964	0.604604097351324
21	0xbff1243e9d9fe149	-1.0713487775047545
22	0x3fb193697a182185	0.0686555789071744
23	0xbfd9f2c67f1f5927	-0.40544283308317336
24	0xbfe507576b654d89	-0.65714617706037
25	0x3fcd485356a97ef8	0.2287697003512148
26	0xbf9f91b485f94689	-0.030829258610828112
27	0xbff7f67b669f341c	-1.497676277987245
28	0x3fda7321a846ab65	0.41327706750114707
29	0xbf78c2628c7e7078	-0.006044754940287438
30	0x3fe4fb2d3f16a40e	0.6556612236209973
31	0x3f881d9d0ffdbd37	0.011775233316909535
32	0x3fd2cef050d873b3	0.29388053793973795
33	0x3ff9132ca711ba4e	1.5671812559263745
34	0xbff7bb8e3b680314	-1.4832899399336315
35	0x3fe398bd33a96418	0.6123949059502847
36	0x3febbe387f35bed1	0.8669702992028424
37	0x3ff79173d099ceda	1.47301084026997
38	0xbffda55a6e93db27	-1.8528694457469983
39	0xbfe18f7859556071	-0.5487634415431001
40	0xbfd6a7e293d9902c	-0.35399689138853563
41	0x3fb0608427ff79b1	0.06397272087585894
42	0x3fba596ba2b402b6	0.10292694780583642
43	0x3fd34f9f8fb306ee	0.301734819728252
44	0xbffd76362ec8dd44	-1.8413602664494002
45	0xbfb980f6e10e5e58	-0.09962409014257767
46	0x3fd95a3d0b6d7d9a	0.3961327182386981
47	0x3fdb906f45599812	0.4306905915494791
48	0x3ff316466cbd1827	1.1929382560351856
49	0x3ff61d5eea4a6f30	1.382170596311834
50	0x3fe99428e5e7eeef	0.7993359079696044
51	0x3fe53e313f85f324	0.6638418427170092
52	0x3f9802125a5708e0	0.023445402873911614
53	0x3fd9e5afa7cfb5e9	0.40464393031910945
54	0x3fd0b7eba52b9f59	0.26122561578676123
55	0x3fed3a822477d337	0.9133921348826338
56	0x3fea2fad7ec2c47f	0.8183200336262785
57	0x3ff074c38500d5e7	1.0285067744674679
58	0xbfdcacf02c827d17	-0.44805530878689254
59	0x3fe708d4e5a26b4e	0.7198280797050332
60	0xbfc5190a307bfc43	-0.16482665412329042
61	0x3fdcc48b9f7cf68e	0.4494961793423976
62	0x3fec3764e387f444	0.8817619747129659
63	0xbfd69f43b64ecd08	-0.3534707336759344

custom_layer2.gamma f8 [64]
0	0x3f62f95d4cf8d92d	0.0023161718634369306
1	0xbf9ab265913b746b	-0.026071154584191108
2	0xbf37a1f83a2134b7	-0.00036060629111462787
3	0xbf88b6bd91eb00c1	-0.012067299857676851
4	0xbf49a861de2fb2a2	-0.0007830121870689608
5	0xbf82a710d32fe3c7	-0.0091077150773219
6	0xbf7b27cdf56d0271	-0.006629757429266734
7	0x3fa397550fb577e5	0.03826394860037378
8	0x3f94fb02a25255f8	0.020488778264356328
9	0x3f8612f030629e20	0.01077830932292928
10	0xbf7e5ba11993cfaf	-0.007411603256730999
11	0xbf847cc73fd249d4	-0.010003620753455879
12	0x3fafa539b6614360	0.061807445061851096
13	0xbf630c53e2fa85d0	-0.002325214234432528
14	0xbf98c9e166893780	-0.02420761288004014
15	0x3fa5a59a1ef31db4	0.04227906825831998
16	0x3f952f22ee819f08	0.020687623793860715
17	0xbf443f21cbc7b877	-0.0006178774852381293
18	0xbfa15bab3f9969db	-0.0339025035034017
19	0x3f9a841541392c6f	0.025894481759945295
20	0xbf92a8c18f636c5a	-0.018221878411037153
21	0xbf9d1c17a78d52c9	-0.028427476502957547
22	0x3fb1befcd6e08d1d	0.06932049032234429
23	0x3fa001ac84d2ab0a	0.031262770856605185
24	0xbfaa6fc1c36c87cf	-0.05163388739153129
25	0x3f561e7c2683cfc5	0.0013500416189886494
26	0xbf9d7bd828a0bdd9	-0.02879274127934459
27	0x3fcc0742b0976a55	0.21897157309179485
28	0x3fa44c0835194332	0.039642578584454205
29	0x3f8f7f941e584a67	0.015380055595447929
30	0x3f825248589df4e0	0.008946004108788264
31	0x3fa2af35deff14ce	0.036492999526254274
32	0x3f735829237d8811	0.00472274846819866
33	0xbf997391668a98ed	-0.02485491932261479
34	0xbfa9a769d1f564b9	-0.05010538757296374
35	0x3f8789668d2a2e80	0.01149253958035179
36	0xbf70483d337ff68d	-0.003975142542910992
37	0xbf84863afd0338c5	-0.010021649214106873
38	0x3fb2294b3fb47ac2	0.07094259553239637
39	0xbf931928b6285e1b	-0.018650661581061195
40	0x3f9dd8c0b10ec0ec	0.02914715843843478
41	0x3fad0cd7977f4beb	0.05673860287028972
42	0x3fa74cb8e8ef12a2	0.045507219728766715
43	0x3fa07c53f2f5cd08	0.03219854679891837
44	0x3f9f1c3cfcdddcc7	0.030381157811885353
45	0x3f80344112793dfe	0.007912166954297636
46	0x3f648df4d90a23a5	0.0025090963538940297
47	0xbf803be845d97d98	-0.007926764136924544
48	0xbf753e30e67e7a48	-0.005186263100681439
49	0xbfa41dc710830712	-0.03928968502579101
50	0xbf7c0268431aae3b	-0.006838233255318789
51	0xbf7228cd3bc1e8fe	-0.004433442776752948
52	0xbf7877be538bbd33	-0.005973571264561261
53	0xbf5cdf57261a6213	-0.001762232881821761
54	0x3fb4d849978e4c7b	0.08142528486341576
55	0x3f6d122adcbace66	0.003548701968463952
56	0x3f6a1368770bf636	0.003183082612280309
57	0x3f57aa467b07d438	0.0014444053923601385
58	0x3fb41882c14d891f	0.07849900454815327
59	0x3fa2066f70a875b3	0.03520534754009521
60	0xbf6bf52b8d91f900	-0.0034128046650599986
61	0x3f90193a721c34b0	0.01572123834107647
62	0x3f6379a5e7637c88	0.002377342253665985
63	0x3f989064cc2474a7	0.02398831840502127
