COLA_Emulators/PCE/LCDM_PNN_HIGH/MODEL_Z0.000_6.pth (torch, 62342 bytes, 14 tensors)

layer1.weight f8 [64, 19]
000000 a4 35 05 ce 7e 68 93 3f f5 1f 06 4c 73 e5 78 3f
       0.018953305553898084 0.006078195933135068
000010 4e 42 74 72 67 4f 90 3f 2a d7 b5 5e cf 6a b2 bf
       0.015927902565694922 -0.07194229185355697
000020 34 23 8d dc c9 51 83 3f 68 2a f2 f3 7d 1b b4 3f
       0.009433342974845972 0.0785444946833792
000030 ba 20 32 48 f6 1a d2 3f ac 8e 09 01 47 6e da 3f
       0.28289563227054837 0.4129807958727081
000040 10 75 4e 3f f6 e1 c7 3f df 69 53 f0 ce 09 a0 bf
       0.18658331004272855 -0.03132483180680245
000050 4a 10 be c3 d6 9b c6 3f b6 0f b4 6e b6 c7 c4 3f
       0.17663082654701362 0.16234474568784457
000060 26 de ae f5 83 f6 b1 3f 4e c0 15 1f 5f e8 b5 3f
       0.07016777752038958 0.08557695874128621
000070 a3 f0 b0 be 6c 04 cc 3f 95 ea ed 63 32 b0 c5 3f
       0.21888503371326803 0.16943960074771228
000080 6c 31 ea 25 33 0e 86 3f 67 6d ec 0b e7 3d c8 3f
       0.010769271463936213 0.18938911516384424
000090 75 b9 c7 de 85 f9 aa 3f cc b9 cd b5 a5 11 c5 bf
       0.05268495888218442 -0.16460105301980688
0000a0 62 2b 6c ea c2 a2 9c bf 10 cb e1 53 af 52 c2 3f
       -0.0279646354274904 0.1431483420925237
0000b0 ff 25 a1 6a 43 b6 aa bf ac 9f cb 90 5a b0 b5 3f
       -0.05217180897359341 0.08472219500583716
0000c0 37 d6 43 92 f2 ee cd 3f f6 94 14 b7 cf 6e c3 bf
       0.23385460035176361 -0.1518191951701408
0000d0 94 2e 52 7c bd fd ab bf 69 cd 36 2e d1 0a d4 3f
       -0.05467025892820945 0.31316022408574057
0000e0 5d 6c 7f 60 cc ae 9a bf e2 c9 fd 19 44 b2 a6 bf
       -0.026057427778010445 -0.044328811810277605
0000f0 e1 14 5a 4c 70 b8 be 3f 50 e6 b3 a6 1c 02 cb bf
       0.12000181068477246 -0.2110019506433667
000100 4b 1e 76 46 9a 6c bd bf 02 13 b7 f6 54 9e c0 3f
       -0.11493839473961846 0.12983190580975906
000110 65 b0 79 15 a9 eb bf bf 7c 4f 57 23 28 57 c7 3f
       -0.1246896436147736 0.18234731412541894
000120 2c 71 6c 13 32 e3 b2 bf f0 23 e8 04 05 4b c0 3f
       -0.073779229871836 0.1272894166907288
000130 29 84 11 a2 5c c5 cd 3f 44 97 d9 18 65 6f c3 3f
       0.2325855056142541 0.15183700288178603
000140 86 b8 4a 52 d8 8c b6 bf 51 99 cc e7 f8 64 b2 bf
       -0.08808662423209243 -0.07185321482811459
000150 cc 36 85 89 73 e2 c7 3f f8 63 9a 5e 4a 3e a4 3f
       0.18659824576245965 0.03953773884604311
000160 ef d3 75 cc 95 96 c0 3f de b8 32 ce 63 38 c9 3f
       0.12959549411212332 0.19703338211315374
000170 ac 9c 31 96 b6 ca c7 bf 3b 81 d6 0b fd 05 a2 bf
       -0.18587381681138504 -0.03520193833833437
000180 b1 a6 55 28 ec f6 ad bf 76 11 c2 55 b8 a5 cb bf
       -0.0585244940983335 -0.21599487483411978
000190 eb 28 ed 12 43 2d b6 3f a1 05 ff 5c 6c 25 c3 bf
       0.08662814342565965 -0.1495795682986172
0001a0 7d bd 4a 47 eb 80 cc bf d4 e7 84 d9 fd 8c c1 bf
       -0.22268429738094744 -0.13711522217800953
0001b0 39 c5 de 00 7a d2 c4 3f 4f 3b 8a 14 37 b6 b5 bf
       0.1626732353447922 -0.0848116326471715
0001c0 6e 37 43 36 35 6a c3 3f 30 3c cc f9 42 ad a1 3f
       0.15167870664157185 0.03452500628747435
0001d0 bc cb 2a 15 b1 30 d6 3f 19 ec d3 eb d5 0d ab 3f
       0.3467219073019654 0.05283993247754654
0001e0 be 3e 41 95 26 77 cb 3f d3 9c 35 52 47 5f ce 3f
       0.21457369125208986 0.2372826720631794
0001f0 02 0c f3 de 18 e1 c3 bf 70 3c e4 71 1e 7f c2 3f
       -0.15530691991997975 0.144504361735446
000200 f4 17 aa e4 63 45 b3 bf 02 4c 97 9e 4d e7 bd bf
       -0.07527756054523121 -0.11681065675593064
000210 92 c6 37 44 63 62 a4 3f 76 9d b9 83 e3 3c c1 bf
       0.0398131390355846 -0.13467067653548853
000220 b7 a3 1f f3 3a 06 9c 3f a8 61 18 59 9b ca b9 bf
       0.027367516602598587 -0.10074778485466729
000230 6b 20 74 fb 2e 69 8b bf e3 21 5e 1c f7 fb c3 3f
       -0.013384215401416285 0.15612687001363587
000240 a2 ac 1d 4f 84 c5 bc 3f 0f 2f a5 a1 4c e1 88 bf
       0.11238886767903236 -0.012148474391004109
000250 55 34 a8 e1 fc 87 c2 bf 39 c1 14 90 3a a4 d0 3f
       -0.1447750188675935 0.26002372808854407
000260 e8 19 2f 30 83 18 8a bf eb 33 bc 4b 6d e6 ae bf
       -0.012742066295584345 -0.06035176801206162
000270 e3 4e fd be 5e 72 be bf 22 a2 1d 60 92 e0 cd bf
       -0.1189326492579386 -0.2334158868136607
000280 7d 44 ec 32 1e 7f ca bf d5 06 57 39 e7 81 6d bf
       -0.20700433241339403 -0.0036019817441407067
000290 1f 41 16 12 d6 25 5a 3f 38 5a f8 3a 91 64 cc bf
       0.0015959349187575978 -0.22181907061958994
0002a0 94 8a cd 6e af ce a2 bf d4 d2 51 56 c6 f0 76 bf
       -0.03673313357901012 -0.005600714449532435
0002b0 25 fd 0d c3 f3 ea 90 bf e1 bd 21 62 97 6d c3 bf
       -0.01652127149600093 -0.15178196231452915
0002c0 fb 79 6e f0 8d 15 c6 bf 60 bd f1 bb 63 33 b8 3f
       -0.17253278961011617 0.09453414286121165
0002d0 17 bb 74 e0 a2 d9 c7 bf 74 91 56 90 1a 6c cc 3f
       -0.1863292308784927 0.2220490650917203
0002e0 1e 6e 32 b1 c3 51 c1 bf 26 b2 af b2 64 da ce 3f
       -0.13530775215336716 0.24103983616750319
0002f0 f0 58 52 5f d3 29 b5 3f bd 67 01 84 04 2c a7 3f
       0.08266945912541579 0.045257702936126055
000300 86 a4 8e 9e 66 4c a6 bf 8c 86 5a 57 9e 53 c3 bf
       -0.04355164227974577 -0.15098933472932108
000310 ce ef b4 a8 f0 58 9d 3f 15 8f 46 02 a6 ca bc 3f
       0.028659591958088808 0.11246717029149196
000320 b5 e0 4f c5 46 d7 ab bf c8 d9 15 c6 31 4d 98 bf
       -0.05437680395692849 -0.02373197337643676
000330 57 80 dd c1 1f fa c5 3f 7e 05 6c b5 84 86 c9 3f
       0.1716956802947631 0.19941767557615359
000340 56 3e 5f 96 da 14 c0 3f 12 f5 3d 65 42 54 b3 bf
       0.12563640921006208 -0.07550444576005003
000350 49 65 79 22 3a 7a d2 3f ed bc 4c db a7 17 ce 3f
       0.2887101494466902 0.2350969143676375
000360 58 d9 8f 1c 4d 28 c4 3f 56 8e 7d 52 04 9b d0 bf
       0.15747989554047126 -0.2594614797182876
000370 d5 c4 0f dc e9 0b d0 bf 66 6a 0a 1c 24 9a ae 3f
       -0.2507271431960139 0.05976975290578394
000380 54 f8 f9 71 40 2a d8 bf e3 ba 6b df ee 5e d0 3f
       -0.3775788415003991 0.25579425638617986
000390 4d ed ee 9a 7f 36 a7 3f fe 43 68 00 69 6b b1 3f
       0.0453376652362417 0.06804519901221792
0003a0 bb c3 bd 72 c1 64 af bf 32 d9 3a 89 82 c8 ab 3f
       -0.06131557965898745 0.05426414418382065
0003b0 f9 87 c4 e0 23 2e a3 bf a8 c7 08 83 c8 e2 c7 bf
       -0.037461396396125175 -0.18660837553175935
0003c0 84 bc 04 ce d0 6e 62 bf 44 c9 5e cb 42 07 c4 3f
       -0.0022501066415752686 0.15647158556164176
0003d0 81 2a e4 54 84 3d af bf 40 49 e9 a4 6a 9f b0 bf
       -0.06101621185560636 -0.06493250394968175
0003e0 40 99 a4 e2 f4 0d c8 3f 41 be 75 c9 f1 38 c8 bf
       0.1879259211211295 -0.18923780762587408
0003f0 b2 9c 82 26 fc 51 ab bf 88 c2 f2 32 f0 f4 c6 bf
       -0.05335987062545068 -0.17934992301663422
000400 31 ec 64 b7 01 42 cf 3f b7 71 ad ee ad 10 b1 bf
       0.2442018647651323 -0.06666075779998591
000410 69 76 f2 eb 4b 99 b6 bf 7b 18 d7 e8 3f 32 c6 3f
       -0.08827662001064031 0.17340849751616702
000420 ee e5 65 ab a3 5d b5 bf 71 6e 98 cf bb ee b5 3f
       -0.08346007284662679 0.0856740362000268
000430 68 94 4d b2 13 6a c3 3f 34 f2 e5 84 88 70 64 3f
       0.15167471128657728 0.002495066298420912
000440 4b a7 59 a1 03 7a b7 3f 82 8f 54 1c 24 b1 a6 bf
       0.09170553864683233 -0.04432022901371992
000450 1b 79 2c 93 0f fa d1 bf bd c2 07 9e 94 72 84 3f
       -0.28088750240739707 0.009984170029356471
000460 48 e0 45 19 a9 af cf bf eb e9 c3 57 59 6f c5 3f
       -0.24754823431044515 0.16746060166754204
000470 0e 50 04 5d 2e 57 a1 bf 60 0e 5e 06 68 57 cd 3f
       -0.03386826405963471 0.22922993002804315
000480 f4 a4 51 d6 73 ff b0 bf 18 97 98 e3 e1 bb b4 bf
       -0.06639789564509951 -0.08099185759109806
000490 27 b8 88 29 89 21 be 3f 1b 7d 30 69 d6 59 b3 bf
       0.11769921554579864 -0.07558956211186223
0004a0 1c e5 c0 4f ba 5c d3 3f 2b a5 b8 5a fe 35 b2 bf
       0.30253465450694406 -0.0711363765227772
0004b0 c7 91 dc 6c 24 92 ab 3f 1f 5b 41 ee 1a a9 bb 3f
       0.053849352158326584 0.10804909054546073
0004c0 b0 5e 4a 93 e8 23 a4 3f fc 1e 4a fa b0 ed ff be
       0.03933646009425951 -3.0449372973722307e-05
0004d0 50 2d aa 80 8f e8 d7 bf 1e 7f 43 7a 6c c1 8d 3f
       -0.3735693699352014 0.014529082757178065
0004e0 8f 50 f7 b4 b2 47 d2 bf aa e4 d9 2b 21 b3 a1 bf
       -0.2856261031386191 -0.03456977520267775
0004f0 b2 eb bd 78 58 81 c3 bf d1 18 8d f8 98 b3 d0 3f
       -0.15238481422042366 0.2609617640740796
000500 82 50 d2 c3 45 b7 be bf 95 e8 9c a4 28 20 a1 bf
       -0.11998401671218242 -0.03344847688136202
000510 58 62 69 f1 d3 ce b5 bf 87 ea b8 88 a7 15 bd 3f
       -0.08518719333495406 0.11361167037913776
000520 f0 df 5f 18 0d 5d d3 bf 11 a0 d9 8b 8e 16 c9 3f
       -0.30255439167331044 0.1960008795606432
000530 55 86 8b 8a 4f b5 be 3f 9a c7 ee 55 d7 d3 87 3f
       0.11995408184477559 0.011634523687323473
000540 20 4a 52 ee c5 51 be 3f 89 e6 be 8d 5f 80 c3 bf
       0.11843525951761835 -0.15235514088799487
000550 57 14 5b b6 77 cd d2 bf b7 ad 8c e6 20 e9 a2 3f
       -0.2937907486742168 0.036934879439594885
000560 7c 53 1e a2 e8 0a 77 bf 1d e9 f2 ad 61 81 d1 3f
       -0.0056256377446474125 0.27352182376093187
000570 56 20 a2 f2 98 73 c8 3f 16 3d 6c 32 a3 4e d0 3f
       0.1910277542813243 0.2547996513757921
000580 6a f1 d4 f1 ba 2a c6 bf 5e c1 38 a8 64 a8 a4 bf
       -0.1731790238208178 -0.04034723809707218
000590 54 97 89 5c 55 2e d1 bf 67 45 ac 7c 0f 3e 95 3f
       -0.2684529689489541 0.020744554504806525
0005a0 31 66 60 67 a5 e2 be 3f 31 a6 5a 6b c7 6a b0 3f
       0.12064584516374378 0.06412931796025913
0005b0 fe 30 ca c9 71 55 bc 3f 22 b7 4f 48 d7 33 ba bf
       0.11067877937802348 -0.10235353007712125
0005c0 11 35 6b c7 47 e9 c4 3f 2d 09 a7 56 64 33 d0 3f
       0.1633691524242882 0.25313671552807443
0005d0 d6 69 c4 84 78 83 c0 bf 4e 2e 89 a9 fa eb a2 bf
       -0.12901216967368495 -0.0369566280320127
0005e0 b1 f2 ee 0c 4e b9 92 bf 9f 3d 89 45 aa d4 a7 bf
       -0.018285007037536164 -0.04654438113049796
0005f0 44 b4 54 de 6f c1 a4 bf 29 8a 26 25 79 e6 a8 bf
       -0.04053830708503672 -0.04863337114808914
000600 e7 27 d0 38 09 77 97 bf cc e3 38 0c d1 45 c4 3f
       -0.022915023892018296 0.15838063332355856
000610 8d 9b be b3 71 e1 c8 bf 22 f6 2d 0c 66 06 c8 bf
       -0.1943800094279279 -0.18769527048782303
000620 8e bf fa 7c d1 02 b5 3f 9e 9d 64 76 30 e2 b7 bf
       0.08207425404793708 -0.09329512491659961
000630 e5 d2 68 86 d5 ae c6 3f 52 de ba 50 3e 02 c6 bf
       0.1772105127617102 -0.17194346372501684
000640 44 10 e3 19 1b 15 a4 bf c2 09 3c d5 ad 09 c3 3f
       -0.039223524961500306 0.14873288070528018
000650 d0 01 04 15 54 20 c3 bf 8b 57 7b 25 27 0d c7 3f
       -0.14942408586649814 0.18008889513174284
000660 65 98 a2 3c bc 0e d0 bf d6 88 ea 56 6c 79 a2 3f
       -0.2508993713512438 0.03608263550747075
000670 45 07 04 7c 12 f6 ce 3f 13 01 9c 08 9c 28 93 bf
       0.24188452773528915 -0.018709600472903775
000680 0a 1b d9 00 73 00 a6 bf 3a 3c 9b e9 68 92 a6 bf
       -0.04297217736580279 -0.04408576823845363
000690 ba e5 fe 2c a8 c7 c6 3f 40 35 96 3a 60 b5 c1 3f
       0.1779680461602718 0.1383476530140033
0006a0 0f 70 f2 3e 2f cc c4 bf 0c be a6 9a 32 2d c4 3f
       -0.16248121808610036 0.1576293234952434
0006b0 a1 c9 f1 a4 6a 9c b7 3f 3a 94 43 ea b3 8a c5 bf
       0.0922304775902263 -0.16829537333174632
0006c0 a0 2e 6c 06 42 de c4 3f a1 19 42 13 54 8a a0 3f
       0.16303277314761022 0.03230536208234303
0006d0 a8 ff e9 65 7b 63 ce 3f ea d1 a7 b4 23 6d 84 bf
       0.23741095043442084 -0.00997379202906586
0006e0 4d cb c1 22 a9 85 b0 3f 0d a6 0f 2d fa f5 c0 3f
       0.06453950022277617 0.13250662994623533
0006f0 9a 05 af a8 91 e4 b9 3f 40 c0 b7 52 aa 6a c7 bf
       0.10114393585447204 -0.18294266737894027
000700 d7 ba c1 2d 83 18 9a bf 97 95 51 69 bf d9 b4 bf
       -0.0254841324498852 -0.0814475662351327
000710 d7 c2 3d 7d 53 c2 bc 3f ae fd d9 e8 60 6e bc 3f
       0.1123401814236432 0.11105924305774437
000720 af ca 01 1a 2f d1 a1 bf 85 c6 37 f8 ca ab 8a bf
       -0.034799072193796625 -0.013022981357582406
000730 a1 d7 df e9 18 f6 c4 3f e7 46 e0 07 2f 39 b5 3f
       0.16376029414794593 0.08290380422866016
000740 6d 38 5b 02 17 8e c7 3f b3 b4 4b 90 19 cf c3 bf
       0.1840237390046612 -0.1547576860970473
000750 22 de ac 71 18 e7 c8 bf a4 92 86 f7 cd 4e a3 3f
       -0.1945524745039942 0.0377106060653081
000760 8c 69 35 ee f5 ef 81 3f c6 8d 49 d6 98 33 d0 bf
       0.008758469898272357 -0.2531492321633916
000770 fc a1 01 43 65 6a c8 bf a8 24 2f 2b 26 52 d0 3f
       -0.19074693462177084 0.2550139829368825
000780 58 48 82 bb ee 87 c5 bf 3f 4e 01 5b 90 47 cd bf
       -0.16821083217343147 -0.22874645656212242
000790 e7 40 df a4 da ea a6 bf 78 99 8a 0e 41 b0 d0 bf
       -0.044760544420229746 -0.26075769825037964
0007a0 3a ac 8e 66 47 fa cd 3f c1 67 84 ff 58 c3 b7 bf
       0.23420040614777965 -0.09282451856816377
0007b0 93 cc 4d d8 58 33 b2 bf f5 44 70 ec ed 1a 70 3f
       -0.07109599381310465 0.003931931866661066
0007c0 87 ca 3d f1 f3 52 c5 3f fe 19 b5 6c f7 20 ab 3f
       0.16659402160037848 0.05298588945383996
0007d0 6b cc 55 9c a7 82 cb bf 9a 6c 08 b7 08 b0 c1 bf
       -0.21492476590683238 -0.13818463265565556
0007e0 80 35 d6 a9 7a 0e c1 3f a4 88 19 d8 0f 5b b3 bf
       0.13325436871347662 -0.07560824418900097
0007f0 5b d5 64 14 f4 a4 a9 bf 49 ff 80 6d d5 03 c5 bf
       -0.050086619843947765 -0.1641794953047742

layer1.bias f8 [64]
000000 05 c7 c9 14 fb 87 c0 bf 67 62 f3 25 92 f5 a5 3f
       -0.12914980425880898 0.042889182217270165
000010 66 76 cc 34 44 d6 42 bf e1 37 8a 90 79 e4 a1 bf
       -0.0005748589552216465 -0.03494624986079465
000020 4d 95 48 ca 61 ff b1 3f ce 95 64 34 3f 7e b4 3f
       0.07030306995928477 0.080051374713171
000030 08 bb 53 30 4b f4 7f 3f 7a 6a 2f 31 bd e8 b7 bf
       0.007801336008226974 -0.09339506579218862
000040 16 50 be eb 17 06 c0 bf 43 e3 9d b4 7a bf bb 3f
       -0.12518595705898922 0.10839049253071402
000050 75 df cc 2b c7 c4 8b 3f 44 aa ae 5d 4f b7 b6 bf
       0.013558918022326097 -0.0887345889774816
000060 29 ba 63 50 b7 d3 a0 bf 7a 15 90 13 b6 3b b5 bf
       -0.03286526542966712 -0.08294237115486239
000070 46 fe 44 d0 b0 e0 ce 3f 2c 57 4e 95 44 99 c0 bf
       0.2412320153180067 -0.12967736521084683
000080 48 32 b1 71 26 c5 c0 bf 46 f3 52 c7 9d 3d c4 3f
       -0.1310165457856718 0.15813038094156634
000090 70 8d 93 09 9a 9b b2 bf 2a 91 85 cb 3b 16 c5 3f
       -0.07268679364965691 0.16474101483903186
0000a0 11 51 7f 30 44 72 b9 3f db e6 8b ad b1 5a ca bf
       0.09939981636063445 -0.20589276288938305
0000b0 45 e1 13 55 94 91 7d 3f 8e b4 bb 10 ae ea c7 bf
       0.007218913481885918 -0.18684936348964637
0000c0 ee db 5a 98 df f6 96 bf 11 1a 07 df 70 d6 c5 3f
       -0.022426122354513404 0.1706067170145649
0000d0 15 c7 11 62 2d a2 d2 3f 7b 9e 3f 90 2c 98 d1 bf
       0.29114851548284665 -0.274912968509376
0000e0 fe 18 13 96 b8 0e b2 3f 35 df 68 c7 d4 46 bc bf
       0.07053712524347941 -0.11045579784774591
0000f0 d9 88 d0 f9 81 35 cf bf 1b 82 c3 02 bb 3a be 3f
       -0.24382042596795975 0.11808365647767298
000100 e1 b7 4b 44 91 ed e0 3f 1b 3a 0e 2f 23 06 ce 3f
       0.5289999326612326 0.2345622997058435
000110 8d 5c f3 3c da 3e b7 bf ae 28 b8 2e 35 0b c6 bf
       -0.09080280292561067 -0.1722170332071235
000120 69 c6 b6 0a d6 08 a9 3f d6 c3 c9 ee 13 23 c9 3f
       0.04889553910051065 0.1963829914052712
000130 a8 57 c3 7f 57 99 cc 3f 71 b3 b0 0f 92 38 c3 bf
       0.22342962015562517 -0.15016389623761087
000140 34 c8 0b 5d 59 2d c7 bf e7 5f be 59 51 89 b0 bf
       -0.18107144397032615 -0.0645953029728613
000150 f2 70 aa 5e 51 d9 c7 3f 09 12 03 84 b1 55 cf 3f
       0.18631951448777034 0.24480265565775053
000160 ff 11 44 2d 9e 1b ab bf 5c 2f c3 f4 be c7 b3 bf
       -0.052945082688925275 -0.0772666308941416
000170 b0 ca 68 fb ab 96 c5 3f b0 72 1b e6 86 f4 8b bf
       0.16866063857886138 -0.013649991891207719
000180 86 e8 c9 b7 89 48 c1 bf 59 5b 0f ac bf 36 be bf
       -0.13502618288095308 -0.11802289915736476
000190 a4 12 0c b4 ab 96 ca 3f 46 8b 81 83 e6 44 bc bf
       0.20772310534825522 -0.11042633734318227
0001a0 10 52 1c 04 ec 9c c0 bf e6 d4 b5 71 f6 eb 5d 3f
       -0.12978887749399393 0.0018262774163678107
0001b0 4e 94 9c 57 12 e0 b9 3f 2c b0 09 8a a7 21 bd 3f
       0.10107531203228001 0.11379477615418016
0001c0 4a 4f 6f bd 56 cc c4 bf 43 17 53 46 d3 ff a3 bf
       -0.16248592614885587 -0.03906116708235043
0001d0 8d aa f4 92 8f 19 c2 bf 08 5c b8 55 13 81 a4 3f
       -0.14140505481312396 0.040047268117795964
0001e0 51 f7 94 d5 9f cb a4 bf 94 0b 3e f6 6f 3f c9 bf
       -0.04061603052330887 -0.19724845431855142
0001f0 8a fe e1 51 32 c1 cb 3f 3c a6 d2 89 12 d2 c4 3f
       0.21683339117224804 0.16266090135222722

custom_layer.alpha f8 [64]
000000 11 99 01 db 9e c7 de bf 40 44 26 d9 1c 17 eb 3f
       -0.48093387019470507 0.8465713731003532
000010 0c d2 61 06 5d 54 e2 bf 46 58 d2 3f 0b 49 e0 bf
       -0.5727982639933216 -0.5089164968983446
000020 32 31 c6 24 e0 76 e0 bf 18 4f a2 ae 5d 60 01 c0
       -0.5145111768957007 -2.172053684547688
000030 1c 40 12 b3 83 5f f2 3f c3 0b 33 37 4f 5f df 3f
       1.1483189578029913 0.4901922263199447
000040 15 d1 95 79 63 91 ee bf 0e 93 2e b3 76 9d d7 3f
       -0.9552476286612853 0.36898581979976164
000050 46 b9 e5 14 d4 98 da bf 2b b7 a3 2f 5c 2f e8 3f
       -0.41557790795095106 0.7557812624415637
000060 34 7b a4 d4 37 29 f2 bf 83 97 5c 89 5a da f1 bf
       -1.135063009867463 -1.115808998650636
000070 a8 63 59 3c bc ea ce 3f 58 5a 13 a5 6e cc f7 3f
       0.24153855272996094 1.4874102066293258
000080 73 bc c3 0d f3 88 e8 3f f7 f1 97 fd 6d 3f c6 bf
       0.7667174595679981 -0.1738107193231284
000090 bd 1a 56 54 8f 2b f3 bf cd f2 91 cc 84 59 d0 bf
       -1.1981347364796158 -0.25546379067945396
0000a0 be 5a 53 9d d5 18 03 40 cd c5 a6 5d dc 4f f2 bf
       2.387126187425877 -1.1444972666034687
0000b0 00 47 9f 5c b3 47 ce 3f d3 26 55 0a 42 66 d3 3f
       0.23656312964026682 0.3031163311867264
0000c0 75 e1 70 05 3f 0d d0 bf 3c c5 5e 23 ee 22 06 c0
       -0.25080848246900384 -2.7670557750031133
0000d0 99 c5 6b f1 38 25 c4 3f 5a 45 ca e5 e2 41 c1 3f
       0.15738593853124597 0.1348231908819269
0000e0 17 e6 ef e7 d9 d7 01 c0 ee 3f f1 09 f2 f4 fa 3f
       -2.230396091469412 1.6848011387228286
0000f0 4f bd a1 25 20 21 e7 3f 88 9c 4f cb af cf df 3f
       0.7227936491962427 0.4970511899432002
000100 84 bc c3 98 fc f8 e9 3f 1c 19 40 19 36 6b d7 bf
       0.8116438850100995 -0.3659186598382733
000110 b8 cb 37 ed 8b 03 f1 bf ba 3c 71 44 ff 9d dd bf
       -1.0633658663107166 -0.46276838001081055
000120 e6 56 66 cc 47 cc e4 3f d4 fe 2b b6 2c 62 fc bf
       0.6499365799124603 -1.7739684215629739
000130 1a b3 05 99 89 e9 9c 3f c6 22 ad bb f2 6e be bf
       0.028234624829042244 -0.11888043481770713
000140 f7 c4 38 51 5c 4c ce 3f 81 a1 df 96 25 c9 c3 3f
       0.23670534101396587 0.15457601420281367
000150 0f de b2 bd 61 de df bf 29 a4 ea 37 16 e7 fb 3f
       -0.4979481079603553 1.743917673515407
000160 41 1f c9 e0 4a e0 f0 bf 24 82 3c 52 e4 d3 f1 bf
       -1.0547589092911525 -1.1142314159734577
000170 0d 1a 8a 59 43 db fa bf e7 2a 84 60 23 95 a3 3f
       -1.678531026614681 0.038247209102413575
000180 9c 0f ff b5 99 a0 d4 bf 06 49 99 f3 b5 7c e4 3f
       -0.32230227253989496 0.640223480013703
000190 bc 51 57 75 7b 12 fd bf 54 63 ce 29 90 c0 e1 bf
       -1.8170122703205456 -0.5547562424209027
0001a0 45 00 b6 65 1d 51 d7 3f a4 47 8a e3 d1 32 08 40
       0.36432585652073995 3.0248143936705265
0001b0 b0 fd 32 0d df ae f2 bf f0 c5 6c b8 8c 4b f5 3f
       -1.1676931872933487 1.33094474831557
0001c0 86 85 ca 14 59 36 e7 bf d2 45 52 e2 d1 06 f7 bf
       -0.7253842741085215 -1.4391650047949622
0001d0 78 ad 71 dc 3b 3d f3 bf a1 e3 3a 79 60 40 ff 3f
       -1.2024496661277606 1.9532170043514514
0001e0 c2 67 af 88 7d 24 d4 3f a0 ed 03 4c 1e f9 ee bf
       0.3147271952453786 -0.967909954516859
0001f0 44 8f df d4 49 2a e1 3f 59 97 fc dc 9b 7b f3 bf
       0.5364121587449309 -1.2176779396335944

custom_layer.beta f8 [64]
000000 6e 4e 05 70 cf 4c e1 bf f3 9e bf 73 8b ad f1 bf
       -0.5406262576966137 -1.1048693200518158
000010 7d 2f 21 21 02 89 f8 bf c3 84 a3 71 ca 8a f9 3f
       -1.5334492963911253 1.5963844717992266
000020 61 19 b5 cf 23 93 e4 3f 02 6b b7 1f 69 f6 f8 bf
       0.6429614121232526 -1.560158847706305
000030 d1 03 15 3d 96 12 ea 3f 67 c8 96 f0 b7 a3 f3 bf
       0.8147689049729882 -1.2274703405387528
000040 53 21 7c b8 24 58 e9 3f 97 85 67 34 d9 a3 f7 bf
       0.7920096972675686 -1.4775020644231966
000050 8b 1f 65 37 9b ea dd 3f 2e b8 5a 26 9e c0 8c bf
       0.46744423303288646 -0.014039264245493479
000060 41 6a 7f ad d4 c6 dd bf a9 43 03 4c 47 07 f2 bf
       -0.4652606672586082 -1.1267769784210293
000070 30 d3 f1 dc dc 69 00 40 6e c8 cc 2c a5 56 c4 bf
       2.0516907941149825 -0.1588942021131205
000080 70 e3 ab 41 99 c8 d3 bf 6d 78 b7 90 dc d3 ce 3f
       -0.30911857045389635 0.24084050241703228
000090 79 10 f2 d8 f5 b8 e7 bf 84 ce 8d fd 74 80 f0 bf
       -0.7413281666963619 -1.0313615707827077
0000a0 ab bd ab ed 5f 0b 05 c0 2c 38 0d de 84 7e f4 3f
       -2.6305540626560364 1.2808884309665798
0000b0 7a d9 e2 e4 5f 78 09 40 62 27 f9 3a 5f 50 ed bf
       3.183776653454683 -0.9160610343762807
0000c0 62 b8 d6 1f 45 2c de bf 0e d9 49 6d b7 d0 f1 3f
       -0.4714520274091055 1.1134561795311728
0000d0 fc 31 81 24 2b 47 f1 bf fb a6 f3 37 92 83 f1 bf
       -1.0798751283610946 -1.0946218667617689
0000e0 e0 a8 ef 6b 36 ca c6 3f e2 82 77 1b 51 7d f3 3f
       0.17804603834458188 1.2180949280665847
0000f0 5b 43 06 8b 70 f4 e3 3f 10 ba 19 c6 94 7d c3 bf
       0.6235888209649646 -0.1522699324882102
000100 05 3c 0f 78 73 c5 00 c0 01 0d f8 41 5d 46 e4 bf
       -2.096411645855826 -0.6335893906074547
000110 06 e0 18 2d 23 0d fb bf bd 85 53 f8 f0 00 e9 bf
       -1.6907073747261179 -0.7813649034616713
000120 3d ad 08 04 f7 30 eb 3f 71 74 1b ee 50 21 fb 3f
       0.8497271612917882 1.6956338215889242
000130 f1 94 62 fa 91 8c ef 3f c4 76 8e 60 75 2c 92 3f
       0.9859094515165038 0.017747720735875175
000140 f9 db ec 24 7c 14 c9 3f 76 4e 7b 88 3c c7 e4 3f
       0.19593765070905514 0.6493208566339053
000150 61 33 38 4e c2 b9 e6 3f 30 25 fa d1 7e 6f f6 bf
       0.710175659916427 -1.4022205545646322
000160 81 95 55 cc a9 85 e8 3f bb ef e5 50 0d 73 e2 3f
       0.7663163176445523 0.5765444355051764
000170 87 d0 0a fb 5e c5 eb 3f 9f 5b f6 66 0f bb 03 c0
       0.8678431418579898 -2.4663379711086715
000180 26 b7 4c f5 9c f3 ea bf 73 47 ff 6a 88 f8 e1 bf
       -0.8422379294404194 -0.5615884866513013
000190 62 5a 6c 3e 9b 91 eb 3f ce f6 64 d6 d5 80 c7 bf
       0.861524221344393 -0.1836192414138424
0001a0 1a f0 e7 32 b4 9e cd bf a1 e8 e9 ff de d6 f1 3f
       -0.23140575872082608 1.114958762801088
0001b0 79 61 69 9b 20 15 e0 bf d5 b2 93 be dd 9e d7 bf
       -0.5025790248283065 -0.36907142268209486
0001c0 0d 16 c1 27 28 b6 e6 bf 6b e8 46 bc 64 8d f3 bf
       -0.7097359444093755 -1.2220198969430622
0001d0 41 72 80 43 ae 8b f0 bf ed cc c2 47 d1 d7 e3 3f
       -1.0341017376696444 0.6200949098187302
0001e0 cc 56 92 13 ac e7 da 3f e5 df 16 6c d7 88 f8 bf
       0.42039014731686275 -1.5334085676422486
0001f0 56 09 3c 93 00 ad f9 3f 90 cf f6 4c 59 5a e2 bf
       1.6047368766163195 -0.5735289099888963

custom_layer.gamma f8 [64]
000000 fd c3 47 fd db f1 d2 bf 7d 58 ec b2 e2 b2 75 3f
       -0.2960119222107663 0.005297551672603371
000010 55 73 3a 3f 13 dd 51 3f a4 b4 be d1 49 bf 7c 3f
       0.0010903060873836596 0.007018364292816024
000020 25 1b 6d e2 34 40 8a bf 92 dd fe 6e 59 17 aa 3f
       -0.012817776832560643 0.05095939140249607
000030 8f 53 92 6a 8e f0 90 3f c5 a2 c5 7e 7c 0a 9c 3f
       0.016542649511922355 0.027383752095746745
000040 6d 09 b1 75 6f c9 c5 3f 12 bd 57 7d 76 6c ba bf
       0.17020982023866385 -0.1032175117504617
000050 3d 80 0f 64 a6 53 c6 3f 31 89 6f ac dc 19 70 bf
       0.1744277943207652 -0.003930913931045319
000060 c0 79 48 ea e3 76 c2 bf 3a 37 ff d5 c9 f1 9c 3f
       -0.14425324382405158 0.0282660996306767
000070 0a 9b 32 8d 42 f2 bd bf f0 f2 95 a4 68 e2 ca 3f
       -0.11697784373482648 0.21003444706357
000080 4b af df 8b 34 14 91 3f 8f 0b f4 e3 01 41 a3 3f
       0.016678639447419468 0.03760534198411058
000090 8f 63 a5 ba e0 07 84 3f a0 29 99 e3 74 80 91 3f
       0.009780650802598405 0.017091585532662656
0000a0 59 21 7f 99 c4 06 95 3f 08 8c ab b6 3a 4c cf 3f
       0.02053363024586594 0.2445138351386904
0000b0 1f fc a0 c0 32 cd 73 bf 29 5b db d8 0b 59 c7 bf
       -0.004834364177496857 -0.18240497673715453
0000c0 48 f2 04 67 e2 91 ca 3f 45 34 16 70 3c 9b 79 bf
       0.20757703809967354 -0.006251560292537543
0000d0 a9 28 1e ba d9 a0 b8 3f e6 20 0f 4e 2c 4a b7 3f
       0.09620438379184527 0.09097554116954462
0000e0 0f 79 be b7 17 47 c7 bf 1f a6 5a 74 29 47 9f 3f
       -0.1818570754230184 0.030544898726168165
0000f0 70 67 cd 4a 64 bb 9c bf ca 87 b1 9f ff 0f 8f 3f
       -0.028058592858861642 0.015167233525236318
000100 ea dd 22 fa e7 17 e3 3f 9f 24 fb d4 07 98 c9 3f
       0.596668232486022 0.1999521055170463
000110 3a ce c8 25 f9 19 bc 3f 2c 36 d8 44 c3 85 bb 3f
       0.10977132008047699 0.10750980788017078
000120 5f 8e 9a 9b 3c 55 bc bf b8 51 b9 f7 73 9e c0 3f
       -0.11067560957831678 0.12983560176748
000130 6b 6a 85 c5 12 65 90 bf f8 6f b5 14 30 8c d6 3f
       -0.01601056414197403 0.3523063852533137
000140 7a 92 22 c1 96 ef b2 3f 80 09 83 c0 0e 38 ad 3f
       0.07396833625041124 0.057068310737594
000150 ba d7 3e bf 29 32 9c 3f 2d d0 4c 1e 17 76 a6 3f
       0.027535106942842204 0.043869707535492665
000160 58 26 ab 33 cc 09 a0 3f 27 82 67 88 3f e3 77 3f
       0.03132475023955966 0.005831955123057265
000170 32 90 09 b6 33 20 9f 3f 69 f3 e5 2e 8e 27 bc 3f
       0.030396278367689607 0.10997856755234427
000180 45 f0 77 cd 46 2f a2 3f 33 a1 86 44 50 d2 b8 3f
       0.0355169416252186 0.09695913002963578
000190 84 96 94 1b 7e f1 bd 3f e5 cb 82 ae 38 9c a0 3f
       0.11696613477087153 0.032441874792674054
0001a0 b5 b2 b9 98 b2 0a 87 3f 48 05 c1 34 a4 24 c0 3f
       0.011250872884568034 0.12611820770147575
0001b0 05 1a 6d 60 f1 7e cf bf 0b 34 c6 f6 8a 85 80 3f
       -0.24606148918447004 0.008067212730361836
0001c0 fb 72 c4 84 2c b9 af 3f 4f 25 aa a0 21 04 b0 3f
       0.06195963974662352 0.06256303951717722
0001d0 8c d1 b0 3a 2a d3 48 bf bc 3e 8b d3 0f 62 a2 bf
       -0.0007575946996270385 -0.03590440232585254
0001e0 cc 8c 07 c1 72 ab b4 bf 2c 4c 5d 23 21 25 b1 3f
       -0.0807410928023728 0.06697280038251624
0001f0 56 69 6d 45 af b8 e0 3f 9e e1 34 13 96 14 76 3f
       0.522544513321274 0.0053907263093652385

custom_layer.bias f8 [64]
000000 17 34 4c 37 9b 81 75 3f f3 d5 c5 fe 16 ba 88 3f
       0.0052505553364996715 0.012073688173340513
000010 98 99 16 c4 fc 3e 89 bf 8c 39 70 b3 c7 86 80 bf
       -0.012327170118464889 -0.008069572604679796
000020 2e 4d f0 72 43 2b 7b 3f 40 9e 57 74 90 17 8d bf
       0.00663305613763336 -0.01420510153816601
000030 82 cd b0 43 0f 28 8c bf ef a4 38 e8 c3 21 98 3f
       -0.013748282674078242 0.023566304253255174
000040 09 25 38 b6 d6 5f 84 bf bc 90 9b fb cb de 68 bf
       -0.009948422847644982 -0.0030359252967731825
000050 77 10 0d 70 bc 5c 83 bf 49 b3 84 70 d2 2c 7c bf
       -0.009454223794485224 -0.006878683118242198
000060 df b7 e2 06 b1 c6 8d 3f ee 41 ec 67 7c 6a 83 bf
       0.014539130232460394 -0.009480449601626053
000070 33 fe bd 24 86 84 40 3f 74 2f ac 47 ff 8a 78 3f
       0.0005040793416668021 0.005991933047663756
000080 66 d2 92 bd 53 a0 75 3f 3b 91 22 6a da 37 5c 3f
       0.0052798529733776075 0.0017223008112888366
000090 fc 7c db 59 fa 20 74 bf 69 5f 09 e3 f1 96 63 3f
       -0.004914262708296532 0.0023913120606202
0000a0 bb fa 63 85 e3 f2 90 bf 1a e2 41 48 97 7b 83 3f
       -0.016551547066223842 0.00951307477247192
0000b0 68 e3 18 e2 4e 0a 90 3f 47 d4 a6 17 af 24 70 bf
       0.015664322423819682 -0.003941234545370049
0000c0 a6 1e 4d d8 e8 24 95 bf f2 c0 44 f2 a4 f1 5b 3f
       -0.020648611261349224 0.0017055617145836336
0000d0 72 cb 99 40 f2 cd 75 3f 7a d9 2c 1b b6 2b 97 3f
       0.005323358820180301 0.0226276830755636
0000e0 fe a1 0b 96 60 bc 41 3f 10 7c 3a 2a 97 83 92 bf
       0.0005412551509751948 -0.018080102875156767
0000f0 78 71 72 5d f8 5c 83 bf 6c c5 23 df 33 eb 30 bf
       -0.00945467028787371 -0.0002581597938294464
000100 19 9e 27 2e ce 87 8c 3f 67 dc 62 56 17 b2 7c 3f
       0.013930903228312851 0.007005778467081481
000110 8a 9f d1 18 a5 8c 82 bf a0 20 bc 26 d6 0c 6b 3f
       -0.009057321376715572 0.0033020193712936657
000120 a8 8e 2a ae 9d 7a 8b bf b2 83 c4 36 dd fa 88 bf
       -0.01341746509326154 -0.012197235330462994
000130 bc b8 76 36 68 69 95 bf 12 1a 88 64 f5 11 5b bf
       -0.020909908603862645 -0.0016522308743575115
000140 b5 09 b6 f6 9c 18 68 bf 84 cc 6a 4a 53 e6 93 bf
       -0.002941423959499557 -0.019433308999123003
000150 30 a4 e8 78 ed 4e 89 bf 8e 9f 01 65 ce 65 92 3f
       -0.012357573749868761 0.017966484942376897
000160 71 17 5c 90 ad 86 75 bf f1 89 27 33 73 f2 6e 3f
       -0.005255392059330664 0.0037777185436749174
000170 8c 02 a4 ec 49 d6 45 bf f5 50 ff 87 60 a3 23 bf
       -0.0006664143523097007 -0.00014982751235826484
000180 ca 45 93 26 07 a7 84 3f c3 a1 b5 98 87 cc 86 3f
       0.010084205498432381 0.011132296893905718
000190 51 10 cd 67 ee cb 67 3f fb b7 15 36 56 be 79 bf
       0.0029048591954126475 -0.006285034907120841
0001a0 e7 e8 61 62 28 90 60 bf be ed 8c 38 08 6e 66 bf
       -0.0020218647724138286 -0.002738014275022598
0001b0 99 33 2d 0b 57 8d 90 3f 93 f6 4c e7 98 79 74 3f
       0.016164169366038903 0.0049987767022777905
0001c0 3d 4e 04 1e ce b4 5b bf ba 28 32 90 68 54 76 3f
       -0.0016910565246392028 0.005451591921096172
0001d0 8b 95 9b de fb 51 63 bf e6 c9 3a 1a d8 4d 61 bf
       -0.002358428890931468 -0.002112314295879647
0001e0 51 ae 41 46 4c 26 77 bf 5d 6a 96 2d 0c 4b 75 bf
       -0.005651758143453715 -0.005198524065600366
0001f0 01 bb a3 ac 00 c4 8b 3f da 1f aa 58 d7 bd 7f 3f
       0.01355743910650409 0.007749406048453944

layer2.weight f8 [64, 64]
000000 c8 26 b5 ee a1 0f c3 3f 64 83 e5 69 3a 10 bb 3f
       0.1489145675243917 0.10571637235035564
000010 94 6a 27 50 6c 12 a9 bf 2e 33 9e 34 97 63 c1 bf
       -0.048968682083530585 -0.1358517653392481
000020 a3 bb 2f ac 2a 21 b4 bf 50 23 40 98 a1 31 b2 bf
       -0.07863108352442665 -0.07106981246046229
000030 2c 4c 47 75 0c 35 b1 bf 07 86 09 af f5 6e c0 3f
       -0.06721570838207985 0.12838622137773845
000040 c1 22 3b 7a 87 ae b6 3f 30 9d 53 c4 f5 11 ba 3f
       0.08860060438304186 0.10183654826288513
000050 b8 98 a4 14 b2 7b b1 3f 87 9c 51 a1 66 ee 97 3f
       0.06829369548777009 0.02337036475765022
000060 82 61 c2 ae c1 28 98 3f 16 e8 a6 9d 98 0f b4 3f
       0.02359297398706551 0.07836297844815507
000070 e0 44 89 86 72 63 b3 bf 15 97 a5 de fd 92 27 3f
       -0.07573619637084361 0.00017985676761183485
000080 07 34 bc b4 18 52 b4 bf 3e 5e 94 ca b8 15 b6 bf
       -0.07937769329528531 -0.08626894899168122
000090 51 88 ca 87 14 a7 a1 bf d3 d6 c2 50 0f 88 a5 bf
       -0.03447784574133606 -0.04205367909291415
0000a0 82 16 2d 02 31 56 c4 bf 82 63 54 74 9f ba cf 3f
       -0.158880353987275 0.24788277797850006
0000b0 f6 f3 d7 aa ab 70 c2 3f 80 af 39 78 aa 8e a5 3f
       0.1440634330937482 0.04210407941431438
0000c0 72 23 21 27 9e e9 bd bf 5f 07 ae 66 83 9b d6 3f
       -0.11684597449597137 0.353241777680628
0000d0 27 b4 c5 fa af a7 cf 3f 08 e1 a6 ab 28 37 94 3f
       0.24730491394748919 0.019741664387511043
0000e0 3a d0 b0 5b 8d 34 a7 3f c1 03 15 13 9c 14 b0 bf
       0.04532281631728137 -0.06281447854872992
0000f0 54 29 56 0a 34 c0 c3 3f 04 09 25 08 b5 42 85 bf
       0.15430307869639626 -0.010381140051894729
000100 89 21 87 fc 45 ba 9e bf 7c bc b4 4c 23 93 97 3f
       -0.030007451570584407 0.02302222400356556
000110 f0 6b b9 d9 b4 f0 bf 3f cb 27 8b 08 64 0e ae 3f
       0.12476663890394923 0.05870354275027941
000120 57 a6 b0 59 3f c9 c7 bf cc 9b fd 7b d8 aa c4 3f
       -0.18582908515354532 0.16146379522544263
000130 a9 fe b2 fa 45 4b c3 bf 23 11 4a 84 e0 58 aa 3f
       -0.15073466054126541 0.05145932783946907
000140 ab e3 b4 4c 55 62 ba bf 9f 84 39 61 5b 27 cb 3f
       -0.10306294558257771 0.21213857886599372
000150 4e f3 9a af 2a ec b6 3f 34 af 6b 8c b8 8b d1 bf
       0.08954111850011978 -0.27415288651421865
000160 70 45 b8 ba 8d 33 ad 3f fe fc f2 e9 28 85 cf bf
       0.05703394798559713 -0.24625121520328003
000170 2e d6 41 2c 23 86 b1 bf 81 4e 84 39 27 78 b3 bf
       -0.06845302420136853 -0.07605214266032513
000180 2c 0b d2 fd 4d bd b4 bf 33 4f a5 02 dc 57 78 3f
       -0.08101355978764663 0.005943164267893586
000190 71 28 dc 79 94 2a b1 bf b1 8b d0 86 e7 a2 58 bf
       -0.06705596900079215 -0.0015036831857819617
0001a0 ef f7 8d be 17 d1 be 3f 0a d1 08 c0 d2 fb d9 3f
       0.12037800218783422 0.4059950709663701
0001b0 76 43 c8 68 b1 71 9e 3f 17 d6 66 78 04 c2 c0 bf
       0.029730579395678323 -0.1309209430598208
0001c0 f0 70 48 a2 f7 9c b3 bf 4c 88 3c bb 8c e5 c0 3f
       -0.07661388122545865 0.13200530187993065
0001d0 b4 70 30 4a c7 0f b5 3f e2 5f 12 a8 94 eb 8c bf
       0.08227201043377158 -0.014121209506171743
0001e0 6b 49 1f c2 04 da 9a bf a6 9b bf e8 3e c4 ad bf
       -0.026222299907951035 -0.05813786116760093
0001f0 5c 5f 82 36 b2 60 86 3f 7c e0 26 1a 82 1a cd 3f
       0.010926620758524734 0.22737146641680173
000200 62 94 59 e7 72 01 c1 3f a3 16 ff 07 94 24 c0 3f
       0.13285671516783554 0.12611627951098567
000210 64 51 f6 30 27 27 78 3f 11 3a b0 92 9b e3 9f 3f
       0.005896714297154968 0.031141691997669755
000220 12 c3 ec 0a c4 46 6a 3f fd 72 e7 19 77 15 87 bf
       0.0032075718840122247 -0.011271410444288582
000230 27 d1 3d d6 1f 0a b0 bf a0 31 e2 72 28 e6 c4 bf
       -0.06265448551659301 -0.163273864837163
000240 a7 45 3a f0 05 d3 b6 3f 70 92 e9 75 08 52 93 bf
       0.089157458447764 -0.018867618748475257
000250 54 4b 62 bb 0c ee b4 3f f9 12 f7 92 4c 16 a9 bf
       0.08175735068134077 -0.04899825376518225
000260 c1 7d c4 18 a2 ff a9 bf be dd 5d 4f ec 5a c3 bf
       -0.050778451465017145 -0.15121225238156727
000270 bc 4d 90 5c a5 14 a1 bf 48 3c 88 66 c4 87 c2 bf
       -0.03336064104965028 -0.14476828581288914
000280 8b 0f 72 20 14 dc c6 bf eb 52 0d ee ab 32 98 bf
       -0.17859126648192744 -0.0236307968182982
000290 3d 9c 30 57 61 79 bf bf 12 15 c5 b4 16 09 be bf
       -0.12294586542758253 -0.11732618249250873
0002a0 19 cb 72 4a e6 02 c1 bf 49 e6 55 a0 a2 5d be bf
       -0.13290098796058983 -0.11861626066629428
0002b0 8d cf df 3f 16 05 c4 3f 72 87 f3 77 39 a3 a9 bf
       0.1564052402387656 -0.05007342900513735
0002c0 6a 74 24 f6 f7 a7 ad 3f 22 06 70 3a 4e cf c4 bf
       0.05792212371509538 -0.16257646420858501
0002d0 dd 73 df fc 2f aa c3 bf 22 93 31 f0 b7 c5 99 3f
       -0.15363120887096118 0.02516829875493721
0002e0 cd c1 50 78 30 81 ac bf 95 49 91 7d 7d 0c ba bf
       -0.055673136412568526 -0.10175308528531553
0002f0 13 9e bc 3c 38 34 8b 3f da 13 cb 2a 46 79 a4 bf
       0.01328319487909283 -0.03998774788264088
000300 01 81 64 57 0a e1 c6 bf 78 2b ea 81 a9 03 9b bf
       -0.17874268786636807 -0.02638115745007094
000310 fc f8 bb 13 42 40 ad bf 8f ce b7 fb 7e 10 98 3f
       -0.05713087550064874 0.023500427354476158
000320 76 59 ce 63 f4 d5 b3 3f 1c 6b 40 54 91 67 9c bf
       0.07748343884154515 -0.027738829390823047
000330 9e cc 18 37 e3 fe b4 bf c0 2e cb c7 8e dd a9 bf
       -0.08201427550447923 -0.0505184763802311
000340 e9 0c d1 ad dd d0 ba 3f f9 8d 82 9d eb 8d 7f 3f
       0.10474954122132697 0.007703705188905279
000350 b6 f2 a8 ea 71 90 b9 3f b7 e2 35 97 6c 52 c0 bf
       0.09986030558588763 -0.1275153864223932
000360 80 38 d2 7a c9 9b c5 3f 88 81 2b 57 81 ee b2 bf
       0.168816742869641 -0.07395180109188548
000370 03 17 aa bb db 45 89 bf 82 9d dd 85 c7 55 af bf
       -0.012340275444568066 -0.06120131978132816
000380 af 4a 10 60 f4 8b 95 3f 5e 2f 21 ed bf 29 b4 bf
       0.021041696894892933 -0.07876205004975875
000390 87 0e 92 20 fc d5 bd bf 07 0e af 90 1c 06 b3 bf
       -0.11654640002421433 -0.0743120053512528
0003a0 4c f3 f3 37 01 95 b9 3f 5f 17 27 91 58 be 9f 3f
       0.09992988220251425 0.030999549731652972
0003b0 20 d2 12 c3 fd a3 c1 bf f3 ee ac 23 ab 94 be bf
       -0.1378171160228172 -0.11945600148186113
0003c0 36 7a 5f 9f 45 b8 b1 bf 13 66 55 9f 36 c3 b7 3f
       -0.06921801701489802 0.0928224696157474
0003d0 eb 1c c2 e1 11 12 40 bf 23 35 79 9e 2a cb b0 3f
       -0.0004904353441056696 0.0656000744722474
0003e0 2f 10 f1 9b 91 4f c1 bf 81 98 d4 3f cb c1 aa 3f
       -0.13524074663485083 0.05225978044681857
0003f0 f9 33 02 98 02 38 b9 3f b3 72 c3 0a e2 22 b8 3f
       0.09851089678905102 0.09428227198390964
000400 d4 0a eb 9f 09 3a ad bf e4 5e 6e 66 ab d8 94 bf
       -0.05708341672063502 -0.020357778670215945
000410 67 4c a9 4c 6e 5f c7 bf a7 32 19 69 d5 d4 81 3f
       -0.1825998186419355 0.008706729192590258
000420 ec fb 92 d6 4f 19 b9 3f 3c 3a b9 72 67 4b c1 bf
       0.09804247845293873 -0.1351136503385123
000430 99 db 32 02 34 67 9c bf 62 23 7f 5f 11 dc b1 3f
       -0.027737438806720503 0.06976421910725386
000440 5a f5 d1 a5 e3 d5 a4 3f 23 69 ff 7c fe 80 c1 bf
       0.04069434546634439 -0.13674908736613486
000450 9e 8a 43 cb 78 2f c0 bf 6a 14 45 85 ce c7 c1 3f
       -0.12644872593871964 0.138910117219129
000460 30 07 6a 5c 80 8b b9 bf bc 5e 80 ec 23 ef 77 3f
       -0.09978487259106994 0.005843296363330527
000470 61 85 a6 94 e3 09 7b 3f c9 72 68 19 74 34 b8 3f
       0.0066012277478944845 0.09455037708580528
000480 c6 77 63 86 ad 76 af 3f 37 d8 6f 0b 29 88 ba 3f
       0.061452315001346444 0.10364014176579493
000490 dc 30 3f 49 4a f9 93 bf 04 46 30 e3 8d d0 c1 bf
       -0.019505654068596154 -0.13917707055274786
0004a0 c8 c1 db 3c e4 bc 92 bf 8a a7 16 a0 33 d9 bc 3f
       -0.0182986890931163 0.11268923433695313
0004b0 de a4 96 37 85 df be 3f 05 51 f0 56 d4 78 90 3f
       0.12059815032138796 0.016085927778548576
0004c0 73 80 e5 05 61 f0 a8 3f 36 2b 6b dc 49 0e b0 3f
       0.04870894619921353 0.06271802550615466
0004d0 da df b0 80 eb bd a0 3f 92 c4 e1 5f 81 d3 a5 3f
       0.032698974093761726 0.04262928290780467
0004e0 85 f2 27 f2 f2 e8 c6 3f cf 27 77 25 17 7f 67 3f
       0.1789840395357666 0.002868218620027264
0004f0 1b 9d c5 2b 68 46 bf bf e8 97 5a 90 76 2d b4 3f
       -0.12216807430887792 0.07881871246590288
000500 2c ea 75 a0 f0 2d cc bf 88 8e 28 eb 53 fc 4b 3f
       -0.2201519759654088 0.0008540544279793264
000510 87 b5 fc cd 9f 6a 9c bf 75 ad 1d b6 0f 82 b8 3f
       -0.027750489184815954 0.09573457904996537
000520 c4 5a ca 4a 0d c6 98 3f de c2 0b 7d b2 56 d0 3f
       0.024193008127066276 0.2552915784026889
000530 da 57 0f 64 99 d9 b1 bf 39 11 fd 76 4a 7a a6 3f
       -0.06972655003423203 0.04390175535675884
000540 71 71 15 b4 bd 3f b3 3f c4 24 96 a7 e4 5a b2 3f
       0.07519136091781832 0.0716994198939061
000550 20 d3 4f f5 5f 92 b9 3f 7e b5 f3 82 79 8d c0 bf
       0.0998897527604865 -0.129317463818932
000560 78 5b f8 8f 9e 0e b1 3f da 0c 00 69 48 aa b5 bf
       0.0666293241014112 -0.08462956012231207
000570 22 82 39 ee 6a 89 a3 bf e1 96 f0 07 54 2c 85 3f
       -0.0381577888299527 0.01033845566969255
000580 f5 d1 c5 b2 18 73 b1 bf 40 1e 16 fc 94 04 9b 3f
       -0.06816248287743305 0.026384666334278828
000590 90 51 3e 1a 43 b7 b6 3f fe 22 96 22 59 13 b4 bf
       0.08873385801991263 -0.07842022985836292
0005a0 12 64 2a d1 af bf 75 3f 3f af 4a 52 4c 41 bf 3f
       0.005309759888995751 0.12209012040210342
0005b0 aa fe eb f0 6a 94 8e bf 12 5a d9 c8 24 58 c0 3f
       -0.014931521870948334 0.12768993193704198
0005c0 3d e3 95 01 e8 e2 be bf 0f 89 a4 a9 13 ca c1 3f
       -0.12064981497486556 0.13897939475379714
0005d0 9f eb 48 e4 10 d1 a7 3f 93 64 c7 17 a7 ab c6 bf
       0.046516921870043186 -0.1771134248836331
0005e0 6b d5 69 fe 13 3b b9 bf 53 9a 96 f6 65 b4 b6 bf
       -0.09855771027817688 -0.08869015951368313
0005f0 56 8c a8 cd 6d ce cb bf 7b 6f 28 76 9e 19 bc bf
       -0.2172372106734623 -0.10976591477122881
000600 05 e6 4c 1d 30 ba b6 bf 94 2c 84 cf b1 87 a2 3f
       -0.08877850261060168 0.03619151743085883
000610 6a 56 c6 c8 b3 71 83 bf 56 02 b2 25 9a fa 7a 3f
       -0.009494213642749123 0.006586649072347036
000620 af 22 a6 90 c1 8b bc 3f 25 cc 72 af 3c a4 ba 3f
       0.11150750905484118 0.10406855853470683
000630 e1 3c 32 35 2b c3 8a bf 83 4e 11 8d be ef a1 bf
       -0.013067567406578497 -0.03503222915665296
000640 e6 eb 11 c5 8a 2f b0 bf 3d aa 36 6a 21 34 a6 bf
       -0.0632254344108528 -0.04336647435714667
000650 56 8f 78 03 f3 78 ad bf cf 88 61 a1 3b 88 b8 3f
       -0.05756339471216047 0.0958287495609824
000660 78 6f 92 37 e9 07 b2 3f bc 39 ad 63 6c ca af bf
       0.07043321234453781 -0.06209124295002108
000670 04 52 20 11 b4 4c ba bf a6 83 95 3c 40 2a c0 bf
       -0.10273290079232572 -0.12628939588742333
000680 25 2d b3 85 83 00 b1 3f 86 f4 7b 7e 8b 87 a3 3f
       0.06641408933790112 0.038143500509229475
000690 f1 aa e1 b5 02 24 af bf e9 87 26 ef 5b 8a 9f bf
       -0.06082161398156483 -0.03080123564871676
0006a0 79 8d bc c0 06 15 a8 bf eb 19 3d 53 d4 f0 b9 3f
       -0.047035418536576175 0.10133101494020706
0006b0 c4 b6 56 c4 b2 25 ba bf d7 27 cb c6 5e f6 a3 3f
       -0.10213773053575453 0.03898903061561015
0006c0 ef 0f 25 e9 27 11 b1 3f 2a 1a e4 f0 85 ef 7c bf
       0.06666802827845662 -0.007064364630656553
0006d0 e3 a4 d9 8b 78 1b b4 3f 23 08 5f d1 1a db a1 3f
       0.07854417242346616 0.034874761636743544
0006e0 9a ed 01 fb dc 19 b2 bf cb ac c5 ae 9a 12 b7 bf
       -0.07070714119065827 -0.09012762801073675
0006f0 47 e2 90 19 36 f7 ba 3f 04 57 e8 02 29 8f b8 3f
       0.1053346455017926 0.09593445130334649
000700 d3 aa f9 b2 54 73 ad bf 8d e6 b2 b1 e8 e7 bc bf
       -0.05752052960163714 -0.11291364992475846
000710 d8 2e 05 d0 fb 03 b0 bf 04 56 da ef c9 c9 8e bf
       -0.0625607855665139 -0.015033319122532703
000720 9f 44 4b c8 24 68 b8 bf 52 ea a4 a7 59 af b1 3f
       -0.09533910646429654 0.0690818819320296
000730 e7 4a e4 a5 d2 a7 a6 3f 43 73 a0 ec 3c 7f b2 3f
       0.04424913668676372 0.07225399758358457
000740 fa 8f 1f 9e 15 65 bd 3f 1f 1c c2 e3 38 7c b3 3f
       0.11482367620880032 0.07611423073295541
000750 8e 7a cb 8c 6b ef be bf 70 e2 44 51 c4 a7 98 bf
       -0.1208407610642814 -0.02407747980143643
000760 ac e0 69 9c 1a a1 a7 3f 18 b0 6c 7f 8a 3d a1 bf
       0.046151000588851104 -0.03367264562106714
000770 f0 c2 50 18 af 34 b3 3f 9d 82 0d 4a 77 24 a8 bf
       0.07502264350547327 -0.04715321330036668
000780 d7 54 36 3b 44 1f a0 bf 24 57 34 9e 46 70 a3 bf
       -0.031488544681602164 -0.03796597176748964
000790 97 e7 9f 1a 67 2f 95 bf e8 a2 39 e0 80 fd b8 bf
       -0.020688639640844633 -0.09761815523382789
0007a0 ea 8d a6 51 9d ed a1 3f 5e 3a de 85 96 7c b5 3f
       0.035015979973902336 0.0839323117090571
0007b0 c8 e1 fe f7 42 86 aa bf 86 52 ac 47 ff 10 c0 3f
       -0.051805584690956474 0.1255187129942394
0007c0 b4 ba d7 ee 69 85 b5 bf a1 e4 31 6f 03 47 76 3f
       -0.08406698304291177 0.005438817420434423
0007d0 70 9a 6e 0e 5d 39 a5 3f e5 94 ea 1a 9a 5f a2 bf
       0.041453273784374356 -0.03588563517159019
0007e0 38 6e 3f 67 64 f8 ad 3f 2c 53 98 e9 7e 52 b9 bf
       0.05853570709561179 -0.09891503527644535
0007f0 5f 07 77 cb 93 73 ba 3f b2 ca e2 3a 12 6a b9 bf
       0.1033260699978462 -0.09927476823467421

layer2.bias f8 [64]
000000 f2 a0 33 fb 14 22 9d bf e6 76 b1 3e a5 c3 9a bf
       -0.028450324852117022 -0.02613695330761958
000010 bb c2 26 7f f6 82 c4 3f 17 8b 29 f3 59 e0 b7 bf
       0.16024666985096822 -0.09326708017901485
000020 a7 3a e2 90 41 f2 b1 bf af 5a 3f b2 2d c9 95 3f
       -0.07010278498840226 0.021275247578013076
000030 cb 91 c2 c3 af 6f b5 bf 36 b8 c7 9c 63 d1 b3 3f
       -0.08373545197770864 0.07741377427711957
000040 b5 67 64 99 6c 90 b2 3f 5a 70 b4 60 d9 a7 a9 3f
       0.07251623864104213 0.050108712248601875
000050 08 b8 68 b3 8e e0 96 3f 56 48 24 77 fd be b7 bf
       0.022340993595371145 -0.09275802763684857
000060 a5 e1 d7 b2 a1 dd ad 3f de 94 b4 1e 27 6f 97 bf
       0.05833154018540946 -0.022884951829060245
000070 5b 95 6c 4f e7 cf b7 3f 3d ba 66 3d a0 67 a3 bf
       0.09301610650125751 -0.03789997815635047
000080 0c af 6d 70 45 c0 ba bf 42 9f 60 3c 77 25 a8 bf
       -0.1044963263972784 -0.04716084110287834
000090 d6 52 f1 e8 c8 56 bd bf c8 83 e6 53 be 1b c1 bf
       -0.11460548102452192 -0.13365916344358042
0000a0 ba 7e 3c bc e9 d9 bb 3f c1 f8 fa 74 e8 7a b7 bf
       0.10879383893597608 -0.09171917777982498
0000b0 10 9a ed 4a 7b 44 86 bf 59 ee d1 ed 8b 60 b9 3f
       -0.010872805809140323 0.0991294341674175
0000c0 f5 71 ba 99 85 2f bf 3f 6e 44 19 c0 44 1b a3 bf
       0.12181887629635198 -0.03731741757349814
0000d0 b7 cb 14 ee e7 72 8c 3f 7a 19 5d 00 57 18 8f bf
       0.013891040757334367 -0.015183143328283622
0000e0 70 b7 db 3a a6 2b 82 bf 28 d8 7c 44 61 e4 be bf
       -0.008872317000591073 -0.12067230150282227
0000f0 29 ab c5 4b a3 50 be bf a2 de d0 86 0e d9 bd bf
       -0.1184179363241752 -0.11659327308086145
000100 79 72 9d c6 86 22 bd bf c0 96 50 b1 28 a2 c0 3f
       -0.1138080820941897 0.12994869859647018
000110 f9 f5 62 06 82 16 c0 bf 2b 77 16 09 cf 96 bd bf
       -0.12568688690036803 -0.11558240863675155
000120 6c aa 44 4d 5f 1b 96 3f 2f 8e 88 76 c0 0f b5 bf
       0.021588791934087956 -0.08227160352594674
000130 a7 e7 6c f3 b4 c0 b1 3f 03 f1 81 07 20 18 9e 3f
       0.0693467230129544 0.029388905008532095
000140 f4 79 ac 7b b4 60 bd 3f 99 db 34 17 7d 5d aa bf
       0.11475685138109509 -0.05149451168329406
000150 2f f3 45 7b 6a cb a8 bf 8d bd 98 0d 6b 88 99 bf
       -0.04842694048691098 -0.024934456543801487
000160 ee 54 97 cf b5 6d 8d bf 77 b1 bf 2c 30 89 8e bf
       -0.014369411847761939 -0.014910103192925501
000170 50 3b ba aa 75 44 94 3f bb b2 6f 32 eb b4 93 3f
       0.01979240278756872 0.019244837716473322
000180 e7 7b 54 ab 52 06 b7 bf 95 f7 10 89 d8 e4 af bf
       -0.08994023020612439 -0.062292830211375584
000190 7a 94 7d 97 51 9d 93 bf 22 36 19 e7 82 b6 96 bf
       -0.019154810782670208 -0.022180600505001043
0001a0 ed 68 3e cc a1 ab a4 bf 61 56 5f d8 02 21 ac bf
       -0.04037194841585454 -0.05493935481323998
0001b0 a2 0e 74 3e 2b 70 72 3f 08 fb 70 8b a3 27 b0 bf
       0.004501503869736164 -0.0631048407967506
0001c0 b6 c5 b3 57 db 42 bf 3f 4d a5 8e fd 7e a8 af bf
       0.12211390391509877 -0.06183239789181503
0001d0 8e e4 ad 55 2f bb b5 3f 96 e2 22 de 0e b2 b7 bf
       0.08488746492175123 -0.09256070063828256
0001e0 68 70 be d0 a1 01 bd bf 6f be 04 3b 54 65 b2 3f
       -0.11330615373884856 0.07185865822679614
0001f0 d0 e7 81 1e 42 f2 ab bf 1c 89 db 14 21 09 ba 3f
       -0.05458265898137393 0.10170180091111941

custom_layer2.alpha f8 [64]
000000 9c c6 7e e9 8f 43 81 3f 93 c1 4c 8f 13 58 f3 3f
       0.008429645837029036 1.2090030286454734
000010 8e 8d c5 57 e3 5a e3 bf 48 1e 79 9c 72 f1 cd bf
       -0.604844733647427 -0.2339308990506075
000020 ac eb 36 93 6e f9 e6 3f 01 27 3d 3d 50 13 e8 bf
       0.7179482341083392 -0.7523575969764523
000030 60 3e 47 6f 17 64 e4 3f 6b a9 fb 6c 56 b6 be 3f
       0.637218205776616 0.11996975098342026
000040 40 7d e5 70 7a ae ff bf 74 6b 03 21 ae c9 e9 3f
       -1.9800972375886232 0.8058691639701991
000050 bf d4 6e be 85 45 f1 3f 2c 04 61 ce cb 1b e0 3f
       1.0794732512270426 0.5033930807914024
000060 fd 1e 00 02 00 81 e9 3f b0 77 93 af d6 56 f0 3f
       0.796997074038671 1.0212008341254482
000070 5d 53 13 e1 63 fa f3 bf a4 f7 d2 93 de 7c b2 3f
       -1.2486304084788664 0.07221785649286844
000080 16 15 b3 24 f3 96 e1 3f 36 0b d2 c4 25 30 b8 3f
       0.5496764866626644 0.09448467307269656
000090 59 15 c8 07 c0 04 f8 3f 7d 64 65 b5 bb 5c e8 3f
       1.5011596969573786 0.7613199751750838
0000a0 d2 16 91 9f 8b 0a a1 bf 38 10 f8 3d 6d 92 f4 3f
       -0.03328358004413946 1.2857487126029934
0000b0 a3 92 33 5d ba 9e dd 3f 89 a5 ac 6b c2 c0 f6 bf
       0.4628129873438331 -1.4220604139357838
0000c0 e1 f4 ba 2e b5 cb d3 bf 4f 44 8e a2 02 bd e3 bf
       -0.3093083340025498 -0.616822545520458
0000d0 7b b3 d5 21 96 88 e6 3f 0d 17 da 28 a3 fa f4 3f
       0.7041731510959005 1.311190757348814
0000e0 a4 3e dd 86 40 13 f4 bf 8d 57 9d 25 5c 7e fb bf
       -1.254700209439684 -1.7183495969124778
0000f0 55 40 8a f1 24 f3 ed bf 62 52 01 4b b7 54 f5 bf
       -0.9359307019785869 -1.3331826143159096
000100 c8 f2 a4 07 ae 3e 8b bf d0 e0 c1 5b c4 69 b5 3f
       -0.01330314598873751 0.08364512672585822
000110 96 0e 8f 10 ce 83 ed 3f c1 fb ed e6 d6 89 cb 3f
       0.9223394702352887 0.21514402652607426
000120 13 fe 0e 72 9e 37 e1 bf cd f3 99 9e aa 44 c9 3f
       -0.5380394199091277 0.19740803474624471
000130 cb 8f e8 07 fb be e1 bf 7e 04 34 4f 6c 89 d3 bf
       -0.554563060232334 -0.3052626393765151
000140 29 3d cf b0 e9 dd d4 3f 47 17 38 13 ed 91 e4 bf
       0.32604448572688455 -0.6428132415173672
000150 76 ab b7 06 80 fe db bf fe 01 4b 13 0c db ff bf
       -0.4374084535217472 -1.9909783128388194
000160 b0 47 7f 06 38 d5 e0 bf 51 76 84 e0 24 54 0c c0
       -0.5260276915453144 -3.5410859623359916
000170 7b ba 76 f4 29 09 e5 3f 7e 01 b2 05 21 61 e5 3f
       0.6573686384852658 0.6681065665471093
000180 2e 86 aa 76 6b fa e6 3f e4 55 e8 fe a6 0b ec 3f
       0.7180688207337818 0.876422403208093
000190 00 71 ef a3 6e a5 d3 bf f7 55 fb b7 ef 20 d9 bf
       -0.3069721795016136 -0.39263527838679074
0001a0 cb 92 fd e6 b0 ae f6 3f e2 b1 a3 e7 5d 61 e3 3f
       1.417649175936435 0.6056355976302792
0001b0 3e ce 96 0b c8 8e c6 bf 9e 53 fc 66 b9 08 eb 3f
       -0.17623234334824817 0.8448149691999907
0001c0 2a 7a 84 f9 2f 6e df 3f 7d f8 a3 a4 05 c2 f4 bf
       0.4911003052419881 -1.297368662955278
0001d0 a2 3b 49 9b 38 5e fb bf 8c 65 34 4c 4f 68 e7 bf
       -1.7105032029973946 -0.7314831245777653
0001e0 29 18 15 36 47 8c e1 3f 74 aa 5f eb fb d5 e6 3f
       0.5483737999245523 0.7136211011068796
0001f0 bb 88 61 ea d1 55 ae bf 76 50 45 7a 6a de e2 bf
       -0.05924850450607396 -0.5896503818608057
