COLA_Emulators/PCE/LCDM_PNN_HIGH/MODEL_Z0.636.pth (torch, 60802 bytes, 12 tensors)

layer1.weight f8 [64, 19]
00000000: 57e6 b275 d2da 933f 2596 03f8 be6b 983f
00000010: 4299 0e19 1415 7abf b0cc 567a 3398 acbf
00000020: 4541 9d45 3adf b93f 80fd 572b 7b2e 74bf
00000030: 6a22 8fd7 78f5 80bf 08b4 1451 e1b5 9d3f
00000040: 01f5 048b b803 af3f 0269 48ad c9af 9a3f
00000050: 6ff4 77d9 bc85 d5bf 737f bdca 5bb8 8dbf
00000060: 5f46 c17e cb95 833f 3e59 1870 f6d7 c93f
00000070: 1404 5da8 4ee2 c5bf a75f d407 7de4 bebf
00000080: 8e76 8e7e acd4 c2bf 4abd 3b58 f66c b0bf
00000090: eb20 0e40 790c c83f 8312 0790 3bf7 8fbf
000000a0: 475d dc9b 0672 bc3f 10f7 b0d7 003c c6bf
000000b0: 3b6f 7488 fb24 d2bf 773e d165 282d c73f
000000c0: 980c 9605 11a0 7b3f 21ae c6bc 1328 c7bf
000000d0: 99f4 eaa1 7748 d33f 0543 d527 cf37 c3bf
000000e0: 3aee 2e9e 63dc b43f d444 d1ee afb2 91bf
000000f0: d8da 0ccc 2ad8 b53f 67a2 fee1 26de ccbf
00000100: 5d8e d1b1 f234 8f3f a110 8990 d7d4 ccbf
00000110: 280e e0e5 4eaf b7bf 96ff 681c 169d 9cbf
00000120: 8711 188f 2f25 cc3f 10bf b07d 8e08 cdbf
00000130: bffc 55bf dd5c b73f 1dff 8af2 2064 ce3f
00000140: 08d2 fed8 342f c5bf b0f1 d87f db18 b9bf
00000150: 3f92 2e02 e888 d03f 6df9 b4a6 2ba4 d4bf
00000160: 0a7d d35a c042 b53f 09f5 9559 6618 d1bf
00000170: 8dac a9a9 c99b cfbf 4378 c4fa 6935 b9bf
00000180: 862c 3584 7512 b2bf 22b9 dfd0 a0c8 c93f
00000190: 2bae acfb efa4 96bf 8156 42fe f97e b1bf
000001a0: dd7d 53a2 eefc b8bf b2fa d61b 23ee bcbf
000001b0: 48b4 711f 877c 6ebf 7d73 cd78 978e ba3f
000001c0: ef3a c1b2 8eb7 cf3f 0163 66b4 f117 7e3f
000001d0: d268 8ca7 d253 bf3f fe17 c0bc b2ae c1bf
000001e0: 77aa 69f4 a097 973f fd4c 6787 86fc 963f
000001f0: 885b ccf1 4628 cbbf a20d e802 9b2e c7bf
00000200: e9d8 1af1 9f30 c1bf b3cc 0923 9847 c63f
00000210: 8350 2b43 0880 c4bf 31ee ec62 d867 c7bf
00000220: 5360 4fcb 6a04 b1bf c612 328f 0e7b a33f
00000230: da61 7fbb 8dbc 9abf f849 e665 4185 acbf
00000240: fd18 4320 3731 95bf fe97 b825 8597 c4bf
00000250: ca0e 9901 99b0 bc3f ebdc 7bfe 2fbc b6bf
00000260: 0c37 bc0a 35c6 c03f adc5 1191 0622 673f
00000270: 32ef e086 4606 c9bf a81d 5a59 adce b9bf
00000280: cd83 c1f5 9bc5 ad3f 47e9 98c8 80aa 96bf
00000290: d965 23ff fb79 c7bf 5d61 e67f 8479 a13f
000002a0: 28a7 242b fee7 c13f 8c07 aad6 f1aa bcbf
000002b0: 8aa4 ef19 a4e8 c0bf f756 7fde 7c60 b43f
000002c0: 8a17 e9c1 f405 b03f 7869 d0f9 2e59 ccbf
000002d0: 2426 5380 c0a0 c03f 60e9 8fbf d7f6 b13f
000002e0: 972e a2ad 546e d0bf 0678 05ee b249 c6bf
000002f0: 5c86 81a4 2c70 bb3f ff95 e262 7ca8 8ebf
00000300: b10f 8a04 915d a2bf e927 c53a 0505 a8bf
00000310: 8a5e 06f3 652e bebf d273 5e2c e2ef 5c3f
00000320: 800a 72ed e245 9abf bd8c 930d 37fb c03f
00000330: 9e9e db75 1700 b2bf 46af d45e c2d4 ae3f
00000340: 04e1 cf2a 581e b5bf c72b 59ad 50ba d2bf
00000350: 882a d0fc 8a3d c0bf ef7b bbd0 10c1 c0bf
00000360: 3844 f437 e473 ad3f a3ee ce41 5d75 b73f
00000370: 86fb 95aa ef80 b13f 05fc cd70 f1c9 c13f
00000380: 1cdf 316c 11aa c0bf 0b07 c26b 7420 c23f
00000390: b1bc ba21 734b 91bf 3f8c 866c 6da0 d03f
000003a0: 8d26 63c8 95a0 b7bf 5c25 f967 cfe6 c43f
000003b0: 9c00 8a5d b01e d53f 607b 5930 7993 d13f
000003c0: 029c 8561 200c b4bf 98a9 37de c0bd c13f
000003d0: 4eb7 bfd9 8258 96bf 1f14 3c6d c63d a73f
000003e0: 22cf 5788 c421 c83f bfa3 e007 ce20 bf3f
000003f0: 6c1e 6888 3537 a53f 3598 ddd8 7297 c3bf
00000400: 2e16 a695 8a40 c83f 56e1 00e6 2f88 b7bf
00000410: f800 8e24 bbc0 a9bf 5cd3 e784 8e86 b93f
00000420: 5291 9f8c 61c0 babf a3dd a51a b1e5 a93f
00000430: 8b96 856b c7c9 bebf 140b 457d 4e75 c9bf
00000440: 7d20 6855 820b c53f 025c acf3 f638 d0bf
00000450: 7f70 5747 8b7b c53f 7dd1 4309 3251 c8bf
00000460: 576c 782a a957 b5bf d24c 9c7d 1bd4 cc3f
00000470: f93a 5d70 dc82 a83f f7af 2aa8 07e2 c93f
00000480: cddd 3e2d 4925 c5bf 74c5 ff8a c6f1 bd3f
00000490: d585 be96 24d2 a7bf 3907 5ab9 daa1 c33f
000004a0: a62a 9d34 2b1c c7bf fa6c b3ba 5d71 aabf
000004b0: 1ae3 8b3a dd88 b73f cd3c 5906 d39f ca3f
000004c0: d991 c9b5 cab6 a03f 8762 f125 3ffa 9a3f
000004d0: 1301 64a3 3585 a3bf 32b6 e2d2 a091 babf
000004e0: 16bb 8395 521c bbbf d022 6596 2f4a c4bf
000004f0: ac8a b5ef b521 ccbf cd9c 21d1 9be2 d1bf
00000500: 44a3 e613 a0bb c9bf 4d48 e87a 1799 bebf
00000510: 9ed9 b78e 535e ca3f 45c1 a203 21e1 c73f
00000520: bcaa 82eb 49ac c3bf 6d4d 08ee 0bd8 a2bf
00000530: 8872 c8e8 e7d0 bb3f 8efb 74fc 9da0 8b3f
00000540: 2f3b 0418 852a cfbf b7e7 a46c 4f63 adbf
00000550: ea97 6a35 4ef9 b2bf 8aae 52df 4032 c4bf
00000560: 6d62 77c9 51d5 babf 2b26 4ec8 7bca 77bf
00000570: 40b1 2ec2 db5c c1bf 48b3 5c1b eebb a73f
00000580: acf1 07ae bbac c4bf e1af 9c1b 3b60 cbbf
00000590: 87b2 6fca 8d49 d1bf 6656 1038 b1cd b23f
000005a0: 9e75 0ce7 c23c cdbf a5bd 9910 3793 cdbf
000005b0: 7360 748b 090a bdbf c122 fa3b 0a89 c33f
000005c0: a337 2012 52cc 9cbf d973 f2ed 969b c4bf
000005d0: 3e16 245b 23a6 c73f f4d5 0a1c 33c6 c63f
000005e0: c520 d046 def3 b13f 07c4 9651 70cd b53f
000005f0: cad1 30d8 f574 60bf 7ec5 1586 5957 a03f
00000600: 134b fb56 4a26 4fbf 6483 7db9 6fa3 c4bf
00000610: 4e7a b2c2 2327 acbf bfab e993 0b31 aebf
00000620: a576 c57e 71fe d1bf 50f3 d678 4d6c bb3f
00000630: 3622 d944 fa25 cb3f 5c76 589c b4bc c3bf
00000640: ca78 7e0a 0345 c9bf 3411 0c33 b984 83bf
00000650: 9f63 0e2d 9e1b a5bf 7794 ea19 0cf0 c23f
00000660: 53d6 0348 00da c2bf bb48 0310 550a cfbf
00000670: 118a b427 eb9a 943f 710b 302d a5c1 c03f
00000680: 90a5 2f07 0c8a c9bf 41ed dfd0 eed7 6cbf
00000690: 728e 2614 aaec 73bf 5ca1 0974 9561 c63f
000006a0: 2ca1 6e7a bdfb c93f a013 1ab5 fe6c c4bf
000006b0: 3858 dbb7 03ba c6bf 35e2 a6ef d9d5 b2bf
000006c0: f105 e7f2 7b23 ad3f 9e00 464e 917f c9bf
000006d0: b9d4 b901 3276 d13f eb66 f6db d4e7 c0bf
000006e0: 47f1 ca52 39e2 a3bf af3c 9481 6eff b9bf
000006f0: 02cf cd2f fa37 c2bf e74c 14d6 1c98 a03f
00000700: ff1d 67fd 180a bd3f cbca 1787 d7ae be3f
00000710: 7b80 c4da d749 b63f 633b 029e 5248 b6bf
00000720: 23cd 8bee 6692 66bf 2f27 d6ff 606d 8ebf
00000730: 8764 367d 73d4 b0bf 03c4 828b a630 a93f
00000740: c083 804b 8767 af3f 94df b081 ad34 d13f
00000750: dd7c ce49 1374 babf d819 a241 be60 96bf
00000760: bd78 c699 faa6 b9bf 0201 0d04 8fad c1bf
00000770: f140 bd07 a987 c4bf d702 656d bda2 883f
00000780: d00d 38a4 82b6 c73f 361e e778 5052 c53f
00000790: 173f 1679 e952 c7bf ae52 4dc3 7978 a03f
000007a0: 71bd 6b4d 98fe a7bf f795 8e93 641d b9bf
000007b0: 6d13 da87 e410 d23f 42ed cde7 8078 a53f
000007c0: f80a 8b6c 7be2 923f 416c 0440 a6f2 853f
000007d0: 9ae6 7d5f 8022 b83f cbd7 4bbf df96 bfbf
000007e0: fe20 f070 5535 b7bf 1a71 f1ac 4a6e 9ebf
000007f0: 9351 c6b8 f829 bc3f e27b 655e c01f 8bbf
0.019389427598730382 0.02384851826436409 -0.006367758281078219 -0.055848702129332906 0.10106243323867144 -0.004927140359995419 -0.008280700758306742 0.029014130185874648
0.060575262994897024 0.026061202241273847 -0.3362877010075129 -0.014511792301788983 0.009563054853205686 0.20190315698045852 -0.17096884938112622 -0.12067395630981413
-0.1471152894927638 -0.06416263250479406 0.18788066508955778 -0.01560827763831552 0.11111489587016364 -0.1737061551265744 -0.28350723577181086 0.18106560679960967
0.006744448176848959 -0.18091055600722064 0.3012980538586106 -0.15014066166852316 0.08148787128350757 -0.0172832002174957 0.0853296993417233 -0.22552953753371982
0.015237709094612467 -0.2252454238642985 -0.09251874077022448 -0.027942986949937763 0.21988481986057826 -0.22682362687327684 0.09126077576910328 0.23743068545263038
-0.16550312610128537 -0.09803554412150706 0.258356096392422 -0.3225201728818295 0.08304979531702741 -0.2671142458783185 -0.24694176468196752 -0.09847128269436305
-0.07059416272857008 0.20143518637582597 -0.022113561378473683 -0.06834375817774153 -0.09760943854370603 -0.11300868444139203 -0.003721488868498688 0.10373827647477003
0.24778922775518405 0.007347053679404026 0.12237278547800948 -0.1381438657410285 0.023039355199595293 0.022447683348059567 -0.212166660371363 -0.18110978738705535
-0.13429641030024378 0.17405988417485715 -0.16015723495241127 -0.18285660581919808 -0.06647365058540915 0.038048224430018915 -0.02610990006346179 -0.05570415848628224
-0.020695554107782666 -0.1608740266976269 0.11206966675768651 -0.08880901301369064 0.1310488035600702 0.002823841882268771 -0.19550401292678427 -0.10080989295430831
0.058148263692380554 -0.022134792560089236 -0.1834101672928188 0.03413023053434714 0.1398923597965276 -0.11198340884041452 -0.1320996405259261 0.07959728653016983
0.06259088262694781 -0.22147166440920407 0.12990576043948565 0.0701727717095415 -0.2567340560569646 -0.17412411329399918 0.10718039528139783 -0.01496979882024174
-0.03587010555659676 -0.04691330282601298 -0.11789548094963656 0.0017661770557204537 -0.025657220594903496 0.13266647494228848 -0.070313898347758 0.06021697433092625
-0.08249426884856709 -0.29262177399203576 -0.1268781408728794 -0.1308918971253372 0.05752480681452038 0.09163458687447217 0.06837366022771904 0.13897531517065445
-0.13019006522130716 0.14161544095627962 -0.016889380391771073 0.2597917136974423 -0.0922940839983772 0.16329376770799342 0.32999810347247105 0.27462606164583825
-0.0783100355234723 0.13860331392727399 -0.021822018184983798 0.045393181642829676 0.18853050858853587 0.12159431164094679 0.04143683710213683 -0.1530593451418
0.18946964556759965 -0.09192180028265304 -0.05029854603981393 0.09970942253842224 -0.10449800189195926 0.05058053446094426 -0.1202664029602493 -0.19889241329845986
0.16441373033763176 -0.2534768466588845 0.16783276542162537 -0.18997788860691492 -0.08336884772181584 0.22522300370528697 0.0478733908809001 0.20221038543002098
-0.16520037373787347 0.1169704522469795 -0.04652513828410646 0.1533769040143456 -0.180547142687222 -0.05164616493285652 0.09193213157039928 0.20800245103826
0.03264459103664636 0.026345240298129482 -0.0381256830169169 -0.10378461025785482 -0.10590091848619596 -0.15851397365101727 -0.21977876858280376 -0.2794560949609604
-0.20103836986279522 -0.1195234942499905 0.20600361317310684 0.18655789067771358 -0.1536953353837215 -0.036804554754918374 0.10865640099695828 0.013489946619868378
-0.24348510430032763 -0.05739830208990731 -0.07411660007582524 -0.15778361229364563 -0.10481749695407823 -0.005808337712446081 -0.1356463144451343 0.046355667915440935
-0.1615213966141601 -0.2138742337059503 -0.27011437195941607 0.07345111483331265 -0.2284167888800938 -0.23105514822553377 -0.11343440680173149 0.15261962822503075
-0.028123171192468665 -0.1609982168055513 0.18475763273470308 0.17792357320074326 0.07012738446076401 0.08516599647443011 -0.002008896031407502 0.03191642534046489
-0.0009506094920318252 -0.16123768384116055 -0.05498611213373704 -0.05896793537689104 -0.28115498905195074 0.10712131691157123 0.21209648477294402 -0.15419633516369202
-0.19741857540515745 -0.009530493612608916 -0.041226332664513914 0.14795066132970522 -0.14727786556584252 -0.24250281602741616 0.02012221746293547 0.1309095831530516
-0.19952535963902251 -0.0035209335683227543 -0.004864372606252597 0.17485302129649483 0.20299499967701118 -0.15957626192917207 -0.17755171277411974 -0.07357561207653236
0.05691134777181251 -0.19920555421777392 0.2728390709738267 -0.13207493534428436 -0.03883532653478255 -0.10155382789183663 -0.1423332913797069 0.03241052735588728
0.11343532740203698 0.11985537574927745 0.08706425753598694 -0.08704105718264325 -0.0027553568255541823 -0.014857061202537018 -0.06574174696869949 0.049199299364211434
0.06133673473983192 0.2688401953232582 -0.10333366920393723 -0.02185342097848228 -0.10020414594916623 -0.13810908983032993 -0.16039002302068853 0.012029151822049595
0.18525727289680427 0.16657453444916975 -0.18221777355619714 0.03216915616090908 -0.04686428017691469 -0.09810474970307569 0.28228104845793817 0.04193499402659963
0.018442085742900155 0.010716723278667685 0.0942764504560735 -0.1233959047347916 -0.09065755851054644 -0.029717604451762282 0.11001543532467499 -0.013244154816389245

layer1.bias f8 [64]
00000000: f6d7 7755 68ac b2bf 7698 6435 f3ed acbf
00000010: bccb ef94 b03a c53f cf50 6476 b56c cd3f
00000020: 5969 418f e9d0 c33f 448c 6567 dfdc c03f
00000030: f54a 4f91 fa2a af3f a547 ebaf 72e5 a53f
00000040: 7636 61c7 8de7 923f 38b8 2787 ff28 99bf
00000050: 363f 819b 54af d13f 8a40 eafe 8b7b c1bf
00000060: f887 41e2 5bd6 b7bf f5c5 85c8 8959 c93f
00000070: 95eb 8a77 c219 c0bf 8b26 a259 0f53 89bf
00000080: df83 cf1e b499 acbf ed50 b70a 120c c93f
00000090: 807d cf7a b6ab b63f 259d a693 17a2 ce3f
000000a0: 30f8 a769 0914 b63f e8fc 4f73 2e96 a3bf
000000b0: 58ce ff8c b0bb c9bf 05ed 428e cee5 c1bf
000000c0: 977b f7fb 1b75 c0bf 3ed6 cbae 4d26 c53f
000000d0: 691d 8aff 1a6b a43f 5fa7 d15b 0b1d ce3f
000000e0: d933 dc37 a8b9 993f efef 3e9c 2c0e 933f
000000f0: 254d 9d7b 072d cb3f 8361 b9a7 bc1c bbbf
00000100: c88e e246 3dc9 af3f 147c 5024 2742 cc3f
00000110: 61ac e905 5b2f ccbf f7e8 6704 5bc0 ab3f
00000120: 2a39 e7d2 83a5 97bf e669 17c9 00f6 aa3f
00000130: 3900 2b07 2238 a6bf eb5f a747 3032 cbbf
00000140: a9de c970 5690 bcbf dab3 19ca 088d a43f
00000150: 8ec7 e67a c6bb a2bf 2a3e 9a95 93f4 c23f
00000160: d876 b891 4dd7 c2bf f45b fcad 9b11 87bf
00000170: b70f 89ad 06ec ccbf 7421 dd28 886f d2bf
00000180: 5651 57fc 89f1 a8bf 7154 da02 8025 c8bf
00000190: f880 ca3a b44c d23f 4555 672f f6d1 b1bf
000001a0: 8d9d 2c71 1fa7 8fbf 0856 03f3 da8f bcbf
000001b0: 1048 d453 b6e4 b53f 31bf b41a 92c0 983f
000001c0: 0917 5ee1 db3c c1bf 7f81 d6a7 c77e b9bf
000001d0: a204 bbbe 3cd8 c9bf 550d 6692 1768 cebf
000001e0: c309 ab9f 39b3 d13f 4017 d9a8 f15d d1bf
000001f0: 8840 4aae 3dd2 c4bf ae2a e8bb 7f3d 6c3f
-0.07294323050140847 -0.05650291468400408 0.16585356972026755 0.2298800304494137 0.15481299872301227 0.131740499006897 0.06087477706718928 0.04276617429208266
0.018461432737515847 -0.024570458053794847 0.27632632432959114 -0.13658285090469163 -0.09311460756137524 0.19804498950138308 -0.1257861217216855 -0.012365455553907686
-0.05586016536813764 0.19568086169477486 0.08855762956908642 0.23932165822518772 0.08624323682303792 -0.03825516851065364 -0.20104033360222462 -0.13982564874991268
-0.12857389262259453 0.16523142847988653 0.03987964982394027 0.23526136382434523 0.0251222881407108 0.018608758007516654 0.21231168304311968 -0.10590724081828821
0.06208220949454596 0.2207688262287496 -0.22019517697057991 0.05420193127425137 -0.023092326877127402 0.05265810446481449 -0.043397010207172966 -0.2124691343185526
-0.11157741788508226 0.040138506575068525 -0.03658886194479215 0.14808888249216184 -0.14719552626859556 -0.011264053580402923 -0.22595294450195322 -0.2880573653278795
-0.048717796376566966 -0.18864441050814976 0.2859316419726521 -0.06961001069369839 -0.015455480233483221 -0.11157005722937907 0.08552112146961144 0.02417209899903056
-0.13466976646684994 -0.09959075782399472 -0.20191153824820157 -0.23755163811083926 0.27656403153028125 -0.2713588856607778 -0.16266604433304033 0.003447293739786992

custom_layer.alpha f8 [64]
00000000: eeda cc24 26c3 e1bf 19d1 df6c 03fa ea3f
00000010: c076 a7e5 b23b ee3f 8b66 eab1 1251 d43f
00000020: ce44 c54a e5ae b73f 26c9 9640 fdd3 e23f
00000030: e3de 3b6d 436f fb3f 8e87 420e a593 e9bf
00000040: 2fd3 df0d daff be3f cb9e 02ee 643d e0bf
00000050: 3e6a 5318 f56f c73f d768 b512 501e e2bf
00000060: 6950 dde4 2bd0 f4bf f744 f25b 3922 f8bf
00000070: cc91 3318 3e21 ccbf 4f14 4cb0 7458 e03f
00000080: 4b96 9aa0 7eea f73f b2c3 1783 57d2 02c0
00000090: 453f b134 b442 01c0 80b7 9b46 697b fe3f
000000a0: 1d3b 3676 aa6f f23f cb31 8cae f788 f73f
000000b0: 5f7d ca30 1691 f73f 6809 b033 eff9 ebbf
000000c0: 0f9a 4df3 9ddc edbf fbd8 bdb5 96ef e1bf
000000d0: 69bb 388f fd1e e8bf 7fcd f891 587a fd3f
000000e0: 2fdb 5958 63e1 dd3f d4ee b04c a150 ca3f
000000f0: b98b b1cc 4a3a f03f 988d fc33 fe4f 0240
00000100: 0bae 82ae 8e87 ee3f 14bd a531 1d17 e4bf
00000110: 3b1f b7fa 5854 eebf 218a 13e2 4786 ea3f
00000120: dcb9 7b59 6710 d63f 1e0b 079d 8b84 e53f
00000130: eb66 0708 7a32 c23f 8da7 dddf bb7d abbf
00000140: 8602 3938 ddf1 e23f 68d3 14a1 5a0e f03f
00000150: bfcd 3f6a 80e0 c8bf 13d8 7b40 028b f5bf
00000160: dcd6 ffb5 0ed2 04c0 29a5 598d af04 dbbf
00000170: e1c1 858f 4877 e7bf eb68 f889 b506 f23f
00000180: 12cc 6063 96c3 f23f f2e5 4136 d7c9 fa3f
00000190: 6fdc b86a 21f3 f7bf bfcf 8b90 a610 efbf
000001a0: fdc5 aab4 82bb ee3f a6aa 58bc 2f45 f1bf
000001b0: aa8f 30ca e5d6 f3bf 42a5 8fae 0374 edbf
000001c0: a261 b315 a123 bbbf cb89 c8e6 951b 0140
000001d0: b1a3 17f1 f4c7 f03f ea8e 1dcd 28a5 d8bf
000001e0: 72bf 820b 1f9f e33f b70b 49d7 51a1 f63f
000001f0: 8127 fb95 b430 fc3f 7cad d222 5096 c83f
-0.5550718992952548 0.8430192114306322 0.9447874532158593 0.3174483048875138 0.0925124461694111 0.5883775960449256 1.7146639124820744 -0.7992730406297015
0.1210914882538645 -0.5074944161069309 0.18310416877541685 -0.566200291195197 -1.3008231105823376 -1.508355483212936 -0.21976448232375245 0.5107978289894478
1.494749667509853 -2.352705978548749 -2.157570277842668 1.9051296957145212 1.152262174382208 1.4709393327967628 1.4729215532205087 -0.874259568169049
-0.9331807853712365 -0.5604966687813254 -0.7537830159470619 1.842369623377493 0.4668815958788625 0.20558563465771462 1.0142314906922663 2.2890590726326074
0.9540475281150419 -0.6278215379406071 -0.947796334913597 0.8288916984132052 0.3447512029514692 0.6724298541015263 0.1421654261783297 -0.05369364841210631
0.5920244310473926 1.00350439951327 -0.1943512457652172 -1.3464376944443799 -2.602567121381851 -0.422160995518953 -0.7333109667943597 1.1266379727808793
1.1727508432347844 1.6742775077276488 -1.4968580406982956 -0.9707825492064258 0.9603894737867332 -1.079391227462716 -1.2399652383837556 -0.9204119119068894
-0.10601240901758627 2.1384695081662577 1.0488175790471639 -0.3850805285530742 0.6131739830798166 1.4143846902449988 1.7618909700999839 0.1920871896776183

custom_layer.teta f8 [64]
00000000: 9ea1 76cd 903b f4bf fa37 d5a4 22b0 e5bf
00000010: 5917 ee09 ebb1 a9bf 1497 160b 1e8e f13f
00000020: d75b ab83 c841 b0bf 944c 2d1a ec0d f4bf
00000030: 18c0 9465 30c2 d23f d8cd 9da0 68a6 c53f
00000040: d985 bb40 a021 f6bf e3fb 547f 1d9f a3bf
00000050: 2392 b900 576d f4bf 3d9a 1070 ff43 ef3f
00000060: 6852 ec5e 726b 0b40 44ef 8e51 0d0d f23f
00000070: 7e71 ee95 ef15 f63f 3ca4 1b72 86cc e23f
00000080: 89af 23ba f2b3 e2bf 605b a919 8a7d f9bf
00000090: 4bdc b777 d0be f93f f915 85c3 f9ec 03c0
000000a0: f103 551c f437 dbbf 98e1 774f 19b6 88bf
000000b0: cbc1 fede c254 b93f c438 a863 b38c 883f
000000c0: 4080 7013 8f4c 0640 6930 952e 333c d3bf
000000d0: 7a45 2067 add2 dabf 3f6c 8840 8b16 adbf
000000e0: 8f2f 6969 5d05 ca3f d7a6 61cc 0838 e9bf
000000f0: c49a ab40 e90c ea3f a3b2 58bb 27f7 f53f
00000100: d4b9 2bbb 8e57 f1bf a49d 5932 a48c ce3f
00000110: b9a3 1844 5852 f33f e465 9601 b253 f53f
00000120: 35e7 89e2 6873 cf3f 3645 81cb 46c9 e33f
00000130: 1222 78cb a911 f93f d8dc 53eb a2b8 e6bf
00000140: edd7 507a ffbf d1bf 1c28 9306 d400 f6bf
00000150: e558 e883 9e90 f0bf 40c6 3d8a 4239 e4bf
00000160: 5aa1 fd47 5239 f83f dfa0 5284 7ef6 fbbf
00000170: d813 0b09 ae9f f53f 8e3d ad91 0e1a ef3f
00000180: 07f5 7d1b 9b35 e23f f4f9 a1d3 2931 cb3f
00000190: 9185 4bdc 272f e2bf 96a6 1c17 6c01 d83f
000001a0: 0830 5a04 facd e0bf 7638 d701 3a6c 0140
000001b0: a3cb 130f 8796 a1bf 043c 118c 716a b33f
000001c0: 705a d116 ffd7 fe3f 8c22 7d26 d665 c1bf
000001d0: 3b93 bbc2 5db4 fabf 1628 f791 a17b d6bf
000001e0: a6b8 3f45 49e2 e5bf d2e4 2e77 7ec2 02c0
000001f0: d3da 0b06 d7a2 efbf 5f73 8066 a58c e1bf
-1.2645423913873866 -0.6777508944885533 -0.0501855325338016 1.0971966202864154 -0.06350377287468177 -1.2533989927804088 0.2931023590090276 0.1691408905277132
-1.3832094696630206 -0.03832332782121008 -1.2766943004909386 0.9770505131498975 3.4274642387265892 1.1281865297196 1.3803554398246827 0.5874664524718649
-0.5844663272414304 -1.5931492807773893 1.6090855289928807 -2.490710761546094 -0.4252901341133671 -0.012066076028518322 0.09894960350243946 0.011987115362924412
2.787382270689733 -0.3005493121061194 -0.4191087252703124 -0.05681262171511791 0.2032887234403202 -0.7880901328873858 0.8140760672657383 1.3728406255933485
-1.083876353393511 0.23866703470706085 1.2076037082681366 1.3329334318171897 0.24570952474078359 0.6183198904711051 1.5668123195665697 -0.7100386234514202
-0.2773436254968818 -1.3752022034482314 -1.0353074219361187 -0.63198973655944 1.5139944851053628 -1.747679249654588 1.3514843323948664 0.9719307751892516
0.5690436875298993 0.21243784745816152 -0.5682563116680958 0.3750868058874429 -0.5251436314588327 2.177845014935026 -0.0343515592484416 0.07584294957744936
1.9277335063285612 -0.13592030410133693 -1.669034729647321 -0.3512958455509091 -0.6838728287236975 -2.3449677764116155 -0.9886279218761395 -0.5484187128055104

custom_layer.gamma f8 [64]
00000000: 9c35 218a 267f d03f f39a 7333 aa45 ad3f
00000010: 2568 7693 a003 62bf 2191 fc26 56d0 89bf
00000020: 0846 5ec0 7f70 923f f9d4 4696 f327 c83f
00000030: 908a c45b 917a ae3f cae6 9461 bc60 b03f
00000040: 379d a2ff 7235 c83f 5b6c 9df0 ca7a ab3f
00000050: e2ba 5f27 c897 b03f 37cf f147 76b5 11bf
00000060: be12 513b 9d72 b2bf ca8b a603 ebfa 70bf
00000070: 1527 96ae a252 82bf 66b5 b858 de46 9e3f
00000080: c2b9 8ef6 ea8d a43f 04bd 0495 5017 b4bf
00000090: 1b4f ead3 461e ac3f bdaa 81fb cb8b 723f
000000a0: 8155 51f6 16c3 b43f b103 a55b 8f41 b03f
000000b0: 1cea 79f7 06b9 943f e885 a1b2 3372 833f
000000c0: f978 8f34 8079 b0bf ab9e c619 b320 a5bf
000000d0: 49c7 3600 d34a a5bf 3ea5 17b4 5ed2 7fbf
000000e0: 0404 90e3 8d6c a53f 2c90 f125 22c9 bc3f
000000f0: bdff ad1f 761f 733f 6fe5 cddf 292f a3bf
00000100: 9c40 5952 5170 c43f 5c8b c6e1 aad9 983f
00000110: 7738 3322 c5d8 813f 2ad6 e267 e893 a6bf
00000120: 386b 074d f09c af3f d1e8 daa7 7403 963f
00000130: 4afc fcf4 3554 97bf ccec 1f83 9729 2cbf
00000140: d93f 54cd b5ab ac3f 685f 4e3e 42b6 b33f
00000150: b7fc b072 3f82 a4bf 7254 6070 a2e8 b0bf
00000160: 1105 e9fd 164c a63f 49cf 9dae e858 c6bf
00000170: 83a4 1f32 bb89 94bf 6ad1 0342 b793 42bf
00000180: 9e3f 3495 43f0 893f e9e0 734b 6888 a93f
00000190: d151 05bd 4882 aabf 0d14 8e5f a092 88bf
000001a0: dd65 3b92 de15 a23f 8c09 1ce0 441a a13f
000001b0: 9fbe 8fd0 466b 9cbf e815 d63f 7595 af3f
000001c0: 3d60 fff3 3087 acbf 6f7e 053d 8944 c33f
000001d0: 429a 7ab3 69c0 91bf d13f 077b c082 ab3f
000001e0: 5724 ccc5 3aed b63f 91a6 8d34 d7b9 a33f
000001f0: 5d14 efc9 9178 b43f a20b b90e 3e6d 993f
0.2577606533930863 0.05717212560721476 -0.0021989952326295797 -0.012604401650215426 0.01800727473852784 0.18871922338227146 0.05952886815272962 0.06397607214321535
0.18913114053905541 0.053671209213199865 0.06481600724485362 -6.755384855400009e-05 -0.07206137369309837 -0.004145544075444494 -0.008946677163084208 0.029567217030650815
0.040145247075418236 -0.07848075521609493 0.054918492668688944 0.004527851873812491 0.08110183251968374 0.0635003660909337 0.02023707280612018 0.009495166672595937
-0.06435395510877474 -0.04126510324141227 -0.04158648851024666 -0.007768983779422199 0.04184382822860047 0.1124440519939191 0.004668675824063881 -0.037469204492434176
0.1596776630490283 0.02426783564591105 0.008714237314418434 -0.04409719722881918 0.06174422207160152 0.021497557396948978 -0.02278217609204728 -0.0002148625804351045
0.05599754458864909 0.07699979802270962 -0.04005621218720406 -0.0660497211795972 0.043549269194509084 -0.17458828474229396 -0.02005665296011162 -0.0005669255079099715
0.0126652984531857 0.04986883088162292 -0.05177523906118931 -0.011998417774302461 0.035323100424374344 0.03340354190551684 -0.027752977828582655 0.06168714908839573
-0.05571892717824809 0.1505290554005003 -0.017335559443973254 0.053731932657342114 0.0895573361305123 0.0385272266056066 0.07996474437739338 0.02483078923092886

layer2.weight f8 [64, 64]
00000000: 55d2 55b1 8954 b73f 99d7 3f7d 4439 c13f
00000010: e4df d4a1 b7fe a83f df2c 3cac 181b ab3f
00000020: e18f f521 66f0 ba3f af7b f3a4 71e5 b9bf
00000030: 19b2 f405 0b79 b23f d60c addb 04d1 b4bf
00000040: 7237 1ed4 7b7f b23f 44af 85a5 7d89 b63f
00000050: 5657 9e44 3238 b6bf 8d94 1763 9f0b b8bf
00000060: 5c85 98df b00a a13f 70e0 2531 01ac a03f
00000070: f6c4 a0c7 bfed 97bf 5b73 d026 758e c0bf
00000080: d939 104b 9026 84bf 103d 7fe3 a45b b6bf
00000090: 6b91 743d 96b3 a2bf 33f9 6d0c 9613 a1bf
000000a0: 5b4b 9323 00d6 bb3f 9e0a 453e a065 8ebf
000000b0: 893c b6e1 3159 853f b21b e2ae 2b08 a0bf
000000c0: 1f13 9e30 46a5 a63f b3c4 0db3 d756 adbf
000000d0: 2d4f 09e0 ebad 95bf 1d25 b608 f109 70bf
000000e0: 1408 ea62 e59a b43f fe93 fb5a 4723 a93f
000000f0: 4fad b548 e232 a13f 28d4 7c47 a970 873f
00000100: 4a72 00aa eb7f 643f 8127 82b5 90d6 9ebf
00000110: 1307 9bc6 f60a bf3f f980 97f0 3199 adbf
00000120: 655f 1acc bf13 6abf 8b60 c1fa d49b c03f
00000130: b41a e93e af15 ae3f 6e64 14f5 ebdc a0bf
00000140: e75c d6d9 8b8f b1bf abcd aa06 e510 a4bf
00000150: c90f 84d9 5221 7d3f 1ac6 12e2 fc80 923f
00000160: 2086 b3fd 5cfd b23f ba37 1bf3 3e1e a4bf
00000170: 8dd4 5939 1741 b1bf 5e06 ef52 10a1 a5bf
00000180: 1572 b0fa 2c30 a6bf 252a 40cf d095 99bf
00000190: 55ca e9f1 5f80 67bf b520 09b4 9732 c3bf
000001a0: 2e95 a8d7 6be6 c03f 2091 45c8 74d1 ca3f
000001b0: e811 b1a4 0afb a1bf 11be 8e27 5d38 b93f
000001c0: 0bec 3cfd 2f15 a6bf c401 dfae f202 8a3f
000001d0: f5b2 42e0 db98 a13f 027e 9532 beef bb3f
000001e0: 9560 cff5 591c c2bf b9e1 37c2 b830 b43f
000001f0: a1f1 2b97 8b24 c2bf 5c56 161a a295 a13f
00000200: 869d bcf3 c3c8 9cbf 2e66 64f4 7efe a8bf
00000210: 65e7 ef67 e59d c0bf 23be 2f69 cad3 b5bf
00000220: 57f5 b057 e866 a53f b804 d456 9f45 a8bf
00000230: 9e9b 5c01 83b9 8dbf e061 db27 e55a adbf
00000240: 7c58 402d 1074 b7bf 23b6 75bc b330 bbbf
00000250: 512d 4b8a 2ff2 c03f f2d6 d6b5 6a50 8b3f
00000260: 951b a4eb f917 993f 5b27 84f4 11c2 b23f
00000270: 90ca 904d 2e60 b83f f4d4 1eeb 2a13 a2bf
00000280: ea2b 95b7 ae3c 653f 886d c659 d5bc b43f
00000290: ba78 cb97 8f23 b9bf e232 e8e3 9277 85bf
000002a0: c32e de0b d723 c33f d5f5 6ac1 13df bfbf
000002b0: 7fdf 7925 c785 ca3f 22c1 3362 aa86 b9bf
000002c0: 9b43 9953 73f7 c4bf 51db 9169 9c16 c0bf
000002d0: e4a2 f122 db16 b03f e9df 865d 6a45 a73f
000002e0: 752d ede9 7a62 ae3f 0f4e 01be c74f 573f
000002f0: fdab c786 bd34 973f 2a0c 0568 0ae5 c0bf
00000300: 73ca 54ae 00d2 87bf c959 4d13 2802 c23f
00000310: 460a 3529 9807 83bf 25f8 5c35 6766 bc3f
00000320: 9c1b bdee 9fce b03f 6a21 d80c 389e 9cbf
00000330: 89bc c0f4 3056 b93f 82e5 c324 f1cc b4bf
00000340: dd3d 11b1 f087 b23f 36bc 9e0c 1906 793f
00000350: ce0f bf78 3563 83bf 0ea8 f4f6 88f8 b7bf
00000360: 3237 9b5c 0e80 b2bf 3fa0 8c63 46cb c23f
00000370: 42bb 778b fc0a a1bf 76f9 cd29 e826 a63f
00000380: 2ce8 7f9c 8ec7 b9bf 2519 d7da eb0f c7bf
00000390: ca86 ffc2 0457 aabf 5ef1 40f9 3fc3 c3bf
000003a0: 6519 5c7b 000b 703f a635 bf7a 6c6a bebf
000003b0: 27da 53c3 ac9f b6bf eb78 01ce 3d9d ae3f
000003c0: 768e 6f11 a434 c33f f663 ca47 68d7 cc3f
000003d0: fbbd 218a 2287 c2bf c251 4b77 75ae a63f
000003e0: daca b383 48a0 993f 5514 095c 744f 913f
000003f0: 6c59 7bb7 bdb0 d4bf 6fb0 9bd7 f7d6 a0bf
00000400: 3ad2 bc00 87f1 b63f 7648 fd12 3bd6 b7bf
00000410: 937b 76d7 8efa c8bf e001 1656 1fc8 b13f
00000420: b989 db5d 4a52 b0bf 43c6 34ea 91e8 a93f
00000430: 109e 267d cceb 9d3f eaa8 6a46 0d7f ac3f
00000440: 9758 d41d 2e05 b4bf 617e afd2 4c20 a0bf
00000450: 1147 1dfb 464c bfbf e134 ec44 2dad b43f
00000460: 4403 23a4 c36f a23f 7b13 3568 156a c13f
00000470: cea3 ef6b 26b6 abbf 76be ea93 f667 ab3f
00000480: 2dfc c4a4 5e2e b9bf e888 df45 868f 99bf
00000490: 13dd 5187 5c30 94bf dc95 cffb 1424 c0bf
000004a0: 7604 ab9e e037 b2bf 0e62 2adb e3fc a13f
000004b0: bf88 5536 8517 aabf aa2d 86b8 3947 b13f
000004c0: 4f53 f672 720b c83f 1cd1 a57c 32ff 773f
000004d0: b614 1253 e7f7 a43f eabd aad1 232e c2bf
000004e0: 3303 d625 c888 b0bf 94ce 142e edee a83f
000004f0: c8e5 706d 906a b1bf da14 c59b 5c4f c0bf
00000500: a5e7 e0ff bb80 c23f 9f76 c258 f564 b7bf
00000510: a059 1c29 d0e8 b9bf b863 4cdd 7fc2 ba3f
00000520: b96a c412 67b6 9fbf dd8b afbe 347a bdbf
00000530: 5fe7 4369 c4dc a63f 3f41 54ad ab85 a2bf
00000540: 77e5 21bd 4141 b4bf ee0e a40a 30c3 ca3f
00000550: 376c 873a 302d 96bf 6daf bf6e 30e1 a7bf
00000560: 215b 010a 692d bb3f 06a2 2fda c4bc aebf
00000570: 9d7d e793 0a5d babf 4865 c69a 2929 c53f
00000580: 0b78 684c bdb7 a3bf f5e6 a0f4 5201 b63f
00000590: 3a3a 5002 76dd a33f d3d4 e7ee f418 903f
000005a0: 1f4c 828c f435 b4bf ace7 d55e 277c ac3f
000005b0: 750b dce2 db6b c2bf 4f8c 9447 8a16 a8bf
000005c0: 114a 3234 8d97 ae3f b777 8929 4edc babf
000005d0: b686 3751 5965 ea3e 3bf3 9895 ce77 c1bf
000005e0: 3085 d01b 7ae3 bcbf cbb3 6e2d c269 893f
000005f0: 9b4c 92e7 a8af d0bf 9a61 71a4 2019 a13f
00000600: aeed af6d 4f8c adbf c9f0 b242 d62d c3bf
00000610: 6dec 48bd ba9d cc3f cb56 059d 287f aa3f
00000620: 4126 245d ff2f 95bf d145 1af9 96b5 a4bf
00000630: a68a 3842 c0aa a1bf 22a0 2424 71e0 953f
00000640: f5d4 ed98 d91d c03f c153 70a8 5800 af3f
00000650: 295b ab83 c227 b6bf 5200 5063 67bc 9f3f
00000660: 9877 a429 58c7 803f c329 0591 56a6 b63f
00000670: f9b3 9e5b 68b5 aebf 421b 681b e906 c73f
00000680: 07cd be58 0f25 bcbf 495d 2eba 854c 8cbf
00000690: e83f 5d62 ce48 88bf 7532 91a8 296a c6bf
000006a0: 1c8b ffa6 fbb9 b03f 63cb 1fb2 f15d 883f
000006b0: 3460 0b9e c067 c3bf 4a64 2c5f e683 b3bf
000006c0: 7cf4 c4d7 a3b3 7cbf c109 b783 8dd9 b3bf
000006d0: 7b29 d9fe 1c13 b8bf 3328 d9b5 35b0 a63f
000006e0: 518d 99f7 5283 babf 0fd4 2504 47c2 a73f
000006f0: 0667 85d4 81cd c83f 7974 841d 8dcd b0bf
00000700: 214c fa36 208d c7bf a943 0d68 8567 c1bf
00000710: 0d9d 0c7e df76 afbf daf9 182c 2c33 bc3f
00000720: 000a 3057 222a c0bf f071 1b24 784b acbf
00000730: d83a d28c 93f3 a9bf d3ee 5cf4 7486 b1bf
00000740: f979 4134 df8f c1bf c32a 2d58 1bf1 b3bf
00000750: a6cf 93b6 fda8 9a3f e0af a987 bfc6 94bf
00000760: 3f02 7897 7132 b2bf 201f 3543 9cb0 c3bf
00000770: 93bc f564 0607 99bf c770 a477 8986 c03f
00000780: 7600 e23a 2f55 943f 011f c937 4f17 c4bf
00000790: 4c92 740e a81b b9bf 5faf 38db 76fd ae3f
000007a0: c2f6 68b9 8de9 be3f ce11 c9ba ed4c bc3f
000007b0: 484b d8ac 5164 a43f bb0e d9af 5d39 b3bf
000007c0: e235 cf15 6b2c b1bf 5f70 9af6 0807 bbbf
000007d0: 2ff1 f811 3500 bc3f de82 0321 be1c aabf
000007e0: 49bd 5b64 efef bdbf d845 0983 bc30 c9bf
000007f0: 660a 4eb7 301c 813f 705a eba1 53c2 bcbf
0.09113369540666245 0.1345601665086036 0.04881833887560541 0.05294110395888096 0.10523069695551569 -0.1011572864258443 0.07215947051435768 -0.08131437647994075
0.07225774696982315 0.08803544322080109 -0.08679498839623298 -0.09392734688988665 0.03328469018402799 0.03256229138327249 -0.023367878493620396 -0.1293474616549258
-0.009839179316284795 -0.08733587793470954 -0.03652638912379554 -0.033352555291445894 0.10873413914241097 -0.014842273617096165 0.010424031925849302 -0.03131233701520077
0.044229691920042884 -0.057303181273604585 -0.02117126994046641 -0.0039157309905786504 0.0804885260095321 0.04909728036526671 0.03359133851594242 0.011445353025559227
0.002502403527627349 -0.030115376547235954 0.121261046874704 -0.05780941068565144 -0.003183245281274271 0.12975561374583253 0.05875919001532762 -0.0329354988736633
-0.06859659260077287 -0.0391913958204911 0.007111858016518321 0.018070174501820892 0.07417851632956074 -0.03929325788122591 -0.06739945554893918 -0.04224444401144177
-0.0433363014237537 -0.0249855638976816 -0.0028688310551896836 -0.14998146334460719 0.1320318987865589 0.2095170953645118 -0.035118420223202496 0.09851629462968271
-0.04313039747508903 0.012700935327189529 0.03436934578471621 0.10912693724593939 -0.14149021627850247 0.07886843434960768 -0.14174027329853536 0.03434473579833927
-0.028109609366905562 -0.04881664975455312 -0.12981860709242735 -0.08526291912107146 0.04180074758958579 -0.04740617690004839 -0.014513991812760637 -0.057334099879600364
-0.09161473374146739 -0.10621188498563376 0.13239092114086273 0.013336976694386025 0.02450552464236074 0.07327377528795635 0.09521760362330611 -0.035302487565255364
0.0025924122279881072 0.08100636903548353 -0.0981988664238739 -0.010481975155039295 0.1495312507580505 -0.12449763748278227 0.207207577990399 -0.09971108338846027
-0.16380158979384593 -0.1256900325276669 0.06284875491258962 0.045451473156788165 0.059345093780019655 0.0014228296859258892 0.022662125922504817 -0.13198976592147577
-0.011631017036596724 0.14069081251609664 -0.009291828877967433 0.11093754818736608 0.06565284327108006 -0.027947307380629928 0.09897142386829406 -0.08125216624821088
0.07238678286488871 0.006109330986801933 -0.009466569659600934 -0.09363609341804155 -0.07226648102661384 0.14682845936590813 -0.033286945366731505 0.04326558599767598
-0.10070124932090668 -0.18017337976034145 -0.05144514923428074 -0.15439605398740758 0.003916742212601275 -0.11881139752150335 -0.08837394493807747 0.05979340686529774
0.15004397250514828 0.2253237104930858 -0.14474899048535392 0.04429976540783144 0.025025494612189593 0.016904657475852087 -0.3232874194922235 -0.0328900767034107
0.08962291496283906 -0.09311265195472793 -0.19514642258306178 0.06945987559993894 -0.06375565329975687 0.05060249313318057 0.02921981347904362 0.05565682873323559
-0.07820404270418845 -0.03149643012852433 -0.12225764876100366 0.08076746876413977 0.03600894335386909 0.1360499152016493 -0.05412406985835326 0.05352755122782764
-0.09836379549686632 -0.02496156503173888 -0.01971573425222768 -0.12610113425686975 -0.07116512178164833 0.035132523063286056 -0.05096069610842013 0.06749306445106265
0.18784933675183388 0.005858609404061601 0.04095385445638426 -0.14203307855267094 -0.06458712505083213 0.04869786441341009 -0.06803229019069257 -0.12742192846250228
0.14455366128987382 -0.09138425271018001 -0.10120869640045393 0.10453032639305959 -0.030969248314344642 -0.11514596610463408 0.04465307030655085 -0.0361760758479499
-0.0791207396267931 0.20908165473530665 -0.021656755039526323 -0.04663993217385962 0.1061616563250536 -0.060033942827264083 -0.10298219786590442 0.16531868035671438
-0.03851119573322145 0.08595770332695081 0.03879898813476186 0.01572020252384194 -0.07894829206843255 0.05563471825276109 -0.14391659333349663 -0.0470469677332167
0.059749996778141086 -0.10492409242712496 1.2586543141904351e-05 -0.13646871857226892 -0.11284602335992555 0.012408749591338883 -0.26072142233278733 0.03339483268127026
-0.0577111073871167 -0.14983633286272482 0.2235635208361119 0.0517513934779977 -0.0206909084891207 -0.04044791975787699 -0.03450585182533432 0.021363990622518376
0.12591094939458683 0.060549517213224664 -0.0865441867311857 0.030992141186289075 0.008192719240977017 0.08847561874896485 -0.059977780517648634 0.17989839399543867
-0.10994048992761317 -0.013817829841896627 -0.011857616783942107 -0.17511482935732983 0.06533787562470333 0.011897934196871856 -0.1516037723256446 -0.07623138259477105
-0.007007255564812739 -0.07753834214876233 -0.09404164525873242 0.04431312413051138 -0.10356634659688281 0.04640409398681566 0.19377158047682758 -0.06563646288528159
-0.18399431881388842 -0.13597171383528675 -0.06145380414664645 0.11015583111382146 -0.12628583199700927 -0.05526328507196243 -0.05068646520623127 -0.06845789876836798
-0.13720312167693274 -0.07789774801964726 0.02603527476180969 -0.020289414076998358 -0.07108221004455915 -0.15382722169510377 -0.024440860664466667 0.12910574285422724
0.01985620304958543 -0.15696134780795748 -0.09807825425065991 0.06052752901118085 0.12075124527560901 0.11054883775893318 0.03982787356303291 -0.07509408515130193
-0.06708401949364132 -0.10557609577739545 0.10937816323070558 -0.05100053933143099 -0.11694236946253968 -0.19679981611493136 0.008354549974460567 -0.11234018996342754

layer2.bias f8 [64]
00000000: fc9c db0c ac5a bd3f 3acc 0e20 cd73 ac3f
00000010: 9559 9508 12da 9f3f 0708 a10d db15 b4bf
00000020: e3a9 e397 54c1 a4bf ca4c 0dd2 8c13 bebf
00000030: 7d90 e1b3 2f19 a03f 4179 76a8 8c62 a6bf
00000040: b5fa 1bb0 169b a63f 7c19 f163 705b aabf
00000050: 55c1 6998 b90a aa3f de1a 0301 e43b b73f
00000060: 5b58 0d64 4e89 843f 1c66 b2b8 2ea5 b5bf
00000070: efeb ad6a 107e a9bf 20d1 8669 4766 973f
00000080: 7310 b1e8 9e0a a4bf ca4c 02d8 b521 b1bf
00000090: 9dae d9a1 6bfd b0bf 28fb 700e 486c 83bf
000000a0: 35b2 84bf bf30 bbbf 0825 9161 8c74 bb3f
000000b0: 4a13 13e3 d66a ba3f a40c eca5 ce0c a3bf
000000c0: 7e63 614f 5933 93bf 4c2c 5391 284b b1bf
000000d0: eeb0 2516 813d b43f 7ac1 ec6c a388 bdbf
000000e0: e070 9cee 600c b3bf 69d8 e06b f845 b93f
000000f0: c286 e3d4 fd10 b3bf b3e8 2925 6469 bc3f
00000100: 11cc f6ea 4374 a4bf 87ba 625a f214 a73f
00000110: 3a19 88b2 299f be3f c5f7 8ba4 79e9 b03f
00000120: 3c8d 1714 bda6 a0bf 637c 4ed5 fa90 75bf
00000130: bd22 1a7f 1e53 b5bf e2f0 04a6 dc01 a73f
00000140: a0f7 289f 16df bdbf a9e6 2a1e 56cb a1bf
00000150: 0e53 90b9 1a46 b7bf d43c 0cd8 1fa5 a4bf
00000160: 19e3 f419 75e6 a1bf 71fb 08f9 63f1 b4bf
00000170: 1284 d6d1 69e6 91bf 0446 b52a 257b a73f
00000180: 0144 eb37 7745 b03f 94a0 81b2 9c3b a9bf
00000190: f3bf 53c7 5b67 a83f 10bb a856 9d52 873f
000001a0: f869 67cb f54d b93f d681 5b3e ffff b0bf
000001b0: dd8d 45e5 92e1 b93f d129 5874 6a9d b03f
000001c0: ebcf e93b 4b37 8e3f 6ad6 e9c2 5fbe bebf
000001d0: 9108 3e6e a627 c03f c899 9c77 e0b1 a4bf
000001e0: 593b cd8d e19e b93f 8958 6c0c e1a9 b8bf
000001f0: 96ce 79e7 fb31 a9bf de7e cf5c 2f70 b8bf
0.11466479600823115 0.05557099357920277 0.03110531022442727 -0.07845849116077384 -0.04053749422185484 -0.11748581054898746 0.031442156513350895 -0.04372062260084642
0.044151982305256444 -0.051478874397207414 0.05086307511817504 0.09075760864935087 0.010027515819882085 -0.08455173501206342 -0.04978991796721021 0.022851100745996722
-0.03914352980112392 -0.06692062877327767 -0.0663668890135178 -0.009483874264444817 -0.10621260095349146 0.10724713689809928 0.10319273990451197 -0.037207086328657796
-0.018750567884441953 -0.06755307720156728 0.07906348028854257 -0.11536618623063602 -0.07440763307062381 0.09872391351459132 -0.07447802016715868 0.11098314196888985
-0.039949533874640626 0.045081685574918366 0.11961613281900876 0.0660625483251059 -0.03252211447013528 -0.005265216653156465 -0.08329954722479278 0.04493608023264685
-0.11668530832045443 -0.03475445860153787 -0.09091345816007054 -0.040322299120924804 -0.034961375635651666 -0.08180832700689479 -0.017480519707195503 0.045861398185149255
0.06355996241769903 -0.04928292922051117 0.047663562852790074 0.011388043601156222 0.09884582725445756 -0.06640620491408042 0.10109823319867624 0.06490197506369745
0.014753902212056821 -0.12009237774494755 0.12621002562452024 -0.04041959247688315 0.10008058273272748 -0.09634214928914465 -0.0492094726622813 -0.09546180740243979

custom_layer2.alpha f8 [64]
00000000: 76a6 6bec c26f afbf 347d b993 13eb e63f
00000010: c944 57cf 6ac0 c8bf 2966 3217 2eaf f6bf
00000020: d073 0f07 e351 c23f 7257 b5eb 20a2 fbbf
00000030: c42e a47b 8bcb dd3f 5c77 7d75 2a6f d2bf
00000040: bcfd a68f 37ac edbf ce78 62f8 8c99 ff3f
00000050: 36a7 b85c 43b3 f63f 110b b3b0 48b1 d2bf
00000060: 1cf2 f2b5 5353 e3bf 5145 8693 11a8 ca3f
00000070: 4409 4e34 fa17 f03f 6286 9a12 337d e1bf
00000080: 29a5 3c74 4b32 cfbf 8742 aefe f801 f0bf
00000090: 1361 9b71 8bc6 d4bf 7f3c c577 f214 d53f
000000a0: 3a41 3552 f637 f0bf 109a 6f8f 61e6 dd3f
000000b0: 6256 74d9 8163 ea3f 581e d8c1 117d b6bf
000000c0: e2b7 3477 db6b f3bf 3150 651f dd05 00c0
000000d0: 470d d199 390e ea3f 6c60 a8ca be93 ccbf
000000e0: f167 e59f 5e42 eabf 768e b521 89bd d4bf
000000f0: 2df9 8300 1740 e13f 0427 131e d5e2 e0bf
00000100: ded2 5419 1807 ebbf 3a68 2c68 d10e da3f
00000110: dc0e 048d 243c e63f d8ed c489 2ac5 da3f
00000120: 05af 4f57 6314 ca3f 5586 8d42 3358 d43f
00000130: c221 2012 31dc dbbf c0cc eb50 8379 a33f
00000140: 7092 6c5c 25ce f0bf 475f 7c9f 25c1 ebbf
00000150: 7569 58f4 5dec e0bf c213 5fd8 688c e73f
00000160: 9dd1 0c9d b9b1 ecbf f7b3 386d e3b7 f03f
00000170: 9c17 1c3c b082 e83f 692f 33e8 ef69 eebf
00000180: a3b5 82da ddc6 e83f e0ee 6011 3494 eebf
00000190: 3ffb 5d5a ee1a cd3f 46e8 602a d2e5 fe3f
000001a0: d14e b4d7 ad85 eebf 226a 32c4 1b25 e6bf
000001b0: b55d b121 dee2 eb3f c185 924b 0ba6 eb3f
000001c0: 5f06 1afc 570f dcbf 671d bf9a 64be c9bf
000001d0: 5cd5 9ca9 2b52 edbf 89a0 abe2 720d f2bf
000001e0: 7f1b 6d82 e626 e13f cefe a382 cf7b f0bf
000001f0: 9c01 4e4a 82cd f03f 1d37 1394 b61f e7bf
-0.061399546966481575 0.7161958585019534 -0.19337210773531968 -1.4177685648086344 0.14312398762458978 -1.7270821769102125 0.4655483920512149 -0.28803502534525705
-0.927272587366978 1.9749879553342455 1.418765413467964 -0.2920705533580739 -0.6039217523280658 0.2082540483793687 1.0058538478047732 -0.5465331424094979
-0.24372237372998853 -1.0004816006150195 -0.32461820692471227 0.3294035119660705 -1.0136626445055996 0.46718634612480603 0.8246468779713718 -0.08784590704464657
-1.2138323456269906 -2.0028631642144537 0.8142364505987779 -0.22325882811924502 -0.8206017611475983 -0.32406833927073053 0.5390734682148711 -0.5276895129584038
-0.8446159834625993 0.4071544186896322 0.6948416475501875 0.4182840676691888 0.20374719393964127 0.3178833150796881 -0.43531443376607737 0.03803644526296912
-1.0503285990063453 -0.8673275103528589 -0.5288533947344108 0.7358898378375829 -0.8966949527153251 1.0448946253266038 0.7659531759279505 -0.9504317793994065
0.7742757098946423 -0.9555912341524753 0.22738437092263017 1.931108632603825 -0.9538182461714887 -0.6920298416110351 0.8714438112319188 0.8640190578482178
-0.4384365045480986 -0.20112283283217922 -0.9162805855509464 -1.1282833914101806 0.535998587359117 -1.030227194132681 1.0501730825927558 -0.7226212398615847

custom_layer2.teta f8 [64]
00000000: 757a 4abf a0c0 c43f b22c 259e 6e0b d23f
00000010: 814c 1207 e0dc e1bf 690a 6fec 68e7 db3f
00000020: 84d9 dec6 3df1 c8bf ffb6 0fec c346 f3bf
00000030: aa3e eb0c 2fe6 cebf 4d4e a2d0 cc23 e93f
00000040: af47 1884 3ef4 f6bf cc42 621f 9c85 fd3f
00000050: da1c a5c0 97d5 b2bf 5d31 201c e017 dcbf
00000060: 5922 40b3 befb e4bf bf6b 9e72 2dfc fa3f
00000070: fc38 2238 152c f13f 2700 bd8b 8a82 f63f
00000080: 494f a33f 8a8e d23f 564f fe53 b1c6 d93f
00000090: f340 dcd4 96ba dbbf b921 2cbd fccb f5bf
000000a0: 5ced be61 0e97 f03f 3c6f a798 a4bd edbf
000000b0: a3b7 3e89 5ca4 f5bf 65bd fba0 0db5 d93f
000000c0: d238 27f8 094a f13f 7cbf 9f15 9e92 bbbf
000000d0: 635e f490 84d6 fa3f 2b5b 6681 45d0 fb3f
000000e0: 240f 562c bbe5 e2bf 868d 6908 4cae e03f
000000f0: b8c8 7ac5 c3fb dd3f 004b 2749 b134 fbbf
00000100: f265 4b0c a01c b13f 243d d5f3 0a80 f23f
00000110: 8637 b84b 4dd8 853f 394e ee60 6abb f63f
00000120: b3d4 663c cdc2 e4bf 9785 d07d b179 eb3f
00000130: c6c2 45a3 014c d33f 0bdc da14 b430 febf
00000140: bcce 4e56 75d3 f13f ef11 c347 6fce fb3f
00000150: d0fb 0db1 8305 d4bf 319f 0d0c 7705 e83f
00000160: aad8 d54e 93bf b93f 739c bb81 8ac6 d3bf
00000170: 7d51 f68f 35e2 edbf 71fc 3c5f 6971 f4bf
00000180: 8cae a6b1 dd26 f43f a51c 5c3b f83c ebbf
00000190: 25fa 654e 489b e93f 0de0 3402 4f9d f5bf
000001a0: 12ee b852 17a8 f73f b855 9245 e144 b43f
000001b0: 665a 8e83 3981 cabf 2911 0399 bb01 fb3f
000001c0: 04b3 d89f f39f eabf 8b96 f918 a1f1 edbf
000001d0: b02b 16cd 9ec5 e9bf ed24 1b05 c89a d83f
000001e0: be0d 56da 0c88 dd3f 82d7 c5ee 56c5 d2bf
000001f0: 922f f248 9228 be3f 4ce9 872a 6ad8 c63f
0.16212853756310933 0.28194776004665834 -0.5582122934450952 0.43599913682206776 -0.19486210070108367 -1.2047766896388905 -0.2413996518212021 0.785620124328895
-1.4346299323992573 1.8451195932322433 -0.07357166722532629 -0.43895724054961766 -0.6557305813776778 1.6865667798326596 1.0732624237749055 1.4068704088713362
0.28994995321885547 0.4027522392509487 -0.4332635000910294 -1.362301577524802 1.0368789499469449 -0.9293997746967544 -1.3526273118145375 0.4016756126502144
1.0805759137615962 -0.10770595577173298 1.6773725187576012 1.7383475355797582 -0.5905433526936332 0.5212764896681825 0.4684914997589078 -1.7003643853719836
0.06684303569945607 1.15626044509174 0.010666469453123783 1.42075574744821 -0.6487795047493335 0.8586051423373416 0.3015140623529472 -1.8868904890675846
1.114125573291786 1.7378990939333752 -0.3128365735100802 0.7506671176351799 0.1005794589490018 -0.30899298352455346 -0.9338634311448427 -1.2776883812182656
1.2594887675758484 -0.8511925849315004 0.8002053767411935 -1.350905426616012 1.478537867674167 0.07917602489972964 -0.20706862376819685 1.6879230477362148
-0.8320253488542169 -0.9357457626144464 -0.8053735738370644 0.38444710253368336 0.46142884561433195 -0.29329465215356987 0.11780657082471027 0.1784794528646877

custom_layer2.gamma f8 [64]
00000000: b0e0 3723 b60d acbf 8cb8 4600 effb c23f
00000010: 74b2 633d 2e78 ae3f da78 c54e 21cc 883f
00000020: 0f83 2d25 a02c b33f ec17 0994 687f adbf
00000030: ad86 0cc7 71a2 8bbf c863 8985 0294 7f3f
00000040: e014 4d82 e619 b03f e554 074b 4912 bfbf
00000050: e418 592b 12e1 aa3f fd98 5db1 e6f3 903f
00000060: 59c4 ca3d 22f8 b2bf 43c6 cdf3 e635 afbf
00000070: 4962 1c94 88a5 503f 0eee 3691 3450 34bf
00000080: 1061 d6cb 039e 593f b497 2443 c3fa 9cbf
00000090: 76e2 6358 65f1 a6bf a4ef 768a 7b36 d13f
000000a0: ffde fb13 144f 433f 95d6 3114 34e6 c73f
000000b0: e8d4 8859 1f53 aebf 0017 53e5 bea0 a43f
000000c0: 9c96 5f24 696f 5c3f 6627 538a 73e7 abbf
000000d0: 3274 47be 5a8f a5bf 32ba 259e 74d8 b5bf
000000e0: 2947 e605 cf49 943f de3c cc1e 7464 6dbf
000000f0: 12fd 332d 7d37 743f 6855 7ba7 0afe a0bf
00000100: af56 e3ac e43d 913f 1c4e 731d 7ba1 593f
00000110: eed0 4e6e 2bc8 6d3f 1cb1 824f 1a72 a03f
00000120: 492c 14db 9326 a33f b7ae 491f 441b 64bf
00000130: f03d 5e4c 8ca6 813f 309f 796a fb92 b83f
00000140: b044 7585 934a 76bf 6d6b 17e1 3da4 943f
00000150: c38f a2c5 81c3 adbf dade b989 b3da ac3f
00000160: 3f2c c8b9 8bab 56bf 2683 aac3 6a60 933f
00000170: 9368 10dd bdbb 923f 3f06 6290 d221 903f
00000180: 2652 3286 6e80 863f 6cb2 e06c 7ab0 863f
00000190: ba37 c540 273b 643f 8a53 8150 eb92 42bf
000001a0: b94f 4305 8b55 953f 4933 f1f4 0b34 a03f
000001b0: 8e0f e394 45d0 bc3f 6e8a bb16 e1ae 943f
000001c0: 6624 7b19 8617 903f 180e d5b5 3905 9cbf
000001d0: 72d8 2065 77ce afbf 826b 3972 eac3 8dbf
000001e0: b2a2 0e38 b036 693f 9ac0 3847 d235 81bf
000001f0: 65af 1802 1482 5abf c58b 4082 0137 96bf
-0.054792110251527304 0.14831340325821818 0.05951065539725145 0.0121080972828022 0.07489968211804075 -0.05761267478059992 -0.013493431937209388 0.007709512567623152
0.06289520913294977 -0.12137277681115995 0.052498405257709796 0.016555409026659074 -0.07409872063250712 -0.060958115826804014 0.0010160287642461288 -0.0003099563920973832
0.0015635525772719795 -0.028300333951072523 -0.04481045440656299 0.2689503528779318 0.0005892608678257082 0.18671275125568756 -0.05922792404127525 0.04028889226314725
0.0017355467584762368 -0.05450020850692176 -0.042109332778388256 -0.08533409939784845 0.019812807784155204 -0.003587939069241138 0.004935730906481044 -0.03318818373160576
0.016837666561363814 0.001564378957301999 0.0036354873904774687 0.03212053509318677 0.037403698437707585 -0.0024544077407905 0.008618446426935628 0.09599276875962626
-0.0054422152091585935 0.020157782424444038 -0.058132224440924606 0.05635605865694311 -0.0013836731442349451 0.018922489349850434 0.018294302575761433 0.015754022657807672
0.010987151594499766 0.011078792998966601 0.0024696127567613553 -0.0005668305393650025 0.02083413333532722 0.031647084856195 0.11255297551093532 0.020198361408697733
0.015714736275900164 -0.02736368343654591 -0.06212208852268554 -0.014533835993622683 0.0030778352524588265 -0.008403437422288374 -0.00161792711186145 -0.021694205832442543
