COLA_Emulators/PCE/wCDM_PNN_HIGH/MODEL_Z0.041.pth (torch, 192382 bytes, 10 tensors)

layer1.weight f8 [128, 25]
00000000: f625 83f8 8e29 bd3f 74ef 14e4 ab0c c9bf
00000010: 63fd 9345 79d9 b1bf a7f8 56d2 f84b a93f
00000020: 5380 8722 6416 d2bf 0ab3 77c8 ef90 c9bf
00000030: 9644 92ea 8843 c83f 5631 3bfa 7788 c9bf
00000040: 80d0 2fc0 ded2 c53f 2e6c 796a c7aa c73f
00000050: 4328 84c2 64a1 90bf a633 81d2 dba0 93bf
00000060: 348f 3517 70b2 a8bf b590 6e8a 0dca b23f
00000070: 81a9 84df 8f50 cd3f 4fa0 2f59 415b c83f
00000080: f831 de05 dbec b3bf fa11 4461 3512 be3f
00000090: 7f6e 97ae 3669 933f 0506 a971 9f53 9d3f
000000a0: 03e7 dd0a 8e06 c0bf cf3c 5d25 de6c c13f
000000b0: f6f8 1dcd e6e2 aa3f 9ebb 4c78 b63b 8cbf
000000c0: d4c8 27de 00d3 a93f a874 3fb7 a69e a0bf
000000d0: c66f a7a4 1e66 d03f 2c0b becf 1711 9cbf
000000e0: 0684 7884 52d9 c3bf 2ae9 c75a 7b13 b1bf
000000f0: 0dde 496a a8bb a33f a712 9b90 eec6 a5bf
00000100: 681f f38f b51a ca3f 1d49 0c89 26e7 b7bf
00000110: 8d81 9d6a 8b51 d6bf 1d77 066e 4d6e b6bf
00000120: 8e48 4b65 ce2b c6bf 11b7 8f4c 2f37 c1bf
00000130: d28f b0ca 5705 c13f 101b 22b7 54fc b6bf
00000140: 219d 3d99 8ea8 c63f c428 4109 b564 bcbf
00000150: 5676 0333 3cfc b33f fcfd 3f38 37dc 95bf
00000160: fe64 ff19 5937 cabf 6669 3f44 52ca b23f
00000170: 3393 c6a1 55ac aabf f32f 4dab 7759 c6bf
00000180: 8d8b d67f 8dbe b43f 2cf2 f494 f993 c43f
00000190: 9e04 2c6e b13b aabf 26af 047d 07a0 b43f
000001a0: 4a12 9d8b 687f d03f d087 e87e fa35 803f
000001b0: 9c02 5eb9 fdee 8cbf f367 fdd5 06b1 c83f
000001c0: f41a 3070 6f60 d33f ff4b afb0 a3a5 c33f
000001d0: f569 0675 edef d13f ab66 4174 fc46 bf3f
000001e0: 720a 8f0b 1918 dabf 7c57 be3e 336a 95bf
000001f0: 9eda 1f24 d9c3 c7bf 541a 536b 5a55 c8bf
00000200: f02b 108e 07e6 d13f 92f7 051f f2d4 cd3f
00000210: f1d0 7bda 0fb5 c4bf cc8e 624c 063a b6bf
00000220: e43a 8cb0 d73b dcbf a7a1 749e e922 b0bf
00000230: 52a9 0d80 69fe c13f c008 1d5b 6441 cdbf
00000240: 4682 9d23 fe3d abbf 3da8 8cea aaaa 983f
00000250: 524c 1ddd 0756 cb3f f80f 4b97 7073 abbf
00000260: 60a6 9dbb 7c63 c03f ffeb c3f8 d396 91bf
00000270: e540 09b5 41a7 943f 6014 c772 f1d8 cc3f
00000280: c6f8 8007 b254 b13f a668 d9e6 6ee4 c13f
00000290: e074 1624 4596 b4bf 9686 cf6d aebe c53f
000002a0: 2869 2e8d 2916 c13f 6823 1420 8478 ba3f
000002b0: 5c04 3b25 9580 9e3f 9e82 4bff d5be c53f
000002c0: ff98 cab5 1ead 783f b081 b278 80ea c1bf
000002d0: 3d53 1797 9785 b93f a3bc 2b9a bec6 b53f
000002e0: 7b5d 0ba4 d6c7 c4bf 56a9 763d 7972 adbf
000002f0: f38a fbce f9e9 903f 212d 33a9 0981 cabf
00000300: 50f0 7767 a053 bb3f 1997 75cd 9e0d bdbf
00000310: 2220 0cf9 a1dc aa3f 64d9 07c4 049b 563f
00000320: 805e 8633 523a a4bf daf1 8b87 b31e cf3f
00000330: 6641 6e76 9d96 953f ded6 c549 b44c c43f
00000340: acd1 0063 4125 eabe cfcd 32a6 9401 c6bf
00000350: 3316 fee5 95f9 c83f 08de 8b17 20c1 9c3f
00000360: b98a c23e a544 cfbf bd23 0685 03dc a13f
00000370: 81be 9287 8345 bebf 89ef 149b a0fa d03f
00000380: 3ae1 2f9c bde1 cabf bd79 2496 3353 a93f
00000390: 3129 51e1 b652 bbbf 1cb9 8568 8ad2 b8bf
000003a0: ffab ed2a a9bc b7bf 1c6d b3ea eb5c b93f
000003b0: 705a e1a9 aa52 8ebf 48c9 fef3 f4a6 c43f
000003c0: a7ab cc13 5993 b73f 73c5 da9c 1829 b7bf
000003d0: 3905 dfc3 2fe4 a2bf d680 2387 c86d b43f
000003e0: 9273 29d8 faaf b73f 7e3d e35e c115 a8bf
000003f0: 6d99 12bf cf3e a23f 0376 c7ac e434 ae3f
00000400: 0958 4098 1e42 d7bf 5932 8e67 aca2 96bf
00000410: 739d 0fbe 35b7 d43f 3928 971b a6d5 87bf
00000420: 6191 9efe 03ca c33f 4144 b150 0955 c63f
00000430: d190 4fa1 0bc7 c0bf cf6b 7901 5921 bfbf
00000440: 1ab6 47ba f8ef a9bf 5ad2 5b8d f30c 9ebf
00000450: 3147 cd11 aebe c33f dd5c 9be6 84db d23f
00000460: 6cb5 fc4a c60d c0bf 270e 4ef4 9394 9c3f
00000470: ea47 b411 af3d c1bf 1e5d 0261 d0a8 cbbf
00000480: 7d7e abb8 ad5c b8bf ed22 c29c b460 cfbf
00000490: 7139 d53c 26e0 a03f 2607 e3c6 0670 9fbf
000004a0: 3607 6be3 f1e3 c83f f5b8 82cc 4d4e c23f
000004b0: a300 0049 f211 95bf 4982 2650 eff8 c23f
000004c0: 6870 1eef 0433 c2bf 9bc0 339a 909c c3bf
000004d0: 9bb6 7c57 764f c63f ef29 4324 daac c23f
000004e0: 2294 d374 523d babf 1a95 4a4f a845 923f
000004f0: 3178 0ac1 9893 c13f 89f1 24fc 7d4f b7bf
00000500: 8eb9 453d 3be5 9e3f 418c e379 dd99 cebf
00000510: 2cb4 6370 d4fa b0bf 3271 c6d2 1933 c9bf
00000520: 4271 7eab 296b b73f 8a34 166e 37a1 a1bf
00000530: 74fe fa7e 6b75 cbbf fbbf 099f d94c be3f
00000540: 9f1d ad24 9d16 b33f 0802 b09a 188a ca3f
00000550: 0e91 72f6 70f3 7a3f 5fa7 50bf a0a1 c5bf
00000560: 4d36 7634 172f 963f a9dd 6ce2 a0a5 cf3f
00000570: 68fe ebaf 31d8 ca3f d802 2579 0fd6 a33f
00000580: 4f37 c293 8a28 c1bf 61de 1006 b0c6 c13f
00000590: 6b05 a099 431f d13f 8210 6a53 7193 c53f
000005a0: b82c 9961 7dfd c13f 4d96 2c0f 5e7d d3bf
000005b0: f1f6 f0d4 dac7 c53f 28ba b799 db78 c53f
000005c0: f982 af4e 2741 c3bf 9ff2 e23a 24b3 b23f
000005d0: 9c83 22c9 892c b5bf 7643 8cbd 02b6 b1bf
000005e0: d219 f853 3622 bb3f fc5a 8d17 9fe5 c33f
000005f0: 7c72 b91f 902a c2bf e272 1849 d773 d43f
00000600: fa85 4767 3048 b03f 3c09 ace4 8f15 babf
00000610: 828a 3176 c262 ad3f 8825 9ca1 439e b7bf
00000620: fb11 843c fc0d c73f 9175 567b e213 b4bf
00000630: ec84 0014 5953 d13f 17f1 4ddc d8bc af3f
00000640: 2787 d38f 058a 6b3f c72c fef0 6535 c63f
00000650: d170 1f37 74ce d23f 02d8 19cc 80b9 b53f
00000660: 45e5 6196 c449 c03f 799b 3e87 3d04 a13f
00000670: f03d 1a79 08cd a23f c4a4 ab75 439e a0bf
00000680: fb87 c780 a8f2 a63f cad2 eb52 cc63 c4bf
00000690: 682c 787d bc63 a03f 6973 7c52 d1d5 be3f
000006a0: 3194 8e0b 7c33 c63f 4881 ef0c c08a b8bf
000006b0: 27a2 97e6 f9f4 c63f bc6a 96ac 6a42 bebf
000006c0: b176 ce99 273d 7a3f 8874 4c23 1d56 c43f
000006d0: 00d0 02d0 9160 c83f 1bb2 db4f 33f0 c03f
000006e0: 67a0 922b 3205 c2bf 25b6 45e6 0e03 7abf
000006f0: cc82 f769 f770 d0bf 4ccb 4fef a6cf b53f
00000700: fe5a fa2f 8999 c8bf 6834 f473 b078 a73f
00000710: 7187 7811 a85c b8bf 6ca1 26e3 e98d b6bf
00000720: ecde a6d0 0954 b2bf e241 d48e 3336 c9bf
00000730: 0cee 3534 9dac b7bf f341 9677 71c7 bdbf
00000740: 0c2c e11b 2389 61bf 1a8b f2ed 90eb 223f
00000750: 8d5f 4eda dbf3 c4bf 1aec d193 f824 c63f
00000760: 32e2 99af eb34 623f 188b 5e29 6550 b23f
00000770: 4b39 ebcb 0086 c5bf a9a5 553a eae2 b5bf
00000780: 3d40 cf2e a92c a13f 0069 7594 044e be3f
00000790: 81aa 26d6 6b3b c5bf a3ed c3c9 a4b7 aabf
000007a0: fd18 9c74 44a3 c53f e519 3c21 ce9d cc3f
000007b0: 1fad 87ef 7d45 a53f fba3 2e91 2e39 7a3f
000007c0: 3495 e433 7056 a0bf 7bf6 2003 2561 bf3f
000007d0: 94f1 0b02 bbc7 a63f 5c67 2f01 99ae b5bf
000007e0: 2668 8e3f 9428 c8bf 2d3e 749c 0d4c c7bf
000007f0: 9517 19a1 5e17 c93f aa38 074c 6442 d3bf
0.1139153820723989 -0.1956992019348679 -0.06972463558849067 0.04940774505256345 -0.28261664745332843 -0.199735615620192 0.18956099942855492 -0.1994771930534493
0.17049774536247142 0.18489926051083344 -0.01624066769822031 -0.01916831466978732 -0.04823637278857831 0.07339558248219442 0.22902105726218383 0.19028488974368193
-0.07783287900219438 0.11746533989578004 0.018956045538159657 0.028639308273573878 -0.12520003824811718 0.136134880298846 0.05251237157698256 -0.013785768076187751
0.050437953108387085 -0.03246041285431406 0.25623289184090614 -0.027408954672419814 -0.1550696513013749 -0.06670351950007061 0.038541090941119995 -0.04253335490424109
0.20394010094446036 -0.09337082715891083 -0.3487270871319417 -0.08762058197177365 -0.17321186014175222 -0.13449660528515797 0.13297555348356 -0.08978776427293789
0.177018952202368 -0.11091166950169212 0.07806755299994825 -0.021347868736482298 -0.2048140885297371 0.07339967886165297 -0.05209605788994622 -0.17460533012706456
0.08103260394140772 0.16076583646089782 -0.05123667211410886 0.08056685259060412 0.257776390401237 0.00791545581620659 -0.014127714366396753 0.19290242623065942
0.30276094394541464 0.15349241378007147 0.2802690165350719 0.12217691267269497 -0.40772081497940527 -0.020912934021530813 -0.1856643129719559 -0.1901047729536055
0.27966488717419136 0.23306108965692524 -0.1617755715193492 -0.08682288517826037 -0.4411524986361839 -0.06303272360367505 0.14057654144864756 -0.2285581059350701
-0.053207342002455735 0.024088545385133598 0.21356294914821433 -0.053615110844049185 0.12803610955170353 -0.017176925714903032 0.0201692835565276 0.22537057976129216
0.06769859965513367 0.13978372833191094 -0.08041793948219178 0.16988163339469925 0.13348884004228379 0.10340142996950663 0.029787378690120256 0.16988635030340488
0.006024475060860234 -0.13996892827436858 0.09969470442531488 0.08506385101257989 -0.1623485852239631 -0.05751398921286703 0.016517546900000245 -0.20706291925157763
0.10674479032599149 -0.11348907962891665 0.0524645439637086 0.0013797327557064304 -0.039507454671533715 0.24312442892541136 0.02108236346572436 0.15859082796276075
-1.2467159734887882e-05 -0.17192323794516404 0.1951167462358839 0.028080464780002173 -0.24428239407014532 0.034881696689871934 -0.118248196219378 0.2652970804663189
-0.21001405836410375 0.04946290214342095 -0.10673087120918436 -0.09696259548011138 -0.09272248552376537 0.09907412033083002 -0.01480611163075915 0.1613451186545467
0.09209210141550149 -0.09047082738358884 -0.036897175464682914 0.0798001604011945 0.09252898957625025 -0.04704098017975421 0.03563546378545621 0.0589972935592691
-0.3634106146649861 -0.022104924984477445 0.32368224678653873 -0.011637971608156149 0.15460252697551893 0.17447010459958004 -0.13107438446525646 -0.12160259519571003
-0.0506589629547813 -0.029346280577515628 0.1542565905497724 0.29464838524058995 -0.12542036687356573 0.027910529886424975 -0.13469494213546734 -0.21608929383067105
-0.09516416319410755 -0.24513871816841207 0.032960123945133264 -0.030700784577454197 0.19445632557295206 0.14301464544173084 -0.02057627268368435 0.14822188771815295
-0.14218198466994925 -0.15321548013117056 0.17429999610742616 0.14590002794859866 -0.1024982009144684 0.017843847121771984 0.13731679368805907 -0.09105670362345654
0.030171323408859467 -0.23907059146503865 -0.06632735961802955 -0.1968719748664483 0.09147892414916206 -0.034433109463045744 -0.21452087116448448 0.1183601392056061
0.07456380982795573 0.20733935883619403 0.006579819927683651 -0.1689949926524674 0.021664011551868523 0.2472420793144299 0.20972272005018344 0.03874252656760796
-0.13404972281244418 0.1388759641283626 0.2675332069630573 0.16856209347691126 0.14054839387458684 -0.30452682000973114 0.17016158483050206 0.16775078778978636
-0.15042582838125165 0.07304598271998451 -0.082710849385434 -0.06918351295122513 0.10599078702953271 0.15544499063499717 -0.14192391919177172 0.31957037103874886
0.06360151788205562 -0.10189151127636803 0.05739410107414235 -0.09225866981082309 0.1801142974365034 -0.07842841635871013 0.27071215585063046 0.06198766412032535
0.003361712325031702 0.17350458399992005 0.29385095007979795 0.08486180289204984 0.12725121825114108 0.03323547626432961 0.03672052839567275 -0.03245745479018461
0.0448200852586211 -0.15929559754262917 0.03201092750176643 0.1204500986463707 0.17344618381790292 -0.09586715999421813 0.1793510795535138 -0.1182009383541453
0.00640597790780155 0.15887798522536323 0.19044706970964853 0.13233033561063298 -0.14078356864525007 -0.00635057277791654 -0.2568949255783479 0.08519976942606639
-0.19218554346726785 0.04584266105130369 -0.09516382624181376 -0.08810293002773556 -0.07159482330359496 -0.19696659540251377 -0.09247763180422214 -0.11632451219180222
-0.0021405873986046816 0.0001443495193359172 -0.16369197997550736 0.17300326555036422 0.0022225001565028485 0.07153923282616537 -0.16815195042586092 -0.08549369739707537
0.033543860401210136 0.11837795853117328 -0.16587589222520552 -0.05218234026866788 0.16904502576671368 0.2235658323554183 0.041545806397915046 0.006402189162067802
-0.03190947183092377 0.12257605863939063 0.04449257278426724 -0.08469539908346974 -0.18873837569555113 -0.18200845851286954 0.19602568498720233 -0.3009272329771969

layer1.bias f8 [128]
00000000: 1db8 416b 0bc1 c3bf 0c56 8a04 f5ca cabf
00000010: 389f 0d80 c7e2 bfbf 6060 c1fa 77c7 9e3f
00000020: f0ad bf54 5273 abbf 4676 4058 10dd c7bf
00000030: 58f0 6dc3 05c1 c5bf 5892 1253 f948 b8bf
00000040: e020 b77e ed4e bcbf f2cf 82fe 8c1d b33f
00000050: f8de 42a5 befd debf c661 3bc3 206f c03f
00000060: 7e07 9617 b900 88bf 1206 9774 b8f7 b23f
00000070: e816 7305 7f8d b43f ee5f f3ea f5f8 b33f
00000080: 530d 93d7 f98c cabf 5d81 beac ffa2 973f
00000090: cf96 65b8 9dc1 98bf ebe0 0459 fc1f bbbf
000000a0: 5b74 204b 097d b33f 313e 1058 51af 9cbf
000000b0: 9b17 015b ff72 c9bf bed1 f92d 7e5a cabf
000000c0: 54a7 1397 4e76 c8bf 7c23 7cda a248 c73f
000000d0: 9608 289c cda8 d4bf 23bd 59e6 71df b0bf
000000e0: 8ed6 96f8 35d5 c2bf 0769 ba78 99d6 c23f
000000f0: c0d3 ef4d b0e5 bfbf ae40 5f32 825a b33f
00000100: 98a6 17c2 fea8 b9bf e4eb 2ef7 3251 c2bf
00000110: 005a d44d 6f0a c33f e2e2 861e 086d 9cbf
00000120: dd42 aeed 4619 bebf ce4f 6b0f 28c2 68bf
00000130: eebf c615 e7b2 c7bf 74b0 7623 0af8 bf3f
00000140: 5859 778b 1f44 c83f d4dd dbd6 feb4 a83f
00000150: 14be ae09 4b3c c0bf cc61 f34c a42d b1bf
00000160: 96b9 585b 8469 ac3f 3f97 6785 8537 c2bf
00000170: adf4 1885 726e 913f 2438 79b1 fed9 c1bf
00000180: d953 0b3b 35b3 bb3f 4a6e 86be 3959 bcbf
00000190: 7763 5d83 ff16 c6bf cf51 7bba 0bcd bd3f
000001a0: c4f6 5dfb 4ad1 99bf 9782 55e6 3223 c33f
000001b0: 8ff4 dfb5 cae7 c3bf cb25 14e3 02b8 b7bf
000001c0: 5a55 5010 2241 c5bf d7c2 07c4 e9ce c33f
000001d0: e9be f6fc 043b dabf 76a1 c5bd 8726 bd3f
000001e0: a1f8 0c98 3ca7 c8bf 4053 755b ea69 79bf
000001f0: 114f 9648 2088 ccbf dbf7 e0fc 5606 c0bf
00000200: 8867 cff8 4f00 ce3f 853c 0d6e 9510 a73f
00000210: e8a1 2019 ff38 aebf d433 8d66 614d c23f
00000220: d61c 2f30 2d67 c0bf 0e28 6638 ba2d ba3f
00000230: 3a95 67a4 5fde 92bf 45c5 e0bc ad2e b23f
00000240: d32f 5480 34bb 943f 7b4b 2653 c815 c83f
00000250: f333 1f66 06b1 ba3f a8d3 4822 8b84 b9bf
00000260: 4bd9 6abe 1a14 c3bf a607 62d7 3b99 aa3f
00000270: 8c09 0bd3 bb98 b83f e0f6 2273 c9f6 96bf
00000280: 9b3e a10d abf6 ca3f 04d2 36aa 64f6 c63f
00000290: 415b 0bbc ac31 cabf bfbe edd9 3534 7e3f
000002a0: 5358 0541 b0a9 ac3f 4bc4 be31 d0e8 d1bf
000002b0: f8ed 12fd 4d70 b03f 3a10 6b33 bb97 b43f
000002c0: 4a92 1ea2 725b b93f c3f4 74ba 96f0 783f
000002d0: fb53 814a 86d6 b4bf 41c1 dcf2 e043 c5bf
000002e0: cf06 4d64 e041 983f 7d31 0c03 1312 bbbf
000002f0: 03a7 9f46 f1fe 653f 7f0f b089 90b8 c9bf
00000300: b7ef c017 453e a43f 3574 8352 166f c03f
00000310: db97 9e03 458a a0bf aec2 8f6b bbcc b63f
00000320: a11f 37b9 d2f9 b23f d201 ef28 a469 c03f
00000330: 9f45 0a89 7464 bd3f f549 fa9a f562 c0bf
00000340: 4a09 7023 2a58 adbf e486 2571 53f0 a53f
00000350: b49b 082b a9eb a53f 516b 4acb ab57 a4bf
00000360: 5885 f343 34f4 bfbf d120 9f62 0f25 ccbf
00000370: 3963 5471 0297 a93f f4e4 c4a7 53de c3bf
00000380: 0c63 3b82 053b c43f 464e 9d44 8ba6 c73f
00000390: 7566 ce2e d8bb bfbf a126 d71d d1c7 c7bf
000003a0: 86f3 41bd f291 aebf 6648 b47d ad19 cabf
000003b0: 7b1a e920 957f c0bf 9783 bf46 7664 6bbf
000003c0: e24d 124c 8bc1 b53f 8366 6e95 7ebc c73f
000003d0: 6f1c 609f 9d39 ddbf a83f 92c1 4d61 c43f
000003e0: c518 dd06 2cef c4bf 8767 f776 ddfc 7d3f
000003f0: 2a11 bac0 94f7 bfbf 73b0 bf52 f365 b9bf
-0.15432875382561032 -0.20931875917146703 -0.12455412746714678 0.03005778758992539 -0.053614209027582294 -0.1864338332097068 -0.16995307962850137 -0.09486349371088332
-0.1105793413509022 0.07466965879103762 -0.4842373479727793 0.12839135678110675 -0.011720129043854884 0.0740924152987861 0.08028406031652546 0.07801758752918861
-0.20742724443526103 0.023082728308169254 -0.024176086787881353 -0.10595681355778523 0.07612665256643096 -0.028012534141508453 -0.1988219446522493 -0.20588662381091
-0.19111044289393908 0.18190417926987468 -0.3228029274906786 -0.06590949891846214 -0.14713167799134336 0.14717405695848404 -0.12459852125887405 0.07559980134760977
-0.10023491133292806 -0.14310299939629012 0.1487559442545745 -0.027759672988142088 -0.11757319739104895 -0.0030222685266867227 -0.1851471763925469 0.12487853399096754
0.18957895574448957 0.04825588581837406 -0.12683999989302264 -0.06710268858603924 0.055492530966478146 -0.14231938375376704 0.017022885678888034 -0.13946517625521537
0.1082032460356709 -0.11073647405140111 -0.17257684625908684 0.11641000082756324 -0.025212451545931783 0.14951168295649062 -0.1555112255154296 -0.09265153926766982
-0.16605020329067594 0.154751988141945 -0.409852263484011 0.11386917479615541 -0.1926036589083582 -0.006204524477045947 -0.22290423912328852 -0.12519347522351051
0.2343845333951402 0.04504839867024039 -0.059028598611181426 0.1429864645710085 -0.12814869740234397 0.10226024510316753 -0.018426412972890584 0.0710247598770098
0.020245380718776417 0.18816474971807992 0.1042636870690357 -0.09967870318435124 -0.14905103967402974 0.051950330774175144 0.09608053114337717 -0.022425792362574692
0.21065271535416205 0.1793943244098416 -0.20464095289090703 0.0073740104261187924 0.055982120453948035 -0.27983479364326475 0.06421363285601689 0.0804402351887469
0.09905163248056073 0.006088818342786686 -0.08139838522886571 -0.16613399370681672 0.02368879902065296 -0.10574454140095742 0.0026850426120191852 -0.20094496462854392
0.03953758158647196 0.128390112199584 -0.03230491322692305 0.08906146408095125 0.07412449857576899 0.12822391508781422 0.11481407495218442 -0.12802000109930103
-0.05731326754177475 0.04284916645225481 0.04281357431710067 -0.03973137718749931 -0.12482000979391239 -0.2198809844542269 0.049980236372169924 -0.15522237483836643
0.15805119379981425 0.1847700200111026 -0.1239600290558885 -0.18578542668392564 -0.05970724640153606 -0.2039086211958107 -0.12889350993119195 -0.0033438024602081107
0.0849844990464628 0.18543989464233243 -0.45664158405310834 0.15921947433207362 -0.16354894957675561 0.007321229073079644 -0.12487153725857483 -0.09921189089044606

custom_layer.beta f8 [128]
00000000: 7229 0ea2 5fc5 dd3f d208 38cd edb2 f6bf
00000010: 6b8b 86a1 3aa9 0940 9a6e 4391 10f3 f13f
00000020: 78b5 ab43 84c1 e13f 1517 6100 293a ef3f
00000030: 6b7b 3243 e238 f53f 914f 3c3f 68b9 e2bf
00000040: 0d04 ce84 beae e3bf 2228 01d8 e877 d1bf
00000050: aca9 19f2 b666 f4bf ccd1 2506 dd7d f0bf
00000060: 82c4 69c1 4a91 f1bf dba7 e088 69be bb3f
00000070: bd88 8d4c d970 e7bf 1767 cdeb 180a 933f
00000080: 3f29 151f 5fdd f03f 30e6 ad89 15b9 b03f
00000090: f502 2ab6 f374 bdbf 7d01 d323 56a0 d43f
000000a0: c315 b6ed 10f0 e9bf ad06 815a 797a fa3f
000000b0: 3f7f 1531 4d14 fd3f 433e ae15 e4de 0540
000000c0: 9072 e734 048e c13f ee50 9678 1d39 da3f
000000d0: 5ab2 864c 5d1f d33f f9fc a8bc d1a6 cb3f
000000e0: 75d5 759d eed5 d5bf 829f 2ade b96d f03f
000000f0: 575f 2a84 ac0c f73f 1718 67be faa0 eabf
00000100: 660f 1cd6 d9b1 f5bf 9109 d997 55f3 d0bf
00000110: 4a7d 3129 db82 ce3f 0f5c 1b15 2abb f53f
00000120: 5094 175a c2ed abbf ba30 58c4 5b9d d23f
00000130: 24fd 363a 66fa d53f 0268 25e0 4b61 c13f
00000140: b937 7c54 076c ccbf 16d1 6842 d238 bfbf
00000150: b50c 5466 4f7e d03f d05d f757 439b f1bf
00000160: 027b aebe 7c7a d4bf e5fd 0cc8 8e4e d73f
00000170: 9893 218c 0cc7 efbf 1dbb 2c62 a5d1 e63f
00000180: 7c74 f73e 4963 edbf cedb 7ef7 f1da f23f
00000190: bff7 fb95 c9ec f23f a21e 4dcf d1a7 cd3f
000001a0: e457 3856 cd1c e43f 7048 66b1 16f4 ec3f
000001b0: 1bbf b5be d38d c6bf 3396 3ba2 8457 f43f
000001c0: b279 05b2 2a22 f6bf 0485 ef5b 96fa e4bf
000001d0: 1359 8e22 fadd ff3f db73 0501 34b9 ddbf
000001e0: c9cf fece 16e6 f93f e5ae 59b6 d9bc 92bf
000001f0: ddff 3b6f 42a5 e2bf d0af 6c17 fb4e f03f
00000200: 187c 85c8 a285 f23f f615 5684 2380 eb3f
00000210: 250b e234 5182 03c0 8b0b fc8e 3edc c73f
00000220: 6823 0f79 5853 d23f c1c3 3c63 cdb0 f8bf
00000230: 8697 e989 3fa7 f3bf dd40 a8c9 701a dcbf
00000240: a999 9329 6b72 d13f b190 5d08 481d d3bf
00000250: 558c 2fd3 2bea fdbf c6c5 1307 b933 e7bf
00000260: cded f249 da62 c93f f35d 448c 164e f4bf
00000270: 3d21 2d1d e14b d2bf b13f 6cc9 cc09 d7bf
00000280: 8fe7 b6d3 5a99 f13f 0c9c fe2c 4948 e23f
00000290: 42e6 beca 3af4 f8bf 9aec d2f9 07d7 cd3f
000002a0: 5532 984e 2bd5 c3bf 402f aa4b 527b f43f
000002b0: e571 3ebf 8b8a df3f e725 b312 4c75 eb3f
000002c0: 479a 0db1 f8d3 c4bf b677 7102 d876 f43f
000002d0: 5f57 6d46 5c72 e8bf a66b 98a7 d922 df3f
000002e0: 8a31 11f6 94c3 c73f 4521 40d8 ca88 f6bf
000002f0: 3c3c f234 ae3d e8bf ef16 d1f6 cc57 c1bf
00000300: ed25 5c25 aaa5 b4bf c85c 1f91 4ebb f8bf
00000310: a0c1 0976 b507 b2bf e7aa fa9e 145e e93f
00000320: 352e 90f4 e904 eabf c0a3 e6cf 8a8d c53f
00000330: 7080 ffa3 ca24 c0bf 13dd 7418 3034 c73f
00000340: 7252 ba0f 983a d83f c50b 0f9e 0ad4 96bf
00000350: df51 1aa7 bf09 f7bf bf6c 4837 07fc d2bf
00000360: eaf4 20cf 4b2e fabf e239 9432 c513 f0bf
00000370: d1fe 6943 1572 f5bf bd6e c745 d007 c0bf
00000380: 82dc 0e78 e676 e7bf 2a76 de72 fb71 04c0
00000390: a986 5243 9e2a f3bf 8e43 aa62 fccf f2bf
000003a0: 1ae9 7e3e 4325 d23f 398b 4338 fae2 ddbf
000003b0: 6641 5e88 cbf6 da3f c821 5d55 35d1 dbbf
000003c0: bd33 ca3a 31e5 e33f 646c c8fd 5617 f33f
000003d0: d4e6 c5ac b9f2 02c0 bcc3 8f38 9e3d e1bf
000003e0: 6b41 f691 1bea f1bf a08c a580 1081 e33f
000003f0: 93f7 7b06 0c66 b63f 4b04 5ace 01d9 be3f
0.4651717264720424 -1.418683816562908 3.2076313609299425 1.121841971812421 0.5548726388639542 0.9758496291549102 1.326387655724569 -0.5851327166624164
-0.6150810808031807 -0.272943697873986 -1.2750768143692808 -1.030728363051014 -1.097971683044563 0.10837421027886711 -0.7325254912541578 0.018593205826028383
1.0540457929769926 0.06532415973006134 -0.11506579587331685 0.3222861623617275 -0.8105549471662744 1.6549008879959886 1.8174564282744112 2.7338334745216186
0.1371464975662957 0.4097360303505998 0.2987893340421458 0.21602842056197583 -0.3411823785493973 1.0267885855082288 1.4405942118373412 -0.8321508139422374
-1.355920635572113 -0.26485194996725975 0.2383684111727951 1.35819442982552 -0.05454833364255107 0.29085439848200745 0.3434081619743259 0.1357817501510113
-0.2220467722440256 -0.12196077462505558 0.25770936005592243 -1.1004060207541109 -0.31997603055235413 0.36416978393751115 -0.9930479752480208 0.7130915563082884
-0.9183698873345203 1.1784534137529934 1.1828094347724656 0.23168394682055743 0.6285158809648661 0.9047959770998784 -0.17620322048195977 1.2713667237488948
-1.3833414987526393 -0.6555892749421735 1.991693625435407 -0.46442890262352216 1.61867409570276 -0.018298532252102446 -0.5826732800051065 1.0192824282666955
1.1576259453647761 0.8593919357960533 -2.4386314517481815 0.1864088247458223 0.2863370115488153 -1.543164622922845 -1.2283320796209138 -0.4391138047512991
0.27260855732165595 -0.2986621934599141 -1.8696707009737754 -0.7250638139941479 0.19832924471653116 -1.2690644721204734 -0.2858813080715839 -0.35997314138603104
1.0999401350113407 0.5713239554214637 -1.5596263808969444 0.23312473009523133 -0.1549429067385001 1.2801077800422291 0.4928311698547801 0.8580685010176098
-0.16271885533497452 1.2790145965040955 -0.7639600158242777 0.48650208822953755 0.18565618529318 -1.4083965728078323 -0.7575293573480688 -0.13549196292495178
-0.08065284168346638 -1.5457292240951563 -0.07043012744703114 0.7927344422399444 -0.8130998398423289 0.16838202620900056 -0.126122789456534 0.18128014749684293
0.37857629333419773 -0.02229324903215592 -1.439880039925917 -0.29663257979127516 -1.6363027659384053 -1.0048267341368207 -1.3403523095475303 -0.12523845107249612
-0.7332641930469352 -2.555655381597508 -1.1979048375873538 -1.1757778028588493 0.28352433302974733 -0.4669786023570626 0.42131317441182714 -0.4346440633421733
0.6217275760878845 1.1931981957812008 -2.3685182092566297 -0.5387717346876495 -1.119655199207126 0.6095049393301402 0.08749461324984358 0.12049876487618964

custom_layer.gamma f8 [128]
00000000: 58d1 774a 3b73 e13f fec7 42fb 2592 d83f
00000010: f4c3 d23f 9fb9 edbf f5a9 437a be30 dfbf
00000020: 983f ac9e 502f b6bf 287c f066 76da ffbf
00000030: 2bef 2693 988c c3bf 330a 8cd0 8c82 fcbf
00000040: 63c4 640f e4bf cbbf 88d2 2d83 eb44 d6bf
00000050: 6701 fc76 22bb ecbf d7da 7ac9 25a6 f23f
00000060: f93c c13e da1f e03f d1ee 5d53 2d16 e7bf
00000070: 0348 f441 7e6f ea3f 9d6c 711d 073c f0bf
00000080: dc0b a905 18a5 f73f afaa a296 6e2f ea3f
00000090: 51fe 7659 6072 eb3f 77c9 3653 eb2a c63f
000000a0: 8ed6 f11f 4269 e1bf a3a2 c278 2b80 d2bf
000000b0: 25d3 0a9c d871 efbf c72b a476 15e1 d63f
000000c0: 34ed fd0b b84b d83f a893 b74e 9f1e dbbf
000000d0: abd5 4b82 963e fa3f 72ba f0a5 8932 e53f
000000e0: 5d4f 96ad 1ca8 e9bf 5446 b770 5c09 e53f
000000f0: 3963 fec2 f5d5 d9bf e8e9 ef45 5104 c7bf
00000100: a3ec de5b d5de de3f e00b 2299 ed0f debf
00000110: 1a23 892a c659 f6bf b3f5 8795 86f5 ed3f
00000120: de4d c983 3789 e1bf ca3d f8d1 a3d7 0340
00000130: 235f 647b bf74 e6bf d6c9 4dda 8062 0540
00000140: 651c d0c8 1dfc 0240 f515 82d6 6815 d03f
00000150: 5485 4131 6b9b f6bf 1ab5 8fc2 7ff1 f53f
00000160: 24df bfb5 8654 f8bf 4af4 5447 e8b3 d03f
00000170: 6cf8 8c2c efcc 0a40 872e 3ee3 5504 e13f
00000180: 42fe d69b 9cf6 fb3f 80f3 2424 89a4 f23f
00000190: 9497 941d 7a6b d4bf c2c0 166c 4876 da3f
000001a0: 8c8a af5c fc4b e23f 415c 400b 2485 b0bf
000001b0: 2db2 6c34 5032 d23f 8642 48e9 b745 dcbf
000001c0: 7b0d a2f2 1ec1 e2bf 1cb3 a4b2 c520 dfbf
000001d0: 166d 6281 47bd d0bf 0567 3dee 84e6 f6bf
000001e0: bc87 ee3a 78f8 ea3f f9d1 1baa c33e e03f
000001f0: 8db9 d186 f66b e4bf ec51 288c 18bd f0bf
00000200: ba80 5758 26c9 f3bf 410b 7920 983d f93f
00000210: b67c 1739 d50d c33f d827 92a3 823e e03f
00000220: bf3f 226c 1793 ebbf 725d 94ac f0f6 e1bf
00000230: c38e bdac 4299 d33f c1a9 adae 68bb c73f
00000240: 8f09 7163 c177 0140 bec3 6691 3046 dbbf
00000250: 72c5 c4f4 fc5f f0bf c26c 345c ea47 de3f
00000260: 9a19 c627 0cbc f4bf 34a1 c0da 0603 f13f
00000270: e7b9 f8e9 94f1 e53f 067e 88dd 37d5 bd3f
00000280: 240c 8e37 a796 ea3f 2608 51ab 7866 d53f
00000290: 7060 16b5 c6a5 9bbf a7d0 3ca9 9054 cbbf
000002a0: 7ce3 105c f155 f03f c835 9401 bc1c 953f
000002b0: ee61 bf33 e33a e6bf 7f31 d8b4 0c42 f03f
000002c0: 5051 db12 2fda f13f 8703 1c5d ba8c d3bf
000002d0: 94b9 7e3c 8c40 f03f 46a4 81b9 6584 cbbf
000002e0: 69a0 f355 02d9 e83f d623 ce1d 07db e8bf
000002f0: f5a3 f434 429b e63f 4f42 892a fa0d bebf
00000300: 9b26 fedb 60c8 cfbf 7741 7bd5 7cf7 d53f
00000310: 0ea9 9ba2 20dd fbbf 7c8b d6cb 67f1 f73f
00000320: d73a 8c95 20da f13f 07d2 a244 76e4 dabf
00000330: 403e 035a b3c5 f33f 889e ecbc 9a6e 0140
00000340: 3f91 96fb bcd2 f1bf 0ece dd03 74e3 fbbf
00000350: a132 473a d08b ec3f 4991 2857 0203 d43f
00000360: 49ca 17b9 5d09 c4bf 978b 80bd cf5b d53f
00000370: 3631 5b35 2926 f33f e5fb d629 fd19 f8bf
00000380: 8a66 47cb fcf0 f0bf b407 0d88 9b57 f33f
00000390: 061b 9c8e 04ff d73f 1135 81d7 b0bd a9bf
000003a0: fad4 64a5 e56c eebf 89d4 4bf4 6d09 e83f
000003b0: de4e c767 bee7 de3f d6f1 94aa 7a45 fb3f
000003c0: 3f7f 806c 8dfe ea3f d805 ac33 817e d53f
000003d0: aad0 70a0 f593 02c0 fdcd 859d a139 f23f
000003e0: 6e7e 1091 2729 eb3f 2cca 5255 c702 e8bf
000003f0: 0ddd 35c3 d70b d53f 9442 9a9e 2bf4 f63f
0.5453163580373639 0.38392018830484165 -0.9289089438008191 -0.4873501008975432 -0.08665946840142025 -1.9908355732984635 -0.15272814927254194 -1.7818725725525268
-0.21679354430810624 -0.347956541161047 -0.8978435825265877 1.1655633802708303 0.5038882470779803 -0.7214571598301182 0.8261100090187486 -1.0146552229041739
1.477806112394993 0.818290037355231 0.8577119586333969 0.1731847912138382 -0.5440989135665448 -0.2890728644656894 -0.9826472327900758 0.3574880274397256
0.3796215169056325 -0.4237440365525864 1.640280255288739 0.6624191514036524 -0.8017714872716898 0.6573927117808105 -0.403684082435166 -0.1798192588319829
0.48235067340619703 -0.469722175163211 -1.3969175015974487 0.9362214012650639 -0.5480001043273963 2.4802929309732678 -0.7017514619828699 2.673097329615511
2.3731036842832958 0.2513067335897568 -1.4129440235195334 1.3714597320607198 -1.5206362819280423 0.26098067251206614 3.350065563251567 0.5317792356813279
1.7477079474919184 1.1651698505295087 -0.31905987633433 0.41346941524080816 0.5717756090419512 -0.0645315673321969 0.28432088012303575 -0.4417552736422653
-0.5860743273664605 -0.4863752598346751 -0.26155269274905046 -1.4312791162723795 0.8428307677279387 0.5076616594729436 -0.6381790764988168 -1.0461659884359689
-1.2366088343479036 1.5775376575918048 0.14885964667971557 0.507630652880148 -0.8617055046070091 -0.561394059247432 0.3062292754095603 0.1854067662164436
2.1834743279334314 -0.4261590404449257 -1.023434597136966 0.47313937191365707 -1.295910029760853 1.0632389588373146 0.685739953017955 0.1165347019054864
0.8308902821594342 0.3343793557179445 -0.026999573519419007 -0.2135182215075748 1.020982131607723 0.020617425533648676 -0.694688416547306 1.0161253990400778
1.115767549189588 -0.30546435444562586 1.015758739765805 -0.21497794683389965 0.7764903715842709 -0.7767367918141825 0.7064524683274828 -0.11740077532272973
-0.2483025621589164 0.3432304463176687 -1.7414862014653099 1.496436878435559 1.1157537309369923 -0.4201942129396063 1.2357667461509578 2.1790060767851323
-1.1139497592603929 -1.7430305624992601 0.8920670641178569 0.312683663478556 -0.15653583085766545 0.3337287283522356 1.19681664316438 -1.5063449510923814
-1.0588348332006796 1.2088885607231363 0.3749400513337807 -0.05027535086319735 -0.9507930975293271 0.751151063099898 0.48289451727508304 1.7044626868583825
0.8435732955149219 0.3358462338074708 -2.322245839541286 1.139070144007632 0.8487737496652252 -0.7503391901466947 0.3288478285171131 1.434611911336252

layer2.weight f8 [128, 128]
00000000: c626 1196 de72 b2bf 6cf8 dd30 8186 ce3f
00000010: a3e4 1121 3dbb ba3f d07b b744 7934 b6bf
00000020: 2908 feda c246 c0bf 700c daae 7dad 933f
00000030: 2b5c d5e7 0920 57bf c897 9d66 43c7 ae3f
00000040: 9fc5 d500 3fa1 c3bf 41d8 9400 fa39 8b3f
00000050: 6aca f426 9d8a 9fbf d1f1 5dc2 a929 c5bf
00000060: 0703 893e fec9 c63f ba54 483c b51e b13f
00000070: fe7a a6e0 d227 b0bf 3126 2321 fa2b be3f
00000080: 7e31 f44a b63b b73f 3b64 20ee 465e bebf
00000090: b599 d910 7508 aebf 0920 163c f273 8f3f
000000a0: bc0a 0191 10f4 ad3f 50e2 c088 0f70 aabf
000000b0: 8165 b1ee 1696 95bf 4c88 dca9 72f8 bd3f
000000c0: ae00 28d1 4457 a6bf 0a05 a892 227b c63f
000000d0: 87bd 1adc 5ce6 72bf 84f5 ec29 798d 87bf
000000e0: 44f3 2fc9 978c b7bf 42e2 9d2f 5497 c53f
000000f0: a4d4 65f2 801e c43f efc8 25ae a1ea a63f
00000100: 1093 1f25 d564 cbbf 4d89 547f d5a5 a2bf
00000110: 9698 a9db 0a9f ab3f 79d2 6284 5a7e b33f
00000120: ad47 d4b0 b5ad acbf 4ec9 2f1e 7664 d7bf
00000130: 3e68 679a d631 943f 1ec5 d988 3a6f b2bf
00000140: 8910 49af a2ab 993f 71c6 81d3 2c37 b23f
00000150: 0620 135c 4882 babf ba67 5546 41ed b43f
00000160: cb43 c95e 0937 cbbf b392 b62f 8d83 c33f
00000170: 1fff abbe 3574 d43f 01b3 f1eb 24cc aabf
00000180: 5343 30d8 1613 d5bf 25d6 3307 9c48 b6bf
00000190: 89ce fc42 35b2 a1bf bff7 8dfa c548 c03f
000001a0: f6b5 dc00 ac1a a8bf 435f 9ff7 3cec bf3f
000001b0: 28a4 99a3 e98d b73f c018 cbf3 9ec5 843f
000001c0: 12ea f481 cfbb cd3f 54c9 4753 6625 9bbf
000001d0: b9ca c772 5081 943f e46c da5b 0498 383f
000001e0: 9e7d 7f78 c54d cb3f 319b e77a c731 c33f
000001f0: f81a 436b 2535 913f fe28 9186 88a5 cf3f
00000200: 92b4 c809 3b91 ae3f 8754 0a06 7a3a 9ebf
00000210: 3ef6 b28e 6819 a83f 9560 5068 40c1 853f
00000220: c7c4 b790 9ad2 813f 2efb 29c2 b88f c3bf
00000230: 48c1 b316 3944 c6bf d614 5b16 55a2 9cbf
00000240: a508 27f8 108d c63f f0cf a330 4996 ae3f
00000250: 380c 8307 3742 bebf 51a1 072c 6522 8a3f
00000260: 2d28 bf86 5e33 823f 90a6 5a29 b487 813f
00000270: 0fda 3cbc 4674 97bf 4b52 2097 be42 b03f
00000280: 295a 6f79 6137 9cbf 392b 78e9 33d8 c33f
00000290: 1445 fd9d 1c48 b53f a61e d55b 3471 b43f
000002a0: 4573 8bd1 a136 b8bf 0fd2 e2ed 0eda c6bf
000002b0: b36e 42a2 e182 b63f 17f7 33dd 8044 c43f
000002c0: ada4 8a6a e288 9fbf c08b f379 3a3e 9c3f
000002d0: 6d3c 27b8 8764 94bf 914d 7d70 9c6c 313f
000002e0: 4f08 805c 90b6 89bf 71bc 1b61 602a 7a3f
000002f0: 193e 3b12 7253 ae3f 6c7f cd65 4c34 c0bf
00000300: 7a5d e28f b182 52bf f554 f8f8 5051 b0bf
00000310: 943e 3807 0e07 a2bf c8f9 0507 6465 b1bf
00000320: d5dc 0af9 8d75 cbbf 16a4 396a 8f90 bdbf
00000330: 9797 47a5 017f acbf bd0f d8c1 f341 80bf
00000340: bb9c 7ce5 e7f6 b0bf 9b48 1207 60f9 833f
00000350: eab5 b2b0 1f47 babf 548a bdef 193b 923f
00000360: 0b1e 0561 0c0a a6bf e9b5 330f 2fff a0bf
00000370: 4605 a066 60b1 b7bf cca7 362c 6fe3 b63f
00000380: 881c 0aed 4eb5 663f 5227 b437 d3a9 c6bf
00000390: e6d2 7c82 b50d a1bf f8bf 5399 893b ae3f
000003a0: 97d8 1f8f 9059 ae3f 96a1 b855 7b93 c23f
000003b0: 1066 7c98 3e43 973f abc8 5e95 d0ea 90bf
000003c0: 6a73 9145 7e3d b9bf 27c3 3b85 cd4a 8c3f
000003d0: 4649 4bcd 0bf9 c8bf 186f 7771 6a30 b53f
000003e0: 8a58 ad68 e560 a03f 5ddc d1cd 2053 a63f
000003f0: 810d fdd7 c6b8 943f 8171 b4e9 a86b bbbf
00000400: 976d 3b65 ca89 ad3f d3c9 dafa 9403 9dbf
00000410: ff8c 11c8 eea4 a13f 128b 5375 d7ba b0bf
00000420: f246 1c6d 9e15 8fbf d0a5 f108 b520 9d3f
00000430: 6178 5679 ba64 a3bf e051 22f8 0d0a be3f
00000440: 61e4 9286 3687 a1bf 8813 79b5 7535 a03f
00000450: 0e55 fd06 adcd a03f bbe1 22d4 6ac2 9cbf
00000460: 1dff 56cc 5428 93bf 24c6 233e 0400 883f
00000470: 9913 80da 30a3 973f 776e f7b6 a792 7f3f
00000480: f03f 4451 c788 b4bf e857 d1cd 3472 abbf
00000490: b89d ab3a 3cc2 aabf bb49 b5c7 ddb5 65bf
000004a0: b99a cf01 a422 af3f 453e c452 34ec 9e3f
000004b0: 4904 cde1 b720 703f a534 38ca d57a 85bf
000004c0: 2172 bdc7 7347 8e3f 06d8 ae13 1dde 87bf
000004d0: 8243 9bd4 d439 c03f 72a2 b620 e3e3 a23f
000004e0: cc2f 9f86 1fc7 81bf fb3f a165 e494 b0bf
000004f0: 5832 4afc 3cbb a0bf 7b14 ba7d 3b95 7f3f
00000500: 0ae5 46fc a170 b2bf 5427 734a e2be b2bf
00000510: d1e7 a267 13f6 b4bf 7a7a 702c 861c 99bf
00000520: fbdc 3319 b4e0 8c3f f0a5 ea15 fa57 c63f
00000530: dbbe 2992 38a9 a7bf d298 0932 a603 c8bf
00000540: a51e c383 dc6b 99bf ab21 e5b1 ccbb b2bf
00000550: a222 3100 2e2e b0bf a90f 63fe 5614 b83f
00000560: 6a45 a617 9fc4 9f3f ede1 9c94 3a51 a13f
00000570: 2c8b 56ea 3183 b03f 6cf9 d970 0d30 9ebf
00000580: 34b2 ae00 c748 a4bf 73ce 2a73 5a13 c63f
00000590: 922e 972e 98a3 b3bf 84bd b665 7bc5 97bf
000005a0: a048 1a18 365f bb3f 330a 5dbd a80b a33f
000005b0: b064 712a 3bdd b4bf 6494 ca42 9b8b 8dbf
000005c0: 53ee 74cb d84a a93f deb6 1344 544f 96bf
000005d0: 38d7 4291 4a80 a53f 108a 33e5 1969 b23f
000005e0: 8b3f d520 2762 b13f 3f14 ffc3 f009 b2bf
000005f0: ed3e e15f 2580 73bf 0eb0 b89b d14e 973f
00000600: 17e4 f380 a68a a63f 314a ea2b 3e02 c2bf
00000610: f538 19f1 0b43 a73f 3838 f06d aeba b73f
00000620: 294b eeda d987 a1bf 43b5 da59 8e05 b4bf
00000630: f043 e8d8 4fd0 b23f 71d7 8455 a735 873f
00000640: 7d4a c5b4 d29e c0bf 3772 510f 0a32 a3bf
00000650: 9da0 063c 3f70 6a3f dfd7 1cf5 432d 83bf
00000660: d82d a60a 44a3 713f 1bd1 3c5f 9ddb 79bf
00000670: b248 3538 afde c0bf 13fa 4443 7961 753f
00000680: c625 808a 8f5e b13f 6c05 1298 c0f2 abbf
00000690: 0955 f87d a5c1 5dbf dc9f eca6 1efa b23f
000006a0: f0d7 9b7f 50f4 4ebf 8bb8 1cf7 730c b5bf
000006b0: 86e7 7ac9 920e 96bf 0297 8237 75a1 a63f
000006c0: 111c 2dbc a8a7 a9bf 251b 963f f291 963f
000006d0: c38c e1b5 0b0a b6bf 8c18 cf21 5ddb ae3f
000006e0: b0b7 5db7 0c25 b33f 175b fa5b 9acd a2bf
000006f0: 9932 82c9 d95e a3bf 479d 91a7 827c 993f
00000700: 6154 ed53 e32a b0bf f97a 38a9 9203 af3f
00000710: f9e0 18e2 d1b9 bf3f ee56 9dcc da12 85bf
00000720: 616c ef32 9165 6b3f 8a9f 32da b9d5 b1bf
00000730: d973 2f5a 3e07 93bf 7909 1456 29ff a1bf
00000740: 7e8a 6ba3 4875 a1bf 551b 5397 e67b b2bf
00000750: 2190 dca5 35d5 693f 012b 6e7d 9518 9fbf
00000760: 890c 89b1 4d98 8cbf 84d8 8821 3bb5 b4bf
00000770: d8fe c891 9ec7 b2bf bf90 3c01 4305 b83f
00000780: 67b3 7f3e 04bb 95bf 7bc0 62b4 26fc b73f
00000790: 19f6 7b6d 0b3a bbbf 8265 2297 8558 903f
000007a0: 2a93 b560 c7c3 bb3f 31ab dac5 10d7 943f
000007b0: 1dc0 fe58 34a5 c13f 300f 9a5c 8597 663f
000007c0: 6876 e20c e23e b23f c4a8 a16e 31b3 a93f
000007d0: b44b 6ba6 2780 9fbf 2dad a7ea 22c6 a13f
000007e0: c1d9 a7bc 1954 803f 27d1 1c45 f23a 92bf
000007f0: 75ad 2475 1b6b b7bf 92e5 0dcd 3dff b3bf
-0.07206526912446085 0.23847975622260564 0.10441953713770373 -0.08673818519262899 -0.12715945904716477 0.019216502949813863 -0.0014114472135895544 0.060114008213346504
-0.15335834065221562 0.013294175284141231 -0.030802207472513755 -0.16533395758223304 0.17803934148289377 0.06687481614820259 -0.06310766205431759 0.11785853680626059
0.09075488405159679 -0.11862605394016239 -0.05865827398956772 0.015357868632023057 0.05850269098347868 -0.05163620514253309 -0.021080358809148606 0.11707226416595623
-0.043634558231134477 0.1756327835173937 -0.004614222272422259 -0.011500307647674964 -0.09198902761268096 0.16868069005046676 0.15718089900807286 0.0447588467676655
-0.21401466667807556 -0.036421462815513374 0.053947772325771456 0.07614675266342798 -0.056012800059888825 -0.36550667713085694 0.019721368002002963 -0.07200971451836266
0.025068799923488903 0.07115440524810325 -0.10355045555036221 0.08174522368554352 -0.21261708381874053 0.1524521334623806 0.3195928918867014 -0.05233874683549367
-0.32929011451874607 -0.08704543281404449 -0.0345627445480235 0.12722086652860118 -0.04707849035763083 0.1246984581515536 0.09200916523117597 0.010142556967718597
0.23229402394811466 -0.0265098560648281 0.020024544721261892 0.0003752718583684546 0.2133108938569252 0.1499566412087119 0.016804299041520004 0.24723917551666114
0.05970177168306025 -0.029519945734666677 0.04706885091716771 0.010622504409227221 0.008702476064146215 -0.15282353859580539 -0.17395700081352516 -0.027962998857010778
0.17618000141925907 0.05974034041165044 -0.11819786008258937 0.012760916143591901 0.008887041556494857 0.008559615623499967 -0.022904496420972417 0.06351844014745571
-0.027555010830690705 0.15503548526643288 0.08313158852731234 0.07985236398701065 -0.09458361974561764 -0.17852961173561296 0.08793459140218367 0.15834055710723113
-0.030795610192090695 0.02758113259632089 -0.01991474210245452 0.00026587313958722445 -0.012555244276885839 0.006388069612270107 0.05923038933326214 -0.1265960213740941
-0.0011297925953267216 -0.06374078825350067 -0.03521007383471644 -0.06795334979503942 -0.2145249811198712 -0.11548706382167526 -0.05565648214887558 -0.00793829379382049
-0.06626748421386967 0.009752989021113037 -0.10264776290815517 0.017803578622429164 -0.04304541286779447 -0.03319689808436605 -0.09255030160422448 0.08940787152701474
0.002772001411645745 -0.1770576498022885 -0.03330771654001356 0.05904798504514014 0.05927707430957801 0.14512578664404135 0.022717454964640338 -0.0165207472961774
-0.09859456251565538 0.013814550045454134 -0.1951002838528188 0.08277001638583348 0.03198925879284882 0.04360296738098477 0.020236117298976012 -0.10711150842366203
0.05769188390487583 -0.02833397656531551 0.0344614619468988 -0.06535097708141915 -0.015177953438555634 0.0284450804432817 -0.03787787181066516 0.1173409205242204
-0.034234718253579606 0.031657865908107985 0.03281918249437342 -0.028085393140573105 -0.018708538982308832 0.011718781610826907 0.023083461128425495 0.00770822061118858
-0.08021207555816523 -0.053605699657665984 -0.05226314750853639 -0.002650197185780826 0.06081116220575695 0.030197923232718322 0.003937452592084397 -0.010488195642233864
0.01478472188289809 -0.011654116786171908 0.1267648733251257 0.036894891494118634 -0.008680578513938907 -0.06477191430280975 -0.032678514287088845 0.0077106784698389675
-0.07203113946060938 -0.07322515790579348 -0.08187981872734375 -0.02452287336574919 0.014100462931749371 0.1745598418249723 -0.046212928621455616 -0.18761136477696155
-0.024825521032453186 -0.0731780943216395 -0.06320464615522295 0.09406036100977978 0.031023488825274205 0.03382285179253928 0.06450187655586309 -0.02948018075266516
-0.03961774714784774 0.17246561644934708 -0.07671500337090212 -0.023214271624679053 0.1069215592235957 0.03719832717481033 -0.0815007189388719 -0.01442643449383691
0.049399161182432615 -0.02178699174412812 0.041994409782473985 0.07191621633277401 0.06790394355379996 -0.07046417985027718 -0.004760881418476731 0.02276160729358883
0.044026568642898826 -0.14069344658180818 0.045433400326702435 0.09269228157083453 -0.03423958585258042 -0.0782097787257117 0.07349108739460042 0.011332804963426675
-0.12984689547245756 -0.037491144533053626 0.0032273516701089703 -0.009363680761094116 0.004306093013279853 -0.00631295655675881 -0.13179579014337645 0.0052199112727167206
0.06784913188325623 -0.05458642822578494 -0.0018161884435177764 0.07412902427006379 -0.0009446518954223642 -0.08222126753818963 -0.021539968058938118 0.04420057585347871
-0.05010726258347387 0.022041115885737334 -0.08609078588920042 0.06026736295420773 0.07478408314429319 -0.03672487614419689 -0.03783302864858235 0.024889031865680946
-0.06315441893578246 0.06057413402253604 0.12392913598967316 -0.010289868707029606 0.003344329444627856 -0.0696674497327178 -0.018582319502332332 -0.035149852521516096
-0.0340979289519696 -0.0722030753559982 0.003153424054191959 -0.030367217808399797 -0.013962370853852117 -0.08089036530222599 -0.07335845050055967 0.09383028774442702
-0.021221224131227425 0.09369127181958163 -0.10635444090799985 0.01596268401099144 0.10845609770838097 0.020351659847317186 0.13785414071526328 0.0027577976914602495
0.07127201857152843 0.05019525981409026 -0.030762309582154493 0.03471478571358442 0.007972909040273703 -0.01780298754529599 -0.0914780770296398 -0.07811342483718978

layer2.bias f8 [128]
00000000: 907e bd49 736a af3f 5226 4e0f 3acb b13f
00000010: 99c4 06f7 febd 7e3f eb87 72d8 7f03 a2bf
00000020: d3f5 f16b 1629 a1bf f403 6beb 9b6d b93f
00000030: 9961 9861 787d 83bf 65d5 7d32 19ce c53f
00000040: 48ff 379a e323 d23f 4d96 659d 4b00 a2bf
00000050: 7bec 23fc c276 cb3f 4c6f fbb1 ae63 9c3f
00000060: 610e fe43 3183 a03f 2256 eee6 6158 b73f
00000070: 8779 9774 b4e3 ce3f a43e ed47 a758 b73f
00000080: dc3c 7106 d418 bb3f 1244 3e82 ab6d 903f
00000090: 7f48 359c 24e2 ac3f a584 e32c fc20 853f
000000a0: aa02 fe5b 6763 a73f 9a69 0db6 c842 bc3f
000000b0: da03 424c e8ea a53f 795b 8cf7 6ad2 abbf
000000c0: bd8b 8b01 f494 ae3f 95dd e025 eb24 b23f
000000d0: f3d4 db8f 3d9b 6cbf 38fa 6616 849b 9e3f
000000e0: 2b45 0f6e f4be 75bf 25cf dbe1 b8c4 cabf
000000f0: b053 d856 705d abbf 1396 ee60 9fee b1bf
00000100: 1498 4ad8 c8f8 933f acfb 5ed4 39e0 94bf
00000110: 89a6 8dd9 ec3c 81bf f615 7c27 6034 92bf
00000120: 423b ee5b bb9a aa3f 9b5e 3bb9 a0c2 73bf
00000130: 4061 da11 4695 8abf a139 adae c6c9 b3bf
00000140: faed 8b6b caa9 b4bf 4633 5d66 b8f0 95bf
00000150: 6ebb f4f3 52a2 bc3f 7433 31eb 53d8 adbf
00000160: 5857 435c 0371 ba3f 0658 21f1 69fc 8c3f
00000170: 25a2 9738 7f1a 923f f6a3 fb3d 1e93 b2bf
00000180: a624 b2cf dd48 a23f a9b2 6852 0fa2 8fbf
00000190: 9148 09d8 e9e1 a5bf 5e50 80ef 7ed7 b23f
000001a0: 6169 2942 d18d cc3f 2e86 0f2e 37be a73f
000001b0: 260a 310e a1bb 9cbf 8b20 0e66 ed8d 83bf
000001c0: 8897 e761 c145 d13f e132 78ac 56ec a3bf
000001d0: 7253 bfe5 bca4 c03f 7c2e 4fda 9327 abbf
000001e0: 5ab0 2aa5 48b6 b1bf 1db8 5888 1e16 a73f
000001f0: 82e4 55f5 5e61 a5bf fdf4 5b87 ba5c a23f
00000200: e00f ff4e 6717 a43f 2b8a 6e86 80a3 aa3f
00000210: 8da7 e8ad 8fe3 a9bf 14ec f60f 90e0 d33f
00000220: cef8 523b 3b11 ac3f 0c48 4b5d c5b3 a9bf
00000230: a5a3 9ee9 f8cb 76bf 6351 d423 8c03 b3bf
00000240: cc15 6830 fdf2 8b3f ec98 1221 ded7 a03f
00000250: f8e5 df6c 314d 71bf f56d da9e ebd2 ae3f
00000260: 37f7 4f00 5d77 bcbf 245f 0754 ac12 b33f
00000270: 0e05 39ed 355f 7fbf 24a3 50c2 5510 a4bf
00000280: 54f5 be2d 85c8 cdbf cf12 c5cb 0889 b33f
00000290: 5513 a778 bc1c bdbf 56b0 36d9 66be 9f3f
000002a0: 20e2 be1f 2bf9 a7bf 82ff 8499 5e25 b2bf
000002b0: 4aac 66ae 3d2f a93f 90ec 75ef dd15 c23f
000002c0: 83b4 4190 0e59 a43f c826 c6f0 a82c d13f
000002d0: f9d5 a0bf df16 ab3f cdbb c6c6 f4de 8fbf
000002e0: 4dd9 c6be 7537 ae3f 9fd5 7ed9 1ade b6bf
000002f0: 6a6d 1524 59ec b1bf b69c eba1 190f a9bf
00000300: ab52 de3b e0d9 b5bf 005a 6e85 4267 9bbf
00000310: ca7e e922 dd93 ac3f 2d6a e1d2 6b70 773f
00000320: b9a0 b561 5cba 71bf 4339 3802 5bc8 bfbf
00000330: 77d0 f5d3 c853 bcbf 372c 0ecb fbaa c43f
00000340: 00b2 7dd8 3d43 c1bf b957 d696 0b2f b2bf
00000350: 4815 ccf5 68c8 abbf de1f d585 378a 72bf
00000360: 2b9f cc2d c9c6 ba3f edd3 06ce ebd1 9b3f
00000370: 1070 c582 f801 b4bf ee12 c256 0931 84bf
00000380: 2eed c223 0778 bfbf c27a b791 8193 963f
00000390: b31b 0c70 e61a d03f 6b93 1c8f e975 88bf
000003a0: d238 fa88 945f a2bf cfd2 6efd bdf3 b53f
000003b0: 8e2a 316b c6b3 973f d6c2 32aa 50cd 833f
000003c0: 2448 8e8e 401f 98bf 3596 f733 299f 97bf
000003d0: 1aad ac73 1964 86bf 44df 2098 830a a23f
000003e0: 13cc 8c34 f8d2 af3f cdb8 57c9 af92 adbf
000003f0: ef1b b456 9af7 b23f dbb4 a5e9 0147 b43f
0.06135902667187765 0.06950724481262086 0.007505413014244366 -0.03518294827632914 -0.033516598393344 0.09932875154028392 -0.009516659239168489 0.17035212483794307
0.28344049511359914 -0.035158503497581074 0.21456181823291218 0.02772400819127023 0.03225091891274868 0.091192358855857 0.24132400219873437 0.09119649415992598
0.10584759862216536 0.016043357681670818 0.05641283423268905 0.010316820258994783 0.04568026540710453 0.11039404339445583 0.04280782633669107 -0.054339735716147204
0.059730172337161026 0.07087583231702006 -0.0034919931775855228 0.029890121333432357 -0.005309061817528697 -0.20912848499539752 -0.053447256661605436 -0.07004734150412899
0.01950372524392925 -0.020386603915308818 -0.008416986836624634 -0.017777922067599726 0.05196176049422842 -0.004824283434309652 -0.012980029506522883 -0.07729760899130735
-0.08071580052995123 -0.021426087615782373 0.11185186820942558 -0.05829107519148283 0.1032869434596625 0.014153316184245323 0.017679202870484318 -0.0725573445630657
0.03571217689847943 -0.015445823385641448 -0.04273920786057873 0.07360070559690388 0.2230779240661134 0.04637310445083319 -0.02805949830168166 -0.009548048665024808
0.26988253174783283 -0.03891249518719576 0.13002740114339023 -0.05303632774265751 -0.06918767959968034 0.04509063162218772 -0.04175850624864898 0.035863713286724754
0.03924105490980856 0.052028671655780144 -0.05056427953634488 0.3105812221435269 0.05481896495028736 -0.05019966853946309 -0.005565616907838332 -0.0742728793596306
0.01364705852484862 0.032896939789951535 -0.004224007670921896 0.0602029448902747 -0.11119633920312998 0.0745036797665049 -0.007659159327489519 -0.03918712613114497
-0.23268189176261933 0.07630972838257864 -0.11371972985859931 0.030999762542407737 -0.04682287943382257 -0.07088271377597091 0.049188544787590674 0.14129232590116603
0.03974195013948025 0.2683508254345779 0.05290888990604609 -0.015561973873301849 0.05901687578027524 -0.0893265515322441 -0.07001263743352629 -0.04894332982603926
-0.08535577260620168 -0.02676109256170811 0.05581561137364373 0.005722447573214978 -0.0043281181964191446 -0.12415093235197099 -0.1106534497719752 0.1614680043679486
-0.1348645503125141 -0.0710303538565701 -0.05426338196233843 -0.004526345144149927 0.10459573143145622 0.027167972993726797 -0.07815507118851905 -0.009859154663226257
-0.12292523024637056 0.022047066229670127 0.2516418546878711 -0.0119436499404146 -0.03588546917045367 0.08575046002699625 0.02314672497986208 0.00966895121959636
-0.023556717587389767 -0.023068088337728738 -0.010933111994367684 0.03523646575962272 0.06215644494513852 -0.057759755447351326 0.07409062020097655 0.0792084880283314
