COLA_Emulators/PCE/wCDM_PNN_HIGH/MODEL_Z0.085.pth (torch, 192382 bytes, 10 tensors)

layer1.weight f8 [128, 25]
0	0x3fba60d6f942c396	0.10304015717953371
1	0xbfc67a835635ecf0	-0.17561380109314184
2	0xbf87a62c36773ff0	-0.011547418033757112
3	0x3fa7f182404a7ff7	0.04676444086840086
4	0xbfd12bf1a77dd1ca	-0.26830712658491207
5	0xbfca52dbdcf76fa6	-0.20565365113622852
6	0x3fc5dea437247fa1	0.1708569783449976
7	0xbfca36ebdaa3401b	-0.20480106521290584
8	0x3fc205b22001de46	0.14079882204872457
9	0x3fc5cad84f3c3b85	0.17025283688459694
10	0xbf69e23b468b1a1a	-0.0031596334195882593
11	0xbfa4df8918d11cdc	-0.04076794078769705
12	0xbfadd1d569a0adee	-0.05824152864837716
13	0x3fb286eb340631ba	0.07237119693872432
14	0x3fce16a78a56f8bb	0.23506635908956305
15	0x3fc71c4ea93b23e6	0.18055136931641796
16	0xbfb1fbd26bb14bf4	-0.0702487481042196
17	0x3fbc72d6da954e42	0.11112730823997999
18	0x3f8450836f685975	0.009919192159071536
19	0x3fa725ccfd7fb3db	0.04521027178257216
20	0xbfbf81c35f606409	-0.12307377890137174
21	0x3fbced3b04d77227	0.11299485080912373
22	0x3f9015d59504dca1	0.015708291263959343
23	0xbf979ccf5c8ec4fd	-0.023059120201371453
24	0x3f8d5c0e078412a7	0.014335736851088866
25	0xbf9701d3cad54c1a	-0.022467908148723216
26	0x3fc9742893a403b2	0.19885737618463178
27	0xbf98edddaddea400	-0.02434488652912492
28	0xbfcee5a7f6f9a2ee	-0.2413835483487427
29	0x3f847d7adf468786	0.010004959048106842
30	0x3fa46997f3e70724	0.03986811497044432
31	0xbf9f05708ea8843a	-0.030294188220185904
32	0x3fc3dc45a6ef5ab4	0.15515967036363565
33	0xbfbbd078d445d0de	-0.10864978010596668
34	0xbfd5cab2863324ca	-0.3404966650528648
35	0xbfc27c65a5e85763	-0.1444212970824835
36	0xbfc4ac667b84dfc9	-0.1615112403030692
37	0xbfbf492c37b0df9f	-0.12221027717248355
38	0x3fc0831225c9ea91	0.1289999660983381
39	0xbfb8194ead79c85d	-0.09413615927931702
40	0x3fc8b98b8a6228dc	0.1931623864841815
41	0xbfc1f1a031c4bcd3	-0.1401863329897198
42	0x3fb015703cf89ca6	0.06282712448647718
43	0xbf96f87e522c055f	-0.022432302251222832
44	0xbfc973863f9b077a	-0.1988380251478324
45	0x3fb1e17725a5ca1a	0.06984657925730922
46	0xbfaee96eb873cad7	-0.060374698654319374
47	0xbfc20eaac6d67b4a	-0.14107260426404827
48	0x3fa8746f65523eac	0.04776332961875815
49	0x3fcb5c7c302d3079	0.21375992157334503
50	0xbfa36f1fad22dc6c	-0.0379571818206664
51	0x3fb33985781abdc4	0.07509645635831591
52	0x3fca1976bba36bf7	0.20390209352521513
53	0x3f9ab5db303e5a3c	0.026084351367524614
54	0xbfa722277780580d	-0.04518245061642299
55	0x3fbe5a46a7fec33a	0.118565002455182
56	0x3fd0718d8b974bdf	0.2569307196801542
57	0x3fa813377fe84296	0.04702161251419061
58	0x3fd48933b5e6d230	0.32087414516289225
59	0x3fc19f9c757ce1be	0.13768344628057422
60	0xbfd9ac4a38e6d3de	-0.40114074284366363
61	0x3fae6974699e44d3	0.05939830579075935
62	0xbfcb294fe46afc43	-0.21219824460237832
63	0xbfc3accdf2bd0f71	-0.15371107437578815
64	0x3fc61fd67af51959	0.17284661296634843
65	0x3fd38279055d9e7d	0.30483842395776845
66	0xbfcf5687abdb1555	-0.24482818499942974
67	0xbfbcee91e2fa41e1	-0.11301528731770062
68	0xbfdd1228f16fb44f	-0.45423339441078253
69	0xbfb158d22eb5980d	-0.06776155128827117
70	0x3fa370c2aeccd474	0.03796966918745506
71	0xbfc7561044a966ae	-0.18231395104048914
72	0xbfa0c90cb980da67	-0.03278388752408006
73	0x3fb0710e7e4a3a14	0.0642251070332594
74	0x3fd01b2dfbd3b58f	0.25165891258696943
75	0xbfa5af6a397cc882	-0.042353934781560035
76	0x3fbc401cfe00579d	0.11035329056934846
77	0xbfac300c1972c635	-0.05505407152794498
78	0x3fbb50e5b9b4d905	0.1067031458268027
79	0x3fd1523c75ea0434	0.2706442977433341
80	0x3fb1e56f3f6a09d0	0.06990714357565442
81	0x3fc408ca1f3ce080	0.1565182354477237
82	0xbfa3c5d6f051eadd	-0.03861877139657619
83	0x3fc2ddb9b4db9b7b	0.14739152270268704
84	0x3fb82b7291ffec1c	0.0944129568523952
85	0x3fb362e9b3968f24	0.07572804102397562
86	0x3fa559d5cba5831f	0.04170101271552639
87	0x3fc76eb07936fa72	0.18306547087373165
88	0x3fa1c68319f8cafc	0.03471765224494125
89	0xbfb9bfde5f901345	-0.10058393319202448
90	0x3fbf95d97f83595a	0.12338027346718175
91	0x3fb73df357d63d59	0.09078904051260873
92	0xbfc723e544030d03	-0.1807829458321991
93	0xbfb1f27cc55fb8de	-0.07010631388377273
94	0x3f91625581a88959	0.01697667697784175
95	0xbfc622fa872c55a5	-0.17294246292355556
96	0x3fb67c68cb1a733d	0.08783583601548357
97	0xbfc2feb507a21ca4	-0.1483980452796675
98	0x3fb0aa7d7c235cb5	0.06510147362438341
99	0xbf99048c8ff79246	-0.024431415831616364
100	0xbfa83765cec0a652	-0.04729765080294314
101	0x3fcef58d3e7440be	0.24186864423291426
102	0xbfa27899e048936c	-0.03607636320911109
103	0x3fc9025af0a5ea8e	0.1953843760528184
104	0x3f9c39d5b8c4d1f7	0.02756437244643625
105	0xbfc019abfb8642f5	-0.12578344136684164
106	0x3fcaa06a0dccfa18	0.20802045511113998
107	0xbfa0a18665ba036e	-0.032482337873267805
108	0xbfcdc9d10a8db6fc	-0.23272145285903167
109	0x3fb2eb106214c1ba	0.07389929194028513
110	0xbfbe43253215fa13	-0.1182120559005642
111	0x3fd339b4518a30a9	0.3003969951903494
112	0xbfc91f58eae32661	-0.19626914471728
113	0x3f9a8b07a17376a9	0.025920981625737003
114	0xbfbb45e8c73e33a2	-0.10653548111277059
115	0xbfa4803934e3d5ae	-0.040040767389580054
116	0xbfb94199401ed7a1	-0.09865720572892524
117	0x3fb300e905791a73	0.07423263915652871
118	0xbf9127614c32f574	-0.016751785541364098
119	0x3fc452a672a46b0c	0.15877228353277706
120	0x3fba414101a3c31e	0.10255819597274438
121	0xbfb5045a7a25000c	-0.08209767801326978
122	0xbfa78acf9a8909f7	-0.0459809185163244
123	0x3fad435e506f5a88	0.05715460521576171
124	0x3fb8d318a99241c4	0.09697107448506076
125	0xbfa5fee85abe23c0	-0.04296041591357591
126	0x3fa16eaddcafac15	0.03404753989146784
127	0x3f421cbaae6c0cf8	0.0005527411966287634
128	0xbfd83dc2b10173b8	-0.37876956258497385
129	0xbf80be520355c553	-0.008175507284905825
130	0x3fd16dac7c3ea474	0.2723189557387464
131	0xbfb264ce0afa60d8	-0.0718506600190979
132	0x3fb3907fd03d3d03	0.07642363389935629
133	0x3fb4de99c013109d	0.08152161540334864
134	0xbfbf66a758c70854	-0.12266012113016816
135	0xbfb3c1fc1670a286	-0.07717872188426086
136	0xbfb8cfe07f110485	-0.0969219503613364
137	0xbf89c73fed8d382b	-0.0125870699281699
138	0x3f94ce914000ef85	0.020319242030594892
139	0x3fd8121f16778613	0.3761060447123736
140	0xbfc24780a45cf3c0	-0.1428070833734676
141	0x3faf68020f3bc6ac	0.06134039340930761
142	0xbfc328475ed2e0ab	-0.14966671114030325
143	0xbfcf48a24742bfcc	-0.24440411071327472
144	0xbfa3702e03e655be	-0.03796523854832
145	0xbfcf7425ad8a4181	-0.24573203061710205
146	0xbf47197e15c7eb4f	-0.000704943242055259
147	0x3f4013a73d0f421c	0.0004906241030032152
148	0x3fc337007618e8fe	0.15011602179021816
149	0x3fc935677b9bb6c2	0.196942267757029
150	0xbfa011d51c7407b0	-0.03138605091409319
151	0x3fc4b305dbc991f0	0.1617133448772985
152	0xbfc3005dcb90557b	-0.1484486812557114
153	0xbfcc84f1ed32932e	-0.22280716020500207
154	0x3fc1de5429cd7f5e	0.13959743538998287
155	0x3fc6c84a7b8bb3eb	0.17798739464288302
156	0xbfba234978891f36	-0.102100936820645
157	0xbfaa0b69687bb1a6	-0.05086831474713742
158	0x3fbf201367646f45	0.12158318781115181
159	0xbfb46bd719e2832f	-0.07977051145509216
160	0x3f998b7b0d402d77	0.024946139034040606
161	0xbfd016d1971a2294	-0.2513927436453198
162	0xbfb121c668dd6b38	-0.06692161617449421
163	0xbfcc06cf14107189	-0.2189577911348233
164	0x3fbb5c249c2a922c	0.10687474072126041
165	0xbfaa4278127d0279	-0.05128836847007263
166	0xbfc903b6300c44cb	-0.1954257711991317
167	0x3fba1ab91629f689	0.10197026053534776
168	0x3fb073ac5d009b69	0.06426503439489085
169	0x3fcdb45b82db46eb	0.23206657304267905
170	0xbf90d09913584ecb	-0.01642073803493708
171	0xbfc35f371a3bff58	-0.15134323864912846
172	0x3fa6bf5cf61d11f0	0.044428734820517124
173	0x3fd0958a3e7fb38f	0.25912719825174063
174	0x3fcdf599e7bbb7d3	0.2340576535711408
175	0x3faeb0c49645d6e6	0.059942382186745566
176	0xbfbf8d1ac4229e8e	-0.12324683464486894
177	0x3fa2d4bcacbe6123	0.03677930458724379
178	0x3fd97683a55a372d	0.3978585352677893
179	0x3fc97e5bfc452acd	0.1991686803615579
180	0x3fc36f39e57eb8b3	0.15183185296831922
181	0xbfd260125aecac51	-0.2871137512144673
182	0x3fc2e29b7ed289d9	0.1475405091524198
183	0x3fbd747388dbec5e	0.11505815593038579
184	0xbfc78de1978579b3	-0.18401737116341862
185	0x3fbc7fcc22c29b4d	0.11132503365170728
186	0xbfc11aecdc200d9d	-0.13363419292737158
187	0xbfbdaaa0883acaa2	-0.11588481260222719
188	0xbf93e8ceed52fd31	-0.01944278071891609
189	0x3fbdc2cb1e08b957	0.11625356181386813
190	0xbfc90ae24534f882	-0.1956446493076705
191	0x3fd1555ddc6d64fa	0.2708353664980475
192	0x3fbba62446950cc1	0.10800387118529199
193	0xbfaeceb1b91368fe	-0.06017070183016136
194	0x3fb43107d1d53a52	0.07887314675211002
195	0xbfb27191c3e1affa	-0.07204543144479195
196	0x3fc26fe12ffcb3d4	0.14403929560776751
197	0x3fa721796e1d36e5	0.04517726391951075
198	0x3fc99f649a365b01	0.20017678766154037
199	0x3fc3a406b1747432	0.15344318070211355
200	0xbf958aa359db71f7	-0.021036674842308725
201	0x3fc6e83af56c589d	0.17896210654788983
202	0x3fcf68a7ab85f5cc	0.2453813159481072
203	0x3fb5ee5519e4460d	0.08566791422006066
204	0x3fb4533b2b75454a	0.07939500628460397
205	0x3fb0bf5a8ab6f833	0.06541982542600593
206	0x3fad7a888f6dbee1	0.05757548094595478
207	0x3f996333de14169b	0.024792490415186035
208	0x3fb666726488b62f	0.08750071482128229
209	0xbfc65f07c54ec51d	-0.1747750962654572
210	0x3fa4eed3fe15792b	0.04088461376771798
211	0x3fbd1fc3b1f488d5	0.11376593680009546
212	0x3fc2047a36fef5ac	0.14076163945530362
213	0xbfb685fd7da88bab	-0.08798202817756244
214	0x3fc8ddc716b13a85	0.19426811798117086
215	0xbfc212df17fb0595	-0.14120091124463544
216	0xbf921a1b329159a8	-0.017677712403690343
217	0x3fc4c0cd14dc08da	0.16213382261782422
218	0x3fca999557314629	0.20781199223942906
219	0x3fc0bdc44189b0af	0.1307912178048176
220	0xbfc153425d8d88ec	-0.13535337036143547
221	0x3f9606bc9fa65e8f	0.021510073894744294
222	0xbfc928782e67b00b	-0.19654752984877208
223	0x3fbbddbdf5fa57f7	0.10885226493186893
224	0xbfc8221f5bbb7a9e	-0.18854133586042549
225	0x3f708afbdecc1d3c	0.004038795345656706
226	0xbfa13791d4bcebcc	-0.033627087801924554
227	0xbfb64f54b282a78c	-0.08714799268878276
228	0xbfa5b0e818bb1690	-0.0423653154553395
229	0xbfc8449a290182a5	-0.18959357263795087
230	0xbfb4eabce8639c49	-0.08170681642114731
231	0xbfbdda016d4f88e9	-0.11660775107114642
232	0xbf8840301f82c501	-0.011841178857454173
233	0x3f6e144f46e82ae4	0.003671793783046483
234	0xbfc4dc9c09598257	-0.16298246819043768
235	0x3fc6e7e87f663aa9	0.178952276426988
236	0xbf6b42a52e914eb7	-0.0033276773652149666
237	0x3faf36a82d8e37f1	0.06096387439821161
238	0xbfc64d0243170b27	-0.17422512317542635
239	0xbfb9a35ddf18b6bb	-0.10014902779286221
240	0x3f957b6335c6bd57	0.02097849860882425
241	0x3fbe1dbb5cf90908	0.11764117259830098
242	0xbfc5417656289dc3	-0.16606024939504324
243	0xbfac7ed0afbebc91	-0.05565502305341242
244	0x3fc6cd7e98e6ebe7	0.17814619508666782
245	0x3fcaa8eafdd61ecb	0.2082799663005431
246	0x3faf068537638995	0.060596621524172146
247	0x3f5da000c66159bf	0.0018081672256094886
248	0xbf9df868d1627fb9	-0.029267919330436352
249	0x3fc00f16af0a99d5	0.12546046778625333
250	0x3fa960d70988a404	0.04956695548418824
251	0xbfbba10f92c2a08b	-0.10792634327902044
252	0xbfc1b5f636aa0612	-0.13836553258083534
253	0xbf9c47103c142299	-0.027614835421476334
254	0x3fc05b5eb2553987	0.12778838832532477
255	0xbfd437f4d7bbee9f	-0.31591530864509737

layer1.bias f8 [128]
0	0xbfc4ed947e4e41b6	-0.1635003678061488
1	0xbfced88de42a33dc	-0.2409837116323662
2	0xbf68324d33efc019	-0.002953673159474601
3	0x3f872e798f28e3be	0.01131911247385797
4	0xbf99c4bad8346fee	-0.025164527364822158
5	0xbfbf00a13fc3aea0	-0.12110336119411125
6	0xbfccd8f6ce7ac414	-0.2253712185097646
7	0xbfc0c7376f300b10	-0.13107960633359328
8	0xbfb6c22398d2614f	-0.08889982682228957
9	0x3fb20865825997b1	0.07044062073108993
10	0xbfe03a29d5dc7ad8	-0.5071000267961052
11	0x3fbcd03bb562680c	0.11255238703088838
12	0xbf94d0123db88397	-0.020324978844772437
13	0x3fb28b65ed28da41	0.07243954696682754
14	0x3fb7c7495c4420ed	0.09288462164488794
15	0x3fb374cc272143c5	0.07600093798943337
16	0xbfc9551f5b94bc75	-0.19791023227432772
17	0x3f9ba868e477d753	0.027009619659984562
18	0xbfa202f5c88a353f	-0.03517883370396157
19	0xbfb8edea251e6274	-0.09738028913705837
20	0x3fb55686ea3f8d4a	0.08335154742194564
21	0xbfbe73890be097d5	-0.11895042934392504
22	0xbfc0117d438e9581	-0.12553373144798388
23	0xbfca87126a245718	-0.20724706824028583
24	0xbfc69d9b753ed404	-0.1766847918021598
25	0x3fc7404c3ef83c65	0.18164971422854417
26	0xbfd3c75d007b65dc	-0.30904316947052535
27	0xbfb3b8d2f3a1b325	-0.07703894088781434
28	0xbfc40cb61610f25c	-0.15663791730357246
29	0x3fc4dfca3b614a5b	0.1630795278493505
30	0xbfba376554bf2d61	-0.10240777319920859
31	0x3fb4af06739100a8	0.08079567262120924
32	0xbf93a8a6a143843c	-0.01919803962016807
33	0xbfc3c82b3fdf9b92	-0.15454617136785181
34	0x3fc38bc4d6aa5353	0.1527029083414627
35	0xbf89d525818a0864	-0.012613575950357787
36	0xbfbe049a38aff672	-0.11725772747009858
37	0x3fba0441a2978cc5	0.10162744731455849
38	0xbfc654bd1c211e8d	-0.17446102021698487
39	0x3fc8383f2da8f390	0.18921651582232046
40	0x3fd0622a5014ba4b	0.2559915334740352
41	0x3fa7ab8204abd2fe	0.04623037631055203
42	0xbfbf1e76ae9ce8fa	-0.12155858767519936
43	0xbfa76766f830c5fd	-0.04571077136678168
44	0x3fb22b412c2821aa	0.07097251251264561
45	0xbfc28a323db53d52	-0.14484241498073885
46	0x3fb44888984e0499	0.07923177450540421
47	0xbfc0b8f214410ef5	-0.13064409245463762
48	0x3fc28741e7deb3dc	0.1447527296235468
49	0xbfb5ffffd335c87f	-0.08593748957153656
50	0xbfc3f2ae96a50870	-0.15584356647201814
51	0x3fbbf6d0613fc7b3	0.10923483251806836
52	0xbfa0a7739bd3a485	-0.032527554294412155
53	0x3fc6b90768e744ea	0.17752163526760195
54	0xbfc2989a91d227e0	-0.14528209800874858
55	0xbfa323fc7bd1a6a6	-0.03738392840825826
56	0xbfb1d36ac900092b	-0.06963221938352564
57	0x3fc61a21f008ba94	0.17267250271239176
58	0xbfdb909e6d4854fc	-0.43070183441280085
59	0x3fbd68a51e073ac3	0.11487800582038248
60	0xbfc05a753265ed2c	-0.12776055298659494
61	0x3f7ee1b6154dce4c	0.0075394737840386965
62	0xbfcd1777526a9bb2	-0.22727862858047626
63	0xbfc5199ae989da83	-0.16484390643354993
64	0x3fcadc56ab193b5e	0.20984919886037806
65	0x3fa35ce97dbc3efe	0.03781823787551096
66	0xbfc3944a967719e2	-0.1529629931157635
67	0x3fc317410603978e	0.14914715570119735
68	0xbfc1095ead3a7250	-0.1330984445420591
69	0x3f900e950e473ce7	0.01568062686584151
70	0xbf9efc495dabd920	-0.03025927194809086
71	0x3fb07b77571a64d8	0.0643839442876869
72	0x3f60441cd8888aeb	0.001985603656309611
73	0x3fc6a5315c914b0a	0.17691628475093807
74	0x3fb884c7ea09c131	0.09577607597180272
75	0xbfbb02c046cab3d3	-0.10551072815242372
76	0xbfc36d0993ce1a3f	-0.1517650577263385
77	0x3fb04acf1cd83a07	0.06364149526800854
78	0x3fb56d8ff5c3015d	0.08370303869287939
79	0xbf9bceff8cb2c6dc	-0.027156823122544846
80	0x3fca1be07c1cb905	0.20397573528448035
81	0x3fc7e1f521033aec	0.18658317672676306
82	0xbfcbb1fa72975903	-0.21636896701119931
83	0x3f84ebd1641b369f	0.010215412013532542
84	0x3fb2009ff7507a44	0.07032203472088222
85	0xbfd8ea0dd193e3cc	-0.3892855211884665
86	0x3fb3429dda53be63	0.0752352388405995
87	0x3f9c179e70aa0c25	0.027433848978500337
88	0x3fb3a01176a2b671	0.07666119715096344
89	0x3f912c4f7af1cb56	0.0167705935277341
90	0xbfbb290c98eb2cf3	-0.10609511121144859
91	0xbfc490c1b70e97ac	-0.16066762388544242
92	0x3f9671dab23c2664	0.021918694618796045
93	0xbfaaf0f2ac617ae0	-0.05261953691728194
94	0xbf639e0dc46d1a8a	-0.002394701852071639
95	0xbfc92e10fce55512	-0.19671833370618025
96	0x3fa6e5d21922d497	0.04472214276157976
97	0x3fc0cd3f23edcc51	0.131263630431564
98	0xbf9fd76c57bd8aa2	-0.031095211844681565
99	0x3fbc746e886a7c2d	0.11115160780399043
100	0x3fb45969d0d4256d	0.07948933933598364
101	0x3fc04c61d2aa4cb6	0.12733099733723002
102	0x3fb98bbd5bbe7373	0.09978850831835277
103	0xbfc2f1b16c1e78d7	-0.14800088671922282
104	0xbfad8614b73c233f	-0.0576635812449866
105	0x3fa59a1fbf9a5008	0.042191497935306244
106	0x3fa5c96fd2592372	0.042552465846319346
107	0xbfa3c20da9c0ab60	-0.03858988473105884
108	0xbfc3af50a8f1e849	-0.15378769158616226
109	0xbfc9f527efb89f11	-0.20279406743178943
110	0x3fa202f3cee0c9dc	0.03517877483718099
111	0xbfc39e4a9d770b88	-0.15326817215654054
112	0x3fc42173db49faad	0.15727089126081265
113	0x3fc576de7701cee6	0.16769009409801255
114	0xbfc22e46e41ee24a	-0.14203725947096962
115	0xbfcaef6e0d356cb1	-0.21043182034450106
116	0xbfb0a3293c6c1329	-0.06498964047575541
117	0xbfca8ee7912f4fca	-0.20748610104658233
118	0xbfbd915b3715422a	-0.11549921126175691
119	0x3fa81be544077cc2	0.04708782630381726
120	0x3fb7188d43e3c3a4	0.09021838099921681
121	0x3fc5b0543a85974d	0.16944363458167758
122	0xbfdb288e655b6f6f	-0.4243503560844521
123	0x3fc5357b4cdde48d	0.1656946301771182
124	0xbfc3cede0b120ee7	-0.15475059071115213
125	0xbf631f1ee7b5f630	-0.0023341754546766444
126	0xbfbc249d775100c5	-0.10993370211599814
127	0xbfbac6d143aa0231	-0.10459621335940807

custom_layer.beta f8 [128]
0	0x3fdd36636ff3b945	0.4564446061402985
1	0xbff6ca1c7ac4efcf	-1.4243435664820827
2	0x40097fe4fa2ff59f	3.1874484582792344
3	0x3ff1c66ffa723628	1.1109466345836925
4	0x3fe181a0739c65e5	0.5470735795999501
5	0x3fef0baddd37a8cd	0.9701756783154224
6	0x3ff560ecff2caa00	1.3361635177376456
7	0xbfe35abbfd267df1	-0.6048259682028726
8	0xbfe3b4558dc56acb	-0.6157634514778122
9	0xbfcfd9303119749a	-0.24881555936272975
10	0xbff49373bf347e1a	-1.2859990567157014
11	0xbff0a34aba066b13	-1.0398661867718075
12	0xbff1ace454cd5540	-1.1047099411565142
13	0x3fb26ce61175d654	0.07197416235234161
14	0xbfe74d31cef5416c	-0.7281731645726217
15	0x3fa6cc3cdaa8d64e	0.04452696007903666
16	0x3ff0f3d3233d466a	1.0595275284325916
17	0x3fb08a869328fa37	0.06461373417639825
18	0xbfbc8955a3e05d8a	-0.11147055865182245
19	0x3fd469d2c654209b	0.3189589440157847
20	0xbfe9be0528000595	-0.8044458180667556
21	0x3ffa91f2ef8f1455	1.6606320722360313
22	0x3ffd3b45a53db7f5	1.8269707159738549
23	0x4005db02ee87e6bc	2.7319391856406963
24	0x3fc196a8dbebba47	0.13741026628800254
25	0x3fd77508300ad4b7	0.36651806537276904
26	0x3fd37d39ad3a88a2	0.30451814572200864
27	0x3fca1905dea0e192	0.20388863916901961
28	0xbfd502b0c89e846e	-0.3282892188236194
29	0x3ff034e96565e0a4	1.0129178963525556
30	0x3ff6e39098bb247c	1.43055781994397
31	0xbfea64e53b2954d9	-0.8248163371560181
32	0xbff577c567718af2	-1.3417409935724973
33	0xbfd46247bf912ea2	-0.3184985514423976
34	0x3fcf1d9bfcd47cda	0.24309110493866265
35	0x3ff5a5893f5c8754	1.3529140925461052
36	0xbfa51642d18ee0c5	-0.041185463028740744
37	0x3fd1d31f62771fe8	0.27851090064768735
38	0x3fd5b2d523a1f38c	0.33904007415531434
39	0x3fc3ad0eed318d2b	0.15371882039753734
40	0xbfc6eddad70b971e	-0.17913375377900648
41	0xbfba266d5152a858	-0.1021488498251143
42	0x3fcc80c22071f184	0.22267939171059592
43	0xbff12a5fc88e9521	-1.0728452524429672
44	0xbfd049abd0f8fd89	-0.2544965306041936
45	0x3fd71bb74187ae1c	0.3610666408482943
46	0xbfef7fab540bd2bc	-0.9843346253897702
47	0x3fe73fcefe87f78a	0.7265391322432475
48	0xbfed124ca814ecd7	-0.908483818325659
49	0x3ff2b89cb58a8493	1.1700713244866037
50	0x3ff2c367a2469a14	1.1727062548540106
51	0x3fcdde8fb7cee39a	0.23335453486450036
52	0x3fe42cffcff54a1d	0.6304930745776037
53	0x3fed3eb565ba5d53	0.9139048563837754
54	0xbfba33f96dd70500	-0.10235556537283585
55	0x3ff46f699e7cfad5	1.2772003355927855
56	0xbff6085f70fa9935	-1.3770441449392596
57	0xbfe57e5c349c632a	-0.6716748263889702
58	0x400010ffeead46e9	2.0083006521825735
59	0xbfdd4832f3bf0c36	-0.4575316791853682
60	0x3ff9a06e6a6bd1d6	1.601667800624559
61	0xbfaecbdedecf7785	-0.060149159143960275
62	0xbfe44e8f919c8ddc	-0.634589943311251
63	0x3ff0b63448339e42	1.0444834537864982
64	0x3ff2581835273e3a	1.1465074611950414
65	0x3feb340ff1daa839	0.850105259295794
66	0xc00399e108396ccd	-2.450136245968315
67	0x3fc7b7f012a5229e	0.18530083570864958
68	0x3fd0e06e2ed728a9	0.26369814466728286
69	0xbff87e84615cc1aa	-1.5308879664627093
70	0xbff35082f5e8e8da	-1.2071561437465363
71	0xbfdc3dc5f293f0b0	-0.4412703389095993
72	0x3fd2210f6cdf15bd	0.2832678378293528
73	0xbfd0eea490e7a0e1	-0.26456560278758273
74	0xbffdedc8febf0d48	-1.8705530119921878
75	0xbfe6ef3442f9d12b	-0.7166997249719648
76	0x3fc61ef275854c75	0.17281943071666075
77	0xbff429542fae49d0	-1.2600900518924512
78	0xbfd24ae750216425	-0.28582175088155487
79	0xbfd68409e9a170a6	-0.3518090039776872
80	0x3ff1792349cdd56b	1.09207466916754
81	0x3fe2423de4778f91	0.5705861532446638
82	0xbff92e16adaffb07	-1.573752096621037
83	0x3fcda8de70ce4d99	0.23171597011660763
84	0xbfc3df29c15665a7	-0.1552478975325304
85	0x3ff3b1cfdcbadee3	1.2309111234916876
86	0x3fe0348a539b259b	0.5064136155062217
87	0x3fec41eac85b2bf4	0.8830465233999107
88	0xbfc4e4688d731127	-0.16322047144616045
89	0x3ff4767b40d30e68	1.27892613718077
90	0xbfe87cb21bb29a78	-0.7652216473550899
91	0x3fdef921b3e4ddf2	0.4839557892587144
92	0x3fc75389b2677dfa	0.18223687373300362
93	0xbff67a7fb4ca51f0	-1.4049069463845818
94	0xbfe80f07a24c35b1	-0.7518346948506204
95	0xbfc5f50cd60c282b	-0.17154083682572838
96	0xbfabd33ce9cf7897	-0.05434599260455391
97	0xbff8fcd4f565490f	-1.5617265306250976
98	0xbfa808f223c2dc01	-0.04694325148141588
99	0x3fe8bc1bef90ec13	0.7729625395799097
100	0xbfe9fd6be6117669	-0.8121852391738688
101	0x3fcb9d4f518553c4	0.21573821526058456
102	0xbfbf6e652853ca9c	-0.12277824625543093
103	0x3fc47e9281ae1279	0.1601126797869659
104	0x3fd6ecaf720fe62e	0.358196126354957
105	0xbfab36c1239fc680	-0.053152118300102025
106	0xbff7013b98129ece	-1.4378009739247548
107	0xbfd2c3104ef298f5	-0.29315574369174097
108	0xbffa602e2349dd63	-1.6484815004785893
109	0xbff00c51ca64730f	-1.003007689090001
110	0xbff572898be72707	-1.34046320581041
111	0xbfc3a4a10239e842	-0.15346157654477294
112	0xbfe7dfbfdc89c78a	-0.7460631663691271
113	0xc0047074b8f5a209	-2.554910130497096
114	0xbff31e04a929427c	-1.1948286636217338
115	0xbff2c74d21170464	-1.1736575405668868
116	0x3fd1d5c15b416545	0.27867158805527864
117	0xbfdd790062fc745f	-0.4605103460942867
118	0x3fdb057ef16a5168	0.4222104413577399
119	0xbfdbebcbc7946956	-0.43626684656341774
120	0x3fe3e41c04895bed	0.6215953911404292
121	0x3ff37e48832faaff	1.2183308720074704
122	0xc0027e6308c81a06	-2.311712330443018
123	0xbfe14021739a699d	-0.539078450953912
124	0xbff1e2916499d6d5	-1.1178144387935636
125	0x3fe3dc55aba33635	0.6206463196082895
126	0x3fb6e25ec922ec82	0.08939163599545633
127	0x3fbbd8a56f994a3d	0.10877450918750582

custom_layer.gamma f8 [128]
0	0x3fe138577ecdabe0	0.5381276585225088
1	0x3fdc0c1b5e4a31a4	0.4382389469908736
2	0xbfee793281cb06e1	-0.9522945914288493
3	0xbfdffa3cd2211ddb	-0.49964828987546434
4	0xbfb27cf7ded82368	-0.07221936407598906
5	0xbfff74b40025e66c	-1.965991974428472
6	0xbfc587b4ae875a00	-0.1682039119902612
7	0xbffc09f8850908c4	-1.752434272450544
8	0xbfcac6fbab6bcbd7	-0.2091974818245876
9	0xbfd59afc5e446f67	-0.3375845833377213
10	0xbfec2cead492490e	-0.8804830695901573
11	0x3ff2c2a06028ea85	1.1725162273639012
12	0x3fdef7af49bb6343	0.48386747551335335
13	0xbfe71faf3d603fe7	-0.7226177405118478
14	0x3fe985aa92edab18	0.797566687554851
15	0xbff08a659102e844	-1.033788267565357
16	0x3ff6d8d5ca7c329a	1.4279382619453487
17	0x3fea0aa17a710a83	0.8137977019726609
18	0x3feba3e7144f38eb	0.8637576481503663
19	0x3fc4393b4de2b9f4	0.1579965715695405
20	0xbfe13c6d6e2c1d18	-0.5386263992121796
21	0xbfd24bf8084a2c96	-0.2858867722467918
22	0xbfedc00fdc53126f	-0.9296950629437343
23	0x3fd93f3fc488d5b3	0.39448541825126
24	0x3fd7a77ee236b162	0.3695981225125903
25	0xbfdc5113c959c0f2	-0.44244856513161246
26	0x3ffa3c5eebe1e618	1.6397389616162226
27	0x3fe5900cb5dc9f6b	0.673834185789912
28	0xbfe9bc92d5035812	-0.8042692337428454
29	0x3fe764f3af72dcff	0.7310732294780847
30	0xbfd9dcb0e01b73ea	-0.40409490476105125
31	0xbfc673a643a275aa	-0.17540434172125902
32	0x3fde319c6fd31dca	0.4717780200994325
33	0xbfdd1cd30df4eaeb	-0.4548843036933891
34	0xbff6578d194f716b	-1.396374796741919
35	0x3fedc762a5206e6f	0.9305890298014229
36	0xbfe1b2983e007635	-0.5530511103604058
37	0x4003e291109731f9	2.485628251661407
38	0xbfe62af3357ae2a7	-0.692742924168745
39	0x40057d367bd5bae2	2.6861390757179473
40	0x400310b019c9c0cc	2.3831483854956783
41	0x3fd04f09603d4b48	0.2548240127409156
42	0xbff62614f78e4035	-1.3842973394530536
43	0x3ff51c71956faaa4	1.3194442593909708
44	0xbff87e973d84f85e	-1.5309059527494564
45	0x3fd1160f1181d19f	0.26697136602094845
46	0x400ab56cd69afebd	3.3385864988375418
47	0x3fe03377bce7b3d3	0.5062826814224713
48	0x3ffb85d539d77b48	1.720174051231611
49	0x3ff1b5fdaa0f118f	1.1069313662456783
50	0xbfd4e6ec9c705e43	-0.3265944984172828
51	0x3fda12ed2f980ac8	0.40740518234103407
52	0x3fe21c46650603a8	0.565951535521994
53	0xbfa1dc818d9534d8	-0.034885452778874615
54	0x3fd292b0c3d13570	0.2902032768514209
55	0xbfda8f7ecb27f1e1	-0.4150082572885179
56	0xbfe2857bd57fc066	-0.5787944002058907
57	0xbfe055aafacac26a	-0.5104575060159509
58	0xbfd045ebb55d2b48	-0.25426762305567197
59	0xbff6dd1a6b43b379	-1.4289802732484687
60	0x3fecedc099718aeb	0.9040225026077143
61	0x3fe017a32b77ec43	0.5028854226105824
62	0xbfe409d93ce63ccf	-0.6262022199097376
63	0xbff09a6f953d6548	-1.0377040700607996
64	0xbff3e1338153134f	-1.2424807597864918
65	0x3ff9339bf3e0cda5	1.575099899910904
66	0x3fc490d064107452	0.16066937337828563
67	0x3fe0566e7255e5be	0.5105507119289354
68	0xbfebe0d8f7211965	-0.8711972071403521
69	0xbfe085ecd35804c5	-0.5163482787903823
70	0x3fd2565e7956734a	0.2865215477884716
71	0x3fc78498e866936d	0.18373404834451482
72	0x400160f1aaf9e57b	2.172335944892152
73	0xbfdacdb90f929c94	-0.4188063289715924
74	0xbfeffc3f450d6665	-0.9995418881109798
75	0x3fdfa92cb2c2fdf3	0.4947005983085255
76	0xbff4b7451b9bcdf6	-1.2947436407529245
77	0x3ff150786ce980c4	1.0821460966472367
78	0x3fe5cf63394e9e96	0.6815658683089676
79	0x3fbee98cc42a6fcd	0.12075118817523318
80	0x3fec4a62b46b9207	0.8840802692253086
81	0x3fd580d332fd8ea5	0.3359878538087549
82	0xbf9ca2088e7af8dc	-0.02796185845976927
83	0xbfcb51939a7edf8b	-0.21342701953630824
84	0x3ff03a9e68b9edad	1.0143112269277978
85	0x3f5411c73cee4f06	0.0012249417957023736
86	0xbfe588e41b97e31b	-0.6729603327686137
87	0x3ff07a9f01e7c1f6	1.0299367975641167
88	0x3ff1c6ddddba3150	1.111051431772541
89	0xbfd3443f579bed88	-0.3010404925878096
90	0x3ff08df6c218cf21	1.0346591550741737
91	0xbfcacdc1d7aa8645	-0.2094042113358673
92	0x3fe8a97f4d43d924	0.770690585048929
93	0xbfe9206f3717e365	-0.7852092815438537
94	0x3fe6f9b9afebf97a	0.7179840503666093
95	0xbfbfb06706114b4a	-0.12378543756612462
96	0xbfcf77ab3f471165	-0.24583950605132113
97	0x3fd60436634b1354	0.34400710770232945
98	0xbffbc6e154bcd3d7	-1.7360547361433782
99	0x3ff78636dbf29735	1.47026716153182
100	0x3ff18c5e9b1ea843	1.0967699107518605
101	0xbfdbbe8c6e3dfa40	-0.4335051609595304
102	0x3ff3ac6e771424b2	1.2295975352774744
103	0x40015c8de6d125ab	2.1701925308777468
104	0xbff1a30cc81684b8	-1.102307111352543
105	0xbffbda8950d1e3c9	-1.74085361070887
106	0x3fed0e53b596f578	0.9079989000962732
107	0x3fd42ab5ec430a21	0.3151068503613335
108	0xbfc21d2cec338e65	-0.14151536496420927
109	0x3fd52e445fcf0e7b	0.3309489188797909
110	0x3ff33d8cf8f1c5d7	1.2025270199195484
111	0xbff7cc34159b7c04	-1.4873543590581457
112	0xbff10d478d22e5ab	-1.0657420647752172
113	0x3ff3e4cf1ec0be9e	1.243361587647008
114	0x3fd8cd4fc24f4c7f	0.3875312230640659
115	0xbf9af6efcc142b8d	-0.02633261378381806
116	0xbfee56217dd5b8dd	-0.9480140168868975
117	0x3fe83a4a0a767733	0.7571153835631094
118	0x3fdf445699f19353	0.48854603799400315
119	0x3ffb1f152e126552	1.6950885581666921
120	0x3feac74f1bc03ab4	0.8368297140130694
121	0x3fd57621baf12a69	0.3353351903539648
122	0xc00263bf301cf8ba	-2.29870450580992
123	0x3ff1fd96af066844	1.1244112812915015
124	0x3feb3e4e72dca026	0.8513557666201492
125	0xbfe800c03b04d619	-0.7500916626656277
126	0x3fd4f75beefe8241	0.32759760226511864
127	0x3ff6d59c80840fe4	1.4271512050772737

layer2.weight f8 [128, 128]
0	0xbfbad4d5c7aedb14	-0.10481010556291565
1	0x3fcf4a7dcac11acb	0.24446079635727921
2	0x3fc0324fa76ac250	0.12653537439975304
3	0xbfc4396630a96361	-0.1580016839605163
4	0xbfc2bd8a7d416fcc	-0.1464093314742726
5	0xbfa01d78480b2fde	-0.031474837107083195
6	0xbf9940fccdfe355c	-0.024661970207991643
7	0x3faec89927f05a2f	0.06012419331107243
8	0xbfc3b689364e2c4d	-0.15400805617932392
9	0x3f90b58a6fdc7f99	0.016317523076508775
10	0xbf9f5876d0b870bf	-0.03061090134552624
11	0xbfbd5d8f5c63ce42	-0.11470886235820735
12	0x3fc7e9a66680a93a	0.1868179321766748
13	0x3fb0c5bf1ceaf271	0.06551737266540571
14	0xbfa666a5a0de8431	-0.04375188435302169
15	0x3fb857e74c526e0f	0.0950913010914791
16	0x3fb03de3bfef26f5	0.06344436107533709
17	0xbfbc6e3d8b672407	-0.11105713513747172
18	0xbfaa290e7bff097c	-0.051094486843356685
19	0x3f92332863978583	0.017773276404005067
20	0x3fb1df6d448ef573	0.06981547282972204
21	0xbfa870e28d83b288	-0.047736243986809035
22	0xbfb2cd17db6b8b32	-0.07344197375236375
23	0x3fc47af1d1325314	0.16000197138478056
24	0xbfa3ce958e2611cd	-0.038685487367760986
25	0x3fc3b20704118cdc	0.1538704652658457
26	0xbf9561cc39a68ff1	-0.020880881327357718
27	0xbf90993c32520e02	-0.016209545680352384
28	0xbfb3ce21603c5b1f	-0.07736404990678779
29	0x3fc86b20bf25ae36	0.19076928456648695
30	0x3fc776bc5b16e12a	0.18331102798198035
31	0x3fa7136061b6b1da	0.04506970589440913
32	0xbfd0c2f3bc8f2858	-0.26189893163667
33	0xbf973e9a90abfb11	-0.022699751930299664
34	0x3fb088bb5e9d9e49	0.06458636341050651
35	0x3f70322e36f29548	0.0039541058787667185
36	0xbfad9f62c02b8f35	-0.05785664172961306
37	0xbfde3a23d0dc1dc6	-0.4722985782286425
38	0x3fa0e57d95d12ba3	0.033000874078957375
39	0xbfc43d6d59e8ec6a	-0.15812460794572597
40	0x3f7dea000febfc93	0.007303238146732077
41	0x3fb42223351cb5c7	0.0786458973568279
42	0xbfb8afd4911a00c3	-0.09643295805472278
43	0x3fb7f140e8f031dc	0.09352498709649332
44	0xbfc6ee5c44ea132c	-0.17914918293913595
45	0x3fc39ee61b8e2f91	0.1532867083118359
46	0x3fce0819c377eb1d	0.23462221187932011
47	0xbfb5492ff50bbe94	-0.08314800007405615
48	0xbfd78e88f95198e6	-0.368074649310428
49	0xbfb075f1d6166a56	-0.06429969288584778
50	0xbfb2685ff6b3cda4	-0.07190513394362213
51	0x3fbc60fac5455410	0.11085479084188443
52	0xbfb6971046f57004	-0.08824254734412312
53	0x3fb6a49680cfe931	0.08844891209438256
54	0x3fb56a1b3796f7a6	0.08365030390902337
55	0x3f800988e01a6d8f	0.007830685938919028
56	0x3fcbe22e6d4d91e3	0.21784000718174842
57	0xbf95a7d2c30507a1	-0.021148007538847605
58	0x3f9eff65fb764fed	0.030271142457038925
59	0x3f8b828aa15823d8	0.013432581948125064
60	0x3fc59c9f45a77fd5	0.16884222889984693
61	0x3fc5203dff176e7e	0.1650464530529127
62	0x3f83bfd35a8f764a	0.009643222047027628
63	0x3fca938bfa919523	0.20762777075575753
64	0x3fa70fccf6e922b4	0.04504242433592279
65	0xbfa44ef574882e3d	-0.03966490790852759
66	0xbf7e7a54275275e4	-0.0074408805131986645
67	0xbf89a28287783803	-0.012516994246677631
68	0x3f729bc78ac83f5e	0.004543094121359418
69	0xbfbf1b6525540094	-0.12151176606494324
70	0xbfc6906753a4ab27	-0.17628184875624095
71	0xbf8c6b58664e17ac	-0.01387661993227226
72	0x3fc499a7777a5c79	0.16093915304074694
73	0x3fa86b2776bd6f0c	0.047692521328569354
74	0xbfbab8c38fa09807	-0.1043817735340725
75	0x3f793d69b6aec69d	0.006162083572165547
76	0xbf99be81fe0bb371	-0.025140792017669115
77	0x3f9f8cc744e99096	0.030810464459492502
78	0xbf93973b02df09de	-0.019131586122748227
79	0x3fb32368b903411c	0.07475904957687302
80	0xbf95c390d0da983e	-0.02125383639090494
81	0x3fc2af0fca42196a	0.14596745849503218
82	0x3fb3d215e55bde01	0.07742440080243541
83	0x3fb290d3ae8f7171	0.07252238284804037
84	0xbfc032dabebc8177	-0.12655195534990657
85	0xbfc646aaf85b19f6	-0.17403161169768538
86	0x3fbebee5324bace9	0.12010033109588715
87	0x3fc6bb96db43bd3a	0.17759977060584636
88	0xbfa3a758b331bc49	-0.038386127352048556
89	0x3f90e5f4c3c493a9	0.01650221295234969
90	0xbfaa8cfb23cf71e4	-0.05185684978616559
91	0xbf60139813333bbf	-0.0019624681677678775
92	0xbf9c7ea950ea30b8	-0.027826924861572094
93	0x3f7065bfe041696a	0.0040032858997512775
94	0x3fb21249b19f07a3	0.07059155069785432
95	0xbfbe7d708c4d34b8	-0.11910155701953584
96	0x3f464b579a53df97	0.0006803682087186288
97	0xbf97d34e92daf3e6	-0.023267009461722575
98	0xbfa113eaf3f9434c	-0.03335508564180731
99	0xbfb27c7e08f41fe4	-0.07221210211366685
100	0xbfca2650b7b0c558	-0.204294290249474
101	0xbfc0dd8162288bfd	-0.13175980847253746
102	0xbfa66ecbacbed8fe	-0.04381405338010501
103	0xbf972375ccca1c2e	-0.022596207260473893
104	0xbfb4bbb92532b377	-0.08098942907481708
105	0x3f84e9745016b7d9	0.010210903829683747
106	0xbfc1ae46fbed1926	-0.13813102055628085
107	0x3f821cf4132b0d1e	0.008844286761251537
108	0xbf91c6691ef4dc5a	-0.01735843898242382
109	0xbf81c74e729d6db6	-0.008680928108950475
110	0xbfb3dc0585095141	-0.07757601259192361
111	0x3fbd7dec37824c53	0.11520267825317036
112	0x3f8ced83ae6b0fb1	0.014124897728272719
113	0xbfc3dbd2d12a8f3b	-0.15514598096080498
114	0x3f71387e0ad60042	0.004204265930980057
115	0x3fb806d7a84597c2	0.09385440691184413
116	0x3fa7db45fa7d44b8	0.046594797923384446
117	0x3fc491af436680f9	0.16069594183955596
118	0x3f9e8084f9914097	0.029787137730011706
119	0x3f83e926a5dd4dc8	0.009722043930799354
120	0xbfb5a6bb1e5ee58d	-0.08457536212417534
121	0x3f756c9411f56f56	0.005230501555469965
122	0xbfce60d7bcd9cd04	-0.23733040543775286
123	0x3fb2b10158f36d18	0.07301338597919871
124	0x3fb26fdb2e2a90e9	0.07201928975206652
125	0x3fa0d4849f08c336	0.03287138406120109
126	0x3f9e95369a9b8c7e	0.029866078554630075
127	0xbfb966201c2c3907	-0.0992145603924862
128	0x3fa9a87df9071edc	0.050113617562201646
129	0xbfaf878675bf5f4b	-0.06158085048053737
130	0x3f883b27681f9f8a	0.011831577172372727
131	0xbfb2b43c93b2cfa4	-0.07306269269866889
132	0xbf9beef342ba8615	-0.027278710315505068
133	0x3f7f16b5ee312d62	0.007590017953656188
134	0xbf9ea3320decacec	-0.029919416522869932
135	0x3fc0c76d56e8cd29	0.13108603232977004
136	0xbfa5e4f9a6e28c83	-0.04276256715936546
137	0x3f9de9be5e18c4ca	0.029211973660669334
138	0x3f9e9543146e8ca3	0.029866264459667346
139	0xbfa03266af56121e	-0.03163452997526782
140	0xbfa25511e39b0b97	-0.03580528167142132
141	0x3f8a3d61cff35dac	0.012812389525079869
142	0xbf58bf1ee2d4b7e8	-0.0015104104634917574
143	0x3f7bc5c1862e6dd6	0.006780391648955461
144	0xbfaf00a55ce30343	-0.06055180319663702
145	0xbfabe5e90093b841	-0.054488450355947744
146	0xbfa57af4962bb17d	-0.04195370038164279
147	0xbf8aa81e3c873c7f	-0.013015972349334824
148	0x3fabcda156c40caf	0.05430320915368136
149	0x3f8ad81e0393079d	0.013107523426132245
150	0xbf659311b125a0aa	-0.0026336045786373346
151	0x3f8566e1661f02d1	0.010450135163297432
152	0x3f91e9357fcc51ec	0.017491184163263826
153	0xbf9811a39cf2ba0d	-0.023504787878375
154	0x3fc12bb86c28f782	0.1341467407345896
155	0x3faa43f819a67280	0.0512998133956204
156	0x3f7f7fbcac4feb23	0.007690178875231965
157	0xbfb121427a1d1f41	-0.06691375237744258
158	0xbf9812767de4fd0c	-0.023507930215825687
159	0x3f61d49489f05b03	0.0021765614651586564
160	0xbfb1a229fbd4623b	-0.06888067625221421
161	0xbfb3ef29047f3587	-0.07786804542339186
162	0xbfb49c462328fe36	-0.08050955160523973
163	0xbfa8c50d3b843482	-0.0483783850814712
164	0x3f909f9512f92eb1	0.01623375824264767
165	0x3fc59fa1da721e5e	0.16893408933923387
166	0xbfa0e585bdbd8a25	-0.03300111714522228
167	0xbfc71a49caaf753a	-0.18048975369212333
168	0xbfa56868ed93231b	-0.041812209130119814
169	0xbfb4425ef24c8065	-0.0791377393293274
170	0xbfae869ad3a8767d	-0.05962070306507614
171	0x3fb8636edad589ef	0.09526722757940552
172	0x3fa00804346c0e7c	0.03131116046827473
173	0x3f99664d0c415cfa	0.024804309723859476
174	0x3fb4d2e6ee547829	0.08134311026194098
175	0xbf9799d7c305b6f3	-0.02304780128309054
176	0xbfa3a1e739fbc4d6	-0.03834459860616739
177	0x3fc666401de65018	0.17499543628639525
178	0xbfb5f605d0c1be03	-0.08578525873758029
179	0xbf9cf45c94a00ab3	-0.02827591569076544
180	0x3fba3c3b177b0446	0.10248154948477958
181	0x3fa027e2b992bb8d	0.03155430331513918
182	0xbfb763cdd3bf619a	-0.0913666383706925
183	0xbf90a94bd80c7230	-0.016270814000664824
184	0x3fab8238d8afaee4	0.05372789044471718
185	0xbfa55b3f83ea2743	-0.04171179280554196
186	0x3f7fab90b503ada5	0.007731976759014191
187	0x3fb4b7681600601b	0.08092356240410974
188	0x3fac80bcea71df99	0.055669692629577834
189	0xbfb422af803bd3c0	-0.07865425949769556
190	0x3f7855a288f90c65	0.005941042807140117
191	0x3f828c5ea9cd96f4	0.009056796605090046
192	0x3fa8edcedf3ff1f9	0.048689331772013796
193	0xbfc16c4ba9fbedcb	-0.13611741828922982
194	0x3fa335e082a9157c	0.0375204238412534
195	0x3fb7293f415e24c3	0.09047313066379829
196	0xbf9dc65eeb6b818c	-0.02907703697099033
197	0xbfb22aee12f5980b	-0.0709675594603995
198	0x3fb41e81da06fa3f	0.07859050343447736
199	0x3f9333b303c11e6e	0.018751904586933703
200	0xbfc16322a0a15f9d	-0.13583786814956236
201	0xbfa3ef85fa30512f	-0.038936793127648854
202	0x3f7b8d51f4529841	0.00672657025748974
203	0xbf97771cb46ab06f	-0.02291531420876008
204	0x3f7f87e24a792ab2	0.007697948407051557
205	0x3f8055cde5417801	0.007976158675031543
206	0xbfc20bb0ffb0f9ea	-0.14098179325988208
207	0x3f8074587c0a2b9a	0.008034411702529987
208	0x3fb81a0283ea4635	0.09414687843880006
209	0xbfa9984068a37771	-0.04998971249891227
210	0x3f8758a33d151671	0.011399531652055846
211	0x3fb3b038799822ec	0.07690766304598257
212	0x3f8f3650fcaf96c2	0.01524031897674705
213	0xbfb1a65dbd89a25e	-0.06894479634650838
214	0xbf8e72e52fb82c12	-0.014867582815915301
215	0x3fa6392086a4f62f	0.043404594837266657
216	0xbfa0fc7348e10f20	-0.03317604317319778
217	0x3f96f56eca637368	0.022420626738369448
218	0xbfb5f2ffb0cd274b	-0.08573911730232202
219	0x3faf74789fabd8c5	0.06143547963249455
220	0x3faf998683f2f712	0.061718181235376104
221	0xbf7e6b1aec4ee0f4	-0.007426362198138959
222	0xbfa3bbd78621c5e9	-0.03854249489166845
223	0x3f935f2e90ee0a83	0.018917777629676735
224	0xbfb0cce09962e0a7	-0.06562618012219677
225	0x3fab01c4b66a6859	0.05274786688569639
226	0x3fbed2aed9c5867b	0.12040226761521382
227	0xbf93bd26706c1dc2	-0.0192762380711693
228	0xbf8313600563edcb	-0.009314298786640493
229	0xbfb15bf123f6dc4d	-0.06780917289766926
230	0xbf9472446712164a	-0.01996714476674403
231	0xbfabc7dc5b949693	-0.05425919168400841
232	0xbfa212dc8373ad4b	-0.03530015091549873
233	0xbfb29b5f0b6f6a4b	-0.07268327740840978
234	0x3f724526ed41c465	0.0044604797914057125
235	0xbfa13132769c751d	-0.03357846925630723
236	0x3f842c47f2b307c1	0.00985008439454649
237	0xbfb758f68d75bd74	-0.09120121911631945
238	0xbfb283c45577159b	-0.07232310377647481
239	0x3fba20c878cfba7a	0.10206273030756022
240	0xbf9a52c9aa7caf49	-0.02570643523283359
241	0x3fb7ceceaf611fac	0.09299937993739488
242	0xbfbbceed6fd5e884	-0.10862621288643665
243	0xbf6f78597725d22c	-0.0038415667888165497
244	0x3fbc296d8d0683ab	0.11000714009288852
245	0x3f946e7125da0128	0.019952552733685597
246	0x3fc238251040004c	0.1423384026857114
247	0x3f84be9467f3a0eb	0.01012912695155462
248	0x3fb44744dff8b33a	0.07921247928670719
249	0x3fa1a9fa8f282d43	0.03449995992203949
250	0xbfa59ec64d42d391	-0.04222697919013919
251	0x3fa7bc7300f55ba0	0.046359628550525445
252	0xbf6a952671463f9f	-0.00324494846626773
253	0xbf8bfb293670bba5	-0.013662645315063513
254	0xbfb82baadf043721	-0.09441631264436669
255	0xbfb85a8720e2b72e	-0.09513134529944686

layer2.bias f8 [128]
0	0x3fa8a1e902aa7446	0.04811027677099182
1	0x3fb13c728c2d0b68	0.06732860491051229
2	0x3f8747107794133d	0.011366013192409258
3	0xbfa0ccc9edc0fe2f	-0.03281241442936921
4	0xbfa03188bc4d5141	-0.03162791536911636
5	0x3fb8c7317f12ffb8	0.09678944923780264
6	0xbf90661015770af7	-0.016014338789100937
7	0x3fc5d4075d5b934f	0.1705331045006013
8	0x3fd18628a302c4aa	0.27381339949631445
9	0xbfa2b94e0600f125	-0.03657001326834778
10	0x3fcdf7a3b330d9c4	0.23411985635330101
11	0x3fa3426cb7b5d258	0.03761615507656718
12	0x3fa082be49caec5c	0.03224749232091348
13	0x3fbb31be148050a4	0.10622776031988451
14	0x3fd1ceb74dc7bc9a	0.2782419452259518
15	0x3fb9b0323ecdd4a7	0.10034479172994058
16	0x3fbac22663c5e2f2	0.10452499328483691
17	0x3f85201c869a17ea	0.010315153939938388
18	0x3fad3586f047782b	0.05704900439353396
19	0x3f62e91908674df9	0.0023084153101338126
20	0x3fa849352c99b897	0.0474335305160462
21	0x3fbb1f5c77d81181	0.10594728399161647
22	0x3f9a8c4bd8a4c8d2	0.025925812814599443
23	0xbfaba81e2e0bfe00	-0.05401701271147985
24	0x3fb00fee817ad6fb	0.06274309788826919
25	0x3faf43725a971552	0.061061452444429634
26	0x3f99754f492db9d0	0.024861563531368536
27	0x3f9ea75f35a3f95c	0.029935348175962204
28	0xbf8839f9d7a27925	-0.011829330342433561
29	0xbfc7c72aa523aedc	-0.18576558173605562
30	0xbfa5bd1d781dd1c4	-0.042458458817154404
31	0xbfb1b2fee4e1f74e	-0.06913750732379961
32	0x3f898efa34087ba1	0.012479738915372187
33	0xbfa22d0cee6a3749	-0.03549995813692292
34	0xbf876ced622d9c98	-0.011438231047306055
35	0xbf9317b99514e634	-0.018645190929623648
36	0x3fab5132cf677c3e	0.05335387021818193
37	0xbf86006e7b3f2f96	-0.010743010650820211
38	0xbf6cf430b875802f	-0.003534407765684498
39	0xbfb5878a353f3d50	-0.08409942436195661
40	0xbfb472024ff0f299	-0.07986463977517601
41	0xbf9714018787067d	-0.022537254235209126
42	0x3fbc88459ec54250	0.11145434499963724
43	0xbfaf8f53dc9b92ef	-0.061640377692844577
44	0x3fb749da82b0a00c	0.09097066584274688
45	0x3f8fe05f809369fa	0.015564676390956034
46	0x3f90ff428c2fc5a5	0.016598739439307803
47	0xbfb2d70c75a54060	-0.07359388229565544
48	0x3f989eaa72e461ae	0.024042762052973003
49	0x3f90988b01d25a69	0.016206905351817378
50	0xbfa50380d48c176f	-0.04104235262461386
51	0x3fb3199965bfb986	0.07460936292748074
52	0x3fd0dca7bc9efdd2	0.26346772594476164
53	0x3f9cdef695d2b3fb	0.02819428719947224
54	0xbfa185fb88fc7b32	-0.0342253308028745
55	0x3f989251f7df8862	0.02399566722295566
56	0x3fc8ce6345aaff50	0.19379845525508665
57	0xbfb335317553fcc0	-0.07503041376547781
58	0x3fc0b977917c72f5	0.1306600056058397
59	0xbfac95740e9a34c7	-0.05582773855449257
60	0xbfb2ff95657d6fea	-0.07421239593298848
61	0x3fa611dc98e7c5d9	0.04310502401848355
62	0xbf9e9a7385956cd1	-0.02988605978803777
63	0x3fa76b8a659fb350	0.04574234476590411
64	0x3fa8a17b678d9a9e	0.048107010260357116
65	0x3fa8e9111e5b6f85	0.0486531590993016
66	0xbfae3877cfe9bac2	-0.059024566774373635
67	0x3fd49100ff3ee6d4	0.3213503353723415
68	0x3fad7bbfdc908a89	0.05758475844802031
69	0xbfa00ab61ddd8365	-0.03133172144476396
70	0xbf99878a43e87504	-0.02493110694387203
71	0xbfb15fad12244ad4	-0.06786615078844288
72	0x3fa12ebb4ca84c89	0.03355965910682197
73	0x3fa31483a29fa31c	0.03726588592673449
74	0xbf910ef80feea123	-0.01665866467706779
75	0x3fa86b2137351e7d	0.04769233511848101
76	0xbfc1106fe50666b8	-0.13331412012921873
77	0x3fb4620a0303b3b3	0.07962095807643159
78	0xbf8760125df3c7dd	-0.011413711063571636
79	0xbfad4a8f63f19449	-0.05720947356238832
80	0xbfcde5cadfaa5070	-0.23357520981938107
81	0x3fb01f48ab8c6630	0.0629773539370937
82	0xbfba5d8b137e47a2	-0.10298985696706933
83	0x3f88e19c91643f86	0.012149069964408243
84	0xbfb28a17f889ee47	-0.07241964166490177
85	0xbfb25497edeed68f	-0.07160329398069563
86	0x3fa62a7b06059598	0.043292850956997586
87	0x3fc1be3195105092	0.13861675051214611
88	0x3faa92151de581d6	0.05189577093074475
89	0x3fd08de555588d7a	0.25866063437043574
90	0x3fac44a07d98d679	0.05521108182112484
91	0x3f5c9e78f0a4ab05	0.001746767144661988
92	0x3fabdf893ee70978	0.054439820221449275
93	0xbfb74101f4759c6c	-0.09083568781135093
94	0xbfb13b786043e35a	-0.0673136935255462
95	0xbfacd00ae1b3fa8f	-0.056274738361016145
96	0xbfb825788590f282	-0.09432175885098995
97	0xbf9c50d9a5611e1b	-0.0276521689595751
98	0x3faf2d315480c253	0.06089166790514313
99	0x3f863ddad2fe11b3	0.010860166133860405
100	0xbf5354cc6eca35e9	-0.0011798855222510069
101	0xbfb8115b6cc64333	-0.09401484876276527
102	0xbfbac97e714be91f	-0.10463705316570725
103	0x3fc886585d66aa0a	0.1915998893794753
104	0xbfc28c5bb7b73f77	-0.1449083945321907
105	0xbfb2af73430efa33	-0.0729896582333616
106	0xbfacf947b1e2929e	-0.056589355911716085
107	0xbf2f906d16d1812a	-0.00024081546453925382
108	0x3fb465680a2427db	0.07967233893955898
109	0x3f7794642eeb0de2	0.005756751385607358
110	0xbfb2f4c1fbe35cff	-0.0740472068749689
111	0xbf87d5969841120d	-0.011637856027058491
112	0xbfbf1cc635a84a1a	-0.12153281030649801
113	0x3fa9b7657289fedc	0.050227327567879704
114	0x3fcdc21186737d47	0.2324849993228588
115	0xbf95ea7601be09bb	-0.021402210098594426
116	0xbfa2336a19697713	-0.03554851112560988
117	0x3fb5cefb54cb43bf	0.0851895410553558
118	0x3f9709dc3a123f8a	0.022498551411046765
119	0x3f8399cb68850b0d	0.009570683600605112
120	0xbf9dfac3a2a9abdb	-0.029276902011058908
121	0xbf99dc0fbe264baa	-0.025253530484018384
122	0xbf81842219b78520	-0.008552805337731118
123	0x3fa19ccd765a464a	0.03439943380102457
124	0x3fb02b788d16a61b	0.06316331333678031
125	0xbfae65650d7dc7cb	-0.05936733045281491
126	0x3fb8540b90cbf2fc	0.0950324276454459
127	0x3fb44112ff09f65d	0.0791179535535433

custom_layer2.beta f8 [128]
0	0xbffdacdcdb47819d	-1.8547028127287384
1	0x3ff69c03a20b1677	1.4130894021813256
2	0xbfd9f31d1cacd52c	-0.40546348381333774
3	0xbfe765d47a7e29e4	-0.7311804192007085
4	0x3fe896951e5ad8df	0.7683816521519268
5	0x3fd581f873332211	0.3360577702519843
6	0x3fd34c968f9cda4a	0.3015495684116202
7	0x3feaf85b1cc42e5b	0.8428168832628659
8	0x3ff51272695ef1db	1.3170036426591796
9	0x3fe89788916b5645	0.7684977379055417
10	0xbff16398b57f9c8e	-1.08681555650563
11	0x3fe48b15bb22423d	0.6419781355817303
12	0x3fcae0087f74e0f9	0.2099619505259012
13	0x3fe4c2820fd1a011	0.6487436589204681
14	0xbffdc1db47d30d0d	-1.8598282628671001
15	0xbfe03b211c33a3fb	-0.5072179365935193
16	0x3fe91fbfd5952ff7	0.7851256534136145
17	0x3fea1bd74fb8b5d5	0.8158985669194246
18	0xbf5f3b83914cdf82	-0.001906279071773626
19	0x3fe78ce10ce93f7a	0.7359471561594397
20	0xbf9e5d57c977bf91	-0.029652949973694446
21	0xbfe751d634529cf8	-0.7287398359229931
22	0x3fe68dda4a819a35	0.7048160033417107
23	0xbf8eaae9e6ba3e0d	-0.014974429467911521
24	0x3ff0a32ce746d4cc	1.039837745117711
25	0x3ff3646dc7b7b16f	1.212018757006344
26	0x40053fcd5840304e	2.656153382738956
27	0xbfd2614fcc7e34df	-0.2871894356729409
28	0x3fe09ef71bbc512c	0.5194049398146823
29	0x40014d1945f4e3f9	2.1626458611831336
30	0xbfe52ee5c73d214f	-0.6619748011953933
31	0x3f8abd6bf1893084	0.013056605633345215
32	0xbfebfa4e4c825555	-0.874304913932671
33	0x3fedaee05275d97f	0.9275971994928084
34	0x3fde58c0f5dc4b99	0.4741670990926479
35	0x3fdc71b3c698a306	0.44443983453906843
36	0xbfde5df6ec912439	-0.4744851408218583
37	0xbfd077914cfbd86f	-0.2572978259844438
38	0xbff4a946bbaf2fbd	-1.291327222005733
39	0xbff1274c8ccbdff9	-1.0720944881304588
40	0x3fbd4a9fa67ecc25	0.11441991629435273
41	0xbfbfa8dac9426f53	-0.12367026723444256
42	0xbfe9ec94d68e19c2	-0.8101295652893941
43	0x3fa31f46807ef866	0.03734798735193649
44	0x3fe34d7b53002eb9	0.6032082196338343
45	0xbfd7ca608f3582b8	-0.3717271231198924
46	0xbfbd61f50ea3875d	-0.11477595908539003
47	0x3fc722f1692f0164	0.1807538760749693
48	0xbff9c87df1a03722	-1.611448234415953
49	0xbff1ae94ee0af8a4	-1.105122499327572
50	0x3ff1cc9772d3023e	1.112449120075453
51	0x3fb6664b3d0e07b9	0.08749838104816278
52	0x4005f28da8ce9535	2.743434256367119
53	0xbfe0fcb8031e6025	-0.5308494625960561
54	0xbfef48d829710c58	-0.977642136517157
55	0xbfd401fc5bf4c96f	-0.31262120227906726
56	0x3ffd6de51e6bcefd	1.8393298328709868
57	0xbff0c946794f1097	-1.0491394747378189
58	0xbfe853a936de6df3	-0.7602125236184619
59	0x3fc9efd020042525	0.20263101161280264
60	0x3fe52227bef9e57f	0.6604193429949844
61	0xbf6cc9a53bdb4741	-0.0035141207907622156
62	0xbfd40f12c08b6769	-0.31341999819925676
63	0xbff21a0dff550e55	-1.1313610052028669
64	0xbff74ca1ca3d64cd	-1.4562089824669784
65	0xbfe405becc7c49c4	-0.6257013315064843
66	0x3feb18d0be28b667	0.8467792238277071
67	0xbff94d77ee06442d	-1.5814132020789302
68	0xbff2d84477459cac	-1.177799669176049
69	0xbff04608df7074ab	-1.0170983055207141
70	0xbff2595262b8cc04	-1.146807084686544
71	0x3ff0521193fb83f2	1.0200362949910837
72	0xbfd897a9fe3be5b1	-0.384256838107457
73	0x3fadfd23e4f41676	0.05857193155138145
74	0x3feed86e17ec95b8	0.963919684149622
75	0xbffa3b6c0ee1b25a	-1.639507349139555
76	0xc00d1ac329eed584	-3.6380675579081885
77	0xbfb16cd37dbe4187	-0.06806680507566486
78	0xbff0c87f8e4f5f5b	-1.0489497717844276
79	0xbff3e873381940ac	-1.2442505065301175
80	0x3ff7888245a12477	1.4708273620510945
81	0x3ff03bc3d92a1612	1.014591072367129
82	0xbff0794a3bcbd6db	-1.0296118102827936
83	0xbfc6069ac18fe89b	-0.17207655383373752
84	0xbff621b1beeddd27	-1.3832261522455356
85	0x3fc80ebf0381f554	0.18795001670143086
86	0x3fcff98faba43fb7	0.24980350380837787
87	0x3fba57eb4a3663c7	0.10290403901889454
88	0xbfef80097157bad3	-0.9843795026516439
89	0xbff61f1c0fd72682	-1.3825951212660645
90	0x3fc73ff5e602e912	0.18163942080520507
91	0x3fe645ffa9b30cd9	0.6960447611276336
92	0xbff15db62b6b5fef	-1.085378808600577
93	0xbfdeeb054a4cf408	-0.4830945230094703
94	0x3fc2d67f4528f3b0	0.14717093350364285
95	0xbfd9de2caf90a0ff	-0.40418545861258787
96	0xbfe98f1fc6dd7b9b	-0.7987212070546436
97	0x3f89235e33aeb038	0.012274490310879668
98	0xbfc78b0bd88933db	-0.18393085549396812
99	0x3fe0d0ce00ff50b5	0.5254888553122529
100	0xbfd141f278025a22	-0.26965009421965835
101	0x3ff30800767cf509	1.1894535664026213
102	0xbff2570d3d9b4136	-1.1462528616430752
103	0xbff48f45a3fb6c54	-1.2849785237838391
104	0x3fced27aff25044c	0.2407983537505366
105	0xbfdd5995c54e6e15	-0.45859283703041004
106	0xbfa80ca1ef6b38bd	-0.04697137878030009
107	0x3fd4ee390d3603c2	0.3270399693502065
108	0x3fe211387d62af90	0.5646021317420367
109	0x3fd667d89a9de908	0.3500882635049867
110	0xbfadfc583525aeac	-0.058565861213393106
111	0x3fcfbf6235ef9ee0	0.24802806504816655
112	0xbfa44f6e12793208	-0.03966850257402049
113	0xbfd24447afee736c	-0.28541748219304597
114	0xbfeed895ec813482	-0.9639386767609184
115	0x3fd5290121bc071e	0.3306277112425152
116	0xbfeed6c2d0ebf04d	-0.9637159424305622
117	0xbfa77871817ab787	-0.04584078507956151
118	0xbfb9d6c2e26d2f88	-0.10093324687949068
119	0x3fe43f73cd778412	0.6327456486725416
120	0x3fdde23635c3a0c1	0.46693186998755826
121	0x3fe331343730ea69	0.5997563436461181
122	0xbfe54c06f470d44e	-0.665530660079307
123	0xbfd9c5adfe4d2e83	-0.40269040903215386
124	0xbfd93f3bd80e9ae8	-0.39448448275872616
125	0xbfdeb5b547dc08a4	-0.4798405839684483
126	0xbfec667cbcafe495	-0.8875106511396945
127	0x3fde479a86c5cae1	0.47312033807172155
