COLA_Emulators/PCE/wCDM_PNN_HIGH/MODEL_Z0.929.pth (torch, 192382 bytes, 10 tensors)

layer1.weight f8 [128, 25]
-0.014558850676351105 -0.03820372747960413 0.12386736607959639 0.09124601732279035 -0.32972018624115507 -0.19657367965523562 0.17870816046163673 -0.15005740070449744
0.11681688786288724 0.09100916314179484 0.1567490349570772 -0.13890121742158917 -0.2015923659195133 0.07586299358697947 0.22506077279623307 0.11275914111855703
-0.08069449839637706 -0.07328122221127738 -0.0793496182482081 0.05291537870944061 -0.11367146419481522 0.13615956600135634 -0.05306108807485127 0.07875158391373312
0.023239496964313697 -0.11116638473493551 0.09075226827864834 -0.1184041137071932 -0.6667274989103551 0.4878933053785649 -0.09462190681917775 -0.0370516209335636
0.25270147875188276 -0.046027733928916494 -0.4054977970214488 -0.2248540841227982 -0.07904106325744627 -0.022392375746636262 0.19461797175992035 -0.2637228533051578
0.06768498482729558 -0.1942648573031039 0.15893696080823047 -0.05182511201276048 -0.09401300610627825 0.014184850351803202 -0.019047899710747745 0.12647770351352072
0.087744444872647 0.12216914782468653 0.006213600179028051 0.010151066178637756 -0.024112131299289657 -0.018917702477861016 -0.0729548765724061 0.18331835516270925
0.24530166504561537 0.04591124853207679 -0.1731512012158611 0.26214647101334254 -0.6946912954966243 -0.20987162276554897 -0.2803681748891386 -0.092016623598173
-0.08233290654227352 -0.04442096045343763 -0.24510866541802576 -0.33065292381004135 -0.2690852986420841 -0.04367916742972481 -0.20683975642745814 -0.23523008991104635
0.0930848392704778 0.012623232142152854 0.3850719088259613 0.01622357418185081 0.07913241511507067 0.09059000485240143 0.5169102025054956 -0.1705483326694929
0.1145770782618582 0.0883108886987422 -0.19760439269223637 0.24321233385571447 0.016295302396073463 0.23178040956391796 -0.14360379535023246 0.19418780369199043
0.045061768464096444 0.05713039197209837 0.18403529799161883 -0.13239160790778307 -0.29937431567751177 -0.15356667134091745 -0.05462136235582301 -0.16420808268677412
-0.13055362229976286 -0.30653403515192296 0.004287821744768813 0.06773961851744639 0.006642971641154155 0.0871810129067033 -0.3222718929605112 0.03811344068571176
-0.07326087546232854 0.031028326798260758 0.081672921373067 -0.07370468321143708 -0.26418818531692834 0.06268496705301983 -0.17889454060452786 0.15143611208407953
-0.05918490748086921 0.020747328263113672 -0.09976562238194549 -0.014922714218710833 -0.14980424025839337 0.18934050825358748 -0.06506741821079923 0.1407227273056241
0.19576155915826046 -0.06212777122117887 -0.033002644012019744 -0.0052776447096861 0.1070029594984488 -0.02891764924966896 -0.00883644358639402 -0.21493089913519225
-0.4793596712794476 0.33550166940213805 -0.08477244832561051 -0.19926887111719566 0.15881566130554464 -0.007331540901687897 -0.23105641888707407 -0.3226404426166168
-0.1628405957979201 0.2871291837702569 0.07901044052430094 0.09011332577637855 -0.025149400797856193 -0.04190859953194572 -0.22519887027843632 -0.10875922280130455
-0.09734221729471408 -0.36769392658847544 -0.10829807213532394 -0.06109556528400502 -0.008520289831626946 -0.034011489847947066 -0.029463245543551154 -0.03646342348701687
-0.17666109041989503 -0.529654636049278 0.2903381218348295 -0.0804034905269912 -0.045205591994495725 0.019961122569144476 0.205014231009509 -0.1080937671143778
-0.13959516838364772 -0.29407666188873066 0.021564549601489735 -0.16865597767898716 0.20482058457060312 -0.05150498114511615 -0.040765203043459104 0.1344119425671398
0.18611450496943951 0.12949477890481864 -0.09069068930122003 -0.301078927617136 0.055770979536119536 0.15000781599441287 0.17403217518910796 -0.0019847021140068366
-0.07758437578026879 0.05414913619938705 0.020459811798504115 0.057531685501217664 0.16846116349142798 -0.3232083972699111 -0.052468579451308325 0.012306293794701545
-0.4178328445441011 -0.05679375943959521 0.20924788467473954 -0.1337073822626534 0.010977901013119067 0.18115411989689637 -0.20551793042149755 0.19630045546787986
0.25257447663310584 0.1405428221939937 0.03545245100257252 -0.1387059793282238 0.24678586926987994 0.29070001392125616 0.0716698767271668 0.05486520856488961
-0.03865754998770354 0.20087234371859505 -0.029784155014326314 0.3397150307063165 -0.07806036380068301 0.05323294974469793 -0.19085363317255727 0.23379917847629467
0.20361379946517605 -0.21290121422452862 0.1059675972357198 0.04134106991256695 0.052223017269278756 -0.03347213619350219 0.3295053757581859 0.21589613886428666
0.033927155757998505 0.29178655573911694 0.35809845626074394 0.07683052600529285 -0.02624895689147856 -0.09465099028029128 -0.3357189847371666 0.07281902710544874
-0.2450333398190319 0.022392015754532795 0.014889326245493148 -0.00842510048902552 0.04809077404898962 -0.2740645440994157 -0.057094066524202215 -0.15100907354533788
-0.0041449523638108976 0.019159754583289695 -0.14178746170681586 0.13856251389345506 0.04875606922582098 0.09701912410593493 -0.21375840763411888 -0.12613984339748166
0.03306142034119349 0.10995870462486784 -0.15354323722053076 -0.048998475189189414 0.16813441442651217 0.18683674941060438 0.07392224455542205 0.00982388191796849
-0.04764628120509269 0.14207378722070405 -6.403606864314054e-05 -0.017768891419232505 -0.03851818869714273 0.09192963503173963 0.2800412988291243 -0.22722036877191312
00000000: c49e 2ddc 07d1 8dbf a46b 3860 708f a3bf
00000010: b280 5a8e c5b5 bf3f 87a8 4a24 e65b b73f
00000020: 9227 2fb2 221a d5bf b3d2 af8a 5329 c9bf
00000030: b003 5bb4 e8df c63f ff37 46b6 1435 c3bf
00000040: 80d9 fd28 b6e7 bd3f ff90 5463 604c b73f
00000050: 8efc 6835 5a10 c43f caa3 19dd 83c7 c1bf
00000060: 86b0 5f55 c7cd c9bf b1c7 6ed4 c16b b33f
00000070: f9da 6299 cace cc3f 6ae3 6d77 c8dd bc3f
00000080: 4d5e 9407 65a8 b4bf b5ef cee4 8ec2 b2bf
00000090: d27d 53af 4150 b4bf ad66 067a b917 ab3f
000000a0: c885 34b5 9219 bdbf 67b6 8139 ad6d c13f
000000b0: a87d f1ab d22a abbf 4ded 6a55 1029 b43f
000000c0: 3cb6 bf3d 18cc 973f cce1 d972 6675 bcbf
000000d0: bf6b 4b68 8a3b b73f 1292 1564 bb4f bebf
000000e0: 443e 65e8 d455 e5bf 2273 a2d7 a439 df3f
000000f0: eb05 462b 2439 b8bf bdcd 5818 6ef8 a2bf
00000100: a2f8 b8d2 422c d03f 150c de77 f290 a7bf
00000110: a7a8 3308 adf3 d9bf 41f8 d6c4 04c8 ccbf
00000120: 2d57 bbfd 083c b4bf cdd2 0be6 06ee 96bf
00000130: 581b f6df 3de9 c83f 43d2 89d1 d5e0 d0bf
00000140: 2174 439c cd53 b13f 0a81 70bc abdd c8bf
00000150: 8f03 66dc 0b58 c43f caa5 6932 d288 aabf
00000160: 6e07 a082 3c11 b8bf 938f e062 f20c 8d3f
00000170: 88b6 42e9 4a81 93bf c0c2 21e0 6b30 c03f
00000180: c139 2281 6b76 b63f 55ba 7c2e 7a46 bf3f
00000190: fa13 f398 6e73 793f 1fe3 0d0a 15ca 843f
000001a0: 581f 78bd d9b0 98bf 32dc d485 295f 93bf
000001b0: ca52 f6b8 2bad b2bf ad15 17d2 f976 c73f
000001c0: dd3b 8382 0b66 cf3f e876 eddd ad81 a73f
000001d0: 4f1c 3e8d d129 c6bf 50e7 f0fd 01c7 d03f
000001e0: f929 5f3d e93a e6bf 3d78 11c6 12dd cabf
000001f0: 5b3c 7f5b 8df1 d1bf f2e0 0ac5 668e b7bf
00000200: 0ed3 fbf4 c413 b5bf a810 cf18 58be a6bf
00000210: 63e3 f782 b85f cfbf 6dd1 85e1 6a29 d5bf
00000220: 2223 608b b138 d1bf 451d 41a7 1d5d a6bf
00000230: 452c afa2 b979 cabf a5fe 9903 051c cebf
00000240: e58c 6b74 68d4 b73f 6e4d c389 35da 893f
00000250: d402 c1a5 04a5 d83f 3a20 24a2 e99c 903f
00000260: 7b04 f99e 0542 b43f e87f 2f14 e830 b73f
00000270: db5a d743 878a e03f 5df5 991b 87d4 c5bf
00000280: 8c83 0164 ec54 bd3f cb7f d7da 8a9b b63f
00000290: 475d 14ca 194b c9bf c372 f2ed 9421 cf3f
000002a0: 806f 7a3b b7af 903f 0f1b 77ff faaa cd3f
000002b0: 3f2c 4ef2 9b61 c2bf 39d0 115d 25db c83f
000002c0: 0ad9 b40b 5612 a73f 1372 41da 3140 ad3f
000002d0: c680 17f9 778e c73f c548 1d4d 35f2 c0bf
000002e0: 0d3a c6e3 f228 d3bf da18 959b 12a8 c3bf
000002f0: 2b63 f6c9 54f7 abbf 9c74 703c c504 c5bf
00000300: c46e 1329 fbb5 c0bf bba8 05ee 409e d3bf
00000310: f043 a362 1b90 713f f20a 2d36 6257 b13f
00000320: a0f6 261f a935 7b3f b635 44af 7e51 b63f
00000330: badd 2b4a 1aa0 d4bf 5ffb 90da 9a83 a33f
00000340: 32e1 2f88 39c1 b2bf 487c 64c3 e3c5 9f3f
00000350: 461f 443e 84e8 b43f 8885 f463 4fde b2bf
00000360: 3840 fb8f 75e8 d0bf ff8c 713b 1f0c b03f
00000370: 7e29 aa2c 04e6 c6bf 4ad1 6a2e 4262 c33f
00000380: fb1f 18f4 7b4d aebf 0651 7aa1 c93e 953f
00000390: 3542 6565 3d8a b9bf 419b 4bcc cc8f 8ebf
000003a0: 6520 5b0c c92c c3bf 27eb 604d 4f3c c83f
000003b0: 3a23 4021 42a8 b0bf 4571 cacb 3303 c23f
000003c0: 8908 33fb b60e c93f 93fc 2213 36cf afbf
000003d0: a822 6df9 b8e5 a0bf 3120 d9f6 029e 75bf
000003e0: 25fd 9ec3 8b64 bb3f f5d5 3797 969c 9dbf
000003f0: 426a bb61 d718 82bf 4cbf 570f db82 cbbf
00000400: 8fa8 ca2f d4ad debf 417a 75fe db78 d53f
00000410: 820c 29ad a5b3 b5bf ae93 4772 a481 c9bf
00000420: ce30 b353 1254 c43f 2abd 6e86 ad07 7ebf
00000430: 604f 53b9 4193 cdbf fdf0 5919 24a6 d4bf
00000440: 74e4 b4ec f5d7 c4bf af4e 8115 5360 d23f
00000450: 472c 183a 073a b43f e9b1 24bb aa11 b73f
00000460: 1a5e c3b7 c3c0 99bf 435d d240 0b75 a5bf
00000470: 7494 780b 51d3 ccbf 3fea 11f9 a4d7 bbbf
00000480: 4309 cd67 6beb b8bf 32a9 681b 4c88 d7bf
00000490: 4083 0a26 6cb9 bbbf 5a9f a6fd ea47 afbf
000004a0: df29 6ff1 1573 81bf 3a9b 2b39 f469 a1bf
000004b0: 9a9d 2cf0 9c2b 9ebf b9fd c076 55ab a2bf
000004c0: 8621 eaa2 d49c c6bf b034 8047 eef2 e0bf
000004d0: 8f02 8458 e694 d23f 4c34 4cba 5295 b4bf
000004e0: 34e4 6cf6 2f25 a7bf f7f1 8042 b070 943f
000004f0: 4c41 b304 e83d ca3f 915e a87a 08ac bbbf
00000500: ac95 7125 41de c1bf 7b0d 55eb 26d2 d2bf
00000510: 705c 2a6d 0415 963f eafc 33e2 8496 c5bf
00000520: bba0 2398 8f37 ca3f b0e0 3263 dc5e aabf
00000530: a1dd c53b 2ddf a4bf db43 c218 6934 c13f
00000540: 21d6 13a0 99d2 c73f b010 33f0 4893 c03f
00000550: 3fb6 9948 8137 b7bf a957 e88c e044 d3bf
00000560: 70d7 588a 038e ac3f de91 ebc3 7433 c33f
00000570: 7cc9 71b2 af46 c63f 40b5 80d5 3842 60bf
00000580: f125 a8d4 91dc b3bf 3881 2a82 6fb9 ab3f
00000590: 6741 3aba 6af3 943f 0e48 6c07 cb74 ad3f
000005a0: dabf eba9 2290 c53f 2b47 0446 72af d4bf
000005b0: 6e34 9f61 29dd aabf ddd0 10cb 0a34 893f
000005c0: 80bd a0f8 c5bd dabf 52e5 d156 1214 adbf
000005d0: 2cb4 b77a a2c8 ca3f 93a3 06d1 521d c1bf
000005e0: 9cfc a3ee 947b 863f 2515 3fe6 0e30 c73f
000005f0: 9f72 f35a 694e cabf 5354 3692 5f20 c93f
00000600: 6662 3c23 2e2a d03f 1f60 81a4 4efd c13f
00000610: 8cf9 3cdb d226 a23f 43b8 7c16 1ec1 c1bf
00000620: 3a85 d0ea ad96 cf3f 3d44 2f3b d49a d23f
00000630: ddca a600 f558 b23f 2de7 f2e8 4a17 ac3f
00000640: c09f e121 ecca a3bf 379b 7859 2fb6 c93f
00000650: 45f0 e6ce bc7f 9ebf 0ef8 b51c e4bd d53f
00000660: 9646 a395 c3fb b3bf be38 7264 5941 ab3f
00000670: d242 6650 e46d c8bf c694 b1a8 21ed cd3f
00000680: 4ece db58 0410 ca3f cabf 2fd4 5840 cbbf
00000690: 6828 9044 b120 bb3f c422 831e a82a a53f
000006a0: d93c 8aae f9bc aa3f df83 8e84 4223 a1bf
000006b0: d534 2fb7 9d16 d53f d29c e013 7ca2 cb3f
000006c0: db92 da70 e65e a13f 9ef7 9384 a1ac d23f
000006d0: b1d4 98c9 15eb d63f 41f7 8654 2aab b33f
000006e0: c4af 9cad 01e1 9abf 84b1 c91b 0c3b b8bf
000006f0: c3ea 057b 6b7c d5bf d0c6 f18b 44a4 b23f
00000700: 21e8 79a2 405d cfbf 0bcf 6dbd eeed 963f
00000710: 585c 458a 4b7e 8e3f 28eb 86d8 2d41 81bf
00000720: 8c39 8f9b 5a9f a83f e69b 7903 468a d1bf
00000730: edc0 08f9 6e3b adbf dc63 23ec 4354 c3bf
00000740: 3767 892d 4cfa 70bf 68a5 565d 9d9e 933f
00000750: 83be 816f 1726 c2bf 1bdd cf9c 6abc c13f
00000760: 2fe2 9c35 8ef6 a83f 471e 1fcd 3ed6 b83f
00000770: 434c 047d 6f5c cbbf f9af 0eb3 5925 c0bf
00000780: 4bdd 3f2e 6ded a03f 943a 46f0 4026 bc3f
00000790: d02b 3107 4ea7 c3bf 7e9d fb00 5416 a9bf
000007a0: 26a1 a5b1 6d85 c53f 456a 3440 44ea c73f
000007b0: d7fc cf76 91ec b23f 53a3 751c 8b1e 843f
000007c0: aa91 1ae7 1765 a8bf 2fab dd4e 792f c23f
000007d0: 3be1 4748 63c9 10bf 948a 201e 0232 92bf
000007e0: cec1 82f1 a7b8 a3bf 059a fe57 b388 b73f
000007f0: 6807 0057 32ec d13f 7522 6e9a 8e15 cdbf

layer1.bias f8 [128]
-0.10919015765365218 0.15058091790257186 0.09461211856104142 -0.06323663167993 -0.014196145040623193 -0.2985450842286658 -0.0009884741358401079 -0.3165031787333569
-0.3495216483213302 0.06558830548086327 -0.7887831826984477 0.11607501460787019 0.17243531303572085 0.0688590117895537 0.09571876725249782 0.05827338577972893
-0.005822921971254215 0.030040390231687943 -0.06506606197380452 -0.14874273776886004 0.14834589651448693 -0.16085270839929752 -0.06721204926099705 -0.6446970553772007
-0.157827716697138 0.18788300172602793 -0.4190103215336443 -0.018411313866556304 -0.15689345147707387 0.3007499616836004 0.04270754289223871 -0.026586436304217215
-0.17074128733364824 -0.19694733568017622 0.13679939035627472 -0.3059085585119656 -0.11722754398064045 0.18642644477459624 -0.11058421033554622 0.07444517627721944
0.3152302985997987 0.018056235470224613 -0.17951538900109945 -0.010427335674992273 0.04760644075997895 -0.09482817996228293 0.4565675034248145 -0.2831443168573401
0.046499502805596414 0.07698939544566011 -0.14177483849404762 0.11273862160441997 -0.11444821234115234 0.5077869574895411 -0.12493025200908436 -0.13659533439963709
0.2829527352732113 0.161700660350861 -0.2809413778079552 0.048945874301062293 0.027118202575039753 0.09749162871695775 -0.6213369210168393 -0.19871023657170153
0.017315300371727838 -0.022653240877450163 -0.039539179263948614 0.27333685936480523 -0.08997955267181072 0.07921777197580757 0.26572899875683914 0.09142008206357831
-0.23794317624264028 0.17955582210869056 0.3894861731391958 -0.11790547529231486 -0.15491038148176808 -0.044444701624514436 0.1441995627804406 -0.043174676198904825
0.35452945082701204 0.1399004064261989 -0.466406629472665 0.029406494807331388 0.10073969741425898 -0.49233717692745677 0.08916664247658179 0.23983594517968268
0.023119408191760275 0.10425242740929272 -0.21134858149604438 -0.11448303873244267 0.020635669308993673 -0.08520638484259674 0.05358675555159349 -0.21264478670206602
0.05075699178590025 0.11309525985753494 -0.029918505974094706 0.2507585919003926 -0.06983506785640219 0.17274157346923524 0.06424053892058945 -0.07338679645916597
-0.06302712286406362 0.04743199244422111 -0.020261220340976452 -0.06634530941150003 -0.30764306782695106 -0.4207885692696785 0.028946638981334687 -0.1315835044310464
0.250907633489485 0.634616429768516 -0.15982423589752245 -0.054284850329422304 -0.05071189824651517 -0.24089089258471344 -0.033492630536283305 0.30252326029407567
0.22310192896071887 0.07047793070661337 -1.2094655741747837 0.1793820191453783 -0.046759229615561074 0.07635743431497723 -0.10603487437104611 -0.19701042239434619
00000000: 9be2 2adc e2f3 bbbf cf87 e54a 3c46 c33f
00000010: f562 06f3 7f38 b83f a178 f9a0 4630 b0bf
00000020: 1014 6e55 de12 8dbf 2332 49d7 5c1b d3bf
00000030: 882b 8705 f631 50bf 0f59 6f8c 9641 d4bf
00000040: 212f 320c 905e d6bf 6155 0a2b 65ca b03f
00000050: 5663 aa3a b63d e9bf 519f 9f97 17b7 bd3f
00000060: 1afc 143f 5c12 c63f 6ac7 ab83 bea0 b13f
00000070: 8781 f66e 0681 b83f 8c60 4d5c 02d6 ad3f
00000080: f56b f0b6 c6d9 77bf 87ad 6a76 e8c2 9e3f
00000090: baca 4160 2ba8 b0bf 8c0c 1e85 000a c3bf
000000a0: 4c44 0393 fffc c23f 1b25 0651 d296 c4bf
000000b0: 9c1e 7911 cf34 b1bf c285 15b8 5ba1 e4bf
000000c0: 77eb ced8 b233 c4bf ed9c f1d9 8c0c c83f
000000d0: c119 ebaa 10d1 dabf 0ea6 bb5b 6ada 92bf
000000e0: e779 86a9 1515 c4bf 8713 6dc4 7c3f d33f
000000f0: 7784 0758 c3dd a53f 8573 c689 7939 9bbf
00000100: 0865 96ba d9da c5bf aded e3fe 9135 c9bf
00000110: 2fb2 d875 a482 c13f 7706 987d 0194 d3bf
00000120: 2c56 96d3 9f02 bebf f04d b55d d2dc c73f
00000130: 285c d82e 3f4f bcbf 06a3 74cd d60e b33f
00000140: de71 ccb3 bb2c d43f 607e 5573 557d 923f
00000150: 69b8 713a 5cfa c6bf 2405 ab4d ed5a 85bf
00000160: 9940 4914 df5f a83f 7c5d addb a846 b8bf
00000170: 810f e8e7 6638 dd3f 9ad5 3c57 091f d2bf
00000180: ab1c a967 c8ce a73f aaf2 93b7 93b5 b33f
00000190: 8922 5d8b ad25 c2bf 927f c934 70dc bc3f
000001a0: 1146 1761 7a4c bdbf ee17 f86e ca3f e03f
000001b0: 68f9 a8d2 6dfb bfbf 0f2d 04b7 f47b c1bf
000001c0: e4fa 13ca e51b d23f 266a f973 9bb2 c43f
000001d0: 73d0 718b f1fa d1bf 695c cb02 6f0f a93f
000001e0: aa90 bec4 dfc4 9b3f 9b1d f91c 36f5 b83f
000001f0: b211 72f7 fde1 e3bf 515a ba47 566f c9bf
00000200: 6d98 4423 1abb 913f a944 de42 6932 97bf
00000210: c7dc b2b3 7a3e a4bf 1ad8 f0e1 597e d13f
00000220: 2bbd 0864 e608 b7bf 7ee8 e5ab 9d47 b43f
00000230: cf9a d033 b401 d13f f723 a976 4e67 b73f
00000240: 585e 2208 ec74 cebf 2fb1 e167 affb c63f
00000250: 6b21 f869 57ed d83f 275b 66a0 0d2f bebf
00000260: c135 2377 1ad4 c3bf 8360 eab7 74c1 a6bf
00000270: a6a7 1e9b 2175 c23f b351 94bc fd1a a6bf
00000280: b855 314b 9cb0 d63f d218 26ab 41e8 c13f
00000290: 7c40 0e31 9bd9 ddbf 842e f375 bc1c 9e3f
000002a0: 149d cda9 13ca b93f 8189 60ca 7382 dfbf
000002b0: 40bf 5405 a0d3 b63f adda 79ba f1b2 ce3f
000002c0: 7e8f 5838 9dac 973f 0664 407e 49b0 ba3f
000002d0: a36e ca66 780d cbbf 6e73 4dab c24e bdbf
000002e0: 2cb7 4053 8421 953f 1c31 4fec 15d0 b5bf
000002f0: ca88 2f25 b96f ab3f 396f 46c2 f137 cbbf
00000300: 760e 8707 d2fc a93f 3cb5 6b9a cff3 bc3f
00000310: b8cf d0f2 f4a2 9ebf facd d9c3 6d0c d03f
00000320: e3a3 8e04 b6e0 b1bf 88df 5a58 651c c63f
00000330: e8c8 bd65 1172 b03f 6515 c022 7ac9 b2bf
00000340: f64d 76a7 8b22 b0bf 4c02 aa90 0149 a83f
00000350: 4457 f77a 5bbf 94bf 3d57 2a96 01fc b0bf
00000360: 741a ca8c 6cb0 d3bf 41cf e22d 33ee dabf
00000370: cb0b 040f 30a4 9d3f a5b9 1c70 bad7 c0bf
00000380: a7dc 09e4 de0e d03f 9685 6b1d c74e e43f
00000390: c3de 24dd 1e75 c4bf 2e8f aa51 39cb abbf
000003a0: 0746 f9f0 e8f6 a9bf ad1d c744 83d5 cebf
000003b0: e6e5 9e31 f225 a1bf ab82 4f85 8a5c d33f
000003c0: 63c8 47a0 9a8e cc3f 3a83 7977 d70a b23f
000003d0: 377f eb92 f859 f3bf e723 dc70 fdf5 c63f
000003e0: 8a50 f863 d3f0 a7bf a975 302b 298c b33f
000003f0: 8abb a8fd 1925 bbbf 8cd2 9334 a337 c9bf

custom_layer.beta f8 [128]
0.3323569680173915 -1.5866357105574962 3.1216687608496705 1.145434514840927 0.35196887534384197 0.89035226618272 1.2227220579100992 -0.36632038670123007
-0.4437620673806133 -0.18223500423188665 -1.4418355374378133 -1.0268166118755218 -1.1255720444754094 0.003272800926762702 -0.69584172383166 0.09629870173207325
1.0083848418570227 0.07849508087910725 -0.033071195021692125 0.23794104642912567 -0.867764171347364 1.581814121451903 2.029727379541729 2.76133285520555
0.04861258770798385 -0.012280405305702558 0.1898560567218188 0.13050147127208347 -0.129220374026335 1.1833529319704448 1.3818883237237498 -0.48667113371299353
-1.3833189750301893 -0.14321207743212835 0.044670362614870264 1.5339930562732136 0.013510813635545335 0.3398162692144712 0.14741377025422556 0.20587075767074262
-0.15488016611798425 -0.05996237222091649 0.19905900569780116 -1.2926900422372518 0.09645672099682093 0.2992563045833302 -0.7678154916164894 0.6718616408810826
-0.8231812152482814 1.1630176306262179 1.1257451415245108 0.18901047479574934 0.5774548408287291 1.0849048608066592 0.0717415118419869 1.1943571497843841
-1.3838820614457434 -0.5675777152464014 1.8436552987189214 -0.38128380092715664 1.6825642020486198 0.037324093706958605 -0.7901070036059927 1.01283625246174
1.0098681904485494 0.8182378892879157 -2.4313914218494586 0.13546301546221104 0.3030297984613397 -1.6051142376179015 -1.240295190393006 -0.44197361416680914
0.0033197471991765278 -0.09300628777379005 -1.9042032720943662 -0.6589920499337344 0.0882527588421985 -1.2790788062799376 -0.25084349113628324 -0.2651284655368235
1.143888248546075 0.5144489999995884 -1.6320981270159662 0.17101671503240054 -0.1657639733137809 1.1107720265069507 0.07001296709513576 0.9540133142253128
-0.15270995743338237 1.254093516133353 -0.7569201984827694 0.44989772111513476 0.1635507536916488 -1.4294720716309852 -0.7361252187510905 -0.0534832815822463
0.021102489350009104 -1.4701471164471303 -0.006781854293689795 0.7108931414718089 -0.816876912518523 0.03097436008356894 -0.1290702885285303 0.07360843366982077
0.1800271930979738 -0.06220611657495112 -1.4739162296981498 -0.35572566523405974 -1.6034632303812664 -0.9954734302393998 -1.339712017223857 -0.03520468458960539
-0.7031372792966485 -2.647882053713091 -1.2038394813997717 -1.0875836604990379 0.16463210342591983 -0.3727616361297129 0.307921881103656 -0.39663155542497724
0.631063670771405 1.3656327163753732 -2.419743269108023 -0.5490960611196614 -1.1225071742548423 0.7211078043147265 0.04871593952914257 0.05845708592348971
00000000: e1df 0e29 5645 d53f a629 7820 dc62 f9bf
00000010: 7b5a a678 2df9 0840 f838 4f24 b353 f23f
00000020: edf2 3376 a886 d63f 9d93 2509 c47d ec3f
00000030: a925 2d01 4590 f33f cf59 2f10 cb71 d7bf
00000040: acb9 a603 9966 dcbf 4c62 ae03 7a53 c7bf
00000050: 8b18 f823 c211 f7bf 13eb 6f41 d76d f0bf
00000060: 1505 05d5 5702 f2bf a3e4 4b9e 8fcf 6a3f
00000070: 6793 e1dc 5544 e6bf ba25 961e 08a7 b83f
00000080: c0ed d824 5822 f03f c6cb 45ed 4018 b43f
00000090: b598 1d2a b5ee a0bf a201 652a da74 ce3f
000000a0: a07a 125e b9c4 ebbf 53ca ff52 1c4f f93f
000000b0: 886b 57b5 e13c 0040 3bd3 13ae 3517 0640
000000c0: f46a c2c4 bfe3 a83f 5a60 5b19 7826 89bf
000000d0: 77ab 4809 344d c83f 05c4 98af 45b4 c03f
000000e0: 73c2 3510 4b8a c0bf 3705 e77b 03ef f23f
000000f0: 5fe2 51ee 361c f63f 5a17 cdae 9e25 dfbf
00000100: f10d db13 1322 f6bf 7f4a 7bfa c554 c2bf
00000110: 550a 10a5 08df a63f adc0 8f4d 3c8b f83f
00000120: 18f9 a7b5 8eab 8b3f 5331 bbbc 8cbf d53f
00000130: 1169 1c55 74de c23f b104 b315 f959 ca3f
00000140: 134d 2300 1dd3 c3bf 50dc 5b57 63b3 aebf
00000150: 7621 b9f7 c37a c93f b661 f4c0 dbae f4bf
00000160: 6a26 293e 63b1 b83f 76a9 53ea 0327 d33f
00000170: 085c 3bcb f191 e8bf 3bad e0fb e37f e53f
00000180: 7088 c521 8057 eabf 5060 0360 b89b f23f
00000190: 9da8 6756 0d03 f23f cab1 ecc7 7e31 c83f
000001a0: 43d7 0893 827a e23f fef9 0633 c55b f13f
000001b0: 847e 20d7 a65d b23f 5015 213e 161c f33f
000001c0: 74e3 3684 6124 f6bf 867e 9dbd 9829 e2bf
000001d0: 9f84 d1b2 9c7f fd3f 7482 de2b f466 d8bf
000001e0: ac81 d370 c8eb fa3f 0801 a6c3 241c a33f
000001f0: 6081 9a7b 8e48 e9bf 066c 48c9 9334 f03f
00000200: 9cf4 338c 6b28 f03f 8dde da39 012f ea3f
00000210: 69f2 8458 7d73 03c0 8b26 9d22 da56 c13f
00000220: 18b7 8618 d764 d33f 139b 4e44 8cae f9bf
00000230: 20fc 01c5 3fd8 f3bf c4a5 a2b2 4b49 dcbf
00000240: 51af d8b4 0332 6b3f 2090 4f94 42cf b7bf
00000250: cb4d a9d9 9d77 febf ab42 d97e 7616 e5bf
00000260: f74e 0299 bb97 b63f 32aa 9f56 1b77 f4bf
00000270: 3e11 b6db d10d d0bf 5709 2e62 ddf7 d0bf
00000280: b98b 9cc3 5d4d f23f 0da9 cebf 5d76 e03f
00000290: c657 f6ec 121d fabf eb16 112f e0e3 c53f
000002a0: 246d 1efe c037 c5bf 428b 72e3 b8c5 f13f
000002b0: 4333 f8ab 5eec b13f 357b 11ee 4687 ee3f
000002c0: 4997 79f8 ff8b c3bf c4b1 de5c c410 f43f
000002d0: 544a 45b5 b038 e8bf f100 afcf 1fcb dc3f
000002e0: 8abf 2b29 3bef c43f 0c35 631b 1edf f6bf
000002f0: 387f 8979 568e e7bf 7898 8e22 2962 abbf
00000300: b76a 7d16 e49b 953f a12f 97fb b885 f7bf
00000310: 5cb6 5c26 4ac7 7bbf d04e 32f9 a2bf e63f
00000320: fbfb 030d db23 eabf 2938 4b1e beb7 9f3f
00000330: dcc2 0e0e 6085 c0bf ab58 5297 00d8 b23f
00000340: 798c 5f8d 210b c73f 70e5 99e8 7ad9 afbf
00000350: 0a8e 392f 2995 f7bf e5cc a194 35c4 d6bf
00000360: 8337 6d0f c9a7 f9bf fd48 5d18 ebda efbf
00000370: f28d 40de 756f f5bf 56ea f431 5906 a2bf
00000380: 45ae 65c0 1980 e6bf 82e7 42c9 dc2e 05c0
00000390: 0fee 2330 ed42 f3bf 0b1e d81f be66 f1bf
000003a0: 8c02 0b2e aa12 c53f 3e5b 189f 53db d7bf
000003b0: 3d08 44fa fdb4 d33f 2f29 c751 6962 d9bf
000003c0: 4a05 7570 ac31 e43f c1e0 f2b0 a1d9 f53f
000003d0: db47 ec5b a25b 03c0 34e2 1be7 3192 e1bf
000003e0: e032 2f15 caf5 f1bf fe81 8dac 5013 e73f
000003f0: 43a6 24ae 4bf1 a83f 2a8e 8550 16ee ad3f

custom_layer.gamma f8 [128]
0.7757810907206197 0.5391892981201486 -0.8132399835377057 -0.49595750319207166 -0.027532949958573864 -1.8394393351040506 -0.1135509734261612 -1.6450131463900055
-0.14267554800335724 -0.33538497153453034 -0.7015202121188273 1.0597728755581468 0.7753794842648075 -0.7235422155586854 0.8833066195288247 -0.7407606096107409
1.282008358269822 0.8279734314846026 0.8920300826786567 0.1275518845544021 -0.3654374954249148 -0.2591427187986512 -0.26782736398299334 0.48700816399281066
0.37780416401754374 -0.3787500612176271 1.5610556591897475 0.674381709228953 -0.7707455591929667 0.9730593656542733 -0.11001142540652094 -0.19851993901595888
0.7822843859756443 -0.3886007064223033 -1.3674097047832525 1.0216248243038846 -0.5485303778443491 2.22715110137031 -0.5240456702328794 2.547557519203446
2.1345668630304226 0.24641006294055365 -1.2813717831164166 1.2555143765033079 -1.4258182001221735 0.2548908114085909 3.0658384150781526 0.7966219387453723
1.4714600347824291 1.1005469254631814 -0.25828521215577155 0.45462792082308207 0.6418330441453135 0.24746381477276974 0.28723902444565913 -0.28363459755917697
-0.2917344448243437 -0.4128388554114511 0.3881702646947736 -1.3184385517637585 0.9784171219484409 0.52544844401532 -0.36056939814134387 -0.7896655140811792
-1.1406020563632329 1.4255673819868133 0.2884528788466321 0.5903622259694313 -0.8346870397584486 -0.4025498102264815 0.6323160130164913 0.19412059631739095
2.0072320755530493 -0.38902489638737925 -0.8669509464087447 0.5808953571535287 -1.2825822190337814 1.0081820523895983 0.7475483182005551 0.18134725834210996
0.7700219626744867 0.3984992096350455 0.08670145581154967 -0.1909720564524161 1.0503555354747416 0.18073193756832828 -0.6165286901947591 0.9401660275783659
0.9970817157944135 -0.06738475817774744 0.99924568371142 -0.13127754921187307 0.7168496383327385 -0.5911622876787526 0.788891187414551 -0.05885390936370665
-0.23367652661618207 0.6033131230549293 -1.7444826422809603 1.1781172509326916 1.0664675568718571 -0.3679500335301598 1.2178454869748985 1.9950209954164952
-1.0899756673952745 -1.6966345918334391 0.8694515743739517 0.31926361063766434 0.10795352978663054 0.4481511625549089 1.1245894113690016 -1.427415397804879
-1.034244185346008 1.4766245457223766 0.40253598330315427 -0.07311284108342739 -0.8704606138193217 0.7968618063657371 0.5092468346612748 1.5780778975344412
0.8328528417381601 0.557206421295662 -2.075219748188761 1.0746015951254757 0.9220705347985892 -0.6074939028431364 0.336565438964871 1.3647132813885567
00000000: 3802 b0dd 32d3 e83f 79ef 38ea 0941 e13f
00000010: 3f02 a3db 0f06 eabf de9b 1a8a c4bd dfbf
00000020: f1b4 89fe 9831 9cbf 53f7 b3f0 576e fdbf
00000030: 0b59 4b35 ad11 bdbf 1cc3 134e f951 fabf
00000040: 8880 4e3e 3143 c2bf 7de2 1387 f276 d5bf
00000050: 2c11 1184 da72 e6bf a55c 1b67 d4f4 f03f
00000060: a503 dda2 e8cf e83f ad32 2301 4227 e7bf
00000070: 87ee 663e 0c44 ec3f 542e 0e98 4fb4 e7bf
00000080: 087b 3f32 1b83 f43f 4edd 4523 c27e ea3f
00000090: 6ee5 04ac 828b ec3f 4f27 5ac2 9e53 c03f
000000a0: 1742 e5f2 5363 d7bf 9b26 8f57 cb95 d0bf
000000b0: 5cf9 5162 1524 d1bf eefb 4e4a 242b df3f
000000c0: bfde 2f84 f12d d83f c869 92e5 703d d8bf
000000d0: 7f4a b77f 15fa f83f fe15 45f3 8894 e53f
000000e0: 3bac 4897 f2a9 e8bf c9a6 1165 4d23 ef3f
000000f0: 8dae 4e72 b529 bcbf f0b6 d6f2 1969 c9bf
00000100: 8afa bd43 7908 e93f 9352 527f d5de d8bf
00000110: f06e a4ff e8e0 f5bf bfab 9245 9358 f03f
00000120: 3087 3694 8f8d e1bf 3f16 bd98 34d1 0140
00000130: fb56 e86c fbc4 e0bf f442 2dd6 6561 0440
00000140: 52ba 9eca 9713 0140 cf13 de6c 5d8a cf3f
00000150: 1209 e8b2 7f80 f4bf 26d5 2b3e 9616 f43f
00000160: a40f b9be 26d0 f6bf 5540 c38c 2150 d03f
00000170: 2ca6 7c4a d686 0840 eaff c54a ed7d e93f
00000180: 552f 6cad 198b f73f 513e c917 d79b f13f
00000190: 29f7 cfb2 be87 d0bf bf26 f2b4 9f18 dd3f
000001a0: 7214 c373 e589 e43f ba3b b2ef e4ac cf3f
000001b0: 5d42 08ca 1f62 d23f 68f8 21ba 1127 d2bf
000001c0: 13c9 e8f2 c6ab d2bf 05a8 a0a9 f36b dabf
000001d0: a532 0918 c8d7 d83f 6fc6 d905 5318 f5bf
000001e0: 0fae 936c 314f ef3f d4f4 5841 79d0 e03f
000001f0: 8126 3dab 9113 d7bf 043f b89c f044 e9bf
00000200: 7549 1df1 e73f f2bf 120b 3ebe 1fcf f63f
00000210: 5d55 4510 0376 d23f 97a3 aa52 3fe4 e23f
00000220: f70a 4598 c1b5 eabf 78c2 7b47 60c3 d9bf
00000230: f892 94ca ee3b e43f 23e4 5496 f1d8 c83f
00000240: 42dc bfb0 cf0e 0040 bc11 d4ad c8e5 d8bf
00000250: 53fa 41e9 0fbe ebbf b6ec 2bdc b196 e23f
00000260: 32e6 d2ee 7485 f4bf f9d6 f680 8321 f03f
00000270: ea3c 5b73 eaeb e73f 5c39 e60f 6336 c73f
00000280: d96f 5c19 05a4 e83f d051 37d4 0281 d93f
00000290: eae7 390d 1132 b63f f4dc 74b8 c571 c8bf
000002a0: d895 209b 41ce f03f 786e 9960 3922 c73f
000002b0: a2d4 2d60 9aba e3bf 504c a810 d715 ee3f
000002c0: afd9 18ea 17e8 ef3f a64e 9fa4 2040 b1bf
000002d0: efb5 8615 d2f9 ef3f fc31 48e6 b3cd c0bf
000002e0: b83b 19a7 6ef0 e63f 60ae 862c cdea e2bf
000002f0: 108a 41bb 983e e93f c7f0 ea7f 1922 aebf
00000300: 6b66 d4c7 1ce9 cdbf ec97 9852 574e e33f
00000310: 0f95 90a1 66e9 fbbf d7bf 7979 91d9 f23f
00000320: 8327 f048 4010 f13f b5be 244c 7e8c d7bf
00000330: d136 a28c 4b7c f33f fc5a a222 9beb ff3f
00000340: 2a60 4e53 8a70 f1bf aafd 5250 6a25 fbbf
00000350: e889 ac1b 8cd2 eb3f 2177 9fa3 d06e d43f
00000360: f1dc ebaf d7a2 bb3f 199d b536 82ae dc3f
00000370: c11f 7477 51fe f13f 810f 3687 b1d6 f6bf
00000380: 703a 82a1 438c f0bf 4f93 450f 41a0 f73f
00000390: 1704 f048 26c3 d93f 9ef7 5eed 85b7 b2bf
000003a0: 1dec 9937 d0da ebbf e4b6 b854 e47f e93f
000003b0: 34c6 8e04 c04b e03f bd36 079c ce3f f93f
000003c0: 89ac b400 bba6 ea3f 0ec1 928f a2d4 e13f
000003d0: 67df b3cf 0c9a 00c0 91b1 3471 9131 f13f
000003e0: e115 f210 9a81 ed3f ab61 a70d 9770 e3bf
000003f0: 325a 54c4 498a d53f efb0 ff97 ddd5 f53f

layer2.weight f8 [128, 128]
-0.09007958277960465 0.11645298178160085 -0.05799979166644367 -0.22955990839290086 -0.230289041011621 -0.08366727289127388 -0.06628566374486838 0.16702909417618736
-0.30607749080757546 0.005474401733940589 0.056317463407858794 -0.13572181938099714 0.25938033928065507 0.0690967727226201 -0.05080882339856044 -0.10273859076525087
0.1383924188954647 -0.11278595009727442 0.006385241144491157 -0.12070590208156531 0.025945592834538685 -0.05868699839654911 0.15065150632638666 0.2996469048694019
-0.10652889826293618 0.22448158555246778 -0.026249894267664043 0.07097980368177369 0.045163302221565615 0.09536814476772967 0.16602031534713804 0.1788365816982776
-0.18147944943581476 0.054462282147945254 0.03427578645620388 -0.12188827010770896 -0.05075397860349391 -0.5574750980024491 0.019068439993621067 -0.006926828658416483
0.013519713419782553 0.08720419351645109 -0.22455516277816165 0.14471536041220026 -0.04468974310644557 0.07992384770345193 0.45241731389835976 0.024036127271290484
-0.26171166069106505 -0.10588710764310627 -0.12883016844262782 0.04919980417165975 -0.10787241694964564 0.0237443701751841 0.04417432636911072 -0.0018360320255155326
0.025186173510905678 -0.026976832692931378 -0.25742785775359944 0.20070685809863678 0.08203617198308519 0.14747754947765757 0.24081539699775809 0.16052260263756477
-0.04534406657563245 -0.028895330844745493 -0.10036269865188649 -0.10890707436691593 0.13576909828544156 -0.10791537956659705 -0.1277647070630372 0.1008089631457694
-0.032045667745004086 0.07356821894168382 -0.07915758295623272 0.14272723687635133 -0.11358482564462291 -0.12918484260970295 0.044625458759281304 0.1520749299245296
0.08131235376506382 0.16122674958216493 0.269953631435522 0.09119669239244686 -0.10713039465174011 -0.20200993014946822 0.0789521293710135 0.3228771757180437
0.07501236506409377 -0.055592996566041615 0.028993626902514412 -0.06980061631005069 0.04219290205987222 0.10885650350634564 0.07751685451748451 -0.16928221296423954
-0.022260181415282465 -0.17965122531566216 0.002229879471895636 -0.08922361615295271 -0.2408554251761758 -0.21085414104373615 -0.11396997542578984 -0.07323358741102917
-0.12743447030102373 0.000809281127845259 -0.16960428528926405 -0.06384491998649333 -0.02915943384900054 -0.12650599227921727 0.0028269157071478036 0.06790627142088423
0.1154832909677213 -0.012781046288092799 0.1259604298153551 0.08146845909186912 0.017423770588077397 0.24399203788131923 -0.18007060368932998 -0.013324366074534069
-0.04263205305256509 0.050958195284937786 -0.3343865252117085 -0.017811675490581897 0.13847928735708726 0.016409262102942232 0.020893884790175583 -0.14416946761436994
0.13837283231447128 -0.049539598901314666 0.004678078179672512 -0.031062262452752624 -0.04265843452317157 0.0186992625645524 -0.023985437309145152 0.12079276365958086
0.006348034883324923 0.008785545162865 0.04364197943960852 0.029457989556668722 -0.035303500196226204 0.0028715633229993262 -0.020774171214670577 -0.0009323645097230756
-0.12810195341224181 -0.07050517517339003 -0.0476644589187731 -0.01433330776210061 0.04966081105165749 -0.003786877440171045 -0.07067099004489133 -0.013408188128206345
0.019483550844116456 -0.07573629083418223 0.1301020138697494 0.11195507532725858 0.03531922768047295 0.005759278492169635 -0.084550140874875 0.05818181274311002
-0.03002492393794519 -0.0117951021380783 -0.06650438956256163 -0.08062627728542919 0.014268893048759078 0.02471012492926314 0.05750619115268026 -0.06852345417324127
-0.0654130226448497 -0.1143288021456933 0.004058012210780865 0.03154089251709247 0.03823342582116099 0.033504436308502146 -0.0016475923652534083 -0.05414001685697605
-0.017351868063292777 0.1995237627899562 -0.06637331587700825 -0.15005462094284502 0.12048474824741849 0.07540163005200438 -0.029689372485296954 0.01845757317661777
0.029499460247026547 0.040008586714697966 0.02814983238641605 0.02993675032589566 0.10026926717873065 -0.1462690555234416 0.08721763425936067 0.03336198827301627
-0.0033025573291578366 -0.0476604742317124 0.04419784522960028 0.07275774543209935 0.007837589593130991 0.018919885939096943 -0.03541774115006557 0.08521356506216804
-0.2488835784994838 -0.08870691170202434 -0.04673115637498435 0.011334445626795434 -0.007925378454612518 -0.018538397214966196 -0.1993433708318713 -0.009270149525113371
0.18837681171667608 -0.016394408873541922 -0.08475844816553954 0.08590297828671051 0.08631728085984354 -0.11643916953497842 0.02992255070623529 0.06876072083187608
-0.05662985348565577 0.015793186924442044 -0.0714145987018562 0.014596902281583552 0.09047525192399218 0.004577063780720042 -0.051322173384992266 0.02024521846250577
-0.05933260143412787 0.016519673003640555 0.14882191651220802 -0.041852816254539904 -0.003245327909059262 -0.06942712419581547 -0.02897393999470011 0.022252031367182817
-0.02095155419975538 -0.04401938872265997 0.037954688849312225 -0.06947920444259514 -0.023692420435470738 -0.10714026084401597 -0.14211126257633436 0.07821317477111149
0.008172321319197361 0.03792889246459524 -0.08662473257296457 -0.0070444846093369535 0.08494267607489778 -0.03453406725062557 0.0835233346834605 -0.10875792101904191
0.12937588697699065 -0.01655408621928986 0.03482798776616033 0.04774322121365849 -0.013150469885392854 0.006495354148185273 -0.08915218111346453 -0.0807095653338412
00000000: d462 139e 740f b7bf 8c0e 46d4 dccf bd3f
00000010: 44ae c310 26b2 adbf 0c98 8215 3862 cdbf
00000020: aad4 e27d 1c7a cdbf 6a43 d0e8 376b b5bf
00000030: 3455 fae5 18f8 b0bf 27ce 7b98 3561 c53f
00000040: 95db 430b c696 d3bf 3c5b 9986 536c 763f
00000050: 8d94 0f7f a4d5 ac3f 0429 cc23 555f c1bf
00000060: 1ce4 9bfe af99 d03f fc50 1a7b 53b0 b13f
00000070: 44ab b035 9d03 aabf 9bb6 5f87 134d babf
00000080: 23ce 95c0 d7b6 c13f 87b7 1d3f 8adf bcbf
00000090: 2259 481e 6927 7a3f 52df dffd 94e6 bebf
000000a0: c277 cc42 7b91 9a3f ef8d a0e5 380c aebf
000000b0: 77ea 616e 8c48 c33f c3bf 3036 6a2d d33f
000000c0: ce43 1e56 7a45 bbbf 0044 4006 d0bb cc3f
000000d0: adbf 9c95 40e1 9abf 2f5e 7d7f bb2b b23f
000000e0: 00bf 0af4 a41f a73f 2e8b dbf6 0b6a b83f
000000f0: b99b 7158 2740 c53f 027c dcfa 1de4 c63f
00000100: 5188 1cf6 b73a c7bf 22c4 61f1 7ae2 ab3f
00000110: d086 bf8b 988c a13f 87ed e0d5 1134 bfbf
00000120: 2adf 7cec 6cfc a9bf 4128 4804 d6d6 e1bf
00000130: 2024 a258 ad86 933f bfa7 d868 4e5f 7cbf
00000140: 4d00 ea37 39b0 8b3f 9c2a 3a97 0353 b63f
00000150: 4fdc 233c 39be ccbf 2181 196e 0886 c23f
00000160: efb7 37f2 92e1 a6bf 268b 0ea8 e375 b43f
00000170: 979b d5bf 67f4 dc3f 69f3 3532 ed9c 983f
00000180: 2999 e943 e2bf d0bf 102a 65e0 6a1b bbbf
00000190: 4781 19c8 817d c0bf 8715 c67b b730 a93f
000001a0: ae6f f0d6 869d bbbf 8f54 77b5 7150 983f
000001b0: b704 286e 049e a63f 3380 4160 e014 5ebf
000001c0: deb2 297e 67ca 993f 7ec8 a998 d09f 9bbf
000001d0: 1e63 88b1 b279 d0bf 5deb ce27 c3b0 c93f
000001e0: 46a2 c193 5200 b53f 244c f359 8be0 c23f
000001f0: ab43 3df7 09d3 ce3f 376f 4c30 018c c43f
00000200: 281d 0566 5637 a7bf c0ed f0d3 bc96 9dbf
00000210: 56ba 72ac 5eb1 b9bf 587d b582 55e1 bbbf
00000220: b7c0 78be e160 c13f 8255 f9a1 57a0 bbbf
00000230: 179a 350b 985a c0bf d2d0 dabf 9dce b93f
00000240: e4f4 e22d 4a68 a0bf e526 61e6 5dd5 b23f
00000250: 6d05 07de ab43 b4bf a3f1 50d7 e244 c23f
00000260: 282c 7727 e513 bdbf f3e3 1201 2189 c0bf
00000270: 1756 e1eb 25d9 a63f ce9e 48f9 3077 c33f
00000280: f685 2eec e2d0 b43f 520f 5900 14a3 c43f
00000290: a4ed 9c98 eb46 d13f d734 549b aa58 b73f
000002a0: efd1 6fc5 e56c bbbf 68c7 ba1d 76db c9bf
000002b0: b91a 99ed 3436 b43f af5d 9507 05aa d43f
000002c0: 05f3 bea6 0234 b33f 498c 466c af76 acbf
000002d0: c6da 5a5d 81b0 9d3f f4d4 4a04 74de b1bf
000002e0: 0ce3 f0dc 4e9a a53f 1544 8412 05de bb3f
000002f0: 4398 0a03 25d8 b33f d1ea 3c20 0aab c5bf
00000300: 7006 ba7c 5fcb 96bf 6963 b5b4 cffe c6bf
00000310: 9c6c fc6c 6544 623f e064 68e1 5bd7 b6bf
00000320: 9e11 19bf 59d4 cebf 8127 01bc 44fd cabf
00000330: 3b00 2ee5 222d bdbf 3a2d e6b6 6fbf b2bf
00000340: b8b9 29d1 c54f c0bf 114f 1afd bd84 4a3f
00000350: 8717 4add 97b5 c5bf e893 5b03 2458 b0bf
00000360: 5d5d 017b f8db 9dbf 8e2b cb2d 5931 c0bf
00000370: 4d0d 58d0 7828 673f e02c f22e 4e62 b13f
00000380: 43d9 f01d 5090 bd3f e535 87fe f22c 8abf
00000390: a6d2 52ab 781f c03f e480 74ef 1ddb b43f
000003a0: 982b 6573 89d7 913f eaa2 978f 213b cf3f
000003b0: f687 e8b4 8d0c c7bf db8d 3d24 ce49 8bbf
000003c0: 6b84 3e53 ded3 a5bf d989 6c4c 3117 aa3f
000003d0: b578 80bd 9666 d5bf 3545 e04e 393d 92bf
000003e0: 30a0 2f75 b0b9 c13f dca2 55f0 96cd 903f
000003f0: 35d7 70df 3465 953f 3a23 3e26 2574 c2bf
00000400: a807 b972 33b6 c13f 92b5 461a 415d a9bf
00000410: 2c1f a30c 5229 733f 5153 7f25 c9ce 9fbf
00000420: 86e5 598a 53d7 a5bf 503f b244 e625 933f
00000430: 20ca 4a73 a38f 98bf 4ce8 8249 46ec be3f
00000440: 09e5 7ba3 6500 7a3f bd5e 37e9 27fe 813f
00000450: 7905 dad4 3d58 a63f 4ed8 0137 3c2a 9e3f
00000460: d2e2 8de5 4c13 a2bf 190d f1d1 1a86 673f
00000470: 53c2 df07 d345 95bf 8c12 e289 3d8d 4ebf
00000480: 27ca 3a12 a565 c0bf ae86 918d a00c b2bf
00000490: 5baf 79d8 7967 a8bf 795f a700 c85a 8dbf
000004a0: 292b b84e 246d a93f 1dc8 4d58 a805 6fbf
000004b0: cacc 0477 7e17 b2bf cdf7 128c c075 8bbf
000004c0: 3fe2 bdf6 7ef3 933f eace 401c 7463 b3bf
000004d0: 946e 5bcb 2ea7 c03f d9db 267b 16a9 bc3f
000004e0: f67e 9d9f 5c15 a23f 15da 5b8c 0a97 773f
000004f0: 2006 eef9 13a5 b5bf 4845 e8ad 01ca ad3f
00000500: 5c71 8389 dabe 9ebf 30fb 7ccf 0728 88bf
00000510: 6e2e 3682 6e06 b1bf 139f 2378 eca3 b4bf
00000520: 6cd2 f467 0239 8d3f f816 ce69 9c4d 993f
00000530: 6bf6 a294 7371 ad3f cada aeca c08a b1bf
00000540: affc fd68 e8be b0bf 38e4 3402 a744 bdbf
00000550: a091 b65b 229f 703f d0f3 b1bb 2026 a03f
00000560: c427 08e3 5493 a33f 998e 6e54 7e27 a13f
00000570: e596 dbd4 80fe 5abf b777 9c83 3db8 abbf
00000580: d7e6 6c27 b0c4 91bf b096 faa1 fe89 c93f
00000590: e9d1 0475 d7fd b0bf cf16 c864 fd34 c3bf
000005a0: 5fb3 63a5 16d8 be3f 6f71 236f 854d b33f
000005b0: ced3 730f e466 9ebf ddde a0c4 8ae6 923f
000005c0: e1e2 0a44 1b35 9e3f be63 ff66 017c a43f
000005d0: 503d f345 4fd3 9c3f d198 644e bda7 9e3f
000005e0: c197 5327 3fab b93f 30eb f1c4 f1b8 c2bf
000005f0: 0f48 c716 e553 b63f ded0 1f91 d214 a13f
00000600: dec9 19f7 f60d 6bbf 232c 4624 f466 a8bf
00000610: d62d a197 19a1 a63f 015c 2969 40a0 b23f
00000620: ce11 db77 270d 803f 52ee 680d bc5f 933f
00000630: 7f1d e02f 4622 a2bf b819 1e63 8ed0 b53f
00000640: 7757 15c7 6adb cfbf 8579 b004 7fb5 b6bf
00000650: 7d6d ab68 25ed a7bf 8873 488a 8336 873f
00000660: 8cf9 2a4a 2e3b 80bf 00be 08c7 bafb 92bf
00000670: 52da 3265 1584 c9bf aeac 5068 3afc 82bf
00000680: 84ed d23a bb1c c83f bde4 cb27 b2c9 90bf
00000690: 9642 eeca bab2 b5bf d4d3 5ed2 bcfd b53f
000006a0: 9d67 5faa e318 b63f 2d4a 2019 f5ce bdbf
000006b0: 02e4 c862 04a4 9e3f 3de8 3877 4d9a b13f
000006c0: a475 6591 96fe acbf 7241 5cd5 162c 903f
000006d0: d1a5 e125 3a48 b2bf 9de3 600f fbe4 8d3f
000006e0: 6f64 1cd8 6229 b73f c695 ff33 66bf 723f
000006f0: e511 7f60 e646 aabf d18f c99c 29bb 943f
00000700: 8e0b 7ebd d760 aebf 833d 2a7d 88ea 903f
00000710: 798a 2cb8 980c c33f f813 1e7a bb6d a5bf
00000720: ba9c 7e27 f295 6abf fb58 e0db f9c5 b1bf
00000730: a2a0 da32 58ab 9dbf 486a f78b 3cc9 963f
00000740: c570 5a00 5374 95bf 0f50 e895 b589 a6bf
00000750: b5e0 ac06 cc6e a33f 6042 d59e 63c9 b1bf
00000760: c9d4 bb6b d342 98bf 01f3 684c 8b6d bbbf
00000770: d14d 94ac b330 c2bf 131d c253 c705 b43f
00000780: 9908 6366 a6bc 803f d8f9 6a71 6a6b a33f
00000790: 02f6 6cd9 092d b6bf 197b 3a70 adda 7cbf
000007a0: a6c2 c69f cdbe b53f 1fec e002 73ae a1bf
000007b0: 5f17 eb06 c961 b53f 302e f521 8fd7 bbbf
000007c0: 7484 ba99 638f c03f 3843 b5eb 8df3 90bf
000007d0: fbdd e158 f9d4 a13f 71cc 6fab cc71 a83f
000007e0: 18a9 ad30 a2ee 8abf 9a3e 475a df9a 7a3f
000007f0: 9dd8 3f66 add2 b6bf 1f4e 95cf 61a9 b4bf

layer2.bias f8 [128]
0.002344253373066758 0.08133683272947996 0.022806212989087964 0.009153260060312534 -0.02886147212110279 0.07980739662011618 0.0001259089396595287 0.11906041311374703
0.21268362071791083 -0.037048325712446734 0.17030439072566791 -0.06456013425232529 0.030790253252865378 0.07091149824125541 0.4277042741654793 0.09025653567944533
0.14433852101691919 -0.06336595601864373 0.03634260889963758 -0.036365806302395866 0.06398389623035153 0.14027121988283486 -0.03465586598980289 -0.05786628219330789
0.05169218774906609 0.23789788732619843 0.092359417770268 0.038898166249628795 -0.10475159942824978 -0.09341363710406111 -0.02430917028977074 -0.03847553548604853
0.03824539157406924 -0.03599020478075715 -0.010374040559880166 -0.058715656446673425 0.032371162720450236 -0.07888510171807997 0.08055689282434746 -0.13029379274925543
-0.08424167565438938 -0.021351345134606035 0.18242522958880233 -0.09528910005745495 -0.022540260164406096 0.03305407803940174 0.028728020734930915 -0.07508348125526722
-0.0068131842234307235 0.08169758135565146 0.028697100804090304 0.053178656442093235 0.45600919911483445 0.15555613135524624 -0.07338065695387448 -0.009956951103458978
0.15252152698075802 -0.1528848679207344 -0.019266312694083076 -0.0327509435239288 -0.1373924207297609 0.04210230296105712 -0.010423690999225655 0.06419862551354374
0.22461441825825884 0.023259257717576996 -0.10889195086253999 0.4048299151674644 0.11044314094246804 0.008495698318527622 0.08387281746587336 -0.045882860296247135
0.054790705714031745 0.04195195834454275 0.13569744336894754 0.19370421636356144 0.24128091027290513 0.10781419060585819 0.05009103782951292 -0.10987527492941866
-0.27176157637334086 0.11612900882153836 -0.09911505482784573 0.03267386085797677 -0.06669592113308567 -0.07295559951002994 0.06223387950836222 0.13238199662486716
0.09491630317438106 0.3051746754083256 0.04501440404839475 -0.01948927756261581 0.05665445994097133 -0.12617171115924894 -0.10164802389497217 0.02723492319520431
-0.10643856903284929 -0.03066542391355256 0.04579707526829847 0.010404607021453087 -0.0205571306488985 -0.17618276273111655 -0.04949648673623652 0.24476583747625405
-0.11576616197540943 -0.09480463166137479 -0.05669971493469327 0.014444197149028297 -0.021766447808147762 0.008358883663112668 -0.07664821020949981 -0.013558603360736525
-0.10324688569227757 0.046757755633537006 0.11084905561786844 -0.013008311365219445 0.037040236790824285 0.07917765733822738 0.02163738927808618 0.016887028708980362
-0.04384840802858362 -0.06271442602389184 0.04661311501705241 0.0642442114575984 0.06807646191877607 -0.023993054198461542 0.144721165923431 0.08870345604285794
00000000: f67a 4472 4134 633f e588 889c 7dd2 b43f
00000010: 2e27 bc0b 835a 973f 63f8 e2c4 f1be 823f
00000020: 9f8a 7f9b dc8d 9dbf 4a59 76ee 416e b43f
00000030: 91a8 648e cd80 203f 0761 9244 be7a be3f
00000040: f96b b085 3739 cb3f 7cef 9c86 fff7 a2bf
00000050: eb16 44c6 88cc c53f 1636 3d51 0387 b0bf
00000060: eec5 06eb 7a87 9f3f 1747 db85 4127 b23f
00000070: 149c 79bf 815f db3f 5e54 fe64 0d1b b73f
00000080: ee0b a945 af79 c23f 32a4 c754 c038 b0bf
00000090: efbb 5999 7f9b a23f 35de 85f9 899e a2bf
000000a0: 3aaf c7a5 3f61 b03f 20c0 fb46 68f4 c13f
000000b0: c5de 14e6 69be a1bf 2c6b 1f3b a6a0 adbf
000000c0: 788e aeff 6577 aa3f fc3f ed1e 7073 ce3f
000000d0: ef07 cde6 dda4 b73f fb42 d5df 75ea a33f
000000e0: 937e bf35 00d1 babf 46c3 5cc4 f4e9 b7bf
000000f0: 5cc2 8ccd 80e4 98bf 0fa3 37bd 10b3 a3bf
00000100: 1e12 1164 e694 a33f b8f6 04e1 4e6d a2bf
00000110: 5ddd 7427 fc3e 85bf 903c 6780 fa0f aebf
00000120: 2c87 6ffa f392 a03f 4a52 0564 d031 b4bf
00000130: 03e0 2564 609f b43f db6b 5d8d 77ad c0bf
00000140: e355 e5c9 dc90 b5bf a6a1 5084 20dd 95bf
00000150: 1b4c 86bd b559 c73f 807b 69d0 dd64 b8bf
00000160: 5571 ff40 cb14 97bf 9f79 5bd0 76ec a03f
00000170: b02f 24d6 e06a 9d3f 5111 76c8 ab38 b3bf
00000180: 2679 bd36 24e8 7bbf ebb6 15f8 21ea b43f
00000190: aa3a c6d5 c562 9d3f 572c 879c 3b3a ab3f
000001a0: 3be5 3735 412f dd3f d778 6e68 43e9 c33f
000001b0: 75a0 c621 13c9 b2bf 0d9a db5a 4f64 84bf
000001c0: 47bf 284d d385 c33f 38ec e239 bb91 c3bf
000001d0: 000d be5b 8cba 93bf bd63 b24e bbc4 a0bf
000001e0: 0d55 e028 1396 c1bf 12a9 9bdc 6e8e a53f
000001f0: edf0 8f1f 0459 85bf da60 0735 526f b03f
00000200: 7a8c 504e 2ac0 cc3f 86a8 e75c 46d1 973f
00000210: 5793 c0c7 57e0 bbbf b98c 85bb bbe8 d93f
00000220: e458 6a6e 0046 bc3f 9362 7a53 3166 813f
00000230: ce0f 0a60 b078 b53f e4b0 d650 f57d a7bf
00000240: fc42 5502 870d ac3f 2a99 2f22 ba7a a53f
00000250: 09d1 b5a8 885e c13f aa7c 30bd 4ccb c83f
00000260: edb7 62f9 4ae2 ce3f 2966 b2f6 b599 bb3f
00000270: 7ad5 9952 88a5 a93f 0bfb 7538 c920 bcbf
00000280: 524e b5aa 8a64 d1bf 1362 0177 a1ba bd3f
00000290: 45df 06af 9a5f b9bf 745c a3d7 a0ba a03f
000002a0: 0a0f 0be0 fb12 b1bf a0a5 f4d9 37ad b2bf
000002b0: 0e1c 627a 1edd af3f 509f 0aad e4f1 c03f
000002c0: 79be fd51 6f4c b83f 1d8e 9c5c fb87 d33f
000002d0: f13b 79c2 200c a73f 2f33 0447 fff4 93bf
000002e0: 66ef 3c39 d001 ad3f 9bfe 8d06 6526 c0bf
000002f0: 7ff9 54da 9a05 babf 8dda bac1 78e3 9b3f
00000300: ce74 07dd 8e3f bbbf 6786 4ec3 c166 9fbf
00000310: f240 0fd9 b672 a73f 4938 14b7 024f 853f
00000320: 79b2 58af ed0c 95bf 0848 0622 288d c6bf
00000330: f01a 997f 9a57 a9bf 69bc 91a9 7c54 cf3f
00000340: 66f6 aae7 d9a2 bdbf cab3 7ec8 1d45 b8bf
00000350: 3f8f acba be07 adbf e9f6 f952 eb94 8d3f
00000360: 67c0 f195 f149 96bf c58d b65f 761e 813f
00000370: 6d90 2594 379f b3bf af42 1cf0 9cc4 8bbf
00000380: 9751 764d 636e babf bf90 8fee a1f0 a73f
00000390: bbd5 ab8c 9a60 bc3f d750 1eff 19a4 8abf
000003a0: e62c 4e1b f0f6 a23f da71 d7a8 fc44 b43f
000003b0: d2e2 479d 1c28 963f b571 2050 d54a 913f
000003c0: d5c9 ed6c 4c73 a6bf 1d91 c278 0d0e b0bf
000003d0: ea37 2099 acdd a73f f8ed 2a03 4f72 b03f
000003e0: 5b8b 9181 756d b13f e145 749c a291 98bf
000003f0: 5d0e 5721 3986 c23f 230a bf0a 45b5 b63f
