COLA_Emulators/PCE/wCDM_PNN_HIGH/MODEL_Z0.109.pth (torch, 192382 bytes, 10 tensors)

layer1.weight f8 [128, 25]
00000000: 3fb9 c393 c699 ae3f 6a85 02c5 fbd3 b5bf
00000010: f991 fb6c 01b3 8e3f 0fe9 cd50 0cd8 b23f
00000020: 5ce6 f381 ad77 d3bf 0df0 ab04 64ef c7bf
00000030: 7984 deeb c2a2 c73f 329f 3c97 7794 c6bf
00000040: ab83 1881 b070 c53f 7bb6 70cf db8f c43f
00000050: 6abe 91d7 3619 963f ae71 c5a4 abf2 b8bf
00000060: 5a34 e183 b96a b3bf cc31 1e12 fd25 b63f
00000070: 69b7 6dd6 8b46 d03f 63af 0bca baa2 c53f
00000080: 2418 4284 4cd4 b3bf 4bf1 b124 451c b43f
00000090: 860b 7fd4 e1ff 8d3f 2f3e 4ea6 e0ee a83f
000000a0: f38f b210 ba3d c0bf 3d04 8ca9 073a bd3f
000000b0: f907 d321 f711 8c3f 32f5 63cb 1e02 84bf
000000c0: 2251 20df 41bc 773f 469b 9310 6fb0 88bf
000000d0: aff8 4f6a 1d91 c53f c0b8 610b c828 acbf
000000e0: cd84 ad0b c4e0 cebf 4212 d21c efd1 b33f
000000f0: e2aa b07f f4e9 b23f 8175 d5f5 c9d6 b8bf
00000100: 03d1 e925 978d b43f 3a05 1fd3 9dae 8bbf
00000110: 3e2a 5ac9 1c10 d6bf b02c 9a5c b025 d0bf
00000120: 18ce ffcf cdae 98bf 18fb 3f9c 5875 bebf
00000130: 2b12 245e 9dcc cc3f 021a f0a5 6c10 c0bf
00000140: f695 0be7 aae0 c93f e73e eb83 1f56 bfbf
00000150: 6eab a0dc 9e1c bb3f b1b8 356f d83c b0bf
00000160: fcba 6e80 6bbb c8bf 9ed1 a38e 5a22 ac3f
00000170: de28 b03e 101f afbf 8e6c a3c0 fc9a bdbf
00000180: 3a43 394b fb69 ba3f b171 13cb f01d d03f
00000190: 874e ef50 c00f a5bf 9277 3ef0 97e8 b23f
000001a0: 4cc7 f703 8fc6 cb3f 4c62 e74f 218d 9c3f
000001b0: d79e 9b23 daaa 8dbf dfcc 5ce7 d091 83bf
000001c0: da49 1621 4103 c33f ff93 7416 952e 8abf
000001d0: 0268 f775 687a d63f 6569 a595 d6d7 c13f
000001e0: c14b ffc5 e65c dbbf fa98 59fe 833d ae3f
000001f0: 28ed 28d9 f249 d2bf cdd7 11b2 3f94 843f
00000200: f4f0 7168 a1c3 ac3f 6d1a b6be ba77 d73f
00000210: f52e e3bb 8e32 c8bf ee9c 5ef8 0a79 a1bf
00000220: 17ef c573 8eaa d9bf 6842 a2fb 3665 b9bf
00000230: 1881 e85f 336d 5a3f f6d9 7299 3e38 cebf
00000240: ad4f b7ee fac0 a33f 6c35 de0c 6e4a b53f
00000250: 2733 3e9d 15b8 d53f 2892 d5cb e5cb a8bf
00000260: c3df bc13 fd5f bb3f 960d 76ab 111e a43f
00000270: be89 8fce a57e c43f aeb8 f02b 216b cc3f
00000280: e7b3 ea74 0357 a8bf e49c c49c 3458 c73f
00000290: ab07 4952 4415 aabf 6225 eb31 2d34 cb3f
000002a0: 6944 27a0 3312 af3f 4c60 a16c 3fe5 ab3f
000002b0: 537f 8583 730f adbf c566 b81e 9361 c73f
000002c0: 03b7 6854 2087 8cbf c411 e619 a3a0 b8bf
000002d0: 1582 a031 c3ba c13f b46d 8ff9 c8d2 b63f
000002e0: 4232 74b3 b6a8 cabf f245 5d77 f42b afbf
000002f0: 9fea 8693 d7f5 993f 033a f855 3ad0 c8bf
00000300: 6baf 92b9 e749 b73f 3ea2 d15a d206 c8bf
00000310: 663a fbd7 5653 ac3f 0a3c d9e0 d715 a2bf
00000320: eb66 a42a c4f5 adbf 0a99 1392 95a8 cf3f
00000330: 738d bc72 8b02 b13f bf82 1091 3c46 bd3f
00000340: 4c3a 67a1 fa1e c43f a607 8b8c ba1a b7bf
00000350: 39ca 0408 7f6a c83f bd30 00b9 bbdb 8bbf
00000360: 26da 6d9a 69bc cbbf 7ecc 1baa fd18 a53f
00000370: b083 d5d5 03d9 b3bf 8c64 6dd2 95ca c43f
00000380: aa62 7353 d0fc c6bf b135 a20a a9a6 9dbf
00000390: 6fa6 3717 7a59 bbbf 83b3 4080 7835 7fbf
000003a0: 01c7 f2d8 a176 c2bf 4732 8140 c1c6 aa3f
000003b0: a461 f9b8 ff65 96bf a191 d907 a554 c43f
000003c0: 66a0 9d55 ac69 b93f c1f4 05a9 84b2 b0bf
000003d0: ac78 c91e 4787 b2bf 98af 6dc2 656e 923f
000003e0: 2843 8572 e2ce b33f fc2a c7ca ca16 a1bf
000003f0: d4b1 2e14 4815 9e3f 1a93 64e1 2b82 a4bf
00000400: e737 8621 bef0 d8bf 2715 d63d 4833 abbf
00000410: f6d7 6d5a 7976 cd3f 4a44 6646 d3cc c0bf
00000420: d4c5 1efb e56f ba3f aea1 d1f4 6bc0 be3f
00000430: 3e67 9e09 6346 c3bf 9c03 ee29 d9cb 7a3f
00000440: 134d 4666 073c a53f d527 24e7 37a9 633f
00000450: c246 8622 a86e 9bbf 71f6 24e3 2311 d73f
00000460: bfab dc55 c875 c2bf f6f6 5d3d 358b b63f
00000470: c796 a014 989a c3bf cb21 924f 3128 d5bf
00000480: cc2b 85de dc4c 9cbf db67 e025 33fb d1bf
00000490: c75b 1918 df14 81bf 9628 531c 6202 61bf
000004a0: dce2 7ed0 dd83 c53f 3454 a41e b1f6 c23f
000004b0: 2740 a887 9f16 a0bf 5216 f52c f459 c13f
000004c0: 1597 d514 3a92 c1bf b587 bd05 1b16 c3bf
000004d0: 1aad 41dc dcc7 c53f e8b5 0357 8565 ca3f
000004e0: 7652 604a af30 b6bf 1bc4 3837 a2c3 b8bf
000004f0: d3fb 79a7 de73 bf3f 3c5d 5413 5fcb abbf
00000500: 63fd f99b 78ee 883f 3de4 6859 3634 cdbf
00000510: 3159 6f76 87d0 c4bf d89c 9118 eab8 c2bf
00000520: 5ebd ebb9 b503 bb3f ec44 468d 7f3f b0bf
00000530: bcb3 8117 e58d c7bf de21 be5d 6d2e bc3f
00000540: e234 412e dc6b 9c3f 79cf 3d46 2555 ce3f
00000550: 2e19 1046 0851 81bf 78b6 abf7 f054 c9bf
00000560: 87a6 089f 1821 b13f f2f4 c318 4913 d03f
00000570: 0879 cdc2 ba49 ce3f a40b 6685 618e a43f
00000580: 247e 39f5 d114 b8bf c63a 665f 6550 b33f
00000590: 54e5 40e3 c291 d33f 2fe4 b18e 9b46 d03f
000005a0: 8f91 cf93 db20 bf3f 3d9e f23d 2b8b dabf
000005b0: 55d8 ae05 6834 c13f 272c 4f19 e243 b23f
000005c0: 6069 6377 1071 c8bf ae1d b816 9b36 bb3f
000005d0: 19c2 8cdf ba9b a23f b400 8f85 60ed 46bf
000005e0: 0a46 7d27 fff6 b93f 17f6 53f7 f10a c43f
000005f0: 8bb7 5c04 7023 c5bf 6a79 ee93 09fc d13f
00000600: 1368 0afb a55b ca3f fe25 73f1 009a adbf
00000610: 156e 55b9 9618 a73f fab5 ee05 ef5a adbf
00000620: 9836 5e61 e0d4 c43f 4b8a 035c 463d bb3f
00000630: 7c2c f56a 62e2 cc3f 42ae 89bd 1b42 c83f
00000640: 0b48 c1ae 9230 87bf afd1 1b9a addd c53f
00000650: 3c61 8fbd 8e18 ca3f 876b 2cd4 e32c b53f
00000660: 54a0 6b5a 5559 ba3f f96d 9a8e a2cd b73f
00000670: 4ba5 d59a db95 b53f 4bc7 b610 c380 ba3f
00000680: 95e1 d330 7e7c bf3f 6085 6ec6 fc1c c7bf
00000690: f23f 8d2d 169b b13f dfdf 68e1 b59c aa3f
000006a0: a5b1 10fb bfc5 c33f b1db 3cc3 7d64 bdbf
000006b0: 1b2d f6b6 485a cd3f dd0f e6eb c7ae c0bf
000006c0: 6782 b473 ebc4 8dbf c70b 71ce 5265 c53f
000006d0: 5273 7a44 a9e7 ce3f c937 8861 c31f c23f
000006e0: 4d7d 8253 cf7c bdbf fc61 40f3 b35a a53f
000006f0: 741e c76c f349 ccbf 3236 605b 93f3 ab3f
00000700: b53b a96e c55f cbbf f75b 5158 789d 853f
00000710: 58d0 00d5 6f53 83bf 8193 5d55 7bb7 adbf
00000720: 3338 6c5a 7516 adbf 4a1d edb4 e60b c8bf
00000730: 67d3 93ff 3752 b7bf 8874 2a90 631f bcbf
00000740: e4ad ca51 a6db 813f 8eb9 8981 cdd5 763f
00000750: 6227 e26b 41f9 c5bf 241b 8756 db6a c73f
00000760: 42b0 3797 0c15 8abf 0308 22bf 2429 b13f
00000770: fd4c 118d 75c7 c9bf d0ee 292d 0d97 bcbf
00000780: 0ac3 d648 40da 993f 57d2 dd45 f29d bd3f
00000790: 1e30 bca7 0668 c4bf 3541 0465 dd5b a8bf
000007a0: 1611 4ed2 b939 c73f 0ce6 ab70 b6a8 ca3f
000007b0: 8f19 2a4d e3b6 a93f 5fbd cd60 36f0 773f
000007c0: fcfb 0424 eb3d a5bf 8f44 2081 93a5 bf3f
000007d0: 4505 4163 cf44 ab3f b41b 2a4c 8d91 bebf
000007e0: 88ca 6601 a91e c7bf 5495 c594 d675 a8bf
000007f0: a3ff c39a f535 c33f d326 48b1 de03 d6bf
0.05976696542517112 -0.0852658611279559 0.014989863527667945 0.0736091325069632 -0.30417955103584915 -0.18699312427622808 0.1846545840935823 -0.17640585789308144
0.1675015096998583 0.1606402171031965 0.021580559642130494 -0.09745285771118148 -0.07584723920554506 0.08651715938885401 0.2543058008221722 0.16902861466894156
-0.07745817402801031 0.07855636735798048 0.014648212716456898 0.04869749097917652 -0.12688375296886498 0.11416671647386152 0.013706141204583121 -0.009769669134125001
0.0057947705372678755 -0.012055270856263466 0.1684910554030856 -0.054998637570734754 -0.2412343079586549 0.07742208913448059 0.0738823711150576 -0.09702741863062238
0.08028549838656222 -0.013516648297697931 -0.34473342574407073 -0.2523003486937325 -0.024104324169412633 -0.11897805990882337 0.2249943456337332 -0.12550123312412614
0.20216881066805542 -0.12240788431813208 0.10590546499649431 -0.0634284278400823 -0.19321960230941915 0.054949598228549265 -0.060783870365485035 -0.11564616873822528
0.10317965113177943 0.25182742911945427 -0.04113579738591704 0.07386159530002903 0.2169970292448461 0.02788211870378836 -0.01448603078047432 -0.009555465756056978
0.1485368167455608 -0.012784161327155983 0.3512211944595266 0.1393993597692528 -0.4275452550475017 0.05906307678087504 -0.2857634659482806 0.010048387166744189
0.05618004226650611 0.36668270706323974 -0.18904289411727118 -0.034126608675529954 -0.401034939822908 -0.09920066493419599 0.0016129495339854468 -0.2360914468060426
0.038581697120803816 0.08316695989761563 0.33936062198408695 -0.048430615551101674 0.10693341953162787 0.039291908436122444 0.16011498056384527 0.22201933522723521
-0.047538860342093696 0.18237931875885416 -0.05094350342234518 0.212529801725661 0.06068574266431243 0.05448339654020681 -0.056758508496158065 0.18266524314895186
-0.013929607940635252 -0.09620112783711138 0.13851203845207807 0.08915382473735783 -0.20827373278042854 -0.060882224627345397 0.025351875666937414 -0.19385461042152494
0.09097145348158413 -0.1877081817103931 0.055323327889358606 -0.03532290096028852 -0.05851567287954914 0.24733228333133922 0.06644507933792969 0.11435297528852127
0.15719540482537508 -0.09025159770229027 0.19075000659502608 -0.013602701743387841 -0.21668739357456096 0.04120629025956023 -0.07753013582761414 0.16243241095324767
-0.17959026407949824 -0.028956071161294342 -0.1068340593989434 -0.007619353014928334 -0.14424536793881518 0.05229762947474064 -0.02187346998684493 0.15883314975066035
0.0992686947844291 -0.06522397162003114 -0.07237667562137301 0.017999258033725235 0.077375557860489 -0.0333770153552759 0.029378057700954432 -0.04005562902810862
-0.38969376825195784 -0.0531256270869938 0.23017804065210584 -0.13125077187990747 0.10326993351807029 0.12012362219832681 -0.15058553666750102 0.0065420611343832945
0.041473609194463766 0.0024000255444933485 -0.026789309603890706 0.3604211538512124 -0.14421943848114258 0.08806164501399025 -0.1531553364485971 -0.3305781628664845
-0.027636958200030468 -0.28095701884160257 -0.008340590403504223 -0.002076331732131352 0.16808674507571808 0.14815343853175167 -0.0314226010415271 0.13555767245468303
-0.13727499024678794 -0.14911210804262756 0.17016182665552365 0.20622317074541674 -0.08668037000490778 -0.09673513267695492 0.12286178196698865 -0.05428597556072609
0.012173597583795276 -0.22815589299878694 -0.16261380465466282 -0.14626814078949368 0.10552535809596494 -0.06346890639385422 -0.18401778838906846 0.11008342302932969
0.027755203555263182 0.23697343759306103 -0.008455338133000891 -0.19790470212267386 0.06691125757847703 0.25117709558965295 0.236625046843024 0.04014878037835182
-0.09406769024780509 0.07544549540601073 0.30577156250690973 0.25430954871223127 0.12159511908209296 -0.414744196410968 0.134411814474961 0.07134831540967977
-0.1909504492712797 0.10630196861904181 0.036344375408934045 -0.000699684266798803 0.1014251204881235 0.1565840203910944 -0.165143968706101 0.28100814291419474
0.20592188604206338 -0.05781557986626849 0.04510947239279176 -0.05733439395349289 0.16274647478387716 0.10640372988158579 0.22565870497269092 0.1895174670674909
-0.011323114355182204 0.17082757973515814 0.2038744378649059 0.08271621637361025 0.10292561967401187 0.0929814909126704 0.08431789903774704 0.10352725179725757
0.1229933613975674 -0.1805721253304382 0.06877268421271746 0.05197685600836598 0.15447234877627838 -0.11481462494417262 0.22931775029824383 -0.1303338910912534
-0.01453575083593357 0.16715464668422284 0.24144473880451273 0.1415943361502612 -0.1151856974488414 0.04170763344172099 -0.22100680171410014 0.05459270945003104
-0.21386020568249156 0.010554256625409748 -0.009436486900178107 -0.058040479822728315 -0.05681196907799837 -0.187863195746312 -0.09109830846484855 -0.10985395688699573
0.008719729777417258 0.00557499194893153 -0.17166917579407498 0.18294851040828874 -0.012735460629265675 0.06703405062037864 -0.2013995112234638 -0.11167986252433626
0.025246624418005438 0.11569132047390816 -0.1594246214884842 -0.047575872975473756 0.1814491536025648 0.2082737016824442 0.05022344891499408 0.0058443187852924286
-0.04148802580538555 0.12362024214259491 0.05325935446354405 -0.11940844640240195 -0.18062317436632136 -0.047774034176465335 0.15008420998492253 -0.34398619949989245

layer1.bias f8 [128]
00000000: 23fb fba1 41f2 c3bf 7ef5 8195 b19e d2bf
00000010: c259 320c ea91 b03f ddd3 4298 5407 b3bf
00000020: a267 cfa1 40e1 9dbf 4e2e 9dbc 1e04 cabf
00000030: 1cd9 5203 5f05 d1bf ef6d a017 7a53 c7bf
00000040: 4513 b7f0 fa02 b8bf 2c4c 2391 8bd3 b03f
00000050: 7444 0410 d097 e0bf 854a f773 bd25 bc3f
00000060: a938 cecd e98f b1bf 8909 35b4 bc4a b23f
00000070: 231a eb2d 2fb6 bc3f 2cb3 f315 588b b43f
00000080: ed48 d571 7660 c7bf 261b b53f 5081 a43f
00000090: a256 5e75 83fc aabf 70c3 1e5d 3b3a b2bf
000000a0: f0d5 ae25 7e99 b73f 61bb fdb0 fb64 c2bf
000000b0: b849 86af 4801 bbbf 5a14 9ce8 3884 cfbf
000000c0: 1b1b d2a9 327b c5bf 2fec 1fb5 4f15 c93f
000000d0: b35b 4b88 7122 d3bf d5be 60f5 5945 b7bf
000000e0: aa66 9a6a 2e82 c7bf b0ea 4c56 47ab c93f
000000f0: 75df dbc9 2957 bfbf 0e6e 3f80 c751 b53f
00000100: 7eb0 a0ac 24c1 9dbf 17ff c49c f2ca c4bf
00000110: ea09 9462 7f59 c33f e7f7 d609 6727 7c3f
00000120: 8926 a63c 5595 bdbf 5e1b 24f4 3c34 b33f
00000130: af7c e2d1 a218 c5bf eef3 aeb1 d83c cb3f
00000140: 04a6 9b0f 778e d63f e524 d11a e944 ab3f
00000150: e10d aef6 3059 bfbf 03c5 0e95 a8e4 a7bf
00000160: 10b3 8adc 7c16 ab3f cf77 8e8b dd81 c1bf
00000170: b14f 5d53 e8de b93f 4600 4668 1c6a c4bf
00000180: fc42 e7a7 9532 bd3f 8b80 f477 4b05 aebf
00000190: 93c9 9648 01c4 c6bf 894c 79a1 cd10 ba3f
000001a0: 698c 631c 0a56 b1bf 7320 8bbb e7ea c53f
000001b0: e8c2 2421 973a c1bf 2e38 b33f 7965 c4bf
000001c0: 25db cc47 c0bd b6bf ccaf d9b1 df5e ce3f
000001d0: 3e8b 0dae a51e dabf f514 f96f 6be6 b93f
000001e0: 2c6b 5245 949a bfbf 6b15 cea4 c20e a13f
000001f0: 8379 5594 bda4 d1bf 29e8 e3d4 df1e c1bf
00000200: 1e4c 6345 aa28 cd3f 6846 303a e14e 82bf
00000210: 2edb 1365 6ec2 cbbf c01c f056 95bf c33f
00000220: b8c9 0f2f 6959 c1bf 85b2 c9cc 9427 b13f
00000230: 6b7f 6d6a 9d13 873f 7ecf e57a a12d b13f
00000240: fd36 faad 9dad 56bf 7480 5c1e 92bd c63f
00000250: 698c fe1d 428d c23f 0afe 6c37 9dbd bdbf
00000260: 2318 98c6 8633 c4bf cc3d febd 8827 ad3f
00000270: 0ed8 9b6c 4437 b93f caea 4627 0106 a4bf
00000280: dccc 8fda b99d cc3f 6f1d eaa9 264d c73f
00000290: 8d8d d26a 6813 d1bf 4b23 7002 3e49 833f
000002a0: 24bc fb76 5ed5 a83f 7d76 ef02 cc80 d6bf
000002b0: f266 eef7 9820 b63f 968a 63d6 a57b 92bf
000002c0: 3a2e 339d 602a 983f 49e0 1e9d 0a7e b63f
000002d0: fa19 0501 461f bfbf 0135 d270 b980 c4bf
000002e0: 3dba 8e2e bb31 963f 1972 e96e 8fb4 b6bf
000002f0: 6272 6076 0f29 7bbf c666 0b50 68de c9bf
00000300: 14b6 6421 0814 a53f dd9d d4ce 55bf cd3f
00000310: 76d8 7a20 20f2 97bf 1b41 a1a5 9042 bb3f
00000320: a701 e436 e377 b43f 6193 0f21 a8c4 c13f
00000330: a85f 4ac1 9e05 ba3f 4752 0a47 c6e7 b6bf
00000340: 8afc 7e97 05ea b0bf f9f7 9824 6078 a53f
00000350: d461 b5b0 06da 803f 7dfe 00cc faa6 a5bf
00000360: 716b 4d7b 0bfc b3bf cd98 df86 707a c9bf
00000370: 518f 5f50 b228 9a3f 4350 9316 618f c2bf
00000380: d466 d663 9bc0 c43f 158a eaf7 b14a cb3f
00000390: 8205 2a62 a545 c4bf bb30 8467 f5df c7bf
000003a0: f519 265e 6683 b2bf 7dbc a51e d067 ccbf
000003b0: 9daa ab8b 3eae b5bf cd77 c36f 83e7 b93f
000003c0: e97f 178e 6f65 bc3f 1efe 2358 27ca c83f
000003d0: eb9a 24e7 3853 e1bf 0727 660e 9cc9 c83f
000003e0: 0bae 750f a943 c3bf d558 a615 7ffb 913f
000003f0: 7725 415a 57ce b9bf ddc8 4425 d06f bdbf
-0.15583057793988883 -0.2909358940158525 0.06472647474070128 -0.07433060376463581 -0.029179582477673834 -0.2032507344214189 -0.26595282864163194 -0.18223501351972923
-0.09379547478517931 0.06572792333035754 -0.518531829149778 0.109950867473609 -0.06860219263600932 0.07145289802159573 0.11215491171888252 0.08025122199951501
-0.18263130720385537 0.04004908349684504 -0.052707775189600584 -0.07120104812089578 0.09218586368555015 -0.14370676176209954 -0.10548834119098316 -0.24622260435004045
-0.16782220165279046 0.19596287101725937 -0.29897726354596016 -0.09090196839019467 -0.18366031842451963 0.20053950990571456 -0.12242375543780588 0.08327910309838435
-0.029057095562322825 -0.16244347243081655 0.15116874993698498 0.006873514646427359 -0.11555989008607005 0.07501584015345261 -0.1648143315150938 0.2127943866343282
0.35244537853449764 0.053260120891147435 -0.12245470068415144 -0.04666640109588551 0.05290594284210759 -0.13677567781718244 0.10105754885927244 -0.1594882496974625
0.11405310963824528 -0.058634146111445316 -0.17785659832368292 0.10181889717323335 -0.06771910851561959 0.17123123795886705 -0.13460053556766316 -0.15934672937732003
-0.08883287194190055 0.2372703188333375 -0.4081205558524522 0.10117217525210605 -0.12345244114332549 0.03331573735980949 -0.2756799648831462 -0.13375471015007293
0.22780350101547325 -0.008939513767504084 -0.21687107024600877 0.1542841600896505 -0.13554110334332647 0.06701021194175823 0.011267881212631633 0.06710252046997131
-0.0013841667022548847 0.17766024095999777 0.14493586029593367 -0.1161745319668556 -0.15782246300676758 0.0569422466206749 0.098499561801731 -0.03910831074195682
0.22356341525992363 0.18204196259123814 -0.2668095629871566 0.009417042207148582 0.04850287630494446 -0.3516111401239426 0.08643489888200032 -0.018049803934341378
0.023599156946870738 0.08786074005081547 -0.12157094502354218 -0.16017835625499546 0.02167408439316375 -0.0886926313191413 -0.006630955123935496 -0.2020998373835054
0.04116845519670789 0.23240158652445944 -0.023384572966016447 0.10648445171068881 0.07995433893302693 0.13881398786829904 0.10164825648314368 -0.08947409853346598
-0.0660708899367696 0.04193401762721289 0.008228351848331629 -0.04228957882196214 -0.0780646492034245 -0.19904905877701254 0.025545869975658168 -0.14500058748547148
0.16212789893034218 0.2132170162704631 -0.15837542813464373 -0.1865221744013804 -0.07231750296168811 -0.22191812035041272 -0.08469000730444028 0.1011888645038816
0.11092278689420677 0.193669240987206 -0.5414089693557264 0.19365263655736717 -0.1505023313032868 0.0175609452213273 -0.10080476716497865 -0.11498738202934385

custom_layer.beta f8 [128]
00000000: be00 5b74 030e dc3f 22a9 fc4b 3d62 f7bf
00000010: f4f4 9686 376d 0940 6c7f 732a dac5 f13f
00000020: 44e2 b306 f416 e03f 27d4 81c0 8f24 ee3f
00000030: b697 e532 d122 f53f 6012 1b02 0377 e2bf
00000040: 7696 ef04 38ff e3bf ac66 15fd 8c57 cebf
00000050: 9d3f 3409 af6b f4bf d2d9 7a25 5c91 f0bf
00000060: 562d af31 718f f1bf c697 9987 03df b63f
00000070: 3434 44a9 2169 e7bf d4a8 4d1b c087 b13f
00000080: 8e7f 7026 89ce f03f 4771 94c7 898e b03f
00000090: 87bc bd53 2b00 bebf 70d9 2b26 8067 d43f
000000a0: b205 82c6 8277 e9bf bce1 b428 4f90 fa3f
000000b0: 68d1 994f aff5 fd3f 8b04 dc22 90e4 0540
000000c0: 6c20 0f84 3070 c03f 6c5b 4a13 c355 d63f
000000d0: feef 8c60 bc8b d33f 9476 61b3 5af5 c83f
000000e0: 0eb4 b878 046c d4bf 23b5 a2ee 4546 f03f
000000f0: e65f d464 3b5e f73f 3731 2a99 7a31 eabf
00000100: 7c8f 963c f243 f5bf f0f7 7f13 0aaf d1bf
00000110: 8a9d cc8c 993b ce3f fc95 45c7 7e78 f53f
00000120: 67d8 77cc 1085 9abf 44f6 0a81 46c4 d33f
00000130: bf83 5171 de96 d43f 3ba2 4a64 a379 c23f
00000140: fc51 e6ad eb6c c5bf 43a7 eaa1 4b7a b3bf
00000150: 6fc1 d428 0fe2 cf3f d426 1a70 4722 f1bf
00000160: 490b 826e 7284 cdbf d561 29b0 13c7 d53f
00000170: cd6e 9ddd a7b5 f0bf 42c0 d179 d8f0 e63f
00000180: 612a a6bb 2afe ecbf 306b 6ec2 a3b3 f23f
00000190: ac88 f7f8 b5df f23f 9e1c 37ca c2ff cd3f
000001a0: ef37 9407 a528 e43f 00f5 2297 a9b7 ed3f
000001b0: 1dce acab 3a28 adbf c802 02ca 2564 f43f
000001c0: b476 a139 78c2 f6bf dabc 7174 30d2 e5bf
000001d0: 960b 72d4 7788 ff3f 7c2d ce31 3436 ddbf
000001e0: a5d3 0aa8 8ec6 f93f ccab 06ab 0e92 63bf
000001f0: 2c59 7c62 da2f e5bf 3346 59ef 6953 f03f
00000200: 815c f647 e466 f23f 0ae1 b6f1 33bc ea3f
00000210: 212b 77b7 b8ab 03c0 8052 980b 8a66 c33f
00000220: 70ed d5bd 3058 d23f 238c ee27 e08c f8bf
00000230: 2b31 f9fe 2c00 f3bf 331c 408e a20d dcbf
00000240: 0107 5f96 2bef cd3f 3919 ff65 dc18 cebf
00000250: b8ea 1443 49dd fdbf a6ff 0bfb 8d19 e7bf
00000260: 5cfa 41c2 64cb cc3f f723 9222 ea4d f4bf
00000270: dd35 df80 9c1c d2bf 5ba6 a8aa 2c34 d6bf
00000280: c80e 09c0 5384 f13f c62e 1be3 5254 e23f
00000290: dd9e ab2e c588 f9bf 3b15 c962 7291 cd3f
000002a0: 03e5 04e0 e3d7 c3bf 404b fee0 dec7 f23f
000002b0: 1407 6338 17a0 de3f 9796 e3d0 a2a0 eb3f
000002c0: 6673 dfa2 a0c9 c4bf 8dfe 0aff 8cb2 f33f
000002d0: 87e7 f746 5873 e8bf 3608 8ea6 9ab5 de3f
000002e0: 7cce b6d2 8f02 c73f 71a6 129b 62e6 f6bf
000002f0: 2878 e148 d10b e8bf 3c59 59e8 d664 c3bf
00000300: 4ef9 f102 49b5 9fbf 30cc b84c 673a f9bf
00000310: 6b69 7ed0 61c5 aabf 9295 853c b21c e83f
00000320: f325 d5e7 440c eabf 0579 1e06 9950 cd3f
00000330: 4a6f b6aa 9531 c2bf 94cb 73db 45d6 be3f
00000340: 9da7 d29f 35cf d53f f648 2406 827b b0bf
00000350: 3dd9 e4cf fb05 f7bf e269 fe58 47f3 d2bf
00000360: 86f0 b015 1148 fabf b097 1251 79d2 efbf
00000370: 5160 8c08 4a6e f5bf 2f52 c488 8bba bdbf
00000380: db0e a86e 45b5 e6bf 1673 21f0 217a 04c0
00000390: cc02 6f49 9b1c f3bf b12c 180a b1b1 f2bf
000003a0: f2df 3268 7ba0 d03f f99a efaf 4274 dcbf
000003b0: 011f c24a 9c24 dd3f fc4e 6485 a37f dbbf
000003c0: c099 9668 9edc e33f a19f 4fa8 384c f43f
000003d0: 305e fa87 f784 02c0 d9f9 1e8f a04d e1bf
000003e0: c959 98d0 e8e3 f1bf cb7f 4d31 d22f e43f
000003f0: 769c 0e34 eef6 b23f 2f29 8dea 375a bb3f
0.4383553158077226 -1.46148423845677 3.178328563196027 1.1108037622688824 0.5028019076262997 0.94196307753612 1.3210002887876562 -0.577027801621238
-0.6249046417621702 -0.2370468364486461 -1.2762899741682994 -1.0354882682855657 -1.0975200596611407 0.08934042034670062 -0.7315834337219997 0.06847763697229264
1.0504237653294441 0.06467496035151497 -0.11719008249723305 0.3188171742216559 -0.7958387257678423 1.6602317419147843 1.872481642666651 2.7366030429262245
0.12842375229070357 0.34898449786981334 0.3054037993313158 0.19498761900733952 -0.3190928629799722 1.0171565362646298 1.460505861154155 -0.8185399047374976
-1.3290884367679316 -0.27630855469021665 0.2361938416954497 1.3419177803092444 -0.025898230056519724 0.30885470010602867 0.32170830789806 0.14433710476920844
-0.16738649359889723 -0.07608483031313278 0.24908627980904494 -1.0708689097395352 -0.2306044616307992 0.34027569011007347 -1.0443495423159448 0.7169000987323744
-0.9060262360593009 1.1688573451016957 1.1796169019003555 0.23436770318787564 0.629961504748051 0.9286697341809997 -0.056947549301551194 1.2744501009876092
-1.4224779368591216 -0.6819078707029818 1.9708174036647725 -0.45643334258848944 1.6109758915092496 -0.002388981484008101 -0.6620914386319661 1.0203646993217148
1.1501200495747812 0.8354739876731696 -2.4588484128229458 0.15156674925005476 0.28663271464002715 -1.5343934593045183 -1.1875429115198795 -0.4383322133221014
0.23386139719337254 -0.2351336954145127 -1.8665249462489282 -0.7218694594630406 0.22495707974663304 -1.2690221167015332 -0.2829962976946641 -0.34693447748086265
1.0948064328558065 0.5727934299152018 -1.5958911727010936 0.23100118468770767 -0.15502594412263457 1.173796538238733 0.478521161141644 0.8633588867057423
-0.16240318253303626 1.2310914957633117 -0.7640801797963243 0.4798342348586887 0.17976568020604933 -1.4312463815243996 -0.7514425681545207 -0.15151487679640663
-0.03096498566127908 -1.5767586705158116 -0.05228715581980022 0.7535029584948225 -0.8139977004986448 0.22902214812069857 -0.14213820300653374 0.12045704467509061
0.3407720623750892 -0.06438458108849318 -1.438960849843695 -0.2960985535698041 -1.6425944182692844 -0.9944426139306781 -1.3394260724944795 -0.11612770165476925
-0.7096278344401655 -2.5596350441177362 -1.1944840305806563 -1.1683817285836933 0.25979504752785865 -0.4445959776043505 0.45535952854741885 -0.4296654513029663
0.6206810038318551 1.268608720269164 -2.3149252532273508 -0.5407259745914487 -1.1181419513937831 0.6308375323242158 0.0740803601353138 0.10684537388184333

custom_layer.gamma f8 [128]
00000000: 9d50 a9cd e3f6 e13f ad69 e4fa 18bb df3f
00000010: 2b6d 5075 84db edbf aae6 65f7 805a e0bf
00000020: b2c2 7c58 13f5 a6bf ee14 8bb8 c2bf ffbf
00000030: a678 0544 5e7e c5bf 2327 4eb1 ef2d fcbf
00000040: 7bcd 4fbb f262 c7bf 0816 c992 9bbd d4bf
00000050: f982 159a ab97 ebbf d24b b0a1 cd9d f23f
00000060: 87f1 967c 1113 e03f 780e fff7 5c4f e7bf
00000070: 5959 5468 a63e e83f 59f9 1b9c 4841 efbf
00000080: baf8 7376 beec f63f 459b 9fa8 2548 ea3f
00000090: c7b2 69f3 ec81 eb3f 79af ea05 aace c43f
000000a0: d20a e605 d449 e1bf 0461 6e1a d429 d2bf
000000b0: 1561 bf8c 18c7 ecbf 27e7 383e 33e0 d73f
000000c0: 5cba 3100 d306 d83f f6e1 9098 c59d dbbf
000000d0: b6f9 e292 7812 fa3f 28c7 70a5 298a e53f
000000e0: 3785 93db 0aff e7bf 78ae 27c0 a626 e83f
000000f0: def8 248e 4396 d8bf 324c b8bf 6430 cabf
00000100: 8bf2 d0a0 c015 e03f c7ec 1ba4 2961 dbbf
00000110: 45b2 bd2d fa41 f6bf 575f 0848 a571 ed3f
00000120: beb1 56c0 04c1 e1bf 2eee 1fca 8ad5 0340
00000130: 8358 8137 97f1 e5bf 749a aa88 f97a 0540
00000140: f156 4e8f 61a6 0240 838a 77ac c008 cf3f
00000150: c27e 9019 1314 f6bf 263f 2435 fd72 f53f
00000160: 1294 5a9f 660b f8bf a5e7 8d31 9e44 d13f
00000170: e7d0 51b0 5ce5 0a40 7716 2b82 49b6 e03f
00000180: bf59 1ce5 935a fb3f fb92 2019 0dd1 f13f
00000190: 2145 2faf 5c20 d5bf e712 e327 ed47 d93f
000001a0: fb71 8aa6 e298 e13f 905c 2d6a 1043 b2bf
000001b0: 9054 b999 e462 d23f b12c d651 4b4d debf
000001c0: a561 4cd1 ecaa e1bf 9343 18fe cb5a e0bf
000001d0: e340 21f5 d06a cfbf da0d 25b0 81bd f6bf
000001e0: 77d9 1700 0edc ed3f 5215 96ff c16f e03f
000001f0: 6e9e d2ae 9834 e4bf 359b d69c 0587 efbf
00000200: e5f0 5006 6bbf f3bf 47da a37e 1daf f83f
00000210: 95de c1e8 411a c43f a008 3648 03b3 e03f
00000220: cbf4 f078 0216 ecbf 3169 7269 0de8 e0bf
00000230: 19ea 2954 4603 d23f 0950 38c2 34d0 c63f
00000240: 9c00 a74c 730e 0140 b11d 197a 3681 dabf
00000250: 5a4a 2301 ddc2 efbf 5604 0f78 f372 de3f
00000260: a372 eb51 fadc f4bf cdf4 7559 5d9c f03f
00000270: 3974 9f11 c89a e63f d79d dfb3 617f c03f
00000280: 88d8 06c5 c081 eb3f 741d 2e21 e994 d53f
00000290: ce05 eee6 b9bb a5bf 7537 4b4f d7fa cabf
000002a0: af2a 6e71 7b30 f03f 4c43 5eee a3ec a33f
000002b0: ed60 675b 1674 e4bf c785 6f45 017b f03f
000002c0: da5e 9fd1 029f f13f a4a7 6284 aec9 c8bf
000002d0: 5523 889a 5c37 f03f 7c21 e3c2 14c4 cabf
000002e0: 22d2 f88c 9fce e83f 44a0 e004 4041 e8bf
000002f0: 6d22 860d 3e12 e73f 300b da0b 7323 c0bf
00000300: c1c3 7021 3c0f d0bf a05d 6466 4b4c d33f
00000310: a956 df6e 46e0 fbbf a112 d9a2 f315 f73f
00000320: bfe5 f732 daf2 f13f 3eb5 8017 5669 dabf
00000330: 7ad7 be97 98e0 f33f 2833 7902 1135 0140
00000340: 8d3f 288f 49c9 f1bf e160 e172 fcb7 fbbf
00000350: e863 6303 e5cf eb3f 3445 61b6 281d d43f
00000360: cd7a d34c 4a27 c0bf d76d 64bf 0619 d43f
00000370: 7651 b4ac c33d f33f 03d3 de2c 45ca f7bf
00000380: 23eb f243 77ce f0bf 56b1 8bd1 c772 f43f
00000390: dd65 1141 2881 d83f 69d6 442f ffc5 abbf
000003a0: ab37 1985 0d7e eebf 22b9 5325 bf88 e93f
000003b0: e56b 7192 39b6 dc3f 5f0a 1084 5d7f fa3f
000003c0: 4b6e b476 55a3 ea3f 9acf 5ce7 5a47 d73f
000003d0: 0c31 0238 7f04 02c0 906e 25d1 06f0 f13f
000003e0: 48c5 8c38 d60b ec3f 4c64 62e1 0e81 e7bf
000003f0: 97b0 9b93 0c24 d53f 6646 ce54 89c2 f63f
0.5613879219840957 0.495794529926253 -0.9330465594570446 -0.5110478240960294 -0.04483852820556446 -1.9843165596697037 -0.16791895219188752 -1.761214916800278
-0.1827071585281422 -0.32407273611565346 -0.8622644433454233 1.1635261836970483 0.5023276742354462 -0.728437885635187 0.7576477086720771 -0.9767191933640716
1.4327988268919811 0.8213070195605289 0.8596100572736639 0.1625568894281704 -0.5402622332770426 -0.2838030107609628 -0.8993036984420849 0.3730590922965455
0.3754165174385997 -0.4315046300794444 1.6295095193632796 0.6731155616055036 -0.7498831070517217 0.7547181847598514 -0.38417137986460925 -0.2046018539554964
0.5026553288403915 -0.42780533815648564 -1.3911077296026104 0.9201227576149716 -0.5548118359197856 2.4792686263079053 -0.6857410511099861 2.685046260553742
2.331240768030391 0.2424546091197791 -1.3799010275469503 1.3405735088198951 -1.50278341529452 0.2698131069115511 3.3619931960075635 0.5222518484449229
1.7096136998785452 1.113537881997387 -0.3301002226626953 0.3950150384446673 0.5499127629041703 -0.07133581726280824 0.28728594791511686 -0.47346766464097373
-0.5521148765429201 -0.5110835993565267 -0.24544727296097965 -1.4212662583021172 0.9331121446437426 0.5136423103255459 -0.6314204611307568 -0.9852321685074005
-1.2342329260564437 1.5427527377011232 0.15705131402113595 0.5218521509525722 -0.8776867258199216 -0.5283267077932462 0.28144987315286724 0.17822894557377847
2.1320558536973078 -0.414136523472247 -0.9925370237563798 0.47576605534056193 -1.3039496612538322 1.0381749624787517 0.7063942283817887 0.128887379483088
0.8595889900377793 0.3372137855553412 -0.042447862090749675 -0.21078006145256337 1.0118364745018587 0.03891479763763658 -0.6391708169203675 1.030030509217214
1.1013210476284514 -0.19365483726624888 1.0135160480878842 -0.20910892024972927 0.775222564063885 -0.7579650969755751 0.7209768547191523 -0.12608182982156668
-0.2509298636023765 0.3015316486284636 -1.7422546702340844 1.4428593026397396 1.121790122122874 -0.41267921729270884 1.2423330237920411 2.1509113496052983
-1.1116424171522994 -1.7324184882655163 0.8691277567078233 0.31427972612899 -0.1261990428092389 0.31402748766569516 1.2025791879906058 -1.486882376933125
-1.0504067091230318 1.2780225930574338 0.3828831324986746 -0.05424497081768893 -0.9528873061733426 0.7979427079242536 0.44862212468222956 1.6560950430581654
0.832438213200882 0.3637301692390281 -2.2521957755726643 1.1211002511762764 0.876444921921725 -0.7345041658437679 0.3303252641187639 1.422494250557429

layer2.weight f8 [128, 128]
00000000: ce90 426a 9b31 b9bf 47f2 9b5e 1a0c cc3f
00000010: 4cd0 bcaa 572b c33f 75ea 497e 5635 cdbf
00000020: 501b 5d4a 431a b8bf 2643 0325 0e74 a0bf
00000030: d612 a5a5 7677 9fbf c8bc 3b40 aafe b93f
00000040: 9ebf 83a4 41db cbbf c3da cbd0 d6cf 58bf
00000050: 23b4 5f68 6ded a3bf b8cd 5f5d 4a93 b8bf
00000060: 61ef b244 02c9 c83f 24da f1b9 733c b13f
00000070: be86 d374 8b35 bbbf 276c 8b9f 3d2f b33f
00000080: 5677 8ff8 a6ba b33f 595c b3cb 1e0a bdbf
00000090: eaea 7cb2 5796 7c3f 8f2f 0179 2fbc adbf
000000a0: beac 5215 7e1c aa3f d6ce a716 2dae a2bf
000000b0: 7713 6f3b 16f6 b0bf 8353 4041 6abe c23f
000000c0: c1d1 e01e 8151 acbf ba91 8715 323e c93f
000000d0: 665e 0555 abda b2bf 6602 5105 f7c4 a03f
000000e0: f9d2 cbd4 787f abbf c180 c0e3 e195 c53f
000000f0: 9f79 5d87 4f5a c73f 5985 229a 3ab5 823f
00000100: 6053 9539 897b d3bf 9407 f029 28d8 a2bf
00000110: 4429 7261 0f57 bd3f a782 7bca 3b6e a7bf
00000120: 9964 a924 02e9 aabf 4174 dd8a de93 e1bf
00000130: 0d65 4f12 59e4 ab3f 2e7c 5710 7189 c5bf
00000140: 85c0 44e0 dd00 bbbf ef9a d39d dc2b b13f
00000150: b6cd 1df8 37da bbbf 6cf0 2f10 b5a1 bf3f
00000160: 9e3e b937 1537 c7bf 3056 6efb aa1e c03f
00000170: fe0d 5088 c5a8 d93f c6a7 dedf b639 acbf
00000180: 7945 6c5c 07f6 d3bf 4452 572d 485f b5bf
00000190: 5e57 8bf2 1c97 babf 8b20 f046 d097 b63f
000001a0: 3be6 db3a 6f2f bdbf ab0c 9e06 17e5 c03f
000001b0: 44e3 dce4 d725 a33f 2815 a6d6 84a9 a03f
000001c0: 5eeb 54c9 f28d ce3f dc94 8d7f d9d3 99bf
000001d0: 69f6 0051 190e 903f bdc5 67b9 9287 ab3f
000001e0: a097 9edf 3cef c33f 4a9e 03a3 c0c9 c13f
000001f0: 47dd d750 87e5 b13f 488c 46e6 750d c43f
00000200: 52de df51 34de 9e3f d1e2 a6c5 60e9 a9bf
00000210: fd26 9747 f28b abbf 5605 0736 a8d6 a9bf
00000220: ab4f 11b7 98b6 953f b0d9 944c 7c62 c2bf
00000230: ea3c 69a4 c57f c6bf df4f cfbd bee4 853f
00000240: aae3 8afc 27a2 c83f 0ddd 889f 82ff a73f
00000250: e572 432c 307c b3bf bb78 ca22 b75a a63f
00000260: bb72 c82e 4644 acbf 24b0 cb74 d4f9 a53f
00000270: efd8 59ac c6fb ab3f d431 bb23 5e09 bb3f
00000280: c4eb 6ff0 8a08 aebf 004d f2b0 795c c33f
00000290: d545 7e27 1085 b43f 7d91 6c69 6e30 b73f
000002a0: 19eb 07f8 25e5 bebf 3fdf 81a8 a47c c7bf
000002b0: 1725 d67c 7491 ba3f ebf9 7634 8c34 cc3f
000002c0: 612f dbd5 08be b53f d952 b203 992e 913f
000002d0: 123b 96a4 720f 96bf 1302 988c d280 60bf
000002e0: c968 3f9b 7ab2 92bf 4719 37cf 327a 92bf
000002f0: b222 2298 0e16 b33f 6114 27bc eac8 c1bf
00000300: fa61 4782 3f9a 58bf 659d 0b9a a332 6dbf
00000310: f428 d91e 5581 72bf c0b8 dbcc d43e 9ebf
00000320: 2ef2 55e6 e99f cfbf 1101 f997 b587 c0bf
00000330: c49d 8452 a7ae b7bf 85d0 b91f 21e9 acbf
00000340: 6989 4196 3bf8 b3bf 1187 dba4 ad1c 8cbf
00000350: 2547 a98b dc92 b3bf 3040 64ea 3ae6 85bf
00000360: 06d2 87a5 6181 9dbf f64e 8007 94d6 abbf
00000370: e35a 4366 0cb6 bebf 1627 5c5c 4b0f c13f
00000380: 823a fbe5 6cbf a3bf b8e7 521f 4cbd c1bf
00000390: e931 9482 cf02 a3bf 94c4 a852 1386 ac3f
000003a0: 573b a248 cb20 993f a66a 7875 4912 cd3f
000003b0: 1a05 5bce 8c02 833f b211 d002 78db b6bf
000003c0: 56cf bb87 7ba1 c0bf 84cf a35b 6118 b13f
000003d0: bdeb f9fa 5e0a cbbf 809d de43 96ab 893f
000003e0: a98a 3a38 8869 a63f fb21 2108 5805 a63f
000003f0: 5301 5212 d646 a63f 8e8e 6878 cfd1 bcbf
00000400: 294c 048a 1781 a83f 245d b836 f3f5 a9bf
00000410: 95f4 140d d91b 8e3f f3ed e49a f7ab a4bf
00000420: 31c4 9f20 1559 96bf 0ddd 88c5 2fd3 993f
00000430: d1b2 0878 b3f4 a3bf cd77 30c8 29ca be3f
00000440: 69b3 dabe 3a02 a4bf 1c3e eeda a3a6 a13f
00000450: 4f70 bce1 77ae 913f f56e 54f3 6a4f 87bf
00000460: 8c1a ce0f 2690 9ebf f6b5 8a2b 52bd 8b3f
00000470: 3b24 b780 9cc1 83bf d195 2df0 fcaa 49bf
00000480: 7927 5398 1ae3 b3bf c24d 55c6 7eb5 a6bf
00000490: 7e3e 9f56 2523 a9bf 8f74 fed0 f225 97bf
000004a0: 6f6d e722 c627 a83f c69b 329d 4a5f 863f
000004b0: d693 14a5 39f0 9dbf d4cc 49eb 735d 893f
000004c0: 13f9 6d04 ac5e 703f 820d 7ba0 cc23 a0bf
000004d0: 26a2 e7da e84a bf3f eb53 0fa4 594c a73f
000004e0: 4c44 9a90 fed5 943f 2257 d739 fea4 aebf
000004f0: dc84 b89c 9fff a5bf d552 b564 73ad 69bf
00000500: 7a78 5793 6596 b5bf 1d28 3a66 b5be b0bf
00000510: 0664 511e 05cc b6bf ecc2 87b7 76da a5bf
00000520: b978 9d1c 7520 903f 668f cf8c 9abf c63f
00000530: d7c7 39b9 94bd a2bf 3369 8bed 1ce0 c6bf
00000540: 2fe2 2459 dec6 89bf a448 5859 5d45 b6bf
00000550: f7af 6b2b 1d46 b1bf 8091 2b8e 470b b83f
00000560: 4802 b2e2 b62c a53f 9053 6d73 c62a a73f
00000570: 62ee 56a9 c3aa b53f 2a59 09ab ef95 94bf
00000580: 6dfa 5b5f a6dd 91bf 57f1 5510 91ec c83f
00000590: bd86 fd69 390b b4bf dec2 15e0 af4c 9fbf
000005a0: 936a 19dc 0a8f ba3f 01c4 7b09 f50f 89bf
000005b0: 4b54 9b46 a3f7 b5bf e5eb 789b be91 62bf
000005c0: e393 2b92 34d7 a33f 65f2 3c92 47ae a7bf
000005d0: b460 9123 5bfe 8c3f 3ae0 0289 1991 b53f
000005e0: c575 abf5 22f3 ad3f 04cd d7e7 702f b5bf
000005f0: 44cc 664d 815e 9d3f 5c17 9a53 0976 883f
00000600: 2b51 ff64 1dd8 af3f 4f82 6090 43fa c2bf
00000610: bf22 74c1 ff50 a83f 23bd 3692 cb62 b83f
00000620: 3a8c 2e99 3f34 a1bf f7ca 5a53 d008 b0bf
00000630: 0069 2691 5458 b63f dea2 01c0 45ac 903f
00000640: b781 a05d 5914 c3bf 4be4 8059 3e8a a9bf
00000650: bfab 214a 098d 7b3f 503b 4e9f 4813 9bbf
00000660: 2908 3d16 1885 323f 9bf8 9b72 cae3 563f
00000670: 4326 0c60 e842 c1bf def3 36dc 64db 833f
00000680: c0ab a583 93cf b73f 045c d916 38ab adbf
00000690: d351 6629 ab9c 5ebf 6035 6e89 3e80 b43f
000006a0: b810 53ad ebf2 853f 56fd bc61 a7ca a8bf
000006b0: 2575 d0aa e6ce 84bf 537f 336a e255 aa3f
000006c0: 9c05 08b1 4d9c aabf 7470 a202 39ad 8e3f
000006d0: 20d8 26b2 05b3 b2bf d35b 2d73 fda5 aa3f
000006e0: 87f6 dde9 2e8e b23f 280e 4099 e539 903f
000006f0: 9212 2afa 231f a2bf d446 d010 6ae5 8c3f
00000700: fbbf 4cee 1d2c b3bf 4ab5 ab97 7db6 b03f
00000710: f709 3e56 04dd bf3f 4342 2615 8daf 8dbf
00000720: 9250 1d41 fe95 973f e2ba 1c9c 086c b3bf
00000730: 678f 1efd 50a7 78bf c05e 9d01 6b40 a8bf
00000740: 15b1 293e 663c 9abf 037d c861 df20 abbf
00000750: ea9f 48b8 d6c9 2d3f 9e14 f019 8a0c a2bf
00000760: 95f3 a5f1 a799 943f 7611 5314 4642 b7bf
00000770: 8385 8f2e 2d0f b4bf 0d91 b6cf 542e b83f
00000780: 2916 69dd 7798 8ebf 0518 368e 71d2 ba3f
00000790: 747a ef38 7e1f bbbf b188 1bb3 dd1c 88bf
000007a0: fbe0 470a 1848 ba3f 516d 52d0 7575 973f
000007b0: f449 2952 3e35 bf3f 93d9 ebc0 cc97 a13f
000007c0: cb9a 91f8 ff76 b63f e3b1 c90a 6ced 9d3f
000007d0: fd14 b213 2e90 95bf 5c1a a322 40b6 a03f
000007e0: 58da cf6b f5fb 7f3f 57a0 2481 f720 7d3f
000007f0: 94cf 70f7 2aa5 b7bf d5aa b428 2272 bcbf
-0.09841319412459201 0.21911935443485417 0.1497602065734348 -0.2281902424473007 -0.09415073934097262 -0.03213543130698886 -0.030729154453427686 0.10154213016697888
-0.21762867482129605 -0.0015143964585015302 -0.038920802107760964 -0.0959974744762836 0.19363430361215264 0.06732867517153146 -0.10628577806667303 0.07493958611614514
0.07706683700913905 -0.11343567345771656 0.00697931534505856 -0.05807636596782039 0.05099863062181374 -0.03648510839039225 -0.0662549872495911 0.14643600641343477
-0.05530932905131492 0.1972105603337136 -0.07364912820536915 0.032752723120670166 -0.053706909156891976 0.16863654728604696 0.18244356259942848 0.009134729222128145
-0.30441504119271734 -0.03680539619382653 0.11460968140651057 -0.04576289030751939 -0.05255896279840861 -0.5493004524429425 0.05447653149139784 -0.16825688646255926
-0.10548197484308915 0.06707552769840296 -0.10879850204019345 0.12356120724865755 -0.18136849614028433 0.12593591000465798 0.4009260016611903 -0.055127825572824515
-0.31189140344311955 -0.0834851370521586 -0.10386830255023713 0.08825399143109018 -0.11400504290568218 0.13199127028574273 0.0373980967401111 0.03254332657074094
0.23870692091608253 -0.025222204599590778 0.015678783005787986 0.05376871598481212 0.1557384578601928 0.13896949729609026 0.06990857814513617 0.15666078323292454
0.030144517419073154 -0.050608657958439836 -0.05380208133608553 -0.05046582850946872 0.021204363034783274 -0.14363054026916933 -0.17577429321179433 0.010690202872787267
0.19244861441782507 0.046871263479653626 -0.07611371117259187 0.043660853383003816 -0.055208390436950215 0.042921675927431374 0.054655273951469734 0.10561169025749645
-0.0586589258673125 0.15125962390866476 0.08015538181486843 0.09058275293188518 -0.12068402581637051 -0.1834913084783185 0.1037819676186199 0.22035362779384057
0.08493094655130796 0.01677931866705049 -0.02154330377157538 -0.0020145523346857346 -0.01825896809155195 -0.018044275185979754 0.07455531324570577 -0.13894399821416228
-0.0015016193584554958 -0.0035641856523970666 -0.004517872335393348 -0.029536557200963598 -0.2470676779447713 -0.129141520696074 -0.09250875248527907 -0.056466136095793686
-0.07800648134574363 -0.013726574510147612 -0.07645967874239241 -0.010693035390915012 -0.028813863495047463 -0.054371477046656055 -0.119965338675097 0.1332792473770545
-0.038569834779640835 -0.13858939675793436 -0.03713081807117986 0.055710414734116004 0.024539161976061177 0.22712057338579433 0.009282207534286036 -0.0892863280169596
-0.12992805602663776 0.06677826392461667 -0.21125399832439298 0.012534307428565539 0.043773896087505655 0.043009520523415966 0.043509187446945895 -0.11257645311030215
0.047859893415214856 -0.0507045749947628 0.014701553069807619 -0.04037450567053815 -0.021824197879997512 0.025219675475651338 -0.03897629585512664 0.12027226579127089
-0.03907950954212575 0.03447448775761705 0.017267106201970524 -0.011381946135365232 -0.029846758570352835 0.01354469485644481 -0.009646628072817012 -0.0007833228158743937
-0.07768408030383779 -0.04435344859180247 -0.04909626657865561 -0.022605699544886945 0.04717845130991349 0.01092394153813626 -0.029236698818880878 0.012385278337410467
0.003996536200132422 -0.03152312716477025 0.12223677963596255 0.04550438049015056 0.02034757382950074 -0.05985254722661028 -0.04296587741942812 -0.003134465577810589
-0.08432612273415599 -0.0654099821641982 -0.08905059805091761 -0.042682371047595286 0.015748815413979076 0.17772228122259576 -0.03660263787322975 -0.17871438597541953
-0.012586342902623475 -0.0869959204794975 -0.06747610387873225 0.09392211171104314 0.041356768772861374 0.04524822386762317 0.08463690647379843 -0.020103211225739027
-0.017447089739102518 0.19471944139139438 -0.07829626882223813 -0.030565975238860392 0.10374515412824285 -0.012237467147743432 -0.08580990289495209 -0.002266762046728032
0.03875126156143673 -0.04625152263767943 0.014157020590730297 0.08424529643059567 0.05849560974977978 -0.08275514278630075 0.028680820798126186 0.011943886627033322
0.062195700243736184 -0.14826244878442416 0.04749297367567839 0.09525749511407304 -0.033601748894647135 -0.0626344874861323 0.0872853140230383 0.0162821672860528
-0.14905850478772972 -0.04988283960887737 0.006726299559981662 -0.026440748904458744 0.00028259122904128686 0.0013970829990621939 -0.1348543614370091 0.009695804567735718
0.0930111118702106 -0.05794692305487817 -0.0018684073926112834 0.0800818524860083 0.010717240549987003 -0.04842112606137998 -0.01016025742324673 0.05143649622345827
-0.05197375093485876 0.014978833573245455 -0.07304416274459458 0.05204765349360909 0.07248204431194881 0.015845859030390624 -0.03539383343471515 0.01410944808779694
-0.07489192073694532 0.06528458550356678 0.12446620088125103 -0.01449499340813632 0.02303311607768472 -0.0758672124036184 -0.006018940317435418 -0.04736647028647445
-0.02562103037273385 -0.05298517292635021 0.0002272677048875676 -0.035251918474423535 0.02011740124133928 -0.09085500713542224 -0.07835657488569407 0.09445695944902273
-0.014939247555172024 0.10477361413913407 -0.10594929590249952 -0.01177380755274657 0.10266256571765446 0.02290901264187301 0.12190618043795337 0.03436126570697975
0.08775329416821902 0.029226005705298774 -0.02105781550610163 0.032640461185611896 0.007808645893411091 0.00711151772910775 -0.09236401120216292 -0.11111653798858907

layer2.bias f8 [128]
00000000: 9d21 4f35 4e58 953f 0d85 a6ba 2319 ab3f
00000010: af79 e2ed 4916 853f 4dff f3f5 81cc 8ebf
00000020: dab0 f44f 2f24 9ebf 9716 0f48 3dcd b73f
00000030: 5720 047a 3594 85bf 64eb 097e 1c3d c03f
00000040: c211 8024 3c93 d13f 9aa7 dd34 3adf 91bf
00000050: 9929 1a5c ab3f ce3f 9b66 2792 f6f4 a13f
00000060: 09fd 57e0 06fc a03f d745 3ce5 4b5b b83f
00000070: 6a17 cde4 7d7c d33f 5de2 7535 c3b7 bd3f
00000080: fe0c 01bf f46a b93f e1d9 3f84 0f0a 743f
00000090: 436e f2aa 6251 a93f d0af f8ea a526 70bf
000000a0: bad9 8243 36b8 a43f 475c 75d0 ae37 be3f
000000b0: 0584 4a9f eaf8 8f3f c341 94b8 9ef1 acbf
000000c0: fe98 0434 9e9c b23f 8ea6 340b 5334 b33f
000000d0: 1027 2bb7 f84d 943f f5ac ad0e e2d7 9e3f
000000e0: 9d29 27e1 ba2b a7bf 41ac 5e82 0c60 c1bf
000000f0: 0ac6 6221 1cd9 a0bf c52d d1a1 fa57 a3bf
00000100: b82a 5594 239e 6ebf 714b 432d 4c59 99bf
00000110: beb1 c6e4 ca6a 7ebf a583 d37e fdee 96bf
00000120: fe7c 16f9 b51c ae3f c268 69ab ffd9 58bf
00000130: 4070 aeff 86f3 8a3f 8c0c 15dc cde6 afbf
00000140: 5a85 9e4a 04cc b4bf 7ec4 51b5 2f57 9abf
00000150: 548d a432 c22a bb3f 59ee 23c8 5640 b0bf
00000160: 68bd 2556 859a b93f dcd7 9110 5a01 963f
00000170: 31db 3c93 a911 8d3f 951b 96f2 99b9 b2bf
00000180: 6b0b 0e3e b2cc a73f a09c ce15 38d5 a53f
00000190: 0177 c50e 2661 aabf 1520 83ae 7034 b23f
000001a0: fdfb ba07 2a57 cf3f 75b0 c65d 01a0 a83f
000001b0: 6256 863a 81d0 a1bf 4b87 d978 fe37 a53f
000001c0: c643 579f f0a8 c33f 1e32 f4ce bd0c 96bf
000001d0: 9775 30dc 21e1 b83f 9b42 94ca 3a57 aebf
000001e0: 7fe2 2f51 1c5e b2bf 4b54 58e7 f8f5 a63f
000001f0: 90c4 fe70 b57c a3bf 1506 04ec 23c5 9f3f
00000200: f283 30af d1f2 b03f 6a9e 4ebd d32a a83f
00000210: f6f2 d185 d6f3 b0bf f13f f134 6d6d d53f
00000220: a140 dfa6 acc4 b13f 7fd8 dbcd 074a 6cbf
00000230: 8632 ce67 9cea 22bf 743f 8cc1 f25b b3bf
00000240: 0886 bf2b 914f ab3f e8c7 aafc 979a a33f
00000250: 0906 0c32 40f5 8c3f 34d6 a19d 940d a33f
00000260: af47 c73d 33b2 b7bf 3b51 170c ad37 b33f
00000270: 27ef 3f49 fa10 883f 8b06 1b26 2881 b0bf
00000280: c67c be44 bd9b cfbf 668f 0aba a732 b33f
00000290: 8828 0e81 d149 b9bf eabb 9025 ae1c 7d3f
000002a0: adf1 9bb0 edcc bdbf 5aa2 baf9 4ea2 b2bf
000002b0: 787c f2d7 b34c a13f d912 3379 bbfa bc3f
000002c0: f46e 74c6 0a59 9d3f f61d 75de 56d7 c83f
000002d0: e086 592e 6299 ab3f c9a2 c7f0 b96e 853f
000002e0: 031e 7d7e 942a af3f e853 a7eb cc17 b4bf
000002f0: 0bea 9bc3 c8ef aebf dc89 7b8c a2fc a7bf
00000300: f287 dfb2 b364 afbf 2d09 aed3 ba83 9ebf
00000310: 4886 b524 cb4f b23f 704d 1df5 f233 963f
00000320: fad1 a9c8 ab2c 70bf ae71 e2f4 4751 b7bf
00000330: 404c 2d8b c424 b9bf 11eb ea97 c4d3 c93f
00000340: 3fef b024 cfa7 c1bf 88f6 a6d7 06a7 b4bf
00000350: 7b45 78a9 9b7c aebf 3a25 d542 0847 6abf
00000360: 9ff8 2390 3f7f a23f f16a b9fe 3228 653f
00000370: 7c5d bae7 4007 b4bf d38d 310c 4a86 88bf
00000380: 179e 89a7 aa38 bdbf 68a8 714e fc8c a73f
00000390: e5db 3021 fa0c d03f 3a65 f637 de3a 99bf
000003a0: 6707 1ca9 eccb a0bf f5c4 0ed0 cf77 b43f
000003b0: 8860 3513 7e45 983f fa81 b58e 18f9 75bf
000003c0: a27a 3f20 5820 9ebf 58a3 a556 fd3e a0bf
000003d0: 10d4 404f 4a02 87bf 9455 c6e6 7786 a43f
000003e0: e860 356a 83fa ac3f 426d 729a 71f0 aabf
000003f0: a706 d5c0 0ff0 bd3f 4a8f 47bf f0fe b23f
0.020844671252946523 0.052926174673539085 0.010296418735660532 -0.015038504904168493 -0.029434909110180076 0.09297545441867282 -0.010536592279564312 0.12686496881709808
0.2746115070770224 -0.017453107334780428 0.2363180350988159 0.03507204565148677 0.033172812352853916 0.09514307352608085 0.3044733747850531 0.1160852437514079
0.09928826964555879 0.004892407047000864 0.04944904648547468 -0.003943107716207053 0.040467925778489414 0.11803715314214101 0.015611489282777677 -0.056530914336807146
0.0727023007389995 0.07501715682578888 0.01982868783924291 0.0301204034289357 -0.04525550840806434 -0.1357436787196509 -0.032906416964930754 -0.03778060174280599
-0.0037375159178386318 -0.02475470567953714 -0.0074260640653104875 -0.022396050325258838 0.05881279626486878 -0.001516818692513897 0.01315980403688155 -0.06230777083921976
-0.08123804876097065 -0.0257232145708639 0.10612119423290284 -0.06348173509825851 0.10001405099113969 0.02148953176625655 0.01419384461006032 -0.0731445519687511
0.04648358352189671 0.042642357503887895 -0.05152243547739311 0.07111267338325462 0.24484753968678766 0.048095743844300744 -0.03479389037526627 0.04144282555786435
0.1535931375533705 -0.021532979732954975 0.0971852457591552 -0.05925925944223317 -0.07174851400476177 0.04484536956821524 -0.03806082729659821 0.031025468139892782
0.0662051251133702 0.04720174489858382 -0.0662206722935926 0.3348038689628075 0.06940726350808514 -0.003453269236042777 -0.00014432105299668293 -0.07562176919259206
0.053341423597668636 0.0382888313228163 0.01413965370875571 0.03721298622341998 -0.09256286867392192 0.07506829781715833 0.01175113235512233 -0.06447077684699758
-0.2469402871765622 0.07499168674490661 -0.09878262902035051 0.0071074297530193484 -0.11640821038958533 -0.07278913113499055 0.03378831873964655 0.11320087155315707
0.028659981119843317 0.1940716348856168 0.05390459838669215 0.010465099964635087 0.06087173503925316 -0.07848816636335665 -0.06042315852933563 -0.046849326752425674
-0.06131516989240983 -0.029799384279166553 0.07153005262582568 0.021682544909095325 -0.00394885161459912 -0.09108400086046828 -0.0982172813212836 0.2017751447472951
-0.13793362895546044 -0.08067362561174651 -0.059544434010727586 -0.0032076989506647753 0.036127077431943315 0.0025826450344487097 -0.07823568017407995 -0.01197488641464065
-0.11414591398499173 0.0459975095516974 0.2507920574311682 -0.024638626256636466 -0.03280582012486271 0.07995318250211254 0.02370259277572065 -0.005364509513441801
-0.02942025849176367 -0.031730572535542734 -0.011234837096802536 0.04008841220926765 0.05659876510134315 -0.05261569032992465 0.11694429834190122 0.07420258207235722
