COLA_Emulators/PCE/wCDM_PNN_HIGH/MODEL_Z1.400.pth (torch, 192382 bytes, 10 tensors)

layer1.weight f8 [128, 25]
0	0xbf7ac652c8894cad	-0.006536792156640531
1	0xbfb55113d1b0d2a3	-0.08326839322473716
2	0x3fb70f6fd7bc18fe	0.09007929818116975
3	0x3fb39a89439145c3	0.07657678508373693
4	0xbfd13b26ce09de45	-0.2692353260131067
5	0xbfcf5ce5c4e8d4cc	-0.245022507807937
6	0x3fc963b8a67b1920	0.19835575226734026
7	0xbfcace06beedf403	-0.2094124252579662
8	0x3fb95d143f73c6ac	0.09907652424933627
9	0x3fad5bf3c81ddb4b	0.05734216516332554
10	0x3fc01c7a6f2399ab	0.1258690874739846
11	0xbfbcc4cc9a1a551b	-0.11237791788365252
12	0xbfc27eb36d22c1e4	-0.14449160412688322
13	0x3fb64cbed7edb942	0.08710854312605412
14	0x3fc8090a3144cdd4	0.18777587323857736
15	0x3fb5eb75b26dfadf	0.08562408071700699
16	0xbfbd6b87b5302b23	-0.11492202924288768
17	0xbfb39ea0f4218c4c	-0.07663923225622787
18	0xbfa5be9cf36c14cf	-0.04246988746130286
19	0x3faba5d84ca0f528	0.05399967132005151
20	0xbfbbc62420f14044	-0.10849214367158405
21	0x3fc3240db50a5dec	0.1495377668368144
22	0xbfbabe900b18dd31	-0.10447025557447344
23	0x3fae3693d627cab6	0.059010143177052596
24	0x3fa071ee8440d953	0.03211922993107188
25	0xbfbc80c731d55792	-0.11133999792704533
26	0xbf6922e4b7d66c33	-0.0030683962965674326
27	0xbfaad60057d03c24	-0.05241395065251478
28	0xbfe34fa8e252ae98	-0.6034740848894726
29	0x3fbb0058a2d8ca79	0.10547403312447469
30	0x3fb7211d3094f451	0.09034902988510508
31	0xbfad8192636b5a0b	-0.05762917960753463
32	0x3fc8a07ed0080058	0.19239792974258552
33	0xbf61f8b372c9f8b9	-0.0021937851764156327
34	0xbfd8550734eb2d9b	-0.3801897064956507
35	0xbfd11f79dba008b6	-0.26754614303366553
36	0xbfc0fe774238d2ac	-0.13276568158621183
37	0xbfaf99a7634d92cc	-0.061719160911513166
38	0x3fd4be5d87602578	0.32411897869368245
39	0xbfd43ae033094a99	-0.31609349235547196
40	0x3fa10b17ab09064a	0.0332877537043826
41	0xbfbbe47b58e83e87	-0.10895510597787893
42	0x3fc30f78f906bd36	0.14890968474854
43	0xbfbbd4e2329be11c	-0.10871709571427285
44	0xbfb978a35e9c24d0	-0.09949704227269085
45	0xbfa252da724bd3e7	-0.03578837056367217
46	0x3f9fcfba72bb8640	0.03106585812827789
47	0x3fc25b6daf5c40c1	0.14341517508046844
48	0xbf62968b157937b1	-0.0022690502626465316
49	0x3fc433b01bb80ce5	0.15782739022697637
50	0xbf6ce05f2b833eff	-0.0035249575413230923
51	0x3f82b3c58c19752a	0.009131949747081498
52	0xbf641624ad38e05c	-0.002451964983063033
53	0xbfbf972d7c06eba4	-0.12340053823474634
54	0xbf69a1cdf59f2a07	-0.0031289122243596287
55	0x3fb9bbd5c4d7110d	0.10052238517443275
56	0x3f9fa3c0cb2e7e95	0.030898106003972876
57	0xbfbdb53e48ac4d27	-0.1160468032288021
58	0xbfdc7c688cb4dadc	-0.4450932859503334
59	0x3fdbbe2734e53b76	0.433481027274801
60	0xbfe15a2dbf777bf3	-0.5422581424317044
61	0xbfa2ab8f471383f6	-0.03646514647130765
62	0xbfd6103f6367173f	-0.34474167544646045
63	0xbfd9e0b4e908e9fd	-0.40434000737482717
64	0xbfd06fb15ac44e86	-0.2568171869654424
65	0x3fc1911d6de11b82	0.13724105706407036
66	0xbfcf15c16f2ebd54	-0.24285142830692996
67	0xbfdb9a746caba195	-0.43130217182490443
68	0xbfd92e8abd8d76dd	-0.3934656954860268
69	0xbfb1f3df9fdb3cde	-0.07012746479744034
70	0xbfbc869a2cb4e4c9	-0.11142886725874059
71	0xbfc604cf32553186	-0.17202177007346736
72	0xbfc03b8698f17700	-0.12681658237391247
73	0x3fd05baeee0bc9a4	0.2555959057491697
74	0x3fdf7f9c137d7261	0.49216367629359153
75	0xbf8f94ea5239abf4	-0.01542075217658654
76	0x3fb0f147f94a80ae	0.06618165813643159
77	0x3f9c94e3a2721407	0.027911717214482958
78	0x3fd79394f7215add	0.3683826840764775
79	0x3fa19c893f08f39c	0.034397400803278105
80	0x3fccd648e2359538	0.2252894501245153
81	0x3fc0043b1e74529c	0.12512911784201186
82	0xbfc885f8fc7276f2	-0.19158851934928794
83	0x3fbaa198b0352b84	0.10402826597161946
84	0x3fab0fd6192543a8	0.052855196542288596
85	0x3fc2f7485ee476bd	0.14817146905345693
86	0xbfc964f9fbeafbea	-0.19839405823401474
87	0x3fc2f168bb39e6fb	0.14799222127822262
88	0x3f9459d0f69f454c	0.019873871853467492
89	0x3fc4f9386e132fb0	0.1638556039309811
90	0x3fd2628852a63af3	0.28726394721245113
91	0xbfb6cee030c202b5	-0.08909417333962717
92	0xbfd089dd363d5e34	-0.2584145574269059
93	0xbfcc8f2a0802ee92	-0.22311902419265955
94	0xbfa36eaa9891e857	-0.03795369255472341
95	0xbfcd79e22fbd5352	-0.230282090483025
96	0xbfb7c6c80af1fde7	-0.09287691371172678
97	0xbfd35816b8cd20a3	-0.3022515110683434
98	0xbfa2acd9488ed05b	-0.03647498141018054
99	0x3fbd2bc50ae8eb50	0.11394912258485346
100	0xbf9f811c85c3f331	-0.03076595846595182
101	0x3fb6495765011746	0.08705660072254515
102	0xbfc99a0ef1eaf091	-0.2000139886130268
103	0x3f90dbd48f66fd6f	0.01646358609445769
104	0xbfb925dea9d606be	-0.09823409696948723
105	0x3fb9032b2d070345	0.09770459985066988
106	0xbf53c04afff76d12	-0.001205514185008753
107	0xbf90cc3bcfed78c2	-0.01640408951367856
108	0xbfd14e5298191503	-0.27040543416326573
109	0x3faa3b3cc4abd3f9	0.051233195312228426
110	0xbfc80962e4f55e07	-0.187786447330595
111	0x3fbf7a02f86b6997	0.12295549931460524
112	0xbfa63fdba97c99cb	-0.04345594829492291
113	0x3fa00b4792598055	0.03133605634207074
114	0xbfbfb05ca3c0d8ed	-0.12378481862910791
115	0xbfa8ff91a733e922	-0.04882483640717995
116	0xbfc1c16151217810	-0.13871399365865544
117	0x3fca07361796db66	0.20334507133312768
118	0xbfa0febface39c40	-0.03319357858145411
119	0x3fc5bebcd8583dcf	0.16988335193353385
120	0x3fc618abc48bbfff	0.17262789818732924
121	0xbfb851d8d570acc1	-0.09499888621273823
122	0x3f899be5fdaf8e60	0.012504383854270162
123	0xbfb567bb92258b5f	-0.08361408536943092
124	0x3fb321730b953dda	0.0747291472700832
125	0xbfa5f7ae823fd497	-0.042905286216332765
126	0xbfb0ba648f0f756a	-0.06534412853894414
127	0xbfb662b730c81f69	-0.08744378033600032
128	0xbfd7fc1b743c14fa	-0.3747624049286312
129	0x3fb76a104544496a	0.09146215144236228
130	0xbfcf70e398ce0bb4	-0.24563260041403867
131	0xbfd30af669ac08a1	-0.2975441009476843
132	0xbf9dbac1c5a2ac09	-0.029032733619413196
133	0x3fc72b48dc30a92d	0.18100844146221942
134	0xbf75a7598cd76917	-0.0052865503361892085
135	0xbfce641bcffc7365	-0.2374300733144096
136	0xbfb891dff8a5b184	-0.09597587414254433
137	0x3fd9bd468312691d	0.40217745590202175
138	0xbf9f80f230cf2277	-0.030765327672073597
139	0xbfb7a78f1cb4a2bb	-0.09240049792118558
140	0xbfc6618cedf43fc2	-0.17485200518467364
141	0xbf99ad005a2810f0	-0.025074010374752598
142	0xbfd8f0807ad2c9b3	-0.38967906946632097
143	0xbfa3e2296d8c9086	-0.03883485281247183
144	0x3f76611a80254c21	0.005463698881004426
145	0xbfd3dffcdcfd00d5	-0.31054612713707047
146	0xbfbffd78984b8034	-0.12496141164911095
147	0xbfbdfd8908a7f2e5	-0.11714989148454043
148	0x3fbc09d57d96b64d	0.10952505413180198
149	0x3f85e2201bc3d246	0.010685206267660462
150	0x3f8653354a214190	0.01090089447475931
151	0xbfac634046bb8c79	-0.055444725641586375
152	0xbfbbf3150e6535e1	-0.10917789079140718
153	0xbfe07d16e819d688	-0.5152697118016514
154	0x3fc06194268f951e	0.12797786600928246
155	0xbfc1dfc86a1de628	-0.13964181119426766
156	0xbfc0e91c71243e70	-0.13211398624888515
157	0x3faf6f1452ed209e	0.061394343493305956
158	0x3fd5a9f66b0b95f4	0.3384986920703732
159	0xbfa7e373dca6ffeb	-0.0466572005129818
160	0x3f817534426fdf1a	0.008524330403801229
161	0xbfd09961bc358ed1	-0.2593616807919093
162	0x3fa158d8103e2b73	0.03388095091130241
163	0xbfd05d33bfefd774	-0.25568860763393464
164	0x3fc0bdd136f5af55	0.13079276259974884
165	0xbfcd3472f6f68400	-0.22816311892259478
166	0xbfa2f0f7865fb7a4	-0.036994681504310095
167	0x3faf1548c67f7550	0.06070926116056319
168	0x3fa999aaafee338d	0.05000050923908992
169	0x3fc78f257e837670	0.18405598332803974
170	0x3f98258a063ca06b	0.023580700522103742
171	0xbfd1506d4e59e1bf	-0.27053387309527105
172	0x3fa22c5934d94745	0.035494601918471015
173	0x3fc8537310450a83	0.1900466756288389
174	0x3fc619a8284bf521	0.17265798537838697
175	0x3fa09a697dc3dec8	0.03242807064264991
176	0x3f8cfbef5c57df5b	0.014152402883140949
177	0x3f9ea8ee3a4ff45c	0.029941294011213024
178	0xbf7a1f3a8cab7183	-0.006377438267659466
179	0xbfc5e1801fcfac3f	-0.1709442286804421
180	0x3fc961ab14f45675	0.19829309962431166
181	0xbfd7f6187fd4fc9d	-0.37439548953620677
182	0xbfbeccdc03bd9553	-0.12031340686151752
183	0x3f9a4cce545b3d3c	0.02568361654158234
184	0xbfddcbf42f44568d	-0.4655733548728243
185	0xbf9fc261c5079e45	-0.03101494565080844
186	0x3fcb6bf8e83a96c9	0.21423255290317503
187	0xbfb494adaaca4339	-0.08039365214996232
188	0x3f9cd9964b693bca	0.02817377887032161
189	0x3fab9738dda4a962	0.053888108306938035
190	0xbfcdaf1e77004199	-0.2319067078647208
191	0x3fc349ca2aaf285a	0.15068938335599819
192	0x3fcdbee3012a5b4d	0.2323879008951856
193	0x3fcaa8af21e0417e	0.20827283052541284
194	0xbfa0f6151074d59d	-0.03312745881923294
195	0xbfb75d942307c2ef	-0.09127164702637079
196	0x3fd1dcd965a94204	0.27910456588600163
197	0x3fd466dec58e7dc4	0.318778698850988
198	0x3f9401c8de8cb919	0.01953805788360183
199	0x3fad093234d9ea4b	0.05671078581959373
200	0xbfb7090c04e7194e	-0.08998179549880556
201	0x3fc44060b7f553a0	0.15821465475405905
202	0xbfc224ad20f5384e	-0.14174427136680595
203	0x3fd349ef1c899eef	0.30138757502434904
204	0xbfa1baf5ebb90513	-0.03462952139353539
205	0x3fc41206cfd86681	0.15680012844750382
206	0xbfd92b2e9532e0ef	-0.39326061792554773
207	0x3f7ef2af5da23eec	0.007555661222923265
208	0x3fd3ad984ab2cbb4	0.307470391223599
209	0xbfcb8126e1a87219	-0.2148789026113185
210	0x3fad36f09c59ca16	0.05705978306368224
211	0xbfa30d0db6c79972	-0.03720896583745316
212	0x3fb121e42e2ba085	0.06692339064795945
213	0x3f975ab9730d07fa	0.02280702366557106
214	0x3fca34420036c066	0.20471978197520285
215	0x3fb75ed58ebbc689	0.0912908051939444
216	0x3f9afc1155dc7073	0.026352187028451057
217	0x3fd1ecdc6a6afd1b	0.28008184807181785
218	0x3fcef329aa5a0341	0.2417957383913976
219	0x3fc1d46ce7c08a9d	0.13929520908375972
220	0x3fb70182cb91d483	0.08986680479013569
221	0xbf83b4129e24d0ec	-0.009620805216947713
222	0xbfd42ecb2c214286	-0.31535605725824956
223	0xbf77f3f11cfcf9c4	-0.005847875450682275
224	0xbfcb426a6ea93a80	-0.21296434787150886
225	0xbf9b1d5b96a4a42f	-0.02647917849495601
226	0x3f98d3327734a4e8	0.024243153119788113
227	0xbfbac583aa40f479	-0.1045763292940637
228	0x3fb29254afea9b4f	0.0725453309520223
229	0xbfcb6578917b7c5d	-0.2140341482508771
230	0xbfa47e1510d0afdd	-0.040024431517252636
231	0xbfc099e6bd319a88	-0.12969669568993347
232	0xbf9c32ef72fd9a82	-0.027538052934142694
233	0x3f8680500e7d4bc1	0.010986924593145877
234	0xbfc4f7ab94f0d5f3	-0.16380829594133636
235	0x3fc016f2b87f7c5a	0.12570032128039338
236	0x3fb0e1b68b6221c1	0.06594410803712149
237	0x3fbbba7f16276fcd	0.10831445971365312
238	0xbfcd1fb754eef73e	-0.22753039977208717
239	0xbfbfde7a4718cbf4	-0.12448848949206576
240	0x3f972c5b4b91e31e	0.022630144584101612
241	0x3fbc5e94766a555b	0.11081817523002739
242	0xbfc48f644b089027	-0.1606259695410028
243	0xbfa4a3a81c31595b	-0.04031110138082524
244	0x3fc6afbf382b199a	0.17723837130160974
245	0x3fc86928d1eeda3a	0.19070921183238615
246	0x3fb61646e53a5bbe	0.0862774190558033
247	0x3f965b356bcaa1d0	0.021832308487008067
248	0xbfa6d962450f628c	-0.044627257280528715
249	0x3fc2874eaa99360a	0.14475425081256815
250	0xbf8cfc877b4d2d29	-0.014153536272394423
251	0x3f85248446f02872	0.010323556341990978
252	0xbfaf58991c117ede	-0.061222824741660395
253	0xbfc01b5960cc50c7	-0.1258346293112764
254	0xbfbb7c895343c390	-0.10736902506665857
255	0xbfa4f6f432e5b224	-0.040946608746569774

layer1.bias f8 [128]
0	0xbfbd7c8688892d3a	-0.11518135865587889
1	0x3fd6303d4d8b971a	0.3466943032529898
2	0x3fbcf73097b08d58	0.11314681723938713
3	0xbfb5c7d39c6c53f1	-0.08508036202358916
4	0x3fa02b1dd0c5b8ae	0.03157895253649322
5	0xbfe5859dcf71b6b5	-0.6725606013912598
6	0xbfc9037e4fd4a9b2	-0.1954191102789316
7	0xbfd3e43914885c85	-0.3108046246065402
8	0xbfd99958007cdcf6	-0.39998436019546035
9	0x3faca40284256217	0.05593879569159215
10	0xbfe93492df49d2c9	-0.7876676903821017
11	0x3fbc8aeac6c0c21a	0.11149470665328245
12	0x3fc8d132d32158f8	0.19388423260779297
13	0x3fb0e99fa696e53b	0.06606481377720723
14	0x3fb66b6b82af6f86	0.08757659855421993
15	0x3fb67f29e27a9bac	0.08787786273261017
16	0x3fb946c2ba76fe18	0.09873597195018424
17	0x3fa584d5fb20e2e2	0.0420290822079943
18	0xbfb52df0ac40f9f4	-0.08273224072852498
19	0xbfb6ede4b2ae530b	-0.08956746446922297
20	0x3fb5f79ba2f392aa	0.08580944755847023
21	0xbfc09de43e57beee	-0.1298184685142511
22	0x3fc5961d99f5221a	0.16864366548021864
23	0xbfe16760186df63f	-0.5438690640582492
24	0xbfc3cb25f9cb4ccd	-0.15463709542254947
25	0x3fc85665a6d705b1	0.19013662954789148
26	0xbfe1e400ac24faa7	-0.5590823518940241
27	0xbf6aecbf48c4d467	-0.0032867179890226253
28	0xbfc4b3c1ae7fa42b	-0.16173573513450043
29	0x3fd3b0e635b905e0	0.3076720738063994
30	0x3f41e924a1a55597	0.0005465916504287402
31	0xbfaa01f94cd9a292	-0.0507963091193392
32	0xbfc98edc22dcc37c	-0.1996722383715016
33	0xbfc588584228bee9	-0.1682234118502415
34	0x3fc09b733007edb6	0.1297439560438371
35	0xbfd2ab50a039093e	-0.2917062344241862
36	0xbfbcab90dbace31a	-0.11199288714568603
37	0x3fcfbf3e87154e82	0.24802381130085754
38	0xbfb67a8cd5c3fc3f	-0.08780746668706828
39	0x3fa50a8293a820c9	0.041095810436731
40	0x3fd7116580433211	0.3604367973864849
41	0xbf8867083dd9aaa1	-0.011915268313903939
42	0xbfc83f2f0344ca6a	-0.18942821178059727
43	0xbfb86f07c11be583	-0.0954441877801369
44	0x3faad8306745acdb	0.05243064175268738
45	0xbfb4b1365ba3f075	-0.08082904565157085
46	0x3fe3a4e25034003c	0.6138774458377223
47	0xbfd28824936ea20e	-0.28955950162574673
48	0x3fc1c91815e49733	0.13894940442076517
49	0x3fb51560495b40a6	0.08235742369584162
50	0xbfc0579539addcb3	-0.12767281833996477
51	0x3fb7ac17b13f81c0	0.09246967389436289
52	0xbfbf5e4ab4b64fa1	-0.12253252899091517
53	0x3fe55b972d79ed42	0.6674304855545545
54	0xbfbfff539f0469c6	-0.12498972542053996
55	0xbfca331bb7e82e16	-0.20468470077354145
56	0x3fc7bd70cf5ff84f	0.1854687702725095
57	0x3fc6751d1ab5b92e	0.1754490261477683
58	0xbfe4adcca9280e19	-0.6462157539212426
59	0x3f90513c53fa3471	0.015934889436313108
60	0x3fa2c5851f5f60a6	0.03666320808378147
61	0x3fbadf950672c64e	0.10497409255437981
62	0xbfe5fda4cd725e74	-0.6872123730308446
63	0xbfcc440a0c5722d6	-0.22082639315183056
64	0xbf98f1e2f347727f	-0.02436022386415226
65	0xbfb0bb916e515c72	-0.06536206191354824
66	0xbfc0171d584c04db	-0.12570540248274295
67	0x3fcfda3add221315	0.24884734914316967
68	0xbfb41b2618dd1483	-0.07853925807019561
69	0x3f9d74f4f2896a18	0.028766467383642164
70	0x3fd0041a6d39a7a9	0.25025044123196466
71	0x3fb0c2d2a0f054b0	0.06547275952501042
72	0xbfd3be05ddd71385	-0.30847307838512733
73	0x3fc2abf32d0192c3	0.14587249467435556
74	0x3fde8fd07dcb2952	0.47752773556262185
75	0xbfc2e0fb04ff71c6	-0.1474908613589731
76	0xbfc44b6be853ab12	-0.15855168193896724
77	0xbfad334cebd0e0b0	-0.05703201655018242
78	0x3fc1266a814809a7	0.13398486435478427
79	0xbfa8545a0f978a93	-0.04751855316478273
80	0x3fd4f76152084df7	0.32759888659458575
81	0x3fbd40d05aa34719	0.11427023136937144
82	0xbfde2f00c17c3743	-0.4716188325409016
83	0x3f9e43e475fceccd	0.029555864049353887
84	0x3fc131002deabcea	0.13430788270986876
85	0xbfd922ef85c28796	-0.3927573019265024
86	0x3fb71dc427d0495c	0.0902979466630191
87	0x3fd1a50552199358	0.27569706933564
88	0x3fa7998a98fb316e	0.04609330289312906
89	0x3fd5a844fd058a7b	0.3383953543581481
90	0xbfce344d33bc4f16	-0.235971117269053
91	0xbfb9914ede569121	-0.09987347534349002
92	0x3f98994b8b9e4512	0.024022274395581418
93	0xbfbacc8563c80f9d	-0.10468324361869326
94	0x3fa6e0e71d7d9f42	0.04468462214464221
95	0xbfcb01748337ba71	-0.2109819069587107
96	0x3fa4c837421c745f	0.040590025730332206
97	0x3fb665f437a61e14	0.08749319418540608
98	0xbf9e06e6734a1822	-0.029323197161396426
99	0x3fd460d7aa4c76b2	0.31841079359751767
100	0xbfb2e4e0fc20e8d6	-0.07380491404993292
101	0x3fca47d7c09ff678	0.20531746774206616
102	0x3fb04ec98742b61c	0.06370219757328538
103	0xbf998dbc18f48cb2	-0.02495473768534557
104	0xbfa2c47daf980714	-0.03665535706023895
105	0x3fa7db24f67b81cd	0.04659381398028337
106	0x3f8938fe54a99baa	0.012315737684913081
107	0xbfba5d05b3df5b7f	-0.10298190728586397
108	0xbfd8699cb691de4c	-0.3814460547359644
109	0xbfe04874482081b2	-0.5088445099573191
110	0x3fa535ed876e3b2b	0.04142706182675789
111	0xbfbde82cebb226af	-0.11682396654409886
112	0x3fd742c009d17b6e	0.3634491058236823
113	0x3fec771fab98a006	0.8895414687622185
114	0xbfc4f3a3d30496c3	-0.16368530086145058
115	0x3fa7b464156b31ef	0.046298148741332194
116	0xbfaca909aa3c8dd6	-0.05597715571482424
117	0xbfd1e1a4c1981596	-0.2793971911017591
118	0x3f9ba63d776cd25a	0.02700134316838141
119	0x3fd83b6ec86c8c6c	0.3786274869218633
120	0x3fcfc1dc23af53e3	0.24810363523889042
121	0xbfac41a5277b4c13	-0.05518833262399183
122	0xbff5e06a06892784	-1.3672886138251394
123	0x3fca4aac60a88717	0.2054038497890864
124	0xbfaa2e3551dcf642	-0.051133791201646975
125	0x3f7d792c0628e5fd	0.007195636719694584
126	0xbfbb60442606398b	-0.10693765571907059
127	0xbfc8c5a8783f8d93	-0.19353204604622629

custom_layer.beta f8 [128]
0	0x3fd4d1e1c76afa72	0.325310177558925
1	0xbff885960a934717	-1.5326137936685365
2	0x40090fe13725836d	3.1327537830660988
3	0x3ff0029ce76d7096	1.0006379165779768
4	0x3fc96b521aad859c	0.19858766844394615
5	0x3fe913198b63f924	0.7835815165015316
6	0x3ff456d6eeb14c6b	1.2712010692528348
7	0xbfd363f69692f0a0	-0.30297627167215957
8	0xbfdda2dafc87e75f	-0.46306490575044806
9	0xbfc1b0f8f64d19da	-0.13821327234673114
10	0xbff6234153d2a608	-1.3836072229700012
11	0xbff0768538439c1c	-1.0289356420341909
12	0xbff249eefe5f803a	-1.1430501877257613
13	0x3f9e585c2e2c4015	0.029633941953818594
14	0xbfe5dc21418c07db	-0.6831213264670127
15	0x3fa264ba8cb1f2e1	0.03592474906415589
16	0x3fef9be3c2c6c5ec	0.987779503271836
17	0x3fb0fd6591569d9a	0.0663665275411546
18	0xbf96634913f1bad9	-0.021863118974972593
19	0x3fc19f3f9eb904ef	0.1376723790181482
20	0xbfea9e1fdf8f2291	-0.831802307738217
21	0x3ff88a5ceb67b6d2	1.533780021239569
22	0x3fff3f7e9bac00c9	1.9530016022618375
23	0x4005e9479022b5c3	2.73890602689673
24	0x3fa5eb586e89a8ca	0.042811168187499485
25	0x3f9352a447f6dc09	0.01886994065509032
26	0x3fc1abf3aa3ae15a	0.1380600529862573
27	0x3fbd2357391b4c93	0.11382050651745805
28	0xbfb35ac420a7c42b	-0.07560373112916412
29	0x3ff2c9895eabad89	1.1742032716818775
30	0x3ff54b702d01f30a	1.330917526064868
31	0xbfdd4d2e6e013fdd	-0.4578357767359174
32	0xbff624ee0279afb1	-1.384016046208654
33	0xbfce539cd7d1b60a	-0.23692665613218394
34	0xbfa4d0b0267f2272	-0.040654663752836565
35	0x3ff90d88cb2cf37e	1.565804284720087
36	0xbfaa84b2bcfac9af	-0.05179365689163561
37	0x3fcf2f87fa6b8c39	0.2436380360369144
38	0x3fc2a704ec0e9174	0.14572202230659637
39	0x3fc29a6d1f0df431	0.1453377153046929
40	0xbfb90ada35aec582	-0.09782184420216392
41	0xbf84983299f7c20d	-0.01005591900227023
42	0x3fb721a04f025860	0.09035684517798037
43	0xbff77b3c8c6d908b	-1.4675870404690012
44	0x3fbb80c6132958cb	0.1074336811810525
45	0x3fd2080c6c837eb8	0.2817412433341633
46	0xbfea3022fbad4343	-0.8183760562479637
47	0x3fe5dd5ab9c37ecb	0.6832708004185063
48	0xbfe8d0786922da2f	-0.7754480412903088
49	0x3ff2837fa0552e75	1.157104135799185
50	0x3ff19ce507235be3	1.1008043555100293
51	0x3fca5fdd37b1905d	0.2060505411092234
52	0x3fe359e9f738bda6	0.604725821356557
53	0x3ff130c66e7ab325	1.0744079890820981
54	0xbfa1eb975cd8a725	-0.035000543674256236
55	0x3ff32e2fa1d7d382	1.1987758943552937
56	0xbff59acbe2fff40e	-1.3502920977764492
57	0xbfe0f483c42662d4	-0.5298479872754691
58	0x3ffda9d67ab311f2	1.8539643090199402
59	0xbfc584ce48d45d42	-0.16811541134004854
60	0x3ffadc1689c656e3	1.67873243158595
61	0x3fbbb927ede1adcd	0.10829400594382506
62	0xbfea82a808cb188b	-0.8284492656464563
63	0x3fef91175d496f80	0.9864613363274515
64	0x3fee8ccc6040feb4	0.9546872978171081
65	0x3fe8c7ddcaea0f77	0.7743977511567967
66	0xc003491d6645d2f2	-2.4107006063517185
67	0x3fbb51c12c7d2578	0.10671622596887242
68	0x3fbdb2a9951dd71d	0.11600742235699753
69	0xbff87aca9282aac2	-1.529978344255753
70	0xbff2ea7259f64071	-1.182237960256341
71	0xbfdb90f5b3dcc591	-0.43072264256178366
72	0xbf94ff5085a6af85	-0.020505197675148707
73	0xbf9fbb6914ae2fa8	-0.030988351714355794
74	0xbffe2bde54c56dd6	-1.885710078370598
75	0xbfe48d6dcdfeca0c	-0.6422642730088355
76	0x3fac4774c8723883	0.05523266741612167
77	0xbff4566316113513	-1.2710905897141103
78	0xbfcaa8cb18c84609	-0.20827616415094521
79	0xbfcfc6a94d531167	-0.24825016284570298
80	0x3ff33cbb445c8ca3	1.2023270292636787
81	0x3fdeb0c4469f80ee	0.47953898331435496
82	0xbffa7d2c909e02c2	-1.6555600785360842
83	0x3fc9ae92eaf0eda4	0.20064007255301164
84	0xbfc5d9162810af13	-0.17068745571429442
85	0x3ff1347fc2f7eea8	1.0753171554523906
86	0x3f9ce45c0f2c333a	0.028214872766557188
87	0x3feea55a4d81763d	0.9576846612723738
88	0xbfc3721eb2423b46	-0.15192016319312013
89	0x3ff4c493e110d605	1.2979925910598251
90	0xbfe831b09942c0d6	-0.7560656541227455
91	0x3fd95b380d0259f5	0.3961925627749275
92	0x3fc4f8de7ce5e11b	0.16384488199742794
93	0xbff78c79991dbad9	-1.4717956524943274
94	0xbfe6fe4df3e2da53	-0.7185430301095245
95	0x3faaec3292252393	0.052583294239020216
96	0x3f9bbda6deff8021	0.027090651856156115
97	0xbff67803b7622ac4	-1.4043004191795925
98	0xbf9b46a53f4d7ac1	-0.026636678684890173
99	0x3fe62d1143d5a3c8	0.6930013966458484
100	0xbfea60b05d8bbb50	-0.8243028475825245
101	0x3fb051005a8d7480	0.06373598299747307
102	0xbfb6b88f1f0c3b86	-0.08875364788057824
103	0xbfa0ba4fa1d726c6	-0.0326714406069875
104	0x3fc5f135923c6858	0.1714236225168999
105	0xbfb7547558e947e0	-0.09113248272595298
106	0xbff7b17ed4308d6e	-1.4808338440569417
107	0xbfd24c8b9637da27	-0.2859219519590703
108	0xbffa0161bccdc551	-1.6253373503826263
109	0xbfefec3b8a9eba81	-0.9975869853422666
110	0xbff55519096dcaf6	-1.3332758301082186
111	0xbf92e8e0af151efc	-0.01846648281687545
112	0xbfe4a18c2e2615db	-0.6447201634734329
113	0xc0052d193cda0c24	-2.6470207933466714
114	0xbff2b1c54db87573	-1.1684010539969136
115	0xbff0d7745aaf8b5b	-1.0526011984263366
116	0x3fc3c0b00d14b463	0.15431786192621919
117	0xbfd73ec8a9604151	-0.3632070211470096
118	0x3fd2478825d25529	0.2856159562446288
119	0xbfd9b4e17fbf8317	-0.4016650912799817
120	0x3fe3e0399e1e68fb	0.6211212242372136
121	0x3ff577641d3e53ee	1.3416482107470489
122	0xc003bb96c366466f	-2.4665961518847364
123	0xbfe17750c96b1813	-0.5458148893310429
124	0xbff1ce5c8838b3da	-1.1128812142517206
125	0x3fe9962fe9e27967	0.7995833938655722
126	0x3fab9d7b43fcf625	0.05393586354192007
127	0x3faac476c138a178	0.05228015049607654

custom_layer.gamma f8 [128]
0	0x3fe840436c065487	0.7578446493013339
1	0x3feaf2aa511cbeba	0.8421222290252992
2	0xbfe4eb4eb336f6dc	-0.6537240505492394
3	0xbfde55e81ea7994f	-0.4739933299409999
4	0xbf90a0ee57bafa53	-0.01623890314544447
5	0xbffe46c52619fbce	-1.8922778595294747
6	0xbfb655ebc754d447	-0.08724855057228452
7	0xbff993705a664356	-1.5984958201626873
8	0xbfb9f0300e08f0ae	-0.10132122366570925
9	0xbfd5b0bcd9998875	-0.3389122128484197
10	0xbfe39aef708eba40	-0.6126630018605468
11	0x3ff08a0147524fd6	1.0336926256177228
12	0x3fe8f34352fa6ce0	0.7796951885860857
13	0xbfe716456f8446f4	-0.7214686563549706
14	0x3fede238ad810c60	0.9338649166824204
15	0xbfe99d222f3c2b23	-0.8004313395079844
16	0x3ff178d28f2a9e6c	1.0919976799431437
17	0x3fea4da94086dfc3	0.8219801197328639
18	0x3fec4c3761110ca5	0.8843037505943313
19	0x3fc4772e4c3e7dec	0.15988711092812424
20	0xbfd3dfc08db8a64f	-0.310531748199172
21	0xbfc8e98c76ba352e	-0.1946273402904039
22	0xbfc693c11be1e450	-0.17638410436100793
23	0x3fe3cc337da7416a	0.6186768964926561
24	0x3fd851a62a1404cd	0.3799834643287568
25	0xbfd3394c8e77589c	-0.300372256400246
26	0x3ff868bb5ecb5cf3	1.5255693152337784
27	0x3fe60b4ed45033b4	0.6888803622001576
28	0xbfe7e3866e2f9da5	-0.7465240623541162
29	0x3ff03c3b077f06e2	1.0147047322101845
30	0xbfb3c3cc5a8a0cc6	-0.07720639429503526
31	0xbfc3e9462aa87cb6	-0.15555646021764397
32	0x3fefe68e5a204338	0.9968940506242694
33	0xbfdb104e5ed1ba7f	-0.4228702474564798
34	0xbff60266c48461ac	-1.3755862881135767
35	0x3ff056e4d64e2373	1.021214329843329
36	0xbfe19884dd4aa8ef	-0.549868042192683
37	0x400154ae0f37ba71	2.166347617042725
38	0xbfe0ed451e739b9b	-0.5289636225469282
39	0x40041e92343be769	2.514927299574016
40	0x4000ae869409ab01	2.0852176251841006
41	0x3fd07c5af7336fb2	0.2575900472709193
42	0xbff40b9aad0000d3	-1.252833057194995
43	0x3ff4296fd91cc98d	1.2601164322810263
44	0xbff6b8a1871f29d9	-1.4200759199326198
45	0x3fd06c2a5bef4943	0.2566018960761946
46	0x4007d6f2b1d92853	2.979955090942022
47	0x3feb6ce3f10d5250	0.85704228477932
48	0x3ff5ac8792356936	1.3546214782023305
49	0x3ff0eed847476bc7	1.0583117279372674
50	0xbfd59c8bb82833cf	-0.33767979606710424
51	0x3fdd3a78d36ca38b	0.45669384619628123
52	0x3fe710e1b311cb83	0.7208107469035528
53	0x3fd1deb7addfda50	0.2792185972206527
54	0x3fd17273a1f5dfdd	0.2726105767865173
55	0xbfc5ad29e3109619	-0.16934703433177914
56	0xbfc0a1adc5fd3185	-0.12993404548104706
57	0xbfda198354d8b42f	-0.40780719075957256
58	0x3fdf76dba56ea307	0.4916295161770425
59	0xbff43bf80f933425	-1.2646408661269188
60	0x3fea9e07f08ff77b	0.831790895317439
61	0x3fe0f656d5c1a0d2	0.5300707030228529
62	0xbfd1be13aa2f7afc	-0.27722636813807333
63	0xbfe573a4c48c2d3f	-0.6703666533298146
64	0xbff19cf493bb72da	-1.1008191843786137
65	0x3ff5c0c2f866cb50	1.3595609381852292
66	0x3fd5377f1c40ce40	0.3315122390660896
67	0x3fe21d492696d41e	0.5660749200529869
68	0xbfeb52e13b3582bc	-0.853867164271001
69	0xbfd2c70cc6ef384b	-0.2933990423888459
70	0x3fe38759a8dc3845	0.6102722452212751
71	0x3fc50aafaa707c2e	0.1643886167739494
72	0x3fff928d26eb66b3	1.9732791443151825
73	0xbfd6413ab393febf	-0.3477312806789818
74	0xbfe9cc3942eb1cce	-0.8061796481132661
75	0x3fe46f8be324464e	0.6386165081368718
76	0xbff51e0c46a5d1bc	-1.3198359260251058
77	0x3fef647c02ed7358	0.9810161645105877
78	0x3fe8c7967801158f	0.7743637412865371
79	0x3fc794cc6e2b4535	0.18422847155901825
80	0x3fe7220929d71090	0.7229047600926766
81	0x3fdb9af051a31d98	0.431331710552024
82	0x3fcbb01f3f7f503d	0.21631231880621896
83	0xbfc7c32ce4dc2f10	-0.1856437795144008
84	0x3ff125ada33dba0d	1.0716987969022995
85	0x3fcc0ba87c1417d9	0.2191057782985684
86	0xbfe38b9a978670cf	-0.6107914885974653
87	0x3feea741a94ffcdb	0.9579170519718007
88	0x3fee0127201d8446	0.9376407267810769
89	0xbf99b57929a7936c	-0.02510632817019902
90	0x3ff05e0c7946c41c	1.0229611146317046
91	0xbfbdacf5027843b8	-0.11592036543176121
92	0x3fe6fb9ac6cde28b	0.7182134516616129
93	0xbfe0b37fc3808671	-0.5219115084075395
94	0x3feac307a74dd400	0.8363073604256215
95	0xbfb2c24c7bde5e04	-0.07327726387153893
96	0xbfceb663edbd83e6	-0.2399411116448668
97	0x3fe2f63a10cbf5ce	0.5925569847165038
98	0xbffbde17c99fda74	-1.7417219043687995
99	0x3ff18884655156ec	1.0958293874477318
100	0x3ff0a190ebc6ca94	1.039444848062577
101	0xbfd7109f373c3575	-0.36038952249585715
102	0x3ff2e050a2e0747d	1.1797644007085915
103	0x3fff6d5946864848	1.9641964678635464
104	0xbff0d745bfd814b6	-1.05255675257767
105	0xbffb0833c95abf2f	-1.6895025124940266
106	0x3fe581e09af57221	0.6721041704691438
107	0x3fd7bdb2ee254b4a	0.370953304828778
108	0x3f687a6a21d1c672	0.00298805931975537
109	0x3fddd55a2eae00ff	0.46614698942723004
110	0x3ff1e53871980da5	1.1184620320571892
111	0xbff5c8214929b95f	-1.3613598688057988
112	0xbff157269a586277	-1.083777048979895
113	0x3ff479783632607c	1.2796556584417251
114	0x3fdb4c8e3cf198b7	0.42654758407151
115	0xbfb05fd26fb41f40	-0.06396212794436185
116	0xbfec6d7c56aa7b9c	-0.888364953298026
117	0x3feb4e8756d61d19	0.8533360191367222
118	0x3fe10cebfd930875	0.5328273728012066
119	0x3ff817826a6de0f2	1.5057396085158499
120	0x3fe9611cc32d6cd6	0.7931045352992452
121	0x3feb18d7e662ff3e	0.8467826366176963
122	0xc000730308a278f5	-2.056158130129115
123	0x3ff166141b20b827	1.0874215182952953
124	0x3fef14ba14ae8197	0.9712801364840286
125	0xbfe0657fb0cefd80	-0.5123899892131902
126	0x3fd640a76562679e	0.3476961603242844
127	0x3ff596c00c178a3f	1.349304244264786

layer2.weight f8 [128, 128]
0	0xbfabc7ee4a866f8e	-0.05425972614031514
1	0x3facf27b6e71a383	0.05653749201957849
2	0xbfc43e5a92f8c2cd	-0.15815288711885103
3	0xbfbbe9ae3fa1b2d3	-0.10903443387514793
4	0xbfcb12fe93eda4ba	-0.21151716445027607
5	0xbfba4461785f3fcb	-0.10260590733309909
6	0xbfb42dbddd031ca2	-0.0788229622440775
7	0x3fc71162f64c5115	0.18021809602999697
8	0xbfcdbe89c0f7e0b8	-0.23237726137427273
9	0x3f57a6b61bb1bb55	0.0014435556793405875
10	0x3fbde6a1b7ea6764	0.1168004106533807
11	0xbfc526570db2df16	-0.1652325455559029
12	0x3fd3410ffa604742	0.3008460946158388
13	0x3fb221e8585c43eb	0.07082988888966184
14	0xbfb8fc9537ae2d6f	-0.09760410889992042
15	0xbfc15b56ab1a0d6e	-0.13559993128374564
16	0x3fca6fe4fe8682b2	0.20653974941253278
17	0xbfb0d64ec6d7bedd	-0.06577007631835437
18	0x3fa1dae79b2afdb4	0.034873235408209
19	0xbfc1fa049df93330	-0.14044244493052238
20	0x3fb5a7f347182b5b	0.08459396825507552
21	0xbfabfa9e7d755cd9	-0.054646447005035355
22	0x3fa0f647e1c2b489	0.03312897330156612
23	0x3fd20550977bc4a8	0.28157439034755294
24	0xbfb7f57a68e7da98	-0.09358944951223191
25	0x3fd4be5cf05e30b2	0.32411883805685726
26	0x3fa0599b8c0a6ade	0.031933651776133706
27	0x3fb1f134cd064a06	0.07008676534159272
28	0xbf8a776c3a8585ec	-0.012923093353211144
29	0x3fb67691c467f78b	0.08774672551223099
30	0x3fc8a2680d378f4c	0.19245625157702262
31	0x3fc9e05770168f5d	0.20215886090329152
32	0xbfc6820e86739b7c	-0.17584401669520477
33	0x3fbf94b747bb28e6	0.1233629751324404
34	0x3fa89c0b8cbf9a69	0.04806552975769735
35	0xbfb1a20c9e2191af	-0.0688789259016349
36	0xbfa4d9da571d109d	-0.04072458566091195
37	0xbfe1f67639c9b01a	-0.5613356712979141
38	0x3f951252ea91e2fc	0.020577712599762585
39	0xbf964af8362ac015	-0.02177036123856631
40	0x3fa57ce0fc522f3f	0.04196837501612415
41	0x3faac04e06f5879a	0.05224841914129215
42	0xbfcc086cd933594b	-0.21900711637017375
43	0x3fd3a9004584371b	0.30719000614850395
44	0xbfa7a4ca640bcb1b	-0.046179127419142506
45	0x3fb012e969d001e0	0.06278857072175681
46	0x3fd6e065348128da	0.35744600417514294
47	0x3f993655d18f4f4f	0.024621334949031234
48	0xbfd0ff6b9730ddaa	-0.26558961643919565
49	0xbfc0be6e5c69dc7c	-0.13081149589899954
50	0xbfc1d89f27f0d271	-0.1394232697508815
51	0xbf91e33e1a497d38	-0.017468424181399572
52	0xbfc568e65abb067e	-0.16726378851130969
53	0x3fa63b2745cf2300	0.04342005469476895
54	0x3faf5c9153163e31	0.06125311030620784
55	0x3f9ae63cd3cf4be3	0.026268911769715585
56	0xbf4737e3afd2fd57	-0.0007085668327348288
57	0x3f70f8eed1c75388	0.004143650902240455
58	0xbfc05d31454bc690	-0.1278440082892769
59	0x3fb561abcc2a3396	0.08352159246915244
60	0x3fb19779c30c3e7d	0.06871758472356677
61	0x3f9ab83b7beb1bfd	0.0260934156783854
62	0x3fd1b0f25f8ee9e0	0.2764249737917037
63	0x3fc0f4ce95d856f6	0.13247091595319888
64	0xbfc139fd7f0cbc41	-0.13458222106553033
65	0xbfa9ef80e3a2a5f1	-0.05065539149047627
66	0xbfb3bd28354cf93a	-0.07710505772863466
67	0xbfc04bc093468400	-0.12731177512344516
68	0x3faee873dea0e34e	0.06036722271568938
69	0xbfbfc430d38e70cf	-0.12408738293601405
70	0xbfcd234ff05d1b13	-0.22764014469631685
71	0x3fb5e402b24a1bd5	0.08551041462679561
72	0x3fbcb3fedda9f485	0.11212151443210601
73	0x3fb44f64e85aa270	0.07933645889955598
74	0xbfbe1cc4402c67fc	-0.11762644354567436
75	0x3fc31feac38ee8ea	0.14941153095953236
76	0xbfc075f577da984e	-0.12859981872788
77	0xbfba53a4f34e9ebe	-0.10283881130328162
78	0xbfa0259e671d8207	-0.0315370083687903
79	0x3fc05a3e26ce37ed	0.12775399107744026
80	0x3fbb92a855bed4f6	0.10770656674761256
81	0x3fc929cfd6b1c2b0	0.19658849700092196
82	0x3fd5ffb6a8201232	0.3437325136040129
83	0x3fc166f38f3b80b7	0.13595432752390987
84	0xbfc0323213f9b84b	-0.12653184867252984
85	0xbfc0d17f8f37fbde	-0.13139338009929608
86	0x3fad93c937674b7a	0.05776814271270943
87	0x3fce9c740f63f11e	0.2391495776318004
88	0x3fc4c214400bc38d	0.16217282416576176
89	0xbfa86e0f43a63313	-0.047714688308678664
90	0x3fb77969f18a8b86	0.09169637820245499
91	0xbfb0202d0f103a1f	-0.06299096696623295
92	0x3fb3a500b241cca1	0.07673649169901121
93	0x3fc061d5637d4e67	0.12798564298519752
94	0x3fa0238f8092a4c6	0.031521305508542194
95	0xbfcdec745e0cc6cf	-0.2337785205104894
96	0x3f516283629f6003	0.0010610850390460065
97	0xbfb070cb405c8cbe	-0.06422109910322413
98	0x3f9807ce00379a8a	0.023467272532708118
99	0xbf9343c9f03a7c16	-0.01881328133333334
100	0xbfbd4ee88e5fc7da	-0.1144852969735263
101	0xbfcf0bd3caf6e754	-0.24254844103216533
102	0xbfc5d05970b98338	-0.1704208183682796
103	0xbfa7cf50e6ffbffd	-0.0465035707455854
104	0xbfbbfc6f27f9a9a5	-0.10932059026678205
105	0x3f87820078c6aa06	0.01147842758731078
106	0xbfc85312d2e474e4	-0.1900352029560174
107	0xbfbca1de4a77e323	-0.11184491460870709
108	0xbfbee8eca35b9df3	-0.12074164379338707
109	0xbfbc215d3a7b1ccd	-0.10988409688717411
110	0x3f8687fd510ea60f	0.011001566921396337
111	0x3fb22899c7dbc83c	0.07093201760633944
112	0x3fcc6936de45b83f	0.22196088650838594
113	0xbfb46d22882ecd0b	-0.07979026627326762
114	0x3fbc5fcc5d4ca732	0.11083676603143713
115	0x3fbcee5caee2a3cd	0.11301211614285407
116	0xbf59bc8df4b18a9b	-0.001570833805793959
117	0x3fd2a1fa7fe0e5e2	0.29113638389716645
118	0xbfcb6e34a90bcaac	-0.21430071119501315
119	0xbfbffe3f3d863c55	-0.12497325183925174
120	0xbfb8cac1f0feeb07	-0.09684383519826777
121	0x3fa74b1c9d1e7ef2	0.04549493234594405
122	0xbfd21844aa576e23	-0.2827312148562859
123	0xbfb237348b32455e	-0.07115486524914647
124	0x3fb2562fedce61cd	0.07162761264624536
125	0xbfb72c9bbf3005d2	-0.09052441995301955
126	0x3fa6f0a3825fc49c	0.04480467764359128
127	0xbfc2369665b06533	-0.14229087796483383
128	0x3fbda40b2810c13e	0.11578435638580672
129	0xbf991fdb9f28ce8a	-0.024535590733832303
130	0x3fa3e77e03f32b90	0.038875520689166554
131	0x3fa5000c586a2e3d	0.04101599292070233
132	0xbfa689b5b4057e3a	-0.04401939222838931
133	0x3f987d515fb13105	0.023915549722276292
134	0x3f7008e8116685b3	0.003914743915090768
135	0x3fbade47526d9169	0.10495420229341836
136	0x3faaa0ac845f0cdf	0.05200709453449703
137	0xbf7eecc2e59bb05d	-0.007550011936228254
138	0x3fa9e46d62cdb960	0.0505708869085193
139	0x3fa1be2f4244136d	0.03465411838445829
140	0x3f8a39c10453d0ba	0.012805469460069541
141	0x3f913ddd50e4ee5d	0.016837556898492746
142	0xbfa21d41e10ca029	-0.03537946579155033
143	0xbfa70f8c568b4bfe	-0.045040498318165575
144	0xbfc56fae85085f41	-0.16747075553643678
145	0xbfb638211422cd9f	-0.0867939638290438
146	0xbfb28db432299837	-0.07247472977323431
147	0xbf55b8ed88012cd0	-0.0013258285180366876
148	0x3faba196640b1863	0.05396718951446713
149	0xbfa1e77af5b38e36	-0.03496917962345629
150	0xbfbc56514c027664	-0.11069210153297032
151	0x3fa6641ccac87045	0.043732547525195765
152	0x3f9d23246de01b0e	0.028454369741690626
153	0xbfb10a22f48077e6	-0.0665609213760657
154	0x3fc5b5d88fd4c0d4	0.16961199782372793
155	0x3fbc5b0bb88dba15	0.11076424842551831
156	0x3fb112fc2f5569b5	0.06669593959433125
157	0x3fa3fd167974abc0	0.0390402816068085
158	0xbfa7027de8d30e9e	-0.04494088618369328
159	0xbf60a859e8e83681	-0.0020334011126184608
160	0xbfb19499d58ee579	-0.06867372001479123
161	0xbf977e601a8ebd7d	-0.022943021412797904
162	0xbfb326ff8713d035	-0.07481381461894972
163	0xbfaacf5211ef9f14	-0.05236298054643221
164	0x3f9efce6f93febb8	0.030261620486253554
165	0x3faaee8d239d7a08	0.052601252172042534
166	0x3fb6f719617e4657	0.08970793371397555
167	0xbfb44bbf57f8ec50	-0.07928081414949983
168	0xbfadaf6f22fa12a8	-0.057979081172594704
169	0xbfbc7aedd2a14997	-0.11125074760756203
170	0x3f9d182539a1220b	0.028412419931813242
171	0x3f91f4edb6a9dc3c	0.017535890840431487
172	0x3f9b24097f8eac18	0.026504658136826093
173	0x3f8c71eab9422142	0.013889154223094228
174	0x3fa4126e79841346	0.039203121503339974
175	0xbf56f0fda59bcb74	-0.0014002301235762323
176	0x3f8d449242b79404	0.014290945683521634
177	0x3fcb1dac9076cc1a	0.21184308103474409
178	0xbfae0982946d4c3d	-0.05866630613186217
179	0xbfc414307db61db4	-0.15686613214732648
180	0x3fb90eea25fb3d7a	0.09788382937698784
181	0x3fb6d64a9a0883f4	0.08920732746675225
182	0xbf950ce13b05a31c	-0.020556945063989848
183	0xbf9417a0fea745f8	-0.01962138704567981
184	0xbfa36dae3f418883	-0.037946171971968055
185	0x3fa486e4c31dd4a0	0.04009165651124502
186	0x3fae860a3787ccff	0.059616393355009116
187	0x3fa9bdb973f0137a	0.050275607492983945
188	0x3fbec510f1d3d97c	0.12019449142449007
189	0xbfc58ece8423e09f	-0.16842061473994804
190	0x3fab3968eb922d49	0.053172377353883755
191	0xbf82f95f921ba797	-0.009264704367030236
192	0x3faa9a94529e7874	0.05196059711964632
193	0xbfb6040196df4e4e	-0.08599862988858684
194	0x3fbee51a3c35d3e9	0.12068332643487135
195	0x3fa522171704c9d6	0.04127571254720734
196	0xbfa380239e92eaf6	-0.038086999041714906
197	0xbf48ee36f4b5a254	-0.0007608192767466029
198	0x3fadd3400cc24744	0.058252336080058004
199	0x3fb2c7dbe1911098	0.07336210495947382
200	0xbfd1fa0efd1d9663	-0.2808873626548573
201	0xbfb51306a92535db	-0.08232156400227757
202	0xbfb8b5f51f3e08ef	-0.09652645123245283
203	0x3fb054e6225f45e3	0.06379545535244051
204	0xbfa9bcfd449e06f5	-0.05026999914754341
205	0xbf839d8d1fae3e97	-0.009577848939243778
206	0xbfc390a5879543a0	-0.1528517639185596
207	0xbf7f5d96149391aa	-0.007657610179397182
208	0x3fc0425cdce7d9ef	0.12702523027810694
209	0xbf93fc3ca07cca13	-0.01951689462220869
210	0xbfa2e8b0bdfdcc74	-0.03693153685790032
211	0x3fb346b28421cbf1	0.07529750562552785
212	0x3fc0451d467055a9	0.12710920276064755
213	0xbfb2891058c64f61	-0.07240392844533751
214	0x3f9cec820dc06ee4	0.02824595650609653
215	0x3fa8a16337411d35	0.04810628938190079
216	0xbf99231366bd9864	-0.024547866006649946
217	0x3f94b3859c6c4f74	0.020216071770007685
218	0xbfb5a9a990822e84	-0.0846200921825418
219	0x3f922c21c7e09623	0.01774647505239647
220	0x3fb40d1868542a14	0.0783248190602211
221	0xbf8298dc85f4c667	-0.00908062251855597
222	0xbfaf5bca5621b6f7	-0.061247179998515415
223	0x3f94f8ec22f31496	0.020480813630247306
224	0xbf904028ca21ee1e	-0.01586974843711008
225	0x3faa50f3bf120203	0.051398865770355705
226	0x3fc240c331dc10a6	0.14260139402916144
227	0xbfb0828a878d2565	-0.0644918995796125
228	0xbfb09ce210824fda	-0.06489384558727754
229	0xbfa0d7dc8c4c3427	-0.03289689266794254
230	0xbf93547e14eb52c1	-0.018877000834282457
231	0xbfa18a6ade4fec7c	-0.03425916637203216
232	0xbfa27dc68e4a572c	-0.036115841741020865
233	0xbfaa65fa3387232a	-0.05155927542688794
234	0x3f951ac237169595	0.020609888660734283
235	0xbfa04e09232909a9	-0.031845365087537054
236	0xbfaab78a9fbe107d	-0.05218156051617571
237	0xbf94fe84153e78c5	-0.02050215129531165
238	0xbfc0bcd1ecc6ade2	-0.13076232968647533
239	0x3fb31ff13043f36d	0.07470614841800023
240	0x3fadd761ae2c8a86	0.058283855926011305
241	0x3f6516624b62e4b7	0.0025741500677126344
242	0xbfb086dfcceb187e	-0.06455801728142949
243	0xbf84b3581ef04f60	-0.010107696956800971
244	0x3fab316f8940e7c3	0.053111539368230896
245	0xbf9ef8b20ca05320	-0.030245573063513054
246	0x3fc01f1b18da5d3f	0.125949275145766
247	0xbfc1b8a2285f0372	-0.1384470650791872
248	0x3fca0f595b2df7e6	0.2035934157574381
249	0xbfa5b6c9a03afa78	-0.04241018372475919
250	0x3f977fc629d92f0f	0.02294835691854674
251	0x3f9ea981c2400142	0.02994349239452388
252	0xbf9396d20f84d41f	-0.019130022237011098
253	0x3f90c80a3106ba01	0.01638809131844177
254	0xbfbcc6c49031b509	-0.11240795631757207
255	0xbfa4dd35737bc5e9	-0.04075018915854029

layer2.bias f8 [128]
0	0xbfb0295e7fd435f1	-0.06313124295066765
1	0x3fb6df03b7e682ce	0.08934043159252811
2	0x3f88b4f952b8e456	0.012063930356008761
3	0x3fa01acad17253fc	0.03145440870972746
4	0xbf9c8d81a28a15f8	-0.02788355402528528
5	0x3fb33117aabf2257	0.07496784132593724
6	0xbf7ba83369bc99b9	-0.006752205688633267
7	0x3fbb286871e0b36e	0.10608532695978365
8	0x3fc9eb885ae12e82	0.20250038564187284
9	0xbfa2a1abf291ef84	-0.03638970695553126
10	0x3fc72de82b1919ff	0.18108846763989558
11	0xbfc07a90d7243853	-0.1287404108520059
12	0x3f9fc6cda0485b77	0.031031811626316377
13	0x3fad45bfb941e05b	0.05717276703302395
14	0x3fdccba91fdacb6d	0.4499304591255882
15	0x3fb5483e440c056d	0.08313359414389306
16	0x3fc1b077c0761a4a	0.13819786927725125
17	0xbfbb8559a555afec	-0.10750351225368576
18	0x3fae0b25c9c0e7ae	0.05867879951297482
19	0xbf7c7c92964a2d8c	-0.006954739194621761
20	0x3fb17c46365563ee	0.0683025248194011
21	0x3fbf9229bf199f14	0.12332402148751626
22	0xbfb97138cc10648c	-0.09938387853653036
23	0xbfaace9792d4c1ef	-0.05235742251750596
24	0x3faa9d0344ed27c0	0.05197916237246103
25	0x3fd096a6933c4d10	0.2591949880454232
26	0x3fbd6da4c388c4d5	0.11495427869592174
27	0x3fa63af4ae88cca0	0.04341854696795022
28	0xbfb7a195d56eb013	-0.09230934582473109
29	0xbfbc4313c125522c	-0.1103985163256957
30	0xbf94c058a10437f3	-0.020264992549577653
31	0xbfb2a0554fee4ad5	-0.07275899125515235
32	0x3f75e0d07158c6fa	0.005341352681669903
33	0xbfaa552e084468d7	-0.05143112040441771
34	0xbf977ab2562cc546	-0.02292898798913725
35	0xbfadb829b972b554	-0.058045677077965735
36	0x3f97df23d32a816b	0.023312148822357253
37	0xbfb53562b9c6ef57	-0.08284585033009982
38	0x3fad749d4ce16807	0.05753032268030727
39	0xbfb97ef4b5931799	-0.09959344323132625
40	0xbfb5e8acf73682a2	-0.08558159862014716
41	0xbf9efff308a8e68f	-0.030273244288969322
42	0x3fc51e6367a49063	0.1649898773258683
43	0xbfb42766e6578040	-0.0787262260778343
44	0xbfa4ca96eecfcaab	-0.04060813584500996
45	0x3fa5bd92fe76f86c	0.04246196132906807
46	0x3f8a582993d0444f	0.012863468955432248
47	0xbfb2c9c1fabb1352	-0.07339107867580921
48	0xbfa120f3629c7133	-0.03345451906918342
49	0x3fc6afe20ce8a0cd	0.17724252348239702
50	0xbf6a2dc07647c1b5	-0.0031956442855902386
51	0x3fb06e1d3c79f0bd	0.06418020941231624
52	0x3fdc1607c58b8c41	0.4388446263457731
53	0x3fcb33df43a934d2	0.2125205116630356
54	0xbfbe1f81ae3b3835	-0.1176682520265054
55	0xbf5d7e1c02e07722	-0.0018000863597146884
56	0x3fc48c93f30f5dd1	0.16054009788670823
57	0xbfc54845d80854b1	-0.16626809166397075
58	0xbfb204a4cc7d78fb	-0.07038335792956112
59	0xbf9a446c3d68cdeb	-0.025651637313968505
60	0xbfc341c9babe0c55	-0.15044519060401976
61	0x3fa27a305e260fd9	0.03608847760463591
62	0x3f794fdb65a22a64	0.0061796732135329414
63	0x3fa3ad9415db29ac	0.03843367354200508
64	0x3fcfb6ec8d5caca8	0.24776989843789932
65	0x3fac7dc424f446cc	0.05564701987362994
66	0xbfbb3417add54ef7	-0.1062636184117841
67	0x3fda52f30c823da2	0.4113128301769057
68	0x3fc04335eb998bf4	0.12705110553642351
69	0x3f8c2146f5b86485	0.013735346196926077
70	0xbf9faeff9ad98ffb	-0.03094100363377093
71	0xbf98e2e6b58caa19	-0.024303059416675852
72	0x3fb00dd93ec7e089	0.06271131308301582
73	0x3fa87449e306897a	0.04776221176441005
74	0x3fc50d392d15091a	0.16446604443815077
75	0x3fc4c214748195f9	0.1621728485944656
76	0x3fd2459eb4ff5ef3	0.2854992644838454
77	0x3fb6fcfb6a9c8df7	0.08979770043202238
78	0x3fba186c5a0877f9	0.10193516920159586
79	0xbfc4fab97eb9e56f	-0.16390150726128236
80	0xbfd0844bd0708979	-0.25807471614293537
81	0x3fbb566421b7fdc7	0.10678697417460291
82	0xbfb9e9ba38275a93	-0.10122264738979884
83	0xbf92f1a12a2486c6	-0.018499868580994748
84	0xbfbd6c55fca143c3	-0.1149343244335475
85	0xbfb2419d892c5d36	-0.07131371115643934
86	0x3fb1334c4b0a226c	0.06718899566670594
87	0x3fbbd1e559d2b487	0.1086715072912786
88	0x3fa51232b70dd062	0.04115446552796766
89	0x3fc51ad6ad7c7f41	0.16488154860507545
90	0x3fa60c128b59cad8	0.04306085539874055
91	0x3faef173f521bf5a	0.060435889886206254
92	0x3f8c826e751e78c8	0.013920653294743693
93	0xbfc18705ebcd81a7	-0.13693307889753933
94	0xbfbffa5ae101cfbc	-0.12491386407219712
95	0xbf9132eafee9a83a	-0.016795799072873964
96	0x3f6ac6f3f99f22c8	0.003268696321331841
97	0xbf9bcb6656dfb20b	-0.02714309602008495
98	0x3f98c8b56d53f8c5	0.024203142927029093
99	0x3f824cce55af325f	0.008935558309439871
100	0x3f8ef670dfaa419f	0.015118486238208826
101	0xbfc5f03abe3a232e	-0.17139372147018989
102	0xbf9334e0ede35d1e	-0.018756403464832087
103	0x3fccf6e5520cbdd5	0.2262846613534594
104	0xbfbcbb2d9351fb8f	-0.1122311100643698
105	0xbfb3d54a265e0c6c	-0.07747329174712697
106	0xbfad0a1215fdf7e2	-0.056717457947328645
107	0x3f87d2cb6ca9f9eb	0.011632527593289551
108	0xbf9e224ac55deb83	-0.029427688881223723
109	0xbf51df036db1e70b	-0.001090768192425209
110	0xbfb6eeb723b85db8	-0.0895800077636214
111	0xbf86c829097a3814	-0.011123962976196146
112	0xbfbcc06f6c4afa26	-0.1123113288294709
113	0x3fa44fd1dbe385a5	0.03967147645176831
114	0x3f8941a0eb7b56d5	0.01233220785745052
115	0xbfa544662b742615	-0.04153746872368572
116	0x3fb3efa4f754c47b	0.07787543333394524
117	0x3fb28d7a6643d87c	0.072471284834906
118	0x3f940bdb06e76926	0.019576475426086003
119	0x3f93333cf3795184	0.018750145302264723
120	0xbfacbd21b1bc2468	-0.05613045973411418
121	0xbfb2c0755d1c6e29	-0.0732491829225458
122	0x3fb84566921d5c0c	0.09480897013905593
123	0x3fafd44e9b49afaf	0.06216664929965476
124	0x3fb04184284994bb	0.06349969848232011
125	0xbfa143e49f31d6e4	-0.03372110789579866
126	0x3fbb84229feba114	0.10748497394854822
127	0x3fbce33869c97142	0.11284210760772331

custom_layer2.beta f8 [128]
0	0xbfffdc58ac98d9d5	-1.9912955038140485
1	0x3ff68241a57b674a	1.4068008865492225
2	0xbfd3792601cc27ae	-0.30426931548629
3	0xbfe7d5d70fed2d5a	-0.7448535262168818
4	0x3feb7d15f58ace1c	0.859019260000824
5	0x3fb274d2f5c55b38	0.07209509372965506
6	0x3fd0b5d1d1118b51	0.26109738747452577
7	0x3fd5b139df28e9a3	0.33894202034903226
8	0x3ff6095a57f60206	1.3772834239936187
9	0x3fe8073acdca0e63	0.7508825320550837
10	0xbfeee254396b3b93	-0.9651280518972832
11	0x3fed562573a718bd	0.9167659052698337
12	0x3f8a2bbdd15a705f	0.01277874274392604
13	0x3fea92a27ee8654f	0.8303997496288192
14	0xbffea23107ff583c	-1.91459754108429
15	0xbfd2d1fe614f0184	-0.2940669966010534
16	0x3fe759bdd782cc42	0.7297047814557873
17	0x3fe7bd6e8d014d99	0.7418740037923498
18	0x3f9c18216d2a5ec8	0.027435800826963314
19	0x3fe7498cb308c121	0.7277282234918269
20	0x3fa5dd4717ad641e	0.042703839912697314
21	0xbfe642ebbf00b9c2	-0.6956690531276808
22	0x3fee41b0d2d7f1c1	0.945518886379027
23	0xbf96f40509e6d90d	-0.022415236214976143
24	0x3ff06e79a66657f9	1.0269714832297707
25	0x3ff23b9e66a0bcb6	1.139555359735636
26	0x4005461da5692642	2.6592362330164017
27	0xbfc34503aec35899	-0.1505436518988901
28	0x3fe2f9812d210e0b	0.5929571038654456
29	0x400330ed049fe349	2.3988895760816473
30	0xbfe4214aa1b86909	-0.6290639074898375
31	0xbf898cdb09f1f932	-0.012475692025188143
32	0xbfefd4a059dc7601	-0.9947053675747953
33	0x3feca35d31518412	0.8949418986559314
34	0x3fd3c897c682003c	0.3091182173302547
35	0x3fc7c99cad8cef79	0.1858402106680577
36	0xbfd49cefe7f2f25b	-0.32207868243475496
37	0xbfceaf15fd59f42c	-0.23971819754288626
38	0xbff5732ca62b6bf1	-1.3406187525749795
39	0xbff153e29f25ac38	-1.0829797951398756
40	0x3fb4e2cfbf4f25d6	0.08158586903223095
41	0xbf983c95b7ea151e	-0.023668612814181526
42	0xbfea34fa7006283a	-0.8189670742006065
43	0x3fa0cad2ca239167	0.03279741971508337
44	0x3feb3f3d42fe344d	0.85146964153831
45	0xbfc0afba83cf3191	-0.13036281047824308
46	0xbf72df4a0849e1bb	-0.004607476414655694
47	0x3fab6049023414e6	0.05346897270104893
48	0xbff9c07558184ce7	-1.6094869080741832
49	0xbff56dd1d9d8700d	-1.3393114575947067
50	0x3ff1432e616fd56c	1.0789016538741079
51	0x3f815220d00c1da4	0.008457428311443867
52	0x4006c8f942845ee6	2.848131675400384
53	0xbff034090228efbf	-1.0127039036151328
54	0xbfec7bde61d38810	-0.8901206885022948
55	0xbfd98869f9b0296f	-0.3989510477409998
56	0x3ffda4440062fd9d	1.8526039137940196
57	0xbff0f59bd083936b	-1.0599630494191057
58	0xbfece86a75ab8656	-0.9033710764162588
59	0x3fac411e18c89320	0.05518430759938142
60	0x3fe1db8f24a0dc62	0.5580516543767653
61	0xbfb08bcf5c85c8e1	-0.06463333138325168
62	0xbfc6edbfb07d8f74	-0.17913051717470874
63	0xbff2729e22992fbc	-1.1529828406810188
64	0xbff962572e68faad	-1.5865089238065295
65	0xbfe812c5f3a035c9	-0.7522916563336192
66	0x3fec95b23bf5cbfa	0.8932734652611309
67	0xbffa4f80db26e85f	-1.644409996092257
68	0xbff470695d769f86	-1.2774442339814143
69	0xbff11ce363e79345	-1.0695527937434275
70	0xbff2a60336bd8acf	-1.1655304086968277
71	0x3feea190a68f2ea9	0.9572222951041641
72	0xbfb742df964f5795	-0.0908641569106677
73	0xbfb7e0f564bfbd52	-0.09327634534542042
74	0x3ff12ab4c3749f6d	1.0729262957556458
75	0xbfface782ab4ad2a	-1.6754075687593493
76	0xc00e6db6b3f9d71c	-3.8035711346264076
77	0x3fa1d729c4449a5b	0.034844689568036734
78	0xbff03a1d6e6e0e96	-1.0141882241886484
79	0xbff424a4e0f0c06c	-1.258946303056315
80	0x3ff64bc4798de456	1.3934979198659412
81	0x3fef52fd783a45ab	0.9788806293674289
82	0xbfefdcd4d636f66e	-0.9957069572335067
83	0xbf95109869ed6569	-0.020571118798533492
84	0xbff7c896f1302f4b	-1.486472074643603
85	0x3fa4e51a91e81724	0.040810423193802486
86	0xbfab20d743d8f399	-0.05298493102279806
87	0x3f815af99fb582f2	0.00847430246966627
88	0xbfee22748be24750	-0.9417059642894205
89	0xbfffa065a1764f3f	-1.9766594225993257
90	0x3fa5e56bd21b7b88	0.04276596965586693
91	0x3fe0c46de7b3faf2	0.5239781880808023
92	0xbff1115f2b671c3f	-1.0667411513729943
93	0xbfb4249999aa4930	-0.07868347169486323
94	0xbfa5bba939d9ea58	-0.04244736510459707
95	0xbfc669ccb54c3c07	-0.17510374882155608
96	0xbfeed08b54a28c55	-0.9629570630098764
97	0xbfaa9180e5ad4f7d	-0.051891353642218065
98	0xbf6a244f8c24cf50	-0.0031911424313423656
99	0x3fdb605f082c9786	0.4277570323778196
100	0x3f99b40cc277b08f	0.025100898141247326
101	0x3ff335f7cc3b48ae	1.2006757715030676
102	0xbff18eb9dddb1476	-1.0973452249757236
103	0xbff6065c0aa43270	-1.3765526214293935
104	0xbfb226bb1e8c62dc	-0.07090348716554778
105	0xbfd8c1dfdcd40d5d	-0.3868331581617975
106	0x3fb777fe292accf5	0.09167469506319377
107	0x3fc1da4031c778fa	0.1394729846060228
108	0x3fdf6f964c814a54	0.49118573638148644
109	0x3fd60bb35fc39d3e	0.3444641528316942
110	0xbfab81b2397e7e07	-0.05372387840111164
111	0x3fc1fcdfd6bbe9cc	0.14052961335239755
112	0xbfa39e20f1fa99f0	-0.03831580118030675
113	0xbfcced3cb672c748	-0.2259899035321331
114	0xbff7ae5016928e1e	-1.4800568467843571
115	0x3fc5d34308b70a28	0.17050970006501243
116	0xbff166df6894ee67	-1.0876154027199847
117	0x3fbed4b0c9931e52	0.12043290063149328
118	0x3f7abab05dec7f6e	0.00652569669071555
119	0x3fe05506f9759569	0.5103793022396249
120	0x3fd9ed74441fa159	0.4051180520314311
121	0x3fdcbdae351d4442	0.4490771788305815
122	0xbfedfbb561d91711	-0.9369761382192526
123	0xbfd68d7390b5ed98	-0.352383509940148
124	0xbfd0788e142ea0aa	-0.2573580929843141
125	0xbfdb7e7333bd1625	-0.4295928960094407
126	0xbfea3fa91491fc71	-0.820271053482328
127	0x3fd739ef8ff06670	0.3629111200003541
