COLA_Emulators/PCE/wCDM_PNN_HIGH/MODEL_Z1.182.pth (torch, 192382 bytes, 10 tensors)

layer1.weight f8 [128, 25]
0	0xbf89feec4f0f5112	-0.01269325844069916
1	0xbfaa715486710729	-0.05164589062816411
2	0x3fb673865ad8bcb6	0.08770026891646662
3	0x3fc43fbe81e9a0f0	0.15819531768216377
4	0xbfcdf5971e14db19	-0.23405732125112236
5	0xbfcc9456607f3d0e	-0.22327689849633042
6	0x3fc6a6aa957dc111	0.17696125316025094
7	0xbfca144bd02e7aec	-0.203744389201311
8	0x3fbe9935ba3ddcf7	0.11952529713549952
9	0x3f96094fdc2194db	0.02151989728044588
10	0x3fb505e72197406d	0.08212132043922944
11	0xbfbe9d2f0051973a	-0.11958593137532328
12	0xbfc264a8cc3da179	-0.14369688008015283
13	0x3fb94e8bf008975d	0.09885477647966696
14	0x3fc9b6bd7f008af1	0.20088928891444582
15	0x3fbfc9acc41e1225	0.12417106426261933
16	0xbfc0bcefa258a790	-0.13076587130609285
17	0xbfa4948772d4f6d0	-0.04019568707233889
18	0xbfaea495f5cf5ffc	-0.05984943986521782
19	0x3fb1acf6d96a240e	0.06904547508214895
20	0xbfb9ece086f5e549	-0.10127070708212672
21	0x3fc2673a12287730	0.14377523314117857
22	0xbfb6dfa70bce5a78	-0.08935016668542939
23	0x3fb1fb0ef643b157	0.07023709785761888
24	0x3f7a340aeaa75fb9	0.006397287982018379
25	0xbfbefc1392310eac	-0.12103388136989207
26	0x3fb885a17cc5ebb7	0.09578904434412903
27	0x3fae00eba9db87c4	0.058600773319781335
28	0xbfe6384f479928e7	-0.6943737409976877
29	0x3fd6001b3118c98e	0.34375648302661765
30	0xbfb4066a35ce0272	-0.0782228833541099
31	0xbfb00e6a0450fa52	-0.06271994214419266
32	0x3fcc56c2ffb4af86	0.22139775739321638
33	0xbf89b59e9b8a2df0	-0.012553443071076281
34	0xbfd821af79d96015	-0.3770559968884311
35	0xbfce3518b15e85c4	-0.23599537525755754
36	0xbfb703c5bec45bd8	-0.0899013128986178
37	0xbfb647c4b4199371	-0.08703259846659052
38	0x3fca858ec1d4d4e6	0.20720085586950815
39	0xbfd4cdc38e7c9dc1	-0.3250588313553316
40	0x3f9410f16b7c242a	0.01959588259254389
41	0xbfbb7390c197548d	-0.10723213888498347
42	0x3fbb534969aaf770	0.10673960523396686
43	0xbfb419793966184f	-0.07851369525278183
44	0xbfb775157fae7bcd	-0.09163030974603643
45	0xbfa26158922371b7	-0.03589894088665651
46	0x3f944fdab9204f30	0.019835870312888193
47	0x3fb99827f67c726c	0.09997796790816843
48	0x3fab608a372d4ceb	0.05347091601893247
49	0x3fb5d51c8276e15a	0.08528307137647087
50	0xbf8fb3b5e30521e3	-0.015479489317514477
51	0x3fa8177b89e8e8fe	0.04705415781468679
52	0xbfaa202032710f74	-0.0510263501714964
53	0xbfa60f7de5efa53e	-0.043086942976354056
54	0x3fa9bca4e9464966	0.050267365909479264
55	0x3fc5e54dcab7690b	0.17106029890312188
56	0x3fa58f5235bd5100	0.04210907846450773
57	0xbf7624c61a12ce22	-0.005406164012288469
58	0xbfd17e4eac003f78	-0.2733341865250547
59	0x3fd226ce0abda4d4	0.283618460167941
60	0xbfe3b922b3bd22dd	-0.6163495550655075
61	0xbfcff766a443f7c3	-0.24973757763649304
62	0xbfcebf6b17c0deb3	-0.24021662387689488
63	0xbfc043054d2fc311	-0.1270453097236204
64	0xbfbe5b6631e0a0ee	-0.11858214109145468
65	0xbfa713e8824aadb9	-0.04507376280283943
66	0xbfdcc306065939f3	-0.4494032918927637
67	0xbfd4af1fd665f918	-0.3231887429937088
68	0xbfd01488bbfaaeae	-0.2512533031210563
69	0xbfbc7d0b40917577	-0.11128301931736027
70	0xbfb10d18cf81a7dd	-0.06660609308315153
71	0xbfc1078f3e151ef1	-0.1330431988846992
72	0x3fb062fdc4271509	0.06401048697360436
73	0x3fc51ea0b6c85907	0.16499718594486287
74	0x3fe7371ba8d0cf58	0.7254770562344488
75	0x3f924f924369cdf1	0.017881665577489107
76	0x3fa470f0cc2450f3	0.0399241685101134
77	0xbfa31367d08eddb0	-0.03725742741465454
78	0x3fde6d27d3f7ae61	0.47541232776595704
79	0x3fa14a2d60bbd7a5	0.03376905256111166
80	0x3fc2ae93a5d2a46a	0.14595265957658238
81	0x3fc0abafa6a9706b	0.13023944509302807
82	0xbfd5f63db76a780e	-0.3431543627901882
83	0x3fc6bf740bd9b11a	0.17771769121771613
84	0x3f7961b2317abf3c	0.006196685855385738
85	0x3fc97423218dc6da	0.1988567270123472
86	0xbfc6d728ef7a6d3e	-0.17844115918419762
87	0x3fc41853dee87fa0	0.15699242004575087
88	0x3f95b228ab6a93c1	0.02118743463747186
89	0x3fc66f94a5837963	0.17528017121999104
90	0x3fd1fad08df18fc9	0.28093351232223235
91	0xbfbb45f1c461a5d9	-0.10653601688831972
92	0xbfd1cf73bfd6b3a7	-0.2782868741440389
93	0xbfc80abb3d2e5199	-0.18782749640798782
94	0xbfb4e927c24f53f9	-0.08168266767400202
95	0xbfc776774c606a28	-0.18330279568984165
96	0xbfb8b7526e71b5cd	-0.09654727169409867
97	0xbfd1f911ab0489ac	-0.28082696629476334
98	0xbf93a1ad4f6980d7	-0.01917143628304604
99	0x3fbe304db899377a	0.11792455441283592
100	0xbfb7e8dffa9a95dc	-0.09339713924654042
101	0x3fc690dbb3ad7e44	0.1762957217533644
102	0xbfd048cddc657b74	-0.25444361231887247
103	0x3fb524f338a2d37c	0.08259506352153595
104	0xbfc02cb0e73eadef	-0.12636386195423152
105	0x3f9c6faf0c63d829	0.027769789820887212
106	0x3f80c3387b0ee4c9	0.008184853797376228
107	0xbfb2780fd18dac3a	-0.07214449754762678
108	0xbfd297719afbe9af	-0.2904933942333185
109	0x3fa5b7bf56edafc3	0.042417506562599815
110	0xbfc7c738b3d4bc8d	-0.18576725750742576
111	0x3fc3b8901743ccc0	0.15406991134623205
112	0xbfaff2398680cfcf	-0.06239490286716853
113	0x3f992df2b296380f	0.02458934035308152
114	0xbfbc7856106b2e5a	-0.11121118450972159
115	0xbfb0a06b68704fe3	-0.06494780826352513
116	0xbfbe104297476a7e	-0.11743560975393483
117	0x3fc5f8bfeed915c0	0.17165373957156582
118	0xbfa27602be059030	-0.03605660028077329
119	0x3fc2805ff32dcd6d	0.1445426881215143
120	0x3fc6b3ce0d326cab	0.1773622097433408
121	0xbfb62e7370f2f83c	-0.08664628512903588
122	0xbf858cd4c8eba67f	-0.010522520429236735
123	0xbfabcc5c1530a2d6	-0.054293515764873554
124	0x3fb085cc2f62aa6d	0.06454158932562289
125	0xbf9ec2a145f3097c	-0.03003932942807229
126	0x3f4141547e38734e	0.0005265867770877038
127	0xbfc25c4cc36ea857	-0.14344176809874185
128	0xbfd9b03fea23bd1b	-0.40138242592998247
129	0xbf860a63c6f7b6c3	-0.010762004384527462
130	0xbfc3288cacbf17f3	-0.14967497286687567
131	0xbfd3a8b8baab3bec	-0.3071729491174995
132	0x3fc02a396b2d5f7f	0.1262885831190452
133	0x3fd149ad763f96aa	0.2701219229478321
134	0xbfbea14a2fcce851	-0.1196485869121784
135	0xbfcff1830862b640	-0.24955785664990238
136	0xbfc2859e6f382452	-0.1447027247488984
137	0x3fd91903af361672	0.3921517573402077
138	0x3fc82f7fa2b8a959	0.18894954152467383
139	0xbfc0acc90081a7c6	-0.13027298474054144
140	0xbfc1a31ab4f0cbae	-0.13779004893293972
141	0xbfcf975a3a925e38	-0.24680641040753115
142	0xbfcc1df1e673d551	-0.2196638465172023
143	0xbf979e61c7fa05fd	-0.023065116720777813
144	0xbfa2269cf19febd9	-0.03545084428329632
145	0xbfc72ad636559afd	-0.18099477437063874
146	0xbfc5d424fbb9e174	-0.17053663531602192
147	0x3f75f516c77e1e0b	0.0053606881919061695
148	0x3fb193aaa734e29b	0.0686594637126156
149	0x3fb8b5288c56c106	0.09651425768129593
150	0xbf810478242e4f70	-0.00830930576720565
151	0xbf911aca2e9d7a06	-0.016703757376825855
152	0xbfc1bdd8beb4ebab	-0.13860616027690517
153	0xbfdf5685ed1df990	-0.4896559539410186
154	0x3fc43cb11bd784d9	0.1581021676966319
155	0x3f8416242c06c71e	0.009807856172162451
156	0x3fad191e315f3d13	0.05683225968061314
157	0x3fb184f6803ef4a9	0.06843510275844501
158	0x3fd2b6a312ec9928	0.2923972782904394
159	0xbfc4a2d50852f858	-0.16121924311113633
160	0xbfa5da710ec74d02	-0.04268220239068833
161	0xbfd3fab29cdd6365	-0.3121763736613075
162	0x3fa055e3c8036417	0.03190528694694466
163	0xbfc44755fd0e73ad	-0.15842699867508028
164	0x3fc679cf62c9bfbd	0.17559234927784742
165	0xbfcf8777467525d8	-0.2463215917617123
166	0xbfb7fee54f9d5c4b	-0.09373315042226797
167	0x3fb5889ba89f3af8	0.08411572329280748
168	0x3fbfc7e80098e804	0.12414407744009287
169	0x3fc9734c8a5b05bf	0.19883114581720737
170	0xbf9601b793193466	-0.021490925172021134
171	0xbfd411f5135a53be	-0.31359602823186694
172	0x3fb1a12269493620	0.06886496611078785
173	0x3fcc56dfc9cfcbc7	0.2214011893662173
174	0x3fc2c56048ffa434	0.1466484409750436
175	0xbf939a47ef06f4fa	-0.019143222774563796
176	0xbf91e854dd44ab2b	-0.017487836842671783
177	0xbf983151ca80544c	-0.023625638947198532
178	0xbfc5146bbbe849c0	-0.16468569445767223
179	0xbfd03831babd6bd5	-0.25342982517548523
180	0x3fc126050f711654	0.13397277120582152
181	0xbfd34aaee23b3076	-0.30143329708949496
182	0xbfa1864e4317ca56	-0.03422779625897891
183	0xbf97f5128019ca2e	-0.023395814007424125
184	0xbfdb1296fd3f0416	-0.42300963145322734
185	0xbfb1eed57e4efb7a	-0.07005056699470727
186	0x3fd0a9dbb31fdb8a	0.2603673218977113
187	0xbfc0d96489a4a77d	-0.13163429947718078
188	0xbf921807c0f625a4	-0.017669793274341608
189	0x3fc1eb2ec7bac1c3	0.1399897074929993
190	0xbfd0e628eee26953	-0.2640478451591168
191	0x3fc83e969c1f0ba6	0.18941004393681488
192	0x3fce662a292c23fa	0.23749281893131508
193	0x3fc4b15fbb7f9734	0.16166302352137907
194	0xbf6993b74ff7e848	-0.003122194320664771
195	0xbfc75815a717dee9	-0.18237562807893618
196	0x3fcefa9010ee3f4b	0.2420215685528951
197	0x3fd1580fbea50f05	0.27099984758045564
198	0x3fb6fdbd9421e4dc	0.0898092734004367
199	0xbf9c1558558cad6a	-0.0274251749244007
200	0xbfa5473b4700d2ca	-0.04155907861460191
201	0x3fc2812fdcdbd31c	0.1445674732600758
202	0xbfb80540d04dffc2	-0.09383015714229173
203	0x3fd7f9547ca78bdd	0.3745928971604238
204	0x3f8573899dc60c46	0.010474276664132042
205	0x3fb51ec40c479edf	0.08250069904135725
206	0xbfd14400b938ecdd	-0.26977556312676915
207	0x3fc43688ef6195d5	0.15791427315268317
208	0x3fd3858e7460ae7b	0.30502663960462656
209	0xbfc67782a9002b43	-0.17552216770158155
210	0x3fb05c9fc085e472	0.06391333055752726
211	0x3f9be91fd49a9e53	0.027256486274067914
212	0x3f9c5c54fa9893d9	0.027695968432585125
213	0xbfac73a85e3f38ab	-0.05556989813304488
214	0x3fd2457abbf25344	0.285490687886796
215	0x3fb42d82e4a67e08	0.07881944734844393
216	0x3fa7c2cabb56002f	0.046408019416958594
217	0x3fd00b4508b614f1	0.25068784571369834
218	0x3fd5deb29d003868	0.3417173894130259
219	0x3fc17b00a98a79ef	0.13656624105801948
220	0xbfafe18b822ca07f	-0.06226764644662896
221	0xbfaee167c29a448e	-0.06031345606346249
222	0xbfd6494aca052f67	-0.3482233975271271
223	0x3fb595c1496cfdfb	0.08431633036251888
224	0xbfd451f3f67742e7	-0.31750201291019525
225	0x3fa4e2720f1f8bc1	0.040790142389389945
226	0xbfac5798999aec84	-0.05535580515921715
227	0xbfb615c5596c3a3b	-0.08626969750569284
228	0x3fb40ace4c90f96e	0.07828988427443104
229	0xbfcfae0a7a70973b	-0.24749880770212393
230	0xbfb3a7b46eae1f65	-0.07677772237923149
231	0xbfc4c3dd4816e222	-0.16222730655660295
232	0xbf9944f6969a614d	-0.02467713636596729
233	0x3f89ad16d7f86e06	0.012537172761816439
234	0xbfc66eb568fe5821	-0.17525355936658207
235	0x3fc0605498bbfdfc	0.12793977220279362
236	0x3fabf95f6ab72b1e	0.05463693788222755
237	0x3fbcef4aa0b5b4ec	0.11302629874781517
238	0xbfcb3ee55a0f0408	-0.21285693070788647
239	0xbfc13e8354bae26e	-0.1347202457161702
240	0x3f9966763c87f25c	0.024804923481484983
241	0x3fbb70eeca04dc84	0.10719196731666797
242	0xbfc3974088d33f69	-0.15305334740559864
243	0xbfa38abeead7e951	-0.0381679212259366
244	0x3fc50fa82c87f46c	0.16454031156891646
245	0x3fc89006cf9fad42	0.19189534318807416
246	0x3fb44c8ace616cfe	0.0792929414614498
247	0x3f910d7843bfd0fb	0.016652945647323652
248	0xbfa7408198918db8	-0.04541401851090704
249	0x3fc1c8acccead978	0.13893661504489407
250	0x3f8be93cd79c653a	0.013628459291384776
251	0xbfb0cd24b529a85d	-0.06563023970525834
252	0x3faad3499d8f2f4d	0.05239324615794647
253	0xbfa1ee5edf2639b9	-0.035021748294741646
254	0xbfc268dd0f0a05a3	-0.14382518038113998
255	0xbfc8edaa26676b69	-0.19475294947809665

layer1.bias f8 [128]
0	0xbfbe69d22decc445	-0.11880220051968234
1	0x3fd0d539e247393f	0.26301428887827066
2	0x3fc0f4cca029f229	0.13247068233967355
3	0xbfb0ffd85d8b6a65	-0.0664038875942566
4	0x3f833a46aaddac8b	0.009388496484197503
5	0xbfe3a0818c117e0a	-0.6133430228910026
6	0xbfb0881e6c43093a	-0.0645770086585217
7	0xbfd2b2b65bf5e34d	-0.2921577356387857
8	0xbfd948cd4f2b30cf	-0.3950684807903259
9	0x3fad6033f58f143c	0.057374595380260435
10	0xbfea2dbf8983ff6a	-0.818084496102512
11	0x3fc0064371ddaace	0.12519114551408567
12	0x3fbe261478e7fb74	0.11776855422793436
13	0x3fb149acf2bec30c	0.06753045011897657
14	0x3fb39bbcea52c00c	0.07659512253553674
15	0x3fb508bcf4b956e0	0.08216458296495999
16	0x3fa0597f3a05e3fc	0.03193280776299187
17	0x3fa752cba615c475	0.0455535545578493
18	0xbfb2ea0a8085eb25	-0.07388368261119334
19	0xbfbeb080d1b790f7	-0.11988072509808832
20	0x3fc05ddf08cf47bb	0.1278647225395256
21	0xbfcc99658fd38baf	-0.223431296565733
22	0x3fbe34b1d884dd10	0.11799155746563295
23	0xbfe4071035911bcc	-0.625862221358028
24	0xbfc393833f37206d	-0.15293922983824207
25	0x3fc8cb04da6074a4	0.1936956468861456
26	0xbfdf62fc4fb4166d	-0.49041660102407186
27	0xbfa05ba1ac051751	-0.03194909310199868
28	0xbfc3ad48fc6a9cdb	-0.15372574162504446
29	0x3fd41aefebce32d7	0.3141441157138564
30	0x3f98470a9c4498db	0.02370850161346359
31	0xbfb153af0fe112d2	-0.06768316400218602
32	0xbfc8f5893bd111fa	-0.19499316616760592
33	0xbfc992bf187c9f73	-0.19979084678311274
34	0x3fc10f08dd9b0363	0.13327132053930332
35	0xbfd09f8b531f001f	-0.2597378074387979
36	0xbfbdb33163ae31ce	-0.11601551707844424
37	0x3fcd69e3f2c8b444	0.2297940192669633
38	0xbfb8edda1b6d9269	-0.09737933320645599
39	0x3faa855d8e9105d2	0.05179874768556271
40	0x3fd9817e8a1a9d84	0.398528704516558
41	0xbf3b071dec13d5af	-0.00041241150400081033
42	0xbfc7c798b59bf4e5	-0.18577870242726316
43	0xbfa90cc522d45700	-0.0489255528465673
44	0x3facd2d1bdf55a87	0.05629592365101126
45	0xbfb6b58b66cfffe3	-0.08870764980383643
46	0x3fe2bc723b0384ae	0.5855036881076978
47	0xbfd10744e971affe	-0.2660686759688814
48	0x3faf6d5d0051fead	0.061381250657175236
49	0x3fbb982a95034109	0.107790624027306
50	0xbfa61e6f34211dca	-0.04320094596237885
51	0x3fbe19f314e01193	0.11758345851564504
52	0xbfc1475d6a7dd779	-0.13499038409980438
53	0x3fe465d22fdb8f46	0.6374293265075515
54	0xbfb9eb30e5030cf2	-0.10124497977362859
55	0xbfc360b3137f5ce5	-0.15138853504206576
56	0x3fc50de34a628952	0.16448632366252497
57	0x3fc4b3e0d66eefa6	0.1617394492185415
58	0xbfdda5eb77e3908a	-0.46325194080260046
59	0x3fa183bfd9a3c983	0.03420829326377641
60	0x3fb27f2962970c0b	0.07225283295615285
61	0x3fbe42eb2cce6321	0.11820859760190362
62	0xbfe306f2228d9385	-0.594597880827323
63	0xbfc909d7f08f1435	-0.19561290021934644
64	0x3faf04f9aaffb095	0.060584833263278494
65	0xbf787d666de663d0	-0.005978965868416133
66	0xbf826e121f509979	-0.008999005871441966
67	0x3fd2aae2b6ad19d5	0.29168002929182296
68	0xbfbb2aeefae38f92	-0.10612386346070782
69	0x3fa6f469ab0d24ba	0.044833471422472695
70	0x3fd1e651741b5226	0.2796825059752187
71	0x3fb4d339f83ee1a3	0.08134805975612962
72	0xbfd4d3c6f644111d	-0.3254258542003912
73	0x3fc4b16504d63207	0.16166365371863398
74	0x3fd697213fcd90b2	0.35297423582802445
75	0xbfc0960556eca1f7	-0.1295782732425008
76	0xbfc4ac959fa33c8c	-0.16151685995871323
77	0xbfb8bfda5d7d97a7	-0.09667744429097401
78	0x3fc1a413b51459fb	0.1378197321107136
79	0xbfa883961b15131d	-0.04787892418474924
80	0x3fd6ae81e7f523ec	0.3544010892115341
81	0x3fc1c29411f5b944	0.1387505614943142
82	0xbfe031c543f75fca	-0.506075508829775
83	0x3f9eda0b61f7dbf9	0.030128648619179164
84	0x3fbb7697916d9712	0.10727832127085105
85	0xbfdc44d514bb82e0	-0.441701193090962
86	0x3fb6578c89fe53c0	0.08727339142781343
87	0x3fd10197d7db7938	0.26572223739448786
88	0x3f965811fbcedbf4	0.02182033633627252
89	0x3fc0a68bc47fef5f	0.13008257956232236
90	0xbfcc3739d3baee99	-0.22043536032093838
91	0xbfb93f98b7102078	-0.09862665623961842
92	0x3f973fffe1637627	0.022705076343177446
93	0xbfc41ecff051c1d7	-0.15719031557411142
94	0x3fa9c78257edd067	0.05035025904990747
95	0xbfcb7fb2de05bd52	-0.21483455506266097
96	0x3fa9386ce904a4b1	0.0492586168714494
97	0x3fac395597521b59	0.05512492630173566
98	0xbf9b7c56ec504158	-0.026841505216056077
99	0x3fd3c3b71f45381c	0.3088205151915433
100	0xbfb03036633729e5	-0.06323566362622264
101	0x3fc8554488b6784d	0.1901021640341604
102	0x3fac1a8e674f406d	0.054890108214409185
103	0xbf98ca7c32cc3b4c	-0.02420991954846423
104	0xbfa948823b706591	-0.04938132262777651
105	0x3fa70941686b7922	0.04499248885780306
106	0xbfb30a8b22b0e509	-0.07437963101337543
107	0xbfb8600bc1da616f	-0.09521554453602275
108	0xbfd1caa566c8d8aa	-0.2779935363536291
109	0xbfe11959e4a3b24d	-0.5343446221937228
110	0x3fa7473f3c19ca89	0.04546544655467694
111	0xbfbfedc5f5c49ad3	-0.12472188234515195
112	0x3fd04c11357988ca	0.2546427747930805
113	0x3fe6a4b0f69476f0	0.7076039138807726
114	0xbfc5943cbb68af0b	-0.16858634138895243
115	0x3fb5660034c044c1	0.08358765876643572
116	0xbfaa23d6cefe8efe	-0.051054680602900845
117	0xbfcf7b3e57bde138	-0.24594859394324842
118	0xbf778fd1f8ecf2a6	-0.0057523920102623746
119	0x3fd7748c6d50aebf	0.36648855853375645
120	0x3fd091ba90cc44a6	0.25889457836553686
121	0x3f9a244cde7bdc9c	0.025529099540076858
122	0xbff4e5d008a4ffd5	-1.3061065995861914
123	0x3fc935559bfa447e	0.19694013706297037
124	0xbfab11cdb7dc2dde	-0.052870205587250516
125	0x3f8f8e3af04c5b29	0.015408001383133989
126	0xbfb9dda427340600	-0.10103822667226581
127	0xbfcae5e77a9473bb	-0.21014111981722103

custom_layer.beta f8 [128]
0	0x3fd481bb4c21550c	0.32041819033231955
1	0xbff905ab3d5a9903	-1.5638840099941838
2	0x400902874a15d64c	3.126234606543937
3	0x3ff0fa2fc0ff67a0	1.0610806979152372
4	0x3fd11da1f4900fb6	0.26743363268928577
5	0x3fed1e7069324ae3	0.9099657110803857
6	0x3ff3cbc265a2d7ba	1.2372459383163759
7	0xbfd629698c405160	-0.34627760597620316
8	0xbfe1f26a6dc6be35	-0.5608417648381364
9	0xbfc60fa75825b9a1	-0.17235271267004484
10	0xbff6189b5cb37f1c	-1.3810075398577686
11	0xbff08d6837d4c086	-1.0345232182408224
12	0xbff1de5d452dd24b	-1.1167881681732463
13	0x3fa8b3acaed8d23e	0.048245807975409324
14	0xbfe66aa6d3275006	-0.700519001397425
15	0x3fa08376274ec9e4	0.03225297193366197
16	0x3ff01ad70599497c	1.006552717085099
17	0x3fb2e105aded1bc1	0.07374606605763658
18	0xbfa638982091ef6d	-0.0434005298384069
19	0x3fcfd7c6370aa21c	0.2487724083669186
20	0xbfeb69f69dd38aca	-0.8566849787278781
21	0x3ff90c708095a767	1.5655369780383468
22	0x3fff51f22a6ea030	1.9575063378815791
23	0x400610c8ef68c3f6	2.7581957534644017
24	0x3faacbc2438f3ef3	0.05233580660535422
25	0x3f8810f25861cb98	0.011751073190884573
26	0x3fc198fa42fc2f1a	0.13748100538975266
27	0x3fb746489872fff4	0.09091619226364839
28	0xbfc0c7dbf9a99565	-0.13109922113941788
29	0x3ff2c35dda6c8288	1.1726969272787375
30	0x3ff57fcd0a8b95df	1.3437014018940017
31	0xbfdd54407e8d5553	-0.45826732977487444
32	0xbff6463ebc4f5167	-1.3921496730664218
33	0xbfca7c1293b0ccea	-0.20691139422851929
34	0xbfb1b3952202073a	-0.06914646225234558
35	0x3ff8fe946ba0ff96	1.5621532634977249
36	0xbfa156fbade8e5d3	-0.03386675355836712
37	0x3fd4eb6754eb7d3c	0.32686789792019844
38	0x3fc2b85eb29836be	0.14625152321280227
39	0x3fc70a402efb7389	0.18000032705358773
40	0xbfc12f808b46b7fd	-0.134262149816493
41	0xbf9f00b1ed2ca1df	-0.03027608881089516
42	0x3fa8df23df8e67fb	0.04857742408712792
43	0xbff58bbe48202d35	-1.3466170136842497
44	0xbf86bc9a93e6400e	-0.011101920736820172
45	0x3fd2cfda3210d711	0.2939362992213868
46	0xbfe86db0948c9a76	-0.76338986409685
47	0x3fe60f6adfddacdf	0.6893820164090377
48	0xbfe9ac3f903bf06f	-0.8022764031479833
49	0x3ff29c93d4e5824e	1.1632269207258505
50	0x3ff1fdd6536a0378	1.124471975170506
51	0x3fc8bc624f0ab436	0.19324902400458804
52	0x3fe2ca24cc77db33	0.5871757501143747
53	0x3ff0f9f12aba6a04	1.061021010310129
54	0x3fba0723da42fe12	0.10167144850401424
55	0x3ff3ec8294ba5b2a	1.2452417192159353
56	0xbff4dc36f60992f1	-1.3037633524738192
57	0xbfe070c6bd9a92ab	-0.5137666419219235
58	0x3ffdc2f93dd4531a	1.8601009764872232
59	0xbfd3a5a8525ba23f	-0.3069859318043519
60	0x3ffaeb0b7ca79091	1.682384001666865
61	0x3fb8dc24a4c6d97e	0.09710911772604011
62	0xbfe8b9aa34128d83	-0.7726641671219315
63	0x3ff01bc8eed356c3	1.0067834214327582
64	0x3ff0d807427cca61	1.052741298405316
65	0x3fe94d7a191f11c6	0.7907076349879893
66	0xc00380259bac83d0	-2.4375717317602508
67	0x3fbcbc491e8e206e	0.11224801059700137
68	0x3fd3f99c5d0490d8	0.31211003383419955
69	0xbff9523b0a4934d1	-1.582575836352863
70	0xbff38f8b1fd8a7ee	-1.222544788741739
71	0xbfda25e736018201	-0.40856342576992694
72	0xbf5b171bf37d55f9	-0.00165345887758883
73	0xbfbc285c8f9e133b	-0.10999086862836986
74	0xbffdfa42fc540678	-1.8735990387507666
75	0xbfe493ff6c5828c5	-0.6430661312199609
76	0x3fc164492837c228	0.13587297881851268
77	0xbff4834ab4015f72	-1.2820536643466451
78	0xbfcf58e14183927a	-0.244899899472461
79	0xbfcd0560a76d45e1	-0.22672660994662322
80	0x3ff368c66b02050d	1.2130798511501013
81	0x3fdf3324d9ed2f9d	0.48749657899747395
82	0xbff9dc1ab9a8a2c0	-1.6162364246649048
83	0x3fc55fdff303247c	0.16698836675485385
84	0xbfc5033cb56d5d98	-0.16416128977537592
85	0x3ff1f4fb16d614c7	1.1223097698250954
86	0x3fb740bcd089926d	0.09083156672711264
87	0x3fef2975dddf3e55	0.9738110860288979
88	0xbfc3d49a13fa4c1a	-0.15492559409594336
89	0x3ff42c21c739c609	1.260774400925927
90	0xbfe836c8371b7a5a	-0.7566872669520521
91	0x3fdac1a6c4680887	0.41806954555807646
92	0x3fc76190fefbfddd	0.18266498995215744
93	0xbff6f8d5f4e118b3	-1.4357509198758123
94	0xbfe731c60c827ec4	-0.7248258823710434
95	0xbf935826c39cb377	-0.018890958489623935
96	0x3fb48ea93cca58c6	0.08030183538571398
97	0xbff6f536b24e2ca3	-1.4348666157773458
98	0xbf955b0ac58a568e	-0.020855110461147457
99	0x3fe68b34ff13a358	0.7044930440871253
100	0xbfea42ae1af6071d	-0.820639660509389
101	0x3fb6dc261796aab8	0.08929670406238699
102	0xbfbdbed5e673b50c	-0.1161931693674953
103	0x3f98d72a565e03e0	0.024258290788114922
104	0x3fc3f4939ce44a0a	0.15590138588648045
105	0xbfaef90acf3b9b39	-0.06049379138658257
106	0xbff7affe814aeab0	-1.4804673243039979
107	0xbfd64c074485e7d9	-0.3483904046221347
108	0xbff99c0eac5b2d84	-1.6005999310171726
109	0xbff04c9d9b3f3c8f	-1.018704992707885
110	0xbff5521ca9efd10b	-1.3325468671947103
111	0xbf999c251e05de35	-0.025009708363965728
112	0xbfe661b69b24a54e	-0.6994278936519238
113	0xc0055994f69192a4	-2.6687411559272096
114	0xbff2cb88df308633	-1.174691078027888
115	0xbff15b47c0f792e3	-1.0847852266098748
116	0x3fc68f488b62ab02	0.17624766164711764
117	0xbfd84588bb5dc8ff	-0.3792440252065176
118	0x3fd395115deba192	0.30597337886731524
119	0xbfd93f40f85afc58	-0.3944857049318151
120	0x3fe43836ea0b8c0e	0.631862122649524
121	0x3ff57bb53ef3237a	1.3427021464324
122	0xc003b951c5fd48a0	-2.465488001625161
123	0xbfe1988b3abd4037	-0.54987107727539
124	0xbff1e40c94c01c97	-1.118176060730354
125	0x3feb71d0634f4cec	0.8576433124202629
126	0x3fac4241f68d8f92	0.05519300589256128
127	0x3fb401a5ab020feb	0.07815013337136605

custom_layer.gamma f8 [128]
0	0x3fe8a6760bafb1d0	0.7703199604271109
1	0x3fe68089711bf077	0.703190537372861
2	0xbfe8d7f5373b89e7	-0.7763620451699439
3	0xbfe03b615c5a9120	-0.5072485736641603
4	0xbfaace0afcd5ffc1	-0.05235323273063797
5	0xbffddfb9e0324789	-1.867120624320224
6	0xbfbd64e6a6dc143a	-0.11482087682459588
7	0xbffa5e32ddb6176f	-1.647997728404757
8	0xbfbc9e3f81d5ec9c	-0.11178967399421186
9	0xbfd4f9ad32e40b22	-0.3277390477161807
10	0xbfe4d799f8e46d26	-0.6513185368707226
11	0x3ff12558049e81e6	1.0716171436725914
12	0x3feb4eca196fdba5	0.8533678528609597
13	0xbfe73f232cf9d2ed	-0.726457202762132
14	0x3feb48820ce72210	0.8526010753640225
15	0xbfe84b0032753a7b	-0.7591553674227066
16	0x3ff2e181690ae4d6	1.1800550559258247
17	0x3fea151be2cd6d36	0.8150767736182505
18	0x3feb70d08aa0cd96	0.8575213153439332
19	0x3fbd2f91a67d6387	0.11400709452335721
20	0xbfd7c9503ba67fdf	-0.37166219544633167
21	0xbfcdc8ac0e2b66a4	-0.2326865262210066
22	0xbfc8367d022a4f0a	-0.18916285138822558
23	0x3fe12d3b4ced9816	0.5367714407445898
24	0x3fd8b3883021b47d	0.3859577627216096
25	0xbfd6e04922abaee2	-0.35743931184582156
26	0x3ff88a13241e043c	1.5337096606092606
27	0x3fe5f8779d98a02f	0.6865804746676129
28	0xbfe9205fe6ce4d56	-0.7852019794394589
29	0x3fef4d090e498b8c	0.978153732209067
30	0xbfb722b5cd5fdc81	-0.09037338508629668
31	0xbfc35960a4d2b9e1	-0.15116508529668152
32	0x3feaa127bd907bc0	0.8321722700528582
33	0xbfd9d59e6bf0be92	-0.4036632589440866
34	0xbff595c54993cf55	-1.3490651010624408
35	0x3ff192c1a4202c42	1.0983292018088524
36	0xbfe1573142fe8612	-0.5418936069947355
37	0x4001a88c7d315497	2.207299211566873
38	0xbfe09d8d74a2a29c	-0.5192324903519707
39	0x4004482e122e5b8f	2.5352441234967453
40	0x4001119f32ce346d	2.1336044282129962
41	0x3fd0d12866f0b115	0.2627659802699481
42	0xbff41e1268bcb9a4	-1.2573417750641989
43	0x3ff332374b15c5e2	1.1997597630510133
44	0xbff677486f9cf596	-1.404121814717063
45	0x3fd0f0060970102b	0.26464987680106117
46	0x400855864cea5b8e	3.041760064031627
47	0x3fe9ce9e8113e501	0.8064720650719722
48	0x3ff64daae0a6f16c	1.393961789653157
49	0x3ff0e5db7c613f38	1.0561175211514193
50	0xbfd2160bb43fa875	-0.28259556391152013
51	0x3fdd9c5f6acea17c	0.462669233611926
52	0x3fe4e6df6f9d4198	0.6531827144590805
53	0x3fd10a1223045f9a	0.26623967570912443
54	0x3fd35f3d137f1290	0.3026879015344912
55	0xbfd154d6ac7219d3	-0.27080313530350714
56	0xbfc62f6511b8494b	-0.17332137456157634
57	0xbfd99d5cbfe9244e	-0.4002296327713041
58	0x3fde8f56acea0002	0.4774986923803227
59	0xbff4eba461c48c85	-1.3075298136762126
60	0x3fefa2dc5ba7190b	0.98863046551631
61	0x3fe0689cf7000087	0.5127701591700465
62	0xbfd1c96052678999	-0.27791603133496207
63	0xbfe71501da6e2343	-0.7213143602576583
64	0xbff24c7e03f2b314	-1.143674865171481
65	0x3ff62a1610fc6cd6	1.385274950362875
66	0x3fd275204ee206ca	0.28839881614122176
67	0x3fe2c3def32faa27	0.5864100217561984
68	0xbfebfd9021c4db55	-0.8747025165128927
69	0xbfd85d7e4002ca94	-0.38070636988701634
70	0x3fe3c12892f569e3	0.617328917530639
71	0x3fc637a74ea698d9	0.17357341137284868
72	0x3ffff161db0d5c24	1.9964312130666793
73	0xbfd6b36c1e65b9b3	-0.354701070485045
74	0xbfea21a49b2a096c	-0.8166068106223014
75	0x3fe3b6353c74d435	0.6159921818531361
76	0xbff4b3dfefd7ebb0	-1.293914734733999
77	0x3feea2c288cd3c46	0.9573681518467161
78	0x3fe8105149ae6b9e	0.7519918860519856
79	0x3fc8356df95115ab	0.18913054155033868
80	0x3fe8355e13dc9f70	0.7565145862508711
81	0x3fdb468fd2ae3746	0.426181751005846
82	0x3fb5cbb966dd13f6	0.08513983498876584
83	0xbfc86c6d8672c188	-0.19080895485741345
84	0x3ff1158b52e1cd46	1.0677598226146343
85	0x3fc23c4bc68b09cc	0.14246508783806033
86	0xbfe3c45a1c5b7cc6	-0.6177187494139609
87	0x3fef6908f744a51d	0.9815716580825754
88	0x3feea7e0262c102b	0.9579926248120548
89	0xbf9b9d91a5b051cd	-0.026968265283430704
90	0x3ff04ed525ee0eec	1.0192462426793396
91	0xbfbf7d5d590b146f	-0.12300666259678093
92	0x3fe696904471e259	0.7058793389142678
93	0xbfe24ebfa76041f9	-0.5721128720343237
94	0x3fea9729ea6a41ad	0.8309526041430694
95	0xbfadafc5020f8ce8	-0.05798164034038128
96	0xbfcf6e1d34622eeb	-0.24554791505612825
97	0x3fe4e182343adc44	0.65252790642888
98	0xbffbbb99941a600c	-1.7333007607721838
99	0x3ff250fe0c55e99f	1.1447735292300434
100	0x3ff1e100de52c63e	1.117432468843972
101	0xbfd80090bb86067b	-0.37503450692029333
102	0x3ff38ea17f468843	1.222321984453189
103	0x3fff9386e0cccfa7	1.9735173016788197
104	0xbff11f518e8e2322	-1.0701461380542203
105	0xbffb15b09e206c30	-1.6927953888723657
106	0x3fe7b0c1fde7d6ae	0.7403268775076037
107	0x3fd6a4672f386016	0.35378436671590074
108	0x3fb3cc3c843af3a5	0.07733515003469778
109	0x3fe0798f302089b7	0.514838785169835
110	0x3ff10778b89f59dc	1.064324113065246
111	0xbff618a3f106cac8	-1.3810157218073744
112	0xbff14917bf843ae9	-1.0803449135889258
113	0x3ff571e94a2c6eb5	1.340310373058782
114	0x3fdb91542f108f69	0.4307451686493012
115	0xbfbc9a9fe9d8115a	-0.11173438510019676
116	0xbfec5b0ea8da223b	-0.8861153886692316
117	0x3fea836e7e7bca0f	0.8285438986188768
118	0x3fe05359ca8fb5e4	0.5101746517445318
119	0x3ff88baf1bff482c	1.53410254417805
120	0x3fea6d444e35a08f	0.8258382346657686
121	0x3fe24775162cadb4	0.5712228234382821
122	0xc0008de6bbbe8e3a	-2.0692877452400156
123	0x3ff16155894d2916	1.0862632144294984
124	0x3ff06261ed3dbaa4	1.0240191714507683
125	0xbfe2e6bbd43cd7af	-0.5906657357470432
126	0x3fd5b34ba2411a97	0.3390683254732862
127	0x3ff5de46964e6b65	1.3667665358868473

layer2.weight f8 [128, 128]
0	0xbfbf0902863fb362	-0.12123122956809376
1	0x3fc185f767936e2f	0.13690083081643098
2	0xbfb56a6a9f4704b7	-0.0836550368176344
3	0xbfc8d40c43ca29be	-0.19397118864101331
4	0xbfcb9f71c6e236ad	-0.21580335818400923
5	0xbfbb1535072bafbe	-0.10579234528603274
6	0xbfba7f7738a23971	-0.10350747234972403
7	0x3fc7667879e4dacd	0.18281465484479612
8	0xbfd2a31d482ca2d5	-0.29120571182515437
9	0xbf7900e4c0d1df3f	-0.006104367797085618
10	0x3fb1cb20b59d828c	0.06950573381392128
11	0xbfca2cd6d7b19f7b	-0.20449338466573494
12	0x3fd28e72f2a94340	0.28994439790135473
13	0x3fb35a4869f956b4	0.07559635722403862
14	0xbfa15e279228de91	-0.03392146739173286
15	0xbfc18b9d2d2440bd	-0.137073180238536
16	0x3fc21aaab5908428	0.14143880715804014
17	0xbfb55dc287cb7802	-0.0834619123010896
18	0x3fb3d876fb081ac8	0.07752174023344616
19	0xbfc07bdc64ebef36	-0.1287799351483671
20	0x3f9b509114f62d2f	0.02667452516975038
21	0xbfabcae959e92837	-0.054282467103420044
22	0x3fb07f745e422789	0.06444480229597906
23	0x3fcf8e66cbeb666d	0.2465332503987158
24	0xbfb816a15819dd61	-0.09409531021980434
25	0x3fd0c38dd79967c0	0.261935673280842
26	0x3f8a4783ffc711b5	0.012831717723096195
27	0x3fb47ce15968ae50	0.08003052170595848
28	0x3f9f1a18195be9d7	0.03037297873286512
29	0x3fbb743b7425c114	0.10724231324798367
30	0x3fc689548d78431e	0.1760659876604444
31	0x3fcb031faf43165a	0.21103282983510746
32	0xbfce125af74335a4	-0.23493516038290096
33	0x3fb9468b45b48991	0.09873266650951097
34	0x3fb31458ae62d36e	0.07452921159240386
35	0xbfa231fc6da7e3ef	-0.03553761328289073
36	0xbfae5785fa47c72b	-0.059261500169567626
37	0xbfe04d4218441477	-0.5094309305137718
38	0x3f9578754bdda1c8	0.02096732402370252
39	0x3f774eb7d0ae109e	0.005690305736497118
40	0x3f9e53943a8c2bbb	0.029615703652819052
41	0x3faa9d3daddcf422	0.05198090312340066
42	0xbfca095988af167e	-0.20341033147831306
43	0x3fc59704daa7b96a	0.1686712329532825
44	0xbfa644d71153ba6d	-0.043493958344574014
45	0x3fb7eec1497cf16a	0.09348686260358866
46	0x3fd9240091eed91a	0.3928224015356975
47	0x3faa544e63c677d0	0.051424455337140906
48	0xbfd299d04f8c15b5	-0.29063804405481203
49	0xbfc2e2007135550f	-0.14752202537298628
50	0xbfbee4e6b65c39de	-0.12068025543360458
51	0x3f9a2d97dc830128	0.025564549287765775
52	0xbfc38265c2ab6780	-0.15241691594456697
53	0x3fa4441a05d3ebde	0.039582074366954365
54	0x3fa55555a95c3450	0.041666676448678275
55	0x3fa4e3b3e1f4d5b3	0.04079973347908652
56	0x3fb133431e93d70d	0.0671884488727665
57	0xbf7e1c6f745c115d	-0.007351336831338121
58	0xbfc68cd159f18cdd	-0.17617241756224802
59	0x3fc59c8363143a57	0.1688389047416929
60	0x3fb8d5226c2b20bb	0.09700217381316893
61	0x3fc1093c1d625edd	0.13309432444361038
62	0x3fcae90a3193f5ef	0.2102368108825625
63	0x3fc0d92e26bfefa3	0.13162781612470295
64	0xbfb25c829b5412ea	-0.07172409336278532
65	0xbf9e8a0e80f99f88	-0.029823519346251298
66	0xbfc07642a6ef5d20	-0.1286090197670342
67	0xbfc113d2ecb459dc	-0.13341747815930105
68	0x3fc2a1ecb19f5ea7	0.1455665461823987
69	0xbfb900810a1b5a27	-0.0976639413523591
70	0xbfc59e71088d112c	-0.16889775197535906
71	0x3fb871f3423c1392	0.09548874251420461
72	0xbfa6c15605e371a9	-0.04444378682976275
73	0x3fb92372977857c5	0.09819713781357027
74	0xbfb52ee981c4f70f	-0.08274707239339939
75	0x3fc0f0ca5dec8749	0.13234834276323174
76	0xbfc2653887ca5efc	-0.1437140143432244
77	0xbfc3703ab3f65171	-0.15186246669021444
78	0xbf9286373c3000e2	-0.018090117500833787
79	0x3fc2d332c5c2f982	0.14707026153878294
80	0x3fb3432888b02c2a	0.07524350487817402
81	0x3fc6cb285ddf73e1	0.17807488044391476
82	0x3fd04db8697deb5e	0.25474367429676714
83	0x3fbbbdfd4514b2e9	0.1083677571920806
84	0xbfc0ca9a99184f79	-0.1311829803022382
85	0xbfc75fc2466c88dc	-0.18260982931776126
86	0x3faf29ce4cb22d21	0.06086582838278277
87	0x3fd6b418680eb34b	0.3547421470819258
88	0x3fb8952fed67f076	0.09602641626401173
89	0xbfb44c74281c35c3	-0.07929159144642654
90	0x3f994cf4634f7def	0.0247076211561516
91	0xbfad1168cbfd6bbb	-0.05677344789611235
92	0x3fa0a7d33b5320f7	0.03253040408304913
93	0x3fb9bb7beabd76e8	0.10051702958068243
94	0x3fb4ea3411ab754b	0.08169866019621456
95	0xbfca62497e9ecbd0	-0.2061244838965579
96	0x3f72aef33dee485a	0.004561376727808842
97	0xbfc311b673a70576	-0.14897804877368132
98	0xbf68d44f9c49b905	-0.0030309252636505656
99	0xbfb45e63bcc5e288	-0.07956527098384403
100	0xbfc85f5c67f36dc8	-0.19041018558242073
101	0xbfce34ab13c783a0	-0.23598230806149179
102	0xbfbefd88f76f45a2	-0.12105613747487223
103	0xbfb511efe10d2151	-0.08230494732300044
104	0xbfc14d5fb2132c96	-0.13517376132071907
105	0x3fa233a50bf104ae	0.035550267894458684
106	0xbfc696e0e03f26e2	-0.17647944402261034
107	0xbfa82d86970f7394	-0.047222333850846315
108	0xbfb3f4a69d5fb8f2	-0.07795182554375282
109	0xbfc5a50c55aeb7be	-0.16909937080111875
110	0xbf907b1d90e332a5	-0.016094648330908474
111	0x3faf0ede89362c52	0.060660318612541744
112	0x3fc908e402c18baf	0.19558382162639762
113	0x3fa9094ea591cec6	0.04889913340676126
114	0x3fb613fc85fe01d8	0.08624246856016471
115	0x3fba41914afdf1ef	0.10256298142298424
116	0x3fa5c27344fa699f	0.04249916283625343
117	0x3fd1abe63695fce0	0.2761168988290148
118	0xbfc985317b527167	-0.19937723657211423
119	0xbfa202c3848c50c1	-0.03517733567255866
120	0xbfa0927ab775aa09	-0.032367548842405176
121	0x3f689de0b3c7140f	0.0030049694744058784
122	0xbfd12e0aea62054d	-0.2684352196593707
123	0xbf96465357c9a5ad	-0.021752645714888597
124	0x3fc44c340c61380f	0.15857554058533238
125	0x3fa299d7bd1d4c7b	0.03632997687841396
126	0x3fa646129ba3baca	0.043503362177820984
127	0xbfc63a22dbe91779	-0.17364917505090796
128	0x3fc28839e5fd187b	0.14478229265131745
129	0xbf872fadd4605913	-0.011321409267151005
130	0xbf9b9bbcfd5d0471	-0.026961281742164226
131	0x3f9b5e0defcae885	0.02672597671583123
132	0xbfa7d31228783018	-0.046532218399164715
133	0x3fa6fc29db58f179	0.044892604852495084
134	0xbf85b6f6fb2605e0	-0.010602883853382872
135	0x3fb72beb9c456ad7	0.09051392140592483
136	0x3f887f79cd01102b	0.011961890763025526
137	0xbf6aa1687005a774	-0.0032507934376341755
138	0x3fb41cfc6be114b5	0.07856729158182214
139	0x3f8c7075ed03c5f5	0.01388637666284163
140	0xbf94505549d2fd42	-0.019837696677084134
141	0x3f8c4b57e668a31c	0.013815581053749741
142	0xbfa47fcade585d98	-0.04003747905897653
143	0xbfb0ba695662b4f5	-0.06534441336653514
144	0xbfc107cb2366d4de	-0.1330503390178483
145	0xbfacbdd8c6a7198f	-0.05613591599426392
146	0xbfafdfe224f3e64f	-0.06225496960719267
147	0xbf80089e44a3b5db	-0.007828937978469
148	0x3fb302c300dda2ad	0.07426089068543247
149	0xbf99acd535ffd648	-0.025073367520198425
150	0xbfb6413edb9cd5ae	-0.08693306790958985
151	0x3f7533214ad50271	0.005175714538666485
152	0x3f6f2d7716453fd2	0.00380585917643115
153	0xbfafc5eae999f476	-0.06205686666087555
154	0x3fcabffc30be88c0	0.20898392086116324
155	0x3fbd3dd1f7996fef	0.1142245511522899
156	0x3fa5c12f4781d2b5	0.04248950717820802
157	0x3faa3e5cfcc4227b	0.05125704370045
158	0xbfaab5ebb359ee56	-0.05216919483515585
159	0xbf6865157dcd4ca2	-0.0029778880838563096
160	0xbfb0c68f08df58aa	-0.06552976576435535
161	0xbf82fd6b9b8529ae	-0.009272423442458013
162	0xbfb0dce0e8ffaca2	-0.06587033928342348
163	0xbfb82c3e6f5998c4	-0.09442510813241528
164	0x3f98e435718bb008	0.024308047347332745
165	0x3fa16dbb8d9b3a3e	0.034040318523342425
166	0x3fb17a38cdcec054	0.06827120804405357
167	0xbf9c56272aedc68f	-0.027672397608915985
168	0xbfb915e0197818c1	-0.09799004194073559
169	0xbfc1439fffb3435c	-0.13487625108111956
170	0x3f832923a397764e	0.00935581057540982
171	0xbf92abdb6c39ce1d	-0.01823370788629407
172	0x3f9b04f3f3b97d37	0.02638608145786955
173	0x3f9b152f7f6f2210	0.026448003914795903
174	0x3fa89cc71879d0bc	0.04807111905839309
175	0xbfacc5186244ccab	-0.05619121741838148
176	0xbfacfffa3a90aa5b	-0.05664045300394057
177	0x3fcf4928fabc1436	0.24442016833214247
178	0xbfa0800e5de60a90	-0.03222699066374901
179	0xbfc6b77c009ebd15	-0.17747449903752313
180	0x3fbb03ebed90a7bf	0.10552858877113545
181	0x3fbaac313860b5b9	0.10418994547281714
182	0xbfa5a5f647b2de14	-0.04228181481579099
183	0xbf82bb34f44f3442	-0.009146131234866076
184	0xbf8d7e64c991f0e1	-0.014401233102255552
185	0x3fa1a5474fe02a2b	0.03446410036129451
186	0x3f96d9bf501d3058	0.022315015091678297
187	0x3fa54863e54a0e37	0.041567918528951635
188	0x3fb319ece795c32a	0.07461434034281625
189	0xbfc55649104fd72a	-0.1666957215926968
190	0x3faa60eb2ed79f61	0.05152068087391971
191	0x3f9c8ed694189e3e	0.027888634480545564
192	0x3f82b6b497f41d8c	0.00913754547811043
193	0xbfae207cddfe6404	-0.05884161195644569
194	0x3fae92325a1d75f0	0.05970914220845802
195	0x3fabf28955236162	0.05458478130612111
196	0xbf9eee482fd23064	-0.03020584861637622
197	0x3f9a0f90b097031c	0.025450001505080797
198	0x3f725f1e20285009	0.004485242536720343
199	0x3fb1ef74be7773f5	0.07006005907119557
200	0xbfd25ac3def7d7c0	-0.2867898633406831
201	0xbfbacaf0502a621f	-0.10465909917036996
202	0xbfb5b0f9a5ec0378	-0.08473167706325835
203	0x3fa95491d4bcf093	0.04947334024333929
204	0xbf8403a5c31f44e3	-0.009772582070498753
205	0xbf953b1e556562db	-0.02073333164421141
206	0xbfc83653bb0c24bc	-0.18915793069053233
207	0xbf79eb3e0800ea33	-0.006327860173821298
208	0x3fc024cd0b71c3cf	0.12612307604606918
209	0x3f613f2b3f94d3a4	0.0021053166098234533
210	0xbfac60cfa1a2e277	-0.05542610977267242
211	0x3fb571bd2b89829d	0.08376676857870753
212	0x3fb7f2af8cfb723f	0.09354684059093986
213	0xbfc3ecb4d759a73c	-0.15566120638987424
214	0x3f9508653abc53f3	0.020539838514270724
215	0x3fb24338be9bd4a2	0.07133822110684432
216	0xbfa8029f17e21458	-0.046895000138683585
217	0x3f9949ef6a1c871c	0.024696102954414476
218	0xbfbebdb0d391c742	-0.12008195081014342
219	0x3f89ea61f86a5de4	0.01265408076623848
220	0x3fb9d458c01c184f	0.10089640321902603
221	0xbf911e9888375d9e	-0.0167182763233008
222	0xbfa9ac8763a70809	-0.05014441577397128
223	0x3f7db9919fc8e510	0.0072570503658025
224	0xbf9f9f233e3b1190	-0.030880499528181782
225	0x3fae5dac914bcc1f	0.05930842660554724
226	0x3fc22470fb6ccdbc	0.1417371013318255
227	0xbfa975073ca4f151	-0.0497209798363395
228	0xbfb1f0a647a54e05	-0.07007827042735222
229	0xbfaa63570b48b578	-0.05153915417427418
230	0xbf9f6b6eedfc99c6	-0.03068326308780358
231	0xbf97bfb13d2777af	-0.023192185742906875
232	0xbf91889bf59f8ebd	-0.01712268530526616
233	0xbf90a8071c6c146a	-0.01626597510314235
234	0x3f8e220ab7026a8b	0.014713367185597256
235	0xbfa8c6ed83c0e4b9	-0.04839269860571833
236	0xbfaa493878decb6a	-0.05133987880198883
237	0xbfc24797c0235562	-0.14280983812083564
238	0xbfc575ee133fdca6	-0.16766143741526668
239	0x3fb117d2e1ad55ef	0.06676977166838304
240	0x3fa3b6fa59b4b952	0.038505385828431785
241	0xbfa973eda8d1c322	-0.04971258817466252
242	0xbfab302d2be5693b	-0.053101932152190355
243	0x3f84747f6606dfea	0.009987826634514325
244	0x3fadcac444268790	0.05818761188426358
245	0xbfa8c8e7e2b46d9e	-0.04840778963463353
246	0x3fbdf17b98daa9a7	0.11696598512450028
247	0xbfc02c3d3e2400c7	-0.12635007414065155
248	0x3fc52a9f12da2a8c	0.16536320133703375
249	0xbfb4a307dc85dcc6	-0.08061265119418967
250	0x3fa391d6eb0f39f4	0.038222042268547
251	0x3fa7cf9cdcd89243	0.04650583454011727
252	0xbf89e61ce1cd8485	-0.012645936623530094
253	0xbf501021e0a0081e	-0.0009804087480920274
254	0xbfba9794672abf3f	-0.10387542265629877
255	0xbfb586c6287a8c94	-0.08408773887872406

layer2.bias f8 [128]
0	0xbf9a8483f0387b5c	-0.025896131073860004
1	0x3fb7a3d5cdc44786	0.09234367631532167
2	0x3f9ffe7c0d5b8d25	0.031244219126972745
3	0x3f70601f75f57e32	0.003997919934902993
4	0xbf92fd6d31bfbd70	-0.018544870530545265
5	0x3fb4efdd194e3f0f	0.08178502910436357
6	0x3f6ca9b1b040f387	0.0034988852003423085
7	0x3fba370be8bd2b9d	0.1024024432382888
8	0x3fcaec77f20b9590	0.21034144705405966
9	0xbfa09e7903feb888	-0.032459050882026
10	0x3fc815bf4154e003	0.18816366853729968
11	0xbfba732f34b87365	-0.1033200744354424
12	0x3fa0178eb40f19b5	0.03142972896562261
13	0x3fb367d3309aab05	0.07580299317002577
14	0x3fdc7fe348290d58	0.4453056530657782
15	0x3fb5ec769f7af709	0.08563939469874184
16	0x3fc2047add1a81b0	0.1407617168051849
17	0xbfb3f17afff587ba	-0.07790344952584763
18	0x3fa5cb5766e1f720	0.04256699686901144
19	0xbf9f21aa9e2ec86a	-0.030401864914616196
20	0x3fb3307eb7cf407f	0.07495872485674403
21	0x3fbf84a28625f1e8	0.12311759734252059
22	0xbfb609c066a3b1f4	-0.08608629709096488
23	0xbfabe4235f53b5ac	-0.05447493113193089
24	0x3fb2eb9abf1d380d	0.07390753904221033
25	0x3fcbbe581e1f3968	0.21674634428786566
26	0x3fc10c93d4d48ec1	0.13319633380989696
27	0x3fa40b050f608f1a	0.03914657414159546
28	0xbfbcfde2cc02d5be	-0.1132489917825614
29	0xbfbbdb3682a6426e	-0.10881367387470117
30	0xbf8cba578036f94d	-0.014027293777755157
31	0xbfa7db26129cfeeb	-0.04659384705746369
32	0x3f57000f6da613ff	0.001403822962488421
33	0xbfaa65567d808f41	-0.05155439645775895
34	0xbf966d0fe0c883a6	-0.02190041360347874
35	0xbfb01a4cd5f380c4	-0.06290130828301971
36	0x3f9f90bac981cec0	0.030825537251486734
37	0xbfb4730ba974f950	-0.07988045584804593
38	0x3fbc182389943fbd	0.10974332913269698
39	0xbfbeef5a4e1ca6d0	-0.12083973319081598
40	0xbfb5cfd5c472dd54	-0.08520256086454953
41	0xbf8ad9d010e96c43	-0.013110757366282871
42	0x3fc2938673a1baf5	0.14512711187440855
43	0xbfb67ee8886ce420	-0.08787396746346632
44	0xbf9fd7e41db28c35	-0.031096996605480782
45	0x3fa3abe4517a7b94	0.03842080587968791
46	0x3fa2e1d29e132e2e	0.036879140659575746
47	0xbfb33e6379784f5b	-0.07517072406363694
48	0xbfa325b4582adb3a	-0.03739703727972317
49	0x3fc2c3f8b364d8a5	0.14660557517499231
50	0x3fa455f15fa8ad08	0.03971819203101218
51	0x3faa28790f26a119	0.051090033626055305
52	0x3fdce9e2e383c4a0	0.4517752858947208
53	0x3fcb3a4a6fbd5c5d	0.21271639305152493
54	0xbfbddbd655161733	-0.11663570000936545
55	0xbf8b98cba2a6cc81	-0.013475027943832043
56	0x3fc2cad3daee978e	0.1468148058895022
57	0xbfc7c31d6096800d	-0.18564192978101382
58	0xbfa7cacc78f3486d	-0.04646910644955047
59	0xbf99a04e2ff323ea	-0.025025579144116884
60	0xbfc34e5c8dd75f4a	-0.15082890439838997
61	0x3fa461f8b7ba161d	0.03980996363410958
62	0x3f7439e4510cf0bc	0.004938022481663914
63	0x3fb0090b6572cb2d	0.06263800837295426
64	0x3fccf16dbfe66ee9	0.22611781950114754
65	0x3fa8bb5f0d6f86b9	0.048304529562086036
66	0xbfbb032bffafce8d	-0.10551714889862236
67	0x3fda98e66ca35682	0.4155822812002513
68	0x3fc004b99383bf0a	0.12514419272292115
69	0x3f56ef2e24814834	0.0013997984515481511
70	0x3faa6f94b91e9c44	0.05163254508743667
71	0xbfa3624a4a321197	-0.03785926967342162
72	0x3fafb9fdfa78f29d	0.061965882134676444
73	0x3fa8730f7e46b802	0.047752842106419294
74	0x3fc6efa49be4508b	0.17918832408816274
75	0x3fc59605c3a502b7	0.16864082386930132
76	0x3fcf3cb9c5b203c0	0.24404070046514725
77	0x3fba3b6a154d2cca	0.10246909160666742
78	0x3fb9aa840dab4aea	0.10025811513632346
79	0xbfc50ff45b126e56	-0.16454939314722833
80	0xbfd06d2ed32512ef	-0.2566639959298262
81	0x3fbc0865028dd3f9	0.10950309097627543
82	0xbfb3efe4e43f6623	-0.07787924358799407
83	0x3fa2b3e46a202a5c	0.03652871890524942
84	0xbfb96318e7bc4c2b	-0.0991683545837964
85	0xbfb20acebed74d0d	-0.07047741088108612
86	0x3fb0df400628626d	0.06590652609191645
87	0x3fc0efa8362083f0	0.13231375353737418
88	0x3fb1ed7957799ff6	0.07002981553671347
89	0x3fce7c8aa9ddf312	0.23817570966993934
90	0x3fa71fef4e9ef1fd	0.04516551813819445
91	0xbfa81c6ce6f193f2	-0.047091868583073807
92	0x3f9fb46fd2ce6a2e	0.030961749307247093
93	0xbfc22d2f852de44b	-0.14200395586866174
94	0xbfc0b960f8c8d532	-0.13065731189423385
95	0x3f8712677c77da6a	0.011265572057692814
96	0xbf93060e455afceb	-0.018577788336867334
97	0xbf9ce31c002eba6c	-0.028210103522435068
98	0x3fa29b4ce8a05101	0.03634109821010335
99	0x3f54c1932f6ce7e0	0.001266854987717718
100	0xbf66bb9595e4a927	-0.0027749940483278337
101	0xbfc49cfd80fed17b	-0.16104096220591288
102	0xbf95a87cbdb4bf49	-0.021150540426958107
103	0x3fcd77753ffe51b6	0.23020806908301744
104	0xbfc184dde10a53f5	-0.1368672703580668
105	0xbfb7bede1e919fd5	-0.09275615927037902
106	0xbfac2cd5bf121324	-0.0550295634975895
107	0x3f81863a2a89c3fa	0.008556799338494504
108	0xbf98dfdc7d426bf2	-0.024291463036757173
109	0x3f912649184ba40b	0.016747610195043488
110	0xbfb3fd0b14f5d1a7	-0.07807988416408894
111	0xbf82742837a2b2bb	-0.009010614583837442
112	0xbfbb7cf11ff9ff7c	-0.10737521200826267
113	0x3f987cba063a6ed9	0.023913294439451647
114	0x3facfff7beb89fde	0.05664037898196715
115	0xbf9803d0fa33d448	-0.023452058097025025
116	0x3fb220bdba938a7d	0.07081208996855
117	0x3fb31aee2c757608	0.07462967477246008
118	0x3f949a67728652c9	0.02012025486472416
119	0x3fa23c92741f8b61	0.03561837832946569
120	0xbfa95bb71dd31623	-0.049527857199376045
121	0xbfb175eddb2323c2	-0.06820570564299458
122	0x3fb1bdf7657f0824	0.06930490711150178
123	0x3fb0bd490a204608	0.06538826462954017
124	0x3fb3204528e4df4c	0.07471115349187335
125	0xbfa564ac3fd23a15	-0.04178369788234108
126	0x3fc3477907950537	0.15061867590160613
127	0x3fb511e272f82ee3	0.08230414683219638

custom_layer2.beta f8 [128]
0	0xbfffc4f0576eb3ee	-1.985580770047132
1	0x3ff68955114bbefa	1.408528392374079
2	0xbfd3cd67ece29066	-0.3094119847612603
3	0xbfe8d93b07a0c3e4	-0.7765174054130708
4	0x3feae8f94d56c15e	0.8409391890072972
5	0x3fb98a12148166aa	0.09976304054853338
6	0x3fd1a7613abee537	0.2758410524071055
7	0x3fda8de1a8d07485	0.4149097584320958
8	0x3ff498e6e5f95713	1.2873295768126283
9	0x3fe86b6769fac69d	0.7631108350671699
10	0xbff26a301537f70c	-1.150924761662682
11	0x3febfdcc1faa04f2	0.8747311228218264
12	0x3f8e14294857bd7d	0.014686892051911421
13	0x3fea0b3252e240e3	0.813866769678523
14	0xbffec42a4f1a2380	-1.9228919114995904
15	0xbfd82242b6d59e7f	-0.37709110121657113
16	0x3fe7b51c05b6fec9	0.7408580886476211
17	0x3fe8f82b0dd943f4	0.7802939672930038
18	0x3f86b84aae8b4a04	0.011093696071303512
19	0x3fe75647105211e5	0.7292819327126919
20	0x3fb14b760c1f2aaa	0.06755769535008463
21	0xbfe71d3bb57cdde9	-0.7223185105021318
22	0x3fec8238796c875a	0.8908960696755728
23	0x3f940c0aa4c15c08	0.019577184968820688
24	0x3ff081b2fb094138	1.0316648298358597
25	0x3ff2aacc73b4ed96	1.1666988868517811
26	0x4005581c0efc071e	2.6680222674048215
27	0xbfc7cc436b6e1b2d	-0.18592112298593957
28	0x3fe2d16b901f633a	0.5880639853377041
29	0x4002fdf050a80ee7	2.3739935208594605
30	0xbfe49334826cbc94	-0.6429693744047591
31	0x3f5b7092b4e23ce2	0.001674788730756487
32	0xbfeff80a86478a9a	-0.9990284559865643
33	0x3fec91418a39666b	0.8927314471904543
34	0x3fd3709adb218865	0.30374785804281706
35	0x3fd03b49e5e658e0	0.2536186928858921
36	0xbfd65b994a1e426a	-0.3493407462893062
37	0xbfd055c7feea011d	-0.255235670985728
38	0xbff65ebd95d17698	-1.3981300213121468
39	0xbff149634743ffa5	-1.0804169448674454
40	0x3fb54618a7adba26	0.08310083478657102
41	0xbfa88338f90c66c5	-0.04787614860670212
42	0xbfe9ee919df0a5d9	-0.8103721699491714
43	0x3f641538c890c4ff	0.0024515255977567425
44	0x3fe9f0f34e9ec4f6	0.8106628928709643
45	0xbfc48e315f3fc5da	-0.16058938170276243
46	0xbfa3eaacd0f5fa15	-0.03889980364600746
47	0x3fa5a9f38ed32350	0.04231225126711158
48	0xbffa17461ac3f9e9	-1.6306820912865254
49	0xbff35b93ff9f19e1	-1.2098579392637634
50	0x3ff1a2d04b3865f1	1.1022494257252868
51	0x3fa8ed01f8b8d76f	0.04868322526128465
52	0x4006a5a2df802500	2.8308770619374855
53	0xbff086210ea7a754	-1.032746369596187
54	0xbfed2f0070cb3856	-0.9119875147823773
55	0xbfd2ed368dfd6ec9	-0.2957283388729875
56	0x3ffeccb5483fddee	1.924977571701557
57	0xbff14ba41d38429d	-1.080967058315003
58	0xbfed7ff5204e03f6	-0.9218698149635418
59	0x3fa3e4cb3e2c0ba0	0.03885493406234919
60	0x3fe2cd9dc1bd7877	0.5875996383654315
61	0xbfb28584eff8c820	-0.07234984263121236
62	0xbfc7b12bef60d7e0	-0.18509434879678022
63	0xbff25a0332701feb	-1.146975705169093
64	0xbff8f714dfae96fb	-1.5603226411416802
65	0xbfe81c228a752f41	-0.7534344391110396
66	0x3fec72016eaa0cef	0.888916698590405
67	0xbffa30571c3ad662	-1.636801824829853
68	0xbff45229bb770645	-1.2700593302582928
69	0xbff0ef4223d706e8	-1.0584126853940976
70	0xbff2a97c3a5b824d	-1.1663782386387027
71	0x3fef5f2048d75e79	0.9803620741540292
72	0xbfbf324c3e2a16d0	-0.12186123387990766
73	0xbfab0f7f733afa44	-0.052852614227493905
74	0x3feff587ba8c5a27	0.9987219470520515
75	0xbffafd6c88fa4683	-1.6868710852326394
76	0xc00e4ae7e3c6dac8	-3.786575107103406
77	0xbf9d6e4c8863f27d	-0.028741069626436733
78	0xbff0afc5b014a5f9	-1.0429131391668973
79	0xbff428193a715aab	-1.2597896845742678
80	0x3ff6b48e05e4aae4	1.4190807562069319
81	0x3fefb36a784278a6	0.9906513546773297
82	0xbff02a232c2e94c3	-1.0102874494416916
83	0x3f6f28142ea95b19	0.0038032907662385426
84	0xbff79c10edfcedc4	-1.4756020828634613
85	0x3fab7f3b0ae377e2	0.053705067710083446
86	0x3fb1fb4e3900333b	0.07024086848850868
87	0x3f9b172880988b0d	0.026455529068822026
88	0xbfededa3164d04bc	-0.9352584300578637
89	0xbffc506ab761998a	-1.7696330226259271
90	0x3f96262c1c3cafd7	0.021629990790799383
91	0x3fe7f29a1afd78f0	0.7483644988203917
92	0xbff12365928aa61f	-1.0711417888909478
93	0xbfcdf7461c44198d	-0.23410869960953243
94	0x3fab0fdeb083fdc2	0.05285545258265813
95	0xbfdafca09968a457	-0.42166914922069537
96	0xbff04e755e297685	-1.0191548994256732
97	0xbfb3a140e0055ed9	-0.07667928189527674
98	0xbfac96c15cdda677	-0.0558376718389128
99	0x3fdc7b3d85e51d76	0.44502199245149343
100	0xbf919f02c3006ff0	-0.01720814051815006
101	0x3ff30bcacedceb43	1.19037895971151
102	0xbff1ae80e0570241	-1.1051033747936716
103	0xbff539aa0a5972ef	-1.3265781788133457
104	0xbfaf2c1a50aad57d	-0.06088335261066911
105	0xbfd74653d2abb3ee	-0.36366744588195743
106	0x3fa2a0e7b97d61c1	0.03638385905532316
107	0x3fc7809a21085ef4	0.1836121236126399
108	0x3fe04ce74cad6c8b	0.5093876359564019
109	0x3fd569a5a09a919e	0.3345731800457318
110	0xbfa5789dff8c6a8f	-0.04193586105812585
111	0x3fc6d629ae9b78f3	0.17841073060748833
112	0xbfa429ef50ab2b84	-0.03938243732189675
113	0xbfcd3a5ef164d804	-0.22834383761227184
114	0xbff5b10dfe2db439	-1.3557262352799297
115	0x3fc646ff6bf0c244	0.174041679101281
116	0xbff138cebaa9150e	-1.0763690272736457
117	0x3fa431c7d5849d56	0.039442295850956086
118	0xbfa1a650abcfab45	-0.034472008679435485
119	0x3fe0b31b569cacc3	0.5218636218682139
120	0x3fdd279ee7ce61fc	0.45554325711557886
121	0x3fde624f5872521b	0.47475036275253196
122	0xbfed51757c68d135	-0.9161937169906539
123	0xbfd8ecb28f51b5ec	-0.3894468688584698
124	0xbfd4c12866d54423	-0.32428941767017444
125	0xbfdc607c5efdcb1f	-0.44338902737142577
126	0xbfe92af2ffed30eb	-0.7864928244175905
127	0x3fd7f0a2e85f5f8b	0.3740622777236175
