COLA_Emulators/PCE/wCDM_PNN_HIGH/MODEL_Z2.750.pth (torch, 192382 bytes, 10 tensors)

layer1.weight f8 [128, 25]
-0.14950156418264027 -0.12174892601398378 0.11987650221920007 0.10103124275251833 -0.17662251893539874 -0.16603936259726287 0.172914053150243 -0.13773563477636627
0.08695021379018485 0.13580782710390335 0.10480969989748304 -0.04051999887907341 -0.1634250722347786 0.06588837604547115 0.1526695481749542 0.1387860345054007
-0.09352160122121633 -0.0561486092575243 -0.03563529910690889 0.035871470919668566 -0.11798182411063037 0.18832256580582157 -0.10595656352969567 0.03201658471294181
0.010650906925593387 -0.12055678923102991 -0.078383445942007 -0.011961044887899053 -0.21251697270399852 -0.17298217370457505 0.0691511794458957 -0.05388123090760879
0.10846960126737003 -0.048257334714299244 -0.4666031890222947 -0.26694452382885003 -0.18489718179997092 -0.06030072880657189 0.2752830156796051 -0.33240960979252243
-0.11116252963150933 -0.10363106935844468 0.15804157206619954 -0.03157021030926332 -0.021208027456188713 -0.0392232867480194 0.05062686352846231 0.11159555990458332
0.04965129236097729 0.13079121853442405 -0.0015277570869463991 -0.010168267679169873 -0.05086764764721048 -0.01268707797066511 0.031454155294960255 -0.16584305151018822
-0.314261304538046 -0.1567863912581946 -0.024134502783190907 0.6594985321373811 -0.5692320450724131 0.21507603120356394 -0.1872149370514174 -0.2668308403395798
-0.12677731978507176 0.21332650254729532 -0.08648450342934864 -0.5187457631399909 -0.4093425515638527 -0.10845523412848271 -0.19701440031223058 -0.11818527572822081
-0.13108114359585166 0.20184707736741972 0.49659876726667007 -0.017121819826228624 -0.04528754524060481 -0.16158210858914265 0.033350272396831186 0.19419035505011467
0.095430114791537 0.3105392370798469 0.17752886600073942 -0.002050010818725284 0.059750716317366545 0.04804125741534526 -0.1571438814549046 0.1716651949660773
-0.015802090457326622 0.19210314423454006 0.27179936510902303 -0.12123381360841526 -0.26799772824428114 -0.21026725333837679 -0.04314014524588217 -0.24696859480255834
-0.07924059435218193 -0.348535516329734 -0.023905430354318635 0.08784049043758384 -0.10732276749987285 -0.10294933217373885 -0.23375548424042772 -0.11077959547321126
-0.26719095972240425 0.05242449360441153 -0.09524558562206106 -0.08335204524118502 -0.2533477439826914 0.05417073297771238 -0.1507458161977283 0.1297921678503014
-0.06534226770967014 0.003217519578457929 -0.10709646403812763 -0.09302731188647198 -0.14792270309621128 0.22518445627000527 -0.022758013253868496 0.19350461150266307
0.1867382031292353 -0.10039406486578897 0.00028698975477537753 -0.08073559588346267 0.05160837110501664 -0.02322736182409888 -0.10549338893705304 -0.10740164398192803
0.058744117092042906 0.00893463400401228 -0.036554709298720275 -0.11273308506622065 -0.02483705592718859 0.0856524806259581 0.1622475326964598 -0.2464817217329042
-0.0815469938570581 0.4409347668643735 0.021552095879388472 -0.03642928234096387 -0.1119807499925812 -0.04190089128319121 -0.3312342481162379 -0.07439271881784319
-0.028033816220434105 -0.2584047470812447 -0.2371281710255963 -0.09175386845791311 0.10317444354311733 0.059008884433905756 -0.017298616476113308 -0.090815643340423
-0.20302866255189175 -0.061098410512120435 0.31343773404224157 -0.03262972135395917 0.0779710667644823 0.3231946829035264 0.22043110880241112 -0.043022357385360234
0.06987754688292062 -0.18760376992319036 -0.044122016427159357 -0.2338264790001234 0.10123011681904005 -0.30053567875680715 -0.07851683703432652 0.037541170057487146
0.02798575905631367 0.14221155904340113 0.012126236163672552 -0.24671969569156557 0.04067901503016997 0.18020370293826474 0.1536402747863714 -0.10711062909032738
0.009145178621863643 -0.15248515513482175 -0.05641221071417444 0.04724185817163452 0.29593072790158764 -0.1443477300874872 0.08032828406329946 -0.09675246545902426
-0.4216619260054517 -0.010435110884152289 0.33619815733186975 -0.1181806394856291 0.0004382977127338535 -0.027759298428046864 -0.31837559449801917 0.06425923283574263
0.2261211338906116 0.2183462744247805 -0.0034763282225621006 -0.11350265526939675 0.2998876431772775 0.3307867363806855 0.05509066026133731 0.037024443783106965
0.06167858775418119 0.04078348736834632 -0.14450751156952818 0.09504541395993125 -0.004689449280153319 0.1339531139346659 -0.2836674103089336 0.20848746350169436
0.18812562940941271 -0.17286226706536797 0.06476109986788345 -0.049443966995934625 0.02403308353057215 0.029303845363462415 0.24587674311608596 0.0754497825413674
0.022242155808405797 0.25588328355831347 0.28487952237028447 0.14241063074379295 0.049864416548759824 0.028179113910461774 -0.3165350159660992 0.010609743108868612
-0.23517468712842818 -0.12261950682747269 -0.09934392651948516 -0.287115483022428 -0.012163526021386043 -0.2081235032625595 -0.05448150319050541 -0.0860849378512895
-0.07208389886179478 0.05155518371716581 -0.2307464293424698 0.11106093212433717 0.05451775293976664 0.14550941998606243 -0.2109735058614065 -0.08686812053147522
0.030403944110865735 0.12827264561899274 -0.15593722412165828 -0.04808461025563702 0.16481291359965158 0.1852785728649502 0.06707190046679928 0.013457878811566654
-0.0477422233423257 0.1569141773135745 0.012829345196781642 0.04240700315440081 0.040269103752173366 0.024893616152900817 -0.02013133131885178 0.08558186047101206
00000000: a8c1 6e04 de22 c3bf 779d 8d07 f02a bfbf
00000010: 3e20 97f8 39b0 be3f bb0d 7ffb 2edd b93f
00000020: 6147 4813 919b c6bf 5e1a 1a20 c740 c5bf
00000030: e448 a635 0c22 c63f 8fdc 6d3f 52a1 c1bf
00000040: d7ea 9b84 5e42 b63f ffdd f99f 2662 c13f
00000050: e2fe 5cf9 ced4 ba3f fe05 0a8c 09bf a4bf
00000060: ca22 4cde 1ceb c4bf f045 4d84 0fde b03f
00000070: ced5 40fe ac8a c33f fbcd aba3 bdc3 c13f
00000080: 20f5 b61a 08f1 b7bf c132 f4b0 82bf acbf
00000090: e1a4 7e38 ca3e a2bf 5e35 ebd4 be5d a23f
000000a0: 65dc 138c 0e34 bebf 4e0e 9e2e f41a c83f
000000b0: 3b16 2827 f81f bbbf 151c 8b50 7a64 a03f
000000c0: 1b66 5887 24d0 853f 9cdb 0e4b cfdc bebf
000000d0: 6263 de00 f010 b4bf fac3 f444 087f 88bf
000000e0: 8de6 cd93 c133 cbbf f512 6da5 4724 c6bf
000000f0: e32f 3346 e4b3 b13f 5399 3b19 5296 abbf
00000100: 1fb3 0dee a9c4 bb3f 6cb3 c774 2fb5 a8bf
00000110: 0ed8 439f d3dc ddbf ae3c ec7b 9e15 d1bf
00000120: 5f0a 7afa b5aa c7bf d062 4cb4 bcdf aebf
00000130: 003e 5fa7 3c9e d13f 20d7 bbf4 3246 d5bf
00000140: b2d6 4ec5 2575 bcbf 9878 bed5 9087 babf
00000150: 7d64 b7cb b43a c43f cfbc 9c79 f829 a0bf
00000160: af16 59a1 8eb7 95bf 4914 a61b 1315 a4bf
00000170: fabe 4ea6 c3eb a93f 3543 2bd0 8691 bc3f
00000180: 1c00 cae9 e46b a93f aacb 1a43 c4bd c03f
00000190: c0f1 60ae e007 59bf 73b0 1cc9 19d3 84bf
000001a0: da70 2306 530b aabf e9f9 b9c7 aefb 89bf
000001b0: 975c a150 c21a a03f 2da7 4059 583a c5bf
000001c0: b8e8 5872 db1c d4bf 10b6 7493 9311 c4bf
000001d0: b1d7 a210 b7b6 98bf 2548 69aa 9c1a e53f
000001e0: 927a 2d1f 2637 e2bf be1d 1684 9c87 cb3f
000001f0: 52b1 fab7 a8f6 c7bf 00a7 34a9 c113 d1bf
00000200: 3bfb 2c3d 3d3a c0bf d3c4 e767 484e cb3f
00000210: 8f00 d731 d923 b6bf 8dfe f3b6 9099 e0bf
00000220: fcfc f419 ab32 dabf 6a6f a9e3 b8c3 bbbf
00000230: 7b4e 1793 c437 c9bf 6917 1fe6 6341 bebf
00000240: 40e8 6e54 44c7 c0bf 390a 0b02 20d6 c93f
00000250: 9c3b 2932 46c8 df3f 007f cee0 6188 91bf
00000260: 0af4 72db ed2f a7bf cf29 01f8 b8ae c4bf
00000270: 2fa0 8372 4913 a13f 86c6 11c4 3adb c83f
00000280: 1b4b 15a6 1b6e b83f b27e d8f6 dfdf d33f
00000290: a6d9 c810 44b9 c63f 5929 882d 2fcb 60bf
000002a0: 86c7 fd58 a597 ae3f e04d ea1a dd98 a83f
000002b0: aec2 ce6b 4a1d c4bf 6ad1 1e07 20f9 c53f
000002c0: c3fe e356 6c2e 90bf 7a1a f9f8 d596 c83f
000002d0: 56e0 0d2a 2965 d13f b214 9ee0 2d09 bfbf
000002e0: f088 8df1 df26 d1bf 9b08 4190 09ea cabf
000002f0: 0096 f311 7716 a6bf c674 e8ba aa9c cfbf
00000300: f31a 4291 1c49 b4bf 165d 08e9 674e d6bf
00000310: 3040 4646 aa7a 98bf 83ab b1e1 b67c b63f
00000320: dc35 8740 8179 bbbf bbcc d42e e35a babf
00000330: 4161 0920 b3eb cdbf 081e 9f33 0d5c bcbf
00000340: 64da 721c a819 d1bf 57a3 141b 62d7 aa3f
00000350: 6eca 55c3 0362 b8bf 1998 5d44 8f56 b5bf
00000360: 53f2 ba74 d936 d0bf 8449 142d 44bc ab3f
00000370: 34fe 498f a34b c3bf 92d4 189e 079d c03f
00000380: da08 dc56 45ba b0bf cf90 a3ab a05b 6a3f
00000390: 959d 8f82 ac6a bbbf a2eb 2f4e a3d0 b7bf
000003a0: ad2b 1192 21ef c2bf bca4 9f21 d8d2 cc3f
000003b0: bed5 966a e04d 97bf 50ba 0355 c2c4 c83f
000003c0: a14b ad95 09e7 c73f 0aa2 4fe9 6cb3 b9bf
000003d0: a598 6d9c e3ce 323f 974a f187 16ab b4bf
000003e0: e716 3194 696c aa3f daa0 a0dd e9c8 97bf
000003f0: 2ec9 6d5f 9d01 bbbf 5c63 7094 ac7e bbbf
00000400: a745 7c7b b513 ae3f bcac ca46 524c 823f
00000410: 2ed4 e781 4cb7 a2bf dc5e 8951 13dc bcbf
00000420: adaa be9b e26e 99bf 7819 1c2b 52ed b53f
00000430: b6dc 64f3 86c4 c43f cdc9 f38a b68c cfbf
00000440: 7003 b487 43e0 b4bf 0485 d674 4638 dc3f
00000450: c852 d9ab c011 963f 6fd9 8ae0 dba6 a2bf
00000460: 96eb ff3a c5aa bcbf f317 789b 0874 a5bf
00000470: 6e5c be21 f132 d5bf cb16 62b6 660b b3bf
00000480: 0036 658f e5b4 9cbf 1416 7610 b489 d0bf
00000490: 16f3 c145 375a cebf b0e7 4e78 2e7d b7bf
000004a0: d8f9 ccec a369 ba3f d456 a299 6936 ae3f
000004b0: 41b2 1f80 bab6 91bf cec0 1caa b13f b7bf
000004c0: afce e7dc d7fc c9bf 666a f975 4a48 afbf
000004d0: 2fcd 4224 5d0f d43f b489 2fc4 d7b4 a0bf
000004e0: a9a5 c96d e9f5 b33f 7cf3 53c0 38af d43f
000004f0: 60e7 a929 1637 cc3f 9513 efc3 0607 a6bf
00000500: db3b 96b2 7ee3 b13f a394 367c 6603 c8bf
00000510: b92b 2d33 2997 a6bf 3747 1fac 06ee cdbf
00000520: 49a8 1b89 37ea b93f 5faa e2ff f93b d3bf
00000530: 6e6f 3fef ad19 b4bf f10b 4da3 9838 a33f
00000540: af37 9a7f 4ca8 9c3f b52f 9a05 fd33 c23f
00000550: 2bed f8dd a3d5 883f c71d 23d0 8294 cfbf
00000560: 094b 603e e1d3 a43f 0575 5e39 ea10 c73f
00000570: 5728 c709 7caa c33f 9d37 ff28 9a6b bbbf
00000580: dd9e c618 b5ba 823f 5cfb 3631 a284 c3bf
00000590: bd91 39b0 0fe2 acbf e1e9 b2b7 1530 a83f
000005a0: b700 8e6f 87f0 d23f c221 fd85 fc79 c2bf
000005b0: 2de4 fef8 6490 b43f 6731 f402 c5c4 b8bf
000005c0: b85a 8a4d 82fc dabf 070f d2df 005f 85bf
000005d0: 60d0 ad46 4584 d53f e273 9c1d 1641 bebf
000005e0: 6018 9457 6ab9 3c3f 902a a2fb ee6c 9cbf
000005f0: cdaa 8d07 4460 d4bf 47dd 7e07 4b73 b03f
00000600: 834f 7f8d 89f1 cc3f ccce ed4d c5f2 cb3f
00000610: 6e88 d580 637a 6cbf 1127 6490 820e bdbf
00000620: 6df0 faf0 5b31 d33f d728 ad21 9c2b d53f
00000630: 2a65 46d0 d734 ac3f 0dee 662e def4 a23f
00000640: 9b0c 89fa 5594 af3f 3a81 edc0 92e1 a43f
00000650: e6d5 1bde 387f c2bf 4fba 9770 e554 b83f
00000660: 544f b674 3e35 73bf f8fb c529 6025 c13f
00000670: ccf1 8d5a 9b27 d2bf 95d1 ae9a b7af ca3f
00000680: f929 ed28 8014 c83f d30b e1cb 5920 c6bf
00000690: f64c fcf5 2e94 b03f 49ce 763a b850 a9bf
000006a0: 2fb4 24ef 209c 983f feb4 eec5 d301 9e3f
000006b0: 1fea 439d e378 cf3f 7367 814c ad50 b33f
000006c0: 3797 28cf a5c6 963f 9e77 9e47 6460 d03f
000006d0: a859 f851 773b d23f 7adb d2f4 823a c23f
000006e0: 3e41 9f2c d487 a93f 9ae8 b352 fcda 9c3f
000006f0: 393f 6715 1c42 d4bf af56 5f9d 8fba 853f
00000700: 1125 0843 341a cebf 00f7 acf3 fd63 bfbf
00000710: 3519 7583 9a6e b9bf ab6b 709e 1960 d2bf
00000720: c228 bad3 30e9 88bf 8954 057c caa3 cabf
00000730: 155a e1e4 ffe4 abbf fbdd bf98 a909 b6bf
00000740: f8f8 2d24 1774 b2bf ad4d 02e8 7065 aa3f
00000750: 5ceb d857 1989 cdbf 8d59 563f 7d6e bc3f
00000760: 3afc da3b c0e9 ab3f fece 0c7c 0da0 c23f
00000770: 6ca4 ff09 2e01 cbbf 7267 bf38 fd3c b6bf
00000780: 1498 8026 3622 9f3f 1bd6 f3f0 3c6b c03f
00000790: 0e70 ea3e c0f5 c3bf cd4c fac8 8b9e a8bf
000007a0: a53a efec 9618 c53f b860 8d51 35b7 c73f
000007b0: c447 fcc2 9f2b b13f 7024 f4ea cd8f 8b3f
000007c0: 2188 c92f ab71 a8bf 1097 eb85 c315 c43f
000007d0: a2e8 6490 4546 8a3f 5ecb 56e7 5eb6 a53f
000007e0: fa43 4fe7 269e a43f 1207 064d b67d 993f
000007f0: 38c1 8ec6 4e9d 94bf bb94 da5b b1e8 b53f

layer1.bias f8 [128]
-0.08878932860011059 0.31419281418391304 -0.1847419706592963 0.054882042435758734 0.03253311707863403 -0.9650581028242232 -0.03648094464416681 -0.3018449936155267
-0.4270083573851187 0.03951246489600113 -0.88692192825334 0.1259650444505507 0.12753101893183966 0.0695154079801231 0.07676896735072915 0.08776366703938514
0.12376858814242228 0.06526043160033726 -0.13539647309027586 -0.08009052611527248 0.1535246864857549 0.09966411877981614 0.19306944805001724 -0.6454513077895244
-0.16754505890298996 0.1991021388345496 -0.6571223125367822 -0.0019173153480766367 -0.16954616931111272 0.39002674883117305 0.08311193927099536 -0.09072070275888813
-0.18106190331958708 -0.16623487155799402 0.12980089196085245 -0.36028841197821604 -0.10384738224127515 0.20736391373566868 -0.06702268821972826 0.05356570761826654
0.48653049819099375 0.015303486404963205 -0.1982635555186593 0.021627882040813003 0.053563593767007034 -0.06441784701082917 1.1233977771783228 -0.3377069476080557
0.11617908394530108 0.11003058440913245 -0.09612347635785293 0.12859592423641406 -0.1789995167483812 0.9577203439077493 -0.10616793350455556 -0.11303430906167801
0.35438977244258946 0.1651082944271005 -0.7724128027964539 0.019788908930537176 0.1602188000446723 0.14786762765993133 -0.8407938599114507 -0.1999323843704306
0.01049927846203996 -0.06882944626013267 -0.07335303147659665 0.2821491416464052 -0.08142486849901334 0.3566140352921569 0.2972948840743024 0.05583803618613922
-0.344975991817323 0.1398883428050991 0.504036977520371 -0.12120280265193895 -0.17368237669394707 -0.04818052732573588 0.14260363515014443 -0.04326912305270811
0.4275229021702401 0.11557254112993375 -0.5910882708422823 0.04375332039508764 0.11339027035725917 -0.4248598074109752 0.08554010206218271 0.3894470432088098
0.09234107507604973 0.3262470562427321 -0.24320981593426033 -0.06696647401040895 0.016347716282769265 -0.158507328664656 0.0207185924600884 -0.22894678140688737
0.035539780837153936 0.0340258194213137 -0.02601301549325041 0.4063363015188721 -0.11782992545777472 0.22357515044142476 0.02961770360596791 -0.0033776628853125954
-0.03651395220833756 0.04632505508677359 0.02368885362392498 -0.12783163942245776 -0.48813658219234596 -0.6871064226564971 0.05341168617533428 -0.10254797363154962
0.42966798989372007 0.9920585850407871 -0.15499358041973915 0.042898650813416477 -0.055714005523847206 -0.35322852090146095 0.061370103733908145 0.4475759349479164
0.23340701573087852 -0.0559276573341235 -1.6146912502435844 0.2567592441879335 -0.0588545561665667 0.0012215579465984505 -0.09238747942245741 -0.20636346354846272
00000000: e93e 92be e5ba b6bf 19b8 632d bc1b d43f
00000010: 0f13 17f9 9fa5 c7bf d96c ccc2 7f19 ac3f
00000020: 1e83 c743 2ea8 a03f c3d5 cb87 c1e1 eebf
00000030: 2b07 5960 a1ad a2bf 9f8f 02aa 6d51 d3bf
00000040: f19d 85dc 1a54 dbbf 107d 0651 fa3a a43f
00000050: e081 7e18 aa61 ecbf c159 2d61 9f1f c03f
00000060: e6d6 c4b9 ef52 c03f e6bc d703 c3cb b13f
00000070: 997b 1e8c 21a7 b33f b310 b6ff ad77 b63f
00000080: 1603 5856 4caf bf3f 4a40 725b e8b4 b03f
00000090: 2e4f f5ef ab54 c1bf 8270 620e d080 b4bf
000000a0: 50e0 ca69 b2a6 c33f cd74 be72 9683 b93f
000000b0: e8a4 9dea 7fb6 c83f dbb9 4380 89a7 e4bf
000000c0: 4b20 4cd2 1d72 c5bf 53d4 6dcb 2d7c c93f
000000d0: e627 3a5f 2507 e5bf b2b6 d4ad cd69 5fbf
000000e0: 3239 2d5a b0b3 c5bf d4e2 b2c0 32f6 d83f
000000f0: e078 13f5 d246 b53f 6268 6bd3 7839 b7bf
00000100: e991 a754 092d c7bf a1ee 652c 2f47 c5bf
00000110: a953 fbcc 509d c03f e6bf a420 f70e d7bf
00000120: 8461 80f6 bd95 babf e9c0 ee95 e68a ca3f
00000130: 9265 fe1d 6628 b1bf c4aa d0e4 f66c ab3f
00000140: 7529 8fd0 5023 df3f df26 fe2c 6f57 8f3f
00000150: 3d7d 783f b360 c9bf 9f2a 3098 9e25 963f
00000160: b096 f8f6 af6c ab3f beb3 3022 b07d b0bf
00000170: 7214 96f2 6ff9 f13f 0df3 e699 fd9c d5bf
00000180: f838 0696 e9bd bd3f 6dd4 98e1 f62a bc3f
00000190: f2b5 5553 8c9b b8bf f744 7fcc d475 c03f
000001a0: a390 37c7 74e9 c6bf 6686 7922 a5a5 ee3f
000001b0: 4035 495a d22d bbbf e9f0 be04 d1ef bcbf
000001c0: 2361 ab70 52ae d63f 206e 6ec2 4422 c53f
000001d0: 0cb8 e00d 9bb7 e8bf fa80 b832 8b43 943f
000001e0: b1b7 32b5 0c82 c43f 90df 7790 53ed c23f
000001f0: c5e9 5f86 c8e7 eabf 7022 2466 6297 c9bf
00000200: 1e2b 024d a580 853f 3166 b07c ce9e b1bf
00000210: 0f23 41a7 43c7 b2bf 5fcf fd45 bb0e d23f
00000220: 02cc 489b 42d8 b4bf 3bf6 b7ac c3d2 d63f
00000230: dc80 171f e106 d33f 9cac 9596 cd96 ac3f
00000240: 1dad b02e 1614 d6bf c442 b878 dce7 c13f
00000250: fc96 cd27 1221 e03f c0d8 9299 2507 bfbf
00000260: 1162 e55f 393b c6bf 430d 563a 1eab a8bf
00000270: e55a a1fe d540 c23f 0c3f e0d8 5e27 a6bf
00000280: 192e c704 895c db3f 6ffb 777c 2996 bd3f
00000290: 2b23 0af3 31ea e2bf 546a 60d0 d566 a63f
000002a0: 8378 de0e 2507 bd3f 82c2 8d30 e730 dbbf
000002b0: 0484 dac4 f4e5 b53f 65c4 864a b3ec d83f
000002c0: 0974 8729 aaa3 b73f c6a4 3e55 3be1 d43f
000002d0: 6e7d c0ce 7f21 cfbf 9c9a cdff b624 b1bf
000002e0: 90f3 31ab 74bd 903f 2c40 65d8 f749 c4bf
000002f0: d213 2434 4137 953f a361 55cd 204e cdbf
00000300: 721f ce28 4532 a23f 85ae 440b d56b a13f
00000310: 5f62 41eb 27a3 9abf a8df 8cf9 6901 da3f
00000320: 79cd 541c 1a2a bebf b90e ac4b 1c9e cc3f
00000330: b823 7b71 1a54 9e3f eb79 23f4 78ab 6bbf
00000340: a43f 2aed f4b1 a2bf e88a 2ae9 eab7 a73f
00000350: b1c1 600e e441 983f a354 5b83 c95c c0bf
00000360: 73d4 1f38 a13d dfbf 76cc c59b c6fc e5bf
00000370: 2bce b1ca c658 ab3f 65c1 0481 9540 babf
00000380: 4fd2 2e2b ae7f db3f 3deb 4ea5 f1be ef3f
00000390: a211 7f63 d4d6 c3bf ef81 92dc cff6 a53f
000003a0: 81e4 4ecf 8b86 acbf 8c51 52cc 4b9b d6bf
000003b0: ad80 faf8 e66b af3f b7fc c488 15a5 dc3f
000003c0: 604c 9cf5 47e0 cd3f ec47 62c6 8ca2 acbf
000003d0: cfef 0e7e c6d5 f9bf 0ee7 2e53 be6e d03f
000003e0: b778 e933 2f22 aebf 0061 92db 9503 543f
000003f0: 69e8 adb2 b4a6 b7bf edd4 8333 1e6a cabf

custom_layer.beta f8 [128]
0.27824005716057953 -1.5166484984006185 3.1118740891070886 0.9388057406626544 0.142841159962249 0.6907158578914712 1.1716657686966263 -0.08333357953632398
-0.3055837262407688 -0.15021112499204847 -1.3258539990298377 -1.0176509714205237 -1.1086075357479581 0.08512371110559416 -0.6710434987091215 0.0024654364894903195
0.9870699507483669 0.07188935768141794 0.08346325713112318 0.13436038426253313 -0.7677542384549981 1.4573927632178516 1.9121017217874452 2.7235064271298364
0.02496826017278908 0.011193828717889227 0.17359466850088068 0.06889810033226836 -0.014604746464358333 1.2296763482852302 1.3088244972362633 -0.07113017942843125
-1.3547340944520303 -0.028282088406075837 0.012435545966438293 1.548786065090197 -0.04054044472405541 -0.003666930208997522 0.04159869532797482 0.07531754112428887
0.06814604560444727 -0.00037695008308238133 -0.039654648090804115 -1.458128166113734 0.13334218449553303 0.2518278428690065 -0.6733045279732 0.6572284593610185
-0.7682537520613202 1.1491174613442365 1.090937726000933 0.08545179539226219 0.5621145727112373 1.1296568976927441 0.020302810587719326 1.1622474540693835
-1.3327536593518803 -0.4668705832442982 1.8727708683710103 -0.0512424637559768 1.6608389732438205 0.04583044231702775 -0.769096336545974 0.937522970707578
0.8340308756711217 0.7576862681031011 -2.411364265683619 0.06959627501219386 -0.0862402805225731 -1.4512482077247932 -1.1673835879800385 -0.35721733914041887
-0.011836928855683463 0.06157116186414816 -1.7851050273352036 -0.64101585462446 -0.01281272029153945 -1.274126158179731 -0.206482601018098 -0.2412681510842852
1.1278411607934193 0.4010422507781859 -1.6634874817019054 0.05583457053743185 -0.1747799623721387 1.0373669086740815 -0.01173554465585652 0.9446634836197627
-0.1545287941493013 1.2275653671741653 -0.7569376729276218 0.40014372695420947 0.190377024082848 -1.3928386088685147 -0.7148198057607908 -0.002026999376770951
0.008161533842366453 -1.4183401113270626 0.04689678464290835 0.6840985204324446 -0.8415159464691777 -0.019124566769321324 0.00010740503828742407 -0.08466363569899457
-0.026412346514635685 0.0645749560243116 -1.427498533133297 -0.2335275135278411 -1.5962087188630523 -0.9757359080286752 -1.327270363737009 -0.06417129179292058
-0.5536666673975709 -2.6280885197750177 -1.129562104151331 -1.0248555257573233 0.06531896855056418 -0.3940501005098159 0.27974746276358947 -0.3468227695752662
0.6166066448397372 1.367094725119701 -2.4755783554316646 -0.5476372288124564 -1.117864464525831 0.7042565209962103 -0.0067816110828885084 0.06853514648380907
00000000: 6e47 7c62 afce d13f d887 4237 3144 f8bf
00000010: bde0 0f3e 1ee5 0840 5a2e 2e56 b20a ee3f
00000020: 90c0 477f 9e48 c23f 541e 8f24 581a e63f
00000030: bc50 e69a 24bf f23f 6462 c476 5955 b5bf
00000040: f835 990b af8e d3bf 2409 ab3e 1e3a c3bf
00000050: dba9 d1ae b236 f5bf 86e6 8f62 4c48 f0bf
00000060: a42f 6241 dbbc f1bf ba0b 50e3 aaca b53f
00000070: 63c5 2437 3079 e5bf 749c f722 6532 643f
00000080: 9e83 aab8 1396 ef3f 2211 2c48 5767 b23f
00000090: 64ba cb17 d95d b53f a78d 2498 b832 c13f
000000a0: 81f2 3056 7191 e8bf f629 f712 7b51 f73f
000000b0: e63c 9bf9 f797 fe3f 65bf d7bc bdc9 0540
000000c0: a045 8593 4791 993f 8a37 1542 caec 863f
000000d0: b851 fc9f 5938 c63f ad01 af4f 4ea3 b13f
000000e0: 6142 72e3 17e9 8dbf dbcb 481b c1ac f33f
000000f0: 9455 bdf4 f1f0 f43f 785a 6762 9635 b2bf
00000100: 8e29 67a8 fdac f5bf a413 11d3 faf5 9cbf
00000110: 16bc deb9 ce77 893f bc01 a1e5 d3c7 f83f
00000120: 449e 8298 b7c1 a4bf b625 612a 1c0a 6ebf
00000130: c6d6 fa97 6c4c a53f 16a7 f1a7 0248 b33f
00000140: 190b 39ed 0472 b13f 71b1 7047 2cb4 38bf
00000150: b268 5e31 9d4d a4bf ed5b 2d33 7e54 f7bf
00000160: 14f2 ca50 5b11 c13f 160e 5687 f21d d03f
00000170: 7698 fcef b58b e5bf e097 5efa 0308 e53f
00000180: c63e 84e4 8895 e8bf d2c6 bbfd c862 f23f
00000190: 8a58 f21d 7b74 f13f be20 983a 2be0 b53f
000001a0: fcca 4cb3 d7fc e13f 91a8 741c 1313 f23f
000001b0: a1ec f68d 42ca 943f 6f65 51c9 9098 f23f
000001c0: 81a6 4880 f552 f5bf ceea 9f27 35e1 ddbf
000001d0: 52e1 0896 def6 fd3f 682c ffc3 733c aabf
000001e0: 2312 20e3 cb92 fa3f e660 d375 1677 a73f
000001f0: 1c07 9eeb 6f9c e8bf 9102 4e2c 3000 ee3f
00000200: 2093 db84 61b0 ea3f 0832 c445 f73e e83f
00000210: 66d5 1e59 794a 03c0 adcd 19bd 0fd1 b13f
00000220: b43b 71d0 d713 b6bf d7e7 680a 5038 f7bf
00000230: b62e c469 9aad f2bf fa05 4b1d a6dc d6bf
00000240: 8fd9 8fb2 f53d 88bf 459e 2a5d 4186 af3f
00000250: 3647 054a ca8f fcbf a48b 7aae 3383 e4bf
00000260: bbe9 ff34 8e3d 8abf d6c2 451c d262 f4bf
00000270: 686a 4899 056e cabf 1b98 3cf1 dfe1 cebf
00000280: ef0b 4b2c a30b f23f bc04 da1d adaa d93f
00000290: fa70 b30c a59d fabf 3892 e34c 5996 ac3f
000002a0: 8935 3197 305f c6bf 2553 2b0b 0e99 f03f
000002b0: 9f30 fb23 ce08 88bf fce9 fbe9 ae3a ee3f
000002c0: 2bae 947a 99c7 c3bf c171 1b95 1ba4 f33f
000002d0: 10b4 ca5a d538 e8bf cdf1 3d6f f49b d93f
000002e0: d23d 2c3a 465e c83f 7b24 1b23 1149 f6bf
000002f0: 48d2 08c9 cddf e6bf c423 0801 ed9a 60bf
00000300: a05a 8187 feb6 803f 6313 8c66 85b1 f6bf
00000310: 8e5e a8f8 da02 a83f 92fa 8f94 22e4 e53f
00000320: 2eb9 a4d9 b2ed eabf 6c30 4cf3 6395 93bf
00000330: 3e3d ea81 d427 1c3f f6d5 7c1a 84ac b5bf
00000340: 6cc3 f691 d60b 9bbf beda 43fc fb87 b03f
00000350: e653 aeb3 08d7 f6bf 3dbd a8c4 3ae4 cdbf
00000360: bbb5 5127 128a f9bf 4483 d082 3a39 efbf
00000370: 2835 53d9 7f3c f5bf 08b9 979f 876d b0bf
00000380: b973 ab28 a3b7 e1bf fc69 1b46 5306 05c0
00000390: 3818 82b6 af12 f2bf 9b0a 64e8 ce65 f0bf
000003a0: 20ae bb71 beb8 b03f 0636 abe9 1d38 d9bf
000003b0: 9d59 ede6 61e7 d13f d15e 3521 5832 d6bf
000003c0: 98a7 c2db 3dbb e33f 88c5 eeb7 9edf f53f
000003d0: 9f1d 5a06 fccd 03c0 4b4a 7a82 3e86 e1bf
000003e0: e4fb 47d9 c5e2 f1bf fd8c b5f8 4489 e63f
000003f0: 500c 0bdd 08c7 7bbf 8e47 c6f4 848b b13f

custom_layer.gamma f8 [128]
0.7251118490249476 1.0530559895916403 -0.541532709758211 -0.35274512216182946 -0.016937658272447087 -1.9348316498171592 -0.06051138296193636 -1.5544048140026103
-0.05297779649303031 -0.3562715392690016 -0.5376933291349097 0.9092709380146504 1.0189255557946517 -0.7258057011759084 1.05366481114073 -1.039990183482055
1.047851225718681 0.8105399394843465 0.8231514837009359 0.14254616305684642 -0.2934408414559752 -0.04769270072683977 -0.02508194602089482 0.8501395269343506
0.3672299333120003 -0.37384066304655256 1.5117001291008003 0.6428591387919211 -0.7472676509510863 1.0011162976712782 0.03464072779068424 -0.15012307074162007
0.8561636404208864 -0.40815974499043794 -1.3659744323194631 0.9966841594348782 -0.5614545035252231 2.077894222255927 -0.5291569456407873 2.471341162231143
2.057400115537429 0.2418002101458904 -1.2438334034690333 0.95341115637733 -1.4202787437066002 0.2683477970114357 3.0260223127495425 0.8562843043360622
1.3304160622396075 0.7945190581155263 -0.3137451551787563 0.48712472994564154 0.8164101224062544 0.3261544516771702 0.2480613087856903 -0.033307410556095436
0.08619937591636978 -0.39113176889223067 0.7356940580049148 -1.2559534507810384 0.7869507073684258 0.5855839922740305 -0.11614576287879806 -0.6284887655094696
-1.008286652644771 1.2937665852834663 0.3315074458623569 0.5383591983030996 -0.8124871466416442 -0.20504950745702585 0.6567633547176986 0.20820396399262425
1.9155650369495423 -0.34562684199699945 -0.7528226542288691 0.6851747291187817 -1.3376515003417295 1.0181217948488757 0.7869139953481296 0.14034051163588676
0.8747581570150138 0.446978609608381 0.4833187357492611 -0.1330392140683815 1.0386177722502363 0.21575178661605013 -0.6310990620667544 0.9338202024088085
0.8956904950207988 0.2754906182745393 0.9419820986493301 -0.11356116859271041 0.653885044443415 -0.4575166097254546 0.8196201869299767 -0.06183431386737836
-0.2421023753746118 0.7775751489787884 -1.724596657351305 0.9773612660617353 1.0119033762319638 -0.34633589784224517 1.0889061719204574 1.9085705937269748
-1.024449512699843 -1.673564874329218 0.6374179549697612 0.39798571501108676 0.17809839347596743 0.5773256553640285 0.9902480888854913 -1.3424875785120387
-1.0936739756217686 1.1244608443456068 0.5593243186169569 -0.017411508452511836 -0.8783940360608892 0.9037478308985971 0.5217160656153661 1.434188573520539
0.8184952402864863 0.9265862603505068 -2.0165225160194993 1.090049189070772 1.0198181170061296 -0.5002015566880349 0.3289479292211573 1.3563592751085418
00000000: bb22 b0c3 1d34 e73f bc72 c23c 51d9 f03f
00000010: 5c06 c467 3c54 e1bf 9d8c e046 6093 d6bf
00000020: 6068 6701 1b58 91bf d0af 3308 12f5 febf
00000030: 3fe9 b615 59fb aebf c52d 0e95 d7de f8bf
00000040: 2913 b4de e71f abbf f3fa 6924 27cd d6bf
00000050: 7a2d fda3 c834 e1bf c23c bf5d bf18 ed3f
00000060: 7d25 33e2 844d f03f c5a0 b9e0 cc39 e7bf
00000070: 2cba 0ca2 cfdb f03f a576 23bf cca3 f0bf
00000080: 6190 98a5 ffc3 f03f 9ffc 8574 f1ef e93f
00000090: dcc7 c4c7 4157 ea3f 9ced 3fe2 f33e c23f
000000a0: fb4d 5718 bcc7 d2bf 0667 c27b 2d6b a8bf
000000b0: 34e5 84e7 14af 99bf ce09 27cf 5734 eb3f
000000c0: c3fc 6bfa b180 d73f 25cb 6c63 01ed d7bf
000000d0: f78c 7d79 ec2f f83f 0c79 2154 4d92 e43f
000000e0: 7432 46d9 9de9 e7bf 13da df85 9204 f03f
000000f0: 0bf6 f0f1 6dbc a13f d6ec 9a97 3b37 c3bf
00000100: 6f39 744a b165 eb3f b4c4 110d 4a1f dabf
00000110: 87bf 9f01 08db f5bf 83d9 a62d d6e4 ef3f
00000120: e3a5 5a6f 6ff7 e1bf ae17 8901 879f 0040
00000130: 4f4f ff8b daee e0bf c454 e883 4ec5 0340
00000140: b628 1831 8e75 0040 1d0b 5f2d 4ff3 ce3f
00000150: 6226 d9da bde6 f3bf 9207 091d 5882 ee3f
00000160: f1c7 3634 76b9 f6bf 6d89 073d 9c2c d13f
00000170: f7cd b12f 4b35 0840 ac72 6657 ae66 eb3f
00000180: 8346 565a 6249 f53f 03f5 543b b36c e93f
00000190: 655b 318f 6614 d4bf 831e 0c34 0d2d df3f
000001a0: 8976 fb1e 0820 ea3f 117d d9eb b6df d43f
000001b0: 8399 5114 79c0 cf3f 7112 1b3e ab0d a1bf
000001c0: 4415 7f8c 2911 b63f 9466 f48a 4d08 d9bf
000001d0: adc3 df43 ce8a e73f 4d72 46a5 6218 f4bf
000001e0: 3dc4 f63f b32e e93f 3619 fca3 1abd e23f
000001f0: 0f27 228d babb bdbf dd87 b878 941c e4bf
00000200: 43a4 612f f121 f0bf 8a33 4797 44b3 f43f
00000210: fefe 9601 6b37 d53f 8dcd c611 3d3a e13f
00000220: 05e1 670b e5ff e9bf eb5e 4bf0 0f3f cabf
00000230: 1129 3795 3404 e53f 1679 1f70 6da6 ca3f
00000240: f5f2 3086 27a6 fe3f c0cc bf0b c01e d6bf
00000250: a53a f388 1f17 e8bf e48b b38d f3ec e53f
00000260: e69b 7642 0567 f5bf 2988 4314 3a4a f03f
00000270: 011e 5942 662e e93f 63d8 e389 adf6 c13f
00000280: 2c3d 89d1 04fe eb3f 1ce4 912b 4c9b dc3f
00000290: be93 e5b4 b1ee de3f d52e c1d0 6d07 c1bf
000002a0: 0bbf 4dab 2d9e f03f 91e5 c829 c19d cb3f
000002b0: 919d 03a9 f631 e4bf ee13 b6e7 dae1 ed3f
000002c0: e979 ee1c 7fa9 ec3f 8b03 f666 a3a1 d13f
000002d0: e2b8 63a4 b724 ee3f 0b84 3341 5812 bdbf
000002e0: 904b 2754 a0ec e43f a872 09bf f347 ddbf
000002f0: 572e 401d 543a ea3f 6f77 a947 bfa8 afbf
00000300: ad49 42ec 35fd cebf ab7a 6147 e5e1 e83f
00000310: 1cd6 21aa f297 fbbf 0798 4322 8b46 ef3f
00000320: 630d 3a98 c130 f03f 8672 aa0a 5e2a d6bf
00000330: 85f9 cce0 286c f13f 72a2 a251 8189 fe3f
00000340: f32e 172c 2564 f0bf 49a7 2ff6 ebc6 fabf
00000350: 704e cf56 ba65 e43f dbdb 8f13 9978 d93f
00000360: 9786 b99b edcb c63f c4c4 1da7 7379 e23f
00000370: e911 96c2 1cb0 ef3f 51ed 4f41 d47a f5bf
00000380: 3e82 5c48 b07f f1bf 048d 81a7 cafd f13f
00000390: 6f27 0a1d fce5 e13f a3a0 828d 52d4 91bf
000003a0: 3d41 3ccf cd1b ecbf 104b 3192 80eb ec3f
000003b0: 88b4 f3e3 e5b1 e03f eb14 b9b7 6ff2 f63f
000003c0: b1c9 1eee 1c31 ea3f 981b a43a 98a6 ed3f
000003d0: 709c 8f8e d621 00c0 d071 216b d770 f13f
000003e0: d68d 46cd 2c51 f03f d044 ecb1 a601 e0bf
000003f0: f1df 859d 7b0d d53f b17a 83c8 a5b3 f53f

layer2.weight f8 [128, 128]
-0.08148928571699521 0.05584888636646398 -0.13775595365205706 -0.06608404628157687 -0.2062650726219475 -0.11694596892016389 -0.04350780997831349 0.14515930876285768
-0.25609694498841296 0.05453368868178321 0.06422313570644346 -0.1457261817764554 0.24725042603988634 0.045923642227668905 -0.1366593986046685 -0.13972883593030755
0.1793066512443514 -0.08423997907066225 0.08921099184675793 -0.13134394968844165 0.09463082481820416 0.005874507061861831 -0.03035012859872142 0.24225652045157145
-0.08848720331289488 0.3365682339945742 0.09436246311261096 0.054650153203478706 0.006241247440107261 -0.02826800431521561 0.1455683280422598 0.242770038463633
-0.20993264026146688 0.15746587517581112 0.06484383362280152 0.08128882925747083 -0.12565778908243835 -0.5644258114993399 -0.008150814048243832 -0.07726226005154933
-0.022718552705296394 0.039280750535494784 -0.22348998065324766 0.2541447484125638 -0.03428247714725224 0.07408437459406268 0.3769841351439473 0.01028474438305318
-0.31507449165891105 -0.1392555493425136 -0.1915480056018073 -0.04029131923179785 -0.23050397960414826 0.1008655203760797 0.10561271558640814 0.018123969261699627
0.07972416947137126 0.0005218180296651169 -0.14151004617143784 0.08552698103189449 0.06562130942069297 0.03283574061048158 0.27859015529487635 0.10231129395238125
-0.08346677794414638 -0.021151809086494354 -0.05385889193137894 -0.11804737808625268 -0.019776948834205568 -0.06667315299053775 -0.23326545901669327 0.06752559663845202
0.07337823222963283 0.09735645151675659 -0.10880002889953953 0.16319498880566458 -0.10331603307488306 -0.1414124530345521 -0.06359416600631332 0.10685286243730824
0.10660950394572728 0.1234216335557685 0.31488114411871754 0.19014940867025934 -0.093969738763413 -0.16161279894947825 0.051926143222569277 0.22961921891468343
0.1551515705626978 -0.21010556622676826 0.052837600803272176 -0.07009139695388954 0.06057992991029383 0.1469021403005919 0.08407780568904281 -0.20625883913275395
-0.00392649088852622 0.024488082844700557 -0.019321842168621754 -0.05680620040898962 -0.11400306677021863 -0.269501120248124 -0.14477617555759228 -0.09570353038941065
-0.056113048431713636 0.007611269922262405 -0.24286500391377638 -0.13058090158871444 -0.020352893343421087 -0.03986657248492322 -0.011310061867223867 0.05517394357550417
0.16111892376196268 -0.04906734929811973 0.11581208028061875 0.10392834815333954 -0.016072706769265872 0.36475373898455515 -0.228913270590067 -0.09267887435942974
-0.055049186106154196 -0.010343057377892885 -0.3155753150578395 -0.08145804677640689 0.0812641748867798 -0.07410771198205657 0.0566961656841049 -0.17436888487227123
0.15794189095088265 -0.03407220548388341 0.09760102769736768 0.023120304387949615 -0.11702618810241183 0.04512171989359679 -0.13991031314457145 0.10752727894346956
-0.013155440404224266 0.12228839309115754 0.07844958568894429 0.060923203506146065 -0.03819594937117574 -0.024571953090647993 -0.030206127101432508 -0.08411774786250452
-0.15739359403519987 -0.06941347016483758 -0.06266492481781845 -0.02836430333825663 0.07900416568385461 0.05155044476209655 0.006750008969601914 -0.014220117303591365
0.028122334188241945 -0.08719121786698243 0.19275380843825501 0.14209359425811083 0.07270277711388966 0.033094439440550516 -0.07739699021067456 -0.03659589468660162
-0.10771169567604008 0.016250297506904272 -0.047493480564971984 -0.04054936614351587 0.016402976097152716 0.019151133356194755 -0.006132204931435644 -0.03287876980840831
-0.06455415068886883 -0.15578749631009342 0.062381575452953905 0.05149128189581058 -0.025852984657004915 0.03673768178400972 0.1139795176957355 -0.016476063128665754
-0.07685534721731893 0.24844609771624232 0.007633853881086805 -0.17885268115326663 0.0830789758293747 0.055223946618169296 -0.03539078667003691 0.061368883737425724
-0.03533606277855368 0.022756337931018795 -0.028980477610500224 0.02796081852877215 0.1020083397538368 -0.18054913516752275 0.07812744409566211 -0.12519662181103686
0.03919439360763844 -0.09428870635891881 0.03406809249320009 0.039205235049160056 -0.10095815021846967 -0.010411892654964935 0.04024803552196958 0.08605385473947082
-0.3582408010441253 -0.07555770128381063 0.08517566249709578 0.0726922190355856 -0.0013526379608631873 -0.028526462233677823 -0.18050384454012777 -0.04241888791411164
0.12022554119755205 0.014558112744531497 -0.05666410481575218 0.08720381032462207 0.10192470114044361 -0.06641713646293503 0.031886176839127096 0.035134417535121365
-0.006392305188086106 0.02578986306993823 -0.09967225552447692 0.024392273254641002 0.091010341390584 -0.03620147415540622 -0.02583657207767187 0.014222126414969342
-0.014532749909026968 0.07286015006849042 0.11655990587570791 -0.055246047718012226 -0.03928387932197714 -0.04277373939552905 -0.010466485904195072 -0.010160478399489263
0.004690686065443608 -0.03366282437080396 -0.023438849635961125 -0.008460580385847473 -0.03262572459596302 -0.041160735801046004 -0.19563879735108616 0.022461786874673144
0.06450771677775764 -0.09134053980708705 -0.11709467072162907 0.05372291310400947 0.06422884016467378 -0.07652283603331571 0.13212322757577816 -0.2097380212735277
0.19818572870047704 -0.07648718274419773 0.03345183036163072 0.04289427733745988 0.012570771541640598 0.03663343574598449 -0.1035252199868262 -0.04884051721819181
00000000: 38ff 2059 7bdc b4bf 0b89 eca8 3998 ac3f
00000010: 7ce7 e1b1 fca1 c1bf c314 9151 e2ea b0bf
00000020: 38f2 9bd6 e466 cabf 3b40 e9c7 2bf0 bdbf
00000030: df72 f4d9 a746 a6bf 2558 ec89 9494 c23f
00000040: ec2a d570 e463 d0bf 3046 d6f2 d6eb ab3f
00000050: 7978 816b ed70 b03f 4e4e 73d0 27a7 c2bf
00000060: 64b6 e1e6 e6a5 cf3f 354b f6ba 4d83 a73f
00000070: a95a d91f 0e7e c1bf 327d 506e a2e2 c1bf
00000080: c45e 8635 85f3 c63f cecc 1f53 c090 b5bf
00000090: b6f0 6c14 88d6 b63f d83b 38e8 e0cf c0bf
000000a0: 2fa6 c9c9 b939 b83f 4a82 5ffb dd0f 783f
000000b0: 1b2a 0ba7 1a14 9fbf 5187 4afc 4202 cf3f
000000c0: 2be8 57ec 18a7 b6bf 5944 787d 558a d53f
000000d0: 4ee6 096d 2328 b83f e7ed 75d9 1afb ab3f
000000e0: 1f9a 431a 6c90 793f 2668 3aa8 49f2 9cbf
000000f0: 1b30 23a4 fba1 c23f 1432 d3af 1613 cf3f
00000100: 7599 24a0 12df cabf 40dd 0e80 d727 c43f
00000110: b6d7 c100 9b99 b03f 18e3 303f 58cf b43f
00000120: ee61 4cef 8d15 c0bf ba0d 2db8 c60f e2bf
00000130: 9012 2fbe 5fb1 80bf 7fee 22a0 75c7 b3bf
00000140: 74dc 8643 8843 97bf f716 d345 9b1c a43f
00000150: ecd6 f1d6 519b ccbf 7b74 b855 e843 d03f
00000160: d7bc 580c 798d a1bf 4faf 068e 31f7 b23f
00000170: 5776 e310 8220 d83f 8df7 2e06 2b10 853f
00000180: 71a5 5e33 2e2a d4bf d036 1b37 20d3 c1bf
00000190: a83e d621 a584 c8bf d097 d354 10a1 a4bf
000001a0: 94b3 ff86 2781 cdbf 3b2d 4f9f 52d2 b93f
000001b0: 5e41 7c57 6f09 bb3f 31c6 02fd 168f 923f
000001c0: 9e8e 949c cd68 b43f 3798 99af 5319 413f
000001d0: a94e 2e4e 001d c2bf 3825 75a2 18e5 b53f
000001e0: 4ef0 e1e1 8ecc b03f e3b8 1fa0 d8cf a03f
000001f0: d7a8 7ecd 6bd4 d13f 9873 89ad 1231 ba3f
00000200: 1996 9229 145e b5bf f664 1ce1 d1a8 95bf
00000210: 405d e386 6493 abbf fa4d 425c 5a38 bebf
00000220: 648f d491 6840 94bf 9e95 9de3 7d11 b1bf
00000230: 1cae e17e a4db cdbf 6f7d 3485 5b49 b13f
00000240: 0221 aa73 eac8 b23f 2caf 5137 5aec b83f
00000250: 9768 ed95 51da bbbf 1a4d e5c9 92e3 c43f
00000260: 1386 3567 eb72 babf a5e8 83a2 cd19 c2bf
00000270: a2a8 360f b547 b0bf 44f8 a68d b55a bb3f
00000280: 2dc2 e3ac c24a bb3f 0fad bd67 8f98 bf3f
00000290: 2f7c 073e 0327 d43f 21d7 cbd9 d056 c83f
000002a0: 1a72 cd9a 660e b8bf 2930 0d6b baaf c4bf
000002b0: c08d e53d 1096 aa3f c5c4 e29d 2964 cd3f
000002c0: 88b2 beb4 01dc c33f 6565 d33b bde4 cabf
000002d0: f3f7 e5ae 870d ab3f 67dd a581 82f1 b1bf
000002e0: 4272 8423 5504 af3f 50d7 2678 b0cd c23f
000002f0: 63fe c081 1f86 b53f 6e05 4b8c b066 cabf
00000300: 55a8 445f 3915 70bf d1c2 d66b 6713 993f
00000310: 1ecf d9e0 1ac9 93bf 6cea eec9 b315 adbf
00000320: a6fa 6b13 4e2f bdbf 1ade 6ca0 813f d1bf
00000330: 9141 a195 0688 c2bf ec5e 22cd 0680 b8bf
00000340: 0441 c977 d9ba acbf 3bb5 5ab6 fe2c 7f3f
00000350: cb87 9350 3316 cfbf ee21 e7fe dfb6 c0bf
00000360: aae7 278d 63d7 94bf e37e 0d32 6469 a4bf
00000370: 5507 afce ba29 87bf 2b0c 7f56 c23f ac3f
00000380: 3484 297e 8b9f c43f c0db 1209 5b1f a9bf
00000390: c977 4949 dca5 bd3f 3226 7258 0c9b ba3f
000003a0: 4291 ba17 5d75 90bf 9712 0211 2058 d73f
000003b0: 9a01 67b1 074d cdbf 4d62 677e cdb9 b7bf
000003c0: a4a4 fe2b 682f acbf 07fb 6da9 bd2e 85bf
000003d0: d34a 66ce 6232 d4bf a894 e63e 6fda b4bf
000003e0: 05a3 799d bacd b43f 6025 5817 b9f8 b2bf
000003f0: d7f9 d7a2 4707 ad3f cdb2 fb38 b851 c6bf
00000400: 55b6 269c 7037 c43f 8901 8380 e971 a1bf
00000410: a924 0486 61fc b83f 9515 e15c d9ac 973f
00000420: 38e7 aca2 6df5 bdbf cd85 90ae 311a a73f
00000430: 6b1e aac5 94e8 c1bf 4e75 7d62 e886 bb3f
00000440: 96ab 6752 3df1 8abf 1dc5 01c9 4a4e bf3f
00000450: 3534 eba4 4515 b43f 0abe 407d 5331 af3f
00000460: 2d1a c762 6b8e a3bf e755 b1db 6329 99bf
00000470: 526b 28e0 5aee 9ebf 4b27 15a0 bd88 b5bf
00000480: 2a94 7d29 7925 c4bf 7985 42c8 14c5 b1bf
00000490: 75e6 b2fa ce0a b0bf 12b7 d82c 880b 9dbf
000004a0: c923 dcf3 9d39 b43f 2ce6 b1e4 d164 aa3f
000004b0: b0b6 5abc e5a5 7b3f 6819 1dd6 6f1f 8dbf
000004c0: bfb2 80e6 19cc 9c3f 9db2 3ce5 2952 b6bf
000004d0: 0afc b523 28ac c83f 93a3 2776 1f30 c23f
000004e0: 1b54 0832 a69c b23f 583a 271e c1f1 a03f
000004f0: 7e80 c305 4ad0 b3bf 9f91 b175 b2bc a2bf
00000500: a646 5362 fe92 bbbf 72a4 5e01 eba3 903f
00000510: f77a 99c3 1051 a8bf fc7b ebf2 e2c2 a4bf
00000520: 08ce 9317 f1cb 903f 58e6 c8cd 5a9c 933f
00000530: 164d 203a 151e 79bf 7fa1 1e72 7cd5 a0bf
00000540: 889d 07ee 9e86 b0bf 7a87 e33c d8f0 c3bf
00000550: 7604 e354 7af0 af3f 3612 8bb7 105d aa3f
00000560: 9f5d 6c6e 3479 9abf 411b 960b 48cf a23f
00000570: f4c2 eafc c22d bd3f f7c1 37e1 19df 90bf
00000580: 3a34 d2c2 caac b3bf 564a 41ec 14cd cf3f
00000590: 5af7 2f0c ad44 7f3f 0e77 2d08 a5e4 c6bf
000005a0: 651e 2cec a944 b53f 6db7 5c29 5046 ac3f
000005b0: deb0 a7be bd1e a2bf b9dd 4909 be6b af3f
000005c0: 5aaf 0184 9117 a2bf 5505 c3fc 6f4d 973f
000005d0: f4fc 3cee 0ead 9dbf 1414 9ac4 c2a1 9c3f
000005e0: e677 29f3 371d ba3f c6cb 6eeb 3b1c c7bf
000005f0: 9299 4f01 2900 b43f 34c1 1f62 7106 c0bf
00000600: a174 769d 4911 a43f 8e96 31fe 4d23 b8bf
00000610: f1d7 307e 5f71 a13f 3e7c bc64 b512 a43f
00000620: a9f6 73b1 64d8 b9bf d850 8a93 d452 85bf
00000630: 1618 97f8 639b a43f b9fe cc1b a007 b63f
00000640: 7bf3 24d3 6aed d6bf 4d93 f9df bf57 b3bf
00000650: bb14 d77c 12ce b53f 5d77 6e0f f59b b23f
00000660: 8dfa 88f3 5f29 56bf 7ef7 7479 0a36 9dbf
00000670: 2b12 8dfe bf1a c7bf 01c9 a5b0 edb7 a5bf
00000680: fa5e 96df 19c7 be3f dcb0 08d1 a4d0 8d3f
00000690: 08e0 14da 1303 adbf 764b 6e29 fd52 b63f
000006a0: f082 0dba bc17 ba3f 1995 00a5 b600 b1bf
000006b0: 51e2 6f8d 6253 a03f 8001 8e6c 23fd a13f
000006c0: 137f a95b d12e 7abf 7b97 d069 a868 9a3f
000006d0: b2d2 cbf5 1e84 b9bf 2278 9dbf 49fa 983f
000006e0: 7ccf de27 744c b73f c300 21e7 ff88 a2bf
000006f0: 8017 7500 e774 9abf 02ac a77e 7d20 8d3f
00000700: 3b49 a4ac 58c3 8dbf 3ecf b979 f6a6 b23f
00000710: 24d1 c2b7 ded6 bd3f 903e 5dc0 3549 acbf
00000720: 7953 e541 041d a4bf 6bb0 a987 70e6 a5bf
00000730: bded 4cf5 736f 85bf e90a 8053 04cf 84bf
00000740: d03b f373 8a36 733f e5f5 86f3 403c a1bf
00000750: e7ba 9192 5a00 98bf 67c8 7fe0 c753 81bf
00000760: efc1 4ba8 51b4 a0bf c721 4a1c 0513 a5bf
00000770: ddd0 392e b10a c9bf 5e51 2500 3900 973f
00000780: ed6c e6e5 9383 b03f 933a 45f7 1762 b7bf
00000790: 7a08 4995 eaf9 bdbf 53b7 a7d5 9181 ab3f
000007a0: 00a0 f71f 4d71 b03f e306 2926 0097 b3bf
000007b0: 6e6e bdf6 69e9 c03f a47c 0c0b b2d8 cabf
000007c0: 95b7 a663 265e c93f bf12 73fc a994 b3bf
000007d0: a501 ca2a 9920 a13f e12b b31c 3df6 a53f
000007e0: 1e32 4165 b4be 893f 9830 f020 9ec1 a23f
000007f0: 7295 27fa a080 babf defd 57d0 9f01 a9bf

layer2.bias f8 [128]
-0.10485263667119667 0.06438026677246615 0.029354365962785657 0.08931950692541034 -0.05496227511904904 0.07670525368227932 -0.02797432393919348 0.11323430792192671
0.1597557312716513 -0.035155417119165484 0.21204518174005837 -0.10837581307515089 0.03189365821008833 0.04021866046269725 0.4466362562899978 0.08011323083362713
0.05799690555596388 -0.1426738927386103 0.056666971319343805 -0.03639534920996341 0.09389192108135025 0.14447454729819648 -0.09930012285710288 -0.05265278053359994
0.04133016905005825 0.26388040615368624 0.1345701395675461 0.045360016521821866 -0.1510613291067788 -0.10802456769015202 -0.017639251409467115 -0.05352172197614971
0.01891974510321617 -0.06532841093507216 -0.035466231847578855 -0.06050498398757877 0.027491758485008122 -0.09310518478056858 0.07808872511249744 -0.11599082902790143
-0.08797586468117005 -0.01645932481810511 0.24256735459862963 -0.08306546964615238 -0.05828054842829948 0.04413499385983942 0.01226556886066747 -0.07418191901590276
0.06250886937194608 0.257602324311528 0.015366524471460304 0.06098947460075775 0.4123142817340508 0.2919137025157888 -0.19896693739784327 0.007919458443256233
0.14357034779004466 -0.10818899832342989 -0.03886031043412006 -0.023364797632141714 -0.18451204507309538 0.03403844929901151 -0.04931883021981076 0.03994454698657764
0.28443884511901246 0.06780801964979116 -0.12769399266002646 0.4227978740424902 0.12528398235242175 -0.004412846043896718 -0.005586066203464766 -0.026090226629192404
0.05596584139170713 0.0323465039216131 0.1653731974201822 0.19192912064864542 0.3375113466205881 0.09682254186738441 0.18561406586233398 -0.1560145903534455
-0.3028162123690968 0.0851849021134613 -0.11481956587270917 -0.019280131508283983 -0.11881090362494376 -0.07004678477991924 0.06990300878739081 0.1115916478459515
0.08947841665349117 0.1319187687130727 0.04487385291366565 0.10929855901768046 -0.0056546250791083 -0.14006596566086918 -0.14431829499621943 -0.004563707792608835
0.09434745328112182 -0.025724807001976536 0.023106241642429 -0.007373078414567063 0.012688908357319865 -0.20258411661795092 -0.013554700818827377 0.2092240960862666
-0.12605764755615123 -0.06806056888202794 -0.05555904865912813 0.00894067119325841 -0.027249099132792956 -0.021649221135671824 -0.08604307003303088 -0.010218207999193549
-0.10573874970839876 0.03620417196644307 -0.07168756730979269 -0.03841776215661752 0.1399875373571099 0.07330130180345054 0.01955688685388907 0.028661038184378453
-0.06146496548377956 -0.0844030674819615 0.16645550767220552 0.07131982769312967 0.06534760997782213 -0.04494036376383265 0.14262268202430345 0.10108729256830754
00000000: f5f3 6655 9fd7 babf bba5 4ba4 397b b03f
00000010: aa4c 3827 120f 9e3f 27b5 23a9 a4dd b63f
00000020: fed5 4cec 0324 acbf 882c ff9b f4a2 b33f
00000030: 5343 c919 4da5 9cbf 9253 4f71 ecfc bc3f
00000040: ef84 9434 e072 c43f 01ad 9b0d e4ff a1bf
00000050: e088 6ce8 4b24 cb3f 81ce d56c 84be bbbf
00000060: 789c ec95 5d54 a03f fb9e c04e 8a97 a43f
00000070: 6e4c 7e3c b095 dc3f 9b46 68fa 4c82 b43f
00000080: 199e 4339 c5b1 ad3f 7c15 a75b 2343 c2bf
00000090: 6bef 2809 7403 ad3f 49a5 2a45 69a2 a2bf
000000a0: d02b 670a 4d09 b83f 3605 e057 247e c23f
000000b0: 50f8 289c bb6b b9bf a6dc de24 4ef5 aabf
000000c0: 3ef9 d058 3a29 a53f d20e 9fa4 6ae3 d03f
000000d0: 62fa 3a26 9839 c13f 90b5 0397 6d39 a73f
000000e0: a719 1a46 fa55 c3bf 39cc 6481 7fa7 bbbf
000000f0: a6e4 b71f 0610 92bf e4bd 06fb 3267 abbf
00000100: 472d de99 b25f 933f 9a3d 77dc 5cb9 b0bf
00000110: f89f cb43 a128 a2bf b27c f15e 82fa aebf
00000120: 901a 69ae cc26 9c3f dd77 b8cb bdd5 b7bf
00000130: 0965 8b68 9ffd b33f 3d8e 4f31 93b1 bdbf
00000140: 2a98 a415 9685 b6bf 0865 3b97 b6da 90bf
00000150: 5b07 8a73 720c cf3f 729e 8e53 c743 b5bf
00000160: b627 fcb2 f2d6 adbf 7e6e 79a6 dc98 a63f
00000170: 97ba fcc8 b01e 893f 00b9 2014 96fd b2bf
00000180: f695 a9cd 9400 b03f 8da9 9275 8e7c d03f
00000190: 1e00 7700 7c78 8f3f def6 9e2d 033a af3f
000001a0: b42c ee70 5b63 da3f 41d0 63cf b6ae d23f
000001b0: 3ef4 8da4 bf77 c9bf 7364 20b8 1338 803f
000001c0: cd7f 375e 8360 c23f a10c 9631 46b2 bbbf
000001d0: 9d99 daa4 7fe5 a3bf 1eb1 d406 f1ec 97bf
000001e0: 844c a737 179e c7bf 3874 17d5 7c6d a13f
000001f0: 10fc bd55 5140 a9bf 4bf9 eb95 9c73 a43f
00000200: fbe1 5ffc 3e34 d23f ac68 cdca dd5b b13f
00000210: d06b 2fd9 4658 c0bf 332c 75d0 1e0f db3f
00000220: 1349 7537 4e09 c03f a098 0d57 3413 72bf
00000230: d7c6 833a 6ae1 76bf ad6e 7878 65b7 9abf
00000240: 10e6 f004 8ea7 ac3f 616e f790 b88f a03f
00000250: 40fe 46ed f22a c53f 1401 2b28 2291 c83f
00000260: 0ceb f030 c999 d53f 8b04 d6b2 5cc9 b83f
00000270: 5035 47a3 33c2 c73f 4e29 a23d 49f8 c3bf
00000280: 25ba 3440 5761 d3bf 08b6 b080 adce b53f
00000290: 723c 5da8 d064 bdbf 7aa2 29b9 2bbe 93bf
000002a0: 0a33 7a31 646a bebf 1ad8 d109 96ee b1bf
000002b0: 9c43 a2e0 29e5 b13f ed4e 012e 4591 bc3f
000002c0: cd7f 39b9 0ee8 b63f 47f5 acd6 b6e2 c03f
000002d0: e25e 6ba5 b4f9 a63f de19 7b88 fdfa bb3f
000002e0: 0018 93dc 4d29 77bf 59e6 e57a aeed c1bf
000002f0: 3993 9c9a 0579 c2bf faec 7bfb 64b1 72bf
00000300: 78a5 4d9a 2727 b83f dddd 1393 9a57 9abf
00000310: f835 c0a0 29a9 973f ac21 95aa 3b33 7ebf
00000320: 0f42 5573 a4fc 893f 4715 c8bd 46ee c9bf
00000330: c49a ca25 91c2 8bbf f9e2 1ced dac7 ca3f
00000340: e009 d530 a822 c0bf d0d6 7edd 6a6c b1bf
00000350: 96c4 f951 3c72 acbf 5ae0 0893 7c4f 823f
00000360: 04b5 7b16 30e7 9bbf 46dc 0ba3 362b 96bf
00000370: b6dc d62b eb06 b6bf 252d 71a9 48ed 84bf
00000380: 6de1 ead7 b111 bbbf 4c36 266d 5a89 a23f
00000390: 7b17 20cd 1d5a b2bf e0aa 1830 7eab a3bf
000003a0: 4cef 6593 1ceb c13f 0203 00c6 dfc3 b23f
000003b0: 71cd cb75 b806 943f 976c afb6 5159 9d3f
000003c0: 4188 3401 5678 afbf 0a61 847e 709b b5bf
000003d0: 3c79 d800 6a4e c53f ac93 7f27 0442 b23f
000003e0: 84fc b9f7 9eba b03f 68a2 4561 6c02 a7bf
000003f0: 0e29 7bc5 7541 c23f a23f 9f57 dbe0 b93f
