COLA_Emulators/PCE/wCDM_PNN_HIGH/MODEL_Z0.244.pth (torch, 192382 bytes, 10 tensors)

layer1.weight f8 [128, 25]
0.027529574257980985 -0.0678654032879913 0.12063445215298665 0.12305298822197938 -0.267450396025889 -0.21621285472221094 0.17301846877442956 -0.18153118366138343
0.1485409564447006 0.17603081133692858 0.06105342969246121 -0.08854648100876002 -0.10708579509619395 0.0983566952535425 0.25767375701125367 0.1760614730393474
-0.12953282442932507 0.09189736405732869 -0.040016756921363375 0.04365220288589034 -0.10673169762404933 0.0963314233267747 -0.04161713987177286 0.009113188409207712
0.0081990324624629 -0.017840741080289806 0.12902303438327803 -0.08395326525255153 -0.4207736479084171 0.1432754659473454 0.05020850255605132 -0.14171727056101086
0.19762640341134713 0.08837148941638306 -0.3706491130464503 -0.44232156651201393 -0.16602169154764643 -0.08102744872585664 0.18291247771831876 -0.2034600777715304
0.1509422627158435 -0.235662341503781 0.12546319486653792 -0.14044709355855794 -0.20063711451430383 0.019708485313147818 -0.016417858538767437 -0.04024587491706025
0.025529594508208735 0.15021758641065056 -0.03916945283453607 0.05752874851570631 0.06094406412570368 -0.20384478935465802 -0.06158622446470746 0.08358204327380317
-0.054285575911594636 0.10066400591659622 0.20053175591525335 0.2664331441791147 -0.4029530050919795 0.13713427114509383 -0.13241760178653963 -0.08110682797774178
-0.15157069415938654 0.2609469252380722 -0.11782279495274427 -0.14504637497709166 -0.34309584618655303 -0.2523041766681073 -0.15491964635528124 -0.14892745879897332
0.12956593819186804 -0.009051316754674946 0.38129576530668763 -0.022815469233157908 0.03886213108462979 0.04692912206958046 0.2772323131402475 0.15176383923013947
-0.06838531648570223 0.25007568549742976 -0.04919357748332149 0.06815879684836265 0.1417071271733748 0.0532631791063366 -0.07279601428460089 0.1382160415126187
-0.04744699095388683 -0.055962522423363276 0.17455576065777312 -0.0068531839069362775 0.009933064798151335 -0.19885194025672198 0.044506322543281476 -0.07874490867502552
-0.07088088133595286 -0.3028759218096841 0.24176968546447566 0.03414689891144547 -0.04380689985570278 0.20223453189428228 -0.04181471674122398 0.1687995744693767
0.1691243920997698 -0.16647089937993825 0.18033280534621554 -0.02228731762172019 -0.29506133995202555 0.028275955782265497 -0.12745134550177506 0.11076367858215323
-0.1569259710365448 -0.03256069722658868 -0.13712846409902524 0.010768801997100416 -0.12432488195214436 0.08021039872943539 -0.05184930045383703 0.1312864879286501
0.05741747550922066 -0.07326985572940936 -0.08865921882380522 0.03505907908034941 0.07177665445790285 -0.04087619850524444 0.040164831305209654 -0.007043396586237787
-0.3674979793937029 0.05971248196708306 0.021223410515945545 -0.2028942611014074 0.15053559066963984 0.1075228037382089 -0.49644025208713644 -0.20224657967943294
-0.030180919879725352 0.09581842117411336 -0.09648813732135351 0.22910543856353444 -0.16315694921936655 0.02800666679722125 -0.1851731501876547 -0.28297733844533407
-0.09070415538284937 -0.3250173687688569 0.026691251533329872 0.16308623073541198 0.11703419936520847 0.1239855287810805 -0.045286078766717475 0.1676662126433901
-0.1260953831468374 -0.3548693388206486 0.2700065022331385 0.17226584099473552 -0.11537928461654308 0.054223974848336 0.11816959007572556 -0.07995506781064077
-0.08147121327448646 -0.19685783490077627 -0.05277405638056783 -0.1151175386600953 0.028275394269133787 -0.12344492573411163 -0.20588987121931515 0.09390737502925812
0.026766894608029935 0.19511136645954613 -0.05549902696567341 -0.16104003249835808 0.09616451384670031 0.20917669913030792 0.22566419829718068 0.031184967503205065
-0.011876976658938028 0.0877781905415054 0.23044592849465032 0.15815441055889515 0.23380766102686268 -0.4642268131652024 0.14091161149150125 0.07043031179513044
-0.3283206012616479 -0.024659698670072352 0.0837927211526663 -0.008924589565060901 0.0610415551289409 0.11550085641728114 -0.2845533158018312 0.17757836449289788
0.20044062010934158 0.053022824684896545 0.0998832060699229 -0.10128914045489616 0.2757594017678519 0.2140605980045826 0.05044137537417869 0.09477250817326564
-0.007100490697497139 0.13992379452793755 0.1006709044097161 0.0004781410344771792 0.25298306934799586 0.05681114257316325 0.020584284712030776 0.18990972157858707
0.1348229199526403 -0.12109327831076161 0.13720786535829838 -0.0026284856950504923 0.10886164718044296 -0.10534890378748384 0.24120344008541886 -0.06611575172514131
0.007854011116827219 0.2325852336730624 0.2164364358708276 0.1264257780022447 -0.0946183871480687 -0.05307914778596302 -0.2622968773794827 0.0821482691148966
-0.21021785479391855 0.0266566291499047 -0.04680154109826475 -0.08801020295919293 -0.015324761095660498 -0.22603323060358965 -0.015387546760585836 -0.12748333174717066
-0.005653191696653824 0.01906879143928376 -0.15727236527477037 0.16529326306357345 -0.014931925047445968 0.07670491385344276 -0.1962719640217576 -0.10249915679682195
0.021445218999507226 0.141944452949274 -0.1641384096391715 -0.02251463175609731 0.15993005645274727 0.17884913530849952 0.05934817968674282 0.014139854422661002
-0.05290867520692377 0.13895102546666324 0.04427324911672908 -0.11656108748825349 -0.1988815312579477 -0.106147879848171 0.14115915208930951 -0.24870205473634519
00000000: e47d 7174 b630 9c3f a1da a687 a05f b1bf
00000010: aa98 c442 e6e1 be3f 46a6 1690 6680 bf3f
00000020: b5f0 0e44 e81d d1bf 63db 00e2 dcac cbbf
00000030: f6bd 7e1c 7825 c63f dcd0 83f0 693c c7bf
00000040: 56f5 05db 6303 c33f ede5 e378 2d88 c63f
00000050: 63ee ac27 6542 af3f 45c7 1b70 fbaa b6bf
00000060: 46e7 cd83 f969 bbbf f7e3 7485 e72d b93f
00000070: 77a6 d911 ba7d d03f 0d11 65ae 2e89 c63f
00000080: e25a 5716 8894 c0bf 45ff 36ed 9586 b73f
00000090: 7ad9 898c 137d a4bf a125 96df 9459 a63f
000000a0: 10ea bdbe c452 bbbf 4100 c418 2da9 b83f
000000b0: c296 677d d74e a5bf 7d4c 7071 efa9 823f
000000c0: 42ed 4782 a7ca 803f abad e7dd d744 92bf
000000d0: adad 8da8 d383 c03f 78f1 a610 f67d b5bf
000000e0: de41 3298 f4ed dabf b710 48b8 d956 c23f
000000f0: ea32 ebc8 edb4 a93f 2241 2ba1 ca23 c2bf
00000100: d229 bd6d d24b c93f 6832 f190 839f b63f
00000110: badb b40e b7b8 d7bf 8003 9f1d ff4e dcbf
00000120: bfd6 cfe3 3240 c5bf 5f1a 5b02 37be b4bf
00000130: 144e ea12 ad69 c73f e400 09d6 fa0a cabf
00000140: e271 f978 1352 c33f b529 d400 2f2a cebf
00000150: a1d7 668f 2d0f c03f 367d d39c 2bfa c1bf
00000160: 72f3 991a 7aae c9bf 5aa2 7e0f 762e 943f
00000170: a339 fad5 d7cf 90bf 04a7 2279 1b9b a4bf
00000180: 2eba f815 6e24 9a3f 697a 7572 543a c33f
00000190: 5c64 dabd 040e a4bf 3dd7 e87a 6874 ad3f
000001a0: 5746 9c74 0f34 af3f 797f de07 9617 cabf
000001b0: 8889 ebc7 3a88 afbf cad2 64fe a165 b53f
000001c0: 4ca1 5eaa 51cb abbf 42cf 4bc5 1dc5 b93f
000001d0: 7294 bb4a 06ab c93f ca76 349a 3d0d d13f
000001e0: 727a ac66 fbc9 d9bf 094f dda4 9d8d c13f
000001f0: 9541 8b5a 0ff3 c0bf 0d8e a5c5 6ac3 b4bf
00000200: a529 3923 ab66 c3bf ebe9 78bb 5ab3 d03f
00000210: 179c 0b7b a229 bebf fa08 772e e190 c2bf
00000220: b5f0 b047 48f5 d5bf 2fc2 db6a c025 d0bf
00000230: ed49 4d2f 68d4 c3bf 194d 8212 0e10 c3bf
00000240: 2dd5 9add 9d95 c03f 3597 932b 7f89 82bf
00000250: ea1c 865a 2667 d83f 3e17 cc38 f05c 97bf
00000260: 4369 1fbc bce5 a33f 63a5 0909 1807 a83f
00000270: 1d3c 9599 2cbe d13f a0bb 1a5b ff6c c33f
00000280: e02b d539 b381 b1bf 981e af72 3d01 d03f
00000290: 899f ed8c e62f a9bf 36ff 65db da72 b13f
000002a0: d2ed 688a 7523 c23f 3077 afb8 4f45 ab3f
000002b0: 9eaa a174 c2a2 b2bf b525 0a31 10b1 c13f
000002c0: 0190 e1d4 f84a a8bf 7c53 38a7 1ea7 acbf
000002d0: c440 add9 d757 c63f b36b 0f8c 1512 7cbf
000002e0: ac28 a863 c957 843f ca0a 13fa fa73 c9bf
000002f0: 32c6 935f 88c9 a63f 8b59 7c57 a028 b4bf
00000300: 1ae4 3fdb 3f25 b2bf d3c7 bab0 5162 d3bf
00000310: f5f7 1d1e 4ff2 ce3f 7a40 2bcc b37b a13f
00000320: f653 70a4 db6d a6bf c3cc 4d36 d2e2 c93f
00000330: 6545 ca11 bd68 a5bf 3a5c f675 399b c53f
00000340: 471f 833a dea5 c53f 0a49 491e eb4e c5bf
00000350: a4d0 ad36 2515 c73f bc12 3491 7cd2 96bf
00000360: d61a 5af5 48e2 d2bf e152 6445 5ff4 9c3f
00000370: f472 6160 5350 c0bf 2b52 1829 025b bc3f
00000380: 435c bf74 2616 c4bf 8a41 72b3 cbab a0bf
00000390: 94f8 53ee 6c8d c1bf 0b3c 2823 f40d 863f
000003a0: e442 1066 c1d3 bfbf 4290 572f ab88 b43f
000003b0: 2b17 8ad3 fd8b aabf 4eb6 07e2 fecd c03f
000003c0: 18dd 0fc7 d265 ad3f a0f4 2332 d0c1 b2bf
000003d0: 874f 56dd 5eb2 b6bf cbec 277c 43f3 a13f
000003e0: 0253 836f f45f b23f a997 879f b9ed a4bf
000003f0: a17a cf19 7c90 a43f 1fb3 d95f 89d9 7cbf
00000400: eae3 b53e 1685 d7bf 5758 6c6a a292 ae3f
00000410: db61 4df8 96bb 953f 3402 fd6b 70f8 c9bf
00000420: dcb2 670f c044 c33f c93c a14d 9d86 bb3f
00000430: bb76 c855 adc5 dfbf 1cbb b946 37e3 c9bf
00000440: 79ef 623f bfe7 9ebf 6313 4c59 8e87 b83f
00000450: 8f46 3f52 72b3 b8bf bea9 fbb6 5353 cd3f
00000460: 7193 81b0 53e2 c4bf d12b db97 c7ad 9c3f
00000470: 759e 13f8 c0b3 c7bf f56f 88fb 4c1c d2bf
00000480: 400b fb34 6338 b7bf 2ca1 5fa6 15cd d4bf
00000490: 2629 b391 f354 9b3f 61df b775 02e0 c43f
000004a0: 5380 c90a f4f5 bd3f 01c1 4aff 83bd bf3f
000004b0: 78c5 88a6 bc2f a7bf 1049 f921 1676 c53f
000004c0: a768 65bd e423 c0bf fd9e 25e3 2db6 d6bf
000004d0: 961d 335a c947 d13f 6029 a59c ce0c c63f
000004e0: 9d5d 102e 7f89 bdbf 25f5 43ad 3ec3 ab3f
000004f0: 9ec8 c1bc 5c40 be3f 086b 6571 ef77 b4bf
00000500: f750 9424 4cdb b4bf 151b 6e35 a332 c9bf
00000510: 5aae 767c 3305 abbf 5eba bdcf 5778 bdbf
00000520: 3274 ab96 39f4 9c3f bb99 e22e 169a bfbf
00000530: 5978 bb6b 995a cabf 4597 9a50 500a b83f
00000540: 3def d3e3 c768 9b3f 82c4 02c5 68f9 c83f
00000550: fc05 8e53 5e6a acbf 50af 76b4 f59c c4bf
00000560: 87df 01d2 3c9e b83f a9c9 ec54 4dc6 ca3f
00000570: e53f c87f 90e2 cc3f d75c 36be f3ee 9f3f
00000580: b19c 9ad2 f452 88bf c285 ada9 a178 b63f
00000590: 99c0 308f 407f cd3f 45c8 885a 673e c43f
000005a0: 9012 d5d0 68ed cd3f 5a22 1e61 e4b5 ddbf
000005b0: a9c7 7d45 6409 c23f 95a2 ce8d b807 b23f
000005c0: bb65 4169 3403 d5bf a4c9 445d 6440 99bf
000005d0: 3d59 fe94 7073 b53f 724d 7f22 0e47 82bf
000005e0: ba99 f3b5 d640 af3f 08e3 f8d0 7691 bd3f
000005f0: 1895 551c 1f36 d2bf 68b1 fc49 e3ba c63f
00000600: 2f6d 14ca 09a8 c93f e724 edc3 ce25 ab3f
00000610: 346d 7d1f f291 b93f 4398 b1c9 15ee b9bf
00000620: a313 0ac3 0aa6 d13f 7e5c e571 5666 cb3f
00000630: cfd8 31b3 73d3 a93f 6700 2ad7 0243 b83f
00000640: ca03 4d75 6715 7dbf eb00 b7dc 05e9 c13f
00000650: 8435 1982 91c5 b93f 7cdf 1f1b e055 3f3f
00000660: 5aa5 52e6 df30 d03f c4dd cc9e 5916 ad3f
00000670: 8051 99f6 0b14 953f fbad af35 f64e c83f
00000680: 0952 f99f e041 c13f 9c32 1c16 f8ff bebf
00000690: eee2 3bff 0690 c13f 27d4 2483 5588 65bf
000006a0: d5be 6d5e 5bde bb3f 27cb 6f50 25f8 babf
000006b0: b1be 6c1b c1df ce3f aaf1 683f f6ec b0bf
000006c0: 6611 1d87 c315 803f dd43 145a 5ac5 cd3f
000006d0: 4b2f dd6a 30b4 cb3f 320c f24a b82e c03f
000006e0: 78b6 661e e938 b8bf d136 aea7 302d abbf
000006f0: ec04 8cd7 78c9 d0bf 3980 4541 ab07 b53f
00000700: 2505 b02d 6be8 cabf 1488 ae19 e04b 9b3f
00000710: c3c1 d620 5ff6 a7bf f08e 6c2f d687 b6bf
00000720: 3f8b cc9d 9662 8fbf de35 a02a a8ee ccbf
00000730: 3ab0 d190 8183 8fbf d9d1 51b2 5f51 c0bf
00000740: 2548 4817 cd27 77bf 0383 6cee c486 933f
00000750: e3b8 b538 8021 c4bf d6b7 8d63 5428 c53f
00000760: ebf8 f50d a194 8ebf ad6a 71e8 eea2 b33f
00000770: 772d 4c91 701f c9bf 5657 4f7e 623d babf
00000780: dba4 0849 bcf5 953f da03 a25f 3c2b c23f
00000790: f576 b5c6 7c02 c5bf f2b1 4b5c 130e 97bf
000007a0: 7855 0e8d 9678 c43f 6fb0 8849 87e4 c63f
000007b0: 87d3 a975 e262 ae3f 9334 8622 5bf5 8c3f
000007c0: 1079 608b d816 abbf 67ff 0faf 25c9 c13f
000007d0: c788 16ba fbaa a63f e38c bf8a f2d6 bdbf
000007e0: 3701 4434 f374 c9bf 72d5 7ce8 812c bbbf
000007f0: 2c99 e0ca 8011 c23f 8732 c50b 78d5 cfbf

layer1.bias f8 [128]
-0.15200144246133554 -0.12191779558794215 0.07636664230136067 0.006959120982696279 0.025599931600919258 -0.15796490426577053 -0.21474056006812275 -0.2797548420729812
-0.12172549509164488 0.06280445786451526 -0.6976194810703477 0.06186443878358255 -0.1762824393346916 0.07207130993983597 0.09413324832620486 0.08681315574521853
-0.18662416101955404 0.037629129467034686 -0.010244786858982228 -0.09295225723194418 0.09637452764912789 -0.20658831591537458 -0.04342354818271963 -0.41765283211218823
-0.16737945639177146 0.1951536601474339 -0.3641800978477941 -0.0701877332465204 -0.1673474562079414 0.17795155207747596 -0.24602521744232675 0.017574867231883715
-0.057514310528128346 -0.1724416287125994 0.13971942557977074 -0.03183601057517397 -0.10955643252186191 0.15834634298224368 -0.14258826153411738 0.25216712407288333
0.1988635621164166 0.03400713342507782 -0.11990928035590824 -0.056670283863838426 0.031241432072844074 -0.1522582689826875 0.11889276649376342 -0.17271158311666418
0.1406771909534249 -0.0467890473088102 -0.1787337460328093 0.10269702380319186 -0.0875022666998416 0.219263860039946 -0.11980364033179443 -0.19652501029699412
0.005564603434102706 0.2553119923917858 -0.277995957044881 0.13510122403613056 -0.054054341394316294 0.049501147197713515 -0.4520184045091234 -0.22156888744942557
0.1058106693427967 0.012725773288026692 -0.330880678198228 0.1857418070176195 -0.12515345239460401 0.08780012845053087 0.05543533983078964 0.08212143679245185
-0.09259154756931284 0.1845525019971178 0.19945710940446934 -0.11216267840357343 -0.1553004307993138 0.013048478974604406 0.09089006245350868 -0.03487440633891675
0.20757849511884124 0.1699634746064156 -0.2228225709991674 0.028097371153012966 0.040787036558849576 -0.41955315731406473 0.07503593410698424 0.05187984565709414
0.05485482745998537 0.10844238223109436 -0.1516579408031946 -0.14571018094353927 0.04343991770890402 -0.1108117311020533 0.0016469995619380453 -0.22055429641699642
0.04537866087247647 0.06515314464086534 -0.020639119996033108 0.2251829607980902 0.07943549513371202 0.15126911316431824 0.0495754313031894 -0.0892282652005337
-0.0691066431022949 0.048258712058970164 0.02235176358652277 -0.027032489085394074 -0.012434740123659681 -0.22921219701234938 -0.015255271180604428 -0.1343620512669834
0.16854035241225843 0.3685047028773189 -0.14373108543610444 -0.10116819838562148 -0.07008472378753797 -0.20184668102168382 -0.0663098490009601 0.04855964020108267
0.09980523140634018 0.1409011874681531 -0.7903178454357618 0.17022457183701098 -0.11282587114319914 0.051556501239737915 -0.08061017934593341 -0.12448035546990323
00000000: 457b 2884 c874 c3bf 89c2 d930 0136 bfbf
00000010: 7e8e 30a7 c38c b33f 2931 79d0 2a81 7c3f
00000020: 8aec 0554 de36 9a3f 625e dea8 3138 c4bf
00000030: 0a04 4f61 9e7c cbbf 6878 66da 80e7 d1bf
00000040: d00d 82ec 6629 bfbf cf33 92f4 f313 b03f
00000050: 01fd 0717 e652 e6bf 67c5 b81a b2ac af3f
00000060: f99a e647 6c90 c6bf cde5 2bef 4373 b23f
00000070: e9fc 06d7 1d19 b83f f0cb c910 6339 b63f
00000080: 5878 1cee 4ce3 c7bf b22f e010 2044 a33f
00000090: 424d 1c04 38fb 84bf 658c e618 b8cb b7bf
000000a0: bfa2 6b44 00ac b83f dace 4b66 7c71 cabf
000000b0: 1d62 a47e 9c3b a6bf 6d3b c0f1 d2ba dabf
000000c0: 11ca 9ca5 b06c c5bf 1e93 038e cbfa c83f
000000d0: 1110 870a ba4e d7bf 11ca dfc2 d2f7 b1bf
000000e0: eaae bd35 a46b c5bf 51fc 38d0 1dc7 c63f
000000f0: 80fa 731b c17d cfbf 5c4d f85f 25ff 913f
00000100: ba64 8a05 8472 adbf 4111 e539 9112 c6bf
00000110: 1a92 bd7d 53e2 c13f 95ce 8240 cf4c a0bf
00000120: a371 bfee e30b bcbf 4b64 4666 b144 c43f
00000130: 4f90 0a08 5540 c2bf fc3d c193 8123 d03f
00000140: 3afa d377 5c74 c93f e767 c80b 6269 a13f
00000150: cb92 9de5 5fb2 bebf 5f50 b32f e303 adbf
00000160: 4fdd 2104 c1fd 9f3f 61c1 e9ee 327d c3bf
00000170: 8559 d29f c16f be3f ca2f 90c4 691b c6bf
00000180: e413 38cf b501 c23f 4432 01e8 bbf4 a7bf
00000190: a784 f354 bfe0 c6bf 1d99 a126 5a4a ba3f
000001a0: 863b cd6d 8c66 b6bf 2b7c 0892 d610 cc3f
000001b0: a5b3 2a8d 73ab bebf ed2b 0946 bb27 c9bf
000001c0: 8721 3cdc e8ca 763f 465b 661c 0857 d03f
000001d0: 1a64 fb8d afca d1bf 7c3f 7135 ff4a c13f
000001e0: 0ea6 fdb8 02ad abbf 5546 a8e0 3658 a93f
000001f0: 59a2 239a deed dcbf 8304 b48a 5e5c ccbf
00000200: a02a 6574 6816 bb3f 3603 b560 f80f 8a3f
00000210: 1257 ef26 262d d5bf ceff 5135 63c6 c73f
00000220: ae16 8240 0705 c0bf c895 47b8 117a b63f
00000230: a155 3b57 0562 ac3f fef8 5215 e905 b53f
00000240: ee3b b264 14b4 b7bf 047e 3c98 6a9f c73f
00000250: e366 ec80 cf87 c93f a13a 937b b1b6 bcbf
00000260: d93b ab6f e2e0 c3bf 14f2 aa33 29b9 8a3f
00000270: 6deb c435 9244 b73f 18d9 62e5 0edb a1bf
00000280: 6eb4 f19f ee91 ca3f 807b 79f6 5cc1 c53f
00000290: 9243 a033 7385 ccbf eeb3 d2a8 8ec5 9c3f
000002a0: b8f5 3dd8 09e2 a43f a43c 667c f5d9 dabf
000002b0: b5a9 0313 8e35 b33f 0066 d6c0 fe8f aa3f
000002c0: dfcc ef93 ee15 ac3f 57d1 2e45 e1c2 bb3f
000002d0: a0d6 f603 8769 c3bf 1862 ec96 a1a6 c2bf
000002e0: 2525 cdc3 c13d a63f eeb1 1859 285e bcbf
000002f0: 34be 5250 04fc 5a3f 9838 0d89 1f3b ccbf
00000300: 2462 c430 df3b a73f 93cd 7661 e0ad b03f
00000310: 6acf 9ae5 6b22 95bf 8043 1f96 cbd2 cc3f
00000320: 05a9 bd75 e255 b43f 08c4 f74a c95c c33f
00000330: edbb 4370 f361 a93f 7644 eae0 a9d7 b6bf
00000340: 138a 0f14 f9b0 b1bf c3a9 14ac 5db5 a83f
00000350: 58ba 7276 61e3 963f 7079 34a2 67ae 9bbf
00000360: 59b1 5291 6277 89bf ab94 0145 d356 cdbf
00000370: fc9a 7fd6 273e 8fbf 0ff1 0194 c632 c1bf
00000380: 195f d5f2 ba92 c53f 23f0 d1bf 9495 d73f
00000390: 67ee aebb c765 c2bf d523 76b7 28e6 b9bf
000003a0: 02de 9d8c 12f1 b1bf d5aa e5ae 1cd6 c9bf
000003b0: 5ca0 dca8 aef9 b0bf 296b 2325 cfdc a83f
000003c0: 3c25 dcec d58c b93f 1657 12d4 0c09 c23f
000003d0: dcef 72a6 484a e9bf 07fe 8134 ebc9 c53f
000003e0: 74e7 b302 28e2 bcbf 4614 711d 9d65 aa3f
000003f0: 69f6 0364 dea2 b4bf 31d9 bccf f1dd bfbf

custom_layer.beta f8 [128]
0.4208541955492769 -1.5040290458308045 3.145428187418807 1.111774744065935 0.48733931778034767 0.8830901453237114 1.3113750250278002 -0.5287580162429152
-0.5798621620133966 -0.23343812890728372 -1.3649310541790516 -1.0249719158676582 -1.1075488306551295 0.06510720138352062 -0.6915995872446135 0.09080073989582364
1.0177221550603641 0.06646872235899318 -0.11813181463935564 0.35715783778729465 -0.8331312599350053 1.662118340030531 1.9818817108476556 2.7369624818364224
0.18472435250871905 0.2990297220831328 0.3043305371340791 0.18024634475011767 -0.26044529346989476 1.0304911517310724 1.4439260815930002 -0.7963012103254002
-1.3444988456547375 -0.21986311865469702 0.154763576407214 1.3202995797866315 -0.018677679594942966 0.35427801324596464 0.3593883629900907 0.11376057035606597
-0.20552997208412543 -0.0850819109218882 0.24359964831095907 -1.1154927204195837 -0.16753948179760375 0.3217244181953807 -0.9972057526720605 0.6906989892139326
-0.8967194785760905 1.1660675532899907 1.1441514033577949 0.23521479363402809 0.6240849265837111 0.9132400718452318 -0.01384431910445826 1.2973809889409198
-1.4770386208195192 -0.6959233807611552 1.9634165737389369 -0.47195426191123113 1.6078402714574138 0.06928700500663915 -0.6997331221127314 1.0981427593000943
1.1301853402467181 0.8413470669378607 -2.4756531331173055 0.2040610847165452 0.24212800117146616 -1.555639018567325 -1.2094346987192786 -0.4376678594398814
0.11466270382564082 -0.2263305314410061 -1.8877500982441835 -0.6887273137845026 0.15815720079432424 -1.2744693560034728 -0.2795417340896697 -0.3343299046214539
1.1105397401495878 0.5695109588140749 -1.5732133114488105 0.24756620847966862 -0.1560527097042241 1.1843400700211937 0.280191111246965 0.947390179575668
-0.16032547523323673 1.2522997647217562 -0.7596950064799817 0.4698792745821564 0.18554570022614042 -1.4309362597173936 -0.7489776360964704 -0.05071786356336658
0.032416222619555346 -1.5142127075235519 0.002899236665623396 0.7467513673839603 -0.8108994151904001 0.17589360630079828 -0.13167123431643601 0.1268270389938982
0.37137568692844813 -0.061270821696910324 -1.428343802914479 -0.3085447765475328 -1.682638997741003 -0.9846752562219582 -1.3361308929808495 -0.06692498737162081
-0.711685282241462 -2.5762106751728715 -1.1868565486809384 -1.1589904639007917 0.2642042029953972 -0.418551492559989 0.423231359321383 -0.3924035957096824
0.6151591039429943 1.351472235634864 -2.3828616724257956 -0.5503044089793361 -1.111090507728359 0.6659243963267946 0.0589202556331509 0.09101245277947675
00000000: a52f 916f 46ef da3f fe3c c1c2 8010 f8bf
00000010: ed0a e740 d629 0940 e982 6450 d4c9 f13f
00000020: 96fa fa3f 9130 df3f 30ba b243 4642 ec3f
00000030: c091 d460 64fb f43f 675b 68ee 95eb e0bf
00000040: ee21 c117 3b8e e2bf 66ea a5f4 4ce1 cdbf
00000050: bbe6 eff1 c1d6 f5bf 5985 9ff3 4866 f0bf
00000060: 6e30 661f 85b8 f1bf 7522 ad94 ddaa b03f
00000070: 1c91 2475 9521 e6bf 4b1f 4ea0 b73e b73f
00000080: ea61 c606 9748 f03f aa20 bd1c 1804 b13f
00000090: 2940 7ef8 e23d bebf c19d 338c acdb d63f
000000a0: a346 56e3 02a9 eabf ff34 8866 0998 fa3f
000000b0: 6f19 ca98 c9b5 ff3f 72ee ee95 4ce5 0540
000000c0: 5a5d 662e 0ca5 c73f ef41 388f 4d23 d33f
000000d0: 168f 0aca 267a d33f 1f70 f6ed 4f12 c73f
000000e0: a66b 76bc 22ab d0bf 8b09 384a e47c f03f
000000f0: a888 243c 521a f73f 279c 03ad 4c7b e9bf
00000100: b28c b938 1183 f5bf 85f7 1b84 7924 ccbf
00000110: 32f7 a3f9 4acf c33f b0b2 c173 f21f f53f
00000120: aa0e 1adc 3d20 93bf 5854 25b0 7dac d63f
00000130: 24bf 660c 3800 d73f 9dec 40a9 691f bd3f
00000140: 7e7c 395e ce4e cabf 9704 e498 edc7 b5bf
00000150: 9905 68f5 452e cf3f 0a0d 12e5 0ed9 f1bf
00000160: f203 8e09 ef71 c5bf 8952 9e03 2297 d43f
00000170: 8d81 e309 1ce9 efbf 2abb 41c4 341a e63f
00000180: 9574 450c edb1 ecbf 7cea 6473 36a8 f23f
00000190: fb81 b1b3 714e f23f e8c5 18b3 841b ce3f
000001a0: b150 b3f3 80f8 e33f 4e1a 3f3e 4339 ed3f
000001b0: 3bf2 4f0e 695a 8cbf 1441 5f91 12c2 f43f
000001c0: 9a94 b53f f3a1 f7bf 6582 1c1c 0145 e6bf
000001d0: 3421 4a7f 276a ff3f a875 07a6 7f34 debf
000001e0: 269f 71b8 b6b9 f93f dc92 8a0c cbbc b13f
000001f0: 76de 6cb7 3664 e6bf 9987 5824 fe91 f13f
00000200: dd73 2c39 3d15 f23f 22ad 22af 50ec ea3f
00000210: 81d4 d73a 23ce 03c0 6136 9f72 ac1e ca3f
00000220: 1018 3de3 0cfe ce3f 190d 52bd e5e3 f8bf
00000230: c359 da32 d859 f3bf d27e b30d c002 dcbf
00000240: 1987 00f3 885a bd3f cb0d 501b 66f8 ccbf
00000250: 42ac 6f72 3934 febf b11f 12dd 0d0a e6bf
00000260: 7bee 84c2 7e3e c43f 24a0 bcfa 3964 f4bf
00000270: 8b10 7203 03e4 d1bf e521 9b41 a965 d5bf
00000280: f39c 8d51 c5c4 f13f e33d da0b 6f39 e23f
00000290: 3fdf a4b8 e12b f9bf 11e8 81e0 3fb0 cf3f
000002a0: 9fdf 5002 89f9 c3bf 8355 c192 0ef3 f23f
000002b0: 13e1 dbb2 a6ee d13f ab87 ba35 0551 ee3f
000002c0: 15d4 6b90 8b85 c4bf 854b 647a 6b09 f43f
000002d0: 5083 f8e6 6b4f e8bf 1a82 5985 8012 de3f
000002e0: 9e3d 3125 f6bf c73f 2959 626b 1de5 f6bf
000002f0: 0608 8ff2 9ff7 e7bf acc1 a71a b1f7 a9bf
00000300: 908d 05f0 db98 a03f 3205 a01a 373a f8bf
00000310: d0e0 30d5 23c0 673f 5809 a51f 63e5 e73f
00000320: 4ed3 9254 e3f2 e9bf 3f97 5183 ae83 c63f
00000330: 1445 9b5e 9ada c0bf 7a18 5d50 de3b c03f
00000340: 34c8 7887 9ec4 d73f 2e49 c69e e35e afbf
00000350: 2d64 0f08 7fda f6bf d7e3 2797 32bf d3bf
00000360: 6659 a4de 16ec fabf 5deb d4ae 7582 efbf
00000370: ca72 88c9 ca60 f5bf eadb 0bf8 fe21 b1bf
00000380: 05b1 8836 20c6 e6bf dbc9 ab57 149c 04c0
00000390: 8b0c da4a 5dfd f2bf bc46 ad95 398b f2bf
000003a0: b72e d5be b8e8 d03f 4e2d 0f33 8cc9 dabf
000003b0: 6453 bbfb 3816 db3f 22fa 99f8 231d d9bf
000003c0: cbb2 2825 62af e33f 590f d859 a19f f53f
000003d0: 6daf cfc7 1910 03c0 be25 edfd 179c e1bf
000003e0: ed6d 19d7 06c7 f1bf c5a0 faad 404f e53f
000003f0: 185e 08b6 cb2a ae3f e672 3794 974c b73f

custom_layer.gamma f8 [128]
0.6028309770162975 0.5799713178114951 -0.922616718323585 -0.5003675822258662 -0.08761761828974525 -1.984605381568974 -0.17768750803516586 -1.7342220715940635
-0.17045453675405273 -0.3371664793429362 -0.766933777736421 1.0376759255621533 0.4449058580025872 -0.739995446960275 0.7489425239834411 -0.9469128606144462
1.4295225520332882 0.8142362512653833 0.8478784709572158 0.1591056307594461 -0.5178274968899969 -0.23526240067817536 -0.7535053239486548 0.38615801187511645
0.37258176260452236 -0.3985206894862778 1.6338557858305431 0.7046219927906825 -0.7855035203347867 0.8418941296196646 -0.4210604152611462 -0.18243048635347858
0.5079820295997788 -0.4215347951582477 -1.3729806646181348 0.9715424194898163 -0.5544970009843477 2.4739394222657083 -0.6493501782940129 2.6599098008986544
2.2835657042468553 0.23909369545699083 -1.3870004246106276 1.1533417462575604 -1.48557005892964 0.2936358715031145 3.338557818944667 0.5510106011232436
1.6658203681335702 1.078765915384592 -0.30094740221597793 0.3971275006690172 0.5509580984533333 -0.04693539062160155 0.2889512853182377 -0.5143981144474262
-0.39146459398402406 -0.4467214024713245 -0.2377291745045086 -1.426962505491453 0.7970362685505031 0.49815781944053533 -0.5211386770793622 -1.029809490836328
-1.2259261358502147 1.5266775045011391 0.1312073291895408 0.497881601798464 -0.8621537304554826 -0.4959855741918936 0.27810385058648956 0.1799183270216519
2.1012027788523433 -0.39170223791845904 -0.9491962782048838 0.5006545576518889 -1.3045686581700702 0.997097256961299 0.7066680238603396 0.11752501700889163
0.7960365393037331 0.37854207000767154 -0.0027772559175172646 -0.19186186365848273 1.0248941911611156 0.02695428617022291 -0.6289827951584156 1.0507371308543714
1.1014421134421304 -0.15176463310600607 1.0365202482536464 -0.20134926358128552 0.7474131527345831 -0.7435983132580418 0.7537963923911161 -0.10222331241489041
-0.2501498970124252 0.3889468221742893 -1.7301162394524474 1.3709602540821755 1.1134870721531294 -0.40991667563732026 1.2192734675521555 2.135811608247979
-1.1264057040368012 -1.7187041530859073 0.8304992787197 0.3086955119718738 -0.05321621738661513 0.31861468527514714 1.1602840793692126 -1.5079350790822104
-1.0488182952932834 1.2753768652317985 0.4153857039586312 -0.0977902557152842 -0.9410812266398692 0.7732254358433751 0.40428385885470225 1.596764663104698
0.8550389556725291 0.47961233890364446 -2.2886781970394816 1.127758177379943 0.883465222338793 -0.7661890921863 0.3284800642029304 1.406197868393115
00000000: 8b9f 6930 644a e33f e2c9 5302 208f e23f
00000010: 1f2a fe7e 1386 edbf 1e70 34e0 0203 e0bf
00000020: 319d 1bb5 1b6e b6bf 98de 9492 f1c0 ffbf
00000030: 689a f5d9 76be c6bf 4af7 97a4 5fbf fbbf
00000040: 5320 684a 74d1 c5bf b676 85b6 2294 d5bf
00000050: d16b b2b4 b88a e8bf f82c 4212 529a f03f
00000060: 2ae0 7a6b 5679 dc3f dc43 7cee 0aae e7bf
00000070: 60f6 e24f 56f7 e73f fd06 1033 1c4d eebf
00000080: f509 1e0a 53df f63f f4e0 cc2e 390e ea3f
00000090: 9ecc f707 d221 eb3f a952 5cc4 925d c43f
000000a0: 2596 83f8 0a92 e0bf 3713 720e 141d cebf
000000b0: 5d15 7732 b71c e8bf 68e3 0518 d0b6 d83f
000000c0: c63c 5e2d 61d8 d73f 27de 07ec 5c81 d9bf
000000d0: 6b5c e8f6 4524 fa3f ac81 e26b 438c e63f
000000e0: 8c62 5747 d822 e9bf a325 2df5 cbf0 ea3f
000000f0: 91f4 4b62 a7f2 dabf 843d 57d6 e159 c7bf
00000100: b0c6 8287 6341 e03f bb2a d513 6dfa dabf
00000110: 2834 c992 baf7 f5bf ce55 cc20 e016 ef3f
00000120: bca6 9e7e 70be e1bf b054 77c0 a0ca 0340
00000130: f395 6d06 7ac7 e4bf 535b 29ca 7e47 0540
00000140: 430f 9018 be44 0240 9672 5549 9f9a ce3f
00000150: 26da 735b 2731 f6bf a29a 9479 1674 f23f
00000160: 4450 301c e5c4 f7bf 1574 421c eeca d23f
00000170: 2561 41cd 5db5 0a40 325b f2fb e0a1 e13f
00000180: 514f 2242 33a7 fa3f 79dc 690c a042 f13f
00000190: b45c 95e4 b842 d3bf 29cd ed76 896a d93f
000001a0: 6a59 cae0 72a1 e13f ad51 7d5f ea07 a8bf
000001b0: 450e 2588 2d7e d23f d59f d508 f375 e0bf
000001c0: e502 2d83 c10d d9bf ea67 825d 1597 dcbf
000001d0: 04a6 e6da e86d cebf a143 dba2 d6d4 f6bf
000001e0: 21cf 6434 5281 e93f f799 af55 d1e1 df3f
000001f0: f291 d704 2bad e0bf ff09 4484 197a f0bf
00000200: fb9c 4cb9 649d f3bf c9f0 1564 456d f83f
00000210: b0aa eed9 66cb c03f b149 40cb 4add df3f
00000220: 45c8 8d6b c396 ebbf 2649 1c47 3abe dfbf
00000230: fa47 ca17 74cc d13f d427 4151 9007 c73f
00000240: 287b 0b67 43cf 0040 864e 6843 a611 d9bf
00000250: 21ff 8bdf d05f eebf a7a9 f6b4 5c05 e03f
00000260: 04a2 a362 83df f4bf 1490 b281 38e8 ef3f
00000270: cc7d 7342 069d e63f 39d9 8398 1e16 be3f
00000280: af60 d79e 2179 e93f 37f5 b584 083a d83f
00000290: 84d6 d3ea 53c0 66bf 3ea3 e1f6 ed8e c8bf
000002a0: 9a5b 8e73 f765 f03f 673f 5a86 e799 9b3f
000002b0: 4b77 de86 a020 e4bf fb65 dbbc d1cf f03f
000002c0: b6bc fac3 819f f13f 289b f003 066d c3bf
000002d0: 6842 7e41 9695 f03f 0ae1 130b d0c5 c9bf
000002e0: 980c f3fc ceea e73f cdba 99b0 8ecb e7bf
000002f0: 3d34 a59c 191f e83f 64f3 b597 4e2b babf
00000300: 5808 b1b6 7402 d0bf efc9 4736 81e4 d83f
00000310: d6a0 ab5d 8eae fbbf 7661 f604 74ef f53f
00000320: eaa9 f6d1 d7d0 f13f 10a1 fc26 133c dabf
00000330: bc45 40e5 2482 f33f e5bc 7e65 2416 0140
00000340: cbda cdfc c105 f2bf b80d 10ed cf7f fbbf
00000350: 857c 2e39 7393 ea3f cdd5 15d2 aac1 d33f
00000360: 67ad 95f2 273f abbf c20d 52d9 2e64 d43f
00000370: 215d ef09 8690 f23f 6663 9288 8020 f8bf
00000380: aeb2 5bb1 f5c7 f0bf dfed 6392 f167 f43f
00000390: cb9b 6eeb ad95 da3f b724 2a3e c808 b9bf
000003a0: 9887 6960 561d eebf 9b3e ec44 43be e83f
000003b0: 5d39 0568 c9df d93f 1517 771a 598c f93f
000003c0: 986c eda7 7a5c eb3f a559 96f3 f7b1 de3f
000003d0: 92d2 ba83 364f 02c0 754b 9a28 4c0b f23f
000003e0: c926 a3db 5845 ec3f 2fbf affc 9e84 e8bf
000003f0: a8ee 483f d105 d53f e240 0756 c97f f63f

layer2.weight f8 [128, 128]
-0.13177091453960027 0.1389000745934051 0.1182652490808232 -0.2733247865806513 -0.17827729684914187 0.003383422315147882 -0.10201547806046475 0.10198433310059797
-0.24212067537274223 0.011239191432710327 -0.07057773557146003 -0.13219376793936172 0.23740731924300573 0.06380581156088448 -0.12363708572685321 0.07456405536206089
0.08134570828478575 -0.12625274127877584 -0.002043173831811925 -0.06648446061825021 0.010469360133719734 0.009972917743245165 -0.06361590977515182 0.25314499951662534
-0.05503042834375257 0.21238484927879378 -0.02047197865439403 0.05163360896245596 -0.07631586216012627 0.08548724749370781 0.1984027292583205 0.01777535654662767
-0.32107632670018055 0.04518204393324569 0.03765271779893241 -0.11168109142051916 -0.046251092957376665 -0.5360625985433904 0.10049874653151636 -0.07728231607087252
-0.1389157437558893 0.0775262535017063 -0.13971007892707363 0.15914088609777738 -0.057799965430695266 0.09819599236902733 0.5103015793261553 -0.07485391300942609
-0.2866532895399941 -0.13925363990903744 -0.10536179471494336 0.1015662619048951 -0.09067136236872038 0.17540639388411505 0.005838384285995331 0.06548441675571379
0.27416931940813327 -0.00356723360574074 -0.033416466392768726 0.10966859401175692 0.18814658294941639 0.14105109658196235 0.11573870873583504 0.03977684894330761
0.013727280612540912 -0.02641834374185986 -0.06926079759008642 -0.0941623037206676 -0.009803558374196468 -0.16010129728065756 -0.2136993475617609 0.02791732510359834
0.13992868104180545 0.0716795449341861 0.02926485727968324 0.07415184485820947 -0.0495215251484801 0.08022992413414685 0.062191764611197485 0.094272626301752
-0.06802582411821435 0.16649292724484532 0.13665270693065742 0.07404754315377425 -0.10233198716169238 -0.1687329538707725 0.09910115843874491 0.2825443916531686
0.12618467654584697 0.04158507488391752 -0.008656084949690395 0.0006955339257681304 -0.0063765825479229895 -0.1423706718176517 0.08446674792844977 -0.1371100066785042
0.0005677445743211152 -0.06796359412958711 -0.011173972633656604 -0.05362529081889146 -0.241995838164313 -0.13032428628615464 -0.06876204172418095 -0.027842788159031705
-0.08717308305117394 -0.021188608029884783 -0.09490605595537197 -0.008331450460270515 0.03540696026207375 -0.037585942036557796 -0.10078800247477433 0.12595443823241717
-0.05058547315831831 -0.15020863237036403 -0.032394637340994625 0.053412544869590274 -0.011093421085248157 0.24467736281073943 -0.021756624125951984 -0.14260316240312654
-0.14755134828712144 0.11829625473764058 -0.2242311970580068 -0.02785935977296349 0.05406581685920247 0.08325149295407003 0.031077361081187634 -0.07334151847176744
0.0549597250420927 -0.01895801165436949 0.05645068420086001 0.005954064487516443 -0.03697640254637387 0.006892272354827006 -0.05127180775606647 0.11836001059811975
-0.016309885808131797 0.03665384696215757 0.0643336866013414 0.004796006362184807 -0.03064342202031537 0.008773667830691983 -0.017595689758348198 -0.010624832515231762
-0.16985979222991723 -0.06508394267218799 -0.04720448840487208 0.0006310096740344404 0.04513214193384689 0.039538536425024896 -0.022095735872183365 0.012518730985538908
0.01913526893244706 -0.07255787530778075 0.1556122181246985 0.040089817681736375 0.0424072923735077 -0.08149153618422873 -0.03985476382762878 0.03570726122285885
-0.08836937932986766 -0.04669024548078121 -0.1170200733384357 0.011296433387022265 0.014042014782615192 0.16782055280278366 -0.040554791184427556 -0.13613578972514687
-0.047124442073919554 -0.08688280444507314 -0.09538935212138594 0.0650800705272849 0.06312721808086154 0.06915052183530941 0.07821904460637706 -0.0016609252229979141
-0.03040807652533297 0.204285659001689 -0.08263891126425627 -0.03498082355291841 0.13551603582630262 0.01436686689730299 -0.0733245017901679 0.03132336464341578
0.017291741392272922 -0.02530638743993205 0.046786952056580795 0.11835112568278161 0.06580859198147983 -0.08694385378079507 0.037926733186433255 -0.030811797397655705
-0.020736034056907354 -0.12272820177275857 0.02395145790702119 0.08666165444369527 -0.010077934435148225 -0.047356173237407866 0.025533678425691757 0.012989538783697853
-0.1905550003094034 -0.05119693230885581 -0.02050594517707447 -0.01660864605198219 -0.03382046351185944 0.00656753190939205 -0.13773152626478555 -0.009378139542710075
0.09818551509613677 -0.0559100900813746 0.00786900949445682 0.09620006567351341 0.011830402380106134 -0.1118657190899561 -0.00172880259125514 0.017107854239105956
-0.09509155009309306 -0.009211795564863366 -0.04961707403282147 0.06435018305413061 0.0905501353054541 0.01675456704885858 -0.03879577237521436 0.03506793879582109
-0.0637001850422028 -0.01246568849345982 0.12607733281637112 -0.007956717937440372 0.046036256413056066 -0.07824810118872452 0.00787589023914353 -0.04309095058959536
-0.06864395224638516 -0.03677421774109881 0.007174407621365822 -0.010634533293213285 -0.03456540714592644 -0.06394022080765391 -0.09420933489826626 0.11348409232998
0.0035620326872399855 0.0725664141270337 -0.10605805438924794 -0.0019495345646284867 0.08256133534491185 0.039239941360769984 0.13010375162896048 -0.06411022852942592
0.056875178549025296 0.028218444500319306 -0.023427304584917027 0.04796206785906 -0.012782376072215386 -0.05519650197527273 -0.09962980665750086 -0.0848168233253558
00000000: ea7b 418c dedd c0bf 8a33 e546 7ac7 c13f
00000010: a430 0ea1 a146 be3f 7634 e33e 277e d1bf
00000020: 750d cb5b cad1 c6bf 0bd2 2506 8db7 6b3f
00000030: c19b f4b5 af1d babf 9916 5f2f a51b ba3f
00000040: 76a7 346f cffd cebf f385 18bd 9204 873f
00000050: 8deb 1aea 6111 b2bf da6c 04b3 b9eb c0bf
00000060: 2868 fdef 5c63 ce3f 77e0 f2e1 9355 b03f
00000070: 6303 c517 aea6 bfbf 27b8 3c43 a116 b33f
00000080: e3cb c084 12d3 b43f f44d 69c1 0c29 c0bf
00000090: aba2 3499 d8bc 60bf 812e 0c28 2005 b1bf
000000a0: dc31 13bb f570 853f c469 6c5c ae6c 843f
000000b0: 0d54 fddb 2149 b0bf 4978 8415 8733 d03f
000000c0: 5be6 0ac4 f22c acbf 55be e83e 6d2f cb3f
000000d0: 6d5a 383b 9bf6 94bf d284 bc6b b86f aa3f
000000e0: 2dcf 24b4 6f89 b3bf 7ee5 3504 7ee2 b53f
000000f0: 2d02 cdb8 4265 c93f 8586 2bfc b333 923f
00000100: 139d acb8 838c d4bf 5594 1ed2 1922 a73f
00000110: ce96 1a8f 3747 a33f 4693 3bcb 2197 bcbf
00000120: f7f7 4f27 39ae a7bf d248 2bc0 6c27 e1bf
00000130: b050 a42d 49ba b93f 6662 151c c6c8 b3bf
00000140: 3360 2ab8 fdc7 c1bf 3209 5fb3 c2d8 b33f
00000150: fbe8 f415 05e2 c1bf 868a 9f82 ba5e c43f
00000160: 5833 7802 f597 adbf b9bf d25f 5f23 b93f
00000170: 11b2 49fa 6354 e03f ae65 5a44 a029 b3bf
00000180: b15d f709 8758 d2bf 320f a132 10d3 c1bf
00000190: 9a6d 8c96 fdf8 babf bc2c 421d 3f00 ba3f
000001a0: 05b3 0e08 3d36 b7bf b8eb 9e7a b773 c63f
000001b0: 5506 1e59 fde9 773f 6e09 5d34 96c3 b03f
000001c0: 2e2b 1b79 fd8b d13f 042b 90f5 0739 6dbf
000001d0: fe11 9c8c f61b a1bf abc5 adb0 3d13 bc3f
000001e0: 3e9a 4fee 2f15 c83f 2c36 715b f60d c23f
000001f0: 91d4 e650 0da1 bd3f 95e9 b292 a15d a43f
00000200: bedc 596a 0c1d 8c3f 6f08 8b09 690d 9bbf
00000210: 0957 8b5c 13bb b1bf a10c ff4e 051b b8bf
00000220: 0f14 d054 e313 84bf 730d ef05 337e c4bf
00000230: 8426 7a0e 805a cbbf 9f3c 3ff9 5b96 9c3f
00000240: 8069 6cda 2ee9 c13f 74d4 4835 9759 b23f
00000250: 0cde c053 9bf7 9d3f b0a4 9a84 9dfb b23f
00000260: 34e9 eba5 e25a a9bf af14 51c4 f289 b43f
00000270: d3d6 2b56 99d7 af3f 05c2 df36 4022 b83f
00000280: 9105 dff1 236a b1bf e415 c4e6 a34f c53f
00000290: 73a9 96fd d57d c13f e7d1 31a0 c7f4 b23f
000002a0: 83b4 31da 6d32 babf f1f3 509b 0a99 c5bf
000002b0: c178 7d8a b15e b93f 8663 7412 3515 d23f
000002c0: f8a7 82c9 d126 c03f 249b 4191 a34a a53f
000002d0: 839c 290e 48ba 81bf 1f87 72bb 8fca 463f
000002e0: 2fa3 0ed8 541e 7abf fbe4 aec1 3339 c2bf
000002f0: 40c1 f3df 9c9f b53f eeba 5119 d28c c1bf
00000300: 9051 8930 969a 423f 02ee 1ae6 0f66 b1bf
00000310: 0040 3938 61e2 86bf 427b 9c2c c674 abbf
00000320: d787 5739 b8f9 cebf 1f9e bc59 77ae c0bf
00000330: fd5a 69a0 639a b1bf b63c 4ae2 d182 9cbf
00000340: 44d9 cba4 f950 b6bf 27fc 246a 77b2 95bf
00000350: 8a4a 8566 c34b b8bf 0575 0a5a 1410 81bf
00000360: aab4 c070 dc20 a23f 5838 acef 763e a3bf
00000370: a554 7516 3ecd b9bf b144 7f68 461f c03f
00000380: 523e bcd1 56e6 a9bf dac5 cd55 093a c3bf
00000390: 3805 e4a7 0796 a0bf 9571 d29a e358 ab3f
000003a0: cd5d 18c6 25b8 86bf cefc ab7b 9651 cf3f
000003b0: 538b 5e54 5e47 96bf f8ee 6907 d240 c2bf
000003c0: b3db af6b f6e2 c2bf 3663 56d1 a948 be3f
000003d0: 7db4 0d9d 9bb3 ccbf bd12 73fc 2987 9cbf
000003e0: 37cd 7bc6 83ae ab3f 34b6 9447 f84f b53f
000003f0: bf6f f565 bed2 9f3f e374 467f 82c6 b2bf
00000400: 334e 4e5b ae23 ac3f fdf7 35a0 ba69 93bf
00000410: 5683 f5a4 1ae7 ac3f f5d6 0804 4a63 783f
00000420: da20 522f 92ee a2bf e0e6 be45 123b 7c3f
00000430: 15c8 0963 4c40 aabf c152 ac76 d74c be3f
00000440: 6df5 96e8 89b3 90bf 813a f303 4bc4 a23f
00000450: 36df fb27 2c78 b03f 06c2 a127 faa4 733f
00000460: 4abc a83d fd60 9fbf 76b8 30c3 edf7 813f
00000470: f32b 40c0 9a04 92bf d95b 6de1 78c2 85bf
00000480: 6934 4436 f7bd c5bf c993 455d 57a9 b0bf
00000490: 9abf d8cb 2f2b a8bf 7985 ebf4 4aad 443f
000004a0: 2667 3563 8f1b a73f 9d1e c121 653e a43f
000004b0: 7aee cebb 43a0 96bf 41cc 5ca1 6ba3 893f
000004c0: b462 0f29 3298 933f 45a0 8325 2793 b2bf
000004d0: 840f dae5 19eb c33f 62fa b00f a786 a43f
000004e0: 1f56 b69b 68b6 a53f 5de3 cf1a a1dc b4bf
000004f0: 037d 75f6 d767 a4bf 0323 5dde 3848 a23f
00000500: a089 302a 609f b6bf 68ab c3aa c8e7 a7bf
00000510: 72cf f60b 07f5 bdbf 8d6c ab9f 9522 873f
00000520: 631a 1752 0fc2 8c3f 793a f1d4 247b c53f
00000530: 879c aafb 98c3 a4bf 3da2 57c6 e56c c1bf
00000540: 5476 19e3 b120 a8bf 7125 ad93 f33d b6bf
00000550: ac7b bfc3 6f6b b8bf 5e3b 8966 16a9 b03f
00000560: 010f 25f9 1a29 b03f 6db3 c83d d9b3 b13f
00000570: bf3d 82ce 2906 b43f a85e e3e0 6c36 5bbf
00000580: c69f d778 4b23 9fbf b61e 3a50 0826 ca3f
00000590: 80cc 41dd d227 b5bf 8d3a 4baa 01e9 a1bf
000005a0: 7a90 fae6 9658 c13f a15b c23b 606c 8d3f
000005b0: f72b 2f01 65c5 b2bf af01 7db5 9d09 a03f
000005c0: d432 151f edb4 913f d8d6 bce9 eae9 99bf
000005d0: 51d1 ec99 75f4 a73f e098 4066 424c be3f
000005e0: 1934 5bf6 d4d8 b03f f9a3 93d0 f341 b6bf
000005f0: 2115 5cfd 216b a33f 5d9a 9db8 208d 9fbf
00000600: 781d 7eb0 d33b 95bf e92f e98c 1d6b bfbf
00000610: 30d4 9b21 bb86 983f 0b26 a74b 752f b63f
00000620: eb46 7b76 bda3 84bf 5702 a37e 113f a8bf
00000630: dec3 2327 8025 9a3f 21fc 2062 429a 8a3f
00000640: 2f86 3533 1b64 c8bf 7118 d8fb 7b36 aabf
00000650: 1aec a2af 82ff 94bf dd14 7f5e db01 91bf
00000660: 7420 7071 ea50 a1bf e1a9 426c 8ee6 7a3f
00000670: cfbb 77c8 2fa1 c1bf ceec 1095 d834 83bf
00000680: dc60 4798 af22 b93f 30f3 d450 3fa0 acbf
00000690: 51e1 7193 a01d 803f c4d7 f047 91a0 b83f
000006a0: 8290 91ba 893a 883f 2eee 0855 3ba3 bcbf
000006b0: 30b7 cda5 1f53 5cbf 96c6 d8a9 b884 913f
000006c0: 8c99 c679 eb57 b8bf ec19 8245 a2dd 82bf
000006d0: a39e 96bc 6867 a9bf dd87 b5eb 4079 b03f
000006e0: 7109 c92d 4b2e b73f 5f4a 22f6 1b28 913f
000006f0: bf32 261b 0add a3bf e748 88c4 6cf4 a13f
00000700: 8362 81c3 a74e b0bf 2a57 3663 9c87 89bf
00000710: d84a 9b52 4d23 c03f 4d32 999a 9c4b 80bf
00000720: 7ddd 726f 1092 a73f 4a65 944b 1108 b4bf
00000730: dd34 0818 3c21 803f c45c 125f 0410 a6bf
00000740: a566 f769 a692 b1bf c368 11fd 11d4 a2bf
00000750: 2a8b a161 e962 7d3f 3edf 9ee5 8ec7 85bf
00000760: f983 879a 8eb2 a1bf 9694 44e5 625e b0bf
00000770: e3af 5d5c 1a1e b8bf 0e6b 2c21 4b0d bd3f
00000780: 0d6f c4bc 1f2e 6d3f a1ae 7667 b693 b23f
00000790: 0d47 14e3 9e26 bbbf 05db a3cc f0f0 5fbf
000007a0: b971 385b bd22 b53f 7ad4 aef1 4117 a43f
000007b0: 50a9 2a5f 3da7 c03f ff7a df26 8769 b0bf
000007c0: 98fa a44f be1e ad3f 4369 17c1 4be5 9c3f
000007d0: dc43 1acc 53fd 97bf a26f cef1 7b8e a83f
000007e0: 610d 9079 a52d 8abf 24bf ac45 b742 acbf
000007f0: 37ff 4cc9 5681 b9bf 5940 552a 8eb6 b5bf

layer2.bias f8 [128]
-0.027066842981658217 0.05662442498229471 0.013637375878308216 -0.0068312784823665275 -0.05413034327228386 0.08879695787617543 -0.0062457097347270295 0.11339753230352177
0.21533912114563125 -0.006408805757008633 0.26186267566256843 0.04103339642111493 0.02903306384000179 0.11187509527468044 0.35829068393361274 0.12467379415862402
0.1046617442382458 -0.006428214628393062 0.04296015741508123 -0.03308308562854928 0.039576831030583896 0.09657648200230912 0.019553336357035853 -0.05744843387532355
0.060342932954202275 0.08790877726814585 -0.0385155927036713 0.03947792138707772 -0.07104010308912599 -0.11249415417107726 -0.03003021513516081 -0.03799253836755897
0.024397850313655926 -0.009312887699814946 -0.020430652741934657 -0.028773117061159773 0.06314615198970788 -0.04859285677171648 0.04062176163150578 -0.058477577855083805
-0.0818721048611471 -0.022369440674053512 0.13789239382314705 -0.06115534841547453 0.043745935716397844 0.03218240431978667 0.02243075751152004 -0.07453452367289036
0.09973249389306436 0.07580680608649532 -0.03285067609768842 0.07757036397760661 0.3165981286363014 0.07200870963782867 -0.06802798264417619 0.06194844755672436
0.2126182671433485 -0.07335054020259132 0.06398928425013287 -0.049264454142065144 -0.07306887960835953 0.04190841391118005 -0.0051795155936846604 0.08084096026295423
0.1352682448318033 0.05877769079658052 -0.07404267744531429 0.33658727007330025 0.11277123554508138 0.006768785253335524 0.020161033350480178 -0.08471520342101564
0.053234611804374984 0.03403772109131818 -0.0034252799450941317 0.003681307948693524 0.06035353498405567 0.0748215813828728 -0.010848129321147124 -0.07795399073360289
-0.2446308004409838 0.09309039191506205 -0.07903005619604235 0.015779418014113797 -0.09434344480392168 -0.07428248960868938 0.03569659088266288 0.10613523127925562
0.043178171893725054 0.31315400942432414 0.04283766600689432 -0.033356467910774006 0.08438783595012607 -0.09936251253524356 -0.06443393726474192 -0.035974522152397034
-0.001385537959593922 -0.02938096849330337 0.06582441712770774 0.06579282278375624 0.020849025646436974 -0.11456321270727983 -0.07643224900975211 0.22082336999929855
-0.15847575287436302 -0.05099618288886317 -0.060209137782136705 0.005827910529959115 0.01029168294361742 -0.04089637575318015 -0.05924007239925517 -0.015349923390224982
-0.1120538877921832 0.09880502568395594 0.22910413334308571 -0.031770338498624914 -0.032456317107817254 0.08736218797317429 0.02351081913650012 -0.024454488831764442
-0.04592415965451505 -0.04534539447563419 -0.02363491077509855 0.061070322561647135 0.05955752386098609 -0.06104116002756701 0.08728860501137595 0.028376296237906412
00000000: eb14 a615 69b7 9bbf 6253 e86a e0fd ac3f
00000010: 236a 349b e9ed 8b3f fb01 bf5a 1dfb 7bbf
00000020: d4c3 26ec f8b6 abbf 95fd 0fbe 65bb b63f
00000030: eebc d0f0 1995 79bf a7d3 b0e4 9e07 bd3f
00000040: d857 6f79 3b90 cb3f f8d1 1fb2 1e40 7abf
00000050: e1e1 00ab 5bc2 d03f e150 584f 5402 a53f
00000060: f92d c8ee d7ba 9d3f 190f 71a3 d8a3 bc3f
00000070: aa34 7d0c 3cee d63f d15b 942c 9fea bf3f
00000080: df44 a5b0 1ccb ba3f 9120 9cb9 7854 7abf
00000090: 36f0 41ae dffe a53f 1899 a625 44f0 a0bf
000000a0: 574e e915 6a43 a43f 0c3d c37f 3cb9 b83f
000000b0: 2981 b930 ca05 943f b7e0 6691 e169 adbf
000000c0: 8681 2ad7 44e5 ae3f 99e5 658b 3081 b63f
000000d0: fcbd 18d6 50b8 a3bf 9f09 8b3a 7336 a43f
000000e0: 57e6 7827 af2f b2bf ebec 27b9 6acc bcbf
000000f0: 83e5 969f 3dc0 9ebf bbb6 8f0b c273 a3bf
00000100: 7e69 c204 c0fb 983f eff2 d0a0 a212 83bf
00000110: 3b3e 73e5 c5eb 94bf b46b 2033 b376 9dbf
00000120: 92fe a9a1 582a b03f 47b6 4eb5 29e1 a8bf
00000130: d12b 6d23 60cc a43f 93ae dfe8 c5f0 adbf
00000140: c453 d5fc 91f5 b4bf 74de 7fc0 03e8 96bf
00000150: 7635 eb3c 75a6 c13f 7e03 d7fa c04f afbf
00000160: e03d 7806 de65 a63f bcc9 1e4c 367a a03f
00000170: e7f5 bea7 16f8 963f a716 99cd b114 b3bf
00000180: ef85 9e97 1188 b93f 7ca9 f428 1368 b33f
00000190: 4e6c fbc6 cdd1 a0bf ee31 6cc0 a6db b33f
000001a0: 0def 1dcc 2443 d43f 37f0 ebac 296f b23f
000001b0: 676a ab28 486a b1bf 9194 96f8 b4b7 af3f
000001c0: 07d9 f44b 1337 cb3f 6e66 50db 19c7 b2bf
000001d0: b215 260b 9a61 b03f ef79 cac6 3039 a9bf
000001e0: baf4 4560 a4b4 b2bf dffb 5906 0575 a53f
000001f0: e90d 58a1 1d37 75bf 1cb2 8140 feb1 b43f
00000200: 93b5 de47 7850 c13f 4853 6907 1c18 ae3f
00000210: 74ca 22fe 75f4 b2bf 5ebe 4d55 a58a d53f
00000220: af7b 9860 93de bc3f c660 bff4 95b9 7b3f
00000230: ab54 930b 18a5 943f ddd0 2a44 e5af b5bf
00000240: 861a 6e29 9141 ab3f 2ecd d565 646d a13f
00000250: 219b 002b 550f 6cbf 6668 e027 4328 6e3f
00000260: aab5 e895 a8e6 ae3f 930e 13d5 8127 b33f
00000270: 92c0 4145 8b37 86bf 9123 cbf0 caf4 b3bf
00000280: 8681 bee3 0f50 cfbf eed5 d89c c5d4 b73f
00000290: db56 c352 503b b4bf 8c39 48d1 7a28 903f
000002a0: ea5a 065a e426 b8bf 64e7 885f 2d04 b3bf
000002b0: b3e6 d6d4 d246 a23f 903c 4cb3 ad2b bb3f
000002c0: ec85 5e08 731b a63f 0cae 451d b70a d43f
000002d0: e1ba 128d d1ee a53f b7dd 9255 1914 a1bf
000002e0: 6504 96f3 709a b53f f289 c955 d26f b9bf
000002f0: 1af9 4d15 be7e b0bf de7d 44a8 406b a2bf
00000300: 751b 530e 5eb3 56bf 56d4 366b 0b16 9ebf
00000310: 0b7e d776 ded9 b03f 1bf2 2a66 ccd7 b03f
00000320: de3a 386d 7259 953f 8507 e7c3 0354 bdbf
00000330: 094b db59 1091 b3bf 9174 2bb0 f043 cc3f
00000340: 81f5 e6f7 ee48 c4bf 3bfe 74f3 2b1c aabf
00000350: 37a7 636b bbd3 aebf 7640 15d2 01df 773f
00000360: 5a21 4f4d ce13 853f 3d09 c5a8 5ef0 a4bf
00000370: d98b 22fb b654 aebf 722f a8d7 c76f 8fbf
00000380: 3a03 7547 90af bcbf 4437 fe41 494b b93f
00000390: 0a22 0bc4 4853 cd3f 363c aba9 3344 a0bf
000003a0: 0ea9 0d49 1d9e a0bf 2f75 404c 5e5d b63f
000003b0: 447b 2c5d 3813 983f 935f 17f7 980a 99bf
000003c0: 25f6 9f17 5f83 a7bf 4919 98f4 8237 a7bf
000003d0: 30ad 4a03 c033 98bf c11f 51fc 9b44 af3f
000003e0: cc66 6de2 527e ae3f b37d 0e74 c940 afbf
000003f0: b25a d6c7 8b58 b63f 882d 4b01 ad0e 9d3f
