COLA_Emulators/PCE/wCDM_PNN_HIGH/MODEL_Z0.742.pth (torch, 192382 bytes, 10 tensors)

layer1.weight f8 [128, 25]
00000000: 4908 99a7 2c34 843f a62a c428 0006 abbf
00000010: dc8e 3a97 c78f c03f 1a4f a641 a104 be3f
00000020: 9478 ab02 556e d6bf 1757 ea6a 5818 cdbf
00000030: 9e21 ae73 25ed c23f bd72 7014 5bf4 c3bf
00000040: db07 1bb6 5f97 be3f d03e 3849 af6b b53f
00000050: d17a 4277 7fe4 b83f 6391 7caf 2e67 c0bf
00000060: f938 8562 5620 b9bf 7ee9 c6c7 a654 b03f
00000070: 7c51 239c 18ca d13f 51ff 5db6 37a7 c53f
00000080: 286a 6ed4 466e bbbf cff6 eacb 4dee 91bf
00000090: 784c 342e cf6f a0bf e944 a148 0462 a43f
000000a0: 92d1 c2b1 f219 b9bf bdab 0ef8 fdcf be3f
000000b0: bb21 f283 f8da a9bf e06b 1baa d2bd 9a3f
000000c0: bc24 2a69 f81b 673f aeab 08d0 919f b1bf
000000d0: 6aab 65a2 64fe b53f cdf1 1fc7 c532 c5bf
000000e0: 7d9d 40c6 47f6 edbf 3f86 5a9d 0ec0 dc3f
000000f0: fed8 2ca9 023a a2bf 2bed 0661 b795 50bf
00000100: 4a85 6d71 0fa5 c63f cc7c bfc9 4222 79bf
00000110: 7e26 b55c 1230 d9bf 0ea2 061f ab73 cbbf
00000120: af0b 63a5 e55d bebf 51b4 76ae f462 a33f
00000130: ceb0 f687 8679 c73f 39e5 5853 c606 d1bf
00000140: a81b 9c93 2fe0 a33f d347 2a38 0a1f cabf
00000150: a3f6 dec2 3df0 b63f 0d57 3dcd ffbe bcbf
00000160: 9b06 bc58 0016 b0bf 707f c0ff 4391 a93f
00000170: f038 c18a 144c 813f 2351 19ab 3f74 bf3f
00000180: a6c1 f001 de5b c13f b02c a337 6231 c13f
00000190: cf5d 6ba8 77cd 91bf f731 66f7 be8b a33f
000001a0: 33d0 7a5a 7902 70bf b3ad 9f94 26cf c7bf
000001b0: 83d6 1a4e c628 b8bf 6bcd 05bd 0f39 c23f
000001c0: e209 4052 02c8 a7bf 729d ba93 5630 c9bf
000001d0: 22f8 091e d630 943f 5922 9ff8 6df5 c13f
000001e0: c0c7 3358 0683 e6bf b2f5 5ad8 2d7f 96bf
000001f0: a694 ebda e463 d1bf 1601 dfc6 cefb c2bf
00000200: 68ac 66d2 f9bd bfbf 045d 338e e552 a5bf
00000210: 14cb 53eb eb8b c7bf 6236 b770 e756 c2bf
00000220: 6107 de81 10c7 d8bf 3d8a 3a66 a4be b5bf
00000230: e866 08a1 ef78 b4bf 04c6 b060 7f2f b7bf
00000240: bd1e 90f8 c33b b23f 1bcf 20bf d914 b7bf
00000250: b0c0 38eb 395e ce3f 0acd a7d3 ad0f 933f
00000260: d6f4 8b53 b862 b53f 4518 5502 38b8 c83f
00000270: 3d36 0ce8 e6ce db3f 4a7a 1d0b 1c57 ab3f
00000280: 9967 0bba 6cd2 c73f 492b 90d8 2c53 9e3f
00000290: 2565 2e9e d0f7 d0bf 0be5 b2bd db43 cb3f
000002a0: 7f9c 185e 52f5 b23f 04a6 090d 481b ce3f
000002b0: 8df7 9f45 2bf9 c3bf 0f19 3c43 7383 ca3f
000002c0: 2152 cb60 5433 94bf 1018 cd0b cea5 ad3f
000002d0: cc2e c80b a381 d03f bd38 b017 aef5 c3bf
000002e0: 41a2 b27b 53cc d7bf b094 a1d3 dac8 bcbf
000002f0: 2a30 ead3 54c0 b0bf 7d50 e79b 4857 cfbf
00000300: 2a2b 414b 6a82 c5bf 0938 1c3c 0b90 d4bf
00000310: 64f2 44b1 4ed5 903f b89c 3e8a 8d53 9a3f
00000320: 5932 da4b 0cce a43f 543f 02ab a012 bb3f
00000330: 8bf6 0db4 3fa0 c3bf 81bb 6abe 3b4d 5bbf
00000340: 192d dcbc a3b6 66bf 42b8 3734 ec8d 86bf
00000350: 93c2 4909 babc c53f 5cc5 d7e7 1f0a b7bf
00000360: eae8 2de6 9e41 d7bf 2959 17e2 a26e b03f
00000370: 35c8 1bc4 66a5 bebf b7f4 4b3b cd38 c53f
00000380: 07f2 f434 242a b0bf 45f0 1e01 c6c6 723f
00000390: aa36 27cf dfc9 b8bf 35db 544c e9d5 a6bf
000003a0: b748 a769 cece c3bf 4fb6 7548 b733 cb3f
000003b0: 990f 7e1c aa1d bcbf fecf 05ad 33d7 c93f
000003c0: f9ff 83dc 8d5f cb3f 7682 dd27 feb0 9fbf
000003d0: c81e 76f9 a4ca 92bf 9cca d027 5a0e 8fbf
000003e0: 905a bf31 b028 b83f ab06 c845 7767 a3bf
000003f0: ba6b 857c ea6a aa3f d3d0 53eb 8eea c7bf
00000400: fb8c 76cb bccb e3bf 9a00 3ce9 0f6b cb3f
00000410: ce61 32db bd6d abbf c029 32c1 21b5 a3bf
00000420: f47e 4cc8 8a44 ce3f d12c 4c9b b106 c53f
00000430: b156 ff7c c058 dcbf adb4 db95 9ffe d1bf
00000440: 5f2f e25e 163f a6bf e1b8 be4a 4324 c73f
00000450: 196a 1b89 63a7 af3f 9788 1e75 e75d b83f
00000460: 90d3 1897 6c4e bebf 1b35 50aa 5229 9fbf
00000470: c44f 0b00 08e8 c8bf afa5 b346 4b17 c3bf
00000480: 07e1 732c 051f a4bf 7c63 8888 1440 d0bf
00000490: 5d9d 8502 029b b8bf 8a6b 00e0 d304 b8bf
000004a0: ed74 9b59 2108 b9bf 7a5d 35da 6c82 b33f
000004b0: d332 d41b cd7e adbf a241 a630 0a09 a73f
000004c0: 54db b595 fa25 bbbf 8910 64ac 5097 dfbf
000004d0: 48ce dfc5 e243 d13f 4c7a e00b f9d6 46bf
000004e0: ca24 1565 2f8d 933f 7bc9 b499 2316 b53f
000004f0: 3d1b 3dc1 dc08 b43f 2b12 f080 97fb a7bf
00000500: 5715 bb0d 7077 c0bf 87be 77f7 1849 d1bf
00000510: 8bb9 fa7e 6053 8ebf 1411 066b 4aee c5bf
00000520: 10dd 27c3 1fd6 be3f a709 67fe 60c2 b4bf
00000530: c622 48a8 7340 b3bf 7161 cfd3 3577 9b3f
00000540: 7893 7523 deb0 b93f 2a23 4ec5 cbe1 ca3f
00000550: 981b 0140 a414 babf 9242 ffb0 c9ff d2bf
00000560: 8b2e 816b 3e19 8f3f ccf1 be80 0742 be3f
00000570: bb7c feae 6955 ca3f 026c e345 3977 a33f
00000580: 1d0a ba9a 3e33 9fbf 4a94 fae7 eda3 953f
00000590: 92c5 d3e7 77fe b03f 7fb1 d8f5 8e16 aa3f
000005a0: 151b 1aaf c209 c43f 3b36 d172 ea23 d3bf
000005b0: 2db9 6652 6036 803f b077 f061 0a62 b73f
000005c0: a9a9 2dcf afd8 d7bf 99df c719 54ee a33f
000005d0: 96e6 e7a5 cb09 bc3f 3f46 fe2c 9ba4 a7bf
000005e0: b629 c1f3 57b0 af3f eb6b 2376 9dae c73f
000005f0: b2cc f5ef 6e05 d4bf efca 17a4 eb59 d13f
00000600: 110a 4db6 66d4 cf3f f931 b63c f29e b03f
00000610: f5f1 a4e6 a35a b03f 7074 1f34 fadc bdbf
00000620: 9e87 370d 40f0 d23f a8ce 8a9f ab57 d03f
00000630: a207 d953 4953 c03f ad48 a884 d45f b33f
00000640: 4974 a3c3 7109 a73f 5fac cb4f 2a17 c73f
00000650: 1340 4d71 c81d bb3f f604 1331 8585 d53f
00000660: 7c51 a52b 5b7d af3f adcb 4856 e935 793f
00000670: 19ed 24de 6b08 a63f 616b a57c b12d cf3f
00000680: 109e cc36 d0c1 c83f ec04 88b9 0ab3 c1bf
00000690: 1576 4f41 4d88 92bf d887 186a 9190 a7bf
000006a0: c788 96f8 3658 91bf 8425 8fc0 864b b3bf
000006b0: 7616 06e3 b1ee d13f 6615 5edc 711c c03f
000006c0: 4e74 3614 a365 b33f 8188 b7b0 0b69 963f
000006d0: 7dec d4e2 7e36 d33f f634 8e06 1793 ca3f
000006e0: 3564 bc42 f8b2 aebf 233e 4a2d ef49 c0bf
000006f0: f1ed ad9e 71df d4bf 8b14 3892 e421 c43f
00000700: 6154 27b6 7044 c0bf dea7 71ec 9739 aa3f
00000710: c9bb 6deb bedf bd3f db4f 6d3d 9364 a2bf
00000720: 43df 9564 a994 a03f f6aa f8ab 0e88 cbbf
00000730: 479a 767d 6a66 95bf 3fcd 3bba 8348 c3bf
00000740: d2e2 bacb 7699 91bf bfd7 d24c 5063 973f
00000750: 9d11 1219 20d3 c0bf faae cd20 1e12 c43f
00000760: a3f2 a591 9a92 af3f bcda a86e 9675 bb3f
00000770: 2978 6252 9cd3 cabf a74b 2669 2f36 bebf
00000780: b159 f483 19df a03f 2b03 0a07 db4e be3f
00000790: e7ba ca38 9457 c2bf e3c1 5941 78c5 a5bf
000007a0: 23ed 6a22 cb5a c43f cfca 8519 1bf1 c73f
000007b0: e8a3 50f7 d14f b33f a759 ce6d 2c4f 8c3f
000007c0: c81e 1177 5a43 a0bf 9176 32e6 89b1 c13f
000007d0: 2435 3c96 0e1d 65bf 7ff4 d653 a832 b8bf
000007e0: 6b55 7719 516d ccbf 85c5 73df 6b74 c0bf
000007f0: a496 b303 a31f d33f 15fb 100a 52e5 cbbf
0.009865139832189966 -0.05278015611300661 0.12938780674186645 0.11725814678930782 -0.3504841352531767 -0.22730546207883925 0.14786213062712944 -0.15589464662561694
0.11949728198945257 0.08367438829031504 0.09723660146344605 -0.12814887589150734 -0.09814968018801896 0.06379167916649028 0.2779599690232073 0.16916557697913473
-0.10715143858252729 -0.017510619708210492 -0.032103037252590505 0.039810308328591955 -0.09805218543880859 0.12036120706640836 -0.050498739344280584 0.02611474192859109
0.0028209544919418333 -0.0688410885710897 0.08591298069738476 -0.16561195586099445 -0.9363135215871093 0.4492222344070775 -0.035598834182041 -0.0010122576532996623
0.17691224134891065 -0.006136189356737275 -0.39355906537512186 -0.2144674207204535 -0.11862025535360375 0.03786434774097159 0.18339616431092626 -0.2660384954393354
0.038819777268194244 -0.2040722631687105 0.08960329063026022 -0.11228941689236312 -0.06283571401948011 0.04993641373607616 0.008445892796001137 0.12286756446093654
0.13561606497524997 0.13431956974668458 -0.01738535848093453 0.03817555208215489 -0.0039086094254124236 -0.18600923783320197 -0.0943721714673647 0.1423663781130061
-0.04644782308607255 -0.19678766454056135 0.01971754606574206 0.14030241622664866 -0.7034942362499734 -0.021969524698524708 -0.27172204379014386 -0.1483095618295997
-0.12399255167717771 -0.041648076637722325 -0.18395756712524103 -0.14327710155196188 -0.3871499317393639 -0.08494021888558563 -0.0799703376909765 -0.09056850538834033
0.07122444933349477 -0.09016190448965881 0.23725055680688945 0.01861449817984088 0.08353759803499669 0.19312191118132396 0.4345032945719572 0.05339896808321905
0.1861091526432659 0.029614163129774416 -0.2651254219759543 0.21300837290417748 0.07405581280964844 0.2352075637493699 -0.15604153537418278 0.207136543111297
-0.019727056892252407 0.057905615749902606 0.25791240835745266 -0.15593506008776173 -0.3718460758196081 -0.11243980089928374 -0.06543474363041982 -0.24485118496398064
-0.16804245638407994 -0.3212917410863843 0.016438703126583923 0.025709353983668776 0.04063452173167965 0.1057529847623731 -0.15332790652967207 -0.0016663630901054551
-0.0027726362230901078 -0.011012883513981223 0.1698219819404768 -0.08999823961473424 -0.36338016966295916 0.06418817539028922 -0.11971132552915338 0.16579594989153687
-0.06314302723780695 0.004584096388438101 -0.09683035666895515 -0.04460076386242521 -0.15474872740612053 0.21251574552609262 -0.10982764430633409 0.20187993954061761
0.21385358111729127 -0.030948611434157468 -0.01835115215865704 -0.015164093341899325 0.09437085356271724 -0.03789875723670141 0.051596954059923886 -0.18684565058322863
-0.6186202978027774 0.21420477760694184 -0.05357163716070411 -0.03849130137776369 0.23646673946586072 0.16426677782906166 -0.4429169865301033 -0.2811659778079257
-0.04345006855245858 0.1807941546407568 0.06182395027800087 0.09518286332471103 -0.11838415802851743 -0.030431071896647937 -0.19458103181989206 -0.14914837791665778
-0.03929916541705052 -0.25391114552763105 -0.0961152321011602 -0.09382366389074384 -0.09778030812909196 0.07620888068537637 -0.05760804142673739 0.04499084323754522
-0.10604826121367 -0.4936105426315938 0.26976842235237486 -0.0006970134779783004 0.01909326605281051 0.08236906530945547 0.07826022832624076 -0.04684136818835712
-0.12864494963120407 -0.2700865189244514 -0.014807466387847487 -0.17133455491796978 0.12045477404159421 -0.08109098635671917 -0.07520220621530446 0.026821938565121998
0.10035503736214746 0.21001574644130844 -0.10187746584516189 -0.29686205181955316 0.015184867530613452 0.11819502728662384 0.2057315926040014 0.038018979817671564
-0.03046891993882116 0.021133153232444614 0.06638287935108725 0.050953357229761125 0.15654786634350928 -0.2990671273481415 0.00791621448010157 0.09133973017784913
-0.3726005099512358 0.038927677294793024 0.10952446747242059 -0.04617772030099986 0.061892269616311266 0.1850163294646728 -0.3128316253052602 0.2711133100957985
0.24866947080052218 0.06492532713145484 0.06388306027378816 -0.11665309689074532 0.29591370859827204 0.25535097675604357 0.127541700307174 0.07568100203232815
0.0449939299885292 0.18039444824475745 0.10592320219188904 0.33627443115626876 0.06150326640878043 0.006154929612011734 0.043032999865739004 0.24358194910277134
0.19341471362825802 -0.1382764249720262 -0.018098075019102284 -0.04602484150042557 -0.01693807499180691 -0.07537119103576201 0.2801937787083725 0.1258680654538395
0.07576960795854967 0.0218850924119427 0.30020115043198087 0.2076138288506752 -0.059959180971596394 -0.1272562953131323 -0.32613792892490695 0.1572843278846999
-0.1270886315748241 0.051220653164662386 0.11669533965844815 -0.035923577545559936 0.03238419869279465 -0.21508963963545796 -0.02089849844710503 -0.15065046876370933
-0.017186981377309625 0.022839789093914705 -0.13144303535603977 0.15680290796023383 0.06166537311489619 0.10726299478197182 -0.20958284399688523 -0.1180143005097266
0.03295211540005328 0.11839074060300152 -0.14329769871752449 -0.04252219960915562 0.1590207975440104 0.1870454668638417 0.07543670928920643 0.013822886563315274
-0.03176386550381732 0.13823055019468147 -0.0025773320102248243 -0.09452297255389118 -0.22208608382667747 -0.12855289850953625 0.2988059555194502 -0.2179358052398689

layer1.bias f8 [128]
00000000: 7685 cdbe ebe1 c1bf 225b 5907 15b6 c73f
00000010: 9e54 f2b8 291c a5bf 37af fd22 b514 90bf
00000020: fbf2 91ab 5387 96bf 7515 cf93 88c6 c0bf
00000030: fda7 a22e 3f07 adbf 2c71 7702 9c2f d0bf
00000040: 7989 3efa 99ca cebf 3508 6a31 360a b23f
00000050: 65cc 5100 c59f e2bf 6f29 d4e8 cd2e ab3f
00000060: 6568 d8e0 255f c33f 513d ae81 8627 b23f
00000070: 9672 d7dd c737 b33f d0d2 0980 2540 a93f
00000080: d9c6 5677 ff87 b0bf 2f12 7b97 b694 a03f
00000090: 43c1 0fbd dc1c abbf 0829 0cc8 2973 bdbf
000000a0: 9bfb 02b2 2773 c33f 36f6 494f 83ae c2bf
000000b0: f636 68b5 7e42 b33f 449a 6059 a450 e0bf
000000c0: 38b7 355b 9972 c5bf 29ad 322a ec31 cc3f
000000d0: d140 b930 5a67 ddbf 7e02 0e80 2d2c acbf
000000e0: bc67 b8b4 37fb c4bf ffe4 2deb d818 d33f
000000f0: ca67 bc41 14c1 c0bf 3e3f e251 fcd4 a2bf
00000100: db39 c02a d407 b1bf d023 6296 2eff c6bf
00000110: b967 dfba cfef c23f 936d b7ea a30d ccbf
00000120: bbef 4904 417e bbbf d879 93ba b026 d13f
00000130: 3fde 24fd 1e0b bfbf 7eab 74fb 7014 a43f
00000140: df30 ea7a caae d63f cdf5 2dfc 4d29 9e3f
00000150: 931a 7328 8df9 c0bf bfbb c9ac 1f94 aebf
00000160: 81c3 a5a4 3a77 a03f 468c 8a68 cf7b c1bf
00000170: a9b5 44a4 0b22 dc3f 56ea c864 114d c9bf
00000180: b2d1 a5ec be22 ab3f 8c5f 015e cc07 a53f
00000190: 2085 dfe7 0232 c2bf 82e8 f5e2 6757 c03f
000001a0: ab0d 9714 8d4f bebf 7ba9 8267 a352 dc3f
000001b0: 6099 177b 637d bcbf fbcb 0a3b eebe b7bf
000001c0: aa89 3d15 7d81 cc3f 79a2 4b32 9861 c73f
000001d0: bd50 574e 004a adbf 43ae 1f07 299a b33f
000001e0: 6b26 cd8b a452 b13f bff6 1db9 d75b b33f
000001f0: d45e cf11 46e5 e3bf 7497 9808 2400 adbf
00000200: 4689 2c71 d84e b93f 9a5f b92c 6206 9dbf
00000210: fac9 3160 38b4 cbbf 0814 0fb8 9e0a d03f
00000220: c7cc 0717 59e9 b8bf b9a7 12a7 b8da cb3f
00000230: 1016 fd74 4471 d63f e12f 2c84 69d8 aa3f
00000240: 921b 9290 b7ac d1bf 1173 8e1f afd3 c63f
00000250: 1ea1 7a50 008b d33f be97 bf27 f1f8 bebf
00000260: b22b 35b3 6ae0 c3bf 0dda 57f6 e8d2 b1bf
00000270: e316 38e9 7d7e c03f 71b7 b201 c630 97bf
00000280: 8fe8 f394 adf0 d03f 2e60 ba63 fa7f b73f
00000290: 1f39 47bb ecfb debf eedf fdf4 a5b9 963f
000002a0: 925c c7e4 0395 b53f a0c7 0bff 4161 d9bf
000002b0: 724d af8b f5bd b63f b596 833c 4286 d23f
000002c0: 5963 2464 6d60 973f 2deb c4b3 4fa3 c43f
000002d0: 0111 4f74 4468 c7bf 56f9 8aed b5f7 bebf
000002e0: 4262 9415 16e2 9a3f 7331 d094 44b2 c0bf
000002f0: 3a71 2d4a 3cb4 a03f 3f44 f370 615d cabf
00000300: 0b8c 3a1d ac83 ab3f 4422 cd42 378a c23f
00000310: d5bd 8ffc 0805 9dbf d5b1 c1c0 f636 d13f
00000320: 8fb8 f9ac 7245 833f 54f3 ca7c e15f c53f
00000330: 6381 2418 dfcb bc3f 28bd 8457 d0ee b9bf
00000340: 7cd8 04d2 8d5b b1bf b38e 90d6 42ce a83f
00000350: 3d56 addb 6e16 983f 97b9 6a5b c5a4 acbf
00000360: c400 6e32 8537 d0bf ea56 1557 f0ce d5bf
00000370: 68bb d9e3 d993 b03f 42e0 74e1 5b10 c0bf
00000380: 99a5 0f4c bcc1 c73f af53 4099 27da e63f
00000390: 5496 e7b6 a718 c1bf 00e8 8202 7957 a7bf
000003a0: 4c37 f835 96be acbf 6a1e aa7b 9556 ccbf
000003b0: aadc d2ff b268 b1bf b1e9 5c43 b198 c83f
000003c0: 81f5 27b4 8e3a c93f e1e5 d779 5366 aa3f
000003d0: 8a2d 1241 3932 f2bf dd51 9c39 7619 c33f
000003e0: 9808 bba0 41c2 b9bf cb3f 0d7a 92ac ba3f
000003f0: ff2c be98 1fd4 bdbf ea7e 96fa a9ef c9bf
-0.13970705811065515 0.18524420603599717 -0.04123049147271128 -0.01570399309223022 -0.022000605913933474 -0.1310587617610214 -0.05669591373710146 -0.25290584793926274
-0.24055790633162724 0.07046831804658 -0.5820031172028278 0.05309146372936168 0.15134118536736021 0.07091560998946035 0.0750698963742685 0.04931752384155674
-0.06457516349362481 0.03238459204797938 -0.05295457656746063 -0.11503850110981173 0.15195175353980236 -0.1459507119324585 0.07523338250049591 -0.50984399277224
-0.1675597854004367 0.2202735143704129 -0.4594331241432999 -0.05502454937141453 -0.16391655277476314 0.29839156119085425 -0.13089230737460716 -0.03678120135839301
-0.06652570766184544 -0.17966253607690286 0.14794346451418308 -0.21916626892821664 -0.10739523272235278 0.26798647136993514 -0.12126344375871499 0.039218455024033524
0.35441839221381416 0.029454439656083232 -0.13261570429877576 -0.059723844377792094 0.032159645651410614 -0.13659088711310313 0.43957797090373646 -0.19766442700513903
0.05299946440473792 0.041075121379150564 -0.14215122529916702 0.12766741354045413 -0.11840135338484596 0.44254384144246445 -0.11128827815227771 -0.09275711957415915
0.2227016786301424 0.18266584831077973 -0.05720520931541404 0.07657104896468873 0.06766727841491053 0.07562015790423525 -0.6217375133373602 -0.056641698884319164
0.09885933650051468 -0.02834466360067687 -0.21643738457676404 0.2506481931162061 -0.09731060802714629 0.21761234433989587 0.3506632940737697 0.05243234384951712
-0.27616681211696303 0.17833508530466038 0.305358961670679 -0.12098605366153856 -0.15528615713477972 -0.06962448133695194 0.12886022460604982 -0.022646993497509486
0.2646898226372593 0.09179654059187278 -0.48412626541984766 0.022192566946131302 0.0843050416509519 -0.39656114489400274 0.08883604679367865 0.2894445029217921
0.02282877849310991 0.1612338664798129 -0.18286948851721976 -0.12096726464640048 0.02625307566367697 -0.13044030443451113 0.03262508779036684 -0.20597475066327495
0.05373895508571288 0.14484301339895655 -0.028339519896631266 0.26897972892655037 0.009409805206100933 0.16698855012318836 0.11248583163660934 -0.1013002599399796
-0.06780325295844308 0.04844864720533106 0.023523075254465054 -0.055944602402962555 -0.2533886902310878 -0.34075554374918104 0.06475602925068602 -0.12549923428173498
0.18559983934327987 0.7141302102269175 -0.13356491499796397 -0.045589238697587575 -0.05614156159218328 -0.2213923314886757 -0.068003833252862 0.19215980328756424
0.19709953114208292 0.05156193601937865 -1.1372616330944276 0.1492145329763294 -0.10062036680304443 0.1041957424142758 -0.11651799658845972 -0.2026264642308811

custom_layer.beta f8 [128]
00000000: 0743 b713 9a3b d93f f149 ce79 757b fabf
00000010: c27c 36ab fd0b 0940 2a51 e6f8 821a f33f
00000020: fea3 fbba fe91 da3f d07f 27ae 2a02 ea3f
00000030: ee54 5594 7120 f43f 30c0 70d9 2c31 dabf
00000040: 8cbe bb36 5ae3 d8bf 749d 3300 2980 ccbf
00000050: 15b1 4019 ee65 f5bf da69 8f19 82aa f0bf
00000060: 11c3 6130 4e97 f1bf 719c 1009 aee0 873f
00000070: 9464 c8c7 4b16 e6bf 5147 f26b ca14 c73f
00000080: 0ba5 0f51 6808 f13f 52fb 437b 6b55 b23f
00000090: edcb 379f b669 a7bf 301e e0dd c3ed cf3f
000000a0: 0e0b 024f baab ecbf ecba 305f bc3d f93f
000000b0: c92e 1e21 3d23 0040 fe92 3297 6fdd 0540
000000c0: 9928 56d5 9553 b63f 5fae 46d6 cecd be3f
000000d0: b07b e9ae 314a d13f 4f30 6296 c315 c83f
000000e0: e884 ad64 e749 d3bf fd02 e935 2c09 f13f
000000f0: fa20 fdcf d70e f73f a9d7 c4f6 cffb dfbf
00000100: 5bf5 796f 0477 f5bf 5ea1 21bc 596b c4bf
00000110: d6df dffa 4fe8 aa3f f0a7 8789 2657 f83f
00000120: 4534 3adf 67bf adbf d7dd 177b 8aad d53f
00000130: 7589 68ff 7f5a cd3f e5d7 4f13 7185 c73f
00000140: 281b 6e2e e0c0 bebf 5173 df33 a3af b0bf
00000150: 5d25 d68c 3274 d13f 92fa fdbc 72f2 f3bf
00000160: f84f 5472 ca25 96bf a453 6068 3c5f d33f
00000170: fe3e a80b ac3e e9bf b09a 3b1d 8251 e73f
00000180: 08d6 db80 e547 ebbf 38eb 19be e0ca f23f
00000190: 737a 1d72 aff6 f13f 78dd 1986 ebbc ca3f
000001a0: e6d7 c25c 3586 e23f 3954 fb50 e75a f13f
000001b0: a590 dcc1 00e4 b43f 1f8f f0d2 6d13 f43f
000001c0: 8d1f c388 61a2 f7bf d80e 1845 3095 e4bf
000001d0: a849 8308 edc2 fe3f d404 eb37 11a2 dbbf
000001e0: d9d6 ce73 fbc9 fa3f 30d9 1282 90c1 b93f
000001f0: 8865 1c41 9f76 efbf 5444 5c04 5885 f03f
00000200: 15c4 e058 45fc f03f e831 f9e6 b143 ea3f
00000210: 1019 315f 0ea6 03c0 2557 2a50 0f6e bc3f
00000220: f8ea 4318 b226 d53f 96c4 435e 109f f9bf
00000230: 4e6b 99b9 acfa f3bf 08f8 7ff3 65b9 dabf
00000240: 9b16 4ba2 ceb9 aa3f 4a2f a31c b4b6 a1bf
00000250: 736f 3984 992b febf d158 792c c8de e5bf
00000260: bbd4 83aa 0673 9c3f 5161 e151 523f f4bf
00000270: 1bbb 56ff 5554 d0bf bceb 2998 c61a d1bf
00000280: abd7 a2e3 2d77 f23f ebcd 3bff f215 e13f
00000290: 8ca7 3f37 92c8 fabf 0a32 dd56 edf0 c93f
000002a0: c751 b538 2135 c6bf e982 ec53 efc7 f13f
000002b0: 7188 4594 631d b83f 1294 af6b c4f7 f03f
000002c0: 4b95 43ca d8c8 c3bf 1b11 4c47 ed69 f43f
000002d0: 4c95 3e3d ff41 e8bf bc6f 3cd5 e875 dd3f
000002e0: 210a 72a9 4df7 c33f 9ceb d321 7b2f f7bf
000002f0: 5a88 60d6 578e e7bf 0b15 6971 b524 9e3f
00000300: 4a7a e97e d93c acbf 7443 31d3 efc9 f7bf
00000310: c7a3 e183 97b6 80bf 3320 660a 287c e73f
00000320: 503a 9795 5507 eabf abc4 08f3 cf9b bf3f
00000330: 809f 6683 56f0 c0bf 33cd 0f14 e8c3 9ebf
00000340: 1684 1970 abd8 cc3f 084b 4bac 0e71 82bf
00000350: 2f46 a5ca 0c65 f7bf 3d2e e4e5 fd10 d8bf
00000360: 7ac3 074c b0c5 f9bf 95fc 93c5 c6b8 f0bf
00000370: b8fe f5ce 1e62 f5bf e07c fb5b 8cdd b7bf
00000380: a3af e32b 8a29 e7bf 87ef 18bb f436 05c0
00000390: 7273 e43d 6418 f3bf 1a96 7397 78b2 f1bf
000003a0: 0f8c 0638 b157 cc3f 5845 3379 ecab dabf
000003b0: e3f8 420b 3815 d73f 7f08 e24b 0c0b d8bf
000003c0: 5c5a 0b6f d1ce e33f 8601 bdf6 62c8 f53f
000003d0: 8e25 cf66 0281 03c0 f7bb bea2 639e e1bf
000003e0: b4f1 39af 4bcb f1bf e002 ce9b bbb6 e73f
000003f0: 2709 1d38 78a9 9f3f 6416 ceb9 b83d af3f
0.3942628090417632 -1.6551413305320433 3.130854928589174 1.193972561134681 0.4151608301168038 0.8127644921732955 1.2579208177824586 -0.40925141558091394
-0.38887648911529804 -0.2226611376747588 -1.3373852716859507 -1.0416279791303311 -1.099439801208238 0.011659011508596802 -0.6902216817863001 0.18032198210544917
1.0645526091050808 0.07161590346730165 -0.04572840398386533 0.24944351514590002 -0.8959628623127587 1.57757222350818 2.017206438764195 2.733122998457815
0.08721291025554691 0.12032788020467809 0.2701534469724107 0.1881641849798847 -0.30138573486153897 1.0647394281260738 1.4411237835466282 -0.49974440668608594
-1.3415569643542173 -0.15952607809164027 0.052553653120355356 1.521276986337849 -0.058100934981759646 0.33871709843466874 0.2293243405448028 0.18375981753314288
-0.12013054975078019 -0.06518001572062572 0.27271713021817395 -1.2466914541725242 -0.02162853548823304 0.3026877421664784 -0.7889003970794588 0.7286997385934537
-0.8525264279148255 1.1745307374792002 1.122725911867431 0.2088903813162053 0.5788828670254105 1.084693256697632 0.08160404904316694 1.254743408187046
-1.477143797137589 -0.6432114934436539 1.9225893337757984 -0.43176680050607996 1.6743120692967095 0.10060980964303634 -0.9832302352617015 1.0325546427086651
1.0615895721241533 0.8207635413360181 -2.456082099614953 0.1110543795315065 0.33048679704340556 -1.6013339693275035 -1.2486998796436697 -0.41756581095967293
0.05219884616012146 -0.03459704255655412 -1.8856444516195239 -0.6834450596459424 0.027782539517791287 -1.2654593656971722 -0.25514745650700527 -0.26725926265470057
1.1540964977298056 0.5339293465644323 -1.6739675672674563 0.20266501180084645 -0.1734963919540304 1.1113122251774092 0.0941984402648204 1.0604900557020795
-0.15456685901805609 1.2758610520405174 -0.7580562778645485 0.4603216249831765 0.15598459981636473 -1.4490920373343448 -0.7361258685161929 0.029436907813097195
-0.05515174555033704 -1.4868009805397522 -0.00816076632709607 0.7339058116058425 -0.8133953019804014 0.12347125705197708 -0.13233453193720024 -0.030044199203939925
0.22536223386399062 -0.009004702218054841 -1.4621704021304927 -0.37603709650349854 -1.6107638330397251 -1.0451114385503264 -1.336455162468992 -0.09322430844939644
-0.7238207680907077 -2.651833974550701 -1.1934549729987478 -1.1060720363688064 0.2214261554300667 -0.41674339137997185 0.3606701002098715 -0.37567431841319626
0.6189963501772797 1.3614225042548198 -2.437992861935249 -0.5505846193899505 -1.112132725217731 0.7410562556325111 0.030919912743464863 0.06101777332427785

custom_layer.gamma f8 [128]
00000000: eb87 5fd8 1cea e43f ca7a 27c6 e17f de3f
00000010: 51c5 a230 a926 eabf 0932 3625 c8a4 e0bf
00000020: 168c fc61 6b32 8cbf 2c5f 1238 3c66 febf
00000030: 58ad 9ae1 f791 c2bf 5274 901a 879b fabf
00000040: 0e31 2ba9 2f67 cfbf 1555 0058 28da d6bf
00000050: c50e 2f07 8c47 e8bf 493c 4186 86b0 f13f
00000060: ee63 eefc 0c7f e13f 6d58 f1c8 bf17 e7bf
00000070: 13cd 753e 5b91 ec3f ae44 2978 8c31 ecbf
00000080: 3b08 e3f6 e758 f53f 0d95 a9db 7f2d eb3f
00000090: c770 d9d5 c03e ed3f bac0 c147 3e73 c13f
000000a0: d60f 0dd9 4812 d9bf 4901 d309 39b4 d4bf
000000b0: 77cf 9fad 8100 dabf 9b56 e7ba ea59 da3f
000000c0: 7f36 aea7 d68f d73f 98ca 1696 c63a d7bf
000000d0: 0669 77aa 64e3 f93f 6b82 03c6 03cd e43f
000000e0: 95b9 72c0 7380 eabf ad11 6485 46f4 ea3f
000000f0: 7d3b 3d52 a8d1 d4bf 1a2d c968 e11b c7bf
00000100: 272c 6a5a 8d29 e63f 44ad 6a23 dbaf dabf
00000110: 74a1 cdbf a8dd f5bf fbb8 af38 d45f ee3f
00000120: 8f04 871e 9d9f e1bf 7e4b ad6c 1465 0240
00000130: 1d82 54fb e99b e1bf f49e 8692 3eae 0440
00000140: 90c3 03ab f23c 0140 9bab df2e b851 d03f
00000150: 300d 63e4 7ae4 f4bf 54cb 70d4 c2ac f23f
00000160: d3be b985 9cbd f6bf 85a2 9673 2996 d33f
00000170: 9a0d 8fa0 3412 0940 38f9 e309 d8c4 e53f
00000180: 5fda 9874 9274 f83f e8b6 beee 39c4 f23f
00000190: 6336 3cec 6acb d0bf 5ea0 c136 c5f6 db3f
000001a0: b681 56a0 e337 e43f 5c65 7a0c 4907 bd3f
000001b0: 1b60 7045 cac1 d13f 3b17 8a63 a487 d6bf
000001c0: a62f 9cba 2c62 d0bf 82ca 7195 4f16 dcbf
000001d0: 8ef0 79da 3934 ce3f 7632 8e19 69d3 f5bf
000001e0: 2c06 265e 9866 e93f 552b 5fc3 c0b8 df3f
000001f0: f389 3631 167c dabf bd79 db79 ded0 eabf
00000200: add3 7d64 73b5 f2bf ba79 cb3e 5114 f73f
00000210: bef8 8039 b85f ce3f a2e4 e022 fa0d e23f
00000220: bd1f a1a5 294f eabf d800 7960 4323 debf
00000230: 6538 b869 1524 de3f 005c 751c 4447 c93f
00000240: 91fe 85e8 ad78 0040 a4cb eb6a 25c3 d8bf
00000250: 49cb 51bd 3f0b ecbf 2ab4 e202 41aa e13f
00000260: e2b1 db8d 0593 f4bf 9a6d 109f 2d04 f03f
00000270: 09d1 3a40 792a e83f ad1f 72d9 129c c43f
00000280: 2573 8c03 5080 e83f b315 37eb f586 da3f
00000290: 11f1 92d5 6fcc a63f c3a7 5db3 c744 cabf
000002a0: 4bad 0f08 3063 f13f 249e 2c56 5794 bc3f
000002b0: 02f5 433b 1d73 e3bf 28f1 a0d1 c8e7 ee3f
000002c0: bc0f 164a 6bd9 f03f 237f 01e5 71ec bebf
000002d0: 9ca1 4f0e 129a ef3f 256f e78d 5e4f c6bf
000002e0: 002f de1b fe82 e73f 5699 4f4e 3a24 e3bf
000002f0: d77a 8114 8c9b e83f 6a63 b047 19fd b3bf
00000300: b3f7 78ff 0e74 cdbf 88fe 23a4 ea6c e13f
00000310: 9c0b 5eba c7d0 fbbf 63a1 6742 dffd f33f
00000320: 635a cf07 b134 f13f 7631 c754 d592 d9bf
00000330: f063 7f25 8fc4 f33f 776b f509 f139 0040
00000340: 5392 24c0 65a1 f1bf d476 6607 0a58 fbbf
00000350: 6a8d f657 fe83 ec3f b4e1 50fb 7ada d53f
00000360: 2b74 9151 c50a bc3f 9fff d9cd fba5 d73f
00000370: e846 23c3 5c0f f23f 9f1e 4031 f9f4 f6bf
00000380: 7273 8c39 b986 f0bf c14f f48c 2b74 f93f
00000390: 22a3 04c7 07b5 d83f 2421 41a3 d89e b3bf
000003a0: f4de a9c3 a5bc ecbf 0e89 da83 596b e93f
000003b0: 362a d2fd f27a de3f 3c9b 6cb9 d338 f93f
000003c0: 8edf 34e6 6787 ea3f 89ba 981b 5efa e13f
000003d0: b156 2851 3fd5 00c0 f763 225e 2174 f13f
000003e0: 6937 6a74 a02d ed3f c5b1 41ab 93b7 e2bf
000003f0: a4cf 8922 59f1 d43f a5fb ccb1 6607 f63f
0.6535782075918609 0.47655529356954374 -0.8172193479460167 -0.5201149679938349 -0.013768042495547344 -1.8999597730925855 -0.14507959857778974 -1.6629706418673504
-0.24533649215880654 -0.3570652827632597 -0.7587337627705543 1.1055970424965997 0.5467591228544941 -0.7216490673697656 0.8927437038350113 -0.8810484263323326
1.3342055934922559 0.8493041315347526 0.9139103104348799 0.1363294458747129 -0.39174100109471277 -0.32349992713354375 -0.4062809176968964 0.4117380929213625
0.36815420508433044 -0.36296238572246287 1.6180159243436392 0.6500262134032487 -0.8281801947357957 0.8423187833109772 -0.32529647856875227 -0.18053834549423514
0.6925722852623765 -0.41698339899695136 -1.3666160099329234 0.9491978747517175 -0.5507340999830762 2.299355362928906 -0.5502824696341723 2.5850802848179857
2.154759727527967 0.25498776032935105 -1.3057812615741788 1.1671779917202985 -1.4212918494849205 0.3060401562493456 3.133889440885196 0.6802787964987038
1.528459983308174 1.172906811330387 -0.262415629099314 0.4369366678934109 0.631822407875055 0.11339241556779228 0.27745301037930553 -0.35202893944402874
-0.25599210952418117 -0.43886174768628206 0.235968810727972 -1.3641139028797205 0.7937738264883527 0.4956514270713133 -0.4138236504169576 -0.8379967098260789
-1.1692995000314383 1.4424602940485856 0.23729613120844378 0.5642061883182985 -0.8221634135197672 -0.4709022943607244 0.470952370874221 0.19748736753055596
2.0589254537479253 -0.3869107765341886 -0.8763731668135303 0.5520329529150605 -1.285893968709495 1.0010200704044565 0.7551847700583788 0.16101298921080112
0.7656631535824984 0.4144873425505821 0.044528479405444917 -0.20522400148484907 1.0867157282726392 0.11163850644936041 -0.6078020246056044 0.9657940000829841
1.053080834769374 -0.12079536286318819 0.9875574378502736 -0.17429716042431057 0.734740309171201 -0.5981723336706561 0.7689876938346413 -0.07808073044033184
-0.2301043269562207 0.5445454793807167 -1.7384717254615003 1.2494804948747393 1.0753641419484203 -0.39958699492560557 1.2354880776167612 2.028291776468389
-1.1019036775188809 -1.708993939311246 0.8911124914197164 0.34145998518536236 0.10953934899721733 0.3695058355588063 1.1287505743570652 -1.434807960877073
-1.0328914878839126 1.590861845591448 0.38604921756136623 -0.0766425512857763 -0.8980282613328812 0.7943542075411487 0.47625422274782936 1.5763737910398978
0.8290290352078828 0.5618124522205373 -2.1041246738849044 1.090852134430177 0.9118196748474762 -0.5849092812400661 0.3272307240761114 1.3768069215145513

layer2.weight f8 [128, 128]
00000000: 0cc3 6a0d eebd b4bf 7527 d658 c1bd c63f
00000010: 2f57 346f 5dd5 993f 7988 1185 e80b cebf
00000020: 9d90 7551 aae5 d1bf b2b5 1688 d6f6 abbf
00000030: 0f6d 933e bd80 b5bf 6cab a3f1 d6fd c33f
00000040: 9235 b3de c135 d2bf f6ba 5e83 5804 863f
00000050: 7c43 f27d b16c 88bf 4c23 1081 6b23 c5bf
00000060: 6dd1 d338 5bef c43f a85b eb93 44d4 b23f
00000070: d330 f063 483a c3bf 5c2b 85e2 8440 cabf
00000080: 81be 988d fd40 b33f 1e40 3f49 690a bcbf
00000090: 2855 b9c6 1ff6 8dbf 1fb1 69d6 a252 c1bf
000000a0: 565a f111 5483 373f 5d31 ceae 014d bfbf
000000b0: 6d6e c4df d501 c43f 1f48 0fe1 8d4c cc3f
000000c0: d928 e908 e41b b7bf b0dd dc7c 32e5 c63f
000000d0: be80 52b9 61df b5bf cb2a e6fc fe57 a53f
000000e0: d76b 2356 2b41 9b3f dc76 a67f 91a5 b53f
000000f0: 124c 347f aefb d13f 5e98 af8e 21ca be3f
00000100: d67d 7acc 9821 cdbf df1a 892b 9412 b33f
00000110: b4ec 4298 6dca 8b3f de83 bdbd 5b4d c3bf
00000120: 8216 189d 2ee4 acbf c294 001e 6a4b e1bf
00000130: 5ead ce5a 0b03 993f 5118 ae14 1b60 9f3f
00000140: eba6 4847 20ab babf a28f 6d24 eeb3 ba3f
00000150: 401a 4ad8 a435 ccbf e7ea 64f7 979b ca3f
00000160: 1668 4a84 22ea a3bf 6b85 bb37 2a8c b53f
00000170: ed8c e049 2028 e03f 768b 9a72 864e a5bf
00000180: d23f 6c2e 76e0 d5bf cc57 5dbd 4308 a7bf
00000190: 681d 38d0 e75f b9bf 8adc 57a7 a765 b93f
000001a0: 039c 104a d707 babf 3724 7709 a54e ac3f
000001b0: fd5c 742b 61e5 913f b2ab 861b 0f5d 973f
000001c0: a3a0 c60d 5b89 c13f e879 c2d5 caee 7fbf
000001d0: b58d 856f e867 cbbf aa54 e5bd b863 c73f
000001e0: a948 186e c4c3 c43f bf67 ef4e 3426 c43f
000001f0: db2e e479 aff1 ce3f 62f1 ed48 898f c33f
00000200: 7b3a c21e 2199 a8bf bffd 7aad 2ef6 a5bf
00000210: b2e8 1532 8d8b adbf 1861 7a14 e779 b7bf
00000220: 3d01 a4de 4530 bc3f 1a47 8203 f147 bdbf
00000230: c506 633f 4f8d c7bf bf97 be22 37f1 b13f
00000240: 1562 c0c7 6d91 b83f 97e4 8259 7422 ad3f
00000250: 783c 36f2 f54f 98bf 5633 23d9 9770 c43f
00000260: e49a bc1c 9430 c0bf d215 ff75 e8ce 9cbf
00000270: 0fa6 feb9 f390 a63f a61e 132b 8e05 be3f
00000280: dc25 269d 6ce5 79bf 63b9 a486 4210 c03f
00000290: 9b44 a0e5 96e2 cd3f 5970 e72a ec1a c33f
000002a0: d627 d81e ff21 c0bf c6bd 0f13 8906 cdbf
000002b0: 4d41 71c8 95e4 b73f a9eb 5019 8547 d23f
000002c0: f2c9 f2ec e0dc c33f 9cde 259b 6ce3 a0bf
000002d0: 827d 410b 8a28 a63f bb02 de66 593d adbf
000002e0: 9112 dc06 3462 843f 4a7b aa10 1e27 ad3f
000002f0: 312c db95 2adc b43f cc9f 4123 7010 bfbf
00000300: 4426 1462 0173 90bf 1eb0 1bce 776e b9bf
00000310: 213b fc14 2538 71bf a164 1ebd 0f03 80bf
00000320: dd92 e4a3 c082 c7bf ef86 fcb9 e171 cabf
00000330: c1a5 6bbc d2fc adbf bf18 f3b2 5888 813f
00000340: 6c92 670c 61f6 bdbf de84 1a99 b3cb a0bf
00000350: 8a7d 5916 23c4 b7bf 221f 3bae 1074 97bf
00000360: adf0 a02a 68b7 a6bf 1b97 edb6 6de9 b0bf
00000370: 662f ec04 8c76 b6bf a379 a188 2b2b b53f
00000380: cb24 10a4 8e58 c23f 77a6 d21b dedc bbbf
00000390: 370c d338 da13 a33f f0bf 3823 728b a93f
000003a0: b93b db6d 5533 53bf 3297 7af9 6613 d23f
000003b0: b9b5 ad8a 55f3 b9bf 376d ed00 a2b3 c5bf
000003c0: e4b6 7d73 f9af b6bf 5ab1 5391 b2c3 b0bf
000003d0: 0aa6 d999 79ff c1bf 127c ae89 d007 adbf
000003e0: 0295 983e e3a1 923f 821b f0a0 152a 9f3f
000003f0: 9995 a87d bc42 a83f 8f72 cb53 c1f4 c1bf
00000400: 19cd bfa1 494c b73f 34ba 00eb 8f3f bdbf
00000410: 8a63 c123 af0a 823f 5572 6623 39e5 b1bf
00000420: 8da4 19ee deb1 acbf 1f02 b68c 980c 613f
00000430: 51c8 dafb 5d36 65bf 50ec 36ba 8429 c03f
00000440: 235b 59f6 8846 573f b377 88ad 36f0 893f
00000450: 5e73 cedc 897b 8a3f cf94 d9bf 08a0 603f
00000460: e476 c458 b963 abbf 8132 de42 4b1d 6f3f
00000470: 4e68 c7ce b07d 6bbf f9a2 ddc3 9c74 85bf
00000480: 9e9c 66f8 27e5 c3bf a8f7 8cdc dd2f b7bf
00000490: fcd1 8d60 258c a0bf 1c7c 87bd 77da a1bf
000004a0: 694f 01a9 72a6 b03f 52d0 4ce0 dbd6 9c3f
000004b0: e4cb 47d4 6e71 8e3f 519e 9e3d ad36 6bbf
000004c0: 55aa 292f 8a20 9c3f b892 dfe5 bffc b9bf
000004d0: 270c 82f5 cb45 b03f 443b 831a 40de b13f
000004e0: c344 6cf4 76dd aa3f 968a 5218 cb1e b2bf
000004f0: defa 3316 3803 c0bf b8b1 0c7f 929f a63f
00000500: b939 71bf 5030 b4bf 12bf dc18 3779 5bbf
00000510: 52ba 1562 b763 b8bf 3bba 9ddb a7e9 a1bf
00000520: 120a aa5c bc4e 7b3f c126 115e ec94 a73f
00000530: e097 7343 aee2 8d3f 7a4c 59ce 611a aabf
00000540: 1aea defc f0e5 bbbf c70f 7f2d 33db b7bf
00000550: de48 6838 e6d0 893f 402f 861e 5440 993f
00000560: 0ac6 969f ea7a a43f 4f68 664d c6d5 a33f
00000570: 289b 9320 4847 993f c5a7 4458 45ec b0bf
00000580: fe54 cc7f 351c 9cbf d138 6809 668c cc3f
00000590: 03ac 1f87 c475 a1bf 5d9f d738 3e66 babf
000005a0: 48d4 6d0a 1c75 b83f e52b 0b44 e490 953f
000005b0: 0e47 d429 7203 9bbf 6ef7 7429 014b 40bf
000005c0: 0658 c680 abb7 793f a55c ba8a 73ca a2bf
000005d0: 12fd 3d51 d59d 733f c67f 8a6c 5c1e b03f
000005e0: 602d 3353 beea b93f fc50 fe17 c347 bdbf
000005f0: 7721 0ea3 8d35 a53f 1fa7 6d23 8a1c a63f
00000600: bb04 9f75 4404 873f 4fa4 49a6 a041 b9bf
00000610: 3e48 9429 cdf6 a93f 47b8 29c7 1771 b33f
00000620: 7ab3 a013 bdf8 a53f aa64 767b 8bc4 8dbf
00000630: 7dbf 298d 22a8 83bf 73d4 c301 a234 b53f
00000640: a0c6 b117 6a7b c9bf 0959 80ca 6bc2 b7bf
00000650: 9fdf bcd1 9ac0 88bf 856d 65aa dba8 8ebf
00000660: f016 856c d7a8 a6bf cd7c 7b84 4ef8 a9bf
00000670: 5833 a0c7 1538 c8bf d697 00c8 6942 54bf
00000680: 4ce3 01d7 7905 c23f 84d7 396c c6c6 a2bf
00000690: 5cb2 52a8 77fb 4b3f 377f 5a57 261b b43f
000006a0: 5975 a195 a0b8 ae3f 6c30 2811 cf25 bbbf
000006b0: 0699 929a e70e 993f 519a 1015 def6 9c3f
000006c0: 4b1f 0e6a 6cd5 b7bf 8d67 c576 2ffb 983f
000006d0: b7eb 97d8 c89c a2bf 9c85 9832 9fce 833f
000006e0: 3390 0e61 8c31 b33f 3b01 a387 d91b 7cbf
000006f0: f54e 6238 7476 b1bf 2004 7481 c1e5 a13f
00000700: cc97 c407 2739 b2bf 8b8d 7a42 23cf 283f
00000710: bda1 7a36 40e4 c23f 0efe f8ec 1276 87bf
00000720: e42f 6ecb e77c 983f 18ff ece7 108e b2bf
00000730: 536d 052e 7fcb 82bf a222 2735 deac 9dbf
00000740: 8b6b ead7 a385 a1bf ef71 2d44 6f93 a4bf
00000750: 8a81 1048 ac17 993f aa3c 8e4a 83cf a0bf
00000760: 6e0d 7ed6 9b4d 84bf 3b76 b2f5 542b b1bf
00000770: 5743 3081 fbab c0bf 9854 4774 b7a1 b73f
00000780: a59b e96a 8b20 933f 4cb4 a6f2 9611 b13f
00000790: 3414 4438 fab3 b7bf cb22 b734 4fcf 6b3f
000007a0: 7960 cff8 cd45 b53f b6f3 3063 90d0 a0bf
000007b0: cb12 a9a2 ad2b b53f 5864 dcb2 da93 b3bf
000007c0: 0ea7 af8b 7455 bb3f 9161 6454 aab8 7bbf
000007d0: dd57 ad31 3e48 6a3f cf67 b33d 7702 a03f
000007e0: 18d9 a227 7bcb 8bbf f328 e7d3 6503 76bf
000007f0: 7ef7 50d8 1f61 b3bf e15d 7f6d 1d6c b5bf
-0.0810231001621668 0.17766587102624568 0.02522798529852038 -0.2347384118793945 -0.2796426578045244 -0.05461759959448943 -0.08399565484744563 0.1561840705756724
-0.28453108547258765 0.01075047636899516 -0.011926066070630396 -0.16514343072801763 0.16355457567955103 0.07355145083725623 -0.15021614913746947 -0.2050939661079053
0.07521042544316893 -0.10953386343248936 -0.014629600765298692 -0.13533435315492512 0.0003587799309960107 -0.12226877706252055 0.15630601335657293 0.2210862492489136
-0.09026932923839882 0.17886954399885502 -0.08543978476018574 0.04168698155543423 0.02661578858610966 0.08455762258969507 0.28098642751973657 0.12027177556555688
-0.22758779510785015 0.07450223982696567 0.013569694718503868 -0.1507982899156834 -0.05642839114811428 -0.540455874059852 0.024425675790252448 0.03064005197259007
-0.10417367687537264 0.10430801762919242 -0.22038708268174112 0.20787334041400315 -0.03889568199993236 0.08416999684006547 0.5048982088959783 -0.041614724626262964
-0.34182505162698107 -0.04498492895679326 -0.09911965211369067 0.09920738063361703 -0.10168214376663802 0.05528751125854863 0.017476576115851284 0.022815929465348446
0.13700426266337215 -0.007796089481557612 -0.21410851903338615 0.1827307631707858 0.16222434402204058 0.15741590360886268 0.24175065471387466 0.15281787930497176
-0.04804328442070457 -0.04289384715729793 -0.05770531879802955 -0.09170383691742179 0.11011158643305392 -0.11437898955980721 -0.18399992556628866 0.07008690450911013
0.09596906782861254 0.05690349190394633 -0.023742525967062694 0.1596860704652509 -0.12648250010644013 -0.028133041574411717 0.044074646429475554 0.11727226783397757
-0.006322311661628412 0.12549621176135436 0.2334774609776432 0.14925911040234288 -0.12603749280998383 -0.22676194601761618 0.09333168166745516 0.2856152293422221
0.15517818040605352 -0.03298510927100759 0.043278039812089567 -0.05710868244842034 0.009952932795848997 0.056939067396561585 0.08148447187993281 -0.12134457455397224
-0.0160637107956403 -0.09934185773789792 -0.0042039345278357685 -0.007818339308686641 -0.1836777496584067 -0.20660039502495617 -0.058569512844609324 0.008560841523273742
-0.11704069664808409 -0.03280411952915484 -0.09283656402248233 -0.0229036909429673 -0.04436803360337769 -0.06606183734910724 -0.08774638290577527 0.08268997274124117
0.1433275509919326 -0.1088389223029028 0.03726083701760568 0.04989201240493901 -0.0011719068783582044 0.28243421900912147 -0.10136923442561042 -0.16954445882115873
-0.08862265653234719 -0.06548610733051899 -0.14060897838798808 -0.05670024567302091 0.01819567746692475 0.03043397707736118 0.04738415750424991 -0.14028183547533898
0.09100780676799437 -0.11425113189100317 0.008809440878552417 -0.06990391840231187 -0.0560445466661089 0.002081201504268173 -0.0025894008275253806 0.12626704304224967
0.0014206254503698688 0.01266520230370447 0.012930943537691138 0.00202943524236563 -0.05349520882212547 0.003798148150002512 -0.003355832412336424 -0.010476326682423475
-0.15543079022356648 -0.09057413706338358 -0.032319229160666624 -0.034869901548283816 0.06503979326344979 0.028163371625126672 0.014864793637547842 -0.003321970329995407
0.02746787941797842 -0.10151290285245806 0.06356501334998708 0.06979752204209172 0.05247089132002138 -0.07078236907777077 -0.12509823879368914 0.044186189660055886
-0.07886223482021294 -0.0016768491800113789 -0.0952715506043458 -0.03498577648030162 0.006666885174697617 0.046058069689548294 0.014592515405137563 -0.05098252910524877
-0.10897737668612031 -0.09318847523451189 0.012605475040832589 0.02465945659928015 0.04000027845485128 0.03874034590553831 0.024685980785672218 -0.06610520749077782
-0.027451358723813428 0.22303462466556437 -0.03410162114581541 -0.10312260520697465 0.09553694967856174 0.021060530331663236 -0.0263803327589534 -0.0004972224877872586
0.006278676923463072 -0.036700831112449074 0.004789193411738129 0.06296327257086806 0.10123815089462118 -0.11437625251557287 0.04142420401973628 0.043186489891765094
0.011238608207238312 -0.09865764674909026 0.05071107037123611 0.07594441044213439 0.04291334976765078 -0.01453503580596512 -0.009598035748439088 0.0828343633946405
-0.19907880932764943 -0.09281037992363762 -0.012086114431084925 -0.014970508706645411 -0.044256908413940255 -0.050722554847874336 -0.18921158072807986 -0.0012365372676952278
0.14079211233527145 -0.03667278357617845 0.000853951860923251 0.07853927261976144 0.06000234438463776 -0.10604566735145377 0.024470919427266778 0.028285474811264703
-0.09310033406484057 0.02439569628163656 -0.03635242122614762 0.009671443683205543 0.07497479791214871 -0.006862497068312041 -0.06821371437609598 0.03495602326621161
-0.0711845773663235 0.00018927865425153972 0.1475906625758067 -0.011455676895933766 0.023913976470382084 -0.07248025572061711 -0.009177201835589932 -0.028979751581376896
-0.03422271738710155 -0.040187336990786686 0.024504367731539335 -0.03283319745161724 -0.009913651927269309 -0.06706744192566642 -0.13024848754914828 0.09231134976228572
0.018678835297034308 0.06667464660741124 -0.09258998750381481 0.0033947512617696677 0.08309638332809922 -0.03284121714430148 0.08269772740556929 -0.07647482744904843
0.10677269373232098 -0.006767907476636374 0.003208276245838511 0.031268812448345444 -0.013571703097437424 -0.005374334110863399 -0.07570075064810841 -0.083680953247828

layer2.bias f8 [128]
00000000: 94f9 fe3f 5cbf 95bf 6934 74fc a89b b33f
00000010: 2bdf f23f f485 9c3f c0be ebb1 25ee 82bf
00000020: 200e a0ea a66a a3bf 0272 1616 fd53 b43f
00000030: 1380 7880 20e7 70bf d517 c33b 1b18 bc3f
00000040: 9f30 5979 691c cb3f f31b a911 189b a4bf
00000050: 52f2 0006 1db9 cb3f d388 2caa af11 85bf
00000060: 2904 785a 6abe 9e3f e5cb eae0 5fb4 b93f
00000070: 5312 af4c 6d3a db3f 8658 278b b6e5 b83f
00000080: 6f63 7360 eb63 bc3f 710c 38f8 0902 8ebf
00000090: 042a aa1a 1a6f a53f c9d6 de9b c244 a2bf
000000a0: e5b4 8fb7 5807 a53f deb3 8c3f 2b7e c03f
000000b0: d88f 6964 fb8e a9bf 853c 81e4 bb76 abbf
000000c0: 79eb b1da 5eeb b13f e911 80d8 afb4 bf3f
000000d0: 96dd 6d2e 5717 9d3f 3447 e37e 127e a43f
000000e0: c60d 6875 eb71 b9bf 9db2 1591 efd8 b3bf
000000f0: 7450 a7e1 d375 a4bf f719 cd85 c643 aabf
00000100: 8e52 1926 2a66 893f 2664 c118 63a9 a7bf
00000110: a087 f7bf e05a 85bf 38ae 6922 6994 afbf
00000120: 52a2 7a4d 999a ae3f 6845 abf3 846d b8bf
00000130: e7ae 3868 f04c b73f cab0 c7fa cde3 bbbf
00000140: 5d6d 349f 9d01 b5bf e349 83cc 867b 9abf
00000150: b25b a1d0 d2b9 c53f 7783 5cb1 36c4 b3bf
00000160: a9af 74ed f60c 78bf f219 8b25 c1d2 a33f
00000170: a51d 8c1f fda7 a33f 8d48 3a23 cd5b b2bf
00000180: 9650 9721 ac3c 9e3f c168 1350 3615 a73f
00000190: 328e 1956 c0da 90bf 99c6 b7be 4a9d ad3f
000001a0: 79e4 9c2f a52b db3f 7dac 1b74 b89e b93f
000001b0: 25f5 cfaf 349f babf 9d78 2fd9 80ee 993f
000001c0: 74b1 ecd8 c702 d13f 3d7e 1c40 f323 cbbf
000001d0: 65a1 36e6 fe63 8abf 9714 6bfa c0c9 9ebf
000001e0: 0267 3301 617d bfbf 612c 2ec9 6dee a33f
000001f0: df45 aa70 540d a63f ede4 66c9 bb37 a63f
00000200: 9bb6 3f0a 71e8 c83f f7ea 90fa fe3e a13f
00000210: 0878 3ba6 fe58 babf 6ac9 01f5 f57e db3f
00000220: 7f41 69e3 ddac bb3f 43b3 b5bb b448 98bf
00000230: 23dc 5aba 62f1 ac3f 12df 2aa2 c8bd a1bf
00000240: 7f9c d84e 1b46 b73f de87 7743 b7cc 9e3f
00000250: 4673 1f32 b9f9 bb3f ebd2 cef2 ed9d c23f
00000260: 5378 2e57 2819 bd3f 8e89 c884 110a b63f
00000270: d2cc 11c7 dcaa a43f 19ec e1da db65 bfbf
00000280: cbb4 ea4a 0a19 d1bf 0eac a8e1 4551 bc3f
00000290: 2abe 9e08 aff8 b5bf 571b 61ce e090 b13f
000002a0: 5789 9df2 4d0a bebf 5bb5 84a8 2d75 b2bf
000002b0: 5072 2552 5979 ab3f b74d 8757 e773 c03f
000002c0: 4c5a 06d6 03de b23f a1ba b820 1672 cf3f
000002d0: 0e6d b805 94a5 a63f 1d95 caac 609a a8bf
000002e0: d9b4 0a67 f85a bb3f fb58 3e6d b568 c1bf
000002f0: 9de4 ce32 821a b2bf 37d9 a7ef e263 99bf
00000300: 13a4 64ea 864b bdbf 3756 2013 273c 9dbf
00000310: 2244 7d33 198e af3f 827a 7ff1 6aa6 7f3f
00000320: d510 7bd3 004a 94bf 2c13 d878 2eeb c3bf
00000330: 2798 b9b1 a779 adbf 303c d665 eb63 d03f
00000340: 7265 6772 fb17 c3bf 19e0 c362 9e3f b5bf
00000350: 90a9 b194 0e18 adbf e450 b668 fd60 653f
00000360: f246 ea40 f1be a0bf 5650 25a0 a8ef 99bf
00000370: 4fe7 6ad4 bcca b3bf f656 71bf 937a 86bf
00000380: 1d59 29b1 43ee bbbf cd30 1633 2cd3 b63f
00000390: 1100 cef5 3b67 b33f 9244 5e1c a377 8dbf
000003a0: a3cf 009c f6bc 983f c7cf e3fa 7afc b53f
000003b0: b5e0 7c97 2e25 9a3f a844 638d fcce 5bbf
000003c0: f436 de9b 9f83 a5bf 6733 d980 ac12 afbf
000003d0: c5bb e2c4 71c1 9a3f 1fad 4193 0a6f b03f
000003e0: ba80 66b5 6fb0 b03f 7c4b f99d d638 aabf
000003f0: 77fd 94a6 467c c63f 5d37 a58f 4f5f af3f
-0.02123779430962143 0.07659393466401955 0.027854744341964704 -0.009243292324270569 -0.03792306531979883 0.07940656461000375 -0.004126669845874192 0.10974283417735305
0.21180456567015413 -0.040245773464043476 0.21658671181821149 -0.010287639981076435 0.030023252269533316 0.10040854684011398 0.42544109810504444 0.09725514313990588
0.11089964966539666 -0.014652326476612939 0.04186326575753088 -0.03568084862437854 0.041071674735442966 0.12885037043579833 -0.049918991095892984 -0.05364024319043729
0.06999771918519383 0.12385081325198367 0.02840934964066618 0.04002435492442516 -0.0993945275914064 -0.0775289277277786 -0.039961453719713186 -0.051298335869933646
0.012401894843756336 -0.046214195987609494 -0.010427242143979332 -0.0616791586406546 0.059773245532885114 -0.09542113255453943 0.09101774734943612 -0.1089447724586449
-0.08205590378604684 -0.025861841423486253 0.16973338305498725 -0.07721273260223237 -0.005871738968647047 0.0387173040704062 0.0383910275468751 -0.07171327695894743
0.02952832179092065 0.04508371093261721 -0.016459470038524944 0.05784066751574563 0.42453889512723425 0.1000781329600375 -0.10399178783696479 0.02532388043970767
0.2657947176365021 -0.2120346129458869 -0.012886039162211824 -0.030066504749602343 -0.12300688056293654 0.03892844277205466 0.04307044863993403 0.04339396317977582
0.19459355354722593 0.03368374642055543 -0.10292045172124642 0.4296240704199109 0.1081064872935311 -0.023714851338286335 0.05652912640419341 -0.034651059909661566
0.09091349291758098 0.030077804081777397 0.109279227005982 0.14544462543349054 0.11366512421088375 0.08609113208561878 0.040366076755981375 -0.12264799207507372
-0.2671533328637678 0.1106151271748532 -0.0858258625073566 0.0686169151168604 -0.11734473393656707 -0.07210049976557313 0.053660193708058856 0.128537099588909
0.07370017981734484 0.24566914174780144 0.04423201150731347 -0.048052807896320916 0.10685684695882304 -0.1360079558768986 -0.07071698894914609 -0.024795099141521972
-0.1144337007759904 -0.02854977659452215 0.06163100007564305 0.007727067706552961 -0.019813549907454615 -0.15561467075908675 -0.057568779416030495 0.2560986036778017
-0.14916937910201572 -0.08300199424036271 -0.05682416501152254 0.002609724940791579 -0.032706774877750436 -0.025328287863274866 -0.07731228052116744 -0.010975984840267721
-0.10910437655670475 0.0891597389911027 0.07579397917834309 -0.014388346007566253 0.024158337852170707 0.08588379502526698 0.025532463069993756 -0.0016972986536994226
-0.042019832398279805 -0.06068934510094586 0.026128556863735292 0.06419435591822208 0.06519220522614236 -0.05121489218131267 0.17566760190855366 0.06127403858646006
