COLA_Emulators/PCE/wCDM_PNN_HIGH/MODEL_Z0.588.pth (torch, 192382 bytes, 10 tensors)

layer1.weight f8 [128, 25]
0	0x3f8542c7dfb9df39	0.0103812804365898
1	0xbfb2931130366d3f	-0.07255656649652041
2	0x3fb5a7d56275d4ee	0.0845921864873451
3	0x3fb82b6590258d66	0.09441218156057615
4	0xbfd0ee149e84a7d8	-0.2645312831906472
5	0xbfd0ab4dcf848c6a	-0.26045556321532237
6	0x3fc9e17d7f74c257	0.20219391559068597
7	0xbfc561319e30c48a	-0.16702861999650437
8	0x3fc15cd0fd913a1a	0.13564503079619855
9	0x3fbe37501f6a7a2b	0.11803150908460995
10	0x3fa552cb68f57626	0.04164729744182365
11	0xbfbe832a7a650dd3	-0.11918893325951467
12	0xbfbad837b639fb96	-0.1048617191208748
13	0x3fb4e2c7f551118a	0.08158540476967438
14	0x3fd15e060db3c593	0.271363747960174
15	0x3fc3032da5d09583	0.14853449436592933
16	0xbfbba40d79cdf515	-0.10797199462645708
17	0xbf91ba1a791f67a2	-0.01731149067186489
18	0xbfaa79e87803ccdb	-0.05171133484864195
19	0x3f9ead0ed6fdd6e4	0.029957038757365675
20	0xbfbdf3d3778786d7	-0.11700174015234253
21	0x3fc428da0675ab20	0.15749669375812747
22	0xbfa3ea877679309e	-0.038898690425953605
23	0x3f95df353cca8ac3	0.02135928329029003
24	0x3f82adb3fa4710b7	0.009120374751440214
25	0xbfb0cf00aec12080	-0.06565861002411744
26	0x3fc14f853ce33516	0.13523927186035029
27	0xbfc8d11e3ab18a8f	-0.19388177743811183
28	0xbfe8418012203255	-0.7579956392306239
29	0x3fd02fe378c4c34b	0.25292288583573413
30	0xbfa9176401604b38	-0.0490065814666622
31	0xbfd02ca11f8078e0	-0.2527239616046142
32	0x3fcdde0701e5727b	0.23333823769180015
33	0x3fb5da24ed3c627b	0.08535986701861902
34	0xbfd873ccbb09128e	-0.38206785454921366
35	0xbfd829f4f374ca26	-0.37756084227581466
36	0xbfc62cd7376284e5	-0.17324342922532945
37	0xbfbd6c4e46e816a5	-0.11493386489027076
38	0x3fc8d3e98c15ed2b	0.1939670499813045
39	0xbfca3419cb1c907f	-0.2047149888759385
40	0x3fb7ffbc526b3091	0.09374596607375653
41	0xbfc7ef121a765b06	-0.1869833592615679
42	0x3fb87a13e7d7e04d	0.09561275873409265
43	0xbfc0a78728586239	-0.13011254758818483
44	0xbfb806beb8a6ed31	-0.09385292060953955
45	0x3fb1c5dc501eda86	0.06942536312167577
46	0xbfbe319eb0c75c58	-0.11794463935744781
47	0x3fa6bbbb32cf3380	0.044401025726620524
48	0x3f928d48f9949bf0	0.018117084725556454
49	0x3fc77ad55470bc50	0.1834360754305373
50	0xbf939193e7d2a698	-0.01911002256807723
51	0x3f99d023daace1b7	0.02520805380047061
52	0xbfa6130b05b2d34d	-0.043114036985037
53	0xbfce2643c74e4c18	-0.23554274780016793
54	0x3fac2398cdec4ead	0.054959082734197785
55	0x3fa5f8b11a14fe4c	0.04291299289115766
56	0xbfba8ec72a8b6452	-0.10374111927684851
57	0xbfc18e8c488918e3	-0.13716271917127817
58	0x3fc08d047c92147d	0.12930351336050086
59	0x3fc2458772505f83	0.1427468593762989
60	0xbfdb7f70f49be316	-0.4296533955344314
61	0x3f81bafcf06c1fe2	0.008657432639225197
62	0xbfd9dba560c27bce	-0.4040311283987962
63	0xbfc42379615c548c	-0.15733258489550328
64	0xbfbf882590b199ef	-0.12317118437349682
65	0x3fb9d00b73d604d9	0.10083076074626564
66	0xbfc2899eccf83bcf	-0.14482483871731097
67	0xbfc82ca355fca1d7	-0.18886224459244147
68	0xbfd2cc56cf264e2a	-0.29372186879592965
69	0xbfb90a85edbf2e41	-0.09781682066312049
70	0xbfc3a9356b94a26f	-0.15360133889159353
71	0x3fafaad24e269282	0.06185013965594967
72	0x3fc9e9b0eb9dccec	0.20244418625552585
73	0x3f8e3ad22e6d1d2d	0.014760629693809502
74	0x3fd43a60a8a0ec24	0.31606308429371865
75	0xbf779da695b8cc1e	-0.005765581819605207
76	0x3fb2f7cea3869571	0.07409373752905936
77	0x3fccd33b2cf2f8be	0.225196263263518
78	0x3fdc920c77f61b22	0.44641410555816396
79	0x3fae10b347967ab5	0.05872116326212532
80	0x3fb47ebcc88663dd	0.08005885978344858
81	0x3fc5f8acf4391b77	0.17165147709803438
82	0xbfc8b22de3273fb5	-0.19293759910078526
83	0x3fca0ed7ce5ff003	0.20357797219173798
84	0x3fc4f3e88e179e4f	0.16369349420641519
85	0x3fc6705ca5b6d420	0.1753040131713144
86	0xbfc047a2785ed915	-0.12718611600366417
87	0x3fc5b3736d834084	0.16953890654849968
88	0x3fb3d84a13f0347f	0.07751906382346084
89	0xbfae534e7c122af3	-0.05922932877100164
90	0x3fcc8479a34eb5e0	0.22279282068249895
91	0xbfa7eeec0e1dd588	-0.04674470588990248
92	0xbfd27a108e9ac615	-0.28870023657063487
93	0xbfa1f2649a6adaee	-0.03505243668535295
94	0x3fa350306ed690af	0.03772116997723295
95	0xbfc5029d9d8e816f	-0.16414232438274776
96	0xbfbcca15ccbd938d	-0.11245857475803529
97	0xbfd2e1f00505fea6	-0.2950401352936559
98	0x3fbc6846fd777685	0.11096614540243806
99	0x3fab0428e5540841	0.052766111368342646
100	0xbf7b3d66042b970c	-0.006650351048596691
101	0x3fc421a1891ff231	0.15727633662744858
102	0xbfcb8de306b073db	-0.2152675421392861
103	0x3fbbab13f5453825	0.10807919252440053
104	0x3fba97370f741c3e	0.10386985900196152
105	0xbfc64f237051a5e8	-0.17429011329959043
106	0x3fc7a4a77b664d8d	0.18471234822628127
107	0xbf8431a645ed35a0	-0.009860323914518798
108	0xbfd772087bd3f11d	-0.36633503048484944
109	0x3fb3b992f5bea7cf	0.07705038547160757
110	0xbfc0ec11b1697451	-0.13220425760929058
111	0x3fc360a4669663d4	0.15138678559449537
112	0xbfba51794c206865	-0.10280569180068395
113	0x3f93af3d723accba	0.01922317514136005
114	0xbfb1f310077bf577	-0.07011509115905833
115	0xbfa70fcc1302141c	-0.04504239780457217
116	0xbfc2417bef8984d7	-0.14262341686393284
117	0x3fc29da6d5f07ec0	0.1454361481310027
118	0xbfae1e85698fcab5	-0.058826607833812807
119	0x3fc196d7771cce6d	0.13741582218209505
120	0x3fbe786482d517e1	0.11902454561376842
121	0xbfa765e8c069af9d	-0.04569938038625241
122	0xbfa3df9cc9228d12	-0.03881540255795292
123	0x3f87f33f6d259ff1	0.011694427030946005
124	0x3fc0eb4c084f8fb5	0.13218069463539242
125	0xbfa429145064199b	-0.03937591058097497
126	0x3faf55208ab79432	0.06119634335826908
127	0xbfbb3de5d852732a	-0.1064132359628728
128	0xbfd7fd791b8cb5f6	-0.37484576883693366
129	0x3fb882048501132b	0.0957339119641573
130	0xbfa671a9084573f0	-0.04383590913742086
131	0xbfc4c7b1567e66f7	-0.16234413836792047
132	0x3fd352fd4516f97c	0.30194026705785126
133	0x3fc4da7b834df811	0.16291755591731819
134	0xbfd65b3a7d04456a	-0.34931814392719807
135	0xbfd2be7434c78a6d	-0.2928743853973746
136	0x3fa5ffe8d6895fe7	0.04296805971961231
137	0x3fbef0cfd7b2e365	0.12086199775775482
138	0x3f7fed8c432e44bf	0.007794902706238448
139	0x3fc653ee9446e772	0.17443639984213238
140	0xbfc596912f78cfd9	-0.16865744417157094
141	0x3fc02636114fb6c1	0.12616611333162633
142	0xbfd180122c65abd3	-0.27344183288249474
143	0xbfc338a98cec9df1	-0.15016669636791805
144	0xbfbb3827ebdddb54	-0.10632562168562504
145	0xbfd4433e8eba1f85	-0.31660427034557187
146	0xbfaf1342188ab4f0	-0.060693803306415606
147	0x3fb953281b3ef473	0.09892512002166302
148	0x3f972f9f66169889	0.02264260349843331
149	0x3fc2165882e1e2aa	0.14130693808308098
150	0xbfa1fe2bce2ff28b	-0.035142296714160436
151	0x3f9e8c11ff6448b3	0.029831200802683266
152	0xbfb438a677d1a9ed	-0.0789894144560674
153	0xbfda045a8a88fb0c	-0.40651572731796715
154	0x3fc132440112903d	0.13434648563736742
155	0x3fd5f605a906637d	0.3431409979471523
156	0xbfc59df9330bd8f5	-0.16888346664899925
157	0x3fa22235556f21ab	0.035417238882988165
158	0x3fb8568dba0861aa	0.09507070342841098
159	0x3f8a7bd8d02e91fc	0.012931531766136033
160	0xbfbd6aaba0ab80b1	-0.11490891144376537
161	0xbfcb0de4bb7de0d4	-0.21136149554127448
162	0xbf96d6b6674197e8	-0.022303438236484313
163	0xbfc3d7b377b2a293	-0.15502017349833305
164	0x3fb128228d58205f	0.06701866102969366
165	0xbfa92c49c372a9be	-0.04916601668203978
166	0x3f7be4e37456f2d5	0.006810081953002996
167	0x3fad448501158b47	0.057163387663214986
168	0x3fb719548a64e362	0.09023025873910975
169	0x3fcc91c6ce35b3a9	0.22319874829136424
170	0xbfbc897986ea2c5f	-0.11147269767586597
171	0xbfc957409ed42af3	-0.19797523265182057
172	0x3fc2d09893d1f12b	0.14699084489610334
173	0x3fc727b857aaaf05	0.18089966087915613
174	0x3fcebee33fddc57f	0.24020043009253908
175	0xbf75bf4db7c28f5d	-0.005309394440846518
176	0x3fa36349824e61f4	0.03786687579776418
177	0x3fa90c4d9fb4cf74	0.04892199110545806
178	0x3f9eacb4026503b1	0.029955685278085734
179	0x3fae953ee583d5b3	0.059732404248204495
180	0x3fcf9f7ef8820402	0.24705493101285475
181	0xbfd64ade8ebbb94a	-0.3483196634178013
182	0xbfb3a0a95a485c72	-0.07667025045553702
183	0x3fcaeccbf2bfd3f2	0.21035146096224328
184	0xbfd2440554bb8239	-0.2854016616311444
185	0xbfa5ab17da27cc42	-0.04232096231489681
186	0x3fc14f7d79ae56a8	0.1352383464952045
187	0xbf97002e02cf30c7	-0.022461623116939913
188	0x3fc0d596ff1bb273	0.13151824432806655
189	0x3fc38369046f1948	0.15244782177451044
190	0xbfd30c542c35d3b5	-0.29762749020965923
191	0x3fc2e63bfcb34955	0.14765119398959806
192	0x3fcd8850e2d79ec8	0.23072253299982592
193	0x3f966dd582295c58	0.02190335852568767
194	0x3fb4b625c2fd761e	0.08090435038089835
195	0xbfc25646c07d3da6	-0.14325794600379743
196	0x3fcf9c706afca065	0.24696164344755114
197	0x3fc7e1be65c19645	0.18657665222706235
198	0x3fb1a4782c77b215	0.06891585431703391
199	0x3fc145ab9d7cbd24	0.1349386710148589
200	0x3f80d28cd0e4dd7c	0.008214092373789887
201	0x3fbdc0d13dc32c74	0.11622340925093672
202	0x3fb9213156996033	0.0981627308295863
203	0x3fc4bd5027e07175	0.16202737757783905
204	0x3fcbce8fb73e10bd	0.21724125335106761
205	0xbfa2f2a916f1a8d0	-0.037007602740077084
206	0xbfb68367c70da255	-0.0879425869912976
207	0x3fc63d417ebc20d6	0.17374437988497132
208	0x3fc43a456e0869df	0.15802829621027478
209	0xbfb5eb737be5474d	-0.08562394881053344
210	0x3fbdffb678a5028b	0.11718311734603952
211	0xbfb3e9e0cba08ee0	-0.0777874467026396
212	0x3fb6127628deee2e	0.08621920106718825
213	0xbfb9b00753eae8c8	-0.10034223364610562
214	0x3fcf336e0363ba65	0.2437570110846138
215	0x3fb63b2d60e92612	0.0868404733274917
216	0x3fbcc7d9a43a4549	0.11242447146857616
217	0x3fc7274a0af477d9	0.18088651213559961
218	0x3fcb3834da857238	0.21265278501495444
219	0x3fc01312ea90b90b	0.12558208897957743
220	0xbfbd59f57a40eaf3	-0.11465391382891336
221	0xbfa255c8b8c00992	-0.0358107305073815
222	0xbfd0b7568db6ffbf	-0.26119006957378227
223	0x3fc07840c2707723	0.12866982931239432
224	0xbfbfea8433e7141e	-0.12467218653826292
225	0x3f748f84e1ac98dc	0.005019682949557427
226	0x3f88ad841c24543a	0.01204970560915274
227	0xbfb20623c304ffbd	-0.0704061843034642
228	0xbf78ad74574eeb3f	-0.0060247940609155495
229	0xbfc9a2da17607b3e	-0.20028234616708035
230	0xbfb09693c2969677	-0.06479762554826062
231	0xbfc31bde939d0b21	-0.14928800780952492
232	0xbf6f510c27469042	-0.0038228261348241263
233	0x3f7f6ede5ebea17b	0.007674091942967083
234	0xbfc3ef381ddf983f	-0.1557378908029836
235	0x3fc77bfecfd7117b	0.1834715380520143
236	0x3fa58acaab4830d5	0.0420745214542834
237	0x3fb04e1d3d8c7680	0.063691928411993
238	0xbfcb2b21265ffbb7	-0.21225370763565163
239	0xbfb9d60310329123	-0.10092181344458999
240	0x3f2a78bfc7e96dd3	0.0002019628627348684
241	0x3fb8525629481977	0.09500635631420616
242	0xbfc5bfbc26d3d430	-0.1699137868487539
243	0xbf9dcd5535245857	-0.029103595131424544
244	0x3fc313b88fd52556	0.14903933547092646
245	0x3fc5b976720c9aef	0.1697223717576075
246	0x3fb3f4e8f9e3efdc	0.07795578099097561
247	0x3f783b4a53047ff5	0.005915918664214805
248	0xbfa288b08502ef5b	-0.03619910834956271
249	0x3fc1fe5049627769	0.14057353575929746
250	0x3f7e848b74304604	0.007450623265883308
251	0xbfa5c58b6fba1a76	-0.042522771252198874
252	0xbfb783ef3e884a22	-0.09185691143674338
253	0x3f6d1044c9332af5	0.0035477965808231545
254	0x3fc9e981ba962e1b	0.2024385605876525
255	0xbfd1de7db698eac3	-0.2792047770669052

layer1.bias f8 [128]
0	0xbfc164492829f5c9	-0.13587297879341367
1	0x3fb69fcd1de027b8	0.08837587336907304
2	0x3fbf519710d06f2f	0.12233871613028378
3	0x3fc0589271bf0e48	0.12770300439852833
4	0xbf9bdc0993972ecc	-0.027206563599789388
5	0xbfc8624833489e40	-0.19049932960591498
6	0x3fa4f8fb728fb90e	0.040962083563373594
7	0xbfcbba44aca0d2fd	-0.21662195614921834
8	0xbfc3e6caaee03ec1	-0.15548070467820277
9	0x3fb240cf84ccc6c2	0.07130143158135652
10	0xbfe26b7cc322b69d	-0.575621014713494
11	0x3fb4a05d1e1445c8	0.08057195648532123
12	0x3fc6286c18ee9f92	0.17310858933819567
13	0x3fb231dbcbeb7f5c	0.0710732815600727
14	0x3fb418f6cbdd88fe	0.07850592114622043
15	0x3fabfcd84ba14d80	0.05466342852801187
16	0xbfb2117e125cf92f	-0.07057941387481458
17	0x3fa56a2f636efb24	0.041825753105049907
18	0xbf6bc73397baade1	-0.003390885130860375
19	0xbfba818eec297809	-0.10353940263436824
20	0x3fb504d5184dc7c2	0.08210498660426338
21	0xbfcd62b13be944d2	-0.22957435059882997
22	0x3fc2370822ed651f	0.14230443673549417
23	0xbfdca4ad0bb80615	-0.4475510229532074
24	0xbfc5f27eba2aba7b	-0.17146286096745542
25	0x3fcdaa660a086aa4	0.2317626523007067
26	0xbfda684c75a7a21f	-0.4126158856365993
27	0xbfa925024ee8fbbe	-0.0491104813886447
28	0xbfc6b62342e7d3e3	-0.17743340269922134
29	0x3fd3fec815cceb77	0.3124256337065882
30	0xbfbbf0b966b7aa21	-0.10914191015005105
31	0xbf91d95e191c74e9	-0.01743075397745467
32	0xbfaf16f9c7ce10e9	-0.06072216571831907
33	0xbfc6c6d5886bcc93	-0.17794293557344484
34	0x3fc362c063cd541f	0.15145115731380174
35	0xbfc525f8bb55e252	-0.16522130152931652
36	0xbfbbb761ee02792b	-0.10826694546492337
37	0x3fd224b995dc6d9b	0.28349151263111033
38	0xbfc180d05c06b14c	-0.1367435883852387
39	0x3faf58c7534f525e	0.06122420207944822
40	0x3fd6e186efb17b85	0.3575150814776225
41	0x3f8f099fba6b5d47	0.015155074955528603
42	0xbfbdbe4a457850e3	-0.11618484684032952
43	0xbfbb919b35044b33	-0.10769052547793194
44	0x3fa61544d34fffca	0.04313101844309093
45	0xbfc1fbe7834a0e8d	-0.14050001059159847
46	0x3fda63c87cdff878	0.4123402804833698
47	0xbfc71d3b05ab98d8	-0.18057954575414814
48	0x3f8045e9daba5d83	0.007945849406765465
49	0xbf90d9296982cef0	-0.016453406395796344
50	0xbfc3fd89f8f2b1b6	-0.15617489486375086
51	0x3fb6cf589ae1c023	0.08910135060591577
52	0xbfbafd48460c4e61	-0.10542728147657378
53	0x3fd4223ecb1863cd	0.3145901664116167
54	0xbfc05ee84514662d	-0.1278963410666604
55	0xbfaa15bc54bbbdb7	-0.050947079986026926
56	0x3fce7ebddced9674	0.23824284827712783
57	0x3fcbc4ecc7eb6886	0.21694717179963535
58	0xbfc255bdb78966ba	-0.14324161016229714
59	0x3fbd52b497b9c538	0.11454323486556894
60	0xbfaf0e82942e29e5	-0.06065757807580833
61	0x3faaebe8cccbf7a9	0.05258109569511699
62	0xbfe2e849088bbb32	-0.5908551375303885
63	0xbfa6466565b1d7ba	-0.04350582949056965
64	0x3fa3ff72c77d3922	0.0390582912938149
65	0xbfa2b3d8ba3689e5	-0.03652837060078066
66	0xbfcc446bab4bf887	-0.22083803047275216
67	0x3fcbb317310c234e	0.21640291113751647
68	0xbfbddfb83336aa52	-0.11669493913965681
69	0x3fc51d2e34992a7c	0.16495301788593852
70	0x3fd3c8dcc3849aab	0.30913466542771556
71	0x3fb0e54f348fdfc4	0.06599898370029594
72	0xbfd3c85ecc6c2437	-0.3091046329796571
73	0x3fc64d71c0fa7306	0.17423841402787604
74	0x3fd7f9377cfc637d	0.3745859833302843
75	0xbfbf8c5d41ac37df	-0.12323553899133753
76	0xbfc433f82f5e9142	-0.15783598244628122
77	0xbfa1867b572b9b3e	-0.03422913970080409
78	0x3fbab1ccc2e79491	0.10427551039136264
79	0xbf938a3fa994c50c	-0.019082064366732474
80	0x3fc6c8d535ca265a	0.1780039322514309
81	0x3fc10bc738247364	0.1331719421513312
82	0xbfc975a8030c2bf6	-0.19890308522039363
83	0x3f955b20b2386e24	0.02085543716212447
84	0x3fa40bb37eea735d	0.039151772730497504
85	0xbfd430e92b9ee863	-0.31548527965390444
86	0x3fb6389160d0ddc2	0.08680065740269696
87	0x3fc511cd600b3773	0.16460578145636937
88	0x3f815d260b0bfc1c	0.008478448116418895
89	0x3fc5278f79977320	0.16526978909578194
90	0xbfc877a2d1302a8b	-0.19115100111260505
91	0xbfc1db8ac3f81e80	-0.13951239174661012
92	0x3fa05c6018395f42	0.03195476813988175
93	0xbfa931662795c050	-0.04920500977721132
94	0x3f9a3350a8086ac1	0.025586376434243222
95	0xbfcbc73f3e09ff19	-0.2170180371213
96	0x3fa8024ab2272865	0.046892484900653376
97	0x3fb4a849d59ce99d	0.08069287743720684
98	0xbfa06eb99888ae40	-0.03209476458536331
99	0x3fd04251c8163152	0.25404781856265857
100	0x3f93e84c804ab977	0.019440837221446707
101	0x3fc50d51a6e68d9b	0.16446896218722604
102	0x3fb600ab6ac2d366	0.08594771725149783
103	0xbfad786296d5ab29	-0.057559090530807495
104	0xbfb2bf4e8172f4f1	-0.07323160801293561
105	0x3fa6267f47b87035	0.04326246023649142
106	0xbf95a800de658a19	-0.02114869458581312
107	0xbfae4285fc57c7b0	-0.0591012831245189
108	0xbfcd6b9e7f47697e	-0.22984677519600533
109	0xbfd6777fb1de2f31	-0.35104362840569353
110	0x3fa07ef1a77a14c0	0.032218505567507716
111	0xbfc028b0d171198a	-0.12624178148889725
112	0x3fc5d4705db11d3e	0.1705456216315983
113	0x3fe0cca2572bdf7c	0.5249797537389749
114	0xbfc02c1ea3abd0f3	-0.12634642593150822
115	0xbfad2041f0dbaf1d	-0.05688673081553317
116	0xbfad709e39de508d	-0.0574998326912076
117	0xbfcd2b58d07556fd	-0.22788534334784308
118	0xbfb1cf9fd2751c6c	-0.06957434547540381
119	0x3fc388bc95355bd9	0.1526103714520264
120	0x3fc6528bdf3a1cd8	0.17439411544567096
121	0x3fa2b0d4a4aa5736	0.03650536069942094
122	0xbff345dc0e828bb5	-1.204555565528364
123	0x3fc4553dcde077de	0.15885136177615683
124	0xbfb98ef00808cdae	-0.09983730503227292
125	0x3fbe8b17dfcc6e35	0.11930989469367932
126	0xbfba496013c11982	-0.10268211824686627
127	0xbfc7b7e0d7aca51b	-0.18529902010895047

custom_layer.beta f8 [128]
0	0x3fd93731af1ea6fd	0.39399377919708894
1	0xbff9e3ef2307ee1f	-1.6181479805371806
2	0x4009083f2772eb90	3.1290267068811275
3	0x3ff3304e848073b3	1.199293630204221
4	0x3fe05445b1c94a1f	0.5102871391666816
5	0x3fe91438994a5923	0.7837183946565215
6	0x3ff461e8e0ebdb02	1.2739037309635823
7	0xbfd929acd0fcb8cd	-0.3931686440363478
8	0xbfdd9e7c706f6025	-0.4627982233046189
9	0xbfc9d498699d40fb	-0.20180039555498994
10	0xbff5398439c0c933	-1.3265421157817172
11	0xbff061092fe90039	-1.0236904021731006
12	0xbff14f2347705a37	-1.081820754106628
13	0x3f8a04b5caa4ea21	0.012704296347341661
14	0xbfe667cb290a9f71	-0.7001701165763575
15	0x3fc4bf8fe89888f8	0.16209601266115903
16	0x3ff0a0281a603d69	1.0391007452306786
17	0x3fb2bd1a83171bdd	0.07319799137540835
18	0xbfb32b0d74fffa61	-0.07487568003123492
19	0x3fd2f52844b31374	0.2962132140058238
20	0xbfeada4bd12bb803	-0.8391474805227975
21	0x3ffa644cf11c22f0	1.6494874399524484
22	0x4000bab0222736a5	2.091156260320377
23	0x4005c630f96941d2	2.7217730984923287
24	0x3fc101d9857a11cd	0.13286894814895192
25	0x3fc9c2c51faecf38	0.20125640913976794
26	0x3fd2a69e955c2c7b	0.2914196451753878
27	0x3fc4f3ce05aa9626	0.16369033123662396
28	0xbfc8b55db3326819	-0.19303485154961278
29	0x3ff1650e2a8118e3	1.087171712906234
30	0x3ff65fa3b620ea5e	1.398349486770392
31	0xbfe2e8260cda50e0	-0.5908384562522109
32	0xbff5b9dce5087f07	-1.3578766771897237
33	0xbfcd8c86a8b00b41	-0.23085101353361817
34	0x3fb7b9323358ecff	0.09266961816404161
35	0x3ff5cf87bd3f7f03	1.3631665604115717
36	0xbfbf9d30039ee5aa	-0.12349224174876974
37	0x3fd909968b40478d	0.39121020888080055
38	0x3fceae0c82048808	0.23968654964943448
39	0x3fd04c5bf737700a	0.2546605982040552
40	0xbfc3cd0d2f710b38	-0.15469517532809518
41	0xbfb9a0ecd851ba8d	-0.10011177331191785
42	0x3fd156b1393d1fed	0.27091627683375813
43	0xbff3dd846d84008c	-1.241581371112292
44	0xbfb29f48176da01c	-0.07274294445016988
45	0x3fd5ca5e422ebe4a	0.34047657454627667
46	0xbfeb4694e419e71c	-0.8523659186459756
47	0x3fe5c7e70c2afd80	0.6806521642355818
48	0xbfeba173e1c193e5	-0.8634585770893152
49	0x3ff289c39c3c7662	1.15863381414183
50	0x3ff219bd830ac855	1.1312842482407366
51	0x3fca7f44b9f747e2	0.20700892525070375
52	0x3fe310c2d295c644	0.5957960236539255
53	0x3febd6c232ac89af	0.8699656476713268
54	0x3faa8ec078873c69	0.05187036010067276
55	0x3ff3aec76b24cd92	1.230170649080581
56	0xbff75bb82c2d8035	-1.4598924375241158
57	0xbfe4af0ba8b7cc61	-0.6463678641579343
58	0x3fff38c4214232ae	1.9513589190639027
59	0xbfda0d62966dbef8	-0.40706696214964166
60	0x3ffa56bcd505363a	1.64617617808416
61	0x3fb8aa17d978cb24	0.09634541568156557
62	0xbfed7aaad108fa0a	-0.9212240298000449
63	0x3ff0fdcebbbafee5	1.0619647343846108
64	0x3ff18e06c9a6cae1	1.0971744420063987
65	0x3feac016339412b2	0.8359480864897562
66	0xc003d7e686be2b5c	-2.480420162848004
67	0x3fc15aa7a02c52cb	0.13557906456903476
68	0x3fd0c4a0dd7f8c60	0.2620012438839634
69	0xbff9049395ef6bf2	-1.56361731117681
70	0xbff3da6236819892	-1.2408163193845536
71	0xbfdb9ce84708fdb5	-0.4314518636419636
72	0x3fb1e2965edec213	0.06986369911351913
73	0xbfc44b4ec4a971b4	-0.1585482082617894
74	0xbffeb0c8ae26cf71	-1.9181601336285576
75	0xbfe6aeae5c2b91b6	-0.7088233757208886
76	0xbf9a611eed260f1c	-0.025761111473470696
77	0xbff45ca99bd07288	-1.2726226889127776
78	0xbfd2324db0e214e7	-0.2843202807783442
79	0xbfd1ab3288dcb950	-0.276074060110564
80	0x3ff2449a61ed2783	1.1417487931489354
81	0x3fe127e4f3bfb2f7	0.536119915077136
82	0xbff92f3a55c68ad0	-1.5740302420241967
83	0x3fc8cf88ddd2781c	0.1938334544292396
84	0xbfc59e5d2563d441	-0.16889538121873396
85	0x3ff1a8da6c28f71d	1.1037239289284522
86	0x3fc2bd7052092271	0.14640621190689587
87	0x3fefd40ffa477e55	0.9946365249888439
88	0xbfc4237f7cefbc3d	-0.15733331299222356
89	0x3ff464084db07c80	1.2744219813100983
90	0xbfe83cd8365986e1	-0.7574273168104037
91	0x3fdded3b0a29d7c9	0.46760440819286636
92	0x3fc90895b81aa4d9	0.19557448853928497
93	0xbff716ed41665e96	-1.4430973581965296
94	0xbfe7e4fbc4292c14	-0.7467020827547253
95	0xbf83d858b6242f2f	-0.009689992006790852
96	0xbfab809948fe4b41	-0.053715505752867994
97	0xbff833ce3b3360ae	-1.5126478493239506
98	0xbf9aa4311fd43e84	-0.02601696736115723
99	0x3fe8095286b3242b	0.751137984357347
100	0xbfe9f6f5a1905bbe	-0.8113964229149742
101	0x3fc11a59c35388de	0.13361665761391966
102	0xbfc04f43154048b7	-0.12741888559009393
103	0xbfa5ce53fd14cd0a	-0.04258978332873127
104	0x3fce61098104c153	0.23733633804068663
105	0xbfc110b12117a3f8	-0.1333218967040748
106	0xbff728975e1c96ff	-1.4474099804151022
107	0xbfd401a2ddf18d94	-0.3125998656671183
108	0xbffa3ef8b8321fa1	-1.6403739161632773
109	0xbfef55cafc29b5b2	-0.979222767358513
110	0xbff56b087bd3f4f7	-1.3386311375646167
111	0xbfa6c5312c56ba18	-0.04447320619816625
112	0xbfe672844c249bda	-0.7014790999572782
113	0xc004feb827801ce0	-2.624374683949654
114	0xbff2e1fc9cb688ba	-1.1801725503542415
115	0xbff2125bf71fc6c9	-1.1294822362219057
116	0x3fc7470505ffc36c	0.18185484688686004
117	0xbfda12b2580a2e81	-0.4073911533130073
118	0x3fd711ae1e23d757	0.36045411055908033
119	0xbfd7d4668f3e6c7c	-0.37233890522629287
120	0x3fe35a7a8abc132f	0.6047947606717566
121	0x3ff596b8ef412dad	1.349297461117071
122	0xc003de8dd8cb8627	-2.4836689889059644
123	0xbfe197fdabb54cb7	-0.5498035768199746
124	0xbff1db2f76fc6094	-1.1160120628246988
125	0x3fe48ab95a10935a	0.6419340857579343
126	0x3fa7b83c6bada699	0.046327484268499926
127	0x3facdd76462da8bc	0.05637712103528389

custom_layer.gamma f8 [128]
0	0x3fe4c031a89bf222	0.6484611790797923
1	0x3fd9c768e28aaf65	0.402796002609412
2	0xbfeb22eed66e3615	-0.8480142772766067
3	0xbfdf0d5849ecb4cf	-0.4851895067138913
4	0xbfaa8492b19d04e7	-0.05179270189410961
5	0xbfff35ecc0e4717c	-1.9506652388436967
6	0xbfc2a62694ca5549	-0.1456955172076653
7	0xbffb2ace483a07ea	-1.6979506322245421
8	0xbfc72b2960336537	-0.1810046882372178
9	0xbfd6075561f99cb2	-0.34419760291934687
10	0xbfe9a378e9bf6715	-0.8012051167854418
11	0x3ff094de667f7cec	1.0363449100330469
12	0x3fe0b25fd907de82	0.5217742194062824
13	0xbfe728d74fddc531	-0.7237354812515716
14	0x3fec893bc0736316	0.891752124672254
15	0xbfecee826c7465c0	-0.9041149252181455
16	0x3ff46f1054dfcd82	1.2771151843452064
17	0x3fea49aed70c86e9	0.8214945030378803
18	0x3fec7160d123a1ef	0.8888401112317846
19	0x3fbde8b84d5ae291	0.11683227432775768
20	0xbfdaa8e86d702467	-0.41655932128248313
21	0xbfd2b3553d8311e5	-0.2921956158354802
22	0xbfe1e533af955634	-0.5592287473070372
23	0x3fd92ff66bf24e0d	0.3935524038472245
24	0x3fd6d46e3bfe5c39	0.35671573504209025
25	0xbfd82e92b4fdbdd5	-0.3778425948612186
26	0x3ff9e281a3f7e13d	1.6177994160662614
27	0x3fe5f95833671e99	0.6866875652276178
28	0xbfe891623cb03d46	-0.7677470383950229
29	0x3fec07fe025b88c0	0.8759756132169727
30	0xbfd5f18686a7902e	-0.342866546152666
31	0xbfc8a3cf3c43bd18	-0.19249906962020513
32	0x3fe3e699b9dc080a	0.6218994741504968
33	0xbfdaf9a698d90cb5	-0.4214874737410342
34	0xbff5878c705ccf05	-1.3455929173623542
35	0x3fef8a7b27f17c34	0.9856544284956557
36	0xbfe1cb1038221fac	-0.5560380073884423
37	0x4002ee70e732a9a7	2.3664262831054717
38	0xbfe312ec1b6b1597	-0.596059850264896
39	0x4004feab8a90ebfb	2.6243506265141128
40	0x4001a396cfe5b0ac	2.204877494999968
41	0x3fcf072ed7c093ba	0.24240670714166673
42	0xbff54436066e67de	-1.3291530848714426
43	0x3ff2e4a3cd8b202d	1.1808202771226306
44	0xbff75bfdbbb2ce87	-1.4599587757083172
45	0x3fd2e3b477496168	0.29514800690733134
46	0x4009888f95ab46d0	3.1916801159758066
47	0x3fe54f3aa617be84	0.6659215206145324
48	0x3ff8435ea2d66132	1.5164476738774053
49	0x3ff11a77a79114d1	1.0689617677283432
50	0xbfd1177f17c3ace9	-0.2670591098855782
51	0x3fdaa48099f0d2ba	0.41629042657158843
52	0x3fe2a9e623f67d68	0.5832396223449168
53	0x3f9c807a24801294	0.027833851316261773
54	0x3fd10c7c71d92486	0.26638709180821996
55	0xbfd6edea6dda6e38	-0.3582712242875661
56	0xbfd4493122ae5aa5	-0.31696728121588996
57	0xbfdb0612de7eb66f	-0.42224570968651326
58	0x3fcac2af103470c9	0.20906627932789082
59	0xbff616f7cdabbe68	-1.3806074174898644
60	0x3fec53bf98013b8e	0.8852231949657481
61	0x3fdedc213a4b36b7	0.48218565647844563
62	0xbfda34d27a1e7209	-0.40947400975872533
63	0xbfebe0d90d9e59fa	-0.8711972490298756
64	0xbff31130c2362796	-1.191696890486559
65	0x3ff7e540f123c252	1.4934701365965748
66	0x3fcf67933b8bf09e	0.24534836204100413
67	0x3fe03da22ab8f3c6	0.5075236162589298
68	0xbfeaa2464079a871	-0.832308889320542
69	0xbfdf284a46435169	-0.4868341146623352
70	0x3fd7d10ee35b5a83	0.3721348972589242
71	0x3fc859e4920cc48d	0.19024331218091498
72	0x4000a68006c5cf59	2.081298878585511
73	0xbfd9b84deabea4dc	-0.40187404560363205
74	0xbfec498add271d94	-0.883977348269513
75	0x3fdfbd45ff575ea1	0.49592733321831345
76	0xbff49925eacb3156	-1.28738967624948
77	0x3fefffa4ffe04e87	0.9999566075880048
78	0x3fe6a71f3ddf55d7	0.7079006393857367
79	0x3fc211aa7436c543	0.14116411852368502
80	0x3fe9debacd3e0bfb	0.8084386833801313
81	0x3fd9bfba412a3da7	0.4023271213891015
82	0x3fb0d63205cb5518	0.06576836244069673
83	0xbfc7fb3087709056	-0.1873531972242996
84	0x3ff12156a227350e	1.0706392606837798
85	0x3fc52939b5601803	0.165320600092116
86	0xbfe39679d7de6373	-0.6121186462579388
87	0x3fef57cb73247848	0.9794671296001605
88	0x3ff0fef0650c121c	1.06224097701591
89	0xbfb57aa969469af0	-0.0839029199620247
90	0x3fef639c22be8d52	0.9809094122505633
91	0xbfc86d18b4d87a42	-0.19082936125137634
92	0x3fe73a3c290393aa	0.725858764748968
93	0xbfe42597552a0be1	-0.6295887626041542
94	0x3fe78bac32391d29	0.7357998829765268
95	0xbfb950163a02fd3c	-0.09887827793408105
96	0xbfcf0a1f1e2efa8e	-0.2424963853245185
97	0x3fe106763ce6c9f4	0.532038802097587
98	0xbffbb606976a946a	-1.7319398798656729
99	0x3ff48775739147f1	1.283070994792521
100	0x3ff11862578b7c63	1.0684531612130506
101	0xbfd98b16d6a2feaa	-0.39911433182349276
102	0x3ff38e665f3c8cf5	1.2222655983139792
103	0x40006279e0ef3a17	2.0480840275770436
104	0xbff1c0b83cbe2b51	-1.1095507023589628
105	0xbffb7b2072ea9544	-1.717560242549852
106	0x3fe90076d811a930	0.7813066692445201
107	0x3fd4f331c531e455	0.32734340913117893
108	0x3fa8316b36def67f	0.04725203556834589
109	0x3fd9305b721e4bd1	0.39357648987168853
110	0x3ff2264d9061c0bb	1.1343513145366575
111	0xbff7144082214e7a	-1.4424443324286629
112	0xbff07d3072182591	-1.030563779526663
113	0x3ff7aec940fedff9	1.4801723994150946
114	0x3fd8d1ad644450c0	0.3877976874512221
115	0xbfb5100ce99a856a	-0.08227616027081344
116	0xbfecc6bd52f08bd1	-0.8992601985850063
117	0x3fea33b69909eb5d	0.8188126553571738
118	0x3fdbd0eadf7191c4	0.43462631054560696
119	0x3ff91059949d8a3e	1.5664916806496332
120	0x3fe9f05274b9d701	0.8105861930659729
121	0x3fe360dc28456b43	0.6055737291857003
122	0xc000d8663d3e01e7	-2.105663755850617
123	0x3ff18a9c247e8b2d	1.0963403153952627
124	0x3feb3cab1a45d4cb	0.8511558068409156
125	0xbfe57c4688f2de8b	-0.6714203524379213
126	0x3fd44b3038d8410f	0.317089133751339
127	0x3ff604f146a1f80a	1.3762066611375325

layer2.weight f8 [128, 128]
0	0xbfbe653a4c317b09	-0.11873211250484074
1	0x3fc262c0ec2aee5d	0.14363872081399878
2	0x3fb1e50eb6bbfced	0.06990138970649058
3	0xbfcf4052e5b09f31	-0.24415050711945122
4	0xbfd0a00dc7db6348	-0.2597689105728489
5	0x3f8b3c81afba8940	0.013299000907242786
6	0xbfa9e90a41e31f18	-0.05060607961928393
7	0x3fbc6886de7d447b	0.11096995288723292
8	0xbfcb7e6d0e217995	-0.2147957152364596
9	0x3fa4b60712d1a9d9	0.04045126061176391
10	0xbfaf8da234aa77dd	-0.06162745373624976
11	0xbfc0d31d9fa9d34b	-0.1314427404028272
12	0x3fce7de1e974062d	0.23821662806590052
13	0x3fb2b10fb16938c6	0.0730142410404567
14	0xbfb4adc5520bf042	-0.08077653172580404
15	0xbfa720b07fc93045	-0.04517127570997607
16	0x3faa5fe69c990994	0.051512915245001484
17	0xbfc16c13d04b2435	-0.1361107604082307
18	0xbf79c1570db3e07a	-0.006287899067722086
19	0xbfb7390ae4ace513	-0.09071415026564393
20	0x3f9438318054fc2a	0.01974561067367745
21	0xbfc2e86e5393c30b	-0.14771823006551474
22	0x3fc4a1ba12c3c676	0.1611855117439977
23	0x3fccf65322db87b4	0.2262672348215894
24	0xbfb09ce9103206d8	-0.06489426274677201
25	0x3fce84682e0a6983	0.2384157395179721
26	0xbfae03ad951679f2	-0.058621811341470834
27	0x3f6a6c4a249de90a	0.0032254646402495356
28	0x3f96c5827eb2b777	0.022237814887084064
29	0x3fa62659ff0c914c	0.04326134909050214
30	0x3fca72468af91374	0.2066124132708428
31	0x3fb7d8fc13b10e9c	0.09315467339279809
32	0xbfce4cfabcbe6536	-0.23672422615053684
33	0x3faa88f6b8799db7	0.051826200503281177
34	0x3f91a8232e3ea04a	0.01724295587305872
35	0xbfcf49fef2527f62	-0.24444567520276467
36	0xbfab88e440013814	-0.053778775036889354
37	0xbfe3319cf05d318d	-0.5998062796220879
38	0x3f98c27d7d47530d	0.02417942120685539
39	0xbf74f0ab7b5e2643	-0.005112333155815887
40	0xbfb253739b937297	-0.07158587024918926
41	0x3fba9cbbbcf36852	0.10395406115586184
42	0xbfc7ad66b6850399	-0.18497928535546462
43	0x3fcde9f200a28454	0.23370194464681282
44	0xbf974fc4282b3da8	-0.022765221549716635
45	0x3fbb71b8819b5a1e	0.10720399059514604
46	0x3fdb7fd7d2fed11e	0.42967792134301586
47	0xbfad3e006dc886dd	-0.057113660241396615
48	0xbfd3252d741e2071	-0.2991441377603286
49	0xbfb7b858534680bc	-0.09265663178530564
50	0xbfbb38f9cca7ddc2	-0.10633813139417383
51	0x3fb962d337d09158	0.09916420090354927
52	0xbfb402d81278fea5	-0.07816839648239211
53	0x3fc22ea20cdd3694	0.14204812648897713
54	0x3f740cdd21672b4e	0.004895080367030525
55	0x3fa87bb2bce84db8	0.047818742332448705
56	0x3fd142595bf0ff4f	0.2696746251931374
57	0xbfb0ea031572ad5d	-0.06607074044830115
58	0xbfc6560b30d0ae32	-0.17450084575226438
59	0x3fbaf399b9bafee3	0.10527954849657876
60	0x3fc977051eb33692	0.19894470213914822
61	0x3fc3679867636b91	0.15159897850284357
62	0x3fc722dad05884d9	0.18075118229993484
63	0x3fbccdaf8ac50bb7	0.1125135148804891
64	0x3f960e15b0bb793a	0.02153810397327869
65	0xbf9b064971213466	-0.026391170053376455
66	0xbfa63942612d1dec	-0.04340560375436184
67	0xbfc3cf49d5f06e78	-0.1547634405732088
68	0x3fb4717acb91c3ab	0.07985656232791764
69	0xbfc1ef007a683450	-0.14010625817209865
70	0xbfc61a5c75b97811	-0.17267947910562545
71	0x3fb019b6b1429994	0.06289235904350782
72	0x3faeb60e7df0ab02	0.05998273169855929
73	0x3fb1716462185a65	0.06813647646809214
74	0x3fa060dfc9ff3c26	0.03198909130843956
75	0x3fbad15b91707678	0.10475704479946468
76	0xbfc1087accf23f3b	-0.13307127959387252
77	0x3f901760779a3540	0.015714175510358475
78	0x3fa1bc3c844391c7	0.03463925470876777
79	0x3fbcba5731ad97cd	0.11221833193630389
80	0xbfb8947b5f7ae2b7	-0.09601565438323233
81	0x3fc1a4a4e74b44ff	0.13783704084065815
82	0x3fbee3139803efc5	0.12065241299927638
83	0x3fc12c63772f04e2	0.1341671306563859
84	0xbfc52dada2d2368e	-0.16545649004222124
85	0xbfcdb8cbf82c5f27	-0.2322020494254897
86	0x3fbefa758ab360c4	0.12100920330283588
87	0x3fcf4b36674c487f	0.24448280376288165
88	0x3fc171726ee8c8e7	0.13627462783330843
89	0xbfa4b1fe50a0e07c	-0.04042048200830181
90	0x3fade94c388b1f45	0.058420545484806165
91	0xbfa522e537a92cf9	-0.04128185562566417
92	0x3f9965157c72d533	0.024799667092073107
93	0xbf9177b7cd210ddf	-0.017058250327193988
94	0x3fb95c8bfe178f91	0.0990684027997857
95	0xbfbe65008c90041f	-0.11872867042258449
96	0xbf954d87b2fb8358	-0.020803566264365386
97	0xbf95e6b34b9ea5e6	-0.021387864580594405
98	0xbf922d98ad9c5890	-0.01775206145892888
99	0xbfad740bb4a169f6	-0.05752598361933174
100	0xbfc778a1c3d0bea2	-0.18336889325427302
101	0xbfc63d2b70ef2332	-0.1737417508541284
102	0xbf9791e789a5ee99	-0.023017518783929523
103	0xbf6c914370a314d2	-0.0034872357547067545
104	0xbfbb96b7fe421ae4	-0.10776853520847457
105	0xbfa27b815d9bdc9d	-0.03609852092443442
106	0xbfb1addbbf2e39fb	-0.06905911843771399
107	0x3f8dcc22a0a02749	0.014549513365654259
108	0xbfad12133c7d7989	-0.056778527387666484
109	0xbf839b6a65661ff0	-0.009573775500726328
110	0xbfb5ca91b8a099b8	-0.08512221105102113
111	0x3fb81f860330cc46	0.0942310102262108
112	0xbf33a395a667bd88	-0.0002996673923964734
113	0xbfbc5b8b78fdfb5f	-0.11077186302098373
114	0xbf665e00f03d9292	-0.002730371315850918
115	0x3faeded075a3cebf	0.06029368816407787
116	0xbf84507d08c1506f	-0.009919144468007539
117	0x3fcd1ff74db9c589	0.22753802581022978
118	0xbfb052cd5d0019e0	-0.06376346130864574
119	0xbfca87a8474c527b	-0.20726493340830018
120	0xbfbbe20087a69b68	-0.10891726791179013
121	0xbf837fd1df32993b	-0.009521140693618526
122	0xbfc62d4d1302a8b7	-0.17325747898332164
123	0xbfc0096cefbe046c	-0.12528764444508356
124	0x3fb6586511d9202b	0.08728629766221789
125	0x3fa0c0b7573e26b7	0.032720307731393054
126	0x3fb0bc03480d6c55	0.06536884793369897
127	0xbfbfa7c5b3da38f5	-0.12365375176361566
128	0x3fb1433fbe8420b8	0.06743238831780018
129	0xbfa5a21366987b18	-0.04225216510189095
130	0x3fab4db5be8d42be	0.053327254782407504
131	0xbfb1c51bb726b6c9	-0.0694138834139394
132	0xbf9c0e7e9711f9e2	-0.027399042101473266
133	0x3fa275f32d6db9cc	0.036056136413083445
134	0xbfa4069cd249c313	-0.03911295001024064
135	0x3fbcf06ca14184ef	0.1130435842219588
136	0x3f7f49ed282063f5	0.007638861077816185
137	0x3fa1ac60c2cf5987	0.03451826456118839
138	0x3fb4fb9de6f65cb8	0.08196436775903038
139	0xbf63df9ac02ae3b0	-0.0024259588693351306
140	0xbfa260a6e10f18f9	-0.03589364526082934
141	0x3f7f1d0093b77124	0.007596018079734788
142	0xbf925682fdeedcee	-0.01790814089664832
143	0xbf99dc822e2579aa	-0.025255235735465988
144	0xbfc25b0129669eff	-0.14340223809744398
145	0xbfae9e03013af701	-0.0597992838861341
146	0xbf81edc8339a3a1e	-0.008754314493924883
147	0xbf9c3cf30195908c	-0.027576252910322327
148	0x3fb3cb05f7356f4a	0.07731663976067896
149	0xbf86ca920fe6e348	-0.011128560171401639
150	0xbf98804e94d8588f	-0.023926952204498305
151	0x3f908e58c2750ce8	0.01616800963280421
152	0x3f9aaf6873dd5bfc	0.02605975348646082
153	0xbfa984e532e35dea	-0.04984203573411235
154	0x3fbc9febb186a5d0	0.11181519588594502
155	0x3fa86036dd207fa9	0.047609056942973745
156	0x3fb3a06244c73acc	0.07666601351887009
157	0xbfbea3c7f892f798	-0.11968660181716329
158	0xbfa7aeba367424cf	-0.04625493921964507
159	0x3faeaeb3d08155dd	0.05992662353734677
160	0xbfb0234a1e9946b5	-0.06303847548522408
161	0xbf8b700e62892286	-0.01339732397276917
162	0xbfc11914207405f9	-0.13357783875112242
163	0xbfa0487b489ade28	-0.03180299054423258
164	0x3f97b185524c2eae	0.02313812556080446
165	0x3faf4b3843dbcc82	0.06112075641967697
166	0x3f9a6a7fe91403ae	0.025796888924563603
167	0xbfb3ea7c00e95a53	-0.07779669782881031
168	0xbfb3508083765257	-0.07544711312795847
169	0xbfb6c2b373eac5be	-0.0889084012985881
170	0xbfb2a575eb40be6c	-0.07283722871283665
171	0x3f9d392b48b35e04	0.028538395225806937
172	0x3fae6390b38ecfa5	0.05935337249630316
173	0x3fa31314a6908ef9	0.037254948933222516
174	0x3f9dd4d148d0864a	0.029132146901366597
175	0xbf9e3529531bda20	-0.02949966974025575
176	0xbfa1454a7b41a10e	-0.03373177294344219
177	0x3fcbc5449a38d3a4	0.2169576409375199
178	0xbf9be0a44603b049	-0.02722412755331075
179	0xbfb61cfe5dc6b0d8	-0.08637990750748104
180	0x3fb97db88c115c7b	0.09957459849953125
181	0xbf8c08e01f38b30d	-0.013688803627780933
182	0xbfaba71b7682ceb8	-0.054009302345915555
183	0x3f8f00a0df69dca7	0.015137917345084807
184	0x3fa481c332f696ab	0.04005250928029843
185	0x3f2ee38c518dc401	0.0002356632983509244
186	0xbf9244c291fa75f9	-0.01784042373639314
187	0x3fb1d3ab9b4a2b24	0.06963608304264973
188	0x3fb13007bc85b9d9	0.0671391330012975
189	0xbfbac79b4a1621de	-0.10460825499297452
190	0x3fa4e4fb4170f7ba	0.040809489954411984
191	0x3f6aebf529d13c50	0.0032863415095003914
192	0xbfa8ad3e837ae4d5	-0.04819674830418711
193	0xbfb289c249ecb601	-0.07241453461457327
194	0x3fba8952e5b102e2	0.10365789516164228
195	0x3fb3813914b3dba6	0.07619053607400747
196	0x3fab675aa563c29d	0.053522904099627434
197	0xbfa1a0610212a4c6	-0.0344267191915804
198	0xbf8884b99711da09	-0.011971902773649583
199	0x3fa0d02f16630d6e	0.032838317377833146
200	0xbfce693e67e01260	-0.23758678504977393
201	0xbfb1bd657debe24f	-0.06929621052030054
202	0x3f96a04d0fb1d68e	0.022095874865462543
203	0x3f86e5aebfe6329e	0.011180272322939996
204	0xbfa100fa63f98cc0	-0.0332105872191959
205	0xbfb0cecddc49ed8b	-0.0656555807890326
206	0xbfc776d0d4af0f4c	-0.1833134687896013
207	0x3f69024522e1b2ee	0.003052840263129012
208	0x3fc319c764382cc5	0.14922420877005585
209	0xbfa7586c05e0b804	-0.045596481053834764
210	0xbf8ee0e2b6a71911	-0.015077372740858882
211	0x3fb039cd3bf7f66b	0.06338198389127007
212	0x3fa77209d4825bf1	0.04579191893679269
213	0xbfbab4231bf0e927	-0.10431117469935157
214	0x3f8dc809c06feae4	0.014541698632446871
215	0x3f970159d27e7838	0.022466090652976528
216	0xbfb0da885fcb91a3	-0.06583454455137043
217	0x3f6a8a92419d2e4d	0.0032399040764284127
218	0xbfad6bae91408d98	-0.057462172728516225
219	0x3fa1f4a0b96f5380	0.03506948722466685
220	0x3fb5a025d88b9755	0.08447491204023312
221	0x3f9eb76859ad7fe5	0.029996519540304595
222	0xbfa24c677b79e8aa	-0.03573916799810324
223	0x3fa392dde8dd59c1	0.038229880023823444
224	0xbfb0b2b2615af6aa	-0.0652266967471983
225	0x3fa40b7fffae9e7c	0.03915023800010162
226	0x3fc1e288160605a8	0.13972569537513135
227	0x3f6cfb391d34de2c	0.0035377612599878563
228	0x3f9bf491e8a5eb75	0.027300147843088724
229	0xbfad9a493ae927a5	-0.05781773418546202
230	0xbf90a55c69d49843	-0.01625580211580081
231	0xbf90d9808846c742	-0.016454704587608456
232	0xbfa7720bda97eed0	-0.04579197924973999
233	0xbf9929de0af89804	-0.024573773784275957
234	0x3f86f2917d975d57	0.01120484985851415
235	0xbf9becc703f1356b	-0.02727042161523256
236	0xbfb21bbc94d04f3a	-0.0707357276262969
237	0xbfb52f1d75710cf0	-0.08275016896464016
238	0xbfc1095f5bcf00e7	-0.1330985258373467
239	0x3fbab90129d1510f	0.10438544531763604
240	0xbf2e9dad4f77ee46	-0.00023358097654112476
241	0x3faf523620b34613	0.06117409848378599
242	0xbfb7f13c19a725fd	-0.09352470041553569
243	0xbf346e66ae81d02f	-0.00031175619961421296
244	0x3fb2443ad12c257d	0.07135360342740245
245	0xbf82e44dc720ba20	-0.009224517478370109
246	0x3fb7192a78dd61c6	0.090227751262666
247	0xbfb602446c43a8f9	-0.0859720959012157
248	0x3fb8e6476658f127	0.09726377724377198
249	0xbfa24a04b3d29465	-0.0357209653387052
250	0xbf5579810fcdf1d9	-0.001310707127429747
251	0x3f9e354b4c314d86	0.029500175977160058
252	0xbf946925567b9667	-0.019932349589814182
253	0xbf759fb40061305b	-0.005279257899086866
254	0xbfb5e04adf5f8082	-0.08545368150180546
255	0xbfbb153ed330602f	-0.10579292922955184

layer2.bias f8 [128]
0	0xbf94035182334159	-0.019543908664503593
1	0x3fb15063d325acec	0.06763290314636422
2	0x3f811c7ec07b32a6	0.008355131386815384
3	0x3f8b8fce9186fabc	0.013457883659495955
4	0xbfa5e93aec243e84	-0.04279502995097764
5	0x3fb695e00f25dac0	0.0882244145376303
6	0xbf9aae97e9597815	-0.026056645982286925
7	0x3fb781ae9369a2db	0.09182253931943356
8	0x3fd07d73efd5d40f	0.25765703603184503
9	0xbfa59337bb808deb	-0.04213880695195001
10	0x3fcfeb454e266e3f	0.24936739269183936
11	0x3f710484016e1053	0.004154697081393338
12	0x3f9f1b97950aa2cc	0.03037869307687195
13	0x3fb4cf40df170646	0.08128743597537733
14	0x3fda6fb61e2fb0bd	0.41306832263832033
15	0x3fbae6b1b8a05486	0.10508261449315812
16	0x3fb6f2cc165b53d9	0.08964229150599524
17	0x3f5407c00c1e285e	0.0012225509130723493
18	0x3fa8214dc6f75790	0.04712908796106696
19	0xbf95676ab78ff3ed	-0.020902316526178955
20	0x3fa5fc3891bf2c7c	0.04293991831908614
21	0x3fc08d0f773f7f9c	0.1293048221841645
22	0xbfa17b6b470d638c	-0.03414473764741563
23	0xbfabca0d8bcf4468	-0.05427591640148749
24	0x3fb277fdd8972283	0.07214342630244101
25	0x3fc3e74278198a24	0.1554949842857961
26	0x3f7d555d3f9928d0	0.007161487819369053
27	0x3fa405dc30e31de9	0.03910720917479777
28	0xbfb65ef2e9f310cc	-0.0873863049665175
29	0xbfad2d6d18da8981	-0.05698719910039341
30	0xbfa3b96036b54658	-0.038523680380092074
31	0xbfaa9e5ecfee3fcb	-0.05198951996055675
32	0x3fa280741a08d803	0.03613627260021703
33	0xbfb0c3b12005d3b4	-0.06548602134519294
34	0xbf85c9723e069f12	-0.010638134496573613
35	0xbfa88697ea65fb0b	-0.047901866305428774
36	0x3faada00800d817b	0.05244447291511541
37	0xbfb7bc801eae369f	-0.09272003888164669
38	0x3fb5518ae1093461	0.08327548975030787
39	0xbfb4da3314b1af7a	-0.0814544606707254
40	0xbfb50c06011556c9	-0.08221471334885701
41	0xbf9896bf2e677179	-0.02401255341270445
42	0x3fc4d5bb674a87bb	0.16277258437645323
43	0xbfb020c03e7e42b8	-0.06299973989213015
44	0x3f98f168a5f69016	0.024358401422105734
45	0x3fa2516d0ec5a855	0.03577748112987026
46	0x3f7abf82211db45b	0.0065302928140741024
47	0xbfb2130a5980a834	-0.07060303387757544
48	0x3f70c9d1c49c42f3	0.004098719984327859
49	0x3faebd792a465fe9	0.06003931656886136
50	0xbf752e2ee6ec48dd	-0.005170996867280145
51	0x3fb50e1f992c3ff4	0.08224675645419649
52	0x3fd8fbb7d5285507	0.39036365333716144
53	0x3fbef819f402a6c1	0.12097322661670785
54	0xbfb35212aeb913ee	-0.07547108426759028
55	0x3fb1d0dede931ccc	0.06959336217834106
56	0x3fcba98449638c70	0.2161107405036975
57	0xbfc5ce23325760f7	-0.1703533168608897
58	0x3fa1a74188a1aa86	0.03447918694367495
59	0xbfa1b7d6d04bc15c	-0.03460570614504618
60	0xbfbe6f98124037b1	-0.11889028974130046
61	0x3fa413d12e100ce6	0.03921369254387645
62	0x3fa73c7652d2d294	0.04538316498784414
63	0x3fb39f1198188196	0.07664594615244477
64	0x3fc89d713cf5c753	0.19230475880209016
65	0x3f9cd009dd8e70ac	0.02813735403798094
66	0xbfb95850cbd05b4c	-0.09900383926320194
67	0x3fd985284a2f4597	0.3987522816142585
68	0x3fbc6a982a0ab971	0.11100150133527166
69	0xbf9742b7827e111b	-0.02271544202768992
70	0x3f98cafae4522d01	0.024211807427986013
71	0xbfb1f4a473033487	-0.07013919647143228
72	0x3fb0aadf4b8a480c	0.06510730356447442
73	0x3fa3c001a1964a46	0.03857426736353324
74	0x3fba630eddfb845a	0.10307400626653998
75	0x3fbc1f999b1ad2b9	0.1098571780847334
76	0x3fb2992b7bea2819	0.07264968657742123
77	0x3fb4891cf0a58aea	0.08021717906153084
78	0xbfa592b9d4a48215	-0.04213505478606209
79	0xbfbc31c0a7f0f18b	-0.11013416385771373
80	0xbfd24b263d3bb5de	-0.28583675365265815
81	0x3fbb6e900d541091	0.10715580296897743
82	0xbfaecc12d49ff80b	-0.06015070767897165
83	0x3faac881baec64e1	0.052310995166587444
84	0xbfb86eb759ac3d09	-0.09543939532544611
85	0xbfb2846960e9550d	-0.07233294120790763
86	0x3fa4b3411f41e51a	0.04043010241088947
87	0x3fbfaf56bdbf34c8	0.12376920826428084
88	0x3fb4da1e25c81849	0.0814532129516873
89	0x3fd0031c6f49d5e6	0.25018988483438276
90	0x3fa679db67b9ea1a	0.04389844552220641
91	0xbf9a88f03112c9f3	-0.025913002963259
92	0x3fb75460788f9a79	0.09113123839743222
93	0xbfc0b4a3d69ddd1a	-0.13051269511536462
94	0xbfb2476e681b9036	-0.07140245477381843
95	0xbf8b248b5c8d22b3	-0.013253296625081878
96	0xbfaf111fa99a5c52	-0.06067751832340974
97	0xbf9e6c2b36761453	-0.02970950622468067
98	0x3fab561d95008f54	0.0533913845431743
99	0x3f8349327f2b70c6	0.009416956430350242
100	0x3f90214d2420bc2b	0.01575203450209643
101	0xbfc2fd60ea9ab8cd	-0.14835750060360056
102	0xbfadc5a88532eb0b	-0.058148638019210074
103	0x3fcd3234b529983e	0.22809466214965995
104	0xbfc1a8df3b2a1b26	-0.13796606434717623
105	0xbfb4a2a9d78710af	-0.08060704719452148
106	0xbfadcebc1421f8e4	-0.058217885453801604
107	0x3f7450606ca6b20e	0.004959465654263541
108	0xbf900c19a98ccb59	-0.015671158765324964
109	0xbf9d62d82490ef1c	-0.028697373611279095
110	0xbfb547afda6474c6	-0.08312510568471784
111	0xbf80ff90c84796d0	-0.008299952613877976
112	0xbfbd0249655454bb	-0.11331614230978719
113	0x3fb2b83e65d3163b	0.07312383638335344
114	0x3fba8e915eb2b5be	0.10373791276898367
115	0xbfa424338ad03145	-0.039338694281556154
116	0x3f954d58af8a394d	0.020802865709407304
117	0x3fb4612dea9d8706	0.07960783937371838
118	0x3f96a6b143730e72	0.022120256177699145
119	0x3f78e20e8ff718e9	0.006074959644541724
120	0xbfa60604650c0614	-0.04301465733989232
121	0xbfa79104e368df3a	-0.04602828289028911
122	0xbf7377a8557958dc	-0.004752786211233064
123	0x3fae20d37d83d159	0.05884419352688281
124	0x3faf728049283a96	0.06142044919044058
125	0xbfa50ed09f2223fb	-0.041128653932055635
126	0x3fc6e52cb8b0488f	0.1788688566016998
127	0x3fb394229c96f9c9	0.0764791137980644

custom_layer2.beta f8 [128]
0	0xbfff2baf97621d4b	-1.948165503826959
1	0x3ff689d24cec8b01	1.4086478237956614
2	0xbfd9d07c60fc7eb5	-0.40334996672934703
3	0xbfe6bf29cb1c8da5	-0.7108353583357042
4	0x3fe8b9d6f3ebe0bc	0.7726855053033641
5	0x3fc499cb8f75328a	0.16094345574164876
6	0x3fd099006f196fa7	0.2593384823755919
7	0x3fe310e23345ffa1	0.595810985701963
8	0x3ff4cbec354a53ba	1.2997858125356587
9	0x3fe946e427703831	0.7899037142067354
10	0xbff1d04e6af35336	-1.1133560350182967
11	0x3fe3ac230de451ef	0.6147628089261711
12	0x3fb1a7b93bb6f594	0.06896550853612943
13	0x3fe6991c1ec4a0e1	0.7061901665629443
14	0xbffee8edb44e61b6	-1.9318673175058456
15	0xbfde8888da90df0d	-0.47708340973211777
16	0x3fe6a3fd3d26d88a	0.7075182146425203
17	0x3fea0aada0127e46	0.8138034941111492
18	0x3f8aec195c66e2b9	0.013145635731107818
19	0x3fe7605a36b8d149	0.7305117672718008
20	0x3f835f367509624b	0.009458947607684417
21	0xbfe6f507db563c57	-0.7174109729693424
22	0x3fe814c82d5f2afc	0.75253685819311
23	0x3f9807df5e153151	0.023467531316144378
24	0x3ff09d5da76b68df	1.0384193935229218
25	0x3ff34a8b0cd93072	1.2056990148439835
26	0x4005018e5783b80a	2.625759776789896
27	0xbfcd16bbaf17d0bf	-0.22725626038994126
28	0x3fdffd8205be0e1e	0.49984789429456267
29	0x4002d571def21e7b	2.3542210977209925
30	0xbfe5f0cc18bf5a5e	-0.6856441958760333
31	0x3fa3fca071bed38c	0.03903676403516618
32	0xbfee357ec2c527e4	-0.94403017083209
33	0x3fec892c1cc1f162	0.8917446672126454
34	0x3fd81e712030dc2a	0.37685802596701257
35	0x3fd8b81f5653e1f8	0.386237940124857
36	0xbfd9d791af444225	-0.4037822925174928
37	0xbfd0f033641f27c4	-0.2646606900931341
38	0xbff62a66e8954ef2	-1.3853520474703456
39	0xbff09d36bb0be8b7	-1.0383822733406711
40	0x3fb1bf1632f21be8	0.0693220018748516
41	0xbfb584b0efdb0876	-0.0840559564194637
42	0xbfeb16658adcad6a	-0.8464839660786485
43	0x3fa709e8ba93f922	0.044997475410115464
44	0x3fe6dcae7ceb3f8c	0.714438671095182
45	0xbfd083b709c1d01a	-0.25803924515571597
46	0xbf84585971263783	-0.00993413807443822
47	0x3fc807f35fb83fa8	0.1877426354772045
48	0xbffadaf566307faa	-1.6784566871428788
49	0xbff11a21914946d1	-1.06887966873585
50	0x3ff15256f5d6e42c	1.082602463064414
51	0x3f8aa132bfc8fef6	0.013002773740594869
52	0x400627f9c4025aad	2.7695193589418836
53	0xbfe774a8dc668601	-0.7329906754204673
54	0xbfee731ebd9665b4	-0.9515527441864635
55	0xbfd23c1c24194b1a	-0.28491881871484426
56	0x3ffd36d6e5ffb805	1.825888536866388
57	0xbff245f855ec07d9	-1.1420825344398422
58	0xbfec5fbfef041dd9	-0.8866882007868596
59	0x3fc5ce4a2ddd31e3	0.1703579639382858
60	0x3fe47322db58d242	0.6390547069664267
61	0xbf8d82d06c8ba011	-0.014409664452117029
62	0xbfd100a4b2e6d1ee	-0.26566426726210934
63	0xbff20920ddd4c814	-1.1272286095886601
64	0xbff89d24abf14c07	-1.5383650509363649
65	0xbfe66c64db266e74	-0.7007316856647337
66	0x3feaccae6674717d	0.8374855042525692
67	0xbffa0088f2200341	-1.6251306016931297
68	0xbff38c65117f6b1c	-1.2217760737900738
69	0xbff117a39cce0344	-1.068271267431741
70	0xbff14742e559786e	-1.0798977812733273
71	0x3fefc569950deb55	0.9928481970995146
72	0xbfd0ffabf2ff664d	-0.2656049607299778
73	0x3f860b1c517d8e9b	0.010763379322902103
74	0x3fefbb4972f694df	0.9916121716857126
75	0xbffab916eca3f316	-1.6701878780142514
76	0xc00d775ac077e49d	-3.683278564127774
77	0xbfb8f3450ede7f96	-0.09746200192466711
78	0xbff05d945abe3b5f	-1.0228465599681937
79	0xbff3cd2abb1a271c	-1.2375895794561478
80	0x3ff840b7ce5e7fee	1.5158002911848558
81	0x3feff34be6b1f29e	0.9984492784274897
82	0xbff01a232ad05215	-1.006381194344731
83	0x3f80bec0432fa846	0.008176328707083635
84	0xbff7825b3e683d50	-1.4693252980976759
85	0x3fc324653a5a33a1	0.14954820012317518
86	0x3fc2e3c88bf4a8a5	0.1475763972642358
87	0xbf8930385973df92	-0.01229900382030261
88	0xbfedfa88ee081359	-0.9368328713468187
89	0xbff9f375f2156508	-1.621938653601605
90	0x3fab20a873c32849	0.05298353589167044
91	0x3fe5d0aa1fb923d1	0.6817217464059643
92	0xbff0fc1fe3e3321e	-1.06155385035084
93	0xbfe366b9763deb5d	-0.606289606991918
94	0x3fbc20d357585806	0.10987587816666186
95	0xbfe2a5a6d5e3cc98	-0.5827211549316358
96	0xbfe9b7fa732bf811	-0.8037082910011596
97	0xbf9982f615c14629	-0.02491364009649125
98	0xbfc1618b9e7434e2	-0.13578934895523448
99	0x3fdff376340b032f	0.4992347248299209
100	0xbfba6adbadd789e0	-0.10319302553356335
101	0x3ff34bef386a5b8e	1.206038685200585
102	0xbff1cc8d448d547c	-1.112439410954976
103	0xbff469a89129a5c7	-1.2757955236833014
104	0x3fbd976f5e084d93	0.11559196515763963
105	0xbfd956ed61fa54b2	-0.3959306198897351
106	0xbf818104f990aee7	-0.00854686628925756
107	0x3fd0ab5faa744cce	0.26045982023169933
108	0x3fe3520d729418bc	0.6037661779271484
109	0x3fd4c8a14c914811	0.3247454879502821
110	0xbf9d54fbe50aeb1d	-0.028644500593809064
111	0x3fcb6fdd9fcd2222	0.21435137083814576
112	0x3f68e4216701cf6e	0.0030384685888353224
113	0xbfd0339047d1112b	-0.25314719212862496
114	0xbff199be9884a642	-1.100035281919546
115	0x3fd112f4e1059c4d	0.26678201651379113
116	0xbfef7790656dc668	-0.9833452206641597
117	0xbfacb6d01e65ba99	-0.05608225222646474
118	0xbfa317c7636b7f28	-0.037290793310374604
119	0x3fe297defe476be8	0.5810389486681489
120	0x3fe09f626bddc1d6	0.5194561106455307
121	0x3fe17acd1087dbc4	0.5462403605332544
122	0xbfe5180daf9ea8fc	-0.6591862135003619
123	0xbfdc40480580223c	-0.441423421260456
124	0xbfd81bc6b80adc3f	-0.3766953275002755
125	0xbfdee283c8a9ad44	-0.4825753650281579
126	0xbfee6700a4f6c464	-0.9500735494567718
127	0x3fdbb1214d94b328	0.4326861627221654
