COLA_Emulators/PCE/wCDM_PNN_HIGH/MODEL_Z0.800.pth (torch, 192382 bytes, 10 tensors)

layer1.weight f8 [128, 25]
0	0xbfaf1938ebe9fca2	-0.06073930625734049
1	0xbfa082ec5b88fb41	-0.03224886529323224
2	0x3fc05884044cc1e0	0.1277012845034866
3	0x3fb841c4e3f3050d	0.09475355687301974
4	0xbfd286263495183c	-0.289437819814683
5	0xbfc5f7d83ba0099c	-0.1716261187685405
6	0x3fc89ad090665b8a	0.19222456980488928
7	0xbfc226cbd5be6077	-0.14180896698667642
8	0x3fc0271c3938d75f	0.1261935500530695
9	0x3fb5cd7960660871	0.08516653636437056
10	0x3fc2978dcce5e830	0.14525005821980264
11	0xbfbb39d1c5bb4d9b	-0.10635100438530858
12	0xbfcd6bd639a03c71	-0.2298534184815
13	0x3fb1c18edf5c785f	0.0693597121539553
14	0x3fd2156410db92f5	0.2825555958391271
15	0x3fbc3673d9030c00	0.11020587967054496
16	0xbfbb2bd4c0998952	-0.10613755895750401
17	0xbfba81072ea8cac2	-0.10353131188530099
18	0xbf913070ba7187a9	-0.016786347751242357
19	0x3fb59a80335bc5b1	0.08438874486798544
20	0xbfbc561731a51f02	-0.11068863832508316
21	0x3fb6f4ae979bbed7	0.08967105103851779
22	0xbf90ea700960d52e	-0.016519308636096124
23	0x3fb0444da98c3f86	0.06354222668983142
24	0x3fa2ad45b3d4af20	0.03647821254921113
25	0xbfb4c4060c195141	-0.08111608310111242
26	0x3fb8ec1a8462c4ee	0.09735265476298924
27	0xbfc30fc870540c56	-0.1489191578367321
28	0xbfe8ac9c884a9950	-0.7710707342091982
29	0x3fdc96b10ff9137c	0.4466974884019732
30	0xbfb735b72f5d9398	-0.09066338449845401
31	0x3f8959729b10bc22	0.01237763915750462
32	0x3fd0de1f84f1d964	0.2635573194778742
33	0xbf9d025d896a7ed0	-0.028329335701186065
34	0xbfdce7997696a1b8	-0.4516357095804113
35	0xbfc981b55cb3a528	-0.19927088762714473
36	0xbfba9efcdf2c4335	-0.10398846100384847
37	0xbf901ac917d881bc	-0.015727178650310356
38	0x3fc5d76369dd8b13	0.17063563031396053
39	0xbfd0f94231ba8cf2	-0.26521353584594387
40	0x3fa2054f54661a9b	0.0351967611814434
41	0xbfc833c633b242b8	-0.1890800239966859
42	0x3fc78f2a8a416d2b	0.18405658484230378
43	0xbfbcd4cb4be07d42	-0.1126219806906095
44	0xbfbecc0b3b740ade	-0.1203009624623905
45	0x3faba8f2f62f556e	0.05402335410296187
46	0xbf441e9bf162a504	-0.0006140004577634144
47	0x3fbb43d5814e7b62	0.10650381476305662
48	0x3fb88cbbd09485de	0.09589742510117769
49	0x3fb9b5e44f8a55c6	0.10043169919875714
50	0x3f77d92a1447bf4b	0.0058223384589693545
51	0x3f417333df0653bd	0.0005325320508285863
52	0xbfa033b022b28da1	-0.03164434836915154
53	0xbf9cb24f83b3e956	-0.028023950971126275
54	0xbfaa557704f36bd2	-0.05143329558787681
55	0x3fd1668b269c503c	0.27188376207891785
56	0x3fcd5d4af412171b	0.22940956990731184
57	0x3fb8b1134ca1f563	0.09645195599474259
58	0xbfad86e4bddd4b58	-0.05766978089982072
59	0x3fc1de4dc259ca46	0.13959667196066244
60	0xbfe5573a123cab9a	-0.6668978077117231
61	0xbfb94b5262685a63	-0.09880556967287073
62	0xbfcf0311e700ebee	-0.2422811868617311
63	0xbfc20c2d61cdfa65	-0.14099662089934664
64	0xbfb6eb69c2090061	-0.08952961909472058
65	0xbf6f472e9568e74d	-0.0038181218945085083
66	0xbfce4a232026f6f1	-0.2366374880784217
67	0xbfd41a3cad33552d	-0.31410138048279884
68	0xbfd08faa0ce511fc	-0.2587685705114209
69	0xbf9036fdee8213ae	-0.015834777529125148
70	0xbfc8a88f0d85b0a4	-0.1926440063501832
71	0xbfce3477bb8e2b05	-0.23597618730521944
72	0x3fc03e20a9e11cb9	0.12689598364724988
73	0xbfa990a9b30c7563	-0.049931815248991616
74	0x3fd6f9cad3f88377	0.35899611187237873
75	0x3f9adf844f35afca	0.026243274054124112
76	0x3fbb48cd96e83246	0.10657963690045688
77	0x3fbff3931c2c27b4	0.12481040418438633
78	0x3fe2961b22ab3f56	0.5808234860541954
79	0xbfcca96f365c7e36	-0.22392072824821846
80	0x3fc40108990c2811	0.15628154252073093
81	0x3fb45e67c6918f5b	0.07956551168314034
82	0xbfd13f5e30692444	-0.26949267127617227
83	0x3fcd374ba4a2abe1	0.22824998415793998
84	0xbf7f66a5fe2382b0	-0.00766625252637769
85	0x3fd17d012e4dc6be	0.2732546760736162
86	0xbfc33a6a5f0d2389	-0.15022019997766403
87	0x3fc6d8cd9863bf8b	0.17849130574131453
88	0x3f9382bb6803f9a0	0.019053390716175067
89	0x3f86b4a92d8d1a46	0.011086770727741013
90	0x3fce4b18df9f9784	0.2366667835150872
91	0xbfc479f0f2aa79e0	-0.1599713501827429
92	0xbfd243b096ea4828	-0.2853814576893705
93	0xbfb8021316567745	-0.09378165526729017
94	0x3f709a1eceabe92c	0.004053230610902053
95	0xbfc622dff688a542	-0.1729392961290533
96	0xbfc3f8e512934950	-0.15603316695212266
97	0xbfd063d7a60b863b	-0.2560938951047295
98	0xbfa20b698b7eeeed	-0.035243318823146776
99	0x3fb68b0ab08897de	0.08805910882855936
100	0x3fa3bac50759cf51	0.03853431429607091
101	0x3fb2c3853f11925d	0.07329590596925457
102	0xbfd514418f4e2f13	-0.3293613337962011
103	0x3f8c3318c3fba0d1	0.013769334298061516
104	0xbfaff0a3d4930b0f	-0.062382812212964926
105	0x3f9786ab993958bf	0.02297466395096914
106	0x3fc0fbe272162b2b	0.13268690653452472
107	0xbfb0e67f975ff9c6	-0.06601712651897804
108	0xbfd217f133840e4b	-0.2827113154491811
109	0x3fa3c93226107cd5	0.03864437784818057
110	0xbfc6791cc1fc38da	-0.17557105514465016
111	0x3fc6ca02b4a56799	0.17803987331973017
112	0xbfb0a54a631a99b9	-0.0650221340134526
113	0x3f9141b870c7f0b9	0.01685226620064448
114	0xbfb9ec474cca3492	-0.10126157402756267
115	0xbf93f1e241b79e33	-0.019477401028693286
116	0xbfc41e911bf3da8f	-0.157182825707157
117	0x3fc87ad6476b1041	0.19124868857591262
118	0xbfb4af2c5caa0c90	-0.08079793226538556
119	0x3fc2be290aac8bca	0.1464282323950939
120	0x3fc965d8b06f40cc	0.19842060675592277
121	0xbfafc3c4bcccde73	-0.06204047016802585
122	0xbfa2a87a5678774a	-0.03644163423108056
123	0xbf729e97de012175	-0.004545777541416708
124	0x3fbb4b091b61ea91	0.10661370199697219
125	0xbfa2712f3c087f67	-0.03601977927996707
126	0xbf4718fd38d62d7a	-0.0007048832355151379
127	0xbfc9c026237c41a0	-0.20117642147716897
128	0xbfe34bd3d8478df6	-0.6030062889298609
129	0x3fc57591ab16316c	0.16765042165605892
130	0xbfb27e3a7dcb2eeb	-0.07223859377989654
131	0xbfc96af569f170ff	-0.19857661889080444
132	0x3fc7e463ca8321c9	0.18665740383427323
133	0x3fbb0101c896b03f	0.10548411509688636
134	0xbfd00bd97ee0570f	-0.25072324171320387
135	0xbfd2688dce8f44a6	-0.2876314656433102
136	0xbfc4a315518b198b	-0.16122690660104086
137	0x3fd545e6443cc8a2	0.3323913256055083
138	0x3fbd0bcfecbaebd8	0.11346148995919181
139	0x3fbefbf9fb83d5a8	0.121032356171631
140	0xbfb10693851fef3f	-0.0665065956126769
141	0x3f8fc1a026ebb0a6	0.015506030261768732
142	0xbfcb388275aa0795	-0.2126620363742943
143	0xbfb8365376fec26b	-0.09457894950060967
144	0xbfc071a1dc9272bf	-0.12846778173561366
145	0xbfd6303c793a5885	-0.34669410551703833
146	0xbfb45cde193502b3	-0.07954204669386904
147	0xbfbc3d55e30d9830	-0.11031090539253863
148	0xbf64386c498589d9	-0.0024683108314757893
149	0xbfa8fad98b39650a	-0.048788831944600444
150	0xbfa5d75ecbf5110d	-0.04265876998627691
151	0xbf962f25ddf06650	-0.021664230033002163
152	0xbfc8dba1c28709cb	-0.19420263288891557
153	0xbfe49b9ee3475872	-0.6439966620480517
154	0x3fc27a92b9035ba4	0.14436563524097068
155	0x3f98d081bd8c1fc7	0.024232890314152458
156	0xbfa5c1215cf2850d	-0.04248909244166486
157	0x3faf600b1aeea0ad	0.06127962783585992
158	0x3fcb7deef3e922d7	0.21478068265630298
159	0xbf58596f846e429e	-0.001486166862125916
160	0xbfc5c44ef20ccffc	-0.17005335635042218
161	0xbfd3fc3b485e7c58	-0.3122699934701294
162	0x3f94df6016e96e37	0.02038335933535348
163	0xbfc6e839bf84aa5b	-0.17896196223712732
164	0x3fcccc525fc86c21	0.22498540570163164
165	0xbfb3a1b6df3b8272	-0.07668631505976878
166	0xbfa4bdbfce634929	-0.04051017183668854
167	0x3fbcc54943cc3145	0.11238534836974619
168	0x3fb582c7dd156ad3	0.08402680537748645
169	0x3fb95e3f980e4225	0.0990943666677216
170	0xbfb3555105beec08	-0.07552057638433507
171	0xbfd08fd12e720f5b	-0.25877790008256846
172	0x3f95c4098bff4753	0.021255635423421747
173	0x3fc4cabd53213350	0.1624371200472532
174	0x3fbd570d0c3c8461	0.11460954235782729
175	0xbf8e93cbf3f97b23	-0.01493033731747812
176	0xbfbdaeba3c1c4822	-0.11594737975636396
177	0x3fb191dc255ab609	0.06863189613314814
178	0x3fa6f055cfcdb73d	0.044802362076423276
179	0x3fb4243562c33a83	0.07867749844738552
180	0x3fcdeb9da4100def	0.23375292311548843
181	0xbfd36b99493bc1d6	-0.3034423079652958
182	0xbf8a76049396f18b	-0.012920413736417632
183	0xbf8ded303ac0bd3d	-0.014612557213779293
184	0xbfd9e41e95ad4e9e	-0.4045483075799242
185	0xbf98f7e03db4bb59	-0.024383071676477772
186	0x3fbad596f8c0d195	0.104821620684396
187	0xbfbbf9901af37a8a	-0.10927677782044945
188	0x3f7a16f207529350	0.006369538711770442
189	0x3fca88b288bd930f	0.20729667355330902
190	0xbfd3b11f2747c257	-0.3076856502148408
191	0x3fd00a6c72d1a5be	0.2506362077025094
192	0x3fce8a4e350f89b4	0.23859574881414647
193	0xbf6a96498bd36c54	-0.0032454906891934785
194	0xbfa5ed1207ec0586	-0.04282432886794667
195	0xbfbf0f2f8b956fda	-0.1213254657536135
196	0x3fd14f2042dab38a	0.27045446900120196
197	0x3fcb397db401684f	0.2126919869359107
198	0x3fc2c075144800d9	0.14649833193107645
199	0xbf640af52f3288bb	-0.0024466313130498663
200	0x3f8a3c9f3e4941c7	0.0128109398730495
201	0x3fc8cd0893a30895	0.1937571259387069
202	0xbf90631054743028	-0.01600289836373761
203	0x3fd8ab59d13a556f	0.385458425830925
204	0xbf45c2f21862f630	-0.0006641084771882907
205	0x3fb3dc40f1aa1cc3	0.07757955455791703
206	0xbfc2c7547e6ee161	-0.14670807050220971
207	0x3fd16877396a1b10	0.2720010815323102
208	0x3fc9c5a89084f082	0.20134455734831042
209	0xbfc770318569b17d	-0.18311137213039422
210	0x3fbac9567cad5f2d	0.10463467162969371
211	0xbfa26559ed55b993	-0.0359294988837632
212	0x3fb6d84d7a41cb6a	0.08923801646032606
213	0xbf67137cc7525ae0	-0.0028169095117605986
214	0x3fd4af468ca38dbd	0.3231979726244523
215	0x3fc121760210fb55	0.13383364773650422
216	0x3fb0484f4bf58e89	0.06360335926506812
217	0x3fd4314848715087	0.31550795626140665
218	0x3fc8168ad255915b	0.18818793554522525
219	0xbf99d40d04b3e5b7	-0.02522297230914258
220	0xbf825fee30f19ebc	-0.008972035282752137
221	0xbf9e3c6671b3b280	-0.029527283372703383
222	0xbfdc5bf57254659e	-0.4431127182484377
223	0x3fc184174b88feb6	0.1368435972999486
224	0xbfd408a558339976	-0.31302770245965605
225	0x3faa51a448f07ed2	0.051404127029170646
226	0x3f84e4668a3e6426	0.010201264470923798
227	0xbf9107fefdb090be	-0.016632065042487147
228	0x3fa75607fc6f9027	0.045578240933338336
229	0xbfd0ec49f5868aad	-0.26442193009476506
230	0xbfacc9eda381f7f0	-0.056228090485987425
231	0xbfc34e6cff8567ca	-0.1508308646833128
232	0xbf817b644d8dedcd	-0.008536132447026024
233	0x3f93837166fb1ce7	0.019056102667289656
234	0xbfc2cbb577677be1	-0.146841700842713
235	0x3fc191a12e3cdcfe	0.1372567630548715
236	0x3fb1e39aeb81ffae	0.06987922906591734
237	0x3fb92fc62e3e8c6a	0.09838522557270016
238	0xbfcaaad93c2a9502	-0.20833888471421608
239	0xbfc0a5d714c70e8f	-0.1300610400631865
240	0x3fa511d32d00216b	0.0411516182358039
241	0x3fbd2c704ca0fec8	0.11395933028051808
242	0xbfc2fcd2727cfb77	-0.14834051695103387
243	0xbfa461c0f35d7d57	-0.03980830164686704
244	0x3fc576b39076785d	0.16768497995230094
245	0x3fc7ae5e2e9db54a	0.18500878597425646
246	0x3fb2ca6fabb15fca	0.073401431481556
247	0x3f783dd70633a1dc	0.005918350160961396
248	0xbfa7110a05a69c04	-0.045051873388096936
249	0x3fc267839ad93a7d	0.14378399907078068
250	0xbf7401cf1dad2f99	-0.00488453774125821
251	0xbf779b0cb012ba3c	-0.005763101159728164
252	0xbfb7e5529dc8817b	-0.09334293701295408
253	0x3fa192ad474a8b81	0.034322180702722534
254	0x3fd40ba1072730d8	0.31320977877181866
255	0xbfd15b4cb3251535	-0.27119748587240916

layer1.bias f8 [128]
0	0xbfbe1d7b725749b5	-0.11763736287620115
1	0x3fc703cd29890c14	0.17980350998013306
2	0x3f8b76221449abaa	0.013408914798864153
3	0x3f957da2df098690	0.02098707662879079
4	0xbf84dd71a3a8514c	-0.010187995726518871
5	0xbfd34f2028475c67	-0.30170444425079385
6	0xbf92fe42d52bbf3f	-0.018548053990286247
7	0xbfd366dfcbb562b9	-0.3031539429989994
8	0xbfd4902ba647ceeb	-0.32129946935968573
9	0x3fb2bd522e652f7f	0.0732013095159214
10	0xbfe6325248fab2af	-0.6936427522064913
11	0x3fbd49a63a75e95c	0.11440504958401249
12	0x3fc86dc47213aa5b	0.19084983415753495
13	0x3fb1753ac60b23a2	0.06819503150030795
14	0x3fb63e7067c5d761	0.08689024480358178
15	0x3faaf9fc212a7364	0.05268848328453293
16	0xbf9ef9459fcc7729	-0.03024777210077115
17	0x3f9eeb767f12e856	0.030195094591114767
18	0xbfa5145f813b019d	-0.041171059155661306
19	0xbfc1f7e2a6d74c83	-0.14037736078771354
20	0x3fc0ad6ec6405b75	0.13029274635547564
21	0xbfc30b5ed87ea615	-0.14878449984580358
22	0xbf70f413086c3bbc	-0.0041390174362864705
23	0xbfe222b5d377ba5f	-0.5667370920398972
24	0xbfc635da936e0123	-0.17351848791805322
25	0x3fc753940674fa3d	0.18223810496597706
26	0xbfde1d801d3fbcf3	-0.47055056434960746
27	0xbfa2f2cfd817917b	-0.03700875771372388
28	0xbfc32ac3be2e6717	-0.149742572652763
29	0x3fd8a27cc27ec5ba	0.38491744035408326
30	0x3f963a7efaa3811f	0.021707519576808495
31	0x3f732b78f18d7945	0.0046801304204947035
32	0xbfca943e122dda4e	-0.207649001003761
33	0xbfc917dd329140a1	-0.19604077309714277
34	0x3fc1bfe6404dac16	0.138668805502079
35	0xbfd33a186ba922cd	-0.3004208613752269
36	0xbfbe74d5322403d3	-0.11897022699487474
37	0x3fca04782b73c104	0.2032613956612367
38	0xbfbc668b69721675	-0.11093970608097854
39	0x3fb511855ee3324c	0.08229859892453212
40	0x3fd08dc47ab84193	0.258652801364428
41	0x3f81526213319ff8	0.008457914553403598
42	0xbfc69b3cafc54610	-0.17661245901631206
43	0xbfa2c39b87bae21b	-0.03664861709461694
44	0x3fa655b889b09993	0.04362274819168301
45	0xbfb75e061f600d81	-0.09127844110485307
46	0x3fd841b9757cd91b	0.37901150201231965
47	0xbfd2f5009e1892f5	-0.29620376051961667
48	0xbf78ba403ef95101	-0.006036997757821406
49	0x3fa96c2250b90f67	0.04965312228571755
50	0xbfc282e0ed2d91e4	-0.1446190984817256
51	0x3fb9319938c1dc42	0.09841306338954417
52	0xbfbc069d10f9bb4a	-0.1094759146160246
53	0x3fdeb2de67d066af	0.47966728342144455
54	0xbfc2a3065c41b26f	-0.1456001234504529
55	0xbfb8370d0ed15ee6	-0.09459001170887013
56	0x3fcc0fb52c453cd9	0.21922936116832295
57	0x3fc5bc60c45a8309	0.1698113402135493
58	0xbfc94b50ee9d2c48	-0.19761096621582142
59	0x3fae46eeff5d0533	0.05913493029812358
60	0xbf8005bd4d66931b	-0.007823447155553212
61	0x3fb7ce4f78e485d0	0.09299179746132968
62	0xbfe649e889091118	-0.696522014281558
63	0xbfca1bc9f1ef3863	-0.20397304833608407
64	0xbf98910cbcb8ec5f	-0.0239908209025369
65	0xbf90ff218b84b20d	-0.016598247662090105
66	0xbfb3b69475dfcd33	-0.0770046985415334
67	0x3fcf973697c3ad3d	0.246802162269299
68	0xbfb726902a1339e8	-0.09043217684959581
69	0x3fb22113b2394901	0.07081721402326836
70	0x3fd1413617024716	0.26960518118822685
71	0x3fb4b86ada7146ac	0.08093898613995049
72	0xbfcfae8604de8347	-0.24751353490594338
73	0x3fc6f5b43ee3a72a	0.17937329359784232
74	0x3fd6c97404307811	0.3560457268630453
75	0xbfc09e55ef315364	-0.1298320215161325
76	0xbfc3c4e55be7090e	-0.15444628703523516
77	0xbf9578b22836cd5b	-0.020968230919334512
78	0x3fc2c29da5e7072a	0.14656420326905933
79	0xbfa408e6f76875a3	-0.03913041849248635
80	0x3fd58bf804f03679	0.3366680191255465
81	0x3fc1e7cecc4d054d	0.13988671279552492
82	0xbfdf3e3329aa3810	-0.48817137783851283
83	0x3f9e7983b5af881f	0.029760415996754937
84	0x3fb2c4f4c72da602	0.07331781256439032
85	0xbfdb1e363f9af75c	-0.4237189885278576
86	0x3fb6925ba5bfa340	0.08817074581714923
87	0x3fcc9bea54ffcaef	0.22350815916396224
88	0x3f93a56350863151	0.019185592450911063
89	0x3fc5b7c02d872cf6	0.16967012618110972
90	0xbfce6db94c853f2e	-0.23772350536682424
91	0xbfbc759ba466597e	-0.11116955531756464
92	0x3f920321b69f0c01	0.017590071460073634
93	0xbfbee0ef28a4e7df	-0.12061972372330797
94	0x3fb0b77fea41b84f	0.06529998273046654
95	0xbfca02e3bde00f0a	-0.2032131840825218
96	0x3fa6877b1ef03f3a	0.04400238754908377
97	0x3fb3dd1a9101b982	0.07759252586558854
98	0xbf9fceb9bcce0ac4	-0.031062032841428402
99	0x3fd06efd75d44752	0.25677429682501896
100	0xbfaead88be36c00f	-0.059917710513559645
101	0x3fc6d84e03f17baa	0.17847609703582396
102	0x3fb33f1a2fd1a9f9	0.07518161456543017
103	0xbfba901c76c7ebde	-0.10376146221089708
104	0xbfafedb403821953	-0.06236040633034414
105	0x3fa86cecdcfb8eba	0.047706033683224416
106	0x3f988f0aa0b1b7df	0.02398316007423051
107	0xbfac1b5ee7b34418	-0.05489632204410827
108	0xbfd0a714c1002326	-0.2601978192110884
109	0xbfd93143e0e01c14	-0.3936319061326128
110	0x3f910fee40b04f38	0.016662333200726936
111	0xbfc1b247cd0180eb	-0.138253188229107
112	0x3fceb6f95f90d793	0.23995892683313666
113	0x3fe77f2652d0dcfd	0.734271203756094
114	0xbfc67ea1136c84a1	-0.17573941658432538
115	0xbfb03aa3c001812b	-0.06339477002757536
116	0xbfaaad41eebd0310	-0.052103100197660734
117	0xbfcd797bdff4fa56	-0.23026989398381897
118	0xbf9edb97ea5113a2	-0.030134557415539505
119	0x3fcf9126a2dae840	0.2466171546164464
120	0x3fca3835621c5000	0.20484034815365249
121	0x3fb1abc306d28424	0.06902712742386591
122	0xbff29fc90fd303f7	-1.1640101068626316
123	0x3fc6ab0258641f36	0.1770937854382681
124	0xbfa4c175ad5f0091	-0.04053848019930329
125	0x3fb1f116a3c525fb	0.07008496759694786
126	0xbfbacecd9498cc43	-0.1047180640969581
127	0xbfcac4fdf6573e19	-0.20913671997412633

custom_layer.beta f8 [128]
0	0x3fd5981bab0d584a	0.3374089403563444
1	0xbff96889ddae6a9b	-1.5880221042085967
2	0x4008e856778ae261	3.113446172643578
3	0x3ff33ed83126f0b5	1.2028428955082238
4	0x3fd69fc15387de66	0.3535006824235779
5	0x3fec7e29a141de98	0.8904007100636191
6	0x3ff42bd9a5783cf4	1.260705610624254
7	0xbfd99df288c80a19	-0.400265344215002
8	0xbfde09a7cbd4d989	-0.4693393221417855
9	0xbfc93aafab665409	-0.19710346097113554
10	0xbff638377fee622a	-1.388724803668206
11	0xbff07a3bcbc511a7	-1.0298421821363293
12	0xbff2724de5b8fe0b	-1.1529063199558347
13	0x3f8a2f2a282b2e08	0.012785271979189453
14	0xbfe66ca5bccc7a42	-0.7007626235461617
15	0x3fbc5f269d78814f	0.11082688660144878
16	0x3ff04e3c367ca5dc	1.019100392188526
17	0x3fb3d7eb7f06ce19	0.07751342631564064
18	0xbfa1e48e1f1deb5b	-0.03494686250538478
19	0x3fceaaec083e6483	0.2395911255123658
20	0xbfeae1d953725e60	-0.8400694494075189
21	0x3ff92b772a45d659	1.5731116915971113
22	0x40005f765ecdd5d0	2.046612492233841
23	0x4005e4e0b2247965	2.736756698358635
24	0x3fb001de30ba2712	0.06252850236537835
25	0x3f51c25261c50f8a	0.0010839275847311669
26	0x3fce6135545ef4fc	0.23734156245874505
27	0x3fc385a6d00a5f7f	0.15251622350910662
28	0xbfc3678c7a50d765	-0.15159755680513878
29	0x3ff33ff0cbb7bdc0	1.2031105001186546
30	0x3ff6564ea99e81fb	1.3960711122273313
31	0xbfe01b250b9a3549	-0.5033135630234621
32	0xbff6374b311ea8f5	-1.3884994429341166
33	0xbfc28c1c25cdd8c6	-0.14490081640150815
34	0x3fb35496f7999942	0.07550948662683246
35	0x3ff869578aa01096	1.5257182517098378
36	0xbfa8fcf130250ac1	-0.04880479538635064
37	0x3fd3a06f37bfd145	0.30666714138284973
38	0x3fc35f6177b9e18c	0.15134828897477026
39	0x3fc8cab6b3e21f93	0.19368633063663462
40	0xbfc54c81dccc0fda	-0.16639731675252173
41	0xbfacfca3e26977b9	-0.05661499155824807
42	0x3fd2e68dbb7c7ab6	0.295321877567328
43	0xbff442c5b958a6bf	-1.2663018455590842
44	0x3fc2571dc03e2f41	0.14328357588635224
45	0x3fd3209507592742	0.29886365621188216
46	0xbfe90ccaac1f89d1	-0.7828114854603944
47	0x3fe555492b1febbb	0.6666608660010448
48	0xbfeadc1b6fe50d14	-0.839368551773449
49	0x3ff296b2c289cc63	1.1617915724898686
50	0x3ff1afeb0d0cdbb7	1.1054487714552417
51	0x3fcb46775497ba7d	0.21308795576574716
52	0x3fe2673b35289353	0.5751014745952524
53	0x3ff1ae8c11d3c7f7	1.1051140495660527
54	0x3fa505e51d75a262	0.041060600134021255
55	0x3ff34d88a2669198	1.206429132821631
56	0xbff5bc3f31d9e0f6	-1.3584587046917114
57	0xbfe241a1c91c583c	-0.5705117156928803
58	0x3ffe04428f7a4452	1.8760400395006127
59	0xbfd865f34fabc2a5	-0.3812225606953155
60	0x3ffb0bebab5a28bb	1.6904102986759841
61	0xbf63e3932bf7b883	-0.002427852101155871
62	0xbfeb71023387f7fe	-0.8575449949710217
63	0x3ff05bc744e30e66	1.0224068346878084
64	0x3ff056d650976611	1.0212004802800758
65	0x3fea5e19ca3cd4b4	0.8239869070008781
66	0xc0036623da118c14	-2.4248730694394087
67	0x3fbb5ee5b1fac942	0.10691676707464118
68	0x3fd86c9510477182	0.38162733640435686
69	0xbff9b68e915b6773	-1.6070695570001277
70	0xbff3d375d2dcd8b2	-1.2391260372947213
71	0xbfdbc5a91d9d24ac	-0.43393924610115664
72	0x3f96b4e3c238030f	0.022174414376425363
73	0xbfb4f0cfd20508a2	-0.08179949643548182
74	0xbffe5a547a11419c	-1.8970532196291066
75	0xbfe56ce322b65aad	-0.6695419004416486
76	0x3fb6fc5bb70ce83b	0.08978818148617133
77	0xbff4766c5ec0ac3b	-1.2789119435572178
78	0xbfd0399b51b27885	-0.2535160348724122
79	0xbfd1221ac5366fbb	-0.2677065778641425
80	0x3ff24db16fd5d259	1.1439680450977419
81	0x3fe109fef25f9818	0.5324702009063484
82	0xbffa1bab09bd6c4f	-1.6317549114671868
83	0x3fc81d593a32a82a	0.18839564649289403
84	0xbfc57a718ff720c3	-0.1677991822200565
85	0x3ff1a694948ec18b	1.103169040969166
86	0x3fb5873184b3facc	0.08409413804836702
87	0x3feeb47f36a9c080	0.9595333163870379
88	0xbfc3847a8564b76a	-0.15248042596197858
89	0x3ff45408b22ccf06	1.2705161056482566
90	0xbfe838ebdc964314	-0.7569484051074107
91	0x3fdd49096d00c67a	0.45758281369044307
92	0x3fc4adeba95c6a93	0.16155763406353127
93	0xbff73ad8f61af3d2	-1.4518670667159665
94	0xbfe76bfaae23d86a	-0.7319310570881161
95	0xbfa5e02fffacb0fd	-0.042726039848590226
96	0xbf8b6a0c5ca8ced7	-0.013385864808788934
97	0xbff73cd22ea65bc5	-1.4523488828906335
98	0xbf9c28a3f5d182bb	-0.02749878108841373
99	0x3fe6cf35520a8db3	0.7127939798705739
100	0xbfea02747ba8e8d0	-0.8127996840696827
101	0xbf978cfd99566cbc	-0.022998774036392375
102	0xbfc14cad886e479d	-0.13515252267512504
103	0x3fa769e693c56bde	0.04572983316275957
104	0x3fc7be7e5f4a63da	0.1855009045873704
105	0xbfa3de9b6d86bb02	-0.03880773269644601
106	0xbff7c0e978af1552	-1.4845976556983556
107	0xbfd972b14dcc9649	-0.3976252803571226
108	0xbff9927c5c4fce04	-1.5982631307532538
109	0xbfef9f5b8af91550	-0.9882028307262463
110	0xbff571b6cbaf3845	-1.3402622181343002
111	0xbfab5b18785a5ed7	-0.053429379169015405
112	0xbfe7987b97d12e7d	-0.7373636212518729
113	0xc00554f885399c07	-2.6664896400648135
114	0xbff32dd2409de1ee	-1.1986868404475177
115	0xbff1c7ba0fbdb1d5	-1.1112614264376266
116	0x3fc6e5923fc84396	0.17888095964783862
117	0xbfd9843215c13b38	-0.3986935818147006
118	0x3fd508ace16412b7	0.3286544991572486
119	0xbfd99d334a9a18af	-0.4002197483572542
120	0x3fe3fdac309f5be4	0.624715895620167
121	0x3ff620c82f34761e	1.383003410715339
122	0xc00364ff23655af3	-2.4243147626215147
123	0xbfe196bf384783ae	-0.5496517276006807
124	0xbff1eeced2f15dfc	-1.1208027114824963
125	0x3fe6bf92de42b1a8	0.7108854619050833
126	0x3fa3590cc15bc0fc	0.03778877125103183
127	0x3fad5e7e2e9e04f5	0.05736154860552204

custom_layer.gamma f8 [128]
0	0x3fe878c35c7dfa6e	0.7647415930258157
1	0x3fdf00048ac492db	0.4843760829119625
2	0xbfe9ef9cca2eb144	-0.8104995678782321
3	0xbfdf9d7267e0da91	-0.49398479599350603
4	0xbf82d3326ff5b516	-0.009191888849012158
5	0xbffdfd1a9063bfa7	-1.8742929115505633
6	0xbfc3a1ed96674989	-0.15337915271682004
7	0xbffa5f91908ae0f1	-1.6483321806136326
8	0xbfc84ecbec1fdbc6	-0.18990468053354287
9	0xbfd5c311e1d2051e	-0.3400311188962223
10	0xbfe6a237eea58286	-0.7073020611824894
11	0x3ff0fc3841400384	1.0615770863371106
12	0x3fe47aa3cd6f57e7	0.6399706852341723
13	0xbfe71f4002b51d45	-0.7225647023086955
14	0x3febac770aa8acb7	0.8648028572255474
15	0xbfe884fb1e8b07fa	-0.7662330242676483
16	0x3ff4cce4694b1678	1.3000225174922928
17	0x3fea9ab142719ca3	0.8313833520632169
18	0x3fece02420266088	0.9023609760215701
19	0x3fc2931656715fc3	0.14511374684184206
20	0xbfd918dd59753f9e	-0.39214261757023816
21	0xbfd12df047dff4f0	-0.2684288694288872
22	0xbfd4b8e1dec8d4fe	-0.323784320414532
23	0x3fdfe8b9044d683b	0.49857926769402966
24	0x3fd82d6687480d04	0.37777102671698537
25	0xbfd88ba2cb6c328c	-0.3835226999806671
26	0x3ff9522d1287e665	1.5825625156270686
27	0x3fe548cbb28befc4	0.6651361930121245
28	0xbfe95df0f3e5d08f	-0.7927174342753619
29	0x3fee826ef9433cea	0.9534220570002649
30	0xbfc4de6650448d14	-0.16303709906888086
31	0xbfcd24a2880ccd6a	-0.22768050807062973
32	0x3fea6e87a5189f67	0.8259924149069605
33	0xbfd8a601a16fa5f0	-0.3851322247051874
34	0xbff5f22786d56767	-1.3716197268426755
35	0x3fef0e6d460eb7c4	0.9705110901174909
36	0xbfe1a66ad4deb352	-0.5515646131149003
37	0x40022469246b84cb	2.2677786679565535
38	0xbfe115143b9972db	-0.5338231243182138
39	0x40046acf3882b05b	2.552153054703053
40	0x400143d98ac5ea9e	2.15812977234357
41	0x3fcf5c3c1eb86655	0.24500228405013283
42	0xbff5307d43f0121e	-1.3243382123774903
43	0x3ff318d01a4e00e7	1.193557837250461
44	0xbff6ec6b50bd2264	-1.4327195314273462
45	0x3fd0c311f1f9356b	0.26190613393995105
46	0x40089357c99538cd	3.071944784990683
47	0x3fea0b6bab4c84af	0.8138941140824921
48	0x3ff84d7b37427688	1.5189163359240485
49	0x3ff1f70d41dbb664	1.1228153774822198
50	0xbfd0d423f3f5fd9b	-0.26294802498156294
51	0x3fdc082fb8387fed	0.43799965849211625
52	0x3fe50188baefa629	0.6564372683616898
53	0x3fcec7ff28fa9465	0.2404784154979637
54	0x3fd29125cd3b9fb8	0.29010911028171504
55	0xbfcfa3c931d0da67	-0.24718584949887942
56	0xbfd294e7a03a6892	-0.2903384270408732
57	0xbfdb25c948c9c7fb	-0.4241812907049504
58	0x3fd7f0dcfdd15ab5	0.3740761259736403
59	0xbff5b457e4f326e4	-1.3565291350700415
60	0x3febe3d1d365b9df	0.8715600136618454
61	0x3fe065e0335072ff	0.5124360086661851
62	0xbfd90dcd7ab0a88e	-0.3914674471039995
63	0xbfebbaff98244d53	-0.8665769549865366
64	0xbff2daac4b796a98	-1.1783869693960352
65	0x3ff72d4a41d9f78c	1.4485571453401205
66	0x3fd2c23443a8afd3	0.29310328109090483
67	0x3fe32f2bc1a56a8c	0.5995081693793778
68	0xbfeab31406307435	-0.8343601342090837
69	0xbfda37509c88cf5a	-0.4096261528641115
70	0x3fe1e7921a2bb764	0.55951790915945
71	0x3fc9a7eb0c73be0e	0.20043695552838908
72	0x400032e5b40e54f8	2.024852186858535
73	0xbfd86e4d636018b0	-0.3817323179686225
74	0xbfecf0e7b8d6d798	-0.9044073686734349
75	0x3fe1e9e7cbb5fa39	0.5598029116370703
76	0xbff484e277d83767	-1.2824425393514163
77	0x3ff05c71251ca987	1.022568840950585
78	0x3fe844455c3e11b8	0.7583338548288827
79	0x3fc6ced6ab30a0c5	0.17818721159824782
80	0x3fe83b32cc2fb66b	0.7572263706221752
81	0x3fd96c2c7f24960b	0.3972274057035469
82	0x3fbffa6c487fc880	0.12491490144728523
83	0xbfc8223d186cbf97	-0.18854488079659568
84	0x3ff1067a9cc87acb	1.0640817760792511
85	0x3fcb9906e39b6ba3	0.21560751069668269
86	0xbfe3f21d9d2de500	-0.623305136671803
87	0x3fed0610e4b98769	0.906990477302526
88	0x3ff01e9f4a198be9	1.0074761290095415
89	0xbfb5c2402fdf2e0e	-0.08499528092141181
90	0x3ff02b7c5160ef9b	1.0106166056493524
91	0xbfc45d0932f190b2	-0.1590892313716999
92	0x3fe74dcf317a0c4b	0.7282482115118766
93	0xbfe2e35e28d6f459	-0.5902548597001768
94	0x3fe957594a2d0798	0.791912693857955
95	0xbfafd420de4fe93d	-0.06216528619548221
96	0xbfcdb723ee60bbc7	-0.23215150012535288
97	0x3fe1fe28eb9c4aa5	0.5622753717201091
98	0xbffbe8f8c0c654e5	-1.744377854372311
99	0x3ff300525b7de8fb	1.1875785421275953
100	0x3ff16d6481f33bec	1.0892071796586107
101	0xbfd7665c61f89542	-0.3656226116894069
102	0x3ff378139188ab1e	1.2168155369678924
103	0x4000416b000a8c6d	2.031942367860714
104	0xbff164646b52510e	-1.087009829735567
105	0xbffb1ad78dd86003	-1.6940532246426308
106	0x3feade4878a470a3	0.8396341663642669
107	0x3fd43bbfd6303ab1	0.3161468116458464
108	0x3fbb1c1d98356679	0.1058977600672736
109	0x3fdb00607b110170	0.4218980027981365
110	0x3ff2287119552ba8	1.1348734845694057
111	0xbff6bed34ed55a28	-1.4215882377080877
112	0xbff07bf41221c6f8	-1.0302620609549518
113	0x3ff972da4fa40d6d	1.5905402289361874
114	0x3fd8127389b01d34	0.3761261791809887
115	0xbfb7d5a7616f4b32	-0.09310384873178348
116	0xbfec09552e139bfe	-0.8761392497953009
117	0x3fe930fbb882e76d	0.7872294048058684
118	0x3fe10b368ae2acd9	0.5326187813383526
119	0x3ff9283fd8eb16bd	1.5723265145656307
120	0x3feab03a20d23ef4	0.8340120926895609
121	0x3fe23525c7468385	0.5689877407167933
122	0xc000b233945f3dac	-2.087012442738077
123	0x3ff167dfdf1d19ff	1.0878599849107784
124	0x3fecd37444a64243	0.900812276917414
125	0xbfe46a04dfe7c891	-0.6379417775299477
126	0x3fd56c73499a55a7	0.33474428355961056
127	0x3ff5d9d97b9650e7	1.365685923349753

layer2.weight f8 [128, 128]
0	0xbfb3b066abec6462	-0.07691041657780454
1	0x3fc019e5ff0585a2	0.12579035713410486
2	0xbfad50c9628ab5a4	-0.05725697830107926
3	0xbfca3b51f9003347	-0.2049353090118535
4	0xbfd15e06771f459a	-0.27136384614012743
5	0xbfbb844058c7e633	-0.10748674552441954
6	0xbfaa550b4a283dc2	-0.05143008499373593
7	0x3fc7130097be4228	0.18026740464530744
8	0xbfd4c84ce306ac80	-0.3247253624965154
9	0xbf6c497f02bd3e91	-0.003453014438413345
10	0x3fa582019d84a741	0.04200749442891417
11	0xbfbdb8b9d9eef052	-0.11609994478834665
12	0x3fcc399ce635f1b8	0.22050820580251496
13	0x3fb193d25a5a69c5	0.06866183000457855
14	0xbfb86c5b2ca2b777	-0.09540338363396282
15	0xbfb8cfe3e37dacb9	-0.0969221525571581
16	0x3fc1dbd01c835559	0.13952065841901165
17	0xbfba2594158c1da1	-0.1021359016996173
18	0xbf85f485b1bd0573	-0.010720295416492864
19	0xbfc33ddf06d9f607	-0.15032565912763138
20	0xbf876f0511d9a307	-0.011442222220652732
21	0xbfa756f35dbad72e	-0.04558525580561788
22	0x3fc2422c07d5adeb	0.14264440901329975
23	0x3fd351566465a797	0.30183944515612765
24	0xbfbed537a94f3061	-0.12044093974617588
25	0x3fcbe7ff16b1c21c	0.21801746948359912
26	0xbfabc38fc19a3a37	-0.054226391203986805
27	0x3fb920090b1a14f1	0.09814507027666132
28	0x3fa33a9749e3a140	0.03755638863532562
29	0x3fc370fe09c04501	0.15188575245023375
30	0x3fcb6ea23f884666	0.2143137750832011
31	0x3fc4ec4936644217	0.16346087604371526
32	0xbfc87c10d0b97bc8	-0.19128618423107313
33	0x3fb090ac509a1091	0.0647075363904739
34	0x3f9e12d2b67cac93	0.029368679416773857
35	0xbfc301768a32784b	-0.14848214862735384
36	0xbfab1ed3a678bb2e	-0.05296956450580691
37	0xbfe30f31b573dd5b	-0.5956047576900504
38	0x3f8541d6540fd284	0.010379480781901103
39	0x3faeda27af4ff576	0.06025814070742801
40	0xbfa1909f057a4032	-0.03430649701942946
41	0x3fb657824b07bd33	0.08727278072159521
42	0xbfd24d6d71b4a668	-0.28597580055302396
43	0x3fbfd317a5069ada	0.12431476382208065
44	0xbfa6885c37db339f	-0.044009095972433736
45	0x3fb75035732ce06c	0.09106763898751219
46	0x3fdd81c04c7a83c0	0.46104438274965887
47	0x3f98ae326402d145	0.02410200820368515
48	0xbfd283b4cdd6c7c7	-0.28928871251548255
49	0xbfb2f1ebbeade36d	-0.07400391965155757
50	0xbfc2fe579b22f4d1	-0.14838690829302562
51	0x3fa3eab62b3965fd	0.038900082374947666
52	0xbfbbcf8bf6674120	-0.10863566175180894
53	0x3fa09a081efba11a	0.032425168783279015
54	0x3f9317f71b60e2c0	0.018646107717560367
55	0x3faa990e1747dc7d	0.05194896730602581
56	0x3fb3c57952c5d875	0.07723196287938257
57	0xbfa3ae9e643f38f7	-0.03844161008565721
58	0xbfd0a833f0a60803	-0.2602662897189704
59	0x3fcb63e32cad652f	0.2139858215476038
60	0x3fc0a6ce14c55b43	0.13009048475461257
61	0x3fc0a6af9c02c9f1	0.13008685224265507
62	0x3fd1069e56b7c3bc	0.26602896183527114
63	0x3fc81b8852d83a7c	0.18834022565029673
64	0xbfaaffe90c677ae6	-0.052733690990626234
65	0xbf9dcaabd5d03cb5	-0.029093441891799816
66	0xbfc05cee2bd6c5e3	-0.12783600941251824
67	0xbfb25c83b8c06643	-0.0717241598180403
68	0x3fc5d15aa7a8f8a7	0.17045148073697655
69	0xbfbfc13d9e9b3112	-0.12404236910078151
70	0xbfc0efaa56265ee4	-0.13231400686776518
71	0x3fbe068d7b4734d8	0.11728748569221936
72	0xbf81bda520256f6e	-0.008662500422978527
73	0x3fb3647d432177ef	0.07575209511693946
74	0xbfb52f45a6202af7	-0.08275256448557032
75	0x3fc4b314657d78c2	0.16171507793018775
76	0xbfbc0725dc62e870	-0.10948406820799206
77	0xbfb406b8d1a7d24f	-0.07822756880325098
78	0x3facebe27d89ee44	0.05648715765434223
79	0x3fc28db2e850f1a1	0.14494930594981972
80	0x3fb14c8e7bbaa4ac	0.06757441063622832
81	0x3fc68e00f17afec8	0.17620860854184728
82	0x3fd09019956f1fb1	0.25879516213580717
83	0x3fb86d7daa0abbab	0.09542069817938052
84	0xbfbb67c92bb0973b	-0.10705239597936338
85	0xbfc73f7b9d0fb828	-0.1816248433019052
86	0x3fb5519b830f3b27	0.08327648114866958
87	0x3fd4aa200b120bc4	0.3228836162672304
88	0x3fbc2554646a032f	0.10994460536495575
89	0xbfbb27c62a3d9de6	-0.1060756543280302
90	0x3fab843f1cd13e6c	0.053743335979217516
91	0xbfb58870137446c3	-0.08411312556224985
92	0x3fa92eda094f2a5b	0.04918557513845619
93	0x3fc0b7f344b8bd7e	0.13061371665524385
94	0x3fb01b70f33f9583	0.06291871966057809
95	0xbfc474c59be0f2d1	-0.15981359587921998
96	0xbf8de08e570d5cae	-0.0145884628597471
97	0xbfc36a453a610e18	-0.15168061590712578
98	0x3f8c734ce67904a9	0.013891793044537986
99	0xbfa6bf0a9776e5c3	-0.04442628001147455
100	0xbfcba14ebbbb504c	-0.21586021582209225
101	0xbfcb6021371c4bd7	-0.21387114706939656
102	0xbfbb5eb8b9c5b330	-0.1069140866799898
103	0xbf9e23cccecdeb63	-0.029433441278779237
104	0xbfc005c13e906cff	-0.12517562441721705
105	0xbf58b01945b8336c	-0.0015068289566244298
106	0xbfc6d9ba88d401c8	-0.17851955109655493
107	0xbfb261f7755d2f02	-0.07180735221225734
108	0xbf9b3c01e5bfb35f	-0.02659609761024073
109	0xbfc0a83af296d0f3	-0.13013398022815856
110	0xbfa041db2024ca6a	-0.03175244109515492
111	0x3fb05dcee48455d4	0.0639313991453812
112	0x3fbbca332318dca1	0.10855407339919278
113	0xbfa333bd5d2242a5	-0.03750411760222975
114	0x3fb49e9f29f7f3ff	0.08054537558196272
115	0x3fab7fbf63973e89	0.053709011942939595
116	0x3f7a3a10a90ac3d1	0.006403031424881926
117	0x3fd05a41691cbb97	0.25550875916354115
118	0xbfc61f64b47fc6c9	-0.1728330499022859
119	0xbfb3cb95af4fe3b2	-0.07732520608978069
120	0xbfb82d9aba71d338	-0.09444586803313093
121	0xbf638e2a7a92cd64	-0.002387125936900313
122	0xbfd1b618fa7ffdd4	-0.2767393537796725
123	0x3f89668ddee3bf94	0.012402637829353393
124	0x3fb037fd87e45642	0.06335434501337381
125	0x3f62839e983aaf56	0.0022600266982716706
126	0x3f8d1dc4d9f633f3	0.0142169360176698
127	0xbfb9f27021115d98	-0.101355560372545
128	0x3fc0e40af8a90771	0.13195931569685684
129	0xbfaaf2f0a1a6389b	-0.05263473485239097
130	0x3f92c5c277b8ddc4	0.018332518155345104
131	0xbfb3bf128e23409b	-0.0771342846885567
132	0xbfa7fb8d88759318	-0.046841071040750915
133	0xbf942103c37306ff	-0.01965719108989727
134	0x3f88607ef436ffc0	0.011902801349492509
135	0x3fbce140f3c75568	0.1128120989954674
136	0xbf74f93f172507cb	-0.0051205124348729465
137	0x3f7dfc2b8823e48f	0.00732056622131795
138	0x3faac50205204179	0.05228430092404585
139	0x3fa0bb1ab426f382	0.032677492610196715
140	0xbfa6183bd3eed841	-0.04315363847801779
141	0x3f5775f8a11cc667	0.0014319351216268929
142	0xbf9f76666b93ab52	-0.030725097957581333
143	0xbf85085c2a1bb902	-0.01026985171799
144	0xbfc102c6b1c972c6	-0.1328972213840613
145	0xbfb20c2443d8f94d	-0.07049776703295159
146	0xbfab9c1848b50c9d	-0.05392528426684715
147	0xbf917e61bc851eb2	-0.017083670741412767
148	0x3fa6b66dee8b303d	0.044360576027969924
149	0xbf7064ecf462e9b9	-0.00400250015644093
150	0xbfa232eecf228e97	-0.03554483679297709
151	0xbf7bfb9b382d8726	-0.006831747365909446
152	0x3f9f352e7d3c7be9	0.03047630919820313
153	0xbfb4aee800a17a88	-0.08079385772132686
154	0x3fbac16ac95f07c2	0.10451381126679762
155	0x3fbc56cde964af6c	0.11069952915266662
156	0x3fa1b0c76fe3a9e0	0.03455184212528528
157	0xbf82ffb49ce31206	-0.009276782071887101
158	0xbfadcdd835c47ded	-0.05821109443990822
159	0x3fa2a338344452b6	0.03640151632331394
160	0xbfa5e1ba350525dd	-0.042737788173848414
161	0xbf8e778b958f4b17	-0.014876451970768962
162	0xbfb21b9505c0263f	-0.07073336973567111
163	0xbfb42621b831241f	-0.07870684382318459
164	0x3f84d4db82536dd7	0.010171618380289722
165	0x3fa1e00f2ff16a1d	0.03491256199113855
166	0x3fa6baf5323c0d6c	0.04439512479987226
167	0xbfae29fcbef0b125	-0.05891408758938813
168	0xbfb886fb7802d270	-0.09580966644245748
169	0xbfba873ceedf004d	-0.1036260684186356
170	0xbf9127ab9a00e824	-0.016752892756109486
171	0x3f9e7b39a73013fa	0.029766941861470976
172	0x3fa41ce50e3d83ff	0.03928294943649035
173	0x3fa1a55e2f7971aa	0.03446478204270716
174	0xbf91b24fabbd8991	-0.01728176580162139
175	0xbfae91da6b38d168	-0.059706521595589035
176	0xbf9d88a60de87bce	-0.028841585730443424
177	0x3fcb8593109ac50f	0.21501386938829412
178	0xbfaf36e2a6c12a28	-0.060965617042331666
179	0xbfc161b13b1af98b	-0.13579383264545827
180	0x3fbcecd09df9d670	0.11298850876650035
181	0x3fa71ae6de6cd5ff	0.04512711968565596
182	0xbfa2a136b4719705	-0.03638621285135283
183	0x3fa34a084c7b0a02	0.03767419751740776
184	0x3f8d80fbe7b55262	0.014406173714328566
185	0x3f9c19925c1e878b	0.027441298363221327
186	0x3f9a885c88be5a64	0.025910802694478
187	0x3fa754c2cb318a9e	0.0455685494460074
188	0x3fb7f6c460d4c58c	0.09360911716500747
189	0xbfc1cbb2cff93420	-0.13902888445810024
190	0x3fb6e089b92410ed	0.08936367769280525
191	0x3fa85cf2c8dcb0a4	0.04758413984231538
192	0xbf7f03b2975b822a	-0.007571885702163198
193	0xbfb34537cc927f48	-0.07527493233146487
194	0x3f9f1ad05a46fca7	0.03037572432526461
195	0x3fb3cd6e1a8549bf	0.07735336444355932
196	0x3f71cde98d041f0d	0.004346763904557138
197	0xbf88825bfd7f118a	-0.011967390702815068
198	0xbf9b9019b44df364	-0.026916886930382758
199	0x3fb0c0adc935c71c	0.06544004595141611
200	0xbfcd639ccc5c4501	-0.22960243204628486
201	0xbfb8b746f6928bd5	-0.09654658813319313
202	0xbfa8c5ccd41a583f	-0.048384095088451755
203	0x3f872850e5f489e0	0.011307365434338246
204	0xbf802431d6c039fe	-0.007881535879303844
205	0xbf89462e3518a62f	-0.012340889926309632
206	0xbfc89e2cd02871ba	-0.19232711948360565
207	0xbf88f5a88e8ea3ac	-0.012187306261539486
208	0x3fc841b20eb983ea	0.1895048686883734
209	0xbf8bf07ec973dab1	-0.013642302058071239
210	0xbfb23526d93b4c71	-0.0711235313749954
211	0x3fb53a146d9e6a00	0.08291747738113742
212	0x3fb408316ccae829	0.07825001627034624
213	0xbfba02cfc65d95d2	-0.10160540192517623
214	0x3fa0bd2b46fef40b	0.03269324533128078
215	0x3fa75f82e5455cdd	0.045650568473030374
216	0xbfb05aee5a7589ba	-0.06388749798273965
217	0x3f7fd532838c494e	0.007771680183184705
218	0xbfb193fa89e9b9a0	-0.06866422526375127
219	0x3f937903b398817f	0.019016321026471324
220	0x3fb8289ba1b9f199	0.09436962793728866
221	0x3f5cfed8baa496b3	0.0017697445387709176
222	0xbface26d6285f2e0	-0.05641500308681713
223	0x3fa260a11923cb0b	0.0358934729755643
224	0xbfb0b2fc01e557a6	-0.06523108526502472
225	0xbf92f7d179aded18	-0.018523476649972087
226	0x3fc38ba8921ac49d	0.15269953855525822
227	0xbfa405605c18f77d	-0.03910351871716864
228	0x3f79fe2f27cf4f9f	0.006345924569320176
229	0xbfb0c5ba031b6a3e	-0.06551706863266646
230	0xbfa0048808fb3672	-0.0312845717395306
231	0x3f80e52900d686a6	0.008249588335107316
232	0xbf967674be664aa9	-0.021936248894756236
233	0xbfa7e123ce3ae36d	-0.04663955585915045
234	0x3fa7cb78a17cd903	0.04647423716817125
235	0xbfb39bc6de06f501	-0.07659571571908332
236	0xbf9b9134773c0b95	-0.02692110040426206
237	0xbfb412ab3e0dab78	-0.07840986504531411
238	0xbfc32b4c09c413ce	-0.1497588203129951
239	0x3fb6a8dbd902fc55	0.08851408050667094
240	0x3f99667bb3bc6977	0.02480500492593182
241	0x3fabad6d329d505b	0.054057514599350674
242	0xbfbaa45a9d139fb5	-0.10407034239653863
243	0xbf9181b9a769c5ad	-0.017096424906815667
244	0x3fb5d6f424778b7d	0.0853111828833288
245	0xbf9eaf0bba9305d4	-0.029964621794311544
246	0x3fb4d1fa75d48b03	0.0813290155097484
247	0xbfbb88d9d2671ac7	-0.10755692850862451
248	0x3fba8d8582f839b9	0.10372194716931106
249	0xbf88e86db72c0275	-0.01216207232710185
250	0x3fa99453dbdea86b	0.04995977457959174
251	0x3fac41dd31177b0d	0.05519000267280747
252	0xbf9de5cdaeeed104	-0.02919694309430644
253	0xbf8d52468eaaf24a	-0.014317084530710695
254	0xbfb7f9b930704582	-0.09365422661382719
255	0xbfb0d208edc0cd44	-0.06570487789649798

layer2.bias f8 [128]
0	0xbf81325beb421174	-0.008396833531386184
1	0x3fb288fa579162bb	0.07240261686218734
2	0x3f8bdbc69e77732e	0.013602782927529224
3	0xbf8722b1b26630ce	-0.011296642548380833
4	0xbf8f27270fcf07f5	-0.015211396379417133
5	0x3fb488fbad6629cb	0.08021519645095691
6	0x3f78cd7d93156f1f	0.006055346036500513
7	0x3fc0e5c8f56ebaae	0.13201248153696582
8	0x3fcd27fa6c0930c4	0.22778253817739913
9	0xbfa17e63f9ed9c00	-0.03416740823632125
10	0x3fc92b988e16bc30	0.19664294183664444
11	0xbfa80d96cf95fd9f	-0.0469786766434439
12	0x3f9e0f189ff64136	0.029354462397862956
13	0x3fb6314f951556e8	0.0866899241421738
14	0x3fdb851376800b4a	0.42999731609613845
15	0x3fb72994cae3e5eb	0.0904782290780514
16	0x3fc4b67670e75d9a	0.1618183184898328
17	0xbfaeb2002793bfda	-0.05995178683394871
18	0x3fa66a6a9212381c	0.043780641871407705
19	0xbf9dffacea33e513	-0.029295636934851887
20	0x3faaaa3b05cc8c62	0.05208000608242781
21	0x3fc092225fb45c0f	0.12945966408798923
22	0xbfa34fe756c5bd15	-0.03771899160607909
23	0xbfad54f5c9cc7f44	-0.0572888192020842
24	0x3fa674d7eeb034cf	0.04386019505191429
25	0x3fcdb10df2dfef42	0.23196577414625535
26	0x3fb729d3ebfd2842	0.09048199187705655
27	0x3fa34327fe7b549d	0.03762173634974284
28	0xbfb95eb59c63029c	-0.099101401024209
29	0xbfbf4f3684447785	-0.12230244378267059
30	0xbf9b61fa2837b80c	-0.026740940766039542
31	0xbfae4590f493ad7a	-0.05912449822957462
32	0x3fab8ca471119d28	0.05380739097818782
33	0xbf9360e4816b389b	-0.018924303435419714
34	0xbf850674a53aa862	-0.010266219417946757
35	0xbfad92a6c19f3614	-0.05775948632763686
36	0x3f9b1c6f4784fd68	0.026475657215312337
37	0xbfb50b2f02e214f8	-0.08220189876927353
38	0x3fb561be5714703f	0.0835226976964245
39	0xbfc29fcb19dc1fb7	-0.145501506449589
40	0xbfb576f6276c0a2b	-0.0838464590306464
41	0xbf9c8a1096fce346	-0.027870425429884514
42	0x3fc348cb864ac0b5	0.1506590276453658
43	0xbfb5af3ad387d4da	-0.08470504440613827
44	0xbf72e1457e733a8c	-0.004609366856313312
45	0x3f9e88c4852a098d	0.029818602206896073
46	0xbf71261c9b62df44	-0.004186736818318885
47	0xbfb2f9f8b6452255	-0.07412676286652105
48	0x3f800da0f19c27a5	0.007838494656897963
49	0x3fb61902cda213e6	0.08631913681354283
50	0x3f5b3cff0524be62	0.0016624918394646739
51	0x3facc5a04c0e01a3	0.05619526794817211
52	0x3fdcba6f32c3e81d	0.4488790508036134
53	0x3fc33a63a9e2212e	0.15021940035900044
54	0xbfb7ea6aebd35a82	-0.09342067964039738
55	0xbf935cfe977a8ee4	-0.018909433360604036
56	0x3fc76398f13a0a7f	0.18272697237633292
57	0xbfc2545701fa435f	-0.14319884869157826
58	0xbfa1ab95a271494e	-0.03451221092167832
59	0xbf9ec1410ad89a30	-0.030034080779069494
60	0xbfc0a5dcf14a3551	-0.13006173879368046
61	0x3fa63fbd1e61a6b2	0.04345503803126628
62	0xbf7665fb1fc3a234	-0.0054683503660518
63	0x3fa106a36b30f1ca	0.033253771624433506
64	0x3fcd19e25a055b22	0.22735242267182182
65	0x3fa1d7b9ea8a647c	0.03484898555797941
66	0xbfb9bc782eb198cb	-0.10053206577285605
67	0x3fd945642dcfc47b	0.3948603103045298
68	0x3fbb4f1cc89b0729	0.10667590997311706
69	0x3f90c3a8e3320a41	0.01637138258639426
70	0x3faebac288248c08	0.06001861488245913
71	0xbf9cf338bafc9936	-0.028271566784632905
72	0x3fab67fa66c5fbb6	0.05352766518171086
73	0x3fa0e070edd34538	0.03296234992161334
74	0x3fc0fbdedb8b7df6	0.13268647880521173
75	0x3fc855d2f87f8c8e	0.19011914380744027
76	0x3fcc4fbeedd305df	0.22118364918246322
77	0x3fb9b2d0ad5cedcb	0.10038475258345796
78	0x3fb1b7278f9b696f	0.06920096641571204
79	0xbfb99144fec9021e	-0.09987288685170667
80	0xbfd152b63470e13f	-0.27067332383332493
81	0x3fc22b2dc6c6820c	0.1419427128394236
82	0xbfbc88259bad1f47	-0.11145243693056016
83	0x3f92f13cba1bca42	0.018498371943630916
84	0xbfac1fcf9ba1232b	-0.05493019842885468
85	0xbfb233b07e23c58b	-0.0711012180288632
86	0x3fb0df8a7e6f0ef9	0.06591096483958471
87	0x3fc05ec64c2f969a	0.12789229125990148
88	0x3fb1eaa94397ab0f	0.06998689556318659
89	0x3fd2513076e4a26b	0.28620540247587795
90	0x3fa6f849563ac48b	0.044863025451726456
91	0xbf8fea9305dc869c	-0.015584133736015908
92	0x3fab41ecc63bb622	0.053237342070002094
93	0xbfbfb0a96de68cde	-0.12378939564819144
94	0xbfb223cafa125415	-0.07085865597976267
95	0x3f9ce9bbaae1d433	0.028235370926683778
96	0xbfb55b173fa0f172	-0.08342118552622482
97	0xbf9e81423cae485c	-0.02978995795599136
98	0x3fa9e653b3265add	0.05058538019073009
99	0xbf62b4f054ef5b69	-0.0022835439662957546
100	0xbf853eb60ac1f92d	-0.010373518183993536
101	0xbfc6f102b683ddac	-0.17923005973692108
102	0xbfa75cc7e1918f6c	-0.0456297362186707
103	0x3fcd30fef3f4e70e	0.22805773651071387
104	0xbfb5dd373e3b902a	-0.08540673512794741
105	0xbfb7d07784509218	-0.09302470188465184
106	0xbfab3a41c47f029e	-0.05317883990892834
107	0x3f91ea20ab151fbb	0.0174946884556275
108	0xbf973700fa9ff732	-0.02267076043789657
109	0xbf46b88d38440bac	-0.0006933869886157538
110	0xbfb4790a3023b2d0	-0.07997192073134873
111	0xbf91271ed8a5ea9d	-0.016750795338774983
112	0xbfb9cdeba491d315	-0.10079834716618692
113	0x3fb09fa49131601d	0.0649359564280307
114	0x3fbd08a518256b20	0.11341316070085528
115	0xbf9e2c6585412b26	-0.029466234453404593
116	0x3f91546a15523ca6	0.016923577834458435
117	0x3fb42ea53085f8eb	0.07883675036098096
118	0x3f9a57f2a0085a3b	0.025726119058243162
119	0x3f852807741c928d	0.010330255728669325
120	0xbf9e6c8c183d4f1f	-0.02971094987817857
121	0xbfafdd28441290e0	-0.062234171208986444
122	0x3f9fea4ad88ac9cd	0.031167191950496154
123	0x3fb15b4cfc06ccff	0.06779938843719789
124	0x3fb1a6da2406cd4a	0.06895221118502551
125	0xbf94757aec53360e	-0.019979401277671775
126	0x3fc52515b350f3b7	0.16519423728632684
127	0x3fb8501397a5bb58	0.09497187092141013

custom_layer2.beta f8 [128]
0	0xbfff78ad4444e738	-1.966962114979152
1	0x3ff6832375724a9a	1.407016237998198
2	0xbfd448664bf9d092	-0.31691892070308214
3	0xbfe6f389621082de	-0.7172285952875332
4	0x3fe912f27800422d	0.7835628837365839
5	0x3fb26d5d0a61c10b	0.07198125365698986
6	0x3fd272cc466d26f6	0.2882567107923103
7	0x3fe0867844762084	0.5164147698533417
8	0x3ff47c21b1331111	1.280305568871942
9	0x3fe94534eb85ac1a	0.7896980857889304
10	0xbff24c17980b3d18	-1.1435771884169466
11	0x3fe920a4d747b954	0.7852348522845127
12	0x3fb113cda53ccc35	0.06670842441671783
13	0x3fe81e8b6f334d80	0.7537285968668783
14	0xbffeea5cf8a33d26	-1.9322175705345415
15	0xbfde4cd5551727fb	-0.47343953427900914
16	0x3fe8cfaad8a0b14a	0.7753500205049388
17	0x3fe9909ff3e43603	0.798904396391379
18	0xbf982c04516c915a	-0.023605411023838264
19	0x3fe758a3e1ebc4b1	0.729570332767386
20	0x3fb82df55d38531c	0.0944512703502593
21	0xbfe735a392a579a0	-0.7252977241694687
22	0x3fe95da532027289	0.7926813103436682
23	0x3f905f035d47b212	0.01598744637333211
24	0x3ff07c4e3d40bf0e	1.0303480522815707
25	0x3ff2b81024a3867c	1.16993727027912
26	0x40054741c9172ef5	2.6597934446525593
27	0xbfc6c990e2dd7da7	-0.17802630498316072
28	0x3fe249e6976b5028	0.5715210873991099
29	0x4002e22e4fbe87a3	2.3604398946781244
30	0xbfe530d800167be1	-0.6622123719897638
31	0x3fa4ec78a9058f7e	0.04086663306477954
32	0xbff048fc1a010f79	-1.0178185478007136
33	0x3fec59de5195da0d	0.8859702676261932
34	0x3fd601c585cf585a	0.3438581282365526
35	0x3fd43efe3ae3ff20	0.31634479285274786
36	0xbfd6a8db3f221b0d	-0.35405617871622114
37	0xbfd06da451b0fb88	-0.25669200875920994
38	0xbff6083467aafb0e	-1.3770031022574503
39	0xbff1ab6bf83cbc7d	-1.1043510147826787
40	0x3fb5ffc90a3e4e19	0.08593422412950992
41	0xbfb920e880706cc2	-0.09815838943216007
42	0xbfe99ed6820f57d2	-0.8006393947823602
43	0xbf7c38b6e14e7a4d	-0.006890024543194939
44	0x3fe8ac415027f3f1	0.7710272374675907
45	0xbfcd77a9a5a8d92a	-0.23021431530805475
46	0xbf81f3a0167d2142	-0.00876545971517884
47	0x3fb327172a28d7dc	0.07481522349630104
48	0xbffa6901fac41671	-1.650636653475342
49	0xbff27e869a129550	-1.1558900850735263
50	0x3ff1a0157e03876b	1.1015829965985755
51	0x3f9e4ecad90edbbe	0.029597444055720727
52	0x40069c66fa75e5e4	2.82636829063698
53	0xbfea8f2cefa28cef	-0.8299774818773623
54	0xbfeea5416799e85a	-0.9576727889500589
55	0xbfd21505b74ede33	-0.28253310109309665
56	0x3ffee816209f9adf	1.9316617273668084
57	0xbff1efe414f19119	-1.121067125140206
58	0xbfeccb724ee621c8	-0.8998347798342872
59	0x3fb6ab71ddaa7638	0.08855353986515346
60	0x3fe342dd0ed21672	0.601912049242584
61	0xbfb02d5801f69903	-0.06319189117366268
62	0xbfc83aeaed86bdb2	-0.18929802511182242
63	0xbff25cc4bee396bc	-1.1476485687830253
64	0xbff9021fea979907	-1.5630187190777762
65	0xbfe725b45cfef2de	-0.7233526054693262
66	0x3fec3762e9f29b86	0.8817610329905257
67	0xbffa08a8f98282cb	-1.6271142717816243
68	0xbff3d5be623c3bc8	-1.2396835172000795
69	0xbff0d5be6bb2f72a	-1.0521835524554697
70	0xbff0eb2ae020d681	-1.0574139361391703
71	0x3fef71e009895565	0.9826507745989771
72	0xbfc19ec32a07b50d	-0.13765754272700584
73	0xbfb0592638a36d4d	-0.06386031039021596
74	0x3fee03fb508c99c8	0.9379860470988257
75	0xbffb9877cae3a0ce	-1.724723618064718
76	0xc00e1a419f9f176e	-3.7628204794336204
77	0xbfba4c8f4b348283	-0.10273070894300855
78	0xbfeff7c824fbada8	-0.998996803505567
79	0xbff42649882c58da	-1.2593474692599131
80	0x3ff80638a9ff1d9a	1.5015188827982002
81	0x3ff00cbcc9e4e196	1.0031097303854941
82	0xbff03ae309afca89	-1.0143766764055349
83	0xbf780dbc0db7fb8a	-0.005872473320322489
84	0xbff781becfe35aaa	-1.4691761131886474
85	0x3fb759eeb898237d	0.09121601111122675
86	0x3fb178ec01d3c6a7	0.06825137180910677
87	0x3fadcc1b3b99a3e8	0.058197833085450956
88	0xbfee0bfd8dcb6883	-0.9389636773514812
89	0xbff9e8d688b567f0	-1.6193452205829963
90	0x3f912afb78582450	0.01676552698157635
91	0x3fe73a86fec54bd7	0.7258944488515863
92	0xbff12e94db57eb49	-1.0738724296667945
93	0xbfdc35f658fe6457	-0.4407935971335681
94	0x3fc0c5d3fcfa5606	0.1310372338527232
95	0xbfde88f33be45467	-0.4771087727434122
96	0xbff152f54c2a923a	-1.0827534651990747
97	0xbfafea1c1e1b81c9	-0.062332991290307734
98	0xbfb7cbfce82338a2	-0.09295635859891374
99	0x3fddbc7d9f33720a	0.46462955996483457
100	0xbfa38cf47a0e0ca0	-0.03818477621009575
101	0x3ff36afb5f63e8d6	1.2136186338598711
102	0xbff1c9519808a9de	-1.1116500796148254
103	0xbff46ff02d775112	-1.2773286605852872
104	0xbf8246d20d8077e0	-0.008924141919177175
105	0xbfd81d448d30d4ec	-0.3767863634887607
106	0x3fa8fa21bd95c403	0.04878335418005266
107	0x3fc9e25ff5c93892	0.20222091199179154
108	0x3fe10b9124b29342	0.5326619831799706
109	0x3fd551b5c0335f89	0.33311218041989626
110	0xbf9b0d8d3843f3a5	-0.026418882903260905
111	0x3fc7f0311e275171	0.18701757404654587
112	0x3f7f05608f62085f	0.007573487460947075
113	0xbfcefafcfbda2b03	-0.24203455255004522
114	0xbff2ad94236ad7f6	-1.1673776038637675
115	0x3fce4eb191eaf635	0.23677653908628007
116	0xbff03607d5b789a9	-1.013191065627874
117	0x3f84f88c53b7cc27	0.01023969297873435
118	0x3f628f02baef9a42	0.002265458424051376
119	0x3fe17a87fa628163	0.546207417519366
120	0x3fe07b4ce9c5241f	0.5150513234922335
121	0x3fdf969acaba171e	0.4935671787028343
122	0xbfe7ddd4ad746185	-0.7458289516244326
123	0xbfdb7ff65dd07282	-0.42968520318553527
124	0xbfd5523604a5dab8	-0.33314276174443647
125	0xbfdd5843e63eb350	-0.45851228222709484
126	0xbfeb1b30b566050d	-0.847069124502157
127	0x3fd967ffa159265e	0.39697256809868076
