COLA_Emulators/PCE/wCDM_PNN_HIGH/MODEL_Z0.000_pri.pth (torch, 192382 bytes, 10 tensors)

layer1.weight f8 [128, 25]
00000000: a46e d570 3c16 aa3f abd2 964d befa 9c3f
00000010: 66c6 fb7d e97c c0bf 2bb6 8570 86fc c5bf
00000020: 9364 b1ab b44a 7b3f 64d9 b87a 3dde d0bf
00000030: 5186 6749 dbe1 b83f 36f3 d78e 3667 c0bf
00000040: 2de3 2e79 5711 a2bf e021 c819 2e6c bbbf
00000050: c670 5ecd eb58 c6bf f5eb fc1b 01ef 68bf
00000060: 1010 7128 52ca ccbf 34da ccb8 57e6 a1bf
00000070: 5afe b99c 9aef c6bf 67fd 1460 0029 d23f
00000080: 5d98 b69f 252f b1bf b2f5 6cdd 6867 be3f
00000090: 8cce 02a7 c6a0 c23f 7114 c33f c1b5 8b3f
000000a0: 59bd 1af4 c67e a53f 8f3c 7b3d 25f5 c5bf
000000b0: 218a ee8a 747b a2bf aca0 27b2 4a4e c2bf
000000c0: 55ed 59c0 a81e 86bf 65ed 2d12 d969 a4bf
000000d0: 5ae0 7257 d943 c43f aa45 73fd ae72 d33f
000000e0: a987 9ab0 cb5e adbf 4d42 6360 7ea5 cabf
000000f0: b019 9c20 b4ce c1bf 908c 66d7 b40c c13f
00000100: 6be2 b81c 0c78 c2bf 9f82 bed1 6504 c5bf
00000110: caeb e7f7 2030 cdbf b6aa 882e cc95 d0bf
00000120: 63d4 9f86 ec6a d63f 8641 e701 cd01 d1bf
00000130: e8ba 176d 6d50 c1bf b851 f6a8 0d5f 97bf
00000140: 2097 132d a812 c53f a160 e8eb 790e bebf
00000150: 0386 a65b a37c 9c3f 8f79 eaa0 8e7c c5bf
00000160: 9fa6 a0bb be3a c83f e9f6 f1db 9b42 87bf
00000170: 7633 586d 5b4d b7bf 06d0 6790 0117 a1bf
00000180: c559 23b6 d7af abbf c425 7447 a507 bd3f
00000190: b332 ad5a f586 8f3f a9c4 b4a6 74f2 943f
000001a0: beee 914e 362f 913f 213c f28e b7a4 c73f
000001b0: 097c 3abc 1097 d2bf 4f12 3ab9 cfed 9c3f
000001c0: fc50 e2c4 3e81 cfbf 4b34 a67d 96a5 62bf
000001d0: 7794 4ec3 fe89 bb3f c307 d987 f7d3 db3f
000001e0: 377a 760c b03c a5bf c3e0 6fd9 4e63 d63f
000001f0: 7b2a 121c efa4 b13f 4e87 6496 fa94 c33f
00000200: fed1 f1fc 9b4e cf3f 50e0 79d2 5b85 cdbf
00000210: 6cae 1958 e043 c83f 54bd 62f8 a8d0 70bf
00000220: e82a ee30 b1af c0bf 486f f927 6dd7 c23f
00000230: 2add 1600 a74a d13f cf5a 57b8 7898 b6bf
00000240: 7640 d4ef 9aaf ad3f fed3 d8e2 56f5 aabf
00000250: 3588 8a91 0455 cbbf 0982 0e14 9a39 a33f
00000260: 6408 e323 c502 cdbf 62ec f152 341d c1bf
00000270: 3774 6aa7 9e62 b13f 4bf5 82ac 336b c33f
00000280: ea69 efd7 d948 cb3f ee63 7d98 a9d7 a3bf
00000290: 5072 3aab 3b9a be3f 8060 bb61 1168 66bf
000002a0: 508f 9670 dca9 b73f 5d1b 8c05 fa8e 9abf
000002b0: 4f95 39b2 8cdd 9e3f 9da9 5175 f7ed c83f
000002c0: 6182 1c09 717f c03f 31e7 a293 81f3 c33f
000002d0: 561a fb76 c798 ba3f e73f b48f f95f a8bf
000002e0: 7f42 168d 5d74 c2bf 2c72 0959 a4cb b8bf
000002f0: cc66 e0ba 7195 c4bf b3c8 3b55 b043 b13f
00000300: 69d6 16f3 8564 b2bf 5c74 09fd 02f4 ae3f
00000310: edad e4ba 176e c2bf f282 b2be 283a bfbf
00000320: 4e52 3c8e 6dab c33f 1eef 8c54 d54b a5bf
00000330: 5339 07d9 e3c4 99bf efcb 7264 0436 bf3f
00000340: 00fb cbad e717 c3bf 9eac 98bf aead d0bf
00000350: 8d17 ec5e d8bd c63f 3a78 96f3 e589 b73f
00000360: 4d9e 0089 f9e9 97bf 678a c169 1262 c73f
00000370: cc4f a4a7 77ba c63f 3231 56ee fc74 523f
00000380: bb9c 23bd edcb c43f eab9 6077 acad a13f
00000390: 3d98 4902 6ce1 c43f f376 88d3 fe60 b3bf
000003a0: 52b3 edb4 e8b2 bbbf 6cdc acea b5f4 b9bf
000003b0: 8331 8f3e dc70 b73f c667 e13b a1fa b93f
000003c0: bf38 e81c 1ac9 91bf d821 f537 d972 acbf
000003d0: 179f 0ba6 583a d2bf c08c c55d 9b75 c8bf
000003e0: 1383 6fe4 7fc7 b23f de05 028a 8224 aebf
000003f0: 6b91 40f2 65bb a4bf b244 28b4 c167 c63f
00000400: 28fc 4931 8482 9a3f 7bb6 b343 9c05 b03f
00000410: 57d7 2867 3b30 c8bf 1258 87f2 1623 a5bf
00000420: 2318 41e4 9229 c0bf ea61 89d9 d6eb cebf
00000430: bb50 5afe f931 c6bf 0595 906f c7f2 c1bf
00000440: 56ce fc6e 603a b83f 2f7d a43f 91b7 b13f
00000450: cf41 50b1 dc2d b43f 1494 1c51 edaf c5bf
00000460: 28e7 1af3 0d85 c4bf 2629 1224 6a9b a3bf
00000470: 4a69 5a91 326c babf 9aaf f8f9 409e a63f
00000480: 6cff c8a1 fcdd c8bf 3c51 59e1 4e02 a9bf
00000490: 3bef 33b3 c941 a53f 6600 140a c034 b9bf
000004a0: 3d38 3be4 e332 c9bf 9151 228f 5d82 b5bf
000004b0: fd27 2ff7 4d98 73bf 0038 b30d d6f2 a9bf
000004c0: 7c7f f031 3385 afbf 8523 3730 510c b43f
000004d0: 624f 5af3 b85a babf 0c52 a758 4c9c 853f
000004e0: b50f 2c3d 54aa c33f 3b30 ae6b 6313 c33f
000004f0: 273a 85f4 bad6 a9bf db58 45ef c2f6 c1bf
00000500: e14c c3ec 215d 9a3f 6f43 5ab6 eb31 bfbf
00000510: 4a31 b7db 4832 8c3f f1a4 c47f a1d6 c4bf
00000520: 1ab9 abc5 56cb 9b3f 202f 9b9a 9b40 a33f
00000530: 0c4d c678 7ef4 c33f 4de0 29c4 452d c43f
00000540: ce9d 8a6a 036f 86bf 27ad 6cb2 b8f7 9cbf
00000550: 5548 27a3 a8a6 93bf 1b18 c9ee ed98 c73f
00000560: 603a 24ce fd33 763f 626e dd25 0d00 c03f
00000570: 3b74 6f5c 1a4d b1bf 387f b386 5c99 933f
00000580: d617 d4e6 09aa c1bf 041c ec73 9ea5 cc3f
00000590: 2f28 55e2 edd0 c93f 2fe5 63d6 04da c03f
000005a0: 0734 ad90 5511 bcbf 5d09 43cd 53fe b93f
000005b0: 6869 9ad2 2e44 bdbf 944c 747d c1da c63f
000005c0: c78d acbe a311 88bf b9e2 9989 6f13 a33f
000005d0: b297 c385 b273 bcbf 2d00 695e cc2e c23f
000005e0: ec58 610f 2275 c13f 784e ea96 5789 c73f
000005f0: 0bce 5234 f96b 973f 262a a7e6 21d2 9a3f
00000600: f3ee a57f 67a7 cb3f 99a2 f43c 7d76 a13f
00000610: 9c96 59b0 9e4c ab3f b529 cc11 d6ab 93bf
00000620: f67d 69d1 8dee a6bf 3c86 0ffe 2f7a b5bf
00000630: f4b7 d9dd d1ed a1bf 1242 c2de 3da6 97bf
00000640: 89cf 0eaf f473 8e3f be4f 5269 a11f acbf
00000650: bf4e 4893 66a9 c83f 79ad 9215 d0de 9e3f
00000660: 0350 5c4a 46a6 1bbf 9dce 3763 784b d13f
00000670: ca9d d7e3 6d9f c0bf 2bdd ff36 a092 c03f
00000680: fed7 5494 6332 cf3f 5a5c b28a a6f1 c33f
00000690: 6315 dedb b824 9ebf a6a0 f2aa e82a bf3f
000006a0: c3bb 7fe1 8827 d7bf 7bad 9204 1bba b93f
000006b0: b54f efe7 8567 9c3f ad51 809f e416 c73f
000006c0: 36b1 2388 278e cdbf 9e2b dd7d 1d24 a03f
000006d0: c9c6 1d54 a69e 9e3f 2176 6f1c cfaf c83f
000006e0: 278f a7b8 dfe3 c83f 3bbb f5a1 add5 9e3f
000006f0: 819e 3670 cc39 d1bf d99f 005b 0a24 95bf
00000700: 3be4 2c8e 3ac0 b93f 0407 a318 4cb4 b7bf
00000710: 71de f094 8b68 c63f 90b1 9f04 4cb6 ae3f
00000720: fedb 3f70 5b1f d1bf 2c67 0c45 a0da d1bf
00000730: 9619 7333 2e99 87bf 2703 679b a44d cbbf
00000740: efc0 2900 a8c9 b4bf c5a4 5db2 07dd 943f
00000750: dcc4 08bb 3997 6c3f 8954 29af d0dd b2bf
00000760: 0639 d137 d934 aabf 8d8a d3e0 77e6 c03f
00000770: 3e47 ec4f e28d c4bf 117f 9abf de66 b03f
00000780: 0b5a 3e41 4aec be3f 832f ed47 3965 b1bf
00000790: 1f69 9267 d6d3 bd3f d315 7d8d 6775 9abf
000007a0: 5117 e290 dadb c7bf 5d25 c079 2b5f c23f
000007b0: 65ea ea26 bf54 c6bf e297 6ed0 3cd1 c8bf
000007c0: b3f1 95fe 8818 c03f 283b 988d ca36 be3f
000007d0: 4518 acc6 c352 c03f 29d1 394c 84c9 a23f
000007e0: 5be0 dcd8 f5a7 d6bf 30c3 3e42 9f39 c2bf
000007f0: 55c1 e62c c999 c73f fa03 ebbc 3f48 c93f
0.05095089795460453 0.028300260053316133 -0.1288120141176023 -0.17176895612958396 0.006663041825128907 -0.2635644625146567 0.09719629804706044 -0.12814981436522438
-0.035288556616654844 -0.10711944703519505 -0.17458865669039464 -0.003043653647095019 -0.2249243447751046 -0.03496050005781051 -0.17918713238394696 0.2837525308895778
-0.06712565564393587 0.1187654057111647 0.14553149370987162 0.013530263670313599 0.04198285798826857 -0.1715437460138429 -0.03609813877053037 -0.14301427554096813
-0.010800665254683631 -0.0398700556461005 0.15832058687169842 0.3038747286892326 -0.05736385851675092 -0.20817546564514303 -0.1391205939509752 0.1332002689133316
-0.1442885532612935 -0.16419670812048978 -0.22803127388746552 -0.2591429190094162 0.3502761187258498 -0.26573491273759264 -0.13526695086280616 -0.022823537290223433
0.16463186455728707 -0.11740839013544015 0.027819206684972297 -0.16786368233892943 0.1892927566671476 -0.011357515001005196 -0.09102412623924558 -0.03337864768755598
-0.0540759477459463 0.1133979129264367 0.0153941314980782 0.02045614497655338 0.016781662507567623 0.18471426467701327 -0.29047029859242507 0.028250928573941455
-0.2461317502353565 -0.0022762240670944115 0.107574389154779 0.43481243387588736 -0.04147863533147638 0.3498112796219283 0.06892294345213117 0.15298397391694113
0.2445864663201433 -0.230632283946536 0.18957142164014174 -0.004105243721070313 -0.13036169900109162 0.1471992917239453 0.2701814175483884 -0.08826403141516014
0.057980386520399316 -0.052653041068346326 -0.2135320387506582 0.03754884238083284 -0.22664703609740677 -0.13370374727296325 0.06791106784153632 0.15170904086509504
0.21316073459350032 -0.03875474916885212 0.11954091005686363 -0.002735170315514124 0.09243562458737853 -0.025936037624912135 0.03014201963232682 0.19476216534105797
0.12888920731440393 0.15586871823125528 0.10389372496420299 -0.047607229988102344 -0.14417619122515998 -0.09685733007194902 -0.16081067681152772 0.0674390991296459
-0.07184636292262216 0.06045541132764562 -0.1439847624363745 -0.12198118835159358 0.153669065905563 -0.04159418732748875 -0.02516513836035845 0.12191798641542538
-0.14916702257320225 -0.26060074530205124 0.1776686156737778 0.09194791027991381 -0.023353480326618038 0.18268041766994544 0.17756553350102278 0.0011265249280284048
0.1624734090357601 0.034528150150766226 0.163129330746587 -0.07569878258115263 -0.10819868485641607 -0.10139023761154115 0.09156586196258414 0.1014805575554468
-0.017368705763197264 -0.05556372459483655 -0.2848111745392869 -0.1910890777463461 0.07335662200013031 -0.05887229857126973 -0.040492235013774934 0.1750414018320377
0.02588850546680646 0.06258560803299844 -0.18897192513548575 -0.0412833376937415 -0.12626873154857873 -0.24157224294573548 -0.1734001628834728 -0.14022152850626682
0.09464075765281996 0.06920726588986235 0.07882479981368039 -0.16943136654404667 -0.16031050081601816 -0.03829509439772698 -0.10321346329366068 0.04417613078507472
-0.19427450084367182 -0.04884573460427297 0.04151754677329086 -0.09846115346954462 -0.1968655456934715 -0.08402046913608376 -0.004783920815450313 -0.0506808177684519
-0.061563110204814614 0.0783129446709961 -0.10294681493024663 0.010552021461003334 0.15363553034705793 0.14902918584664512 -0.050466387127574834 -0.14034306224011214
0.025745897365436646 -0.12185548021285596 0.013767785268009054 -0.16280001391104507 0.027142864050739048 0.037602293608499204 0.15589886567304523 0.15763160780238863
-0.01095392865074887 -0.028288732423942833 -0.019190440137954862 0.18435453566979806 0.005420676638336092 0.12500156735301277 -0.06758274800036272 0.019139714929109902
-0.13800166865274716 0.22380428943890263 0.2016885142459741 0.13165340870163209 -0.10963949949400852 0.10153697739864272 -0.1143216385047815 0.1785508978433411
-0.011752394920739996 0.03725765757275696 -0.11114040151332352 0.1420531712519745 0.13638711691846284 0.1838788496867101 0.022872823542185155 0.026192216589871496
0.2160462735445133 0.03410712594115246 0.05331893828114895 -0.019210190616868867 -0.04478877240466865 -0.08389568283703225 -0.035017546016078344 -0.023095099183196473
0.014869605629293197 -0.054928821665412894 0.19266969863439518 0.03014683849020858 -0.00010547451037395965 0.27023133935220206 -0.12986539483175213 0.12947466550370143
0.24372524969811588 0.1558120896558844 -0.02943695871319586 0.12174848722009077 -0.36178800603277866 0.10049599515575906 0.02773865917318093 0.18038614071032325
-0.23090070865090134 0.031525537122966116 0.02990207565694084 0.19286526573607524 0.19445415989241008 0.030111992845770912 -0.2691527458032184 -0.020645295910213555
0.10058942767217698 -0.09259486772046094 0.17506546757225608 0.059984565319470495 -0.26753889047489554 -0.2789688753415358 -0.011522637314908473 -0.21330697620398917
-0.08120203021985949 0.02037441278608722 0.0034900786925154813 -0.07369713093187803 -0.05118445211756932 0.13203333356712613 -0.16057995703209288 0.06406967332668169
0.12079300015316378 -0.06795080190675944 0.11651363400088542 -0.025838487635402373 -0.18639690470097972 0.1435293526158529 -0.1744612636592421 -0.19388542344421383
0.12574875288909268 0.11802354771519374 0.1275257797316859 0.03669370108119303 -0.3540014856148496 -0.14238348707797277 0.18438067142916262 0.19751736378205448

layer1.bias f8 [128]
00000000: 6119 d430 6dad ccbf ba3e 7b41 6df8 c8bf
00000010: e88b 2eb7 95ff bfbf 0ae4 3091 30e7 c3bf
00000020: 7a77 f9e5 6848 8c3f 8e76 e272 cae4 c73f
00000030: 840a 14ca 6840 c2bf dd0a 72c6 4c13 a6bf
00000040: d0dc aefa 55e1 b13f fc14 5c78 3449 c63f
00000050: 9dbb 4c5f 4e0e cabf 3722 f223 1225 ac3f
00000060: c87d 32d4 32c2 d1bf e30b db0c b873 90bf
00000070: d529 76c0 3fb0 c0bf 63d7 ec90 8792 d23f
00000080: bfe7 01e4 8a6f af3f f8ef 461f 0257 d03f
00000090: 0044 4202 7c3c af3f 5ae7 9bdf e473 9fbf
000000a0: c588 036a c380 c3bf ab91 8dbf 346b c6bf
000000b0: 59c6 6b15 53ad 9dbf 0851 1a5f ddaa 5abf
000000c0: 382c 53dc ad74 93bf 8691 28c0 d6a6 d13f
000000d0: db7a ccf2 b0d7 c03f fbbc 9098 56c3 9cbf
000000e0: 0d64 5377 9625 c2bf e3c1 28d0 43e2 bc3f
000000f0: 9655 22cc 31ae a33f 8a7e 7ef4 283f 98bf
00000100: dfd6 c53a 5d2b a1bf e204 1cfa 5ebf bd3f
00000110: 96b5 4fe5 573b c7bf 1bcd a6c3 b038 c53f
00000120: 05df 5b2c db1d bfbf 6254 19d6 4003 86bf
00000130: 6a07 a87b 1a5b c03f cac7 9100 c752 7c3f
00000140: 22a5 ba9b a109 c7bf 301e 7b8c 64f3 c13f
00000150: d511 5f74 d90f a03f feb2 4860 fdaf b53f
00000160: c723 c2c6 b2c8 b2bf 27d5 f99f 343a c73f
00000170: 03d0 9e6a 4507 cabf 03f0 23e3 0259 c0bf
00000180: d17a be02 ebf9 abbf fcbe 4958 0821 ccbf
00000190: 1845 b96e a3e9 c0bf 3d44 8759 f734 c33f
000001a0: bfb2 4410 60be cb3f 4cb5 6048 a783 a7bf
000001b0: 626a 10f4 6d02 c6bf 9303 708b 06fb c73f
000001c0: f2ec 7d61 35d8 c5bf fd53 cee6 7e8c c5bf
000001d0: 2218 bebe 4a6b cb3f ff89 0fc0 80a5 92bf
000001e0: 8014 4fdb fe89 ccbf 3c74 cbae 122b 78bf
000001f0: ae88 797f 77ae a43f b104 b937 8490 a13f
00000200: 35b2 d527 e9fd c13f f104 4ef7 d39f c3bf
00000210: 4da4 a747 d379 cdbf 2e50 1ed2 188d debf
00000220: ee45 2023 37ca c2bf ff10 d07c bf56 b73f
00000230: f9c6 016d f6cb c1bf 722b 89e3 ce8a aabf
00000240: 107d ab55 e9d7 a2bf d93b 3b95 e838 ab3f
00000250: 6eb1 9070 67bc c6bf 7548 8eaf c61b 88bf
00000260: 7329 e0cd dff1 c73f 3dc0 07b7 0efd a03f
00000270: bbb3 312c 8708 413f ac05 3da6 4534 bd3f
00000280: ffa5 de4a 1819 9a3f b681 1c0f 21bc 94bf
00000290: e5ea d164 9392 b63f 48b2 04a5 31b2 cfbf
000002a0: 3a9c 8d65 6485 cb3f 05f7 91af aa4f 853f
000002b0: 3179 7982 b96a e03f d156 749b b1e8 c4bf
000002c0: 2283 aefa 1c37 c4bf e1f1 930f e8db c73f
000002d0: b402 c867 229e c33f ee4a 303e f64c b5bf
000002e0: 0461 d6e5 0461 c33f 525a ccd8 1423 b03f
000002f0: 7e47 a837 734f b9bf 4953 132b 7d08 cb3f
00000300: 898d ff52 175f b7bf dc8b ba52 19c8 bdbf
00000310: 4023 d9ce 61e4 a9bf 0359 15fe ad58 893f
00000320: e32e 77ff 3574 cd3f 1740 23cb fafa c13f
00000330: 6d95 e7f7 e1ec b63f c09b 8e13 2014 c83f
00000340: eb84 dcfe 0224 b5bf 1e8f a75b b97b c9bf
00000350: affa 490d e4d1 a7bf 6a29 b98f ebc3 51bf
00000360: e029 fb04 d9c5 c33f 009c 0eca 3e6a a43f
00000370: 126f a1a9 6050 a73f 556a e7a9 d87b b4bf
00000380: 42c8 e4a6 0b1c d03f cea9 37aa cff5 c23f
00000390: 20b4 6e3f 7a47 b93f cfef 4e93 7dff b73f
000003a0: f864 66bb 7814 d23f 8b11 1297 621c c13f
000003b0: 9cf6 8e6b 65b7 c33f e87e dbb7 a841 783f
000003c0: 861c fe8f 3b02 a83f 901f 49d0 299a b8bf
000003d0: 9df6 9d26 9486 a63f ea5c eee0 3706 c2bf
000003e0: 47b7 9619 20fc bf3f 815e e6dc 0d6e c3bf
000003f0: 6484 9cf3 6d38 c33f 6e0e 5554 ee4f 9e3f
-0.2240425575657339 -0.1950813836797261 -0.12499366495335062 -0.1554928502025919 0.013809985655082836 0.18666964158631 -0.14259061686614782 -0.04311599657468943
0.06984460230056588 0.17410903813303225 -0.20356158879573352 0.05497032822410513 -0.2774779388655273 -0.016066432747503866 -0.13037869355714685 0.2901934542927533
0.06139787705701804 0.2553105645599767 0.061008334422815835 -0.030715538166055857 -0.15236704517798763 -0.17514666894125006 -0.028981493170198245 -0.0016276513892182227
-0.018999783108295726 0.2758080364749492 0.13158237319381424 -0.028088906347133662 -0.14177208734943783 0.11282752830516744 0.03843837372657359 -0.023678436205612864
-0.03353396742288139 0.1162013397806905 -0.18149851509899112 0.16579255631732157 -0.12154931862812297 -0.010748392614156003 0.12778025663288456 0.006914880135001364
-0.17998142341574758 0.1402402578298605 0.031370921569336886 0.08471664047892699 -0.07337491371630654 0.18146379290889422 -0.2033468981368288 -0.12771640864218634
-0.054641098103493164 -0.21975807486477794 -0.13213007837706736 0.15005390044692204 0.21674729151108882 -0.04592631109731346 -0.17194914262002486 0.18734819229578345
-0.17066066036554833 -0.16835008878538807 0.2142117911682258 -0.018209468576865003 -0.22296128948633864 -0.005900452594429114 0.04039357596481473 0.03430569820603447
0.14056124157959152 -0.15331506324222446 -0.23028031348011027 -0.4773618747651679 -0.1467961236490249 0.09116741940676219 -0.13903694460491758 -0.05184027221237998
-0.03680352373862139 0.0531685526053633 -0.1776246356615831 -0.011771728737390167 0.18706891586800686 0.03318067535644829 0.000519815447103881 0.11407885845712568
0.025486354417500575 -0.02024890570385348 0.08817406855989025 -0.24762554700409312 0.21500830610895766 0.010405858500458285 0.5130279110269723 -0.16335125055836966
-0.15793192138974016 0.1863985134185802 0.1532633787865244 -0.0832055951907866 0.15139828894167107 0.06303530018735984 -0.09886856182882117 0.21119656184478178
-0.0912947251923041 -0.11633451719039506 -0.050570541858695695 0.012376174274930657 0.23010897611526734 0.14047179144699903 0.08955204298361759 0.18811417536673325
-0.08258074495508409 -0.19908825850790718 -0.04652321493357669 -0.0010843086628421158 0.15447533362596655 0.03987308708683912 0.04553510733305023 -0.0800147452168088
0.2517117624112225 0.1481265622272318 0.098746910559115 0.0937422260894316 0.28249948788432233 0.13367874504559682 0.15403430702092613 0.005921992354813922
0.04689203388903089 -0.09610234580133992 0.043995504106516516 -0.14081476672138332 0.12494087815022424 -0.15179608617903642 0.1501595916279569 0.029601787469131606

custom_layer.beta f8 [128]
00000000: 3740 f02a 9362 f4bf 4a27 fae8 ce87 d5bf
00000010: 84af d0ca 4a52 f83f dc96 2494 2de3 95bf
00000020: 34b7 d531 2652 eebf 5aa0 81b1 44bb e1bf
00000030: a8ea e509 6c5d c0bf 4d97 b92c 32c9 e43f
00000040: d2a3 01c8 ec33 e9bf 903c 1ea0 f8fc f5bf
00000050: 7db3 14f9 aa3d d13f 8869 b146 7af3 d23f
00000060: 2b44 cf3f 8b92 efbf c020 8235 3a03 01c0
00000070: f6f2 ca3a 0d2c e7bf 982a 52e2 5444 f73f
00000080: 44a7 044d a0e2 b03f 9ac8 5317 3d6b d9bf
00000090: ff6b 3d94 8bb9 debf 4f2e 1307 0a14 c6bf
000000a0: 83a7 6715 78fd a7bf 7588 ef08 6324 f0bf
000000b0: 888f 361e b7d5 e33f 0cac 8f95 b95d e0bf
000000c0: dfee b12f 1b24 f53f 6a14 0dea c90d 9dbf
000000d0: eb9e 31e9 7204 d1bf 6f62 0ea9 e57b d4bf
000000e0: 33c6 9bc1 3979 e43f 878b 3892 086a debf
000000f0: c7ce 8205 dca1 80bf 2c96 2258 28bc e33f
00000100: 7343 7370 47b7 d33f 4207 2244 4400 bebf
00000110: ad95 3c5a 3de1 b23f 3ffa 02bc 1f2c de3f
00000120: 18f8 7c3c d828 f1bf 82f9 6521 d1f9 d13f
00000130: adfe de8f 4db6 fdbf a308 2ade ddee f4bf
00000140: e28b 1b60 9a02 e73f 43f0 dee1 7d17 d4bf
00000150: 6783 dd2e dc74 ecbf 6363 fac6 cf47 e4bf
00000160: a793 354a 6171 00c0 2e3e db0f 46aa c43f
00000170: 69b8 24b0 3a3e d9bf 9db7 555f e88e d4bf
00000180: 0285 9ff7 8750 00c0 c999 6e58 a586 e93f
00000190: 06c8 8ced 1d23 ecbf 82aa 48fb ce59 e7bf
000001a0: b7a0 7d77 69b8 e53f a54b 4d2d 1692 f03f
000001b0: e5d3 af5c 6163 f7bf 5b67 fa93 7513 f2bf
000001c0: 347f 5e0f 245b d0bf 8d7a 6805 c810 d2bf
000001d0: 5208 6dc3 923c f7bf 0b67 ad82 4dc8 e73f
000001e0: 86a5 247b d585 fc3f d1e1 0356 7aac f83f
000001f0: 91ad b9ec 4942 eabf 0007 11f4 7a57 d73f
00000200: 367d 99f1 4190 ebbf b1ab 2b96 aeb1 e43f
00000210: 5d36 7cfb a2eb f0bf 4f05 c1ca 1a33 fe3f
00000220: 160d df28 ba5e d8bf 9cf4 29bd f548 c63f
00000230: eb50 cc2f f1b4 e63f 2cfd f43d 39cb 97bf
00000240: 6c7d 93f2 79f0 e23f 9125 ab32 851d eebf
00000250: 788a 8d3f 0444 d93f ee4c 5edf 3475 d8bf
00000260: c584 c3d4 6ce7 f43f 6fe7 c874 746b dabf
00000270: b97f 4130 ce27 983f 74aa d53e 9211 e7bf
00000280: 87c3 d5a1 284e e2bf 6bf1 5e6c bd5c e4bf
00000290: 2a07 e066 ba2f ea3f 3a98 2d9c 327e ea3f
000002a0: d53b a00e fcc4 e93f 30fb 5e4d 02e6 f83f
000002b0: 2ace 9fc8 48d6 fc3f a240 d9fe ef88 e9bf
000002c0: 5fba 0cc5 74e9 ecbf e1a7 112e 2e94 cdbf
000002d0: cf57 8826 9f50 d7bf 2242 e149 f9a5 9f3f
000002e0: 30f7 7088 7448 cb3f fcf3 1933 8018 e7bf
000002f0: 90ee 4e76 033b fb3f bc1e 52b9 3cd3 f8bf
00000300: eb46 e4fc a574 f8bf cfe8 bae7 d7f3 c53f
00000310: b64c e5c3 eb8f ddbf f6c9 2167 88ed f7bf
00000320: c514 6acf b075 f3bf 5c34 6bf4 df3f d93f
00000330: 6ec3 bdc3 e22a d63f e987 03d5 4998 d53f
00000340: e40e 0ca7 a038 c1bf 5c99 e1e0 d160 f3bf
00000350: ded6 74a1 5416 e63f e4ca 7ffa 3208 cdbf
00000360: 7456 f446 f3a8 e43f b91f e17f f1aa ee3f
00000370: 2230 7bb2 81aa e63f 3e4e badc 4e43 f2bf
00000380: 9e78 1ea7 5e2a bbbf 23d1 7d49 20f2 e4bf
00000390: ed12 042e 065b af3f ebbe f158 61ce d63f
000003a0: 2b08 dde4 c89f f2bf 8df9 11cc 4738 f03f
000003b0: 2a9f f2d3 c8ac d4bf 46c7 4f10 005f ee3f
000003c0: a1a4 f9c9 b370 eebf 3ab2 6c0f ea34 e0bf
000003d0: 306c 1077 bf81 e9bf e423 8d11 45ec ebbf
000003e0: d67f 03f4 2d84 d13f 7075 6b47 e31a e23f
000003f0: 752b 3220 6a5f c7bf 4529 f115 7059 d4bf
-1.274066131332814 -0.33641407729793527 1.5200908586948296 -0.021374427954603856 -0.94752797826161 -0.5541099039956052 -0.12785101397806398 0.6495600579771491
-0.7875884920477978 -1.3742605452169165 0.2693889076643286 0.29611069587340255 -0.9866386648446953 -2.126575868638696 -0.7241274021431241 1.4541825142538638
0.06595804100348085 -0.39717032697729737 -0.4800747821479376 -0.17248654694991436 -0.04685569058695107 -1.008883509545311 0.6198382940387868 -0.5114410325162466
1.3213149893844542 -0.02837291232141973 -0.2658965375216968 -0.3200620795192099 0.639798048154438 -0.4752217700899383 -0.008121222418004405 0.616718456400752
0.30806146604032064 -0.1171915689792771 0.07374938443225316 0.47144311295042834 -1.0724718439883016 0.28087261449390877 -1.8570075626338778 -1.3083170584000434
0.7190677525617242 -0.3139338212747626 -0.8892651477182029 -0.6337660681048017 -2.055361346969636 0.16144634031523836 -0.3944231720114489 -0.32122239408533365
-2.0393218370014674 0.7976862647236028 -0.8792867316863073 -0.7297129543197374 0.6787612279704466 1.0356656808478217 -1.4617627735690288 -1.1297508030315473
-0.25556279660121395 -0.28227425125252453 -1.4522884019684352 0.7432010223667204 1.782674294498379 1.5421088561980592 -0.8205918906727893 0.3647143729650537
-0.8613595694295444 0.6466896946925457 -1.0575284789696504 1.8874767227246882 -0.3807816886075711 0.17410155998723986 0.7095876630360441 -0.02323617401748128
0.5918550241293992 -0.9411035527820549 0.3947764034875614 -0.38215371907536066 1.3065002738078857 -0.41280852703822907 0.02358934564142576 -0.7208949305762204
-0.5720408593025333 -0.636320792829378 0.8183261880187491 0.8279049921372981 0.805295971456753 1.5561545393281442 1.8023155056843145 -0.7979660012733982
-0.9034980629565544 -0.23108460664235422 -0.36429575694034794 0.030906577238342454 0.21314865743800615 -0.721740817839986 1.7019075986308145 -1.5515715827076937
-1.5284786108572301 0.17150400938937202 -0.4619092381519282 -1.4954914120286253 -1.216233072483463 0.39452360981960566 0.3463675414596342 0.33741994669082814
-0.13454063564869678 -1.2111376556800542 0.6902259019322761 -0.22681271773725264 0.6456238160923946 0.958367109074053 0.7083137975655556 -1.1414326307466491
-0.10611526088766474 -0.6545564113025971 0.06124133407323549 0.3563464516255254 -1.1640099468209069 1.0137403460972536 -0.3230459279825363 0.9490967100702867
-0.9512576050593858 -0.5064592648755657 -0.7970883679839798 -0.8725915282058136 0.27369259671649837 0.5657822031895829 -0.18259932109898683 -0.3179588522222228

custom_layer.gamma f8 [128]
00000000: 793e 30ad 7dea f53f 3a09 fd17 75dc e83f
00000010: 66f0 ffc2 4daa f1bf 9653 5f9c e297 d9bf
00000020: f678 445a 273f f23f 5295 8c3f b7fe e9bf
00000030: 16c7 ff79 74f7 d0bf ae97 a63c f56b ecbf
00000040: 2758 2318 363f f23f 2e8b fd67 b18c c5bf
00000050: 09d7 c52b 7017 f43f f7b6 67d4 3765 f13f
00000060: fc96 f569 29e3 96bf 0282 1787 118e efbf
00000070: e67f 3972 834e 00c0 fbde ca76 9bd6 00c0
00000080: 1f44 af7e 38bf b7bf 867d bdc1 dbee e13f
00000090: 7327 5b0f 59ba ebbf ab58 da84 d610 0140
000000a0: 43cf 04fa 8310 b1bf 004c 6faa 1316 e1bf
000000b0: dfe2 34f5 90ed dbbf 0962 d9af 409e e83f
000000c0: 524b 3fb8 5ea5 f03f 1b34 7c49 fdc1 08c0
000000d0: 8c46 72b1 a327 f5bf 0eaf de5f f79d e43f
000000e0: 6100 0fe3 d18e febf 0cd5 ec77 bb19 f33f
000000f0: f85c 8f98 1e51 ef3f 7549 3c7e f531 e0bf
00000100: de9c c85a f7c1 fd3f 853e 3600 7642 f7bf
00000110: 848a c405 a1b1 ea3f 4801 e8a1 e7bb d83f
00000120: f643 6c3e 227d f03f 171e 34b6 4d85 de3f
00000130: 2b04 1318 0a2c debf fad2 d3ac b95a bb3f
00000140: d02d 3421 9fad d5bf c12c 3361 9a40 e23f
00000150: e55a de4b b294 f03f e3a0 7df9 0bdb cf3f
00000160: 136a a3f3 25ba f13f 90e7 422f 5568 07c0
00000170: f4f2 5144 35f6 f43f 63ab 5d42 9477 f9bf
00000180: 7ada fac6 d193 f1bf ef56 05bb aa4e e33f
00000190: 6a60 6f83 464f d23f 9535 9eed 2c8f d1bf
000001a0: 19f0 7ac3 c43d f2bf cf34 98bc 6c60 e43f
000001b0: c77c 09b8 fbf3 c3bf 3658 5827 3cc0 e23f
000001c0: 23b4 8abc fef2 d4bf 9539 fc61 aabb eebf
000001d0: e57a 678a 7b61 dbbf e1d2 f505 b7ad cebf
000001e0: 897e 9ad2 7cfc f03f 6c3e fc33 57bc fa3f
000001f0: b519 2d08 2f25 f0bf 6fc9 4755 3f85 e5bf
00000200: cba3 afb0 b214 fc3f e39b f233 90e8 e8bf
00000210: 6699 8c0d 4133 f23f 5632 b2ac 762b fb3f
00000220: acfb e1ca 80b6 d23f 5db9 c6a6 c0e6 d93f
00000230: 08b9 dc23 962d b23f 8c35 835f 03ca d0bf
00000240: 2d35 cde8 a1ea d33f c324 7b18 ee98 e1bf
00000250: e0f9 fa7a fadc 7bbf ca70 46ec 0c1e f13f
00000260: d7a3 27c2 650b e53f 97d3 49fe 3bf7 dcbf
00000270: e363 0bd2 1576 00c0 7448 682a f99f d63f
00000280: d721 965f ad7b ea3f 130c dd33 5a99 ea3f
00000290: 1270 85ac 317a f03f 6ab4 1e70 fa44 0140
000002a0: 4999 0041 c2f1 d6bf b4a7 e0a5 7f13 f2bf
000002b0: 61e0 f6f9 3807 f3bf 3dc0 1b9e 0b0e c33f
000002c0: 40b2 8f9d 1076 ecbf 555b 5f85 41d0 efbf
000002d0: c50d 6742 acff c4bf 00b6 e668 3e9d cd3f
000002e0: cb91 1031 1361 ffbf c634 dcd3 91ed e03f
000002f0: 8a82 8c3a aa7b eebf 1493 42a1 a0cd c43f
00000300: 1d2b 4ef6 5780 cd3f 4ce3 2aa7 8816 fbbf
00000310: 27a8 5b95 497e d9bf 37d0 06b7 3c3f f8bf
00000320: 6f23 b6c1 27c2 d4bf c4f8 895a fa66 fdbf
00000330: 7c01 93a7 5451 d9bf 3b03 f64b a418 ef3f
00000340: 1cda f90b 047b e33f 52f6 26b0 9cef ad3f
00000350: 1f15 3a75 1c68 00c0 45a7 babb 516c dbbf
00000360: 4a7e db91 0796 e4bf c0d4 13f8 2f49 fcbf
00000370: 2ff9 79c6 121e f3bf ba0c 0cfb c80a f33f
00000380: cd7d 5e9b 8a93 de3f 7c93 78fc 8cae f83f
00000390: 4f3a 89d8 1d5b e33f 7d34 d39d 97b7 d5bf
000003a0: 599a c51a b307 c4bf e9b4 4267 06b4 e2bf
000003b0: b556 2ebb 79f4 eabf ae9f 23fe 4a99 dd3f
000003c0: 22aa abdb dc74 c3bf 30f0 195a fa00 f1bf
000003d0: b060 f904 3b95 f4bf 6f31 e364 e40f dbbf
000003e0: f90a 0524 3cb7 9a3f 01fd cbd4 bd72 dabf
000003f0: 6096 0e0f eedb e93f 64f2 8aba 39e3 cfbf
1.3697487607168155 0.7769113033794277 -1.1040780656030846 -0.3998953368257444 1.1404183889458728 -0.8123432389444736 -0.2651034537694711 -0.8881784615120887
1.140432447709381 -0.16835610940605633 1.255722208964871 1.0872114464831932 -0.02235092839455087 -0.9860923422348267 -2.038336651210545 -2.10478871161092
-0.09276154606710961 0.5604075225818839 -0.8664975452349907 2.133221662438776 -0.06665825704550081 -0.5339449242404726 -0.43637489267307034 0.7693179544976952
1.0403735348852092 -3.094721387961284 -1.3221775943278855 0.6442829964121033 -1.909868132541327 1.1937822994780758 0.978652284592413 -0.5060985055481938
1.8598550363765791 -1.4537258156086932 0.834183226838221 0.38646879969748626 1.0305502355952263 0.4768862037021519 -0.47143795348171363 0.10685310811443208
-0.33872202150879804 0.5703861139712886 1.0363028491607846 0.24887227708973744 1.1079463498232414 -2.9259437267582555 1.3101093930010252 -1.5916941254060581
-1.0985887310650058 0.603352895045388 0.28608858905273016 -0.27436373906024275 -1.1400802265116055 0.6367705996978205 -0.1558832787149866 0.5859661835154444
-0.3273312417248368 -0.9604083932661519 -0.42782486454045304 -0.23967635909107002 1.0616424776743847 1.6709816008259635 -1.009078056276491 -0.6725155511506226
1.7550532247353086 -0.7783890738108962 1.137513211180328 1.6981112237873695 0.2923891049649068 0.40470901762718886 0.07100809455434753 -0.26232990577121806
0.311195828767114 -0.5499182203431235 -0.0068025383367839865 1.0698365430353527 0.6576412956320564 -0.45258998711443027 -2.0576588067747124 0.35351399556487384
0.8275973193095137 0.8312197697599707 1.0298325289832104 2.1586807975168556 -0.35850578639874137 -1.1297604064552447 -1.1892633213265287 0.1488661310208971
-0.8894122197503478 -0.9941718678408998 -0.16405251734077644 0.23136119959001178 -1.9611999432173544 0.5290002000707765 -0.9525958198101574 0.16252525209451874
0.2304792359030551 -1.6930014162046119 -0.3983329733442837 -1.5154387616612561 -0.32435029904495755 -1.8376410996129815 -0.39558903088256847 0.9717580302823089
0.6087665780931419 0.058468719962075824 -2.050835529170072 -0.4284862836162698 -0.6433141564156781 -1.767868012478445 -1.1948421242701206 1.1901330763364926
0.4777552144314228 1.5426149236820654 0.6048726300449035 -0.339330581785198 -0.15648497397633568 -0.5844757096107546 -0.8423432021979439 0.4624812585666359
-0.15200386739827915 -1.0627387542326794 -1.286433238439752 -0.4228449807385663 0.026089610765903413 -0.4132532671064411 0.8080969137269669 -0.24912187202962166

layer2.weight f8 [128, 128]
00000000: d560 12be 4392 c0bf eced 6efc db2c c03f
00000010: b997 3161 2888 903f 8eba 0299 fdb1 a7bf
00000020: a92d 3466 a061 b1bf e768 8830 607b b2bf
00000030: d590 ca50 c005 983f de8e c21a 67ca a53f
00000040: f7a9 63a9 08ee a53f 095e 711d ea85 9bbf
00000050: a128 bbc8 4f5c be3f ea28 a928 e3ac b6bf
00000060: 9d05 ed19 e2b8 a5bf dfce d5ec 9075 a4bf
00000070: 6148 5060 0fc3 a23f f302 11d2 2bef a9bf
00000080: e076 8117 bf35 823f 787c f1b1 00c2 903f
00000090: e880 8bcf 8466 b33f 52a9 df1f e3be 973f
000000a0: 3a76 7385 b95f b13f c5aa 6c1e d876 ae3f
000000b0: f4d1 508e 0fb6 b8bf d3d9 ce67 c937 873f
000000c0: ff06 0343 fc32 8fbf c2c4 4b33 99d2 c1bf
000000d0: b1d5 1126 3daf 90bf f377 330e f16d aebf
000000e0: df7d 3493 fa4f 8f3f 1f3f 3283 a661 b53f
000000f0: f280 b599 b445 7e3f 9667 f576 531b 9fbf
00000100: 7e2f a1f5 1f77 bc3f e301 8626 ce8e 703f
00000110: 101c e7ff e1e2 b5bf 3748 eafa 6740 afbf
00000120: e26d 5fb0 6da7 8bbf 1ccf 6d9f 5baf abbf
00000130: 1284 d613 0e28 b33f 326a 8c27 d423 b6bf
00000140: 3d5c c466 203d a23f b4ac 96a0 baf1 bebf
00000150: 1acf f2e3 b953 bd3f 01ce 5ff7 6bf3 b93f
00000160: e32f dd58 3e88 9bbf 1c79 6df7 9ed8 b4bf
00000170: 0d12 714d e84f c63f 4634 803d 1303 b53f
00000180: d0a7 9dc8 9431 723f ac65 30ca abb8 abbf
00000190: 9dfc ad9a eb23 babf 3985 deb8 2992 963f
000001a0: 9959 b48b 900c bebf 1b74 20bd 6610 bc3f
000001b0: 0b6c 65dd bd78 90bf c962 d3ca bd76 ae3f
000001c0: f150 53c8 e7d6 b33f 5238 d534 5549 a0bf
000001d0: da6d 4fc6 46df b43f 8ad5 24f1 4299 7f3f
000001e0: f9c2 aaa9 2582 b63f 74e5 543d 51fb c7bf
000001f0: 27e4 2ad6 7afc a9bf 58ce 22e1 b094 943f
00000200: fa4c 6310 373a a43f a09e 0b85 bfdf 913f
00000210: 0b4c 06ef 5b63 a93f 670a b7d4 15d5 bf3f
00000220: 2968 e339 8b8d a8bf a27a a776 b29e 793f
00000230: 46e6 10b4 665e b03f ecd8 95a5 d1c7 a9bf
00000240: 5169 506d f5b6 b23f 3e5c b6da 0546 823f
00000250: 4b70 b980 23ed a5bf 16b0 e5b1 42e5 9b3f
00000260: 857e c077 d6f4 59bf cf97 5c2d dd7b 97bf
00000270: 5478 613f e1db 96bf 4093 27ca dbf7 913f
00000280: 58f3 71e3 75a0 b6bf d407 edd3 a0e8 913f
00000290: f923 65ab f145 ba3f 16c7 3038 1cc0 c1bf
000002a0: b3e6 67a4 79f9 b1bf b69c bd9d ea3c 73bf
000002b0: 2062 aa17 ac5d af3f 5c53 35f3 7c4e a63f
000002c0: 232f 0649 c854 a23f 3c63 1856 e0c5 a43f
000002d0: 044e f7ac c515 c23f 1a63 7b66 81e8 b3bf
000002e0: b01c 8ee5 2dfd b03f f796 0eaa c3df b2bf
000002f0: d965 ff90 ca25 9bbf 8196 9f4b 2f2d 93bf
00000300: ecf8 102f 16a7 bc3f 1cf8 7a3d 7759 a33f
00000310: 3a19 05e0 17e3 923f 5703 9821 8bde b3bf
00000320: d2af bba6 67f1 2fbf 5bf0 8afb f00c 783f
00000330: 9b15 1237 d013 b33f c9d6 1251 eb0d c1bf
00000340: d7bc 3583 5b6c b8bf 0ba9 bbb8 b343 76bf
00000350: b564 9ddd 127a b73f a4f9 4425 b31c b1bf
00000360: 41ce d32c bcbe a13f 9d94 8b4a 3e4e 903f
00000370: 1861 9773 40d7 b13f 8f20 49c3 a967 a33f
00000380: 175c 56fe 6270 c0bf 9110 2781 41b6 a4bf
00000390: 46a4 465a 9957 c0bf 239c d212 0405 85bf
000003a0: 97e5 c08c 4810 973f 65e5 0f95 32c9 9e3f
000003b0: 42eb 3d27 0fb3 b13f d7d3 06c5 411b babf
000003c0: a045 8ee8 7b99 9f3f 28ce fd26 da4c 8f3f
000003d0: 7661 ad7a f1ba babf ab08 9109 ebf9 b23f
000003e0: 984b 71e3 f6eb 743f 80e0 718b 39e7 9abf
000003f0: 76ea dab8 5be2 a43f fbe2 24a6 c3b2 72bf
00000400: 26b3 cdf4 5bb4 abbf 3eec 9726 49e8 babf
00000410: a855 200e cc05 b9bf 28cc 8188 eba7 9b3f
00000420: f672 0a1c 92f7 b23f 39a1 29ce fad8 b53f
00000430: 29a3 40f6 e25a 783f 7596 4133 ffac c23f
00000440: e2bb 9793 910c b33f cae8 b10c edd6 a9bf
00000450: 85f4 85cc cbb4 bcbf a3ed 0d94 71ad b73f
00000460: 0d3d e85d 8418 a8bf 4596 ee75 a2c6 8cbf
00000470: 780c 0a71 31a3 a4bf 2d73 2baa f02d 993f
00000480: 7470 28c5 24b9 2fbf 329f d510 fc6b 953f
00000490: 17d8 92d5 0cb1 c7bf 1507 3b4d 8e68 b63f
000004a0: 2970 9f4e 573f b1bf 1f18 7e27 9ad7 bdbf
000004b0: 1db4 a00d 0f9e a6bf d32d 801b b582 46bf
000004c0: ca61 c605 9b73 b53f 8844 9a21 dae5 a53f
000004d0: 03e8 f1b6 45cb 82bf 4b4d 46cd 141f afbf
000004e0: 4a41 46ec 6742 b0bf 9d09 3e00 52e4 863f
000004f0: b23a 07d8 c283 c93f 90ed e770 b584 9dbf
00000500: 16ab 1614 97be 90bf fcbd 7876 832b 95bf
00000510: bb42 0a0f 0026 a73f c857 c479 7366 bcbf
00000520: 5a43 ad3a 7aaa cd3f 40e5 46de d664 c7bf
00000530: 46f0 decc 0f5a bb3f bde4 f48a 1e51 bb3f
00000540: d39f 7220 f894 b4bf 5ef8 e642 1441 c2bf
00000550: 0911 a5ff b90f 96bf 2ae5 74ed 18ee acbf
00000560: bbbe d786 1cdf b93f 75d1 d2ab 13ad c03f
00000570: 456e 71bb 5dd1 bcbf 8ba5 c623 0da2 aabf
00000580: a086 43f7 fb29 a0bf f731 eeea 1c25 9abf
00000590: 3534 6b62 3854 a73f 8670 8835 c8c5 a23f
000005a0: 94c7 2da6 4ea1 b53f 067b 74df b662 b13f
000005b0: 7d11 87a1 05f4 bc3f 942c efce f00e a93f
000005c0: 994e 1cec 2791 74bf cf7a 8e2e 867d 7f3f
000005d0: fe78 81cd 032d a1bf 0121 a848 020e b93f
000005e0: 8eb4 b52f 09fe a3bf 9c52 a1a4 def6 b1bf
000005f0: dd68 666c 1d16 b53f a97b 0019 b1e4 b73f
00000600: 2f4e 07a7 d50c c33f ba3d af18 9994 aabf
00000610: 92f6 2f8b 555a b23f 1f14 0048 4581 a2bf
00000620: 2a90 de6e 9a10 a5bf a1c8 06eb c643 94bf
00000630: 7a2c 459a e2e0 8b3f 8101 3387 6a89 af3f
00000640: 0aed b9b2 a18a a53f 6558 e721 0962 b03f
00000650: 191e 3204 3f83 b23f 9755 822c 54d6 b9bf
00000660: fb93 a467 e95d a33f e60f 3175 bab1 b1bf
00000670: 2b13 8c0a 392c 89bf 9530 a5eb 66ec b93f
00000680: ae51 a01a d217 973f 9573 168d 6bfb aa3f
00000690: d88d daf5 c7f4 a5bf e44b b473 5d42 bcbf
000006a0: d1c5 b628 1dbd b4bf 9273 4c32 c271 a73f
000006b0: e21e 7390 4331 aabf 902a 7529 46b8 91bf
000006c0: 2943 db75 b9be b7bf dbab dfee 3af6 c2bf
000006d0: 99fd 5593 3cda a2bf c447 c044 db93 8dbf
000006e0: c42a 90ef 51d8 c03f cb7d 5429 a76c a3bf
000006f0: 2a59 9bcc 3b32 a13f 56c2 96cd 4aff b1bf
00000700: 9bec f020 58ec 94bf 8444 3594 408e b5bf
00000710: 97be 6c48 c18f c73f c62b 176c b375 9a3f
00000720: 7121 c0fb 3eea a5bf cdb6 4217 b4ca a7bf
00000730: 6248 ecb9 0f95 693f 89da 3b4b 1cbe b23f
00000740: 615e bf1b b60c 863f 5283 b776 79a5 8cbf
00000750: afe6 b130 bc6e b0bf 2b5c 49b6 bc8a bc3f
00000760: a5d5 7e4f 8cec bebf d61a c388 baf4 81bf
00000770: 207c f979 ac11 c3bf dd3f 7395 aeaa ae3f
00000780: d7a7 1467 d7ae b83f 27ea ce61 c888 c43f
00000790: d923 a388 2998 b53f f371 23bb 5751 87bf
000007a0: 5135 0796 ba08 7bbf c1f5 87e2 3a4b 8abf
000007b0: d508 f5b9 6c90 b4bf 367a 0ebb 5bff ae3f
000007c0: 15c6 7ca6 4615 9d3f fb21 fe84 3b58 56bf
000007d0: 9d9d d752 26b8 ad3f 2733 973c 7caa ad3f
000007e0: ea20 9368 233f 793f 8a16 48a1 7b84 9bbf
000007f0: 9560 d3c8 2517 933f 5eff 7447 8db8 93bf
-0.12946364193772433 0.1263689978203354 0.01614440053199193 -0.04627983563238046 -0.06789591307840816 -0.0721950644005208 0.023459439211948336 0.04255983544979157
0.042831679036527896 -0.026878030821846397 0.11859606409703584 -0.08857555144018972 -0.04242617193677776 -0.03995945826582469 0.03664444018080882 -0.05065285624778495
0.008891575722539569 0.016365061627194838 0.07578306262030632 0.023189114399351958 0.06786689289170847 0.05950045939819896 -0.09652802681450351 0.011336873512715428
-0.015233965678251858 -0.13923945431409918 -0.016293483208263463 -0.05943253801682138 0.01528926622137211 0.08352127745660852 0.007390695066846075 -0.030377678046853505
0.1111927008325306 0.004042439723321386 -0.08549320695520657 -0.06103825509957555 -0.01350293821808796 -0.05407224961427756 0.07482994064641016 -0.08648420300998153
0.03562260870437981 -0.12087599201793148 0.11455880942486055 0.10137057103548132 -0.026886915372685293 -0.08143037358010868 0.17431358128864397 0.08207817317470853
0.004441815553812803 -0.05414330332878178 -0.10211060072286889 0.022041942509195087 -0.11737922106508449 0.10962526433327506 -0.016085592878294402 0.05949967480564095
0.07749794617422247 -0.03180948514874217 0.08153192845877957 0.007714520923675203 0.08792338745366725 -0.1873570966215926 -0.05075439323758984 0.020098460904320298
0.0395066459183457 0.0174550938562833 0.04958617489605651 0.12434517329442372 -0.04795489389080416 0.006254860995311392 0.06394044777052796 -0.050352622473768566
0.07310422819901886 0.008922620522566867 -0.042824849570678745 0.027241747005447868 -0.0015842527782367344 -0.022933441060693668 -0.022323150151685248 0.01754706784585669
-0.08838593294963226 0.017488968787126982 0.1026297610707302 -0.1386752390258656 -0.07021293891730344 -0.004696766347343109 0.06126153744589069 0.043567566574586464
0.03580308810623325 0.04057217646567898 0.14128943391425264 -0.0777665019226216 0.06636320928929496 -0.07372687246114738 -0.0265113497733632 -0.018727053633389893
0.11192454003409907 0.037791944746899925 0.018444417045679652 -0.07761449403916508 -0.00024370565676379172 0.00587171682189699 0.07452107758043384 -0.13323728045150166
-0.09540340379111299 -0.0054356594443823 0.09170644674795166 -0.06684417400263115 0.03465831801613862 0.015923474597816612 0.06969073125890579 0.03790026196344442
-0.12842976969543038 -0.04045300199098379 -0.12767331035618862 -0.010263473343298973 0.022523053732788147 0.030064382885006142 0.06913847644856921 -0.10197840748044427
0.0308589325609937 0.015283302607463758 -0.10441502804804323 0.07412594779546804 0.005107845695493739 -0.026272677551304913 0.040789476695370405 -0.004565014127643203
-0.054110406525842245 -0.10510689918730606 -0.09774470658188383 0.027007751661994345 0.0740901297053361 0.0853420975996685 0.005946051187529369 0.14590444567436447
0.07441053250634824 -0.05046788005798104 -0.11213372939342221 0.09249029030427507 -0.04706205030753994 -0.01405074045562594 -0.040307564781891736 0.02458931006082137
-0.0002420289407191221 0.020919741179937286 -0.18509064129256167 0.08753289590370301 -0.0673727576208313 -0.11657107795881004 -0.04417464295725202 -0.0006869682611080847
0.08379525080670827 0.042769257165795216 -0.00917677368692083 -0.06078400617402709 -0.06351327436846535 0.01117767394294305 0.1993335299325359 -0.028826556221230926
-0.016352043725116415 -0.020673803430495838 0.04521179374308334 -0.11093827936960488 0.2317650591380936 -0.18276487210622783 0.10684298278550938 0.10670653240676393
-0.0803980902879851 -0.1426110579176933 -0.021544367054290556 -0.05650403879776385 0.10106066028651643 0.13028188600368265 -0.11256967378852163 -0.05201760350912384
-0.03157031434399227 -0.02553219970609352 0.045564424528130955 0.03666520741919137 0.08449260289287813 0.06791251140064611 0.11309848016305142 0.04894211317113065
-0.005021243998061608 0.00768806853093791 -0.03354656108489172 0.09787000917288326 -0.039047514985989115 -0.07017318267146283 0.08236869713292401 0.09333330974958066
0.14882918029489775 -0.051914963019608476 0.07169088981751262 -0.036142506636714915 -0.041142297777043105 -0.019789798827056008 0.013612528164818938 0.06159527683621758
0.04207330042569353 0.06399590566374654 0.07231515743671259 -0.10092664801262284 0.03782586469814216 -0.06911816941379775 -0.012291379579900749 0.10126345875795757
0.0225518063308116 0.05269943330060937 -0.04288315654892089 -0.1103876502495918 -0.08101064914696755 0.04578978408810665 -0.05115710390378837 -0.01730451229131319
-0.0927539742217617 -0.14813934959178607 -0.036821263299312075 -0.014442170177094378 0.13160156438273962 -0.03793833140866417 0.03358637688295325 -0.07030169982204745
-0.020432831774297538 -0.08420184725152252 0.18407455479017606 0.025839618179627676 -0.04280278037191721 -0.04646837982123273 0.0031228358415172222 0.07321335636866357
0.010766432496821911 -0.013987492499781293 -0.06418968380776378 0.11149196100574048 -0.12079693737799475 -0.00876756410469907 -0.14897685962475382 0.0598959500727003
0.09641786829584419 0.1604242780284306 0.08435306154127832 -0.011385617636215683 -0.006600121356723791 -0.012838802374058102 -0.0803287462231624 0.060541979393054765
0.028401473914703674 -0.0013638097043174857 0.05804557572610778 0.0579413246119656 0.006163729013856515 -0.026872569769713674 0.018642988569667358 -0.019258697019949415

layer2.bias f8 [128]
00000000: 4496 8bac 1790 a83f 584d 2f6c 1250 a2bf
00000010: dd56 06af 197e a53f 9ae9 13a6 0d16 813f
00000020: e310 799c 6618 a8bf 1626 55ce d522 9ebf
00000030: e3e3 9ef7 089d a93f d069 0794 0311 80bf
00000040: 0a89 49b1 70c1 bebf c632 6af3 1a93 85bf
00000050: d9bf 8397 47d6 973f e8cd c386 b8a4 bfbf
00000060: 328b 8e90 0db2 bebf 8820 4735 1396 a03f
00000070: 9695 14a5 3aca aabf fc7e 6413 8bec 643f
00000080: 899e 5e82 97b1 a43f e886 4fcb 356b 91bf
00000090: 354e 6331 3578 ba3f 0096 59df 39c1 b6bf
000000a0: a3a1 68bd e9fa c8bf 590d f803 7913 813f
000000b0: 567f e0a2 387d a13f a2c6 05c8 80ef b53f
000000c0: 4e3f 4771 b345 b1bf 7958 0b68 5003 c03f
000000d0: f391 9095 d784 b03f abf2 826b f1c0 cdbf
000000e0: 889a cfb6 4ed2 ab3f 6f1a 054d 1713 d43f
000000f0: 8f8f fc51 0ee3 7dbf ea61 da96 2a22 a53f
00000100: 0f05 eeef 7292 b8bf bdd0 babb b004 a5bf
00000110: f8ce f17e 9ff8 c2bf b989 12f1 f4b3 b6bf
00000120: 7b75 9242 f44a b4bf 973b acbf 1584 b03f
00000130: 401a dbf8 dc77 b2bf b2ee 54fd acf4 3ebf
00000140: 07e2 4474 cd66 c43f b7bd ad89 29e0 9e3f
00000150: 31a4 e20b 8700 b5bf c787 951c c42b b1bf
00000160: c64e b12f eee1 afbf 2c8f e882 363c a43f
00000170: 1170 d747 386b 9a3f ea0e c103 5974 a03f
00000180: c189 edb1 30a4 b6bf 2a2e eaff 9e2d a8bf
00000190: 060c da15 c49d bdbf 81da 2ea0 ee85 adbf
000001a0: d3dd 82d9 34d4 adbf 1c6f c86b 0e00 b2bf
000001b0: 2277 cf37 68a6 bf3f 3a4a d83e af8c b33f
000001c0: d1e9 7158 c6a9 973f 68f5 56ce 322a 8d3f
000001d0: 0ae8 b6bc 39e4 86bf fd08 6703 cd1a b6bf
000001e0: 12f5 78e6 82b8 92bf af0a a127 fef1 c23f
000001f0: 8298 7cba 651e a83f 012f 6dfd 04be b1bf
00000200: 54fb 1735 0422 513f 41db 1620 35d4 d9bf
00000210: 19ac 9e9f 90d3 b9bf 5969 7ecf b2a2 b6bf
00000220: 0bf4 ed0a 347e b13f 5b12 95c5 257c 79bf
00000230: 303a 202b 0f2e 9f3f 4079 20c7 2479 b73f
00000240: f632 b8f3 9fc0 a2bf cdd2 ff5f 1c60 833f
00000250: d337 1892 cb03 a1bf 0b54 827e 4f3e a43f
00000260: 5055 7aa6 4601 b23f b844 c46e acf7 86bf
00000270: 8625 b956 dd7b 823f 4c8a f28d a8e8 8abf
00000280: 6038 73f9 87e0 873f e725 684d deb0 a3bf
00000290: 69e2 ff1e 6411 7cbf 5ab9 a74c 3cfc 833f
000002a0: 3210 4e8b b26b a1bf 8dbe 6c60 5a3c 93bf
000002b0: 5f9d 63ff 99ae a1bf a405 e117 550b c9bf
000002c0: bea0 0abe 28fd 9bbf c207 d24f dbd9 a1bf
000002d0: 623e f0b4 cc06 b1bf d01d ac30 c3b2 b8bf
000002e0: e904 641a c057 a63f df75 1855 b289 a3bf
000002f0: afa8 033a d081 abbf 28ed 5dd3 d431 c83f
00000300: 75ca e379 323b a23f 127c 0cdc 87a5 b3bf
00000310: 55d4 692d 257a a43f 00e3 0331 7733 b3bf
00000320: 72ef 0c41 7960 ac3f 42dc 770f cb0e 82bf
00000330: 9a8b a162 475a 9b3f 4a69 db63 af1d c9bf
00000340: 7462 0b06 4b7d 9abf 9d9a 573f ee8b aabf
00000350: de57 3c1a ef7d a9bf d96b f028 28f9 8bbf
00000360: 3c3c 9d35 3d89 a03f be8d 45a3 9863 d23f
00000370: 1bf7 527d e803 8dbf 87b5 8c90 28e1 af3f
00000380: 48d7 421b 96c4 793f a959 8408 36ee b6bf
00000390: 5b15 6370 9362 adbf b4bb bd57 9126 a53f
000003a0: 4c52 af71 7cb5 9c3f d618 1251 356a 91bf
000003b0: d186 1122 c004 b3bf 1c11 dc56 c925 903f
000003c0: 68c9 1cc1 e171 703f 4141 83d9 b3a2 87bf
000003d0: a4f6 4bef 914f a63f 1e26 4080 dbbc b4bf
000003e0: 0973 0cde 0e15 a83f 8a70 d512 adc5 a4bf
000003f0: 1337 e226 a28b b2bf 306c bcc0 c2a0 b53f
0.04797433835282708 -0.03576715059866825 0.041977694144561296 0.00834284461096928 -0.047061163521478176 -0.029429760664504277 0.05002620718682473 -0.007844951586709309
-0.12013916328718124 -0.010534487298423111 0.023278349516601658 -0.12360719003827791 -0.11990437297076253 0.03239498162616977 -0.05232413544789975 0.0025541988681111443
0.040417418159731495 -0.017010536703202656 0.10339672523269246 -0.08888589575652617 -0.19515725849602203 0.00833792250978742 0.0341584872078317 0.08568577655185064
-0.06746980205138906 0.12510113792695046 0.06452700997812837 -0.23245065450273236 0.05433889371470452 0.3136652233264731 -0.007296615541949949 0.04127629367320991
-0.09598463399563094 -0.04105140964148422 -0.14821237276520782 -0.08868342290455801 -0.07926870942397628 0.06451545648108802 -0.07214146686156031 -0.00047234748247480384
0.15938728501511454 0.03015198614906264 -0.08203929939431089 -0.06707406709531859 -0.06227058727440986 0.03952188823703148 0.02579963625417753 0.0321376626093562
-0.08844284385626279 -0.047223061313243456 -0.11568856748094455 -0.05766244607314253 -0.05825963168302519 -0.0703133595601994 0.12363292086180569 0.07636542591380016
0.023108576915982063 0.014240643426883096 -0.011177493163689451 -0.08634644826000577 -0.018281979863094718 0.1480100339413943 0.0471069135804081 -0.06930571734590886
0.0010457078063834295 -0.4035771191951661 -0.10088447472541907 -0.08842008176580886 0.06833195940812702 -0.006221911951176463 0.030449139601893715 0.0916922556066071
-0.036625860691946885 0.009460660628954365 -0.03323208006268854 0.039537891572003124 0.07033196987534507 -0.011214587335901846 0.009025315484126006 -0.013139073211566508
0.01165872793208339 -0.0384587735644109 -0.006852522943511554 0.009758444871263695 -0.034024791245457556 -0.018784916053105994 -0.03453522913496942 -0.19565833726850912
-0.027332913016522957 -0.034865239614205304 -0.0665100042099254 -0.0964776986912661 0.04363823244239901 -0.03815991677059193 -0.05372477253134044 0.1890207321228925
0.03560788858330436 -0.0767445480564535 0.039994394105555976 -0.07500405260715226 0.05542353552888714 -0.008817278298904555 0.026711573977432936 -0.19621841789087063
-0.025868580097127183 -0.051848836166574964 -0.0497889251256962 -0.013658822774280143 0.03229705123396129 0.2873288721513879 -0.014167610478007788 0.06226469769022019
0.006290994981261573 -0.08957231243070986 -0.05739269968902746 0.04130987354334739 0.028036064566395333 -0.017006714890634843 -0.07429123718022913 0.01576914398812433
0.004014856198227036 -0.011540799212895638 0.043575821362521056 -0.08100673562162128 0.047035660367532435 -0.04057064871696621 -0.07244313668544704 0.08448426442593937
