COLA_Emulators/PCE/wCDM_PNN_HIGH/MODEL_Z0.543.pth (torch, 192382 bytes, 10 tensors)

layer1.weight f8 [128, 25]
-0.006203472139297571 -0.07533342767468865 0.07468664379310296 0.0909278303426111 -0.28154073190451806 -0.2746571149240758 0.19787859587883277 -0.1820070836858874
0.14098021207842068 0.12363307556278348 0.03988693254126974 -0.11760807521233656 -0.09974818121993348 0.07113786837196727 0.2751154689206295 0.15973022025432698
-0.10525042429520023 -0.005802097578732331 -0.032531653930976394 0.04002908245721173 -0.10965438363804202 0.14935634157527158 -0.05193794756653153 0.00810914269389616
0.005824029786974076 -0.07774485945508326 0.1767580563361811 -0.18006427946728903 -0.7852151354806306 0.3292229269927829 0.010049777136193892 -0.213780294826943
0.2516370611443457 0.10332229292748395 -0.3945780396370643 -0.36987566752379886 -0.1593902615220678 -0.11124158828533263 0.2386492621598053 -0.20582543354678273
0.07429787487320808 -0.25230413560063736 0.07774779970645981 -0.08744964675967602 -0.12319799072865559 0.060959006151607514 -0.09579018016023225 0.029919033986966284
-0.0071838959557352965 0.17947639707962995 -0.011752959050018141 0.027525777360268344 -0.10066346989758879 -0.26223826889343205 0.05694821702248765 0.10842684550153614
-0.09711507973167938 -0.11441341513906765 0.1022329193752085 0.15166760471973656 -0.42247072313835926 0.016581990872013504 -0.3805273159625413 -0.19339296396181702
-0.1232658515817462 0.12345496841422655 -0.1990177478668058 -0.18161235509468 -0.2142455569267448 -0.07498092430324815 -0.09711657129408711 0.04822919525988967
0.1564759717039949 -0.036240061874364515 0.307755507148676 0.006174600740143383 0.04770514765487952 0.14881722418877058 0.4695010962445186 0.15192475359436208
0.023409527752126593 0.18960016837170574 -0.16886047924975864 0.15891818767681473 0.16945025005256945 0.16903698925391536 -0.14238268619566516 0.16580015880117077
0.0643026917228671 -0.06394945323147215 0.23588617563388448 -0.062166270719893134 -0.2906142122578581 -0.02555167747632318 0.042357023703018595 -0.15436870275512662
-0.10036142924016547 -0.32344649178344137 0.09862035026302662 0.05401050366570721 0.008313460815553108 0.207216343812249 -0.24169802221387238 0.1330294814124194
0.14925341901397263 -0.17210978476926717 0.21588418605715998 0.003841212412000812 -0.39382631605190815 0.07133426874844102 -0.13674219540479104 0.1644300681707258
-0.10436647582644826 0.011867783753575546 -0.07460077398458365 -0.032988761763754836 -0.1491132181347409 0.14497833133268107 -0.055871365180082094 0.14216909145991177
0.12244557833910126 -0.048731712762650335 -0.047874522148875484 0.009653870362337762 0.1352498928513613 -0.04564455733745321 0.05667976906557527 -0.06445191285502229
-0.4115085921458209 0.10956740500586516 -0.11765697226393639 -0.1462273544121997 0.29903874812912645 0.16478626848646719 -0.36667465372659175 -0.2909739729372984
0.03483725666214182 0.11724204747957037 0.020730369086715626 0.1613452516776364 -0.14607917611071033 0.10068394702304795 -0.28473092283199547 -0.13638960560028016
-0.10234451879119454 -0.2970349346045802 -0.05785063964431239 0.05625658995784943 0.013716208548384363 0.1467859388551214 -0.044710866903095475 0.04173359460873996
-0.11346561718704745 -0.5011388139856868 0.12380664607587716 0.3867658200563566 -0.14288468546294403 0.0446653531734364 0.07868214748712477 0.010517022090574896
-0.1079197585502826 -0.19719295145159874 -0.008148105880399374 -0.15572533414895925 0.05565389256466311 -0.03482611953711567 -0.035823396318588205 0.05209354795789401
0.1401340300363903 0.22984696116557493 -0.08005389797149512 -0.18959593492023213 0.1081346985811888 0.14361711900350585 0.23799222733866712 0.01895852401306695
-0.031584942063819885 -0.0025647291892986254 0.11027379743609761 -0.0500141809882692 0.2372811052242362 -0.34042030656462663 -0.07846933710936262 0.21182457885711992
-0.28728987735665784 -0.04688920613127558 0.13290330132068312 -0.01983821548612102 0.12807399202179245 0.14644629013254265 -0.3038847214784164 0.1348512874488701
0.22928737522769738 0.031188547215694414 0.0811655571149018 -0.13513158760495056 0.24483549653533074 0.1652330489335387 0.06656307014381796 0.13333415100434937
0.011443010201059001 0.13882765326697866 0.0353535289262696 0.14699331380721323 0.19022426743189352 -0.021329687810642418 -0.09184408796539514 0.2165450248869439
0.17373449593749848 -0.08721730074308974 0.11874559806717973 -0.07354714714761378 0.10869014979386545 -0.10218212953066731 0.2393617165988454 0.08265721511724057
0.07001550665066777 0.17698401864817875 0.27116342510811253 0.10055428770660449 -0.0999191276963701 -0.027221417591389803 -0.26246757243644797 0.09401042678687961
-0.13745294743139605 -0.0330194256621927 0.018379301537062985 -0.08742155115413759 0.013702477895294522 -0.2130995268375952 -0.06618466152717568 -0.1600861385290057
-0.009977053761964717 0.0035841262893638102 -0.15673256998233762 0.1825275131509831 0.048728034277339786 0.05795291514986023 -0.2114265349132373 -0.10213535791747531
0.005342935278792596 0.1037566170640477 -0.16642075402096493 -0.03705387824578739 0.15027172937269112 0.16875876878298127 0.07328985385687954 0.01103075437122495
-0.03157811526023033 0.14057516527807407 0.022499064285181208 -0.049940884197682105 -0.07890018473797396 0.09265458736245552 0.2583394164297372 -0.3078393583606613
00000000: cbdf 5bdf cf68 79bf e08a 2830 0d49 b3bf
00000010: b714 8af4 a91e b33f f024 9ed9 0b47 b73f
00000020: 5165 016b c304 d2bf 8d9b 8d6f fb93 d1bf
00000030: e261 f0f8 1554 c93f c91d 0914 024c c7bf
00000040: 6746 21bc a30b c23f 41fd 3ed0 6aa6 bf3f
00000050: d0e2 9a5d 0f6c a43f 8351 c814 901b bebf
00000060: 12d3 2cc8 1889 b9bf 332d 2a62 1736 b23f
00000070: d9d1 68e9 7d9b d13f 526d 1634 0a72 c43f
00000080: 26ee 3c1a b1f1 babf 2fea 94b5 f0c3 77bf
00000090: 67c9 6f2b fda7 a0bf 33d1 1520 b17e a43f
000000a0: 37a3 9647 4f12 bcbf 2d0c 42cd 1b1e c33f
000000b0: 7871 7054 9c97 aabf 77de 59b5 869b 803f
000000c0: 1eab 7417 f0da 773f c9ac ca4c 16e7 b3bf
000000d0: b35b a20b 02a0 c63f 1eb2 bea7 580c c7bf
000000e0: 23d5 e67d 7b20 e9bf e4c0 210a fd11 d53f
000000f0: ac6b 0e41 fa94 843f 7acd 6717 275d cbbf
00000100: a8e5 0455 d21a d03f 1f3f 126d 5473 ba3f
00000110: be80 fd3f c440 d9bf e874 e6fd 0aac d7bf
00000120: b4e2 446c e666 c4bf 63fe a327 547a bcbf
00000130: 386f 181c 0f8c ce3f ac5c e2e0 7c58 cabf
00000140: 7a23 be7e 2f05 b33f e637 c33e c025 d0bf
00000150: 8640 13a1 47e7 b33f e72a e19c 1963 b6bf
00000160: f2cb 1c4d e789 bfbf ecb8 a2d3 0436 af3f
00000170: eaee 108b b485 b8bf a4fa 0162 18a3 9e3f
00000180: e505 0163 dc6c 7dbf a532 ee23 15f9 c63f
00000190: 3329 0276 ef11 88bf f0c0 3ca6 b72f 9c3f
000001a0: a0ad 1cc7 14c5 b9bf 620b 2a05 83c8 d0bf
000001b0: 31ac 5a13 5128 ad3f c802 709b dcc1 bb3f
000001c0: f45f 65ab 88dc b8bf aff7 3e94 324a bdbf
000001d0: 2f87 4ac5 ef2b ba3f 6a24 1115 d869 c33f
000001e0: eb63 d9a4 c209 dbbf 3fd1 fd91 defa 903f
000001f0: 30cd 523e 8f5a d8bf 970a bfc3 19c1 c8bf
00000200: 31d7 41d1 598e bfbf 3129 deab be9a bf3f
00000210: 2fac 34df 6979 c9bf 3831 d7da 123f c7bf
00000220: 8226 28fe 656c cbbf 3cd0 b429 f331 b3bf
00000230: ef95 9bb1 a1dc b8bf 400e b540 7fb1 a83f
00000240: 9e0b 8a96 6707 c43f f85e 1cb1 0e8e a2bf
00000250: 6d84 9727 44b2 d33f 5497 eac3 894a 793f
00000260: 3d9f 0e22 cf6c a83f 5673 7c5b 710c c33f
00000270: 559b 7353 4e0c de3f 9c00 1234 4572 c33f
00000280: 27d5 70d0 aaf8 973f 2a7d 3c7d d144 c83f
00000290: 0378 fb5d 389d c5bf 8bdf 6761 6e57 c43f
000002a0: e92c 23b9 8bb0 c53f 9e76 540a 01a3 c53f
000002b0: bf0e 5d8a 9839 c2bf 4e7f dc89 f038 c53f
000002c0: 8296 fe25 2476 b03f cfeb 39ca fd5e b0bf
000002d0: ac88 f6a8 8431 ce3f 83fc 4fe7 41d4 afbf
000002e0: 909e 595a 6c99 d2bf 0b99 790c 382a 9abf
000002f0: bae7 1edf d1af a53f b9fa ed88 5ac2 c3bf
00000300: bac7 5d60 49b1 b9bf e3cf 0dea 58b3 d4bf
00000310: 288a 19eb 2e3f b93f 7af7 c4c5 43a7 ab3f
00000320: 1916 8ed2 a506 813f 0966 efad 1086 ca3f
00000330: ac4e 75f6 f5ef cebf b3fb 082c 1c07 c13f
00000340: dd97 bd6c bc1a c33f bfea 7384 b107 c6bf
00000350: 0467 6bcf 17a2 cb3f 9013 f835 9b77 6f3f
00000360: 93d0 ef4a 7334 d9bf 1dcf 5b6f f642 b23f
00000370: c497 9fac c480 c1bf 50db a262 0b0c c53f
00000380: c42e 79e8 c2b7 babf 3ae6 c7f8 224e 883f
00000390: 9823 854c 0919 b3bf 8b5c d229 e7e3 a0bf
000003a0: 951f a555 2416 c3bf 16ec d963 a68e c23f
000003b0: 5470 76ec 2b9b acbf e542 29c7 9832 c23f
000003c0: 5599 81ea 9758 bf3f c3f2 2ff1 5cf3 a8bf
000003d0: 06d1 e165 0283 a8bf b675 e38b 68c5 833f
000003e0: d2c3 4a55 de4f c13f b06f 0232 b95e a7bf
000003f0: 5284 f674 2105 ad3f a180 e0a9 eb7f b0bf
00000400: f283 5222 2856 dabf e930 3505 9c0c bc3f
00000410: cb1d 0570 c41e bebf 6091 7df4 93b7 c2bf
00000420: 66e3 dc6a 7323 d33f 2158 fd68 b717 c53f
00000430: 11c8 81f7 9877 d7bf 472f 704c 519f d2bf
00000440: 07af 175c 30d6 a13f b20d a427 9303 be3f
00000450: 56ba 0b85 573a 953f d100 a911 f6a6 c43f
00000460: 01d5 02f2 b8b2 c2bf 5839 b253 6cc6 b93f
00000470: e14a 6e0c 0839 d2bf 35a5 c8ef 3675 c1bf
00000480: c70e 2219 4033 babf dc5a 79d0 9e02 d3bf
00000490: c466 a65a 999e adbf 2f5d 1bec a9cd ac3f
000004a0: ea97 1f59 3e17 8c3f 899c 72b3 e1c9 c23f
000004b0: 14cc 3fbe 57e4 a6bf 1466 fa0f 1b5e a53f
000004c0: 64f0 092b 150c bdbf 5f64 1a44 5409 e0bf
000004d0: f45f ecd7 cab1 bf3f 3092 166d c5c0 d83f
000004e0: cacf 949d 0b4a c2bf 79d4 498e 60de a63f
000004f0: d87a 3c62 8324 b43f 3050 71cf f289 853f
00000500: 6ad0 9019 a1a0 bbbf 2340 be5e 9e3d c9bf
00000510: fcca 3e42 f4af 80bf b70a aac8 ceee c3bf
00000520: cdaf ebc0 aa7e ac3f 4fc0 eaa8 bad4 a1bf
00000530: 6e6e 3db7 7157 a2bf 519f 9f69 01ac aa3f
00000540: aa0f 0872 e9ef c13f a143 a50e a06b cd3f
00000550: d273 b489 697e b4bf b2ed f7f9 ad44 c8bf
00000560: ed11 f831 b7ae bb3f a905 a2b6 0b62 c23f
00000570: 3d96 8f80 8776 ce3f bb59 7702 dd69 933f
00000580: 3e9a 6bca e62b a0bf 0c5f b77f a002 65bf
00000590: 2c01 9851 e73a bc3f 3797 5c6f 759b a9bf
000005a0: 4dcb 722d 3a5f ce3f 2ab8 e540 72c9 d5bf
000005b0: 759e 9f04 9116 b4bf 2c14 575b 111d cb3f
000005c0: 1fff ed14 f562 d2bf e30b bdad dc01 a8bf
000005d0: 4af4 59b2 f902 c13f 8f43 e51a 7850 94bf
000005e0: 63d3 9983 ba64 c03f b5b1 5e85 c0be c23f
000005f0: 5c3f 20e7 d872 d3bf 584c b596 ce42 c13f
00000600: c88b fee8 4959 cd3f 1f63 34f9 e3ef 9f3f
00000610: 67c0 5e15 44c7 b43f b7bc b5ea fd4b c1bf
00000620: 0f74 4201 c556 cf3f 3fa7 b146 5b26 c53f
00000630: ec98 6301 470a b13f 2a76 00ed 1711 c13f
00000640: 0d97 a6d4 6e6f 873f ecf2 47c3 1ac5 c13f
00000650: 7ab2 1295 db19 a23f bf2d c449 add0 c23f
00000660: ea44 c3cf 4459 c83f 8d88 521e 73d7 95bf
00000670: 0a6f 241a 1883 b7bf 7b1e 0054 bfb7 cb3f
00000680: 798a 1e95 ee3c c63f 7743 567e df53 b6bf
00000690: 5514 3e8c 1c66 be3f c78d b65f fcd3 b2bf
000006a0: fd11 c31e 1ed3 bb3f d1e1 91a8 9b28 babf
000006b0: 536d 5a9c 67a3 ce3f f9fc b4f3 0529 b53f
000006c0: 7e09 4747 89ec b13f 3619 018e 69a7 c63f
000006d0: ec7b add6 bd5a d13f 1a25 2c01 edbd b93f
000006e0: d664 b3c9 4c94 b9bf f21d 3969 eedf 9bbf
000006f0: e700 f8c9 44cc d0bf c55b 883c 1111 b83f
00000700: 9d73 fae4 0e98 c1bf db21 b412 ece7 a0bf
00000710: b69b 190c 06d2 923f 4d30 2c3f 4261 b6bf
00000720: 6fc2 7973 0b10 8c3f f6bf 4765 d846 cbbf
00000730: 6d8c c15c 7af1 b0bf 5d33 c3dc b37d c4bf
00000740: dacf f17c d96e 84bf 4f57 5226 755c 6d3f
00000750: df65 2517 d00f c4bf 7645 cdc1 0f5d c73f
00000760: 8734 3d83 e1f2 a83f 1093 8d26 01ac ad3f
00000770: 15bf 7a52 0610 cbbf e153 05f6 8a25 babf
00000780: 03cb 9744 79e2 753f 479f 082d cb8f ba3f
00000790: 75a6 f277 464d c5bf fae0 82d6 b9f8 a2bf
000007a0: 1ea4 95a1 1a3c c33f 5106 6b28 e399 c53f
000007b0: 8da4 71b5 1fc3 b23f 146c 32ca 4a97 863f
000007c0: 7cbf 9fb8 012b a0bf 42e3 bff4 5dfe c13f
000007d0: bb8b 2ea5 fe09 973f 4788 b900 da91 a9bf
000007e0: ad13 1971 cd32 b4bf 9cce 8b06 36b8 b73f
000007f0: 2f57 350c a288 d03f 9b29 25da a3b3 d3bf

layer1.bias f8 [128]
-0.1449928260401516 0.057337358437087295 0.06833862900875033 0.12538271612564442 -0.009644625109365645 -0.21941018723791758 0.04497006119721458 -0.23222858877213873
-0.1403203580051769 0.06754138853146155 -0.5847276777399347 0.0859325184922765 0.16762476432396217 0.071110626847992 0.06871817857175515 0.0702703398019741
-0.08190907543143439 0.04568173022273251 0.003745498578866327 -0.09821179514805466 0.07324943313447878 -0.1757947188352982 0.16118674993221768 -0.44644804744562083
-0.17345602841086805 0.23044199288779024 -0.4248238871089249 -0.0499336339756035 -0.17354098592712686 0.2910243452912481 -0.10626596625724612 -0.02041434339525849
-0.03769907765211524 -0.17224294478833715 0.14431850417903289 -0.13343390017546855 -0.10874469623127317 0.2951444571168841 -0.14155029498618496 0.05337498260977977
0.36977770418774414 0.01583333981324935 -0.11318524713091548 -0.10708650766509206 0.045201640631361846 -0.14685814926111104 0.4190363282575735 -0.17876818258785243
0.028281868566071167 -0.029231198337374253 -0.15436622848192552 0.08490695083451567 -0.10149198217846497 0.29656897380486347 -0.11256025367340183 -0.03795392081937052
0.1562576102578895 0.21685363769572427 -0.15387990582563293 0.11812271393105798 -0.06938080199995661 0.04334318828484972 -0.5737659076932382 -0.13529366388065792
-0.04947639311255383 -0.03594777900316639 -0.2158201071581415 0.21398858469437634 -0.11810910267174962 0.1570822980280494 0.2612209100322235 0.05745962736758136
-0.29646890816311755 0.17175746164213224 0.3668722702081015 -0.12250967209097041 -0.15766850898604345 -0.029015523447611623 0.10740156127184178 -0.020895477614843994
0.1817803847609423 0.13157064528450835 -0.23593875293803512 0.02058186776798607 0.054717685227937914 -0.2996774200326056 0.0862595175399063 0.12111740969826947
0.01953746473274481 0.1331693572948751 -0.18371856660245411 -0.1372771035465298 0.0323077690306273 -0.0071454854859885975 0.021362696539935316 -0.21877240796081565
0.047311159315810945 0.018837639076095737 -0.0319117750412199 0.2685316986812221 0.045096457690242286 0.1665276235790276 0.07541256357591399 -0.06107404408421265
-0.07474314289491685 0.045272425929084016 -0.02919625670592813 -0.05830422116578626 -0.22536002707462205 -0.3308483165805681 0.01931820082432546 -0.1257993267011086
0.19394291004210265 0.4773679104801264 -0.12141443491250331 -0.06306888775654464 -0.05974373236853766 -0.21573550174575531 -0.0652717639994133 0.12594632692374233
0.16097018453051062 0.04317908409856202 -1.1971783186189935 0.1644161266548384 -0.12516410934445624 0.12435898797729981 -0.09919323082387452 -0.1908436634093032
00000000: ef9f fffa 1f8f c2bf 5d13 a77e 525b ad3f
00000010: 2964 a5f0 a37e b13f 4724 9f74 8a0c c03f
00000020: a04d 6aab 8fc0 83bf c34c 4c0d a215 ccbf
00000030: 7f45 48dc 5006 a73f 217d fc98 aab9 cdbf
00000040: 0a31 4c7a 04f6 c1bf 827a de76 644a b13f
00000050: 83b0 9ed1 16b6 e2bf 8b55 966c acff b53f
00000060: 3ab4 6270 ba74 c53f b3ce b558 4e34 b23f
00000070: 7b3b 9bb9 8397 b13f 8b0a 54ab 3cfd b13f
00000080: 5c3e 3940 fef7 b4bf 35a4 a982 9863 a73f
00000090: 3a06 e93c e1ae 6e3f 670a 3e80 6824 b9bf
000000a0: 2b5c c38f 79c0 b23f f182 1afc 7080 c6bf
000000b0: a7f2 c075 c4a1 c43f 7e16 c9d4 9a92 dcbf
000000c0: fccb a8a0 ce33 c6bf f5ff 898b 1f7f cd3f
000000d0: bf50 6c87 5030 dbbf d592 cab9 e690 a9bf
000000e0: 284b 894d 9736 c6bf fe67 5793 24a0 d23f
000000f0: b5b1 c011 3f34 bbbf dffe 0165 7fe7 94bf
00000100: b3dc 3523 4b4d a3bf 0194 6a8b 0e0c c6bf
00000110: ff0a d45b 0779 c23f 0137 b7ae 5c14 c1bf
00000120: fa40 ed41 b1d6 bbbf 8a69 ba93 a5e3 d23f
00000130: 7337 daef 511e c2bf dc96 7739 f753 ab3f
00000140: 48af 911a 70aa d73f 0ec9 bc72 9d36 903f
00000150: 4724 d156 b5f9 bcbf 46b1 4378 056a bbbf
00000160: 0978 7960 ab24 a73f a320 1d72 3fcc c2bf
00000170: d3f0 6cbf 7dd1 da3f 08dd e334 e0e1 c6bf
00000180: dd82 3e12 ecf5 9c3f f013 8783 c8ee 9dbf
00000190: e5e6 77c7 45c2 c3bf 1d8e 0941 76bc b53f
000001a0: be41 43e8 60fb b9bf c602 e06e fcfa d23f
000001b0: 5052 5bb0 bfd0 bcbf cc2c 5941 b26e a3bf
000001c0: 1b85 e7d6 3f00 c43f 83fc f528 dcc1 cb3f
000001d0: fc2d 8435 56b2 c3bf 07a8 3f49 4a3d be3f
000001e0: 6c60 8fb3 f0c2 b1bf 4e27 6010 1431 a63f
000001f0: 5445 2352 4a5c e2bf c199 dc82 4d51 c1bf
00000200: b356 af44 f854 a9bf 2368 5d4e bf67 a2bf
00000210: 951e 0847 fe9f cbbf e965 7d5a fa63 cb3f
00000220: 34c7 55ed 653c bebf c4ce 67d2 451b c43f
00000230: 1eaa 67e8 d7b7 d03f dfa9 c428 596b ad3f
00000240: c8d9 35ba 58f9 d2bf 4868 4c04 26fc c53f
00000250: b798 96d4 d57a d73f 000c 133b cb5c bfbf
00000260: 3821 da50 7b2e c4bf e69f 22d1 3eb6 9dbf
00000270: c2af 3331 ab7e bb3f fdd0 f5c3 9f65 95bf
00000280: 2920 cd63 9444 c73f 7c27 4e91 4ed7 c03f
00000290: 542b ddb5 3d33 cebf b9fe d0c3 6913 953f
000002a0: a935 22d9 f403 ac3f c9f0 9833 ea2d d3bf
000002b0: 8c79 cd8e 1a15 b63f 615b a1f1 8c01 bf3f
000002c0: 6faa 4b10 a101 943f 0096 3489 b10b c13f
000002d0: 70de 9c09 1784 c7bf e568 1ccf 4b92 c1bf
000002e0: 255a c9d6 a48a a03f 892f 9fa7 9544 7dbf
000002f0: 6b3c f94b 1ae0 953f 5cbc baf8 bb00 ccbf
00000300: 0b98 fe13 2b39 a83f 2a0f 108f 2c4a 933f
00000310: 2196 517c bd56 a0bf 799c f193 9f2f d13f
00000320: 10dc e305 e216 a73f d785 93f4 c650 c53f
00000330: 411d 44de 3c4e b33f abca f3db 1845 afbf
00000340: f47b 55da 5d22 b3bf a54f 8d89 f22d a73f
00000350: d1cd de9e 9fe5 9dbf 4069 4006 0dda adbf
00000360: 063b 0eed 98d8 ccbf ca9c e96a 9e2c d5bf
00000370: 233b 0883 26c8 933f 6021 053d 311a c0bf
00000380: d900 f60b 1fd3 c83f 0602 eb22 328d de3f
00000390: 5426 3633 0415 bfbf 6138 4f5a 4825 b0bf
000003a0: 9be3 5301 bb96 aebf 15c6 4a8e 389d cbbf
000003b0: 4bce ba7b a6b5 b0bf 852a 985d 021f c03f
000003c0: bd45 18c7 ab9a c43f 672c 26a4 911b a63f
000003d0: 782e df73 a427 f3bf 7471 756f 960b c53f
000003e0: 693a 22a6 6005 c0bf 377f 539a fdd5 bf3f
000003f0: ce84 5f42 ba64 b9bf f2f2 7eae 906d c8bf

custom_layer.beta f8 [128]
0.3964304812373573 -1.6309170746241315 3.134372245113457 1.2022284944088741 0.5381591704350854 0.7770170345887664 1.293377570260108 -0.42026847226611685
-0.49294878653687435 -0.21310567027430571 -1.3497639517949627 -1.0250908295038645 -1.0774463212133771 0.01761870285355588 -0.7033348348670352 0.16152598956587863
1.0372640510486775 0.07207794670306755 -0.09195378292769246 0.30092774636656316 -0.8140328938407182 1.6716885043516747 2.09384587349074 2.7239027583133923
0.1496941558753869 0.24325144991109618 0.2982774081117205 0.1617185730301898 -0.23664313388527006 1.0798867947522826 1.4122012604520469 -0.6041105701185333
-1.3900951353992315 -0.20352200843125826 0.0956993102359961 1.358709804795626 -0.14435619914371128 0.42866601611173055 0.263752834599489 0.25362142298718726
-0.18042950230285731 -0.11584508607879047 0.2972317542986445 -1.2377874498691497 -0.11748046364354019 0.34324798370142473 -0.8533380444506817 0.6819531227715244
-0.8628554599362747 1.1587887695548067 1.1273915150214022 0.2062249283112127 0.6013622532243369 0.9296607631973454 0.04291699864103682 1.2364573080914778
-1.466687672569654 -0.655093904983717 1.9574499158303775 -0.4027610200208644 1.6493046868846972 0.09604309683489694 -0.8776558640315201 1.0911139412996456
1.1620613853970767 0.8368408675523862 -2.480844750377538 0.12037190933410113 0.2502964591415431 -1.5584346862768688 -1.2555074997842037 -0.4309127748606944
0.08691722506632683 -0.181287926305357 -1.9317404865425707 -0.703967016677956 0.012224241715752522 -1.2729180321671505 -0.2861395874175873 -0.2845463048776975
1.133952847868498 0.538295794603223 -1.5761137506655232 0.19267731116539297 -0.1666525885329695 1.1205330978822758 0.15358220852104112 1.0000592740573535
-0.15796717019102086 1.269695324563374 -0.7573337342588063 0.4722545979031085 0.1946341136028143 -1.435412362159562 -0.7490542504331903 -0.014121671395174734
-0.03446146515715712 -1.5291720444018955 0.01412488342476055 0.7557362613625263 -0.8132603547616013 0.15285295669310742 -0.12494731203002113 -0.0017562055888638427
0.23653968075207393 -0.1513807362619144 -1.4444682912371318 -0.31146012483626434 -1.6500913518146016 -0.9721227044076007 -1.3389129869492742 -0.0957888566450438
-0.7036672150761892 -2.6088294066304005 -1.1789846064365188 -1.1333334853218309 0.17313565866239694 -0.40956057342198965 0.3579472258635663 -0.3765362453112708
0.6057173119293741 1.351323649490831 -2.4775450612711514 -0.5515167517404092 -1.115537704729474 0.7075187043264062 0.04497920790928569 0.05475176691796844
00000000: d353 03f4 1d5f d93f 6afa 9f80 3c18 fabf
00000010: e704 72c1 3113 0940 0ee3 1cf2 533c f33f
00000020: 34f5 a194 9938 e13f 00cc ffd3 52dd e83f
00000030: 8c5a daad acb1 f43f 0e10 fbbb ade5 dabf
00000040: 36d7 3111 798c dfbf 78cc 35ee 0b47 cbbf
00000050: 2277 e415 a298 f5bf b560 42a4 c566 f0bf
00000060: 55e9 8c5a 383d f1bf 7042 3722 a30a 923f
00000070: fa86 3c0e b881 e6bf adda 5135 e2ac c43f
00000080: f320 8930 a298 f03f d83d da47 b373 b23f
00000090: f4fc 6a7a 488a b7bf a49d 4673 6642 d33f
000000a0: 8240 1db6 8e0c eabf 30a2 f471 3cbf fa3f
000000b0: ea0e ec43 32c0 0040 8e85 8387 8dca 0540
000000c0: eb8c f197 2d29 c33f 8d4f 090f dd22 cf3f
000000d0: 576e 3e20 fa16 d33f 9904 29b7 31b3 c43f
000000e0: 851a 6e7c 524a cebf 3b7e 2d60 3747 f13f
000000f0: 2f2f 5059 6098 f63f e976 bab0 df54 e3bf
00000100: eee4 8d65 d43d f6bf 2d3f 1d59 020d cabf
00000110: d89e b6ff bf7f b83f cda0 057e 46bd f53f
00000120: 7a07 2691 437a c2bf c3d0 0696 436f db3f
00000130: 2b41 b591 53e1 d03f 7ee0 5259 553b d03f
00000140: 02ea cf5d 5018 c7bf 7d57 1c08 06a8 bdbf
00000150: 99e7 0256 d805 d33f 5365 8936 facd f3bf
00000160: 8b96 441d 3313 bebf 8a98 1a64 c6f7 d53f
00000170: 0c25 2b96 8b4e ebbf 3fae f65a 8fd2 e53f
00000180: 293e b30d 839c ebbf 0f5c c317 668a f23f
00000190: 86e0 6caf cb09 f23f a6b9 5b15 9465 ca3f
000001a0: 7bb7 540d 5c3e e33f efd2 c9ed c7bf ed3f
000001b0: 3022 3683 37f9 a53f 1273 5275 87c8 f33f
000001c0: da20 327e 8d77 f7bf 0ed9 367e 87f6 e4bf
000001d0: 71ca c000 b751 ff3f 37f7 4528 d6c6 d9bf
000001e0: dff2 b44f 8d63 fa3f e595 e9c7 4796 b83f
000001f0: 590e 25c0 c115 ecbf 5d77 61e4 3375 f13f
00000200: 2d99 e3ad cd97 f23f 2200 c37f 66c7 ea3f
00000210: 3699 ea21 c5d8 03c0 5071 f285 b1d0 be3f
00000220: 6052 9470 db04 d03f c22d a835 59ef f8bf
00000230: 4b4b 3708 8f16 f4bf 8723 dd2c 1394 dbbf
00000240: 3173 1e0f 3540 b63f be11 5259 7134 c7bf
00000250: 96f3 60b6 68e8 febf 3506 43d6 e586 e6bf
00000260: f7b6 19f3 0509 893f 6c58 6a4c df5d f4bf
00000270: 872a 836a 1c50 d2bf 486e 69b4 0136 d2bf
00000280: f8d1 ccbd ab24 f23f 48a5 2c1a b839 e13f
00000290: 2d26 5e0d c337 f9bf 677b 116f a6a9 c83f
000002a0: 107c c53c df54 c5bf cdd6 171d b4ed f13f
000002b0: 9533 6cf1 94a8 c33f 9234 4227 3e00 f03f
000002c0: eaf2 e7aa 4438 c4bf 0824 6e0b ac50 f43f
000002d0: 7592 99f4 133c e8bf 6b49 5859 6b39 de3f
000002e0: aa15 4e48 c5e9 c83f a7fd fbf3 72f7 f6bf
000002f0: 844a 919e 40f8 e7bf c302 75a6 d2eb 8cbf
00000300: c4fb a4e3 eea4 a1bf 1c9e 0a1b 7d77 f8bf
00000310: a709 f4c2 81ed 8c3f ea81 decf fd2e e83f
00000320: b2b3 5a94 3a06 eabf a901 0c89 af90 c33f
00000330: 445d e40a 8cfc bfbf bd24 6e64 0fc6 5cbf
00000340: 02aa 84a8 ee46 ce3f 28a2 bea7 7160 c3bf
00000350: 4c8f 6fc8 8a1c f7bf 6182 8b72 f6ee d3bf
00000360: 5e4c 7730 c666 fabf ab26 e412 a11b efbf
00000370: 5d30 3206 306c f5bf 1298 9c56 9e85 b8bf
00000380: d1a0 801b 7184 e6bf b490 b2f3 e1de 04c0
00000390: d11d 72f6 1edd f2bf 0fb4 ee4a 2222 f2bf
000003a0: 22fb dc2b 4f29 c63f 5d05 258d 3d36 dabf
000003b0: d0c9 317b 9be8 d63f f3b6 d77a 2b19 d8bf
000003c0: 3772 ab45 0962 e33f e5fd 0d8c 059f f53f
000003d0: 1135 2425 03d2 03c0 8a7a 7d75 06a6 e1bf
000003e0: b549 7410 3ed9 f1bf 967c 0c44 fea3 e63f
000003f0: e3d3 f0c5 8307 a73f dd2c 9f70 6c08 ac3f

custom_layer.gamma f8 [128]
0.6498288060958685 0.4055068560411723 -0.8373907230130689 -0.4805733991107664 -0.09067557415131768 -1.97494431350041 -0.1676881533740622 -1.6802311901478175
-0.15288896340006153 -0.3412055001794086 -0.8147214890350482 1.0587277588433504 0.5168974760474893 -0.7244842572963772 0.8717592879673568 -0.9260621872919007
1.2923366591933876 0.820017308770893 0.8710567474927626 0.1313794944507591 -0.4418090043157637 -0.3221694397920264 -0.5728689994844932 0.3854830478125388
0.3561040428718297 -0.4210014779059479 1.631290965913537 0.688984930451915 -0.7891719839886356 0.934013562896384 -0.33943518326088157 -0.22316451275651322
0.5368443582365957 -0.4097308608063423 -1.3672737782572661 0.9851069905708149 -0.5533406728820959 2.4038439913514913 -0.6121856117499309 2.652363991623941
2.2226944738547143 0.24198226612069934 -1.3261186566529757 1.1583613277444158 -1.477811809558707 0.29454558340122605 3.2022565270734336 0.6575239879059475
1.5245727223343832 1.0827302854682557 -0.27073082187457204 0.4040565299933173 0.5809620674137952 0.021890812196660298 0.2752943310039943 -0.39101480537206557
-0.3123209383819367 -0.43179977669449765 0.10690811090298598 -1.3887924618759562 0.8575306011213274 0.4848735417265437 -0.4354200422438184 -0.9273859667829849
-1.2449553105157731 1.4988618276935097 0.23242846457839883 0.5057447446950191 -0.8345102335755125 -0.49161904117027794 0.3293239538989861 0.18212871401176256
2.0821497064562386 -0.40809387129922575 -0.8782186931008789 0.49321501247066074 -1.2875611953090247 0.984412762344598 0.7161783749208153 0.14161653933226329
0.8037024705677431 0.3971661660920335 0.07719009852664883 -0.1869025152909717 1.0695288060129378 0.14713481453855617 -0.6146025938494898 0.9658562991842496
1.0712342634249155 -0.09037312730014262 0.9941658114313834 -0.19313208646900376 0.7353902641683063 -0.6897604225255911 0.7367910395177721 -0.10045118180991841
-0.24216286393583872 0.5163999794853521 -1.7380370629946833 1.2999206465803983 1.0861930209786625 -0.3994868546525815 1.2193685285738416 2.043221657407328
-1.1131755990103296 -1.7155971825161678 0.7868853300816122 0.3243004973254695 0.03599439742559535 0.3916435896824861 1.140762771232824 -1.44193429856449
-1.0423869720206278 1.4536704242472198 0.39385214241356836 -0.08631365645893835 -0.9062158867780019 0.8190703977495302 0.43614052039872175 1.5691067752880827
0.7979956082403064 0.614468878910776 -2.103773332472327 1.0955459654158797 0.8415282639046087 -0.677501474124473 0.316704887651542 1.3779590089078084
00000000: 7fc6 c5c7 65cb e43f 140a 4007 d3f3 d93f
00000010: df13 2aa1 e7cb eabf f187 20ee b6c1 debf
00000020: 81a3 86b1 8336 b7bf a77c 5e35 5f99 ffbf
00000030: 8988 552f ce76 c5bf ec76 b619 3ae2 fabf
00000040: 547e dc94 dd91 c3bf b118 1f98 4fd6 d5bf
00000050: 6520 d8cc 3212 eabf d197 b984 8cf0 f03f
00000060: fd48 6093 6c8a e03f d6c0 f19b f92e e7bf
00000070: baba f9bb 73e5 eb3f dd63 0f2b 4da2 edbf
00000080: 1c85 6a34 69ad f43f bd65 6af0 943d ea3f
00000090: 2421 6e66 b2df eb3f 97f8 0314 0bd1 c03f
000000a0: 6d54 2746 9946 dcbf 6e5a eb91 6c9e d4bf
000000b0: 51b3 355e f154 e2bf c31a e116 c1ab d83f
000000c0: ade7 869c 68ca d63f 1c1e cb2e b0f1 dabf
000000d0: 06be 4d8e c419 fa3f 374a f71f 2a0c e63f
000000e0: edd1 c49a e540 e9bf 1122 5569 70e3 ed3f
000000f0: 79e7 cd58 4eb9 d5bf 3a60 f59d a790 ccbf
00000100: 9b62 3538 d42d e13f 8fcf d4c9 0739 dabf
00000110: 6ab1 2478 5ae0 f5bf 1101 7218 ff85 ef3f
00000120: 5568 b27f f7b4 e1bf 7b53 fc8e 123b 0340
00000130: d086 b147 0697 e3bf 1be7 c89c 0a38 0540
00000140: bca5 510a 14c8 0140 cea5 995f 46f9 ce3f
00000150: 2c0a 4f32 c837 f5bf 80d0 39e3 a588 f23f
00000160: d727 fbfe 1da5 f7bf aced f8b7 d5d9 d23f
00000170: a776 89ab 389e 0940 8787 0cbf 6f0a e53f
00000180: 3fcc ec5d a664 f83f 3399 e7fd dc52 f13f
00000190: 7b1c 7e5e a753 d1bf 5e9e 83eb 0fdc d93f
000001a0: 1248 f8c2 3d97 e23f 35c1 de89 8b6a 963f
000001b0: 3bed 1b1d 6c9e d13f f6c9 54f6 6206 d9bf
000001c0: 7736 0df6 10fd d3bf 8cab d487 9ba2 dbbf
000001d0: 3566 0178 545e bb3f 5604 cb71 7e38 f6bf
000001e0: 8f54 e403 e470 eb3f 0b51 1a09 2b08 df3f
000001f0: e972 5d06 ecdd dbbf bc45 c355 25ad edbf
00000200: 2c59 7a42 56eb f3bf 9fa9 328a 56fb f73f
00000210: 2c09 0347 37c0 cd3f e5d8 529a 0f2f e03f
00000220: ef4a 2cce 4eb4 eabf c1b3 fab5 af76 dfbf
00000230: 9146 f2c6 a413 d53f 4ce9 2b63 fe4f c73f
00000240: 28d8 f41a 3ea8 0040 c167 bbc1 351e dabf
00000250: 1455 b316 5e1a ecbf 494b 1db3 d590 df3f
00000260: 0237 97c4 d999 f4bf 481f 8131 4f80 ef3f
00000270: fe64 4ce9 eeea e63f 419c 80a2 7d20 c23f
00000280: 06b1 593e eeb7 e93f ea59 9ca3 2b6b d93f
00000290: b939 bff4 bac2 b33f a580 5bef 6bec c7bf
000002a0: b649 bf3c ca1c f13f 65e7 4548 50d5 c23f
000002b0: bdd9 130f d3aa e3bf e238 3478 4be8 ee3f
000002c0: 0d3c fc89 c623 f13f cbfc 307a b122 b7bf
000002d0: 62c5 dcd1 34d0 ef3f 9ea7 985d 8db8 c8bf
000002e0: 26ca cc29 5188 e73f 6052 1a73 8412 e6bf
000002f0: 9ede 56cd ca93 e73f a8d8 b72c 2bb7 b9bf
00000300: fb7e 7456 31ff cebf d76d f13f 5986 e03f
00000310: d7c4 8cf3 ffce fbbf e853 8797 79cc f43f
00000320: e2f2 e3ee 0b61 f13f 268b fa4f 3191 d9bf
00000330: cff0 ff92 8882 f33f dd58 a898 8458 0040
00000340: f145 8737 91cf f1bf 5644 0008 1673 fbbf
00000350: d5e2 cc24 2a2e e93f 2cb9 85df 56c1 d43f
00000360: 1877 908f db6d a23f dff4 5746 b010 d93f
00000370: 6907 af76 9040 f23f ff0a f5b2 2912 f7bf
00000380: 57ae 29f6 9dad f0bf 3ade 34eb 3b42 f73f
00000390: 480d c89d df34 d93f 3c77 b0db a618 b6bf
000003a0: 1278 9a75 b8ff ecbf 1897 6e1f d335 ea3f
000003b0: e6aa e4ed b9e9 db3f 9ab5 bcb4 0f1b f93f
000003c0: c0cc f715 2e89 e93f 329c 6aa3 baa9 e33f
000003d0: 1b53 e91c 87d4 00c0 7e9d cb34 5b87 f13f
000003e0: 9028 84ae cced ea3f a567 4b92 17ae e5bf
000003f0: 2d97 bc93 e444 d43f 40cd e7be 1e0c f63f

layer2.weight f8 [128, 128]
-0.13214715987793785 0.15673992409406717 0.08408444769235032 -0.23651564246000634 -0.28477088422070673 0.02214980723608198 -0.03369005636356289 0.0833113137060364
-0.2181304432947456 0.045576047763423125 -0.08412458672636351 -0.09463702322053008 0.25856476440539783 0.07129074002629573 -0.09376132164069992 -0.07383169115350167
0.05178620489389228 -0.13342329149456672 -0.017256736685774026 -0.11630970522733615 -0.012254042239896052 -0.16049853641871686 0.16925586185841643 0.22423910246778953
-0.07731263473033595 0.22157722515520384 -0.07367182534029788 0.028979223514647795 0.015777729404297853 0.06563500594655751 0.19604540948826646 0.0983451239700497
-0.22939135475828187 0.043449744992040316 0.015712355496898357 -0.2678784239221745 -0.05637111941708336 -0.513687401944018 0.018543851121471337 -0.06003151028192535
-0.03389245315175719 0.10626882180380835 -0.20047756728931398 0.22568718824864098 -0.025816404096215474 0.12504149450601243 0.446418566375712 -0.05149070198973023
-0.3007009313505548 -0.09577433624940884 -0.11834184295464978 0.08249697347232011 -0.11343835781405227 0.1631256006564986 -0.0077228562983087945 0.035846874765600376
0.2756400866518041 -0.05796891513806672 -0.14900628059377946 0.1113121401709607 0.21959258566764778 0.1486292401642929 0.18762024109663927 0.12381342356924872
0.049675292933854136 -0.027093585632934517 -0.010668813364727317 -0.16211629942555672 0.055762135838852714 -0.1291228333086898 -0.1695244480881858 0.05972816580979623
0.07613258666148368 0.0635166057981163 0.02570866676958509 0.09651941710012553 -0.13155478350022778 0.04967185978168201 0.07046462475031248 0.12890225113498133
-0.09067396816000517 0.12884509465414737 0.12924166513077842 0.1344333032775154 -0.15889449205663259 -0.24298041333311338 0.11582033475823628 0.2606950073376981
0.1363514152109977 -0.05250885615806575 0.06212891429279242 -0.0476278758906542 0.0031646633018996995 -0.008454586879321109 0.11220521014525306 -0.10648701892411457
-0.023902927422092112 0.00973945769374543 -0.001665615319358674 -0.0721655023907238 -0.21158729683310729 -0.17803373894938423 -0.022715216552052678 -0.05902314593969179
-0.10749359371617333 -0.03992633154120306 -0.07234259853960066 0.0043802221508807805 -0.08193030863665748 -0.007783844743073018 -0.08151583248134503 0.10518070547430726
0.018854523663807292 -0.08753957536522455 -0.014221747887766107 0.05086380407950972 -0.013836981040943473 0.23955750314820315 -0.08079346769610685 -0.17021638576775938
-0.13021071539124487 -0.02126334191205059 -0.22908080404024397 -0.10349845890389302 0.07705716554254591 0.042773693693043104 0.05573858358944899 -0.1455960724935355
0.06437258154884051 -0.05881546426127404 0.06823150994811444 -0.06507047638438139 -0.020112140153609515 0.044643039071400444 -0.03636521092524834 0.11285864998039943
0.009677721532176928 0.037348907624922933 0.07971251244480927 0.007107307822025745 -0.03131322589593808 0.007267140120616095 -0.03217151142298017 -0.054373471228851375
-0.13924199557114883 -0.051650497584781456 -0.0020804949236554364 -0.027195293722312264 0.07390105835721758 -0.03066253523877025 -0.005577425088484204 0.01723514444425016
0.016954877991026213 -0.04917516768852558 0.10694870267294751 0.045343664260252936 0.06778704641935712 -0.11553029622108962 -0.0404244607603874 0.057475328504073865
-0.07059532525260051 -0.016695669029857786 -0.14213521477422933 -0.013943218002931468 0.027083792707895838 0.07870147975251042 0.019406336972895982 -0.08891973724273491
-0.05445589546494207 -0.0897664560576919 -0.06723865961785416 0.0359900467595782 0.056187594859540245 0.030295415956977722 0.032120545639127016 -0.026994457360093968
-0.031214054331516524 0.20714996917105788 -0.024806512332417756 -0.0873904744743297 0.10202992132105887 -0.011595420116604522 -0.05680201442427142 0.021604595319758665
0.04200955666963947 -0.02706138940764986 -0.011059730067489679 0.07315056089996484 0.0571856317723837 -0.10618789562641753 0.04509761075765787 -0.005972950768909002
-0.038211601020998326 -0.07758522054399644 0.10822751848856611 0.07498234271520829 0.030859393599549718 -0.03843849068428021 -0.01670863230067513 0.033049084961424474
-0.22088657034368755 -0.0672044190325251 0.026660964622066793 -0.004484573519911189 -0.030203317787155206 -0.0690342573254728 -0.16784309349945264 0.009640660944758113
0.14864152742688122 -0.046686517932264054 -0.013772148841987197 0.06302146169646314 0.052207021764272284 -0.10351416213452615 0.01964313802318572 0.02530014126636215
-0.055226179937364304 0.014756052592094893 -0.05339887717917789 0.030535993073725197 0.08111807809067752 0.036585719659445244 -0.035660501069255564 0.04009933911151755
-0.06960965023599984 0.03742615527653635 0.14285173576416044 -0.0062585943842420975 0.029923028476258582 -0.0635256650426237 -0.016250502138781098 -0.0285785373335887
-0.046171396564821235 -0.02173841228920302 0.009079328399794473 -0.02648476549857118 -0.044413966655560404 -0.07204608430143408 -0.12608171628323409 0.11002255085444793
0.01091790189962108 0.04577521317327564 -0.09458712039911236 0.0027799329973901446 0.07761283033996205 -0.005357722441033397 0.08443878547131746 -0.07294868510500782
0.0920244661340963 -0.019279597023691898 -0.023310191926412194 0.02937779323735032 -0.029186058849765276 -0.004038805476890511 -0.08946495810152995 -0.11901538006775358
00000000: f2ae f7b8 32ea c0bf c613 fbc7 0d10 c43f
00000010: aedc f0f0 8e86 b53f 10d8 ad02 2546 cebf
00000020: 162e a5a8 af39 d2bf c846 c466 70ae 963f
00000030: 1b55 90b4 d23f a1bf c014 c1e7 e353 b53f
00000040: cb40 1bc8 b2eb cbbf 8aea 3f65 be55 a73f
00000050: bb7c c75c 3089 b5bf 8414 b9c7 213a b8bf
00000060: 6739 c139 538c d03f 06ab eb24 1c40 b23f
00000070: 5698 13f2 bd00 b8bf 3ba4 e93a a2e6 b2bf
00000080: 2e73 ceb0 b883 aa3f 1e36 bfb0 0314 c1bf
00000090: abe8 cdfe bfab 91bf b5a7 280c 79c6 bdbf
000000a0: 1731 50b5 a518 89bf 5ab4 7c4e 378b c4bf
000000b0: e349 ab13 2daa c53f bbb1 caed ddb3 cc3f
000000c0: c400 bcc5 c2ca b3bf 643e ca7b a45c cc3f
000000d0: dd23 7920 28dc b2bf 8819 09c5 baac 9d3f
000000e0: 15b7 2f7f 0928 903f 0b63 03ac 74cd b03f
000000f0: 693a 2417 0418 c93f 5124 2c63 252d b93f
00000100: 9c02 5627 b25c cdbf fb4c 8583 0b3f a63f
00000110: 0d5c 0254 e616 903f 532f 838b eb24 d1bf
00000120: 4baa abe4 acdc acbf bbef f68f 2070 e0bf
00000130: 1138 6fc8 28fd 923f e3dc c73a 73bc aebf
00000140: b66b bc03 5a5a a1bf cf57 3bfa 6e34 bb3f
00000150: 506c 8bb9 3fa9 c9bf d4b9 535a 51e3 cc3f
00000160: 8a9c 2c8d 9d6f 9abf bcec c514 5c01 c03f
00000170: fe4b ba2d 1f92 dc3f 4a1d 3042 fd5c aabf
00000180: 7fc0 811e af3e d3bf e4c0 fcb9 aa84 b8bf
00000190: 2814 3da9 a64b bebf e924 158b 851e b53f
000001a0: 6d5d ecd4 4b0a bdbf dbe1 fab7 4ce1 c43f
000001b0: 6023 ba73 00a2 7fbf 566a 9085 855a a23f
000001c0: f1b5 6851 16a4 d13f a6ba 6705 1aae adbf
000001d0: c641 0647 a312 c3bf 709a aed1 f37e bc3f
000001e0: f27c f11e 9c1b cc3f 6c13 de6e 4806 c33f
000001f0: 1af2 c9a7 f003 c83f df24 098d 3cb2 bf3f
00000200: 37e7 233d 0a6f a93f a139 e6c0 6bbe 9bbf
00000210: a8b7 e8e3 87d9 85bf 2835 1716 3ac0 c4bf
00000220: 02e3 90cb da8c ac3f b024 1dd5 1887 c0bf
00000230: 74a2 3424 fab2 c5bf 3035 9bad b094 ae3f
00000240: 1ef7 ded9 6c7d b33f b4e4 a7d0 9f42 b03f
00000250: eb1b ff6b 5f53 9a3f edbf df1b 7fb5 b83f
00000260: 0107 6282 c9d6 c0bf d46f 960a 976e a93f
00000270: 52d7 d33a f809 b23f 00b5 8074 de7f c03f
00000280: 3884 d8bf 6836 b7bf 3311 e5fd fe7d c03f
00000290: 2136 82aa fd8a c03f 9afb 8848 1c35 c13f
000002a0: 16ea 729b a756 c4bf d4c9 6a70 fb19 cfbf
000002b0: f096 ffc5 66a6 bd3f b8bc af1c 3aaf d03f
000002c0: 481a 8c92 f673 c13f 7c05 e6d7 70e2 aabf
000002d0: 2e0c 0c6e 5ccf af3f d017 a852 ae62 a8bf
000002e0: 24e9 4dac c7ec 693f 04d9 2e71 a350 81bf
000002f0: 5ec1 030c 7bb9 bc3f 5544 bab7 bb42 bbbf
00000300: 83e7 394e 027a 98bf 500b 34e2 47f2 833f
00000310: 4159 c2d4 184a 5bbf c6e5 aa38 7079 b2bf
00000320: c4d8 12e4 4a15 cbbf 78a4 2f3f cfc9 c6bf
00000330: 24ba d960 a842 97bf cb38 0923 4838 aebf
00000340: 9b5c 8a3d b384 bbbf 1ffc 6f60 3971 a4bf
00000350: 6fd2 d566 0b85 b2bf ad2a 32ee fef0 713f
00000360: 0648 257c 62f9 b4bf 70fd bce9 f3e1 7fbf
00000370: 5414 9dba 38de b4bf 01af 2e6a 1fed ba3f
00000380: ae22 12aa 994e 933f 4ca3 4c5d fe68 b6bf
00000390: 4a2e 8fb0 4a20 8dbf bcae 240e d20a aa3f
000003a0: d2aa 5e28 9056 8cbf b137 c4fc d1a9 ce3f
000003b0: d036 7c75 e1ae b4bf 0ed4 0e89 a6c9 c5bf
000003c0: 41da 18a6 beaa c0bf 9fb4 76b8 0ec6 95bf
000003d0: 0343 bf10 8552 cdbf 13ba 2d00 e07e babf
000003e0: 467d edb5 04ba b33f 15dc 14ff 6ee6 a53f
000003f0: 37ba 4883 c489 ac3f 7294 e460 e4a2 c2bf
00000400: b0e8 82b4 b87a b03f 10a1 007f 0f1d aebf
00000410: 68aa c8c7 9e77 b13f 0b8d 0170 75a8 b0bf
00000420: c06a d9e0 4698 94bf b186 9cd1 73db a63f
00000430: bdac 45ff 759e a2bf 028d bcf2 4de4 bc3f
00000440: b80d d8cb e9d1 833f 40ab 9461 651f a33f
00000450: 914e 080a 0a68 b43f 8f02 886a 8d1c 7d3f
00000460: 5d85 4f82 4908 a0bf d4b7 7412 26c4 7d3f
00000470: e563 d9ca c878 a0bf ee54 65f1 d6d6 abbf
00000480: 319b 9a84 aed2 c1bf 4fc4 e51b ef71 aabf
00000490: aad1 0235 1d0b 61bf 2ddd 9144 15d9 9bbf
000004a0: a6b6 c804 2eeb b23f 1a7a 40e8 ff65 9fbf
000004b0: 5168 9da5 5ad8 76bf 6c68 ebf6 16a6 913f
000004c0: 78a0 ea99 9e5c 913f afbc fed1 7c2d a9bf
000004d0: c676 547c fd60 bb3f 003d 28e6 4837 a73f
000004e0: b4ac 76eb 7d5a b13f 647e f7bb 6493 bdbf
000004f0: be3d d9d1 83b2 a4bf fdf2 8000 686d ad3f
00000500: eadc 3505 8912 b2bf 2a50 df61 ab18 91bf
00000510: 255a 8899 7c31 c2bf e0b5 960a 438e 8cbf
00000520: dd6c ba8f dabb 9b3f 0910 afb9 c725 b43f
00000530: 28f4 883a 41df 933f 762c 6da3 71c3 b6bf
00000540: f950 31a4 a4e1 abbf f4ac 0b39 effa b6bf
00000550: 3ae7 1584 8d36 b1bf 63b7 a093 496d a23f
00000560: bba9 b9d4 9ec4 ac3f c307 04f3 c205 9f3f
00000570: ae75 19aa 1a72 a03f fcb4 235e 6fa4 9bbf
00000580: 0f23 1eba 93f6 9fbf 5082 7ae3 e383 ca3f
00000590: 8e3f c8dc e066 99bf 2163 d9dd 385f b6bf
000005a0: 1c93 4907 a21e ba3f 3d3c 79f1 56bf 87bf
000005b0: 4a2c 9954 2715 adbf dfe0 5dd9 831f 963f
000005c0: 82f7 07d0 4682 a53f f3f0 f519 fbb5 9bbf
000005d0: 6526 8ad7 7ba6 86bf 07d9 bfc2 feb9 b23f
000005e0: b4e7 8664 6f47 ad3f 724f f242 212f bbbf
000005f0: f5eb a9b6 0817 a73f e6c8 68c3 1777 78bf
00000600: c40c 6d91 7890 a3bf 82b0 e300 a0dc b3bf
00000610: 3d85 6f74 ccb4 bb3f ae41 bdf5 0a32 b33f
00000620: e548 23d9 9a99 9f3f 140d cbb8 35ae a3bf
00000630: ca4d 2b55 111c 91bf e4e2 2446 cfeb a03f
00000640: 1139 e0d9 0246 ccbf 2b31 e40d 4f34 b1bf
00000650: 7fbf 860c 034d 9b3f a023 ac89 6a5e 72bf
00000660: 3790 8158 9eed 9ebf e43c 84a5 3aac b1bf
00000670: 7245 b8ea e17b c5bf f7a8 c19b 7bbe 833f
00000680: dd1e 9081 af06 c33f 4ccb 5d97 4be7 a7bf
00000690: 46d0 f986 9234 8cbf 76b3 eeac 2c22 b03f
000006a0: 81be 32f6 e0ba aa3f d166 0a75 e77f babf
000006b0: 9c01 9aad 541d 943f 5ff6 4abd 47e8 993f
000006c0: 3b90 6d19 9b46 acbf 00a9 68da 6b38 8e3f
000006d0: 8e60 41fe 1857 abbf 36fe 68ce d344 9f3f
000006e0: a18a 8384 27c4 b43f e139 e00a 5dbb a23f
000006f0: 11ee b3db 1742 a2bf 337e 268c e687 a43f
00000700: f7e6 3f23 f0d1 b1bf ee00 db61 8529 a33f
00000710: ec56 a436 f748 c23f ca1f 30a3 9ca2 79bf
00000720: b9ac cf72 24a4 9e3f 7191 d0cd 3743 b0bf
00000730: 8027 ebbc f8a3 90bf f871 dc2c b143 9dbf
00000740: 0a5b 83fc c6a3 a7bf 3c78 6527 9842 96bf
00000750: 60c4 5fd4 2e98 823f 0966 a286 d21e 9bbf
00000760: 6fe3 8a6c 6dbd a6bf 1e28 e1b7 9c71 b2bf
00000770: 6daf 0718 7223 c0bf b20a be19 702a bc3f
00000780: 9068 ccfc 1f5c 863f 26e2 1747 d96f a73f
00000790: 2bac bc8c dc36 b8bf 6732 e229 f1c5 663f
000007a0: ea64 0f38 6fde b33f 8d00 a5aa faf1 75bf
000007b0: 29ff 1cbe c79d b53f 0eed cfd8 c3ac b2bf
000007c0: 4f51 7a58 ea8e b73f 0a8a c9da 07be 93bf
000007d0: 2d1f f37f a0de 97bf 9876 bb54 3615 9e3f
000007e0: 1116 0941 f3e2 9dbf 06aa 0297 fe8a 70bf
000007f0: f51f 2fed 2ce7 b6bf d0ac 1cbd ca77 bebf

layer2.bias f8 [128]
-0.025161753039264774 0.06978319140764092 0.007840656519537775 0.008766182169822759 -0.04471659705634447 0.09037320679808669 -0.016807571966529156 0.08726478735755336
0.28601511870678015 -0.03290727153742266 0.26790264873648856 0.0028174420812701263 0.03068361039031285 0.07917902221464215 0.4078572681725172 0.10933236420004779
0.07994401203843336 0.017635322403667754 0.04399129461677352 -0.03188239303346532 0.04114757365524191 0.11229206798919712 -0.03065227187277845 -0.053852381580130934
0.08122463430879037 0.15165521395457413 -0.02985578494036846 0.039675733432664666 -0.08909751098944176 -0.04325505645696875 -0.03943470725579088 -0.046956846237039565
0.02984408835402226 -0.06651418644911151 -0.00872149221942794 -0.046426426590985614 0.05602526187858127 -0.08812522788684926 0.08730324433972578 -0.08329089378294584
-0.08148409965238367 -0.019544550565647405 0.16541571177630468 -0.06241188501935682 0.033729553136111055 0.03438789718120889 0.014138137496676013 -0.06965684283882008
0.02186888411922049 0.06882379446511258 -0.00252560348098214 0.0773159705022794 0.38332534659696166 0.12472337257055216 -0.07120811614008822 0.07960185486412603
0.19893186450863046 -0.17435004475930502 0.05116403936931264 -0.04135547528429143 -0.11872549801510714 0.040175028863549164 0.04953974967594342 0.07797874954882328
0.19442168502349574 0.03717637938567399 -0.09679121679386934 0.4066972961811863 0.1061848987864215 -0.019175328014049874 0.02432352099253837 -0.07003454850607187
0.06880804981846905 0.03737215677063923 0.0851135732683769 0.09026937456711343 0.06039485576269802 0.07959439516014344 -0.0509548297222064 -0.09995338313079546
-0.2810729378836721 0.10603831484720319 -0.05601593098517018 0.059982989823113425 -0.08548218208624486 -0.07211689132676781 0.037671308364976175 0.11625034054222705
0.08069168782031894 0.2257704626397297 0.04369811959513211 -0.007544343079900034 0.08198463003315225 -0.1323155789277982 -0.0693963836810151 -0.02933794417645676
-0.07183313573421427 -0.029422727984659742 0.055701597402913715 0.0192439172809422 0.018417838894046207 -0.1576702633639617 -0.06049211398941317 0.2253979753292626
-0.15225993118178133 -0.07979392743466401 -0.059479900487437475 0.008326628100610465 -0.013224562388432632 -0.03844827356847442 -0.07680343280044101 -0.0059636252056498185
-0.11298216941645525 0.08244624681660158 0.09885038394413105 -0.0325296252315002 0.02633201538160396 0.07773221355117088 0.02114685571772418 0.003860305925712075
-0.043929422852722874 -0.04540011949105901 -0.0035536218808841454 0.05390049610664236 0.0613316093953863 -0.04727446788800784 0.16060237857542345 0.06484171800925534
00000000: 5299 a7a9 00c4 99bf fa04 e8ac 4fdd b13f
00000010: 3009 a51a c30e 803f d561 d70d 01f4 813f
00000020: b20c e403 18e5 a6bf c0e6 a1cf b222 b73f
00000030: e085 af0f 0136 91bf ae07 cb2f fc56 b63f
00000040: 9d75 405b 124e d23f 8d8e 1bce 38d9 a0bf
00000050: 8b70 b526 5125 d13f 3124 1eb3 9a14 673f
00000060: 9c30 993c 866b 9f3f eaee f08e 1345 b43f
00000070: c428 0f5f 551a da3f 6931 a2b0 34fd bb3f
00000080: 6f52 37f5 3577 b43f 2aa5 e973 fe0e 923f
00000090: de1f 60e7 0686 a63f 443d cb96 e352 a0bf
000000a0: 706a 5176 4b11 a53f a922 9d47 2cbf bc3f
000000b0: 0a7c f724 4f63 9fbf 6e91 6513 8a92 abbf
000000c0: 525e fc3b 23cb b43f a7f4 1924 7069 c33f
000000d0: 4442 a9cf 8392 9ebf f782 13b3 6050 a43f
000000e0: 89ca da2f 18cf b6bf c716 bdd9 8625 a6bf
000000f0: 8d5e fb33 c930 a4bf 22a1 d24d ba0a a8bf
00000100: b47c d6dd 728f 9e3f e5db 84df 1207 b1bf
00000110: 2d8d d6de 92dc 81bf 50c1 c15f 34c5 a7bf
00000120: 2264 09d7 57af ac3f 2600 bafb 5f8f b6bf
00000130: 0619 4663 8159 b63f 6734 da50 8d52 b5bf
00000140: 77a7 2657 24dc b4bf 5e57 fa95 7c03 94bf
00000150: f971 2990 572c c53f 3467 145a 73f4 afbf
00000160: 63af 41ff ff44 a13f 6902 8b5b 4a9b a13f
00000170: 7787 65b1 74f4 8c3f b572 efe5 07d5 b1bf
00000180: 7d46 5ef8 cb64 963f 8a0e 6aaa 6f9e b13f
00000190: 96b9 4f0b 93b0 64bf dc0a c4bc faca b33f
000001a0: fb27 d708 6788 d83f a4c2 3cf6 deed bf3f
000001b0: 050d 08f2 b13a b2bf e5a4 5783 c960 b43f
000001c0: 1133 196e 9976 c93f 9b0f 262e 1a51 c6bf
000001d0: b918 a547 2c32 aa3f 1590 b67b 8b2c a5bf
000001e0: 511b 2d53 cb64 bebf de6a 2b46 d291 a43f
000001f0: ce9f 6b29 465d a93f 1c5d 1853 6af6 b33f
00000200: 7b91 674d cfe2 c83f 3252 4a4b c808 a33f
00000210: 6e72 ab26 4fc7 b8bf 8b11 9e18 5407 da3f
00000220: 5be3 9dfb ee2e bb3f 8377 d77a b2a2 93bf
00000230: 8fff bedc 43e8 983f e377 6cbf c8ed b1bf
00000240: 3cff ab83 679d b13f 53c5 387e 7122 a33f
00000250: 1a25 a2cd 00ca b53f bc9b 98cb e41b b73f
00000260: b5e1 b114 13ec ae3f 2060 285c 4c60 b43f
00000270: fad2 755e c016 aabf eedb ab7f 8b96 b9bf
00000280: 9110 0059 19fd d1bf ba45 64b6 5325 bb3f
00000290: fbc8 45bf 1eae acbf bc90 3627 17b6 ae3f
000002a0: d47d 7308 29e2 b5bf e1d6 bca9 4076 b2bf
000002b0: 38a7 d95a a749 a33f 3019 c712 95c2 bd3f
000002c0: cc4f 3fe0 35a8 b43f f95f b8e8 0be6 cc3f
000002d0: 8b96 1d95 995f a63f f980 c42c d1e6 7ebf
000002e0: 475d c4d8 f1fc b43f 7b83 1f86 b7ef c0bf
000002f0: 79e1 5e1e f6c3 b1bf c53a 141b c40a 9ebf
00000300: 5a61 bf08 a863 b2bf 4518 d0d9 fd20 9ebf
00000310: f366 5c76 eb84 ac3f fc6b 796d adb4 933f
00000320: 1509 da3e 20dc 923f 0f97 5908 8a2e c4bf
00000330: d738 8086 d2f8 aebf 9ad8 4f42 d7d9 cc3f
00000340: fe5e 75e0 407d c3bf d453 c0f4 5f6d b4bf
00000350: 33cb b946 2674 aebf ff4c 061b 8d0d 813f
00000360: 8aa5 b2b7 7a15 8bbf 89e6 20fb 7daf a3bf
00000370: 9132 19c8 63a9 b3bf d2f5 9473 506d 78bf
00000380: 22c0 ac42 66ec bcbf ed57 c17d 321b b53f
00000390: b1b1 3c3e 424e b93f c675 0a19 b9a7 a0bf
000003a0: 7166 9ba3 c7f6 9a3f 9047 0c23 42e6 b33f
000003b0: 1128 e276 85a7 953f 0afa 82f6 a59f 6f3f
000003c0: 761d f8d4 ea7d a6bf abad e538 af3e a7bf
000003d0: f50a 5838 7c1c 6dbf ed4b 0888 d898 ab3f
000003e0: d2e2 2051 db66 af3f 5393 07eb 5b34 a8bf
000003f0: a314 d265 9e8e c43f 1226 4482 7799 b03f
