COLA_Emulators/PCE/wCDM_PNN_HIGH/MODEL_Z0.000.pth (torch, 192396 bytes, 10 tensors)

layer1.weight f8 [128, 25]
000000 ef cb df 48 a7 8b ad 3f d2 75 c8 90 a6 cd cc bf
       0.057706096311356585 -0.22502595967755085
000010 46 d9 ef 37 45 c2 8c bf 4b 6a a5 28 94 90 a2 bf
       -0.014042416352805131 -0.03625929828804838
000020 26 72 82 42 9f e0 bd bf f5 f3 6a 03 59 91 cf bf
       -0.11670871137398162 -0.24662316004642518
000030 40 69 99 39 18 84 d0 3f 4d e4 2d d8 07 99 cb bf
       0.25806241631439164 -0.2156076245844666
000040 02 2d 62 6f 0c 40 c6 3f 64 23 ba f5 fd 9b c2 3f
       0.17382960737845826 0.14538549898523023
000050 34 d3 8d 7e e6 a1 b4 bf 6e e7 aa 73 a4 48 7f bf
       -0.08059540357301104 -0.007637636556575218
000060 75 1b fa ef 34 9c 9d bf 39 dd 18 4d f9 80 c0 3f
       -0.028916194102318344 0.1289359690142449
000070 a1 23 df 1d 31 ba ce 3f 12 23 a6 d3 a5 7a c6 3f
       0.24005712469650312 0.17561791262075893
000080 c6 a7 57 5c ff 8f b5 bf b7 58 e1 10 98 0c b2 3f
       -0.08422847752049653 0.07050466930499764
000090 76 6e a6 84 74 1d aa bf e2 db c2 5a b4 97 86 3f
       -0.05100597495330998 0.011031540889559769
0000a0 4e 01 14 2e 6f fb c6 bf 67 75 66 fb 3b 6a be 3f
       -0.1795481657973234 0.11880850684834386
0000b0 94 62 42 a9 38 21 92 3f 57 c3 fd c0 8b f4 96 3f
       0.017704854326981392 0.022417243627788377
0000c0 25 23 90 60 4f e8 9e bf 32 ab e2 10 81 8e 9c bf
       -0.030183067578067786 -0.027887360244373834
0000d0 9c ca ec fc 4e 85 d2 3f 3d 25 8e 8e 82 c2 9f 3f
       0.289386507985151 0.031015434218294436
0000e0 a6 59 ff 19 ca 5e be bf 01 20 2b a0 e4 5a cb bf
       -0.11863387236312536 -0.2137113363335175
0000f0 22 d5 d7 9b 59 a9 bf bf df 50 0d 92 3b a7 ab 3f
       -0.12367782644999584 0.05401025922643198
000100 7e 92 a0 dd c8 74 cc 3f 2b 04 0f b7 22 fb b6 bf
       0.22231398412363385 -0.08976952523427488
000110 52 8d 4b b3 ad 27 d0 bf ec c9 02 27 64 a2 af bf
       -0.2524217844895321 -0.061785821687767
000120 9b 28 ec 36 3a 6e c4 bf d5 54 82 06 86 cc cf bf
       -0.15961387330782348 -0.24842906301333892
000130 b6 31 a2 6d 26 8e c0 3f 6a 02 eb d9 07 21 bf bf
       0.12933807709886275 -0.12159775800956543
000140 1a 69 54 56 f5 cd c4 3f 6f fb 76 f4 5f 6f c7 bf
       0.16253534999197755 -0.18308638989216372
000150 c1 0c 16 eb 5c 64 a2 3f c7 49 3c 5c 22 a6 a3 3f
       0.035921958634412395 0.038376878508774186
000160 d9 24 cf d7 cb d1 c4 bf 22 f0 ea 44 05 17 ba 3f
       -0.1626524738078732 0.10191376621782003
000170 07 91 3a eb 89 1a 9f bf 09 04 15 6b ed f5 bd bf
       -0.030374674780106605 -0.11703380455311686
000180 fa 27 85 d5 91 77 b1 3f 12 bc 50 a3 20 da bb 3f
       0.06823073828596185 0.10879711138908046
000190 98 cc 0d 73 f8 f7 a6 bf 6e 0e 42 03 33 7f b2 3f
       -0.044860614819208056 0.07225340680639089
0001a0 1d 66 9f 5c ed 3c d1 3f 91 c9 72 6a e4 53 b4 3f
       0.2693437008398137 0.07940509413564302
0001b0 2d 6f c3 94 55 65 7b 3f 72 67 7e 77 d6 99 c6 3f
       0.006688436795425007 0.17656975588470974
0001c0 9c 23 ea 22 64 26 d7 3f ec 53 c2 77 63 83 c9 bf
       0.3617182103121708 -0.19932216022121396
0001d0 ac 7c 1e 16 08 6f d0 3f ba e2 24 b8 aa 18 cb 3f
       0.2567768302923905 0.2116902732029951
0001e0 6c d5 16 51 bf 7c da bf 80 10 ec 90 e7 ab c1 3f
       -0.4138639728438054 0.13805861068988534
0001f0 4d 38 77 dd a7 1b b1 bf 0a 05 9a 5b db c0 9b bf
       -0.06682824284436713 -0.027102878061218617
000200 3e 4d 76 42 e5 7c cb 3f 01 ca 3a 8f 13 da c8 3f
       0.21474900956364168 0.19415516370425226
000210 87 cd 53 31 fc cd bc bf 12 aa df ef 9e ce b6 3f
       -0.11251808361321568 0.08909028393069487
000220 ff 65 67 67 5e 17 d4 bf 52 1c 6e f2 16 80 c7 bf
       -0.313926316242572 -0.1835964854946917
000230 e8 41 62 e3 11 0f 7f bf 31 fb b4 a3 a3 7a cc bf
       -0.007582731128551214 -0.22249265187743952
000240 08 17 64 f7 10 7d a4 3f 2c 62 4d 1b 49 1f 93 bf
       0.04001667995366459 -0.018674032489203338
000250 a8 97 1d 2a 1c 1a ba 3f 5e 25 92 f9 9c e8 b3 bf
       0.10196090725147988 -0.07776814549483421
000260 db 35 16 6d b1 56 c2 3f 6f e0 dc e7 52 34 9f bf
       0.14327066256048124 -0.030473037149221612
000270 af 88 ac a9 48 9f b2 3f 1c 02 0f 35 6a 43 c7 3f
       0.07274297850065879 0.18174483862641544
000280 88 a4 8c a9 7d 43 c4 3f 8b 46 4f dc 7c bc b9 3f
       0.15830965784815398 0.10053234461454445
000290 fc 5a 8b 23 8e 8c a8 3f b5 78 c4 1c e7 66 d0 3f
       0.04794735130206182 0.25628068742106375
0002a0 5e b8 af 2a b5 9f ae bf 21 c3 59 1e 19 b7 bc bf
       -0.05981222292017273 -0.11216885558111446
0002b0 b6 69 9f 5a f5 4a bc bf 3e df 16 54 1c 37 c7 3f
       -0.11051877462833812 0.18136934381413455
0002c0 3b b9 68 00 9c f4 b4 3f 5e a8 26 5c 8d e3 c1 bf
       0.08185744295108048 -0.139756841655358
0002d0 f7 d6 ca aa 56 5f b5 3f ad 18 eb 2b c9 db b1 3f
       0.08348600072607924 0.06975991556382395
0002e0 3d b2 66 10 97 c8 c5 bf b5 87 04 57 38 2f ab bf
       -0.17018402386510614 -0.05309463560321551
0002f0 a8 7f 93 69 f6 d5 77 3f 3f 7e 61 6e 4e 8e bc bf
       0.00581928496214338 -0.11154642290920778
000300 fa f4 ed d8 66 90 b5 3f 88 c7 7c ab 38 ee c9 bf
       0.0842346458066067 -0.20258243916901741
000310 d3 7d a0 b2 92 2a b1 3f c4 02 5a a7 e9 f9 b8 3f
       0.06705586300858295 0.097563365323377
000320 30 e4 d4 60 58 c8 a7 bf 52 4e 94 b2 29 92 c9 3f
       -0.04645038778330279 0.19977303714459765
000330 00 cd be 6f b5 76 be 3f 4c c6 be 41 4f 1d a1 3f
       0.11899885156781309 0.03342673947862504
000340 f1 80 85 06 6e 9b b5 3f 27 2b fd e6 50 46 ad bf
       0.08440292033401754 -0.05717709369363027
000350 b9 47 68 d5 59 84 c1 3f 40 e9 4b 14 ea 29 5e bf
       0.13685152931480873 -0.0018410478525639623
000360 9c ce 7d 09 8c e0 cd bf 3d f2 fe 0d 02 08 80 3f
       -0.23341513122033042 0.007827774097557522
000370 72 34 19 8b e9 a5 c0 bf 57 1a 29 a8 fc 6a cd 3f
       -0.13006324092785665 0.22982748232807879
000380 e0 6d da 22 7f 4a ca bf 82 f1 61 c0 48 9d 93 3f
       -0.20539845659082712 0.019154679052449726
000390 06 1b f3 1e 60 49 ca bf 3c c6 df 9d 8d 69 95 bf
       -0.20536424170696693 -0.020910465966102118
0003a0 a7 12 3d 4c 67 04 b8 bf 3d b3 18 31 fb ac a8 3f
       -0.09381719218533623 0.04819474195787741
0003b0 aa 6d 41 94 18 82 a1 bf fb 77 ad 36 03 e7 c9 3f
       -0.034195678804020815 0.20236244363599085
0003c0 5d 4f c5 9d ec be a2 3f 12 aa 65 a4 a0 be b3 bf
       0.03661288667595273 -0.0771274949417278
0003d0 dc 22 37 84 69 fe b9 bf 6d ba 42 7c 89 26 ab 3f
       -0.10153827169336743 0.053028389376199005
0003e0 65 32 31 1d fa 51 c9 3f 5c 12 dd 3a d4 ec a8 bf
       0.19781423974417858 -0.048681862054341635
0003f0 c6 5f 0b 85 49 c5 b3 3f 9a 0b 84 29 bb 28 b8 3f
       0.0772291135612014 0.0943715072972239
000400 6b a3 f8 95 ee a7 da bf 49 fc a2 11 ba bd d2 bf
       -0.41649975438718084 -0.2928300068123844
000410 a9 f2 53 94 c4 25 d3 3f d1 20 bd 9a 97 3c a4 3f
       0.2991801689638956 0.039524781836520646
000420 a8 f7 13 a2 34 54 b0 3f f5 6f b1 26 ce 9f 90 bf
       0.06378487545950284 -0.016234608756676
000430 99 6d 08 d7 d8 c8 b5 bf e6 44 2a 10 02 fa b3 3f
       -0.0850959324820252 0.0780335702386484
000440 ef 85 81 e6 86 09 bd bf da b7 47 90 3f 73 b4 bf
       -0.11342661979281109 -0.07988354942764833
000450 b6 84 8a 82 35 1f cc 3f 5a af ab 54 c6 22 da 3f
       0.21970242380215205 0.40837248104684465
000460 87 6e 22 0a 89 fc c3 bf e5 58 ae 21 f4 22 a0 3f
       -0.1561442660794123 0.031516675101714665
000470 2e 1c 42 76 c7 fa c5 bf 10 16 64 9c 50 43 c4 bf
       -0.17171567224815604 -0.1583042873027556
000480 3a db ca 1b 8f fc b0 bf 7e 7f 22 bc 1c db c7 bf
       -0.06635374477887704 -0.18637427507655596
000490 76 be 40 fd 45 58 a7 bf 71 d4 34 fd 8a 5f c0 bf
       -0.04559534756151333 -0.12791573871223563
0004a0 41 37 de ca 8c ed c2 3f 94 c8 01 1b 9d e3 a0 3f
       0.1478744497839504 0.03298655466723335
0004b0 13 51 51 0f d1 7e 8f bf a4 6e 52 86 4c 95 c1 3f
       -0.015378602294881227 0.13736874159518664
0004c0 c1 ff be 59 0e f2 b5 bf 5a f6 97 49 27 fa a3 bf
       -0.08572473231379175 -0.03901789449080857
0004d0 5b 74 73 fb 8d 2c c2 3f a1 4b 7d b1 38 3f b7 bf
       0.1419846990383203 -0.09080843289602437
0004e0 93 c1 9f fb 07 f5 af 3f 35 29 a3 45 08 fd ba 3f
       0.06241631456930743 0.10542346668367915
0004f0 f7 fa 7b 87 1f e9 be 3f 6b 9d 02 fb 29 95 af 3f
       0.12074467714044688 0.06168490590180905
000500 ce 90 f1 a9 ce e7 c0 3f 7f 66 ce 44 20 fe cc bf
       0.13207419679668536 -0.22650531158142326
000510 1e 35 5e 94 e4 9d c3 bf 7c 66 e6 9e fa e2 cb bf
       -0.15325600857287552 -0.21786434897221685
000520 d1 9f cd b1 71 28 b8 3f b1 8b e8 b9 51 2f ac bf
       0.09436712828539774 -0.05504851717366622
000530 9d 06 e2 6a 7d 5a c5 bf e3 6d c9 96 e6 9f c0 3f
       -0.1668240329636789 0.12987978327406244
000540 29 c1 f2 be b2 f3 b8 3f b4 a7 9c 35 24 90 c4 3f
       0.09746853982756377 0.160648847749426
000550 65 b4 5e 83 c9 27 9e bf e8 d8 9a 5e fb ee c0 bf
       -0.029448650973496266 -0.13229314917925383
000560 e5 6a 97 2b c3 18 bc 3f fd 4f 7d ab f1 00 d0 3f
       0.10975284399266234 0.2500576185896078
000570 d1 d8 50 8a 98 e0 b7 3f dd c7 48 bd f2 86 a9 3f
       0.09327081086016455 0.049857698064797985
000580 e0 95 2a f1 c7 11 b8 bf 08 07 72 54 66 60 b0 3f
       -0.09402131688928916 0.06397094308524853
000590 36 0d 3e 82 b3 01 cb 3f 0f 5d 8a 8a 54 d1 9e bf
       0.21098941668979315 -0.030095406490173334
0005a0 79 1e 0c 58 5b ec b0 3f 54 b6 f5 43 7c 6b c1 bf
       0.0661065187415434 -0.13609269445753347
0005b0 34 92 94 e8 d2 ae b5 3f c7 cd 7b 49 59 c5 9b 3f
       0.0846988504241118 0.027120013341983353
0005c0 7c ce 1d 44 d7 23 c2 bf 79 c4 18 a7 5c 2d c8 3f
       -0.1417187769508138 0.18888433608075042
0005d0 6c 17 03 76 ea d8 aa 3f d6 2b 5d d4 97 63 c2 bf
       0.052436186700602544 -0.14366433972676756
0005e0 ed d6 20 d7 51 9a 98 3f f0 58 11 c0 3a 75 c1 3f
       0.024026182895076898 0.13639006021794087
0005f0 9e c1 df e9 47 05 c6 bf 9c 0f c9 2f 9f b5 c5 3f
       -0.17203616065627342 0.16960515816947186
000600 c3 01 30 e7 88 c2 8b 3f b1 05 71 77 3f d4 c1 bf
       0.013554639392169393 -0.13928979236702113
000610 bc 41 4f c6 ff 72 cb 3f 00 d9 92 dc a3 fa bf bf
       0.21444699462018757 -0.12491821417902216
000620 76 e6 37 df 4f 02 be 3f 6e 8c 39 d2 cc 8e 90 bf
       0.11722277831713676 -0.016169739085296113
000630 76 79 7a bf 9c 0e cd 3f c3 33 0c eb 9c d2 a7 bf
       0.22700843190700554 -0.046528724377004525
000640 6c 05 ff 74 8f 25 87 bf 1b e5 73 05 b1 82 bb 3f
       -0.011302109487476307 0.1074629438698093
000650 9c 22 f2 59 18 cb d2 3f 30 ac c3 42 02 2a be 3f
       0.2936459425332403 0.11782850389470023
000660 6a 41 b1 0d ba 5e ac bf 9c 7a 8a 46 84 16 a8 bf
       -0.055410207911907275 -0.047046788798288136
000670 94 0f 84 3a 82 18 a7 bf ad 4f cf 7d 3f 60 7a 3f
       -0.04510886158280339 0.006439445508437486
000680 69 b2 34 41 97 bb b6 3f 1a e6 26 af c4 cc b1 bf
       0.08879990903796799 -0.0695307662598669
000690 c6 76 b6 44 75 1b b5 3f 57 9d 80 7a a6 75 c4 3f
       0.08245022704655999 0.1598404024273161
0006a0 08 3f e8 cc ef 27 c3 3f af c1 c2 44 44 1a c3 bf
       0.14965627198443365 -0.14923909528216714
0006b0 85 33 39 9f a9 97 bb 3f 7b 5f 58 ea 30 7f b0 bf
       0.10778293740550111 -0.06444078179663208
0006c0 66 e9 ae 77 5e a3 b9 bf 4a c7 a3 dc 79 73 c7 3f
       -0.10014906331972426 0.18321154855180516
0006d0 72 97 59 55 10 1c c8 3f 89 14 9a 51 25 0c be 3f
       0.18835643928030837 0.11737282984002397
0006e0 f9 e9 67 10 e1 49 a5 bf 77 45 8d 5c d3 7b 92 bf
       -0.04157927823321823 -0.018050482295909966
0006f0 f5 30 22 91 93 ec cc bf 2b 51 3d df b4 a8 b1 3f
       -0.22596973978614412 0.06898050737556065
000700 ab 95 1c 28 24 0d be bf 87 c5 9c ed 2e 75 a4 bf
       -0.11738801936424774 -0.03995653772870882
000710 e0 a8 eb e2 db 59 bc bf 29 f8 91 78 0b 04 c0 bf
       -0.110746138477825 -0.12512343775955628
000720 56 1b 3e d9 64 4d a2 bf 0a 8b b2 99 ea 3a c7 bf
       -0.03574671890151275 -0.1814854860759499
000730 b3 52 ab 46 b2 60 c0 bf c7 96 a6 25 78 43 ba bf
       -0.12795093966146495 -0.10259200019080615
000740 6f cd ff 38 e4 e4 9e 3f dc 0a ee a9 20 7e 89 bf
       0.030170026759106457 -0.012447600541923114
000750 c7 2a f0 89 a6 6d c4 bf a8 73 3d c0 28 ed c9 3f
       -0.1595962689901482 0.20255002390595434
000760 28 25 2a a4 0d 07 9d 3f 2c 36 40 7b b5 d6 b1 3f
       0.02834721865159398 0.06968244799664863
000770 a3 43 17 84 0b ad c8 bf 4c 20 a0 64 e0 40 b2 bf
       -0.19278091382741733 -0.07130243736912795
000780 93 f3 6e ab ac 74 b1 3f ce f0 a2 56 4a 1e c3 3f
       0.0681865614451012 0.14936188917443477
000790 73 d8 94 0c 3a 94 c4 bf a3 d6 71 df bb 08 96 bf
       -0.1607735215599778 -0.021517692101460494
0007a0 4b e1 d2 94 56 2f c4 3f f7 5a 7d 7c 8c ae c7 3f
       0.15769464747223547 0.18501430586430676
0007b0 6b 23 a8 22 54 9e b1 3f f9 98 fb 0d 1d c5 9a 3f
       0.06882215353119896 0.026142553308908998
0007c0 5f 80 c7 91 0d ab a5 bf 67 1e fb 62 9d 11 bc 3f
       -0.04232065586597921 0.1096437803890865
0007d0 cd 8f 47 5f 45 56 7d bf ee ba a1 36 a5 c8 b0 bf
       -0.007162352547741291 -0.06556160529883545
0007e0 61 77 de 59 a5 e7 c1 bf 21 bf 6e f7 26 78 db bf
       -0.13988177192816934 -0.42920850909557556
0007f0 44 df ee e2 30 80 d4 3f 44 a0 be bf 70 d8 db bf
       0.3203241554397105 -0.4350854752069646

layer1.bias f8 [128]
000000 1f cc 22 a4 55 31 c3 bf 5c 34 7f 84 36 fa 55 3f
       -0.14994307054948394 0.0013413936994653075
000010 ac f9 53 74 ce ac b4 3f f1 be a6 88 db e2 9c 3f
       0.08076181736030347 0.028209142890488207
000020 f1 15 a6 0f bb 25 b7 bf bf 47 bf 1b 32 09 c6 bf
       -0.09041947490739922 -0.17215563158839406
000030 d2 be ab 1f 1d 9d bb bf b4 70 9f 3b e2 d4 b8 bf
       -0.10786611579146246 -0.09699834781298727
000040 57 a7 78 3d 18 d2 b2 bf 50 36 d9 d5 f4 33 b0 3f
       -0.07351829052700275 0.0632927915659931
000050 8c 60 62 31 cd 26 d7 bf 59 c9 48 6c 3a 32 b4 3f
       -0.3617432577389159 0.07889142173443044
000060 ab ef 03 bc d5 b0 aa 3f fd c8 19 17 96 51 b1 3f
       0.05213039322003906 0.06765115798933503
000070 de 28 22 69 64 9d bc 3f ea 45 27 ec 64 5e b4 3f
       0.11177661482557563 0.07956534162010312
000080 c9 bf 78 02 95 f3 c1 bf 48 00 00 a5 49 55 84 bf
       -0.14024603481948208 -0.009928298328304788
000090 69 fe e3 da fa ed 82 bf 0e cb f5 43 32 17 ba bf
       -0.009242973141680726 -0.10191644820387699
0000a0 df c7 f1 08 de e7 ba 3f cc c8 76 ff 43 37 a4 bf
       0.1051005145871211 -0.039484143194742666
0000b0 0e d1 59 a1 75 d3 c6 bf 34 6e 2d 10 31 75 c1 bf
       -0.17832823160609518 -0.13638890542903115
0000c0 7b 75 be b2 c0 d7 c6 bf e5 31 10 fa 9a c6 c5 3f
       -0.17845925071462063 0.170123455144121
0000d0 cb bd 66 72 ed d6 d0 bf 29 4d 06 62 1d 39 b6 bf
       -0.26311813518529154 -0.08680900233439516
0000e0 bf c7 10 5e 24 a0 c5 bf a8 ea 49 e9 50 25 a6 3f
       -0.16894964783710795 0.04325344894183064
0000f0 b8 59 ec 34 96 81 b1 bf 76 d8 39 eb 9b 09 b4 3f
       -0.06838358680793177 0.07827162258931417
000100 1d 81 b5 85 8e 8b ba bf 3a 17 12 ce 02 b7 c1 bf
       -0.10369196667079845 -0.13839755117458613
000110 65 ea 38 a8 99 3d c2 3f 92 44 58 2c 47 44 a5 bf
       0.14250488962155142 -0.04153654495542826
000120 c0 cb 3a 5e 2e e0 bd bf a0 51 77 77 5e 7b c1 bf
       -0.11670198250321473 -0.13657742341332568
000130 75 f4 11 a8 b3 34 c6 bf 23 37 42 90 4b 9d c5 3f
       -0.17348333078908565 0.16886276763801175
000140 dc 08 a5 27 0b 1b c6 3f e4 0f 38 58 df 86 ac 3f
       0.17270030437254646 0.055716495055122356
000150 11 27 73 4e e2 fc c0 bf ac f1 e7 4a 4c ef 56 bf
       -0.13271740751798025 -0.0013998265309274989
000160 cf a4 59 bf 84 85 b1 3f 43 2c b8 4a 5e a0 c1 bf
       0.06844358131060634 -0.13770655296716158
000170 fb ad c1 63 cb 36 6b 3f e6 c2 b5 05 31 5d b9 bf
       0.003322026486832772 -0.09907823933987067
000180 c7 61 95 31 c1 b2 c5 3f 2b ba 0e 4b eb a5 b7 bf
       0.16951765938826055 -0.09237547476252732
000190 d5 68 8e 24 7d 71 ca bf 0e 16 72 d8 2b 1a b9 3f
       -0.20658840451216656 0.09805559191053012
0001a0 b4 e1 19 30 eb b1 88 bf e5 04 1c 4a 37 31 bb 3f
       -0.012058102994374355 0.10621972617447602
0001b0 68 cc d4 8f 61 28 c1 bf cd 38 86 70 50 62 9c bf
       -0.13404483340272866 -0.027718788974703302
0001c0 38 98 f5 cd 20 35 9c 3f d8 db 95 35 06 23 c6 3f
       0.027546417780648563 0.17294385544275204
0001d0 78 8e 77 8f 15 7e dd bf f6 92 21 a0 05 af b4 3f
       -0.4608205700917334 0.0807956233925998
0001e0 6e 37 36 03 5a 27 c6 bf 8b 94 1e e9 6b 6d 8d 3f
       -0.1730759158785377 0.014368861247769501
0001f0 9a e8 18 f8 44 f6 cc bf 78 c6 fa 4f b3 bd bf bf
       -0.22626554597974718 -0.12398834898592692
000200 75 2f 47 57 7e 4f c5 3f 1f b1 c2 1e 8e ba 9c 3f
       0.16648844968437584 0.028055401446793412
000210 74 cd 56 ae 84 fc c3 bf c3 1b 4b cb 0b 38 c2 3f
       -0.15614374649667762 0.14233539034304785
000220 ae b2 d9 04 1c e6 bc bf b3 a5 5a 24 34 8a bf 3f
       -0.11288619154374643 0.1232025707964997
000230 54 e1 c4 0d f9 c2 94 bf 8f af f1 e5 70 70 b4 3f
       -0.020275012460133482 0.07984071363324417
000240 8e ad 69 7b 5f 76 8f 3f 38 8f 23 7c 5f e3 c6 3f
       0.01536249728561392 0.1788138729235642
000250 0c 1a 14 50 b9 2e a0 3f 17 6f 85 58 56 31 bc bf
       0.031606474900446185 -0.11012782727396729
000260 5e ad a1 c5 ff 6d c2 bf 04 57 1f fb 22 cd a3 3f
       -0.1439819064138232 0.03867444339236495
000270 14 19 24 f4 f3 53 b0 3f ae 42 f2 6b cf 9e 74 3f
       0.06378102026437588 0.005034265747909812
000280 a5 65 c2 a4 ec d5 c5 3f 7e dd d8 6a 01 9f c4 3f
       0.17059095425501627 0.1611024638857365
000290 0d 8a 7f ef 7d b2 c6 bf 54 33 9d b9 fb 0b a1 3f
       -0.17732214159248408 0.03329455033108411
0002a0 16 63 70 08 b0 2f b0 3f 74 9f 8f e9 62 9d c9 bf
       0.06322765546827855 -0.2001155510363294
0002b0 87 69 83 c7 3b 0d b0 3f 82 ef 31 92 50 2b ba 3f
       0.06270192738467105 0.10222343033995965
0002c0 c7 9c 64 3f 71 11 c1 3f 8d 9c 6b 14 de 77 96 3f
       0.13334479899751825 0.021941633221015656
0002d0 13 cd 72 6b 9d a1 b3 bf 30 d7 b6 b0 dc c3 c8 bf
       -0.07668479798558207 -0.1934772360670478
0002e0 60 dc 22 cf 26 f5 9c 3f 0a 04 7b 2e 65 62 ac 3f
       0.028278929131115738 0.05543819610966956
0002f0 03 ed f7 c4 9a 9b 64 3f a4 4f ee d2 ac 7d c8 bf
       0.002515604290008634 -0.19133529948578343
000300 35 f0 0b db 26 1f a9 3f f4 49 27 35 b1 f9 bf 3f
       0.04906579421910388 0.12490375087444489
000310 d8 af 42 2f 45 21 a2 bf cf 46 03 9d 40 86 bf 3f
       -0.03541008188162181 0.12314227898903173
000320 83 4a 9d 5d 83 fe ab 3f ce b1 70 29 5a d6 c1 3f
       0.05467615621332291 0.13935400985191254
000330 0f d5 f3 c8 d5 45 c0 3f a4 b9 69 7e 46 34 c2 bf
       0.12713119804508508 -0.1422203175784037
000340 df 31 e7 cb f4 a5 af bf ff f1 59 7e e7 95 a4 3f
       -0.061813020601764405 0.04020617883086074
000350 25 ad 63 64 dc b2 a8 3f 06 75 12 d3 af 5c 9c bf
       0.04823960042434753 -0.02769732213765954
000360 39 aa 11 d9 88 f4 b4 3f 68 d6 83 6e 0c fa b8 bf
       0.08185630130325529 -0.09756543825263864
000370 f6 50 3c 9e c3 92 a7 3f 9c 56 8b 3c 68 96 c5 bf
       0.046041596475477606 -0.16865256267799544
000380 be 38 0a a1 74 14 c0 3f cd 20 35 a8 69 54 b7 3f
       0.12562425483014822 0.0911317859328193
000390 11 88 bb 28 1d 88 b8 bf 14 54 bf 99 2d a4 c5 bf
       -0.09582693333098315 -0.16907281882473113
0003a0 42 f8 b2 2d 06 d0 b1 bf f8 e1 b4 c0 d5 0e c6 bf
       -0.06958044639301966 -0.17232772740841518
0003b0 bd 5a 93 d4 45 06 be bf 3e 83 ba 14 88 13 9a bf
       -0.11728321494897904 -0.025465132012530527
0003c0 35 0b 0c 2d 59 d3 b5 3f 89 42 84 d0 ec 3d c2 3f
       0.08525616979390523 0.1425148027560861
0003d0 03 4b d0 a3 fc 5a dc bf d6 98 71 0c 43 cd b5 3f
       -0.44305339810777883 0.08516329816629606
0003e0 f1 a4 0e 50 e9 88 c3 bf f8 5a cd 2d 1b 71 8c 3f
       -0.15261570366900615 0.0138876078942025
0003f0 5c a5 c6 0d 8d f1 bd bf cb 38 4e 03 9e d2 97 bf
       -0.11696702562644162 -0.02326437850165845

custom_layer.beta f8 [128]
000000 4a 7d 69 76 b7 9d dc 3f 11 28 64 2a 01 15 f7 bf
       0.44712626041105763 -1.442628064718978
000010 99 e4 f5 35 6c 9b 09 40 a2 c0 a6 d6 bd c6 f1 3f
       3.2008899894395424 1.1110208878344925
000020 0a 9c bc df 82 0a e1 3f 91 1e 72 db 3e 36 f0 3f
       0.5325331086977496 1.0132435390568484
000030 a1 80 43 d5 06 20 f5 3f c5 c1 15 4a d2 43 e0 bf
       1.320319016515022 -0.5082789847347661
000040 28 9f 3c 3a 5c 89 e3 bf 48 77 16 c4 c8 6c d3 bf
       -0.6105176103055543 -0.30351466321177556
000050 b9 b5 07 79 6b 75 f5 bf c9 d0 6f b3 2d 87 f0 bf
       -1.3411669471491747 -1.0330025681733324
000060 e9 64 42 29 67 91 f1 bf 4b 16 58 a0 55 51 bd 3f
       -1.0979987727826546 0.11452231564188613
000070 23 83 4a d2 ba 85 e6 bf 39 b1 88 34 16 2a b6 3f
       -0.7038244349715551 0.08657969267432443
000080 f5 8a 8d 8a f2 7e f1 3f 72 51 59 57 d8 94 af 3f
       1.0934930240843503 0.06168247286101093
000090 a2 2c fb 5d b0 11 be bf 18 8e 46 2b 1f a5 d2 3f
       -0.11745741171323457 0.29132823206075065
0000a0 aa 3c 3d 1b 46 80 e9 bf ff 43 e1 ca 35 51 fa 3f
       -0.7969084293380508 1.6448266911504559
0000b0 cd cc f2 1b 07 68 fc 3f fc 5a e9 89 b0 05 06 40
       1.775397404836258 2.752778127130453
0000c0 d1 4e 06 75 10 a8 c4 3f 4e 59 79 8b 02 bc d0 3f
       0.1613789149674774 0.2614752161074606
0000d0 c8 c5 c1 e9 b3 6b d8 3f 3f 8a 8c 12 bf f4 c8 3f
       0.3815736563475096 0.19496906667434818
0000e0 ff 8a 13 96 ce 79 d7 bf 80 6f 15 0f 3d 63 f0 3f
       -0.36680950790302796 1.0242281521995835
0000f0 7b a6 63 f2 66 bf f6 3f ab c5 93 5c c7 86 e9 bf
       1.4217290371256286 -0.79770248490802
000100 97 c9 3b f2 91 12 f6 bf 62 7b a3 c3 7f 5d ca bf
       -1.3795337164161532 -0.20597836544672093
000110 97 e3 ff 56 4b 3c ce 3f 43 df 1d 6b 26 6b f5 3f
       0.23621503589654644 1.3386596855397819
000120 b1 c0 4c 24 d1 6c ab bf 36 b2 27 af 1f 7f d2 3f
       -0.0535645825206087 0.2890090189455664
000130 6a d4 2b f2 04 b0 d2 3f e7 a7 fd 88 22 06 95 3f
       0.29199336671383114 0.020531215296990892
000140 18 c2 1f 31 09 a3 d5 bf 13 64 73 c4 12 5b b9 bf
       -0.33807592198630365 -0.09904591842804704
000150 3d 1b f8 8b af 19 c8 3f a8 84 3e aa fd 76 ef bf
       0.18828386625701823 -0.9832752537805804
000160 cc 9c 97 56 5b ed d2 bf 33 8b c2 3c 90 ae d6 3f
       -0.2957371087672527 0.35440450604999113
000170 b5 71 05 7d a4 24 f0 bf 4f 41 77 09 c9 10 e6 3f
       -1.008945930828401 0.6895489869003003
000180 ec 7e 9b 83 68 22 ee bf dd 8f a9 3d 7e b8 f2 3f
       -0.9417002268273484 1.1700422676740267
000190 8e 55 57 dd 5b a8 f2 3f a8 d7 5b 0c 2b dd cd 3f
       1.1661032339228288 0.2333120165200715
0001a0 ff 38 c6 d9 76 0e e4 3f a2 f9 95 f1 51 7f ec 3f
       0.6267656567959249 0.8905420034860081
0001b0 9f fb 28 27 d2 a4 c4 bf 4a 5a 42 2e 04 60 f4 3f
       -0.16127993499864332 1.273441487026178
0001c0 38 9a 8a 73 f9 34 f6 bf ef 96 35 eb ef 05 e5 bf
       -1.3879332078301 -0.6569747537548362
0001d0 17 67 ee 29 12 72 00 40 2f 9d 29 87 aa 9d dd bf
       2.0556987071876267 -0.4627481765696357
0001e0 14 56 56 e4 b7 63 f9 3f d1 5b 22 70 36 fc af 3f
       1.586845294897448 0.06247110480142449
0001f0 5f 62 c5 04 1c 0d e2 bf 9d 7f c4 c9 d1 12 f0 3f
       -0.5641002743896698 1.0045946008249083
000200 1c 34 09 8b a2 21 f3 3f 72 fe d5 4f 5e d9 eb 3f
       1.1957116538135386 0.8702842292113486
000210 37 dc e5 2b e6 8d 03 c0 b1 62 ff 77 1d d8 c4 3f
       -2.4442866735003252 0.1628453098226337
000220 d5 ed 33 e5 98 be db 3f 5c 70 f3 7d 43 c7 f8 bf
       0.43350813277330974 -1.5486483497579888
000230 f5 16 50 d9 18 31 f4 bf 40 41 10 b3 21 b1 dc bf
       -1.2619865883620467 -0.4483112572352361
000240 1e a9 74 62 85 12 c8 3f b5 41 03 90 84 a2 d3 bf
       0.18806521708877083 -0.30679430068723984
000250 7c bd f9 82 22 5c fe bf 2e f8 0a c0 2c 8d e7 bf
       -1.8974938503486944 -0.7359832526051429
000260 e1 58 46 02 32 d5 c9 3f ea de d8 d1 a4 03 f4 bf
       0.2018187056643859 -1.250889606204448
000270 a6 74 29 e6 a0 81 d2 bf d5 bf 55 60 d7 ee d7 bf
       -0.2891618964839132 -0.3739527169009283
000280 71 a4 5b 51 50 97 f1 3f 55 5f b7 ba d0 de e2 3f
       1.0994418314023984 0.5896991392901137
000290 e3 35 89 12 cb ea f8 bf 73 27 6d 98 e9 8e cf 3f
       -1.5573225711881313 0.24654884283728115
0002a0 4a 0d a8 e6 a2 6d c4 bf 43 88 0f 15 b8 1a f4 3f
       -0.15959583532831295 1.2565232107813393
0002b0 13 75 3f 4d ec c0 d9 3f 62 de 2d 91 f4 a7 ea 3f
       0.4024000887273626 0.8330023608713868
0002c0 3f c9 63 24 46 32 c5 bf a2 f2 4e 6c 44 5c f2 3f
       -0.1655967405018348 1.1475261908337093
0002d0 ea 04 56 e3 dd 75 e8 bf 85 21 61 35 b2 ef e0 3f
       -0.7643880310207838 0.5292597811285736
0002e0 c9 fa 32 a5 86 b1 c8 3f c9 7f d1 96 f2 bc f7 bf
       0.19291766229976862 -1.483629788526729
0002f0 d8 05 68 c7 f6 99 e7 bf d2 d7 33 4b c1 59 be bf
       -0.7375444311766683 -0.1185570534324534
000300 3a d5 fc 50 c4 55 b2 bf a6 1f 2e ef 92 c4 f8 bf
       -0.07162119843709017 -1.5479916899657638
000310 7f be d5 76 c1 b5 a0 bf 4a cb e7 54 a0 f6 e9 3f
       -0.032636686092584626 0.8113557489690291
000320 5e 70 07 0c a8 19 ea bf bc b3 26 0c 65 b8 ca 3f
       -0.8156318888609453 0.20875228017157876
000330 34 41 ce 8b 80 c5 bb bf 9d 11 ed d6 3b 34 c7 3f
       -0.10848239339089077 0.18128154749332462
000340 18 00 1c b1 54 c4 d7 3f fb 8b c7 c4 63 dd 97 bf
       0.371358082731605 -0.023305472264734544
000350 46 84 9d c3 4d f9 f6 bf 20 1d bb 16 e5 0a d3 bf
       -1.435865177271141 -0.2975399705869268
000360 ad 9c 76 d9 80 87 f9 bf 10 6a 03 8a 4b 02 f1 bf
       -1.5955818648015268 -1.0630603209634764
000370 30 27 8f 84 df 6e f5 bf 11 6d b0 b0 fa 5f c1 bf
       -1.3395686319440294 -0.13574155452156636
000380 05 3c 70 38 a6 c5 e6 bf 11 67 96 56 41 69 04 c0
       -0.7116271116555032 -2.551394154038356
000390 7c 3b 1d b2 cb 00 f3 bf 0e a8 58 a5 ba d5 f2 bf
       -1.1876942594132904 -1.1771799525108722
0003a0 48 52 e0 4b d8 38 d2 3f 36 35 d1 48 92 fe de bf
       0.2847195378283556 -0.48428780661636794
0003b0 ab ba dd a6 ac a6 da 3f 85 41 2a 85 e4 b4 de bf
       0.4164229993392989 -0.4797908115806638
0003c0 89 38 a7 98 6e f8 e3 3f 4f ab b8 55 1f 3e f3 3f
       0.6240761739261568 1.2026666019907741
0003d0 6f 92 66 16 a1 2b 03 c0 70 2d e9 27 b5 69 e1 bf
       -2.3963033437778942 -0.5441537646778851
0003e0 96 5c fc 72 ec dd f1 bf 3b 06 b9 2e c6 3e e4 3f
       -1.1166805736191114 0.6326628601602303
0003f0 fb 07 c8 8a 72 aa b5 3f dd 46 28 df c9 aa c0 3f
       0.08463207138268551 0.13021205326417987

custom_layer.gamma f8 [128]
000000 b4 86 c7 89 33 e7 e0 3f b1 cd 22 6f 9c 1c d1 3f
       0.5282228175166979 0.26737128117675996
000010 d5 c3 5d d6 11 8c f0 bf 9f 2a 3e 4a c2 0a e2 bf
       -1.0341966985399627 -0.5638133478217532
000020 c5 d8 c6 56 13 c8 ab bf 9a 31 66 6f 71 45 00 c0
       -0.05426083025251808 -2.033907766634184
000030 a2 f8 2b 14 23 45 ca bf fd 8c 05 17 05 6a fc bf
       -0.2052348946089682 -1.7758837603840327
000040 f8 9c 60 ec 6d c3 cc bf 25 26 fa ff a7 15 d8 bf
       -0.22471403161873815 -0.37632179258125326
000050 bf 9e 79 f3 9b 08 ee bf 5a 0a fb 7a 60 bc f3 3f
       -0.9385509257671955 1.2334904483729106
000060 50 a6 64 03 dc 81 e3 3f cf 39 3d a1 cc 60 e7 bf
       0.6096019808075628 -0.7305663251116189
000070 aa 57 aa 69 d8 72 ea 3f f4 71 a8 fb 2d 70 f0 bf
       0.8265192092683169 -1.0273876028433024
000080 e1 b7 ed 5e 2a 7d fa 3f 84 24 bd 53 49 d7 ea 3f
       1.6555579860828333 0.83878008227579
000090 76 57 d3 c9 ef 62 eb 3f ca 9d ab 77 7e 21 cb 3f
       0.8558272306351984 0.21195965617446993
0000a0 ff 6f e6 37 85 08 e3 bf 92 a0 f4 41 52 df d2 bf
       -0.5947900859641776 -0.29488045159315235
0000b0 8d e6 33 be 31 1a f0 bf 5b 97 24 f0 00 37 e0 3f
       -1.0063950948519136 0.5067143144885721
0000c0 af a6 b6 5c 50 45 d8 3f 19 d1 84 a9 e9 14 da bf
       0.37923058561373585 -0.40752641253063043
0000d0 e1 53 bb 57 b4 28 fc 3f 19 18 ff 95 26 52 e5 3f
       1.7599376132031852 0.666278164827193
0000e0 85 87 bb 0a 54 dd e7 bf 7b cd c8 da 78 ae e2 3f
       -0.7457676133746963 0.5837978623516585
0000f0 a7 8c 4e bc 99 d8 db bf 4c 6d 14 0f 63 7e c7 bf
       -0.4350952471670077 -0.18354452358549123
000100 49 02 e7 92 44 53 e1 3f 6b 74 65 df 89 97 dd bf
       0.5414145344912608 -0.4623741799931113
000110 c2 2a 16 ed 9e 54 f6 bf 94 b0 e5 bd d2 3f ef 3f
       -1.3956593762583656 0.9765409192018688
000120 04 7f ca 2e dc c3 e1 bf 66 08 ba 73 68 06 04 40
       -0.555158702267335 2.5031289139888484
000130 42 99 7f dd b8 9e e5 bf 32 6c a0 8b 0c dd 05 40
       -0.6756252599850898 2.73293408473321
000140 d8 f5 31 28 fa 52 03 40 6e 6b 1c a0 34 9c cf 3f
       2.415516199135464 0.24695451562805765
000150 43 c4 d7 a8 db a2 f6 bf 43 a4 5d 66 e5 5c f6 3f
       -1.414760264913881 1.3976797102607328
000160 37 81 b1 63 a4 2b f8 bf ff 9d 38 b6 1b 9a d0 3f
       -1.5106548208496642 0.2594060210708164
000170 23 6e b4 1d ae 51 0b 40 15 ee 87 bd ab 6a e2 3f
       3.4148828812301573 0.5755213453080069
000180 04 b8 1b e3 7d a9 fc 3f 36 57 65 00 63 7c f3 3f
       1.7913798209588103 1.217867852732025
000190 78 d9 70 2e 8f e1 d5 bf 6b bf 62 14 f7 c0 da 3f
       -0.341892047264444 0.4180276583747317
0001a0 0a d9 89 43 c3 e7 e2 3f ee 2a a1 ad a1 96 83 bf
       0.5907913512335494 -0.009564650641683294
0001b0 27 2b e3 f8 2b ce cf 3f 55 74 5b 1d 96 3e df bf
       0.24847936299041715 -0.48819496981542915
0001c0 55 45 38 f6 ce 55 e5 bf c0 3a 71 08 c3 48 df bf
       -0.6667246636372207 -0.4888160307354319
0001d0 43 96 4f c2 c0 26 c3 bf 80 5f 3c 3c ab ab f6 bf
       -0.14962014663540132 -1.4169113495790668
0001e0 89 c7 9d 4c 50 82 ea 3f fd b8 3d b0 b1 d6 de 3f
       0.8284074303066841 0.48185388766331966
0001f0 99 29 53 c2 8e 5d e3 bf a7 84 50 8e dd 20 f0 bf
       -0.6051706118972106 -1.0080237921868418
000200 bc fc 22 69 27 7d f4 bf c4 13 64 c6 95 4d f9 3f
       -1.2805551630879526 1.5814416646619387
000210 36 15 b9 73 76 90 c2 3f 76 e1 58 91 03 23 e0 3f
       0.14503365183387879 0.5042741621792135
000220 50 f5 dd 55 a1 7c ec bf 17 ab f3 ba ce 9b e1 bf
       -0.8902136494722672 -0.550269475117008
000230 72 9f 5d 59 8a 57 d7 3f 3e 10 19 fc b7 ab c9 3f
       0.36471804358597304 0.20055293855159734
000240 2f 05 1a f4 50 c5 01 40 36 45 e4 fb d1 e4 d8 bf
       2.2213458128395795 -0.38896607970044117
000250 15 c2 75 9e 34 cf f0 bf c3 67 3e 19 ad ce de 3f
       -1.0505872907489266 0.48136451211177816
000260 0a 8f 57 df 5e de f4 bf 05 ce 2f aa e0 8d f0 3f
       -1.3042896961496262 1.0346380851668766
000270 71 45 63 d8 1a 74 e6 3f 68 16 ef af 32 bd bc 3f
       0.701672957069759 0.11226193232786275
000280 fd 6a 9e 41 f9 11 ea 3f 22 38 c7 b5 17 c0 d4 3f
       0.8146940499894694 0.3242244029214608
000290 fd 65 61 0c 67 35 ac bf a2 85 d4 56 6b 49 c9 bf
       -0.055094928990637705 -0.1975530790305529
0002a0 50 22 28 f1 95 bf f0 3f cb aa ed a1 53 ce 9c bf
       1.0467738552271335 -0.028130823858570502
0002b0 ac 41 ac 04 88 98 e6 bf 08 f5 09 43 03 04 f1 3f
       -0.7061195460574274 1.0634796732622949
0002c0 ff 19 66 c7 1b b6 f1 3f b6 16 c9 41 28 40 d8 bf
       1.1069600857750854 -0.3789158480106879
0002d0 51 59 56 ac e0 89 f0 3f 14 20 86 01 f8 d7 ce bf
       1.033661530678348 -0.2409658439103174
0002e0 bd b7 34 b7 ce e6 e8 3f 4a df 61 67 77 69 ea bf
       0.7781747415772241 -0.8253743189988907
0002f0 09 f0 f7 00 bc 02 e7 3f 44 b0 36 de 98 02 c1 bf
       0.7190837878147259 -0.13289175844454537
000300 58 98 99 56 66 18 d0 bf c6 77 71 2b 5c cf da 3f
       -0.25148924309758547 0.41890625231269174
000310 bc d9 d9 43 02 c2 fb bf 82 21 77 dd 35 91 f7 3f
       -1.7348654413632252 1.472951760386508
000320 d9 6e 0b 6f f7 e5 f1 3f fe da 04 af 91 bb da bf
       1.1186441743547475 -0.41769830791183427
000330 6a 89 07 3a 48 ed f3 3f 30 0b d6 9f 39 5a 01 40
       1.245430208852293 2.169055222243877
000340 50 30 04 f5 f8 da f1 bf 3a e3 36 c8 cb b9 fb bf
       -1.1159600802375458 -1.73286035736801
000350 d0 8b 59 2f e0 cf ee 3f c7 dd bb 51 5f a1 d3 3f
       0.9628754544067935 0.3067243860418469
000360 f5 42 5a 24 94 75 ca bf 79 29 41 26 a9 a9 ca 3f
       -0.20671321654346966 0.208302634886717
000370 e5 c8 24 5d 9f 47 f3 3f ab 2b c6 37 12 f8 f7 bf
       1.2049859655785948 -1.4980642489124232
000380 6d 42 79 c0 78 87 f0 bf 00 cc b4 38 ef 6c f3 3f
       -1.0330741423132637 1.2140953269088186
000390 d9 70 f0 5b ac 03 db 3f 09 00 cd 77 ab 52 a6 bf
       0.42209919908942833 -0.04359947049533736
0003a0 86 9b 13 19 fb 01 ef bf 0a 46 dc e1 11 87 e7 3f
       -0.9689918031480012 0.7352380191170493
0003b0 48 2c 52 6d a1 f5 dc 3f 6e be 3b 7c a1 75 fb 3f
       0.4524921004855895 1.716218457495326
0003c0 4f 08 44 90 f6 b2 ea 3f 54 af 05 2f fc 27 d6 3f
       0.8343460862818207 0.34619049636852606
0003d0 2c 5e 7a 33 28 6c 02 c0 82 9d aa 0d 3c 9a f2 3f
       -2.3028110524862964 1.1626549276205371
0003e0 3e 6e f2 51 dd 49 eb 3f b7 d5 6d 72 a2 4a e8 bf
       0.852766666462635 -0.7591106638853294
0003f0 db f7 47 9c fc 52 d5 3f 07 a3 0b 35 62 70 f7 3f
       0.33319010984257397 1.4649374076927317

layer2.weight f8 [128, 128]
000000 da e4 83 8e 04 0f ac bf 11 16 e5 35 a3 60 c1 3f
       -0.054802076718212425 0.13576164371095037
000010 5e d6 54 d0 d4 4e ab 3f 08 f7 c0 04 ac 69 a0 bf
       0.0533358101187502 -0.03205621297864353
000020 14 00 04 7b ef 37 bb bf 5f 20 a1 d7 f1 e0 a5 3f
       -0.10632225755034624 0.04273181683726145
000030 0b a5 11 a4 9e 5a a5 3f a7 34 20 9d 84 d5 9f 3f
       0.041706998374886416 0.0310879441167812
000040 08 da 3f 1a 8d 1d b1 bf 28 09 89 6b 5b 89 9b 3f
       -0.06685716524939533 0.02689116329043731
000050 14 70 8a 0b e2 47 b0 bf 14 bb fe 36 27 ec cb bf
       -0.06359684736020227 -0.21814432320885457
000060 f1 14 76 d0 14 76 a6 3f 27 8f ff fc 8d 11 a8 3f
       0.04386963886921958 0.04700893128736388
000070 34 b8 b0 69 93 23 a5 bf ff cd fd c9 f7 ad bb 3f
       -0.04128704705395628 0.1081232898848654
000080 ae 1e 06 96 6c 20 b1 3f c6 84 f0 f3 65 30 c1 bf
       0.06690100348179825 -0.1342894974814383
000090 d3 b8 bf 8e d6 a9 a2 bf 71 d3 70 8a 04 11 a4 3f
       -0.036452011990932974 0.03919233503294251
0000a0 47 59 85 54 d7 48 a9 3f 7f 3f ac 9a a4 92 97 bf
       0.049383858745090374 -0.02302033609436149
0000b0 b6 d1 43 64 f4 07 ae 3f b0 3f 27 52 f1 69 bc 3f
       0.058654439200754124 0.1109915566987627
0000c0 74 12 25 c0 c1 43 95 bf 8a 0d 46 92 35 f0 b5 3f
       -0.0207662843252074 0.0856965524781598
0000d0 6c 45 3f 01 a1 da bb 3f a7 da 7f aa 40 90 a1 bf
       0.10880476265380928 -0.03430368500987884
0000e0 53 e1 90 27 43 82 a0 bf 72 80 47 3b 2b cc c6 3f
       -0.0322438226507439 0.17810573954102754
0000f0 f5 08 00 ce f4 a5 c7 3f 68 1c 28 81 48 f5 7d 3f
       0.18475208338356422 0.007313998432898129
000100 82 df 09 98 cd 00 c1 bf 78 f4 4c 69 a2 43 a3 bf
       -0.1328370087028326 -0.03762538466842441
000110 de a4 5f d9 99 eb aa 3f bb 0f be d7 cf e4 b8 3f
       0.052578742775787765 0.09724139229916677
000120 07 85 17 ae fa 33 a8 bf e2 25 53 7d 37 4a d7 bf
       -0.047271569968652165 -0.363904831302163
000130 53 b0 78 56 63 01 a3 3f aa aa e5 c1 6e 16 8e 3f
       0.037119964891048206 0.01469122437693689
000140 e1 4e 12 ed 05 04 a8 3f 17 93 32 02 2d e3 aa 3f
       0.04690569418849378 0.05251446391893049
000150 74 90 e6 7c 50 02 a5 bf e2 f1 95 a1 64 d8 91 bf
       -0.04103328251520191 -0.017427036631021305
000160 d8 4b e4 64 f2 ce c5 bf f0 d0 8d cb 26 10 c1 3f
       -0.1703780167232185 0.13330540599020635
000170 0f 57 69 18 e2 f9 c6 3f 06 d6 7c b8 0c b8 9a bf
       0.17950082962004685 -0.02609271884940336
000180 b9 7d b8 48 15 f7 d0 bf 46 9e 19 fd ba 88 90 3f
       -0.26508075811031123 0.016146585176470184
000190 b7 db b4 ad c5 b2 8a 3f f7 bd 87 6c 56 3f c0 3f
       0.013036293376542092 0.12693290995910875
0001a0 4f e2 af 47 b2 fd b9 bf e8 c0 31 ad 12 a6 b1 3f
       -0.1015273499505238 0.06894032219293289
0001b0 09 7a 8b e8 a2 81 b6 3f 86 15 40 d2 0f f4 b8 3f
       0.08791559388507876 0.09747408755364093
0001c0 e0 5a 80 1f 55 e0 c6 3f 33 a6 39 05 9c dc 88 bf
       0.17872108495858807 -0.01213952914186498
0001d0 67 45 e4 f9 b3 0f af bf 98 8e ae fd cc b9 a6 bf
       -0.06066667962489696 -0.0443862971945041
0001e0 ea 34 03 cd 69 10 be 3f eb af 38 86 7d 09 b8 3f
       0.11743794684589984 0.09389481093302236
0001f0 67 ad a5 66 bd 90 c0 3f 0d ff ff 15 95 b7 ca 3f
       0.12941710960454175 0.20872748922555964
000200 42 22 1a 33 d4 fc b1 3f 7c 6c e7 9e 91 05 93 3f
       0.07026411292657378 0.01857593090413133
000210 d3 08 ed 11 61 97 bc 3f 30 4e 7e 6c b6 19 b2 3f
       0.11168486297268325 0.07070484303249525
000220 e0 c4 6c 1c 5d 47 b4 3f 71 d7 5a c4 ef 57 99 bf
       0.0792139238735845 -0.024749513968991225
000230 ee 27 ee b7 e6 c8 c5 bf c8 1a 8f 35 25 8d a2 bf
       -0.17019351941081545 -0.036233103549923096
000240 db 0d 29 53 63 57 d1 3f f1 4f c1 3e e5 9a b0 3f
       0.2709587394822088 0.06486351759059496
000250 8c da 30 1a ef 10 c0 bf 15 a1 70 84 06 22 9e bf
       -0.12551678446626047 -0.029426671823018575
000260 06 cd 25 d0 91 12 ac 3f 01 68 96 2b 0a e2 ae 3f
       0.0548291746698855 0.060318296261542066
000270 71 16 44 51 00 a4 b8 bf 37 33 df 6c ec 9f 9d 3f
       -0.0962524603274575 0.02893037237645332
000280 05 3f 17 9e 39 9f 91 3f 72 33 94 d9 d2 53 c6 3f
       0.017208957933518416 0.17443309425325598
000290 60 e9 95 21 27 60 b5 3f 22 65 17 a9 1a 40 b6 3f
       0.0834984261509013 0.08691565159042061
0002a0 85 cc 54 81 90 cb af bf 23 5e 7e 52 73 e3 b0 bf
       -0.06209994868040617 -0.06597061885838022
0002b0 4a b8 24 9c b4 df c0 3f cc 17 9b 70 c3 6e c8 3f
       0.13182695030394803 0.19088023184138903
0002c0 7e d6 f6 7c 27 c9 92 bf 47 3b 2a 26 c4 64 bb 3f
       -0.01834546756955157 0.10700632030259981
0002d0 7f ef 9f 81 9a 8c 9a 3f c6 d5 84 c1 ce 2d 9b bf
       0.02592698494116474 -0.026541929780440808
0002e0 33 e4 7a 59 ae d3 bb bf 5c 01 f4 68 8c bc bb bf
       -0.10869874653407478 -0.10834577143032703
0002f0 0f 40 b9 62 20 c4 b8 3f 5e cc bf c6 2c a7 bb bf
       0.09674265299076999 -0.1080196366527146
000300 26 28 2c cc b6 f8 7d 3f cd f8 f0 8d 39 52 a6 bf
       0.007317270329403802 -0.0435960756080803
000310 e9 94 3d 35 c1 ba 97 bf 52 14 b4 9b d4 2c bc bf
       -0.023173350214524744 -0.11005905915597339
000320 b3 54 75 67 0a b4 bd bf f8 9a 32 32 0e 34 bb bf
       -0.11602845216596584 -0.10626305318383433
000330 20 46 c5 95 3d 72 ac bf 23 18 71 78 4b 88 9c bf
       -0.0555590863538209 -0.02786367342584851
000340 9d 02 b0 7c 12 8f a2 bf d5 e6 fe da b8 2f 82 bf
       -0.03624780437531181 -0.008880085166186028
000350 1c 7e d7 1d 15 dc c0 bf 26 ee 21 25 24 4f a1 3f
       -0.13171638447873668 0.033806924374371314
000360 64 03 2f 36 c4 70 6c 3f 9d 14 ef e7 54 1e ac bf
       0.003471739984405907 -0.05491891223167864
000370 fc 64 0b e7 23 f9 ab bf 47 a0 c4 e8 4b d6 91 bf
       -0.054635164216685767 -0.017419038850818216
000380 3d e0 7f 24 88 88 9f bf 08 0a 3c 71 61 4f c4 bf
       -0.030794265010598777 -0.15867250470189753
000390 0c 11 75 b1 dc 71 9e bf aa 0c f8 4c b8 88 a4 3f
       -0.029731224375852114 0.040105590243933634
0003a0 3f 5e 36 ee 44 d4 8b 3f 00 ff b8 da b5 56 c0 3f
       0.013588465232529432 0.12764619045082526
0003b0 4c f9 97 19 20 b1 98 3f 3f 0d 9e 0b 8d 11 b5 bf
       0.024113179742920196 -0.08229905637386013
0003c0 71 e2 e6 49 83 b3 9d bf 5e bc 4a c5 15 12 8e bf
       -0.02900509966431958 -0.014682931979534238
0003d0 0f 75 db e4 4c c4 b7 bf a5 f7 85 93 32 09 bc 3f
       -0.0928390558942349 0.10951534368174849
0003e0 4c 6a ed 5d 6a a9 7d 3f 98 d2 33 66 3c dd ac bf
       0.007241645332067902 -0.05637539622867854
0003f0 0c 04 79 d1 06 ea 4f 3f 46 71 da c3 ed 77 a3 bf
       0.000973943070626261 -0.03802435889994853
000400 9f 55 94 4a 5e 9b b1 3f 34 2f b0 d6 25 99 6b bf
       0.06877698250567342 -0.0033689250026379906
000410 56 a8 9c d4 3b da 7b bf a5 9e fa 61 2f d2 b2 bf
       -0.006799920762015152 -0.07351966993393917
000420 23 06 51 99 34 d3 81 bf d8 ba 07 21 3a 51 b1 3f
       -0.008703623703811897 0.06764567667390098
000430 17 22 f7 3e 3c 85 91 bf 4b da 95 fc fd e0 c2 3f
       -0.017109814971066308 0.14749121506948124
000440 f6 d5 5b 27 37 a6 ac bf ed b3 04 fe 9c 23 a8 3f
       -0.055955623201878454 0.047146707542516576
000450 a7 74 88 bf a6 72 b0 3f fd e7 5b 63 be 15 86 bf
       0.06424944091891636 -0.010783660323330219
000460 06 9a eb a2 3b d7 88 bf 17 71 51 04 82 ac 99 3f
       -0.012129274281915247 0.025072127831991056
000470 bd 9a b9 60 80 97 96 bf ca 83 a6 99 7a 10 79 3f
       -0.0220623072658792 0.006119231135387213
000480 8b f3 f2 00 6f b9 ac bf 82 b1 78 65 17 25 a4 bf
       -0.05610224615654776 -0.03934548486390367
000490 2b a8 1a 63 26 2a a3 bf dd a4 f9 86 f7 ee 78 bf
       -0.03743095359580225 -0.0060872715981556665
0004a0 23 2c 83 d1 af 62 aa 3f 13 5d 12 ce d9 b5 ac 3f
       0.051534170460932914 0.05607491150402146
0004b0 b2 95 20 57 3a 1d a0 bf 8a 51 ae 40 e1 6f 7f bf
       -0.03147299111905556 -0.0076750563556696825
0004c0 35 b6 1f 1d a7 24 65 bf 89 07 04 5a da de 80 bf
       -0.002580953973839307 -0.00823755824285734
0004d0 60 87 76 0b ce 84 bb 3f b3 4d f4 da 34 1f a2 3f
       0.10749519138201213 0.035394336440869444
0004e0 18 b1 67 6d c4 35 91 bf 6b 13 07 12 58 92 a8 bf
       -0.016806668450883938 -0.047991516304626135
0004f0 c8 e5 93 f2 6e fa 8c 3f 5f 3b b6 95 35 62 a4 3f
       0.014149538782009766 0.03981177761590148
000500 8b df c0 20 fa f8 a8 bf 63 6b 87 c7 d8 15 b2 bf
       -0.048774544237345806 -0.07064585563004537
000510 d9 f8 33 1a c6 fd b1 bf c4 89 35 c6 cd 04 a5 bf
       -0.07027853145334308 -0.04105227512879453
000520 fc ec 1b 6e c3 c5 8d 3f 00 20 ba a8 c8 c9 c7 3f
       0.0145373599984766 0.18584545363069083
000530 8d 9c 59 7c 66 32 b2 bf 20 fd 6f 74 13 e6 c0 bf
       -0.07108154807939311 -0.13202136216566718
000540 cb 76 a1 35 ef dc 95 3f 74 68 6d 65 5d 8f b5 bf
       0.02135061039768153 -0.08421882368330263
000550 65 3c 78 15 12 11 a7 bf da 13 4d d4 dd 22 c1 3f
       -0.04505211364823295 0.13387654176963687
000560 94 c4 c2 f2 57 63 a3 3f 77 fe 66 04 c6 a6 95 bf
       0.03786730612171954 -0.0211440029322589
000570 1f 0c 79 a5 dd 22 a1 3f 80 b4 fb 2a 94 87 82 bf
       0.03346912999088424 -0.009047658502334466
000580 5f a1 5a fb 9c 79 69 bf 40 0e d7 db a6 ba bf 3f
       -0.003109747510127089 0.12394183032216066
000590 5d fa 71 6b e5 08 a1 bf 5c c4 2a de 33 4e 8b bf
       -0.0332709973963474 -0.013332753388882228
0005a0 3f 54 4f 80 61 1c b7 3f f3 f4 f1 b5 9f 9d b2 3f
       0.09027680761876498 0.07271764938373675
0005b0 82 04 f1 d7 19 01 b0 bf 87 bc 8e 2d 5d c9 61 bf
       -0.06251679918297451 -0.0021712131387726127
0005c0 d2 44 76 d0 63 02 b8 3f 74 23 73 f7 08 3f a4 bf
       0.09378646697429652 -0.039543419080991266
0005d0 f0 7a 4e 00 76 94 a9 bf fe a1 54 33 5c 44 b9 3f
       -0.04996079210035542 0.09869934323490523
0005e0 4a c6 0e 2d a1 f8 9b bf 27 9c 7d 9c ad 7e b2 bf
       -0.027315634131531298 -0.07224545546124315
0005f0 52 91 32 8c 57 a9 a9 bf bd 61 8c a9 dc b9 96 3f
       -0.050120101798969544 0.02219338211861709
000600 ad f6 a6 97 2a 9a 97 3f c7 fa 50 c1 31 07 b8 bf
       0.023049035554996312 -0.09385977716099624
000610 c2 f8 68 18 33 cd 6e 3f 06 c7 28 ab 4a 41 b0 3f
       0.0037599561649407096 0.0634962718839028
000620 5c 52 d9 2a 5b 42 91 bf 9a 61 1c e7 13 14 a2 bf
       -0.016854691019334886 -0.03530943103959601
000630 dd 89 39 87 5c 2c b3 3f a9 66 34 ba ca 64 6e 3f
       0.07489565183053722 0.0037101706999579
000640 e6 98 f8 96 d9 38 c1 bf f3 01 74 4b 57 0b a7 bf
       -0.1345474230922214 -0.04500839992579477
000650 64 e8 32 ba 52 d1 94 3f c2 9d ec ce 4f c1 98 bf
       0.02032975446193354 -0.02417492580857839
000660 12 d6 b7 7d 0e cd 64 bf 79 23 ad 90 7e 6a 64 3f
       -0.002539184859183371 0.0024921867347171248
000670 8c 58 e0 63 94 71 c3 bf ed b9 33 f1 f9 1a 98 bf
       -0.15190367581152875 -0.02354040655785099
000680 79 19 9d 8a ca 05 b8 3f 9c 65 9c 88 2f 2f ab bf
       0.09383836635706712 -0.05309437315572582
000690 5c df 17 d0 d9 02 80 bf a6 95 54 50 00 bb b3 3f
       -0.007817937529565881 0.0770721622580682
0006a0 31 1e 4b 96 23 2c a6 3f e5 07 d9 5e 75 64 a6 bf
       0.043305503937116525 -0.04373518736657881
0006b0 4d cc c2 f0 71 1a 9d 3f 8f 71 ff ab 81 65 9a 3f
       0.028421192474251723 0.025777841685213295
0006c0 9f 87 fc c9 5e 45 82 3f b3 a1 ab 16 e6 66 82 3f
       0.008921375788819406 0.008985326353880696
0006d0 7d 03 3b 87 b1 70 b4 bf c9 1e 23 d8 6d 39 a7 3f
       -0.07984456588293472 0.045360024103101866
0006e0 2a d4 bd e9 d1 ad b6 3f ee 28 94 1b b0 e6 a3 bf
       0.08858978230075878 -0.03886938416151674
0006f0 be 0d 2b 37 d3 34 99 bf a9 b3 9f 39 b9 fe 91 3f
       -0.024615574114035026 0.01757325567443827
000700 a1 48 74 97 9a 09 ae bf a7 62 2b 0d 15 05 97 3f
       -0.05866702174002226 0.022480324677277477
000710 1f e6 f1 7e 4e 39 b8 3f 8a 33 70 7a 2b 71 a0 bf
       0.09462442969552186 -0.03211341733558644
000720 cd b4 79 91 31 29 a3 3f b4 ae 32 b0 f4 88 b7 bf
       0.03742365742514551 -0.09193352987011388
000730 95 f1 e8 86 c8 30 a4 bf eb 9a 84 41 c7 4b a7 bf
       -0.039434687107561185 -0.04550001787929666
000740 37 a5 98 fa 85 01 b0 bf f1 fa 1f 96 b4 16 b3 bf
       -0.0625232445533087 -0.07456520714911698
000750 f1 8b ee 6d 75 c7 22 bf 93 41 00 06 ee f9 a6 bf
       -0.00014327343430151033 -0.044875562889617936
000760 6c fe e6 4b 07 89 a4 bf 5b 61 6e 98 c5 87 aa bf
       -0.040107944503230936 -0.05181710706455319
000770 ac e9 c9 c2 03 33 b0 bf cf 16 58 09 f4 fe b3 3f
       -0.0632784224089053 0.07810902813079255
000780 5e 51 d8 d9 b6 a8 96 bf 2d 4a 7f 14 ef 4d b9 3f
       -0.02212796883220968 0.09884542704029604
000790 94 93 c6 41 70 a0 bb bf 0f 38 15 26 bb a3 97 3f
       -0.10791684728481094 0.023085521888155876
0007a0 fe 1a dd 32 e9 87 b4 3f ca 75 83 e8 85 3c 92 3f
       0.08019883624829657 0.017809002224444183
0007b0 eb a8 78 85 9a a9 be 3f 86 d9 06 5a 34 ba 81 bf
       0.119775445543073 -0.008655938146017627
0007c0 1c eb 00 24 7a 68 b5 3f 4c ec e1 eb 14 94 a6 3f
       0.08362544421190105 0.044098523897411285
0007d0 23 6d d6 fa 17 46 a5 3f d6 44 fb 1e b6 03 b1 3f
       0.04155039727194267 0.06646288162598366
0007e0 45 51 89 52 b4 39 58 3f e9 59 72 f0 f5 cd 98 bf
       0.0014786015473378805 -0.024223177719784692
0007f0 de f3 cd 32 43 42 bb bf 21 39 87 2d 68 c8 b2 bf
       -0.10647983541816994 -0.07337046729592035
