COLA_Emulators/PCE/wCDM_PNN_HIGH/MODEL_Z1.824.pth (torch, 192382 bytes, 10 tensors)

layer1.weight f8 [128, 25]
0	0xbf711bc00bcbfa55	-0.00417685525894614
1	0xbf80a6ac8476524d	-0.008130405228066762
2	0x3fa983363a2386c6	0.049829191777246915
3	0x3fb1122d4c35758d	0.06668360815588965
4	0xbfd1eab3ed8ff125	-0.2799501247352672
5	0xbfc9733c053774bc	-0.19882917647092835
6	0x3fc82dd247ee9914	0.18889835846238923
7	0xbfca45b50e3029ae	-0.20525229637889936
8	0x3fbbae71f504006b	0.10813057166888178
9	0x3fa57b1db30dcea6	0.0419549256393144
10	0x3fb75c971aa70474	0.09125656510060925
11	0xbfba0b898439e432	-0.1017385433023186
12	0xbfc246f94006e73f	-0.14279094339672757
13	0x3fb43a7a581d6ffa	0.0790173020481574
14	0x3fc8231259aaf1a5	0.18857030275638667
15	0x3fb55121912c07b9	0.08326921266782862
16	0xbfc24cfc9f31dc2d	-0.1429744508093064
17	0xbfabbd3947b72a46	-0.054178037647564056
18	0xbfa4f40095a76161	-0.04092408968762374
19	0x3f937e81e8007d4e	0.01903727510955138
20	0xbfbde82186a7e5a5	-0.11682328736778531
21	0x3fc4c98948473091	0.16240039853289948
22	0xbfbccd6c096d926b	-0.11250949125457914
23	0x3fa163ca1f705d63	0.03396445878768863
24	0x3f96320a05a55126	0.021675259203520224
25	0xbfc056d81fa28b5e	-0.12765027565645942
26	0xbfb624ec9af669a5	-0.08650091918244714
27	0xbfc02ca438440b70	-0.12636234996179097
28	0xbfe3762f19f46340	-0.6081767565657188
29	0xbf9462f37b6acdf5	-0.019908718498028184
30	0x3fb6d984cea29f04	0.08925657315068852
31	0xbfa674a025b14026	-0.04385853252517817
32	0x3fcad18936a0ea63	0.2095195309392067
33	0xbf9af050ef040739	-0.026307358349192376
34	0xbfdc64260e7fe34e	-0.4436125890347754
35	0xbfce4caf2e4792ff	-0.23671521911378332
36	0xbfc5a408e25e7e0f	-0.16906844189814804
37	0xbf9363d7ea18b049	-0.018935559905159747
38	0x3fd341313170393b	0.30085401370969905
39	0xbfd20daabe827c38	-0.28208416561568894
40	0xbf8bb8b7d62af0e7	-0.013535915587788284
41	0xbfb9d5ad75b90153	-0.10091671108330517
42	0x3fc4e588f1a1fe33	0.16325485037303764
43	0xbfb540172c1ec705	-0.08300919367937006
44	0xbfa27c63ebb4bbae	-0.03610527279157992
45	0xbfa9fecb29a7f269	-0.05077204593178381
46	0x3f9b2d01a1b22ebb	0.026538873190061745
47	0x3fbe9f1500b5ef6a	0.1196148993239469
48	0x3f872abef74acdc7	0.011312000200041873
49	0x3fc568030df5efd5	0.1672366922538219
50	0x3f72ec9ffd33c1fd	0.004620194394405972
51	0xbfad65d2b1498ed6	-0.057417472974319914
52	0x3f83ae773f50c459	0.00961011087392387
53	0xbfc7307d6e77d4dd	-0.18116729635190768
54	0xbfb35e77b789517e	-0.07566021185750135
55	0xbfc6dd6da40ecd6f	-0.1786324549735627
56	0xbf788bcd8f5bc694	-0.005992701500632375
57	0x3fbccba203f3f831	0.11248219105252201
58	0xbfcfa695d60a5f59	-0.24727127982327593
59	0x3fe1612eca84615e	0.5431131320392912
60	0xbfe33deaf1d5f0e7	-0.6013083194116263
61	0xbfb2af68fea451d5	-0.07298904625742549
62	0xbfd5a130afa19b30	-0.33796326781741737
63	0xbfd788ce6aa8b742	-0.3677249948112725
64	0xbfc56979b45d6074	-0.16728135401604372
65	0x3fccab82cba117d2	0.22398409788928447
66	0xbfcc0c46a9ea26b9	-0.21912463471044477
67	0xbfe02b94560e4928	-0.5053197556283395
68	0xbfd9318bb6390383	-0.3936490325468684
69	0xbfb3433ce5f9b078	-0.07524471869118254
70	0xbfc822516a1917a1	-0.1885473030144427
71	0xbfc22fa58abfd634	-0.1420790603148575
72	0xbfbffe1a75b51b7a	-0.12497105954854063
73	0x3fcc87bedeb38fc9	0.2228926265153162
74	0x3fdd6a0960091ee7	0.45959696176986004
75	0xbf8eaa735a7946b1	-0.014973546217479013
76	0x3fc3cef04600b0c7	0.15475276392078838
77	0x3f9d5e6020e9aa81	0.028680326470218013
78	0x3fce8b8b5c4a5582	0.23863355642667378
79	0xbf892a6e0335ca9c	-0.012287959549870657
80	0x3fc7b5c9b0cf4de4	0.18523522504129553
81	0x3fbed1eb784eafa1	0.1203906220168265
82	0xbf6a7881d97bfb1f	-0.0032312904476151784
83	0x3fc2a87540213cf7	0.14576593047465966
84	0x3fac067a61f5c024	0.05473692365455943
85	0x3fc17dd35eb68b1e	0.13665239452992578
86	0xbfd015f9079846f7	-0.25134111158068556
87	0x3fbb6200a2645dba	0.10696414913797173
88	0x3f8ba3b02fb08e0c	0.013495804267285492
89	0x3fc9b6a36356297e	0.20088617659014213
90	0x3fd0ebfa9402de01	0.26440300420969726
91	0xbfbd38ad12e351b6	-0.11414605818874332
92	0xbfd219e4d5bd59e5	-0.282830437402849
93	0xbfcbe5ad8ab61994	-0.21794671319021275
94	0xbfa3b17fd8e7953a	-0.03846358797799572
95	0xbfcefe4ceabc20a4	-0.24213563405669902
96	0xbfb9ae7ca0c1f6b9	-0.10031870770213915
97	0xbfd5314cc78c82be	-0.33113402831262906
98	0xbf8694c7c7aff63f	-0.01102596357486185
99	0x3fb4f2b5985aaf63	0.0818284508665648
100	0xbfad825bef600494	-0.057635186167325575
101	0x3f88dd193b35ffe0	0.012140462035631516
102	0xbfc6fd249d68732b	-0.17960031209886415
103	0xbf9e369e1af4fb0b	-0.02950522460491371
104	0xbfabd65167412684	-0.05436949143820605
105	0x3fb076a4b1f2f7b0	0.06431035370311977
106	0xbfac4a69ff0550d7	-0.05525523412748761
107	0xbfb420d064315e46	-0.07862570234407781
108	0xbfd06603f18bd2a3	-0.25622652615065017
109	0x3fa74efec52e6d26	0.04552456051825464
110	0xbfc81637f3ce3ebf	-0.18817805676052576
111	0x3fc10a6cd47577f1	0.1331306493183884
112	0xbfb545c28c09fc45	-0.08309570235177073
113	0x3f8135d8e3e03ab6	0.008403486685009436
114	0xbfb8f8c3c269d607	-0.09754584785863339
115	0xbfb02baef8142613	-0.0631665568982032
116	0xbfbce617ed376164	-0.11288594762243559
117	0x3fca114f258a82de	0.20365323384341755
118	0xbf9ad67ccc54c140	-0.026208829852465643
119	0x3fc6c2bc89953806	0.1778178855697094
120	0x3fc975171fd4f064	0.1988858132771184
121	0xbfbb9b56181ebe34	-0.10783899392003421
122	0xbf570e90d699bbbe	-0.0014072813450203138
123	0xbfb28329dde242b4	-0.07231389681897832
124	0x3fb133c68c5e92cb	0.06719628264415715
125	0xbf91023adc1fb015	-0.01661006897477087
126	0xbfb9a45f45dfac75	-0.10016437011624808
127	0xbfb25c7e001c31d4	-0.07172381880463458
128	0xbfc5ff36659f104a	-0.17185096704463582
129	0xbfbf9ff224375956	-0.12353433021721591
130	0xbfd0e0b0f3225e09	-0.2637140631063351
131	0xbfc4f77f64cdb70a	-0.16380302831697008
132	0x3fa3fa42b18f4395	0.03901871125675097
133	0x3fc76cac12a93b47	0.1830039111250363
134	0x3fb8cee674d48f82	0.09690704681685072
135	0xbfd1df921932ed74	-0.27927067242463655
136	0xbfb7e8e78b9d4475	-0.09339759024193646
137	0x3fdccc4a8ac24cb3	0.44996894407922666
138	0xbf82c0c728cf96c0	-0.009156757290792128
139	0xbfb9dd9cebbadf0c	-0.10103779559255716
140	0xbfb571c237cdfa85	-0.08376706945817076
141	0xbfb79183cb58ada7	-0.09206412996780121
142	0xbfd5b4f53145d8ac	-0.33916978656578567
143	0xbfacf2174dcfc7aa	-0.056534507988444574
144	0xbfa6398a8ddcaebb	-0.04340775472368593
145	0xbfd04d7cb5aa6c36	-0.25472944012443877
146	0xbfc52611997a3e6c	-0.16522426599520956
147	0xbfbc24234cbe4bfc	-0.10992642043702
148	0x3fbb056986eab67c	0.10555133384579024
149	0x3f8d94a0d5e1231e	0.014443642165262779
150	0x3f91effc339937f9	0.017517033242533817
151	0xbfbd1891ef41a9b1	-0.11365615931723629
152	0xbfb13f2951323624	-0.06737001640632251
153	0xbfd586bc27d879f4	-0.336348570739488
154	0x3fca4544b5d8c80b	0.20523890380133056
155	0xbfccce9c230be3de	-0.22505523406269295
156	0xbfaf8f3f3f80bab0	-0.061639763356983734
157	0x3fbd860200fd5f98	0.11532604717410633
158	0x3fccb38f64559df7	0.224229740134646
159	0xbfb34ffac9d6f808	-0.07543914249160377
160	0x3f72e6af64b6c115	0.004614529734155566
161	0xbfc327a219f9a1a5	-0.14964700954739132
162	0x3faeca001aa0d4c6	0.060134890795248405
163	0xbfd0750cd7039dcd	-0.2571441745517092
164	0x3fc0e660fb584803	0.13203060410211273
165	0xbfd136a5f591349e	-0.2689604662053372
166	0xbfaac7c1373ddb77	-0.05230525779091171
167	0x3faa997f85d42891	0.05195234783794079
168	0x3fa8ada7e9c29ae0	0.04819988945501108
169	0x3fc8615926cec8c9	0.19047083277616242
170	0xbf36e4c2ad7125df	-0.00034932854527322353
171	0xbfd0b3de4b429d79	-0.26097829198484807
172	0x3fa1e76bf077c342	0.034968731979353254
173	0x3fc598e39ce70ff2	0.1687283054471887
174	0x3fc51a44981cc475	0.16486413409578274
175	0xbf84a14598f17e6c	-0.0100732266711809
176	0xbf91b635ad317088	-0.01729663724505362
177	0x3f7eb4dfe6c5cc51	0.007496714224873705
178	0x3fc839234b2e80b1	0.18924370928744375
179	0xbfbc3a98bdc93b12	-0.1102691138596408
180	0x3fd83241bfb1dc87	0.3780674335498095
181	0xbfd3d6a47653fcf5	-0.30997573428608344
182	0x3f8af4f6a713d157	0.013162543271825795
183	0xbfa3be6c084f22c5	-0.03856217957906475
184	0xbfe0dbe59ef6feaa	-0.5268428902417857
185	0xbfa358eca6b0e332	-0.03778781447221603
186	0x3fd2941fddc5c52d	0.290290800642725
187	0xbfa1d251c81f8168	-0.03480773513706731
188	0x3f9365d94aa25f6c	0.018943209820093385
189	0x3f8cfcd5d1e584a2	0.014154119937929647
190	0xbfd163dd9434840a	-0.2717203090015238
191	0x3fbe74dce2f20bd8	0.11897068539296585
192	0x3fcefd67e3ae0c2e	0.24210833184415165
193	0x3fcb4c3f6b23acf5	0.213264396013393
194	0xbf890aa2eae58641	-0.01222731856677506
195	0xbfc08eaf915ec3e8	-0.12935442541268505
196	0x3fd2571803dbb7b5	0.28656578423294415
197	0x3fd4592d19874969	0.3179428815175443
198	0x3f8ad058284d3e26	0.013092697839652234
199	0x3fb029c4ef1bb8ba	0.06313734853367495
200	0xbfb728a8bf76c1b7	-0.09046415972148379
201	0x3fc78994ff12bb09	0.18388616995567755
202	0xbfbdacf77bee9cd7	-0.11592051292119564
203	0x3fd004d8099d151b	0.2502956479914517
204	0x3f553baa558e3cd2	0.001295963613504193
205	0x3fc1c8edef78e8fe	0.13894437973960544
206	0xbfd54d1d21789183	-0.3328316523423142
207	0x3fbd5b963982499e	0.11467875389124635
208	0x3fcd10b2acbbeffb	0.22707208093913764
209	0xbfcc91c3f3568964	-0.22319840795268953
210	0x3fb37ed6ee8514f5	0.07615416835058737
211	0xbfb0a9a549a84309	-0.06508858726762069
212	0x3fa282e22aa2c1f7	0.03615481157737926
213	0x3f7572594ac6111d	0.005236004636007399
214	0x3fcde1c70f53c45e	0.2334526848640363
215	0x3fb17d4a75d799ec	0.06831803681379939
216	0x3f95b295a0a867b2	0.021189058237815757
217	0x3fd1a38f7b921599	0.27560793940969003
218	0x3fd0c85215a13d8a	0.2622266017178495
219	0x3fc43607f5ab6747	0.15789889808257326
220	0x3fa56cb34e91c413	0.041844943371764164
221	0x3f7f89f6be394663	0.007699931945880675
222	0xbfd4e540e7c8861b	-0.32649252543532875
223	0xbf915db04f3e1780	-0.016958956562596494
224	0xbfce2a71919dd3ed	-0.23567027673894306
225	0xbfb3241c370f88d0	-0.07476974815611759
226	0xbf83780a96df1f96	-0.00950630448268423
227	0xbfb832b4b1d62738	-0.0945237096949797
228	0x3fa81179844fa60b	0.047008321191082635
229	0xbfc9a4783ef20817	-0.20033171723849882
230	0xbf821ea6d9f381bc	-0.008847526098578189
231	0xbfbe750e32d89c79	-0.1189736246238783
232	0xbfa7d9e3f76f1ca6	-0.046584247545575594
233	0x3f85b267454d42a9	0.0105941837333899
234	0xbfc714ab74d30973	-0.18031829075159642
235	0x3fbe8b45af39a97e	0.119312625197983
236	0x3fb5184e0f11a7e3	0.08240211360831
237	0x3fbf4e6093ad2166	0.1222896919763393
238	0xbfcc52fa227a3945	-0.2212822597834451
239	0xbfbe59c67b5cff84	-0.11855736266897848
240	0x3f91b15ee2588fbd	0.017278177800235762
241	0x3fb96fd21216cd9c	0.09936249677303127
242	0xbfc3988654c273d9	-0.15309218538905503
243	0xbfa6e94c1d66c7b6	-0.044748667325066036
244	0x3fc5d2e3c16a8bfc	0.170498341981414
245	0x3fc91a5456948cb0	0.19611601092865305
246	0x3fb411bb4a9d3ced	0.07839556285511025
247	0x3f95ceee4a1fc364	0.02129719092767192
248	0xbfa4ca67bf471989	-0.04060672960217732
249	0x3fc1edb780ee7b27	0.1400670413540521
250	0xbf76aebd5ab50848	-0.005537738480883965
251	0x3f7dd8b80ba4a1e5	0.007286757400188003
252	0x3f9f704fc1aeae48	0.030701872059280683
253	0xbfc83e2df3f19940	-0.18939756785693795
254	0x3f9c8bd1d7b6642e	0.027877119818729472
255	0xbfc2710db69006cf	-0.1440751210612263

layer1.bias f8 [128]
0	0xbfb35a4f606dc408	-0.07559677223413541
1	0x3fd622b3ca5ccf95	0.3458680607029632
2	0x3f9701840fb1e754	0.022466720064108728
3	0xbf9ad3885f7addd3	-0.026197558238633633
4	0x3f86f95cd714c1f6	0.01121780902266865
5	0xbfe66023dd55c9da	-0.6992358515693085
6	0xbfc425671809011e	-0.15739144013969847
7	0xbfd2b612c18cb4fd	-0.29236287022906976
8	0xbfda12cac76baa50	-0.4073969790903549
9	0x3faab4243790dedc	0.052155620367953154
10	0xbfeb97ef7a283636	-0.8622968088035978
11	0x3fbc75ebd8e5e4e4	0.11117433591234122
12	0x3fcbd6814ff35ace	0.21748367694700338
13	0x3fb166abf2ad6a05	0.0679728953813666
14	0x3facca0bfafe7d48	0.05622899474041759
15	0x3fb52c232e6e256a	0.08270473369170409
16	0x3fbfc2bd21b18268	0.12406522820084265
17	0x3fab27c9c2aa42d2	0.05303793431551686
18	0xbfb7f3e3bedac254	-0.09356521043333405
19	0xbfb9bdb4ca353ec2	-0.10055093704908827
20	0x3fb203cef49cdfe6	0.0703706118773649
21	0xbfc22f5c9bc7f252	-0.14207036596771389
22	0x3fc6259c877bd3f0	0.1730228101293103
23	0xbfe144d9098f9478	-0.5396542727218181
24	0xbfc50eb31b00617a	-0.16451109713012696
25	0x3fc916049576cebf	0.19598443315554978
26	0xbfe311c856a804cd	-0.5959207241541208
27	0xbf6de3b528f8e50d	-0.0036486185342964384
28	0xbfc42380cf73b1d6	-0.15733347062577135
29	0x3fd6ab9309b85230	0.35422206830233716
30	0xbf80d8c1c133c24e	-0.008225930889666302
31	0xbfb46c0e110b8c9d	-0.0797737876524018
32	0xbfcd6ef2704bdf56	-0.22994833453389657
33	0xbfc3c1f6c28009cc	-0.15435680863454448
34	0x3fc09a52f1b6095f	0.12970959474848606
35	0xbfd48eca5d0b9de0	-0.32121523939573926
36	0xbfbcd4a25106d7d1	-0.11261953809920945
37	0x3fd0bc257f20a082	0.26148354925909
38	0xbfb66cd8d0402124	-0.08759837230912076
39	0x3fb7d5d2a460fe08	0.09310642731815488
40	0x3fd5a59f076ac433	0.3382337162429991
41	0xbf7b3d1c9c9e13bb	-0.006650077595513555
42	0xbfc8887b453304c8	-0.191665085591046
43	0xbfb25b468dbc6569	-0.07170525513028782
44	0x3faf8d3227de6220	0.0616241143863514
45	0xbfb4a67c83f3b89c	-0.08066538068280454
46	0x3fe74833ffe33769	0.7275638578227986
47	0xbfd424fc02410411	-0.31475734920610515
48	0x3fbdf959aac376e5	0.1170860330489308
49	0x3fba8860dfc56c90	0.10364346945918812
50	0xbfb37d6aefa889d1	-0.07613247252496726
51	0x3fb72e7bf15848c2	0.09055304186066152
52	0xbfc4be9415dff4d1	-0.1620659930048647
53	0x3fe9625bbd50b810	0.7932566354336377
54	0xbfc00f7fbe3538f5	-0.12547299182410368
55	0xbfbe194c5f414938	-0.11757352185785386
56	0x3fcb5fba57170079	0.21385888340410356
57	0x3fc61d48ce54b7ce	0.17276868891479896
58	0xbfe79118e48707a3	-0.7364620650698622
59	0x3f9672be8bdbdb23	0.021922089849762415
60	0x3fbfba8747ef8859	0.12393994814149902
61	0x3fb6df2359d9937b	0.08934231704331623
62	0xbfe75d44b544f125	-0.7301353016296487
63	0xbfc684ee5c84a69e	-0.175931735205542
64	0x3f76d13b07b360ad	0.00557063158631636
65	0xbfb5867d81afa5f2	-0.08408340850987608
66	0xbfc776cbbdfc3d93	-0.18331286217333495
67	0x3fd15bf6fdf9b149	0.27123808672219646
68	0xbfb38de2b45fdc2a	-0.07638375190423177
69	0x3fb3fbe5d35b154a	0.07806240472844653
70	0x3fd1eb42e093e0c6	0.2799842064992045
71	0x3fb1afbaa7c0022b	0.0690876636072139
72	0xbfd16478d07e9b5f	-0.271757320030181
73	0x3fc2b99b14bd7e63	0.14628923905091815
74	0x3fdcb86dc0f3493d	0.448756636074126
75	0xbfc206bcbe4eb220	-0.14083060543397696
76	0xbfc40736daacfca0	-0.15647016217733256
77	0xbfb7e5126bec6245	-0.0933391107067872
78	0x3fbfa3bb5acf2c05	0.12359209982894022
79	0xbfa6694e2d706f5f	-0.04377216629674651
80	0x3fdc1913377e8626	0.4390304605422862
81	0x3fc0bb78b56528c9	0.13072117669282182
82	0xbfdedcb2ee9e8a29	-0.48222039511361686
83	0x3fa1d547039c9ee2	0.03483030242051456
84	0x3fbfed80d3044f5c	0.12471776153352948
85	0xbfd964d8b198c655	-0.3967801794379729
86	0x3fb54730a8289fa5	0.08311752419888181
87	0x3fd57d2d5d926eaf	0.3357652105130268
88	0x3fab7eab61fa65e5	0.05370078631421985
89	0x3fd4867e8fbaebb5	0.3207088855376086
90	0xbfcbefaccfb7f763	-0.21825180189619706
91	0xbfb8d5f989905a90	-0.09701499565594873
92	0x3f9ca3b2fb1a0cfd	0.02796821267703552
93	0xbfb6233454ce642c	-0.08647467680420168
94	0x3f943ed7af1865ee	0.019770975172013587
95	0xbfcb61e580da9224	-0.21392506400765499
96	0x3fa57ef044f88fd6	0.04198408929758528
97	0x3fb0ffd207d8f9db	0.06640351001349336
98	0xbfa52ddd2ee3b486	-0.04136553952580706
99	0x3fd785c7f2693099	0.36754034684123266
100	0xbfa3f666c21fd656	-0.038989268490621384
101	0x3fca269ed81b5825	0.2043036036690761
102	0x3faddafaa55a7f77	0.05831130283809121
103	0xbf709f6baa6f194f	-0.004058285302511357
104	0xbfa4019326298f87	-0.03907451477860407
105	0x3fa4bd773c59f773	0.04050800906860177
106	0xbf9f7036ce1becc9	-0.030701500253582013
107	0xbfbec93389ae9a1d	-0.12025758849504382
108	0xbfe08cdd7d4c1615	-0.5171954581462069
109	0xbfe08266b4076e0c	-0.515918113345323
110	0x3fa9ab581d1595a3	0.0501353774550737
111	0xbfbec2f5a0a45aad	-0.12016234561847723
112	0x3fd6249eb0de2af9	0.34598510048151315
113	0x3fed29d3f48fc681	0.911355950984401
114	0xbfc562b2885b15a8	-0.16707450540540703
115	0x3fb5654eddeae514	0.08357708852681284
116	0xbfac87f751451d74	-0.055724838896419465
117	0xbfd44e655c88c32d	-0.31728490864320485
118	0x3f8f8c5d0bad72eb	0.015404440802450256
119	0x3fd684189184fb9a	0.35181249819646043
120	0x3fcf55b9aba2bcb1	0.24480362778328904
121	0xbfbdd375b6735933	-0.11650787071571216
122	0xbff5e637c7e5ee26	-1.3687055405160975
123	0x3fcb0e655aa62a8a	0.21137682844376499
124	0xbfb3bd6e32d4f21c	-0.077109229478943
125	0x3fa5498d1d11719d	0.04157677631221477
126	0xbfbd8b019c5a3974	-0.11540231768797132
127	0xbfcad13c56e76e8d	-0.20951036685334082

custom_layer.beta f8 [128]
0	0x3fd450d30f1a62d7	0.3174331328860211
1	0xbff8881fa507fcc2	-1.5332333036929389
2	0x4008fbed258e9124	3.123010915196703
3	0x3ff005a45626d49c	1.0013774266529145
4	0x3fc703ff5d0248ac	0.1798094944138645
5	0x3fe805b3f801ac1b	0.7506961673619829
6	0x3ff388db55757647	1.2209122980342657
7	0xbfd654820e461c52	-0.3489079608338602
8	0xbfdb1e1018b2d50c	-0.4237098923870952
9	0xbfbb0007811d5ecb	-0.10546919729437858
10	0xbff603e038ea0c6b	-1.3759462569439858
11	0xbff06f5769d96a2c	-1.0271829733598095
12	0xbff1def3cf01b3a0	-1.116931732768741
13	0x3f97b62a31371f17	0.023155841115822442
14	0xbfe5ca43748515ae	-0.6809403682497555
15	0x3f9deedf175e0789	0.029231534768320997
16	0x3fef9ced1e8c4708	0.9879060360565015
17	0x3fb0955c8a51769a	0.06477907540235109
18	0x3f8f6201ef94581c	0.015323653339276481
19	0x3fbda084e15ce4d5	0.11573057653449166
20	0xbfea6390bdb5639c	-0.8246539788479939
21	0x3ff75ade61665f51	1.4596847347911146
22	0x3fff77caac92ecc0	1.9667460194748827
23	0x4005c8a833183c94	2.722977065255302
24	0x3fa71e3628410d38	0.04515237084754137
25	0x3fa24753d5bcb051	0.03570043548674618
26	0x3fbfae5a759aa511	0.12375417109673871
27	0x3fb5063524b0f5cd	0.0821259703233956
28	0xbfaa7d41ee26945c	-0.051736889191751984
29	0x3ff40e51f64b07e9	1.2534961338828856
30	0x3ff4f13f9fb6dd32	1.3088985670891131
31	0xbfda0e51231edfe8	-0.4071238368010186
32	0xbff676ad7c1e9846	-1.4039740417879485
33	0xbfc8d2ba1b20e13d	-0.19393087696676928
34	0xbf994c36164ec1f0	-0.024704785453367906
35	0x3ff8fbdfb4c177aa	1.561492639615134
36	0xbfb3298f72d75031	-0.07485291055428502
37	0x3fb16e892331d085	0.06809289082758781
38	0x3fc2b5aa5fbcfe35	0.14616899180144718
39	0x3fc277859e8bc0e2	0.1442725204610787
40	0xbf9778ba49c10d4f	-0.022921477080911242
41	0xbf8859d97dc863bd	-0.011890124465070312
42	0x3fb795327ac53083	0.0921203183872326
43	0xbff7880ecc93c98b	-1.4707172385502385
44	0x3fab8dd560ed72ce	0.05381647880742478
45	0x3fd0120459afa05b	0.2510996700134506
46	0xbfe7781813c26b84	-0.7334099183966463
47	0x3fe59e21a22177e1	0.6755531469932486
48	0xbfe86fc8bd224034	-0.7636455244082812
49	0x3ff26de578475f0e	1.151830167616882
50	0x3ff1097c14a2ac85	1.0648155981132572
51	0x3fc696ba3d1129cf	0.17647483808316486
52	0x3fe2979aa13c0cea	0.5810063504326568
53	0x3ff2198add1702e9	1.1312359463046795
54	0x3f942748a62d9131	0.019681105749797815
55	0x3ff302e55c6cce83	1.1882070169785102
56	0xbff6670f0a99d999	-1.400160828981461
57	0xbfdfe23091808503	-0.4981805249136217
58	0x3ffec163711ced1f	1.9222139757610603
59	0xbfb99161c008330d	-0.09987460077554662
60	0x3ffaa5f8cb160df3	1.6655204709103344
61	0x3fad9582c738c360	0.0577813022795286
62	0xbfeb16be5af71171	-0.8465263153707793
63	0x3feeae91a5ab497a	0.9588096843456662
64	0x3fedee643600953f	0.9353505186779002
65	0x3fe8a12d6b9b2f32	0.7696749784167649
66	0xc0033ad46b74ebd1	-2.4037254710251337
67	0x3fb2da5697dda50b	0.07364407737408755
68	0x3fc8a64e1cc5b161	0.19257522969145227
69	0xbff8882492d8b517	-1.5332380043212817
70	0xbff2e2b04da796fc	-1.1803439172157928
71	0xbfdb40c9c2cc9136	-0.42582935355519014
72	0x3f7ddde0efe0b938	0.007291678104634429
73	0x3faaff95750f6f87	0.05273119977911649
74	0xbffd734c43e7ebfb	-1.8406489040924032
75	0xbfe4c6aae479682d	-0.6492514097583403
76	0x3fb702901c33ce27	0.08988285721334731
77	0xbff48c372e625232	-1.284232312381516
78	0xbfcba6a0dc99ba1a	-0.21602259418018904
79	0xbfd11d2f60f4f630	-0.2674063155026003
80	0x3ff345e8e883df3d	1.204567821752746
81	0x3fdee6ea6b94488f	0.48284397607597723
82	0xbffaff6181451ea3	-1.6873488473519636
83	0x3fcb3a4f7d573806	0.21271699543143557
84	0xbfc5beeae25032c7	-0.16988884020283576
85	0x3ff0c485d148063f	1.0479791808178474
86	0x3f855f521d23ba9c	0.010435716165799129
87	0x3fefe27e1ce97cb9	0.9963980259598407
88	0xbfc3559b72714638	-0.15105002487193686
89	0x3ff472ef96e3b8fa	1.2780605215189653
90	0xbfe82fc2d7b1c156	-0.7558302128582379
91	0x3fd96d86a04e72c5	0.39730992941785487
92	0x3fc615c022257aec	0.17253877322487854
93	0xbff6e8172b543bf7	-1.4316627209225297
94	0xbfe6e1d8376ba9fa	-0.7150689203675136
95	0x3fb16ab2934e72fb	0.06803432556484872
96	0x3fa0117367f47a8d	0.03138313907606003
97	0xbff6adcacea0b7c4	-1.4174297400854678
98	0xbfb3bed83f667dc0	-0.07713080928669225
99	0x3fe5fa8ddf23d8e7	0.6868352277949982
100	0xbfea6183a2a2bd03	-0.824403588912816
101	0xbfab4313a3a2c7d0	-0.05324612972744058
102	0xbfb3b10c155def46	-0.0769202758946764
103	0xbfb93f6e2f28dc2a	-0.09862412120206501
104	0x3fca30a29e2de5c0	0.20460922931287762
105	0xbfb127e2d393c3f3	-0.06701486268481442
106	0xbff7995bf0ff666f	-1.4749411977740257
107	0xbfd1beedadb01c5e	-0.27727834665023987
108	0xbff9e07b4e56ca3e	-1.617305093776522
109	0xbfef09b73428e08f	-0.9699359911674196
110	0xbff552db8c28be45	-1.332728908058827
111	0xbf999046df2b25c0	-0.02496443497765255
112	0xbfe3a841ab3334ab	-0.6142891258001745
113	0xc0051eb8f2bb6fb7	-2.6400011981440588
114	0xbff286f1029a574a	-1.1579446889567913
115	0xbff0dc348a2e94d0	-1.0537610433323614
116	0x3fb0e1b24c75771b	0.06594385496779546
117	0xbfd96c9a0fb0b347	-0.3972535279488522
118	0x3fd2ae12b49c7953	0.2918745769292361
119	0xbfdacabcb68b8033	-0.41862409426358055
120	0x3fe3f1224b40ba6d	0.6231852979452249
121	0x3ff54fadb79709da	1.331952778957762
122	0xc003a23151cf79ef	-2.4541956321183913
123	0xbfe18b2edfa73089	-0.54824012453311
124	0xbff1d11b8cdc2b2d	-1.1135516645760604
125	0x3fe8697f345f0b0b	0.7628780386806694
126	0x3fab9c3918f312b0	0.053926262183755624
127	0x3faa0103435c1ba1	0.05078897664321081

custom_layer.gamma f8 [128]
0	0x3fe81e7fd981f002	0.7537230728335091
1	0x3feb5e0bb9639ecc	0.8552301998979259
2	0xbfe4a0e2c65873a4	-0.6446393846450644
3	0xbfdba638b50cd351	-0.4320203559939744
4	0xbf95bbb72daa19e4	-0.02122389045919161
5	0xbffdafe27d854ef9	-1.855440607371689
6	0xbfb0104de3278cf5	-0.06274878307117489
7	0xbffa19c8475dc936	-1.631294516348658
8	0xbfb1757aada691af	-0.06819884051817014
9	0xbfd5d7d97c9bb0cb	-0.3412994114758134
10	0xbfe24236ad9b046f	-0.5705827131970532
11	0x3ff095322dc946b7	1.0364248074078384
12	0x3fedf4875a1489e1	0.9360996970538588
13	0xbfe709ba6cab0226	-0.7199375269338517
14	0x3fedf940730ed7b5	0.9366762397028113
15	0xbfed340addb6b4f4	-0.9126028375955273
16	0x3ff03bf2609b24f1	1.0146354459450857
17	0x3fea7187861ee9f0	0.826358568148235
18	0x3feb559322516133	0.8541961355468061
19	0x3fc4d31d544ad63c	0.16269270530544755
20	0xbfd2e04baccd8ffb	-0.2949399173287472
21	0xbfca209abb49192e	-0.20412000794221669
22	0xbfb97dcde7ad2dea	-0.09957587152637584
23	0x3fe99b13dd1ae933	0.8001803701838867
24	0x3fd8d5054ddae18d	0.3880017528822684
25	0xbfd0bac8f807102e	-0.2614004537720146
26	0x3ff84cd8d9a3a9f2	1.518761491921961
27	0x3fe5f2dbdcd0a286	0.6858958542625977
28	0xbfe87ed63acb73d3	-0.7654830120405854
29	0x3fefbc0bb8fe9542	0.9917048085377831
30	0xbfa069c045e1aced	-0.032056816606962225
31	0xbfbd93b35a699ff5	-0.11553498227442545
32	0x3fe7ce0a5dd0d966	0.7439014274921589
33	0xbfdcaa6f114229a1	-0.4479024570979622
34	0xbff5f6f67b78fb60	-1.3727936576030615
35	0x3ff09dde1bd350e7	1.0385418974811331
36	0xbfe19e72041c8279	-0.5505914764690508
37	0x400102c4f9fad0c0	2.1263522653262896
38	0xbfe0d5170c2fd4aa	-0.5260119665168947
39	0x4003e8b679c929c2	2.4886292948260413
40	0x40008a778e80869d	2.0676108487103435
41	0x3fcf254dbfd3d57a	0.2433259188325499
42	0xbff41c5fe394fcda	-1.2569273843690127
43	0x3ff46fa5d559ade0	1.2772577604290447
44	0xbff69c05818de053	-1.413091188498602
45	0x3fd1c45d04033a12	0.2776100672898859
46	0x4007e28b9a8aa336	2.9856178353842564
47	0x3fea5ef687fc8cca	0.8240921646105559
48	0x3ff5510057206537	1.3322757151966707
49	0x3ff043b5946acb4e	1.0165305898232933
50	0xbfd3da386293e200	-0.31019410731053654
51	0x3fddd45d5c3d3804	0.46608671195724605
52	0x3fe844efdc8df39d	0.7584151561455773
53	0x3fc7edf56ed62621	0.1869494239038412
54	0x3fd347838ec8eb09	0.3012398619063537
55	0xbfb93691a9f98ed0	-0.09848890685821776
56	0xbfc1b721a37e5b50	-0.1384012268360615
57	0xbfd943ddb6fd7cdd	-0.3947672163976231
58	0x3fe260544f1a67aa	0.5742589516623771
59	0xbff4abc4cff42b55	-1.2919357417292379
60	0x3feeb48ee89d167c	0.9595408004031039
61	0x3fe10098baa04be0	0.5313228268663543
62	0xbfd1615e1c86cf52	-0.271567848070153
63	0xbfe3ce08441527ab	-0.6189004258860583
64	0xbff0ecc58a1c800e	-1.057805575845126
65	0x3ff58e3cfa424b2a	1.347226121496258
66	0x3fd68f39fcc8d4eb	0.3524918526266691
67	0x3fe212c3bd94d326	0.5647906019936257
68	0xbfeb9bf7fbc12f04	-0.8627891461451047
69	0xbfd32e3f0a3267fd	-0.29969764705458585
70	0x3fe4463bc511c23f	0.6335734223376405
71	0x3fc8d42ba0865c89	0.19397492731215873
72	0x3fff6c2987f67f22	1.9639067946481608
73	0xbfd6b490c1eb0c6b	-0.354770841000749
74	0xbfe9841e5aff8254	-0.7973777558618829
75	0x3fe3ec23fad0ae62	0.6225757502301799
76	0xbff563139d828147	-1.3366886284566861
77	0x3feebb79f42101dc	0.9603853004592184
78	0x3fe8ac3b0a5987b1	0.7710242464202023
79	0x3fc5416f48d250c4	0.16605940871943947
80	0x3fe48c6d6346a543	0.642142003916128
81	0x3fdae3495d300bba	0.4201224718128135
82	0x3fd726c513873039	0.36174132258452435
83	0xbfc7a0dd3234a0e6	-0.1845966811317858
84	0x3ff0d05c75ca755d	1.0508694268422325
85	0x3fcceb1794ab4697	0.22592444190245395
86	0xbfe4182fb391e74b	-0.6279524333215049
87	0x3febef42a236518a	0.8729565780836748
88	0x3fede4387dec1382	0.9341089686791835
89	0x3fc0bd777552ab34	0.13078206280382576
90	0x3ff02236e4e1aeef	1.0083531323133987
91	0xbfbc03ebd8d04b51	-0.10943483393957122
92	0x3fe65eaf70f2274e	0.6990582662558411
93	0xbfdf50f2308c890f	-0.4893155550108909
94	0x3feb6a5f00e001d0	0.8567347542848953
95	0xbfb0eadbcd9b8f2a	-0.06608365792959306
96	0xbfce7747649a0edd	-0.23801510250279181
97	0x3fe54595dbec7c01	0.6647443099390103
98	0xbffbe974b4a56673	-1.7444960648048464
99	0x3ff0bc216d5d775e	1.0459303161691973
100	0x3ff07cf70811cf8b	1.0305090251176547
101	0xbfd6c3d8b0878a41	-0.3557035182877009
102	0x3ff2ae88c401842d	1.167610898635995
103	0x3ffee71d81608ff6	1.9314246228977914
104	0xbff1105d3415862d	-1.0664951357397385
105	0xbffaf266e6907f6e	-1.6841801649497614
106	0x3fe57e7c21b00935	0.6716900499307373
107	0x3fd8480dafa1676a	0.37939779426016307
108	0x3fb8e0ee2b36f580	0.09718216471715913
109	0x3fe28c7a7d0e6516	0.5796482508186809
110	0x3ff1b72faf1222b3	1.1072232092575802
111	0xbff5855c26b583d7	-1.3450585853645316
112	0xbff11dc2e5f70bab	-1.0697659476288475
113	0x3ff1c7b4ad9b8948	1.1112562924905252
114	0x3fddd67d6145a235	0.46621641635150307
115	0xbfb0c380b79f6355	-0.0654831360146891
116	0xbfec24dd0ef5de62	-0.8794999401279251
117	0x3feac87e1a7706cb	0.8369741932767395
118	0x3fe1467b0662ed9f	0.5398535847411273
119	0x3ff801a9481c9b5b	1.5004055802216587
120	0x3fe8dd4d4d5e78e4	0.7770143996347341
121	0x3fec07c4107168be	0.8759479828979904
122	0xc0006426d785b47c	-2.0489022100142034
123	0x3ff1d6f29673def6	1.1149774434142592
124	0x3ff04b9123e11752	1.0184489633115459
125	0xbfdd8e2f84a4b952	-0.4618033213945597
126	0x3fd548e593b9283e	0.3325742666826307
127	0x3ff58405925235eb	1.3447318759602875

layer2.weight f8 [128, 128]
0	0xbfafe8dd628bd49d	-0.06232349231678678
1	0x3fa7f224ef8aedb2	0.04676928924660774
2	0xbfc49179c96ae11c	-0.16068956694449177
3	0xbfb4e52085778640	-0.08162120111912774
4	0xbfcadc4f6bf97e11	-0.20984833500095637
5	0xbfc3b9d9b990fe5f	-0.15410920678003756
6	0xbfb38da4fae8d8e4	-0.0763800728389899
7	0x3fc7a6dfc310028a	0.18478009247339272
8	0xbfd0a7ab0b054be2	-0.26023365093459294
9	0xbf73a20f5f6c77b0	-0.004793224382209901
10	0x3fba121312f8d975	0.10183829510865457
11	0xbfc93493897326a8	-0.19691700183311878
12	0x3fd4b46e0cee4b17	0.3235125662114781
13	0x3fb3076dfbad67b5	0.0743321170279206
14	0xbfbe324a9cb11499	-0.11795488667947253
15	0xbfc2635e91cdb1d8	-0.14365751380263592
16	0x3fc2ac93f1ce4668	0.1458916598026463
17	0xbfb4ff57972d2492	-0.08202121201351734
18	0x3fb47709fcc95cb2	0.07994139119670043
19	0xbfc30344142d3566	-0.14853716836152414
20	0x3fad6606cb0170b7	0.057419025689087126
21	0xbf99a42a314ce090	-0.025040301569987877
22	0xbfa01df65fe5811f	-0.031478594976535705
23	0x3fd1dd3b8addd32b	0.2791279655569265
24	0xbfb97a0ae07e1405	-0.09951847058080439
25	0x3fd613fde14bfe0b	0.34497019769330056
26	0x3f97e1373fc87994	0.023320067661296642
27	0x3fb0ded725c20fc5	0.06590027496173352
28	0xbf8c83987ccf78bc	-0.013922873791610939
29	0x3f8fea46aff13e6c	0.015583564991316488
30	0x3fc47d9409d9994e	0.1600823448272401
31	0x3fd16c3b4fc033af	0.2722309378448768
32	0xbfc7a4b87d4bddb3	-0.18471437566743773
33	0x3fc48877c0121825	0.16041466597033707
34	0x3fac1988d27c06f7	0.054882312482744604
35	0x3f886142ac01d4bb	0.011904259561769206
36	0xbfaac5328ea54cd4	-0.05228574744492112
37	0xbfe2d6da088fd801	-0.5887270133232506
38	0x3fa13c648dfd7636	0.03366388543393521
39	0x3fa6ac969bfb8d8f	0.04428549436650108
40	0xbfa1104f7acb0f30	-0.03332756399097858
41	0x3fa2824b1347d2b0	0.03615030870779401
42	0xbfce28313cd4fe92	-0.2356015727072998
43	0x3fd31eba68622b21	0.2987504977578955
44	0xbfa260ed4f39e1da	-0.0358957442485381
45	0x3fb454ea10818f28	0.07942068961125115
46	0x3fd071c81549f6e9	0.25694467619892564
47	0x3fa40434fb498ae9	0.03909459655257825
48	0xbfd198513453b76d	-0.27492170438824
49	0xbfc0fc32e576bfde	-0.13269649700441638
50	0xbfc51036ac65893b	-0.16455729883007017
51	0xbfa300ae0e8a7ea7	-0.03711456229689008
52	0xbfc963a4dcfc837a	-0.19835339346266406
53	0xbfa1875a7f8f51b8	-0.03423579032065355
54	0x3fb414ea0663b816	0.07844412475580528
55	0x3fb3e265447f3d7b	0.07767327234545533
56	0xbf0222f616e5cf82	-3.4592757276379594e-05
57	0x3f91742f3c54cbf6	0.017044771249128808
58	0xbfbb4210158ef5c3	-0.10647678877190629
59	0x3fb3753741c51c07	0.07600732188903701
60	0x3fb9d2aaeaa34e8f	0.10087078312363416
61	0x3face3748f569f32	0.056422846314772804
62	0x3fd1ece716553d47	0.2800843923659681
63	0x3fbb4e6eade8fedf	0.1066655325494099
64	0xbfb3e9cc22bdaeee	-0.07778621528785454
65	0xbf9586450846e191	-0.021020010595493913
66	0xbfba300dcaa9a984	-0.10229574392147894
67	0xbfc399e981407341	-0.15313452540513064
68	0x3fb06e7d2341b1f2	0.0641859255862938
69	0xbfc17021193f3f1f	-0.1362344144131322
70	0xbfcce593eeaaefac	-0.2257561602945065
71	0x3fb83b1f1c2e0966	0.0946521228598037
72	0x3fba69f4da3ff434	0.10317926720013376
73	0x3fb62e496ef1a164	0.086643781267076
74	0xbfc06e6ccc0e8156	-0.12836990321830893
75	0x3fc6e2285a0de9e5	0.17877678296265667
76	0xbfbbbac191eb2fae	-0.10831842243641063
77	0xbfc5584dcf53d56f	-0.16675732253467454
78	0xbfa2d5ec6392dbe4	-0.036788355975140324
79	0x3fc05039a1990e1c	0.12744827642937728
80	0x3fb96a6092656311	0.09927943777200833
81	0x3fc669d61b0a3aad	0.17510486908255044
82	0x3fd5ed3136dfc363	0.3426020656470909
83	0x3fc5a45a5996d95d	0.169078153366807
84	0xbfb8ea9e995b2924	-0.09733000988049817
85	0xbfca2be499b714f5	-0.2044645071565935
86	0x3fab43bdcec615e4	0.05325120114416018
87	0x3fd14affce3b4b39	0.270202590368331
88	0x3fc472e1cefc2952	0.15975592238130304
89	0xbfc3a6f1e2511dca	-0.15353225279453248
90	0x3fb7240f680c325e	0.09039398470140145
91	0xbfb21bdeb62fb431	-0.0707377619543912
92	0x3fb3383640ccfeb7	0.07507647592592091
93	0x3fb5a93cb1d8896f	0.08461360303821207
94	0x3fad1bc1a29c4ae4	0.05685238943092033
95	0xbfca821de448cbd3	-0.20709584852883597
96	0xbf7bb957cd572f22	-0.006768553711889587
97	0xbfa4069397634e7c	-0.03911267493245149
98	0x3fa1352108cd7080	0.033608467411540666
99	0xbfaab7e410a1b210	-0.05218422606489892
100	0xbfbc9b632803ded9	-0.11174602248126621
101	0xbfd0dffd8ea024ce	-0.2636712925746679
102	0xbfc7e760a47f63ee	-0.1867485812388447
103	0xbfbb72c6c6fad57e	-0.10722010000139012
104	0xbfb2bbce4fe9eb8c	-0.07317819071788118
105	0x3f5bd28a5f847da8	0.0016981459903674199
106	0xbfcf9da244412849	-0.24699810345402032
107	0xbfb870905619274d	-0.09546758749016
108	0xbfa0e72d5e1947c0	-0.033013742195762585
109	0xbfae58b2d9c7987e	-0.05927046688502545
110	0xbf96db2654163cb4	-0.022320364839796894
111	0x3fb10d9dbbdd5a54	0.06661401592769184
112	0x3fc5afdfbe589357	0.1694297484802074
113	0xbfad6abdcf0cdacc	-0.05745499756306102
114	0x3fbb846cedbe03e8	0.10748940281156616
115	0x3fbaccd997353149	0.10468826238247177
116	0xbf88242fa0de5fdc	-0.011787769409963227
117	0x3fd7c952334ebd4d	0.3716626645136401
118	0xbfd0541c23b69fc9	-0.2551336621058878
119	0xbfba714310aac8e0	-0.1032907405558805
120	0xbfac90e3c5dde7e7	-0.05579292097441151
121	0xbf8bc72094d69a44	-0.013563398878273188
122	0xbfd3d92d74e46f86	-0.31013046660677224
123	0xbfb36ea62bee29a1	-0.07590712139623303
124	0x3fbe044f0a766053	0.11725324635915628
125	0xbfbfa0d4774eb466	-0.12354782021312047
126	0x3fab6bed7c0012cf	0.05355779780078295
127	0xbfc4ce1562528cec	-0.16253917027379516
128	0x3fc13f42f0a23adb	0.13474308728878878
129	0xbf86587c6663dabc	-0.01091096103162436
130	0x3f97291decc846a6	0.022617786004110706
131	0x3fa394dc6dd7174a	0.03824509468863242
132	0xbf9e446e14f7b8fa	-0.02955791476227263
133	0x3fa674bec8ff618c	0.04385944560607688
134	0xbf91be56a373f128	-0.017327645994542312
135	0x3fb2f499d7b74e77	0.07404481426720531
136	0x3fa3fd8c025e5343	0.039043784417265325
137	0xbf65fd6b748ffe2f	-0.002684316514659966
138	0x3fab31c7f167f908	0.05311417409756031
139	0x3f8da8fc604f5fa4	0.014482471169614382
140	0xbf825a0a1f404476	-0.008960799292284199
141	0x3f93a1449ebe5d20	0.01916987627882094
142	0xbf9b89db4c0de65b	-0.02689306880663476
143	0xbfb01c56a1aa56f2	-0.0629324097338573
144	0xbfc664a7255c7f78	-0.17494668316157536
145	0xbfbc9cfacc4ecf3f	-0.11177031982407203
146	0xbfb84d7dcd73995e	-0.09493242517382813
147	0xbf7d92e0f1ac8ebf	-0.007220152557042502
148	0x3f93eec22fce6dde	0.019465479057186978
149	0xbf939821137a0ab9	-0.019135014356389066
150	0xbfa7ed0f15a721ce	-0.04673049105946668
151	0x3fa262c9cbfbc90b	0.03590994467767147
152	0x3f7aec1ece9f850d	0.006572838154143013
153	0xbfb52cf3ff6a1470	-0.0827171801157236
154	0x3fc64320b57e62b2	0.17392357694622756
155	0x3fbcb1b67d601a76	0.11208668290064758
156	0x3fae9cef9deb1ef7	0.05979107668605182
157	0x3fa6835900e4241c	0.043970853194032794
158	0xbfa174aafc6d060c	-0.03409323054667021
159	0xbfa04dedc4880e86	-0.03184454940858665
160	0xbfb874e929634d9e	-0.09553391704985478
161	0x3f73697d4882914f	0.00473927439466977
162	0xbfaeef8a7e16ed84	-0.060421302692215156
163	0xbfb89ae59f9085fe	-0.09611354013079418
164	0x3fa008325368e911	0.03131253498254883
165	0x3f9da463bf456f02	0.028947409199971304
166	0x3fb30c83f661d7bd	0.07440972104254136
167	0xbf92bac2a4a75a04	-0.0182905591007856
168	0xbfb246eed3094ee6	-0.07139485027556311
169	0xbfbcc9a70e85abf7	-0.11245197395844274
170	0x3fa155018b8682b5	0.0338516695803767
171	0x3fa558c1c639499a	0.04169278664325589
172	0x3f943e46a79aa0c1	0.019768814067590016
173	0x3f8491e8cbf1294f	0.010043925021950754
174	0x3fa0f549b7809a98	0.03312139859217672
175	0xbf8ba8a75faf74cf	-0.01350527535208315
176	0x3f8e10721f2c4162	0.01467980535156305
177	0x3fceeaec6e3fa642	0.24154429801210325
178	0xbf9c3420ae1f7ab0	-0.027542601230261254
179	0xbfc3e8fac614bcd8	-0.15554747268604419
180	0x3fb9e444d2304241	0.10113935596042102
181	0x3fb4c90e0868508d	0.08119285302410813
182	0xbfabafcb99af0877	-0.054075586805553515
183	0xbfa4a1a6ce2c96fa	-0.040295803706880975
184	0xbf982de99370f70f	-0.02361264192972273
185	0x3fa0a5adcf6b2dee	0.032514030046140494
186	0x3f9bbd05b67c8ff8	0.027088250411125586
187	0x3faab01d34051b51	0.05212489376076824
188	0x3fc0efff42afb7de	0.132324130593985
189	0xbfc4998809d1b642	-0.1609354064889193
190	0x3f91217dd09b2917	0.01672932229738774
191	0xbfa204ec3e930fa3	-0.035193808210834086
192	0x3fa0aef7d8d3c37f	0.03258490106407574
193	0xbfb4ca0678e1ab65	-0.08120766116341611
194	0x3fb4349bfe1a3c0e	0.07892775491403389
195	0x3fa7e9fa476dca88	0.04670698282179325
196	0xbf996745dc54c91e	-0.024808017323445168
197	0xbfa540f12f4e2118	-0.04151109411674464
198	0x3faafbac5a487b61	0.05270136453713437
199	0x3fae1803bec48f84	0.058776967084013726
200	0xbfd3233de408e073	-0.29902598637591565
201	0xbfb6f7d21174045f	-0.08971894193747819
202	0xbf9b5887fdf46ffa	-0.026704907298253013
203	0x3fb42718eaed786a	0.07872157798326077
204	0xbf96af6d6bed5ef6	-0.022153577530246125
205	0xbf984c63a5549f0c	-0.023728901830650392
206	0xbfc44d157495f546	-0.1586024112001871
207	0xbf9091b137a782f1	-0.01618077184855599
208	0x3fba2fc1b79b6f5a	0.10229120953175422
209	0xbed901d273798a2a	-5.962161416658268e-06
210	0xbfa369eb8d515539	-0.03791748142308866
211	0x3fb818a7caad9644	0.09412621210284394
212	0x3fc134237480a133	0.13440364063831964
213	0xbfb615566d2c4f13	-0.08626308598860204
214	0x3f9cc3404c03195a	0.02808857406560015
215	0x3faf8eeaddf6b5c6	0.06163724860685309
216	0xbf94a61f03db8944	-0.020164951906630493
217	0x3fa0c9bff30621fa	0.03278922883606934
218	0xbfbb5c51e99486be	-0.1068774409546007
219	0x3f90ffff088a3bb1	0.016601548095930677
220	0x3fb79ca89fd1126c	0.09223417188429445
221	0x3f82192d24e718cf	0.008837082565957747
222	0xbfa5df6a8bae5142	-0.04272015528764196
223	0x3f94d19216290587	0.020330698587945697
224	0xbf987e3a5f04421d	-0.023919021653513995
225	0x3fb29c73eb2b9ffc	0.07269978038277708
226	0x3fc154556d5097ee	0.1353861602557908
227	0xbfb4e58a1b8b28d7	-0.08162749454928374
228	0xbfb109b2b14c8cda	-0.06655423000897845
229	0xbfa4e461b1281a88	-0.04080491340214559
230	0x3f80e920a047a430	0.008257155314781967
231	0xbf9fd05a2e6aadee	-0.03106823833756594
232	0xbf818baed6b620fa	-0.008567205359910169
233	0xbfa4215c0b81c9ad	-0.039317013172780114
234	0xbf9d78efacb1861d	-0.028781647601482264
235	0xbf8535fc2e75d3ad	-0.010356874626021051
236	0xbfa0cd781f074c91	-0.03281760576978699
237	0xbfa3d7172ecd7122	-0.03875038572616264
238	0xbfc1597982067602	-0.13554304932488043
239	0x3fb0723c6df669c7	0.06424310383446317
240	0x3f9d3a7b0170a1d2	0.02854339786805033
241	0x3f8a364f7b02ecdf	0.012798901502142744
242	0xbfb66f2dac647461	-0.08763394793318603
243	0x3f91a0c1d1d2b388	0.01721480219991947
244	0x3fb23bf0fa9433f6	0.07122713201188433
245	0xbf9f6dbde8492b24	-0.03069206934223269
246	0x3fc0aef7beb7e624	0.13033959209842394
247	0xbfc25fe4a4aa5936	-0.14355142631820578
248	0x3fcc6e9e2bddae97	0.22212578908817157
249	0xbfac20f03f1b447e	-0.05493880052893817
250	0x3f921f7fee14cf91	0.01769828692086112
251	0x3f91e2f39fbdd837	0.017467314362385102
252	0xbf6a7744ae52b90a	-0.003230699675064068
253	0xbf7b0436163c7af9	-0.0065958130615217875
254	0xbfbca7b4d5ce0cc2	-0.1119339963898254
255	0xbfa27942da6c3efd	-0.0360813991193236

layer2.bias f8 [128]
0	0xbfb382206598b041	-0.0762043235815222
1	0x3fba09dc5a140c76	0.10171296309640518
2	0x3f9957773f21459c	0.024747718074939237
3	0x3fa73579f2764d77	0.045329867217470836
4	0xbf9fff7c4752e0fc	-0.031248037198310805
5	0x3fb389e8e83026a7	0.07632308643965278
6	0xbf8ea0c07a4b0384	-0.01495504735192
7	0x3fbc1f43eecfc2f6	0.10985207157478868
8	0x3fc5c2e9c7eed67f	0.17001077902175507
9	0xbfaa6b01bdcefb0d	-0.05159764711378587
10	0x3fc4d5ea28d1fb8f	0.1627781581227876
11	0xbfbf035458d0cdd1	-0.12114455383635138
12	0x3fa017101229a35c	0.03142595502578757
13	0x3fad71a07e75e909	0.057507529675563225
14	0x3fde25dc3893aee1	0.4710608055599846
15	0x3fb50dbd528d9a6e	0.08224089875657523
16	0x3fc0f963baeef06a	0.1326107657204177
17	0xbfc09a189d5831d2	-0.1297026413234464
18	0x3fac59eb8f81c4bd	0.055373536365445265
19	0xbf83db213bbf1081	-0.009695300708593148
20	0x3fb3b2eedd677176	0.07694905190823484
21	0x3fc359d9be9b3e55	0.15117952162698836
22	0xbfb426b579359435	-0.07871565064631698
23	0xbfa9931d4dab096f	-0.04995051930520133
24	0x3fb14a9537578500	0.06754429436798048
25	0x3fcebbcff521da65	0.24010657758090584
26	0x3fc00046ed37e5bd	0.12500845511367045
27	0x3fa669762bc3720d	0.043773358194560165
28	0xbfba71b33ca532a2	-0.10329742651556242
29	0xbfbc47dc5bff97e2	-0.1104715084653374
30	0xbf9c31662a89b28a	-0.027532192560487924
31	0xbfb44115bb9a202e	-0.07911811666610966
32	0x3f87ddb6c2d29e33	0.011653354473607802
33	0xbfab2e7dfd496c2e	-0.053089081925201106
34	0xbf9b7f5b6aed04fc	-0.02685301628230706
35	0xbfb070c32a0b8b59	-0.06422061707011774
36	0x3fa4ce5538407fdf	0.04063669501942945
37	0xbfb4b37d85dfd54f	-0.08086380499283517
38	0x3fb4a12510b0a51c	0.08058387429686714
39	0xbfb79c50b6d3630e	-0.09222893203276447
40	0xbfb5bc49314d488d	-0.08490426496180899
41	0xbf9c21650fefbac8	-0.02747114095466932
42	0x3fcb8b745363d968	0.21519331046847445
43	0xbfb4b9b1118edb43	-0.08095843008673591
44	0xbfa9315d754a6b8e	-0.04920475060244832
45	0x3fa8a70999faa45c	0.04814939503314328
46	0x3f7435048cf80adc	0.004933374191298436
47	0xbfb30d8d9f02c9e3	-0.0744255555353344
48	0xbfa2f0eb567eb5d1	-0.03699431830259992
49	0x3fc6e45ef80a51e9	0.17884432898848893
50	0x3f8c1a583b8dc9dd	0.01372212344879114
51	0x3fac47a1ffeecf40	0.055234014980128254
52	0x3fdbf0297caf68f0	0.43653332878387996
53	0x3fcf50cf3980a5bf	0.24465360934963873
54	0xbfc3680323f51fe7	-0.1516117024968928
55	0xbf42a26e1596718c	-0.0005686795731665736
56	0x3fc692a2ff276e37	0.1763499971265092
57	0xbfc41af0a4e2d0c3	-0.15707214404176825
58	0xbfaab05f4ac05c2e	-0.05212686336033588
59	0xbf94cc42aafcfd67	-0.020310441671651882
60	0xbfc55ed24faf9f63	-0.16695622340125302
61	0x3fa1dd1465a29f9f	0.03488982906975412
62	0x3f8088b767472c9e	0.008073265876097854
63	0x3fa9f674e929dbfb	0.050708440267889864
64	0x3fd1264a955e9c52	0.2679621180236086
65	0x3fad312e169ab397	0.05701583887034827
66	0xbfbe87b816f48330	-0.11925840912273311
67	0x3fdaf80ffd31ec21	0.42139053083491446
68	0x3fbda51502c05eba	0.11580020253347359
69	0x3f759710caba46ef	0.005271020501497622
70	0x3f90a1c386bf1e84	0.016242079829480463
71	0xbf9c0176b0702b76	-0.027349333304339273
72	0x3fb0353d0c8cdf2b	0.06331235462573363
73	0x3fa82dac7bc9cc85	0.047223463164209036
74	0x3fc6a99fb32c0693	0.17705150841361625
75	0x3fc1b394ccf3df12	0.13829288489773056
76	0x3fd49329c76a5543	0.3214821288505229
77	0x3fb85dadfff8dc76	0.0951794385845107
78	0x3fbcf8019e6f422b	0.11315927618057546
79	0xbfc38e96db8639c1	-0.15278897971115948
80	0xbfd31440f896350d	-0.2981111934285117
81	0x3fb7c2a9a1ada827	0.09281406590676565
82	0xbfb9e0baf2e67a06	-0.10108536176856128
83	0x3f632ed737128fbc	0.0023416713161896457
84	0xbfbee68d3ae86943	-0.1207054394548424
85	0xbfb20bccab4b8fc5	-0.07049254590998462
86	0x3fb03eb51ccd3771	0.06345684006848075
87	0x3fc150af66b08fd9	0.13527481569428693
88	0x3fb2c5bd795e46a3	0.07332977498142638
89	0x3fc9e4a683742474	0.20229035776745585
90	0x3fa60e9c325c8979	0.04308021654857703
91	0x3fb43ade012354ad	0.07902324226172892
92	0x3f8aaee588996a05	0.013028901320628181
93	0xbfc1c143c7bda5f8	-0.13871047261208935
94	0xbfc13439b60af196	-0.13440629376226515
95	0xbf82ae7d31e5fc12	-0.00912187393691791
96	0x3fb04c07d6856018	0.06366013514832536
97	0xbf9bb988a07abeb2	-0.027074942393197694
98	0x3f8786184c5aa96d	0.011486234502929371
99	0x3f90a7488f9915dc	0.01626313568546843
100	0x3f80859833905316	0.00806731135711795
101	0xbfc8714c842d5b10	-0.19095760778392235
102	0xbf9e9783cd153f95	-0.029874858276627576
103	0x3fc159934c88b82a	0.13554612385763792
104	0xbfbe6ceb112b4e74	-0.11884946030778015
105	0xbfb1a65b9548a1e6	-0.06894466776487426
106	0xbfaaa353c993c23b	-0.0520273383680245
107	0xbf7dd9b0d96c2318	-0.007287684266665172
108	0xbf9d04906bd078e6	-0.028337723331895236
109	0x3f95efd23eb1cfd7	0.0214226580396398
110	0xbfb45b2ea7efa46d	-0.07951633071901805
111	0xbf78919fe30750a0	-0.005998253400736925
112	0xbfbcb2ce8f57e14e	-0.11210337638465726
113	0x3f9eba56e78a8f5e	0.030007703668743495
114	0xbf7641836f1e6080	-0.005433572210584825
115	0xbfa691f6bd4404db	-0.04408236561176589
116	0x3fbd385ac137fcc2	0.1141411515927642
117	0x3fb30b39c462f68f	0.07439003986925229
118	0x3f907bf61f6e7ae8	0.016097875278883317
119	0x3f997e001d59faf1	0.024894716063950054
120	0xbfa8127cc1afabe8	-0.04701604713758184
121	0xbfb431233f7372b9	-0.07887478159995966
122	0x3fc33d8358d85a64	0.1503147300542934
123	0x3fb15686640a81f7	0.06772651617439594
124	0x3fb0300bebe9d40d	0.06323313245395941
125	0xbfa6b661b32176f9	-0.044360211483519714
126	0x3fc2e9c74f783d56	0.14775935535770185
127	0x3fbce74565dd49e1	0.11290391671108281

custom_layer2.beta f8 [128]
0	0xc0003baca043321f	-2.029137851763394
1	0x3ff67eaaeb113dff	1.4059247190779158
2	0xbfd3423ed9a1a047	-0.30091830494939525
3	0xbfe71541cab8323b	-0.7213448485723072
4	0x3fea6f1088b69be2	0.8260576887304263
5	0x3f82a433ca0a5cb9	0.009102253535543491
6	0x3fcf2e36f87e05cb	0.24359786160861882
7	0x3fd5e4ea539b3f0d	0.3420968834370662
8	0x3ff7b520079ef225	1.481719999093124
9	0x3fe814d4caa2ba1b	0.7525428731658538
10	0xbfedfd79350ac34e	-0.937191585157146
11	0x3fecd13b80f2e97f	0.9005410688908312
12	0x3f8dc45a9e72798f	0.014534671745704468
13	0x3feb453fbf0aaa5c	0.8522032481462918
14	0xbffed551b1b33d00	-1.927079862729272
15	0xbfd1686a03a4afc0	-0.27199793201247857
16	0x3fe6c9caa68e00bc	0.7121327641507587
17	0x3fe8d84ff50c1029	0.7764053140713304
18	0x3f7fe8fba001f079	0.0077905491926878396
19	0x3fe733fe116a59c6	0.7250967350144542
20	0x3fa15b661e345901	0.033900443255491915
21	0xbfe6525890235e2d	-0.6975519957731585
22	0x3fed9ef9c9fa6273	0.9256562180408551
23	0x3f77c06bba83da28	0.005798741163963096
24	0x3ff077a4a5f95849	1.0292097552642352
25	0x3ff17a0ae5a60b1c	1.0922955485008918
26	0x400560121bf12c16	2.671909540460102
27	0xbfb76eba9ad4bb8a	-0.0915333393102015
28	0x3fe3cf6e480c55d3	0.6190711409751039
29	0x40033f0ca48b8f60	2.405785832890544
30	0xbfe3a16f9f2611ca	-0.6134565456746313
31	0xbf891cad0ef53f1f	-0.01226172639749695
32	0xbff06a7b25c1bfbb	-1.0259963488460773
33	0x3fec96c709ea681e	0.893405455938822
34	0x3fd3987577b90fef	0.30618035022439377
35	0x3fc3c6fca7746f91	0.15451009918694728
36	0xbfd4284c4ff08d64	-0.3149596005116193
37	0xbfcccf806cf2d784	-0.2250824481940833
38	0xbff592c775f52cb7	-1.3483347518656907
39	0xbff143b7121aa5bc	-1.0790320117178984
40	0x3fb01a237a57454e	0.06289884316290292
41	0x3f8c062f12c8abc4	0.013683669815767525
42	0xbfeb3f7e843e5ded	-0.8515007574923722
43	0x3f9c54b79d83cc8b	0.02766692065138136
44	0x3feace6cf12a1c28	0.8376984319919574
45	0xbfc153a2fddd2be7	-0.13536488910389652
46	0x3f7741774f1e69e3	0.00567766766644204
47	0x3fabf4ebb15e7c55	0.05460297145986518
48	0xbffa3695fc580301	-1.638326631277039
49	0xbff5c304cb297126	-1.3601119934092565
50	0x3ff139161406b454	1.0764370710633289
51	0x3f835d9a54b96c48	0.009455877028065399
52	0x4006c5eb5710c6a2	2.846640281867466
53	0xbff1623b7ca7acdf	-1.0864825124106614
54	0xbfed9af3f32b963a	-0.9251651524943505
55	0xbfd7ca529a39eabc	-0.3717237955203634
56	0x3ffd220d679131cc	1.8208135648338724
57	0xbff07327468ab692	-1.028113627962203
58	0xbfec4da6131f56ed	-0.8844786046490448
59	0x3fa656b3781cc5af	0.0436302265283176
60	0x3fe1c75c17bf106f	0.5555859054370681
61	0xbfb0824f20a6ec49	-0.06448835894745843
62	0xbfc60d7987f47bdb	-0.1722862161486479
63	0xbff26983d25cd11f	-1.1507604806220753
64	0xbff9d0f6766211af	-1.613516294893184
65	0xbfe7c48a454db86a	-0.7427417138658374
66	0x3fec600822bc6d6f	0.886722629398191
67	0xbffa8e6eabdd0b6b	-1.659773513166068
68	0xbff4404d4e6e5ba7	-1.265698725100927
69	0xbff11253412be614	-1.066973929000942
70	0xbff248e3d89e7446	-1.1427954160383407
71	0x3fee63f5d642f7e2	0.9497021851345802
72	0xbfa4c288915ddf76	-0.04054667257781734
73	0xbfb6294b2b63f66e	-0.0865675908025538
74	0x3ff0b93510fc656b	1.0452166236412619
75	0xbffa795f01dbb36b	-1.654631621607417
76	0xc00e8a570b499e44	-3.8175488359300136
77	0x3f5c3c0a48c94582	0.0017232990677665543
78	0xbff03e919b277dc6	-1.0152755795205493
79	0xbff41b7ce9037414	-1.256710920533128
80	0x3ff6cae2ad8384bb	1.4245325830345752
81	0x3fef49317d65029d	0.9776847313988416
82	0xbfefb6a45a9e3db9	-0.9910451669583643
83	0x3f749d377cbb84ab	0.0050327460737388625
84	0xbff787e2bfcb11d6	-1.4706752292560075
85	0xbf80e8c17a164023	-0.008256446398064615
86	0xbfb08fce54670f52	-0.06469430504426768
87	0x3fa80434542c30a8	0.04690707709787151
88	0xbfee93b7c0ffb545	-0.955531956625841
89	0xbfff8201e982abfb	-1.9692401048184809
90	0x3fb00ee6d9ca4cfc	0.06272738282341445
91	0x3fdbffd24029d3c2	0.4374890925021725
92	0xbff0f8fc2fc3a040	-1.060787378863111
93	0xbfae7df29da7304a	-0.059554654831658185
94	0x3f96dc07f8ee14ae	0.022323727196199065
95	0xbfc27c93c0a17e89	-0.1444267931537875
96	0xbfefd6ce289a51f5	-0.9949713509582226
97	0xbfb2b3b73290fc55	-0.07305474266557728
98	0xbf9526dd18bcb12d	-0.020656065592605067
99	0x3fda765b307d10b7	0.4134738896866667
100	0xbfb47f36f41a5a0b	-0.08006614169639918
101	0x3ff3be3a6449153c	1.2339424054528783
102	0xbff177e474d6bdba	-1.0917706073777098
103	0xbff61b0ddfb271d2	-1.3816050279775607
104	0xbfad6adff2120c11	-0.057456014918919725
105	0xbfd4b2a544dbe1fb	-0.32340366100791557
106	0x3fafc32169684622	0.06203560268125964
107	0x3fc223e989858021	0.1417209550372727
108	0x3fded67e11bf72fa	0.48184158070743843
109	0x3fd62b18e608523d	0.3463804479991131
110	0xbfabe1dbbb1cd2d5	-0.054457537260906776
111	0x3fc1f9e05bc205cb	0.14043812256208663
112	0x3f833cac15d320e8	0.009393066803014397
113	0xbfcb3fa15a970b1e	-0.21287934230175493
114	0xbff8a638327e07a4	-1.5405809376102093
115	0x3fc75d1cd3e975e0	0.18252907130492613
116	0xbff29c973ac81c12	-1.1632301613005933
117	0x3fb8175dd5f98c22	0.09410654520029074
118	0xbfa7ecf72f28288a	-0.04672977877278679
119	0x3fdfb40afdfe5c47	0.49536394886076035
120	0x3fd787d0d09a37a2	0.36766453143433797
121	0x3fdbef2708e5b452	0.4364717089545752
122	0xbff0371948f5ca5e	-1.0134518480305341
123	0xbfd4e82b3a35ad1b	-0.32667046246088355
124	0xbfcc6113124ba1eb	-0.22171247857410434
125	0xbfda74e70d4174f8	-0.4133851651620968
126	0xbfe9dfcbc2d1e78b	-0.8085688405110302
127	0x3fd5031357123f51	0.3283127165132003
