COLA_Emulators/PCE/wCDM_PNN_HIGH/MODEL_Z2.529.pth (torch, 192382 bytes, 10 tensors)

layer1.weight f8 [128, 25]
00000000: c54d af9c e546 c3bf eb62 e7b9 8366 c3bf
00000010: 73d7 4645 6555 b53f e81b 64b1 8aeb b43f
00000020: dd07 1430 10e0 c6bf fd7a 00e2 0889 c9bf
00000030: eec3 9da8 d14e c63f 938b 2ef9 6167 c0bf
00000040: f0ce f683 04af b23f d291 c3a1 7e34 c13f
00000050: 3372 92a9 2954 be3f b44e 0dc8 b5e9 a7bf
00000060: 3ed8 a685 776c c5bf b6e4 f0c2 65d9 b13f
00000070: a1ad 3c7d f935 c43f d241 51c7 ad50 c13f
00000080: 4885 500c 5cae bebf 8d6b e744 ef9c a8bf
00000090: 0f08 aed9 fed0 a1bf b409 c8b6 6562 a63f
000000a0: 5d4d da09 d28d bebf ed32 0526 69e2 c83f
000000b0: b312 bd79 f995 b9bf aa27 53c0 6f8e 9c3f
000000c0: 5af2 e802 2da2 893f a73b cb74 10fe babf
000000d0: be18 4a71 fbf1 b0bf 60d1 1826 715f 413f
000000e0: 2749 6e05 533d d0bf 85c7 b286 ad2b c1bf
000000f0: cfd1 734c 06a0 b43f 556e 4e59 dd18 a7bf
00000100: dbbe d339 0480 bd3f 8fa4 c877 560b b4bf
00000110: 9f21 5a7b b357 debf fc22 500e da23 d2bf
00000120: 15b9 f370 c1eb c7bf 73ee ce70 1c90 b0bf
00000130: 60c9 4b81 fdba d13f deae 3c00 aaab d4bf
00000140: becd 0008 2412 babf d633 4943 df2d bbbf
00000150: 4cb7 5402 bddf c83f 2b9d 04d5 32a9 9ebf
00000160: 84ee 5827 3275 94bf cba0 749e f6a9 a9bf
00000170: bb0d b027 2efc aa3f 54bb 6595 60af bc3f
00000180: d0cc 2e89 cb39 ae3f bb7f 4887 a365 c13f
00000190: 6897 9735 ee56 77bf e197 ff64 a176 9cbf
000001a0: c320 fdb0 5ee2 b7bf 2343 664d a51f 9d3f
000001b0: 4ca6 c954 9299 9e3f 2d19 b682 8f90 babf
000001c0: b1ad e0ee 9f25 d1bf 53a7 4979 e2c7 c6bf
000001d0: 81a9 264d af78 c7bf 4601 dbd5 dc1e e23f
000001e0: 5cc9 b649 4043 e2bf 015c 21c8 5375 cb3f
000001f0: 75b4 5ab8 d67c c6bf b6df 32e1 8108 d4bf
00000200: 170c 2902 d402 c0bf 57f7 41c0 8dd8 cc3f
00000210: 3b96 440a e712 b8bf b32f a4f7 e5c2 e0bf
00000220: f5cd ce19 81d1 d9bf 7fbb 32d7 273b babf
00000230: a2d9 2dd5 f209 c9bf 94b9 009e 3a8e bfbf
00000240: 1238 4a37 1aee c0bf d206 953f 0f0f ca3f
00000250: fb9e 9a2d 9605 e03f 75df d173 8493 8bbf
00000260: c1d1 6b3c dd2f 813f 313b e761 d68a b6bf
00000270: 2a1a 4fe7 86fb b93f 0134 0d3a 9ba5 c43f
00000280: 2bd3 101d d13d ba3f fd72 ea28 d4e4 d03f
00000290: df78 bbef 09f3 c43f ccb7 809d 95a5 bb3f
000002a0: 8206 50dc 9e0c a33f aeb5 4f5b fcd5 af3f
000002b0: e907 7e68 13fa c6bf 5a1a 7cf4 5413 c53f
000002c0: e5a9 5277 7b6a 863f 20b4 c799 70ca c63f
000002d0: 37fa 817b efb9 d03f e642 3303 5f2c c0bf
000002e0: da33 00bc 5267 d2bf 0c5f 22ad 8ea5 cbbf
000002f0: f742 1fb5 6f60 a7bf 0c4a c805 567b cfbf
00000300: c477 dd19 64d4 b4bf 62d9 c024 4f4c d6bf
00000310: 6721 4b8c 85bb a3bf 4759 f410 b554 b53f
00000320: eacb 8317 35be b3bf 9977 d136 4722 a7bf
00000330: 3740 a30a cc6b cdbf cbd3 3981 de5c babf
00000340: 656d 2a81 adca cdbf b65e 8e47 ad85 ae3f
00000350: a5ef 7c59 efa6 b8bf bb50 87ae 98e1 bbbf
00000360: 3d66 2344 a9c5 ccbf 640e 2f08 4b35 b03f
00000370: 8698 f27a f78f c4bf 0ace 3b7f 1917 c03f
00000380: 42fd b75a 9428 b1bf 0a5d fe78 d49a 6e3f
00000390: 47a8 1f45 04de babf 4d8f 3ea5 d01c b8bf
000003a0: 8475 605e c2ee c1bf a4ad fb99 ec7a cb3f
000003b0: f1bc 53bb 23ba 96bf 1794 4bb9 5cc2 c73f
000003c0: a140 d3b1 c802 c83f ea94 5404 072c babf
000003d0: ff2b abe0 5079 643f 1516 8696 6d8f b5bf
000003e0: 4b3b 8b32 6eb9 a73f f484 79cc f671 79bf
000003f0: 8f0a 064b 0299 b1bf 2fc4 acab 5692 b7bf
00000400: 09ae 23fc 0dad 923f dc7b 2489 9403 8ebf
00000410: 83e1 8ee4 93de 9bbf 2e07 caab d732 babf
00000420: 7fdc 14ac 2e35 8e3f 7a42 ab72 9552 99bf
00000430: fd76 b4df 79dc c53f 9cdd 043b 9f7d d1bf
00000440: febc f264 044d b4bf 4cde afed e189 dc3f
00000450: 05eb 0f24 fc20 913f 658e 20ad 221a 9cbf
00000460: 7348 6dc8 ffbb b4bf cedf fc69 85fc a7bf
00000470: f75a 11ed c9e7 d5bf 7e54 c71c 6716 b5bf
00000480: 323a 681b 52c5 9ebf 74b1 52d4 2a4d d1bf
00000490: 022a 24d2 ad86 cdbf 19d5 1596 6d74 b6bf
000004a0: da58 f9a6 6c2d ba3f a2c5 51cf 5c58 ae3f
000004b0: 990d 8298 a129 8fbf de6f b412 7d77 b8bf
000004c0: 0e09 b7e3 ed84 c8bf fd82 7039 3f25 9dbf
000004d0: a447 5c37 6f69 d83f ca8e 7f47 52ca a1bf
000004e0: ce97 41eb 7210 b73f 4756 e2ca 83a1 d43f
000004f0: 7014 34aa 79d1 c23f a715 c2b6 ba55 a8bf
00000500: 7f53 ad12 318b a93f 56c5 cc22 11cb c6bf
00000510: 0882 718b 9a50 a1bf a521 f786 f393 d0bf
00000520: c2a0 2d1f d8b5 c03f 1f84 9c90 7cac d2bf
00000530: 9e82 f592 1f45 b2bf 664d b8c0 21e3 9e3f
00000540: d82f 58fa 3991 a13f d5dc 1b08 105c c43f
00000550: bb6c 14b3 6a25 843f 5951 97cb a50a d0bf
00000560: da0a 8209 490c 9b3f 8886 b8a8 8242 c83f
00000570: 7568 68b6 8a77 c43f b663 eb4b 8ffc bbbf
00000580: fea4 6388 036d 6a3f 1f71 02af 91fb c2bf
00000590: d266 8c5f 7351 a9bf b0c2 c910 841b b83f
000005a0: 81ff 7b81 79f1 d23f 1302 ce4c da77 c2bf
000005b0: 24ea b26a ee4c b33f 6c43 1a52 d430 bdbf
000005c0: 935f 36ea b3b6 dabf 27d3 5b42 a27c 95bf
000005d0: d60a e466 d2c7 d53f c217 391a a3e5 bebf
000005e0: 32db 0b54 f073 84bf f475 970f adc2 99bf
000005f0: 3674 1399 18f4 d3bf 2fa7 dd2d f42d b13f
00000600: 3b51 4ba5 3acb cf3f 8bcb 8973 7c66 cc3f
00000610: e29d d081 1131 52bf 0312 d67e 5fbb bcbf
00000620: 7824 b98d 1b20 d33f 437a 27ea 34ea d43f
00000630: 3aec 5f34 78b3 b03f 5009 79f3 c067 a53f
00000640: 43bd 5028 b33d a83f 68b8 9ae7 a32b b23f
00000650: cd95 f142 b85c b7bf 09ae 19c1 f174 b03f
00000660: 32c0 82f4 1193 943f 20ba 7f37 31d0 c43f
00000670: 2343 995b abb2 d1bf 46a2 81d4 c032 c73f
00000680: d10e c258 fd0b ca3f 9ed8 892c a5f1 c5bf
00000690: 79cb 3171 8f58 b03f 3056 3319 82d0 a8bf
000006a0: 78ba 2308 7759 953f 7bbb fe23 c548 803f
000006b0: 1a84 1ae0 4f52 cf3f bf50 01fe f42d b53f
000006c0: ffa5 65f8 fd74 9c3f cae9 5912 dcbf d23f
000006d0: 842f c35c 9eab d23f 8380 4f9c 339f c23f
000006e0: 053b 8f1b 0483 ac3f 4c13 6855 46a2 993f
000006f0: aa9e bbc5 639c d4bf 73e4 c244 4294 9b3f
00000700: f9dd 40b6 ae3d cdbf 10d9 950b 6b47 bcbf
00000710: 99c1 4d52 17aa b4bf faa6 4927 c9fe cbbf
00000720: 52c8 93b2 37bf 88bf 8a5c a6b3 80cb c5bf
00000730: ad8a b710 13d2 a4bf 070b 4df3 a9a1 b6bf
00000740: 1446 f219 aa1b b9bf 84bb e19b c070 a93f
00000750: 2e62 1d96 1b57 cabf c0fc 328b 1f6e be3f
00000760: 54f5 cae5 4ccd a73f 948d ce11 7d91 c23f
00000770: 9b23 7be4 05af c9bf a103 cca4 e137 babf
00000780: b17c 0208 1e71 a03f 4dca 3903 b588 be3f
00000790: 3753 12e8 fd84 c5bf e7c0 d764 a372 a9bf
000007a0: 01ff 8c6e 7329 c53f e775 d7d2 fee4 c73f
000007b0: db6f 9ad6 400a b23f f37c 2897 44ab 8b3f
000007c0: 38d8 c76e e891 abbf 53f3 a458 fccd c33f
000007d0: e82b bdde 98e9 8abf 441b 3be0 d129 7bbf
000007e0: 7d53 d555 02f6 893f 541c 41a6 4600 843f
000007f0: 8f0f e220 2297 a23f 83fd 9d65 30b1 b53f
-0.15060110235809368 -0.1515659959539087 0.08333428326917929 0.08171908217273904 -0.17871286723681026 -0.19949446711776622 0.17428036435333588 -0.1281549898822872
0.0729830572298018 0.1344145097601897 0.11847172155325651 -0.04670494143524931 -0.1673726465793965 0.06972347268392096 0.15789717307175713 0.13527462227149428
-0.11984801579139515 -0.04807231632340523 -0.034797634193651665 0.043719461977178936 -0.11935150852723582 0.19440950733623855 -0.09994467947133039 0.027887102235389406
0.01251635708933312 -0.10543921328938542 -0.06619235530715437 0.0005301763996557289 -0.25374293833114553 -0.13414544179027757 0.08056678167833485 -0.045111577178627606
0.11523462688250723 -0.07829800056846835 -0.47410285039998173 -0.28343821904904565 -0.186882190849652 -0.06469896082028885 0.27703797937933494 -0.322977543097961
-0.101839305833713 -0.10616870300982781 0.19432795156302018 -0.02994231629523118 -0.01997831692845732 -0.05012484249374579 0.05270523294896231 0.11205104491612633
0.05903469132990724 0.13591426950097038 -0.005698137765170454 -0.027796289243177234 -0.09329788037314572 0.028441031312072994 0.029882704186468254 -0.10376831952280403
-0.26792143180747546 -0.17797499582530438 -0.1833705069269165 0.5662674118866924 -0.5707093658186682 0.21451804420459555 -0.175684776322132 -0.31301924697936145
-0.1250863085316218 0.2253586949117856 -0.09403842926675392 -0.5237912976021931 -0.4034121276883689 -0.10246514324056298 -0.19561610612045138 -0.12326399190417298
-0.13226630878165274 0.20358458141895724 0.5006819620802782 -0.013464960846462518 0.008392074972541576 -0.08805599107948293 0.10149424693290912 0.1613039048628764
0.10250575027096136 0.26396659846959364 0.16366695600203848 0.10799536795886339 0.037205662149074406 0.062179456850440004 -0.17950670816577421 0.1646524614117933
0.01094528634924514 0.1780529738311154 0.261348600972187 -0.126354099810235 -0.2875563465066172 -0.2159899087316649 -0.045657626018174406 -0.24595141680090682
-0.08136582976791745 -0.34840754117194284 -0.038540051818531755 0.08332378066947853 -0.07712108444302115 -0.04518339676063405 -0.22985220450800778 -0.1029795709126368
-0.2327477341358232 0.059613623604659535 -0.09629722533003233 -0.10891107808066895 -0.2247821409899177 0.06331318807411318 -0.16064351561835027 0.12570494377688163
-0.06702544417202197 0.0037359380584792755 -0.10495020568456069 -0.09418968233381726 -0.14009885414354184 0.21468884962756107 -0.022194441135920454 0.18561896369570327
0.187584959820474 -0.1022343049595126 0.002499254192434019 -0.0842197887887653 0.046336597127825195 -0.00621220021966561 -0.0687409814036448 -0.09207669917374582
0.018238276018491848 -0.014655266223199286 -0.02721625406749829 -0.10233829444953521 0.014749874712477016 -0.02472909462341242 0.17079089568226627 -0.2732923580510602
-0.07930018868022512 0.44591568194980336 0.016727390004215987 -0.027443448845714608 -0.08099363940462627 -0.046848458469355245 -0.3422722640147379 -0.08237308933833451
-0.030049593851851415 -0.2703349183527941 -0.23067257653049472 -0.08771405138198353 0.10225562168611493 0.05926790266756689 -0.015216124025988974 -0.09557325083409249
-0.19155667895217515 -0.028462398415402202 0.381435207426984 -0.0347467148092427 0.09009474032936213 0.32235808194068166 0.14701767740931215 -0.04752906304296838
0.04989007332793615 -0.17807211112225713 -0.03381808235349487 -0.25903022937975556 0.13054944536566465 -0.2917777454586616 -0.07136723840586476 0.030163314235392667
0.03431111508334056 0.15905952831210493 0.009836991872865011 -0.2506498802370252 0.026414052205391815 0.18952973593063782 0.1598981276191044 -0.10932250598433665
0.003225809955541891 -0.1483022789515269 -0.04944954434740868 0.09416985902658825 0.29598844189603574 -0.14428261518698146 0.07539262871697666 -0.11402632717569156
-0.4174012934904507 -0.02098325281163507 0.3403211598198771 -0.12069148435793323 -0.009986760678186355 -0.025156692577970888 -0.3117734427340254 0.06710744972010894
0.24838955946928273 0.22187762872235015 -0.0011103316276236332 -0.11223408552729812 0.2988346942916631 0.32679484240171436 0.06523848799399526 0.04180720302658136
0.047345732375442505 0.0709783974113819 -0.09125854143493158 0.06428442921031076 0.020092278050185715 0.16260352334889294 -0.2765301126974455 0.18123636604583931
0.20349089464081385 -0.17143692660073823 0.06385132325685373 -0.04846579129813866 0.020849094268607676 0.007951297913533875 0.24469946329648523 0.08273249818131755
0.027790039335206625 0.29296018402206114 0.291724768246006 0.1454834473834162 0.0556870731012307 0.02503309150963 -0.32204527196743504 0.026932750174385633
-0.22844489955035366 -0.11046475441785142 -0.0807203842102865 -0.21871294420571258 -0.012083468568082765 -0.1702729108044177 -0.04066524104179812 -0.08840429487194622
-0.0980783761354121 0.04968835738042457 -0.20578331785033427 0.11886784695069519 0.04648819260681117 0.14506495828127852 -0.20065377861308495 -0.10241518281328733
0.03211301658415645 0.11927348450425619 -0.1681210883295081 -0.04970274549475722 0.16532748125063537 0.1866758851528367 0.07046895255410794 0.01351026140497289
-0.0538475642423894 0.15472368553482826 -0.013140863702252717 -0.006631679370633862 0.01267625641291103 0.009766151379279865 0.03630930568127077 0.08473494034659805

layer1.bias f8 [128]
00000000: 2d56 e241 bc6a b7bf bc61 8c58 0b19 d43f
00000010: 81bc 861c b776 b6bf 2ebe d6e8 ff8e b63f
00000020: c7ef 6420 92ee a03f 3843 d5c4 004c efbf
00000030: 31a1 a93d 5612 b5bf b6b9 4c31 8195 d3bf
00000040: ee14 6983 75b7 dbbf 4e0e 7f13 1740 a43f
00000050: 9592 c310 fb4a ecbf 6bda d40f 953e bd3f
00000060: d8d3 e51e b73f c23f e4d6 17b5 c7b6 b13f
00000070: adf9 8074 34b8 b43f 24d5 b926 109c b63f
00000080: f0b0 3d6e d534 bf3f 5b3e 9a38 59dc b03f
00000090: 7e6a 8ec5 0f57 c1bf f5bc 7776 fd6a b5bf
000000a0: f095 896b ec9a c23f a04a 182a 9ab3 aa3f
000000b0: 1b16 8110 49c0 cb3f 3e38 7f29 0827 e4bf
000000c0: 6aa4 3554 c66c c5bf e7c7 95d8 2c71 c83f
000000d0: 2c09 c361 927a e5bf 31bb 95ee 2b4f 7a3f
000000e0: 0c4e da38 1463 c5bf ef4e 2529 950e d93f
000000f0: 09b3 2a20 2744 ad3f 1012 d054 aec2 b5bf
00000100: e3cd a6ef 507e c8bf 4737 ad93 725f c5bf
00000110: d03a 2e25 d9cf c03f 48ee f149 5316 d8bf
00000120: 0908 1eef 3ac9 babf 67c7 9120 2de1 cc3f
00000130: a0a6 bf8d 0474 b1bf b7c1 1bae d175 b23f
00000140: a78f 53af 2c44 dd3f c575 50b4 468b 8c3f
00000150: cf5c aa1f ca51 c9bf 164a 2a86 b112 a13f
00000160: 6c3c 1c06 6b94 ac3f 278b cca1 2c19 adbf
00000170: 1b96 9d1c 3a16 f13f 3650 799a aded d5bf
00000180: 6160 bc06 2232 bd3f 971d fd57 d1c1 b93f
00000190: a9b1 bae5 376a b5bf 2ccb cac8 0e46 c03f
000001a0: 9b63 abe6 3ea1 c3bf 64af 04fb caf7 ec3f
000001b0: 0381 6753 a71d bebf 1467 d8af 021b bfbf
000001c0: 2303 4c6e 59f2 d43f 0a07 248d af48 c53f
000001d0: 1d6c 3fc0 78f6 e8bf 7d8b c70a d437 8f3f
000001e0: c565 2e00 0fa6 c43f e9c6 785e 29aa c13f
000001f0: 1865 40a1 f8f0 eabf 88a7 7264 2c30 c8bf
00000200: 5cf0 f8e4 eb52 903f 7878 7084 f0f6 acbf
00000210: c257 9c38 3d1c a9bf 7b8c d3d5 8070 d13f
00000220: ca3d 8c06 df5e b5bf 52ed 2094 ea65 c73f
00000230: 3ad0 9cbf 9c8b d23f b7eb 22a9 f899 af3f
00000240: ae8f f918 a5d2 d4bf 499b ff6c 148c c23f
00000250: c072 6656 a262 e03f 82e0 ab56 f3b3 bfbf
00000260: 4686 5990 b2e3 c5bf 5c82 b4d1 8e83 a2bf
00000270: 8c0c 2b8b b75d c23f 3b1f a107 78b2 aabf
00000280: 0d37 180d b651 da3f fb90 260d 2765 c03f
00000290: 0261 0ba2 de58 e2bf 5e85 ac54 81ee a33f
000002a0: d180 6b77 7f28 bd3f e8a6 f9ec 1ba2 d9bf
000002b0: 2797 b6f9 20a3 b63f 22a9 5419 288e d93f
000002c0: c303 f031 cd0d b93f 9fd6 5ba1 8791 d53f
000002d0: 0fa6 8b58 d6d7 ccbf 3f4b f5b6 c541 b2bf
000002e0: 9827 fa90 8e12 8f3f 2646 0b1d 5c91 c2bf
000002f0: b562 448b 87b9 873f 778e be48 370d cdbf
00000300: d3f9 2cab 27a1 a13f 2554 67ec 3f0e a03f
00000310: 5691 809e 135d 9ebf 39f9 5f9e 3c6a d93f
00000320: 8e04 791a 4b29 bebf 3156 098f feaa cc3f
00000330: 373e e4b9 bf24 9d3f f543 1868 da54 973f
00000340: e0d6 cd3d 336c a2bf 8c66 8b53 1aa6 a83f
00000350: d62f 2ca4 04ea 7c3f b6de f673 8ba9 bebf
00000360: f68b 10be 2677 dfbf 81c6 d708 f938 e5bf
00000370: baae c1f7 2017 ae3f b375 1324 357a bbbf
00000380: bedc 220d 6cea da3f 5f87 8ca3 c705 f03f
00000390: a6c7 1616 d759 c4bf 01f1 c664 e6db a53f
000003a0: d250 fdbf c5c5 acbf f391 9e42 4692 d6bf
000003b0: fff9 46cc 9e05 b13f 1c2d c172 7c8f dc3f
000003c0: 200d eb4a 198c cd3f 207d 734e 805d b1bf
000003d0: 7c0d 0414 c2fd f8bf a3c8 c20c 492a d03f
000003e0: fd23 e17a 46ce a8bf 942d 6851 f65e 4ebf
000003f0: 657c d2b0 3f57 b6bf 38ef 141f 1544 c9bf
-0.09147240265368657 0.3140285839777126 -0.08774895140116891 0.08811950144330957 0.03307015080869707 -0.9780277103801387 -0.08231104855952222 -0.30600004019188576
-0.43307245095304736 0.039551468973084355 -0.8841529204770092 0.11423617969999504 0.14256943710975523 0.06919525309771363 0.08093574375468533 0.08831883378464461
0.12189992848806575 0.06586225158593477 -0.13546940943054503 -0.0836637891986703 0.14535289049960864 0.05215150607923147 0.2168055849635245 -0.6297646341788619
-0.16738204108995386 0.1909538323921531 -0.6712123784457495 0.006423160180345986 -0.16708615089429235 0.3915150548757386 0.05716058986340584 -0.08500184603332905
-0.19135486318337688 -0.16697532854817096 0.13134302440126655 -0.37636263104625245 -0.1046330293447967 0.22562183466248628 -0.06817654095325532 0.07211027622884712
0.4572860443279247 0.013937523248439452 -0.1978085188500018 0.03334574473150924 0.05581983995045267 -0.056832690001348767 1.0679265134616631 -0.34263172231044636
0.11404621757935864 0.10061367414629384 -0.08365201338410223 0.12713799289994066 -0.15335832846792816 0.9052481558514782 -0.11763997827756971 -0.12150589745615675
0.3272918297880542 0.16628069297444653 -0.7800868754233111 0.015243202761615166 0.1613177061924899 0.13800541985397466 -0.841915430969638 -0.18897013573342414
0.015941320276610646 -0.05657149903002873 -0.04904357257889515 0.27249165421944327 -0.08347886953219255 0.18279773934214433 0.28977125847018537 0.06172158302930291
-0.3253567451376921 0.1448998958796557 0.5120402991775208 -0.12383957735062448 -0.17101127670598454 -0.03615995702626115 0.14348501487083742 -0.052142859393426076
0.41123725203293376 0.12808693067666596 -0.5733483471804279 0.038929025255366 0.11389919915700665 -0.40051935331449195 0.08842664810671562 0.39930155252172217
0.09786684483698509 0.33700743444146924 -0.2253368313170516 -0.07131610600235393 0.015172113227226267 -0.14506102960744832 0.01158433812865787 -0.22696581890078324
0.03443263973757706 0.031358716590752324 -0.029651934193809147 0.39710917917536254 -0.11781758686358243 0.22396833404734331 0.02846049854366425 0.02278462658256682
-0.035981751722756306 0.04814226407843333 0.007059114580226086 -0.11977454739723722 -0.49164742051124166 -0.6632046864235265 0.05877020859119626 -0.10733348971139982
0.42055798800306465 1.0014110935812466 -0.1589917047363631 0.04269332866849319 -0.05619638413068774 -0.35267788415720175 0.06649200904119111 0.44625769812110305
0.2308379760562298 -0.06783296504317038 -1.561952665507163 0.2525808930032644 -0.048448755741055984 -0.0009268477177228223 -0.08726881091068746 -0.19739021318116

custom_layer.beta f8 [128]
00000000: a78f 0a4a dfb1 d13f 2082 8fbc b037 f8bf
00000010: 2ba9 2b67 27cf 0840 96c6 0e9a 41ed ed3f
00000020: 33c5 0f6f 90bb c53f b90b 86b4 f4e4 e63f
00000030: 4691 b367 4c3d f33f 4462 43bc 2de3 9cbf
00000040: f212 2610 69d6 d2bf bcc9 6b58 55f3 bebf
00000050: 4721 8355 d857 f5bf 0adc f55f 674e f0bf
00000060: 9db5 3191 0afb f1bf 64b4 b89c 0be9 b93f
00000070: acdb d769 ea85 e5bf 25b0 b14f 64e9 6e3f
00000080: 7b49 c9f0 218f ef3f 896b 3e3d 15ee b13f
00000090: b193 c1e1 d1ec b93f 012e c343 4c94 be3f
000000a0: c490 0729 bbf3 e8bf 07ea c721 5376 f73f
000000b0: c8fd b1e4 26a7 fe3f 7c62 edbe ecca 0540
000000c0: 2f6a fda1 78a2 a23f 1361 1440 9ace 9a3f
000000d0: 815d 7caf 0594 c63f f7b9 8d18 1eee b03f
000000e0: 399f d79f 8ed0 a13f 3eb8 2599 24ba f33f
000000f0: 3dcd 9e26 dcf4 f43f adfd 3756 39fc b1bf
00000100: 402e fdd4 f8cd f5bf 2c57 f1d1 0f22 6fbf
00000110: e20e 0da2 35cd 9a3f a905 5ce9 0ccb f83f
00000120: 9cca 123e 7129 a4bf 7cff 6f08 bbe8 96bf
00000130: ff73 0102 dae7 623f f22f f552 2061 b33f
00000140: 4f82 39e8 123a ad3f 89ae e48e 38e6 83bf
00000150: 3c97 e5cd 21a1 a7bf 4c13 5d03 7a45 f7bf
00000160: 161e 9819 5851 be3f 22cf b942 daca cf3f
00000170: b38c 619e 49d2 e5bf 509d 5880 7505 e53f
00000180: ec79 2e4f 0988 e8bf 8599 5f6d 8864 f23f
00000190: 3316 04e3 8267 f13f 2365 54a4 1ecd b83f
000001a0: 89eb 32a4 d1ee e13f d234 1a8a 520e f23f
000001b0: 91dc d472 bb40 623f 5229 1e1c 95d6 f23f
000001c0: 496a 752d 0912 f5bf 20d5 54de 7209 dfbf
000001d0: 694c eb4e 94ff fd3f 3c80 be5c cfb6 a4bf
000001e0: 86fa 429a e78f fa3f f7ae ec8e 5d6a b13f
000001f0: 8d16 e857 eed2 e8bf 3dee 9d2a 5816 ee3f
00000200: 4c57 62fe ef9f ea3f 2d7e 3c53 e744 e83f
00000210: 2710 e48c 5a37 03c0 d546 fc1b 3dfc b93f
00000220: 5916 84eb 7d44 b1bf 0ea4 8a42 ca9e f7bf
00000230: 2432 e7f8 64d4 f2bf 727a f270 0e0e d8bf
00000240: 8f4b 808a d2e6 883f 42d3 9247 3cca 9e3f
00000250: 5881 3b5a 62a4 fcbf bc25 e032 3244 e4bf
00000260: 15ab 3bff 69ea 86bf facb ff7a 8e6a f4bf
00000270: 0bfb 618a aaef cbbf c67b 96d8 dd56 d1bf
00000280: 492f da11 1be4 f13f a1ae 7cb5 d9a0 d93f
00000290: 1244 0f96 d0ac fabf 8ce5 aa23 8cc8 a53f
000002a0: c957 4c62 ab87 c6bf 7878 c6a8 c521 f03f
000002b0: c9a6 1dae 6af0 86bf 37e6 3d66 6b3d ee3f
000002c0: 3368 8c5b f59e c3bf 8140 0ff4 61ae f33f
000002d0: 8faa 786f fc41 e8bf ee71 b9d8 51e5 d93f
000002e0: 4625 3ab0 6240 c93f edb6 650b 0b72 f6bf
000002f0: 1cd4 d00a bfed e6bf 5bfb c9b9 22ae 6e3f
00000300: 5a1d 09ee baa0 76bf f18a 6729 f8b9 f6bf
00000310: 47cb b874 e6c8 903f ead3 9a8e b8ef e53f
00000320: dc46 9c8e 1f0f ebbf 062d e048 b726 9e3f
00000330: 5e8c 98cf 0ee0 8dbf 8a70 e3ac 74e5 b4bf
00000340: 9083 12ce ab10 783f 496f 466e d849 b23f
00000350: 293c 8191 1cf4 f6bf d2a9 7559 fc7d cebf
00000360: 717e ed42 14a3 f9bf 3157 303c fca5 efbf
00000370: a748 cc93 3f40 f5bf d99f e627 a4e3 b7bf
00000380: 9173 3bce d83d e2bf 843c 6ce2 c70f 05c0
00000390: 60d7 bdc7 7d17 f2bf 9c46 49ca db86 f0bf
000003a0: 247e 901c 95c4 aa3f 7772 d654 d098 d9bf
000003b0: 42dd 5e92 c8e7 d23f 2a16 96fa 62fd d6bf
000003c0: d789 69a0 2297 e33f 1051 e63d 98cc f53f
000003d0: 84cc 0b30 c9b4 03c0 a680 42e3 888f e1bf
000003e0: 4572 83ae 5cdf f1bf 534c 61ee b5f6 e63f
000003f0: 16ed 854e f481 793f 0855 bd8b abd5 b13f
0.2764814589556814 -1.5135962834975842 3.101149374027178 0.9352119454326437 0.16978650496415923 0.7154487157680399 1.2024654436909983 -0.028210367789912164
-0.2943365724279793 -0.12090047272412269 -1.3339465465852116 -1.0191415546848952 -1.1237893745086247 0.10121223999222334 -0.6725971286058345 0.0037733992772271013
0.9862222388131124 0.07003910775385526 0.10126983415246006 0.11945034651142096 -0.7797523309095813 1.4663878745619756 1.9158085759553263 2.7240843692964614
0.03639580705085554 0.026178751145466594 0.1763922793258921 0.06613338565305314 0.03479428960036874 1.2329450590437 1.3097802647215098 -0.070254882382861
-1.3627861328012756 -0.003800421618090596 0.026173437133606543 1.5495728602985344 -0.03937868006450637 -0.02237217177389493 0.0023078210797806693 0.07570077920280463
0.057083693359122216 -0.009716455326802336 -0.04615121496571681 -1.4544620639218975 0.11842871308191891 0.24837806947800184 -0.6819198697452492 0.6569163805733442
-0.7666060015215499 1.1495441696548323 1.0877713077365 0.09687987815813819 0.5604026991853611 1.1284966845153588 0.0022281323532769644 1.1773882959701791
-1.3169032836655268 -0.48495170318649805 1.874897297170515 -0.04045722968226115 1.6601329828114628 0.06802925814980286 -0.7757484166074434 0.9402275879251146
0.8320236175957034 0.7584110856732359 -2.4020281798457463 0.10150510724295299 -0.06745135307218088 -1.4762671088485635 -1.1768541071679772 -0.3758579352378667
0.012159008838386302 0.030068342083455997 -1.79013285872505 -0.6333247178710546 -0.011189296819301068 -1.2760147862106792 -0.21825153119058202 -0.2709269156566133
1.1181898782114834 0.40044253085464204 -1.6671911107735053 0.04254568038363535 -0.17601530360906129 1.0082451432022292 -0.01120074600085576 0.9449975010786095
-0.15328852625026598 1.2300738843514696 -0.7580549409079412 0.40462156452647846 0.19727738957252877 -1.4028425641258153 -0.716521760105596 0.003745143722255246
-0.005524378008494446 -1.4204026810991162 0.016391373514305554 0.685512808346741 -0.8455961022720788 0.029444564650515502 -0.014587512693713996 -0.08162621708783227
0.005875273812450468 0.07143929188026478 -1.4345975574285694 -0.23821977966447477 -1.602314244686479 -0.9890118766368002 -1.328185632072328 -0.09331727956907744
-0.5700496700261387 -2.632705468109238 -1.1307351877598748 -1.0329244520002367 0.05228105519949747 -0.3999520138257035 0.2953969411277805 -0.3592154929286574
0.612199128441996 1.3624498765903503 -2.463274360046457 -0.5487713278453341 -1.1170317475254177 0.7176160484181174 0.006227449725311437 0.06966659700022515

custom_layer.gamma f8 [128]
00000000: cef9 a0a7 4e15 e73f 1cfa d9e7 36bc f03f
00000010: 73eb 4232 e0b5 e1bf 8175 4c6f b8b2 d5bf
00000020: aa8c 5f6d 2b9a 97bf 6838 cdcf 7915 ffbf
00000030: da8b 1b2d cb13 96bf b75e 21e3 8f3d f9bf
00000040: b159 6af5 a690 9ebf f312 66dc 5d70 d5bf
00000050: 860f 8028 5666 e1bf 9f3e a93b 158b ec3f
00000060: 2225 c9de a7a5 f03f 4683 c0f3 5f41 e7bf
00000070: e785 1010 ea5f f03f 4ffd 75a3 045a f0bf
00000080: a255 b3d3 f3d7 ef3f 2893 d3b5 bb15 ea3f
00000090: fdd4 e489 281f ea3f 7db8 b067 e0ce c23f
000000a0: 0b53 36e8 fbf1 d3bf e0fd ebfa b04f b1bf
000000b0: 9689 76a0 39e1 97bf ba33 310b d537 eb3f
000000c0: 1096 b999 b376 d73f 8bdd c628 9d97 d7bf
000000d0: 9b5a 17b1 e365 f83f 81d7 eede 3799 e43f
000000e0: bd4a 2ec4 6b92 e7bf 0959 848f bb60 ee3f
000000f0: f307 9f4c 031b 9e3f 1605 e40e da98 c3bf
00000100: f219 0b98 e16d ea3f 47e2 4e9b 1b55 dabf
00000110: 6724 f151 cdde f5bf b40c 852c 6038 ef3f
00000120: 96f8 26ba 4941 e2bf f3be 9a3e a9b8 0040
00000130: 7ffe 2022 5b17 e1bf 1fc3 cb76 80d4 0340
00000140: 1752 24e0 8864 0040 cffb 9fdc 79ed ce3f
00000150: 2478 9f63 f903 f4bf f7e1 785e 776a ee3f
00000160: 5df5 730f 837d f6bf 5a5e f169 cc56 d13f
00000170: 7521 4fcc 3f3f 0840 84fc 12bf e29a eb3f
00000180: 6555 8643 283f f53f 876f 20fa 8198 e83f
00000190: 113c ae20 65d9 d2bf b024 f924 7412 df3f
000001a0: d430 9fa8 bb2a ea3f 3508 24e1 1eb6 d13f
000001b0: da6a e464 cb21 d13f e861 e9b8 88af aabf
000001c0: 6625 be22 0d7b b13f d92e 918b 1b36 d9bf
000001d0: 9f8c f306 3f98 e73f 8224 4c9d 2ae2 f3bf
000001e0: f676 4b3f 9ae9 e93f 1815 f022 a1e4 e23f
000001f0: cb4d 4c45 1a10 bfbf 13eb 1bfc 423d e4bf
00000200: 385a ab8c 100d f0bf d1be 00ad 1cab f43f
00000210: 92c6 f948 210a d73f aac2 0a31 2871 e13f
00000220: 9a54 9882 b2a8 e9bf 23a5 d9b3 64cd c9bf
00000230: 1c89 f2e3 aa4d e43f 09ec ae3e 1010 ca3f
00000240: 6899 0d5e 3bad fe3f f0ca 19b7 53bb d5bf
00000250: 6088 c794 08ac e8bf 6e3f 3148 01f4 e53f
00000260: 4325 63e3 f331 f5bf 7d95 4723 5cb5 f03f
00000270: 2eac 5299 27d4 e83f b7c7 51a0 93ed bf3f
00000280: fc5d 59fd f958 eb3f ba89 8f23 6429 dd3f
00000290: 80c9 6a3f c19c dd3f 689b ad7c 3308 c2bf
000002a0: c65f 5dcd 9ccf f03f a1bd 3260 de8a cf3f
000002b0: cf63 3297 9c64 e4bf 0b01 6fde 50cc ee3f
000002c0: 3635 1959 9f09 ed3f 1310 0164 ac00 d23f
000002d0: d932 e7b5 8ee8 ed3f 7208 20b9 3298 bcbf
000002e0: 0c64 8cdf ca9d e43f b8c1 81ff 252c debf
000002f0: 6128 4e6b e67f ea3f 7faa 1f93 4118 abbf
00000300: 86a5 0449 0ddd cebf 07ec 5a87 bf99 e83f
00000310: 3c62 540c a9a8 fbbf d3d4 622f 401f f03f
00000320: 5f41 a7e7 3b97 f03f 5614 b405 b81a d6bf
00000330: 7203 3117 4cfe f13f 1130 1d76 f4a0 fe3f
00000340: 3ae3 86fd 5b72 f0bf 0422 3bea aece fabf
00000350: fbb8 9ca6 70fa e43f f44a 5c8d 6a29 d93f
00000360: e54d c5a2 0396 c43f fd38 4b55 10c8 e13f
00000370: 752f fe19 0f7e ee3f d0f6 ca84 9e7f f5bf
00000380: afb5 c399 3aa4 f1bf 17ec 93d0 1060 f23f
00000390: 2b18 de72 53bf e13f 09b7 263b aa9e 9dbf
000003a0: 6e9e ac03 1029 ecbf fb17 c500 e82e eb3f
000003b0: b110 4b3f f97b e03f 9b1d f7ca 4514 f73f
000003c0: 9154 1f30 277a e93f 3841 6b03 9a69 ed3f
000003d0: fd61 a8a1 d52f 00c0 2b83 59a0 9c40 f13f
000003e0: 0b30 106d 2668 f03f 3e29 9b87 6a38 e0bf
000003f0: 13dc 7c08 d372 d53f 1a4a a42d eee3 f53f
0.7213509820938329 1.0459507996271276 -0.5534516317051 -0.3390332304860167 -0.02304904799519806 -1.9427431218387259 -0.02155988180937727 -1.577529799678741
-0.029848679284066374 -0.334983315690166 -0.5437422553081752 0.8919778981453027 1.0404432966773318 -0.7267303238660154 1.023416579010126 -1.0219770798865573
0.9951113829399001 0.8151529837892655 0.8163035100211854 0.14693837225917497 -0.31164453198407277 -0.06762224317571208 -0.023320103091131715 0.850565454349286
0.3666199685306717 -0.36862877828704005 1.5248753469110514 0.6437033991012272 -0.7366236526161952 0.9493081858697973 0.02939992098959716 -0.15310216643414581
0.8259132356259313 -0.41144457022486275 -1.3668950272424583 0.9756317967916375 -0.5704697261605982 2.0901665583586406 -0.5341010729388954 2.4787606507237707
2.0490891944011866 0.24162219307615238 -1.2509702579041084 0.9504963727150074 -1.4056425670272212 0.27092275949460076 3.030883403935315 0.8626569492261216
1.327919257896917 0.768616665390696 -0.29451873961892355 0.48550132380166655 0.8177164357562341 0.2767407606735362 0.2676876530910427 -0.05212046868536274
0.06828386400424832 -0.3939274657211463 0.7373347411888921 -1.2427164215498867 0.8097659336305856 0.5904088671092351 -0.12133945648047655 -0.6324782299046511
-1.0031896109482101 1.2917753942419277 0.3599932873395143 0.5450631101467327 -0.8018429327663796 -0.20158060819384457 0.634480900964522 0.2036152177878139
1.917292945284851 -0.33955853348667997 -0.7710001855705393 0.6860357675559337 -1.3246954805675422 1.0442773225889532 0.7758977884853999 0.12471888221787607
0.8546113918518468 0.45565131638263845 0.46269255822257804 -0.1408752783565561 1.0506866476116428 0.24642543503931072 -0.6372816994727318 0.9624409050375403
0.9074246158794839 0.28129110113172934 0.9346383621974282 -0.11169735927254168 0.6442617765598029 -0.47144460632173546 0.82811280210559 -0.05291943474715754
-0.2411209684881152 0.7687680858283564 -1.728676841890901 1.0076295710580794 1.0369223641356127 -0.34538078839279274 1.1245842843929634 1.9142956365421961
-1.0279197600741115 -1.675459780659481 0.6555712942261204 0.393152845427877 0.16082807014264158 0.5556718507666855 0.9528880603479438 -1.3436570346088281
-1.1025949484277182 1.1484535358019963 0.5546052211291274 -0.028925571308426466 -0.8800125190509342 0.8494758620297483 0.5151334987827082 1.4424493721324783
0.7961612644090953 0.9191408221031798 -2.0233566884528487 1.0782743705423836 1.0254272709162275 -0.5068867348248103 0.33513332203750784 1.3681470663910944

layer2.weight f8 [128, 128]
00000000: d9a4 8bb2 db94 b2bf d572 469a e5e2 aa3f
00000010: 71ba 081c 4e3a c2bf 3edc d8b6 abc0 a2bf
00000020: 0ccd 7ae4 57b9 c9bf 16f8 75dd d5ff c2bf
00000030: c332 50f8 946b b6bf bd89 e317 701a c23f
00000040: bfd5 bf96 2940 d1bf 05ec 2370 1c0e a13f
00000050: cb01 e64c 0b97 bc3f f9f1 8fdf 55ea c3bf
00000060: bce7 aa3d fabd d13f ac1d da02 6fa7 a83f
00000070: efd7 b396 ce8c bebf 23fb 1b86 6289 c1bf
00000080: 2cdf 5508 1f4e c93f 6517 c80b cb32 b6bf
00000090: 7936 68e3 15d0 b73f a6c8 26a8 3d03 c0bf
000000a0: ff3c bb28 3760 b73f f632 921a 360e 73bf
000000b0: 97ff 78a2 30f2 a3bf c3f9 98de 4771 cf3f
000000c0: f67b 3607 67cc b2bf 5d5a 4c6b 63da d53f
000000d0: a0c0 837b 4040 b83f 0034 411b 12da b03f
000000e0: 25b0 0665 4e9b 8b3f e517 1c6c 90f5 9dbf
000000f0: 2ee1 22b3 579f c43f ac35 25f5 50f8 cd3f
00000100: f150 839d 918a c9bf e93d b8a5 c547 c33f
00000110: ff73 f78c 2321 ae3f ce7b ee63 bd1a ad3f
00000120: 4b9d d8e9 dfbf bfbf e6df 7c26 bbc4 e1bf
00000130: da4d 5163 8b17 7cbf a39f 2748 49cb b4bf
00000140: 6c48 2c8d 08a0 adbf 107c 4ae7 5ef3 a73f
00000150: 030b ef29 cc8f cdbf 6090 e040 6108 cd3f
00000160: ff94 bcaf ace4 89bf a991 d1d6 538d b03f
00000170: 83a7 1479 dec3 d83f 0371 e438 fee6 973f
00000180: 5ef6 4ed2 338c d1bf 91bb d87f 8887 c3bf
00000190: 2795 95aa e9e6 c7bf 5e78 4ac1 15fc 9dbf
000001a0: 3f66 6113 f544 ccbf 4077 7d03 c4ca b03f
000001b0: 71c8 3287 b458 bf3f 75b9 41f2 4eac a73f
000001c0: 098c 896d 275a b23f 8cb5 ad63 2b7a 8d3f
000001d0: 7e9f 98a7 5c91 c0bf 342e ef1f 26d0 b43f
000001e0: 387f 8fd1 55a9 b33f 6c3a 774a e0e0 863f
000001f0: 2ef8 1984 3bb9 cf3f 2031 3e4a 48cb b03f
00000200: 6ccd 40ad 1109 b2bf fadd 3c07 c2c8 9abf
00000210: 501f 04d8 17ae b0bf 250c b166 5405 bcbf
00000220: 42af 34a2 dd38 99bf d9fc c4d3 1326 afbf
00000230: 3a79 248a f3cd cbbf d6d6 36ca 7ec1 b33f
00000240: 83c7 7746 334d b13f 376c fa80 be96 b83f
00000250: d40f 7ac7 d9b4 bbbf 1fb1 01e7 5dc6 c53f
00000260: 6299 0777 ce78 bbbf 0081 5735 579e c1bf
00000270: 04fe e002 9366 b9bf 4394 f413 330b b93f
00000280: 8ae9 543e 6ffb bd3f a06c 0a4e f215 c33f
00000290: 4250 1817 76ae d33f b8db 2da3 98a0 c73f
000002a0: 19dd eca6 0ff7 b3bf 502c 5ef8 b46d c7bf
000002b0: b732 9e2b 1b7b aa3f fd04 a5ae ff08 d03f
000002c0: 25d8 4814 3761 c43f 1e2c 132c 0480 cbbf
000002d0: bbd0 f87d 7378 b23f 43b5 dd49 0d86 b7bf
000002e0: ba8f 936b c743 ac3f aa2f bbb2 00c2 c13f
000002f0: d8e2 2e66 a71d a83f 10c8 7de1 af15 ccbf
00000300: 1499 6aa6 5327 5fbf 8ca6 87a0 1026 8b3f
00000310: 499c e026 37a8 92bf 64f4 14d6 1bf7 b1bf
00000320: 6132 49ac cb7f c3bf 8423 5c33 cc88 d1bf
00000330: 7f79 c0dd 04db c9bf 1481 f348 12c6 bbbf
00000340: 91dd b370 22c5 aabf 787b 8c39 777d 823f
00000350: 2395 a216 0440 d0bf 89ab 3e6f ba0e c1bf
00000360: 6b92 73e0 1947 7ebf 4ecd 5a1a 0ca6 b0bf
00000370: adf9 eaff 7c32 813f 7836 c617 f990 b33f
00000380: 9299 8384 e7d4 c53f 8b4b fae6 4c45 83bf
00000390: 0840 ff11 c846 bd3f d2c8 427d de5d bc3f
000003a0: e5ec d09f caf3 91bf 41a0 c58b cb92 d53f
000003b0: e301 495c 157d cfbf 9218 88ab 0c00 babf
000003c0: bcae bfee 8dec aabf 66b5 b9b4 ef43 25bf
000003d0: a25d 9288 6c7d d4bf 7e68 5cd0 294d b4bf
000003e0: 97ec 1c95 c4e9 b73f 2ac5 2207 856c aabf
000003f0: a1c9 0953 df54 a63f f806 3de0 a519 bfbf
00000400: 2f5b 85d8 ce0c c53f a508 ab42 4c43 4abf
00000410: ae8d dc63 cdac b93f d797 4ba2 ee58 833f
00000420: cf43 eae3 1990 a9bf dc6d 2ab7 14ba b03f
00000430: 3dda bf7d a11b c1bf 5a3f 4d33 3740 b53f
00000440: 9a29 05d8 1639 8bbf ccd7 2e5b 1113 ab3f
00000450: 4221 87b0 86ff a33f 700a aedf 35ee a33f
00000460: b87b 8d39 9933 a3bf 6041 a973 2ed7 4fbf
00000470: 154c 2928 98ce 683f a20d 22a0 88c2 b1bf
00000480: 2bcd aa28 c4e1 c6bf 0f9c 3656 fd43 b8bf
00000490: 9e21 daeb 2da6 b4bf ddf5 611a d392 93bf
000004a0: 5ce3 3b39 4411 ae3f 2511 83e9 cd5a a23f
000004b0: 0a6c e472 2746 903f e293 9e9d 08fc 363f
000004c0: af53 3769 02a4 9f3f cc55 9990 8d47 b3bf
000004d0: 7719 b174 7ca0 ca3f bc06 75ed 8377 c13f
000004e0: 5fb5 f7b6 e0db b23f 84c1 8adb 2a2a a23f
000004f0: 4df7 5e46 05eb b5bf dae7 97d2 ddf5 a0bf
00000500: 383d 014d 2de0 b0bf 8692 1bae 6823 7b3f
00000510: 36d1 49b0 6bf8 adbf deb1 c6a1 c8a6 abbf
00000520: 6441 b1cf bd58 963f f492 ff09 ff51 a23f
00000530: 5848 6351 3721 333f e3cc 786f e78f aebf
00000540: cc9a f209 fc6f acbf 2d9d d8e3 5978 c3bf
00000550: bb6a 008c 5132 a93f d740 d8ed 508b ab3f
00000560: 1d8d 1f14 11b3 5dbf f318 fcd7 49c5 a33f
00000570: 4f3a 3a8c 6d60 b33f d286 1147 2b94 54bf
00000580: 92d0 1399 636f afbf 3420 7a37 f98e ce3f
00000590: ad4b 3e7e 6496 95bf 1f93 367a 7765 c6bf
000005a0: 9359 f525 e5d1 b43f 86af e1e2 ec78 b13f
000005b0: 489c 5f14 2d00 95bf 6207 5edf cbf1 b53f
000005c0: b018 b83a b90f afbf 90b4 dc87 a2c3 a63f
000005d0: 2492 39f4 1235 86bf 9289 a9fa 826a 903f
000005e0: 5eb2 7795 974c c33f 7e32 be8f fa46 c9bf
000005f0: 7077 4bc2 0335 ad3f 2594 6650 85e0 bcbf
00000600: 9697 863f b4f2 b03f 44ec 2412 6c33 bdbf
00000610: bc17 3f68 3445 b13f 676b ec91 eed1 9f3f
00000620: 2da7 bc6e 82cc bdbf 442f 2e6e 1990 7b3f
00000630: 2d02 f6be 08fc a23f 0f28 0e27 0bac b33f
00000640: c232 1981 1abf d6bf ef4d 144c b08a b0bf
00000650: f4ef 8eb6 8c96 b63f 7ea2 3b82 9f24 b13f
00000660: 57ea d27e 8dfc 86bf e6d5 d1de 7792 a3bf
00000670: 2564 2118 f2a0 c8bf 191a 6d18 02fa 9ebf
00000680: 5e02 45cd 22c1 bb3f 15d0 1598 93e4 773f
00000690: 5a24 d6e8 7ff3 b1bf 2483 8100 3b58 b93f
000006a0: 36fe 9c78 ea5f bb3f 4fa0 c191 4d15 a7bf
000006b0: 3633 72b5 4371 9d3f 126d b682 78ea a43f
000006c0: 8730 2f60 b6eb 9fbf dab5 6d7b a272 a63f
000006d0: faa5 b75f 45b7 b4bf 5565 b788 ec0f 953f
000006e0: 0149 f242 c7da b63f 9108 0a0e 03a4 9dbf
000006f0: c394 1d6e 8b4f a9bf 46c7 708b f70c 7d3f
00000700: d35a c0de 33cb 8abf 41ec 7252 0c3f b23f
00000710: f40a bc0d 01d2 be3f 806c 37c7 e133 adbf
00000720: 142f b264 a147 afbf 039b 8480 f07e a6bf
00000730: 56fc ca64 43cf 91bf 3d58 9907 fd7b a8bf
00000740: f131 cf74 80b8 7f3f ec53 8924 13c0 a1bf
00000750: 032b 55f7 cbdb 733f fcf3 bb08 b73d 78bf
00000760: cf27 7caf 0921 a3bf bc2b cb1e 8365 a4bf
00000770: 8b61 b03d 1778 c7bf 4835 badc 93e3 a93f
00000780: 96aa 3a1e b535 b03f 7aae 3aff 59e8 b4bf
00000790: 8289 65a7 93bf babf fdd0 1247 18c5 aa3f
000007a0: b12d 3395 8d85 ab3f 9a99 f362 4f6c adbf
000007b0: af88 58be 83d5 c03f 74ef 20da fb35 c9bf
000007c0: 8832 bb12 0678 c93f 57b6 7bb6 5bfe b5bf
000007d0: d903 3790 f8b9 a33f 77a2 5163 fdb7 9f3f
000007e0: 74be 3744 5ffe 873f f8ef 2d51 9dc5 ac3f
000007f0: c2a8 f5a5 7eb5 bbbf ec1d 2daa 2ef9 a4bf
-0.0725838957693158 0.05251233585588514 -0.14240433091022767 -0.036626211233333525 -0.20096872955546308 -0.14843247712627833 -0.0875790697320538 0.14143181959577858
-0.2695411655580208 0.03331078404331581 0.1116797507038491 -0.1555888501751637 0.277220306608452 0.04815241727652206 -0.11933604411373698 -0.13700515316301062
0.1976965704632162 -0.08671254193913354 0.09301888276987737 -0.12509890280268116 0.0913118814889806 -0.004652224867766055 -0.038957137902342946 0.24564455384274994
-0.07343143392652948 0.34145436743111707 0.09473040595526294 0.06582749524496023 0.013479816873619719 -0.029257065390105103 0.16111274954688198 0.23414051027286342
-0.1995412844759197 0.15062780944616286 0.05884657951148852 0.056844633530310426 -0.12402152499327206 -0.555265021487682 -0.006858391269890041 -0.08122690211859988
-0.05786158297827701 0.04677864621520922 -0.23095085189387285 0.22681823413688829 -0.012643193352753544 0.06465648645968848 0.38695489715848214 0.02334210607760757
-0.2741822770875383 -0.15257364504347184 -0.1867343981677234 -0.029281940386333687 -0.22085441061317287 0.0655939587136034 0.12244728375188331 0.04623648364291714
0.07168814110040968 0.014393176059196454 -0.1294360941258183 0.0813011005367848 0.07680260053848265 0.011171104691041843 0.24784034681573658 0.06560184300014216
-0.0704508827191625 -0.026156455699689808 -0.06515645049887309 -0.109456324645223 -0.024630988145119 -0.0608373828895254 -0.21722263570058847 0.07717125355597018
0.06758423300177978 0.09605017327196284 -0.10822831268347893 0.1701161745035131 -0.10731211095808171 -0.13764467339115782 -0.09922140903744753 0.09782714116279671
0.11711783668298473 0.14910725412923842 0.3075232720887052 0.18458850829821727 -0.07798860383342222 -0.18303548934304326 0.051720475267847225 0.2505492406381363
0.15921677103477908 -0.21484424736112911 0.07215043855177587 -0.09188921979303637 0.05520461261929151 0.13873299338444883 0.047101241324929155 -0.21941183576888124
-0.0019014660735279841 0.013256196879370984 -0.01821981596745229 -0.07017683006866232 -0.15233751213453942 -0.2739744664727868 -0.20199642970778695 -0.10849108010325309
-0.05228526712192683 0.009028369373081921 -0.253907224754885 -0.1332619708240055 -0.007392026024920821 -0.06503368037629295 0.008397080001825008 0.07643086271692734
0.17055982561505495 -0.009409523772125691 0.11436129035359965 0.1108073287785232 -0.017531553272630247 0.33708466195685466 -0.24600474363434363 -0.10156325519355594
-0.052586017030845394 -0.0001622419462025501 -0.3201552709301386 -0.07930241906106691 0.09341076508001077 -0.05160918914897146 0.04361627472544006 -0.12148510670251855
0.164453368876559 -0.0008014795651763064 0.10029300392175486 0.009446968391284045 -0.04992752940336908 0.06533936950511737 -0.13365572586163124 0.08301110270008163
-0.013292482821857732 0.05287985075067034 0.03905888466721531 0.038926776461285395 -0.03750304057643156 -0.0009716965499340473 0.0030281993688645683 -0.06937459859368869
-0.17876483903601445 -0.09478743891541817 -0.08066069610698043 -0.019114778981465953 0.05872548292786092 0.03584903216827432 0.01589261664149081 0.0003507157358575969
0.03089908377826916 -0.07531056194542102 0.2080226487907557 0.13645981878840086 0.07366756884558388 0.03547796182590715 -0.08561737983742752 -0.033125812489700215
-0.06592066888810144 0.006625565439865816 -0.058535924214910315 -0.054006833789887784 0.021822896768129665 0.035781831713199624 0.0002918968251722823 -0.059691650731474664
-0.05554187413627218 -0.15211032510090075 0.04921202501301055 0.053797272714406645 -0.0018127123626008941 0.038614566436125396 0.07569012330552848 -0.0012560293801233036
-0.061396706043440066 0.23873820504036447 -0.02108151455429279 -0.17497151820602938 0.08132774521559431 0.06825142420865235 -0.020508484238146246 0.08572076991370417
-0.060666836183416506 0.044461325726254164 -0.010843418195869488 0.016031309651575017 0.1507749061414811 -0.19747859972666854 0.05704509493601406 -0.1128009148875014
0.06620337057992595 -0.11406588976835602 0.06746223015861025 0.031074264198746173 -0.11640181735552053 0.006729220712155929 0.03707911807123696 0.07684392646311287
-0.35541403395908955 -0.06461622102170116 0.08823470551482143 0.06696507386699044 -0.011223893578393858 -0.03822683901755024 -0.1924116723846804 -0.03025058054051941
0.10841577064003036 0.005833221949945529 -0.07012175974354432 0.09900254022933247 0.10693231053027649 -0.04508440403225277 0.02875238223036832 0.04085136981594863
-0.031172608967424267 0.043843343321764386 -0.08092149340486535 0.02056855759096739 0.08927579292711486 -0.02894596837223468 -0.04943500250991797 0.007092444392627522
-0.013082890734989949 0.07127453816330932 0.12039190850559206 -0.057036452835483864 -0.06109337190818401 -0.04393722122977375 -0.017392209078704056 -0.04782095639954818
0.0077443139861767965 -0.034668539247526414 0.004848286383387859 -0.005918230988524616 -0.037361433669573445 -0.03983697653674009 -0.1833523799148334 0.0505644041960332
0.06331951129929289 -0.0816704033010697 -0.10448572956878446 0.052284964252438094 0.053753303969269146 -0.057466965512321624 0.131515949194243 -0.19695995474637196
0.19897533335315054 -0.08591244893224236 0.03852822075305768 0.030975302874511414 0.011715645093288908 0.05619517913780209 -0.10823813964603615 -0.04096360995623258

layer2.bias f8 [128]
00000000: a97b 0742 728c babf 5821 7b20 4ace b13f
00000010: 7e15 df39 37f6 973f 2989 bf93 653e b73f
00000020: 908b 590d 6108 9fbf 66e4 26fb 78b9 b33f
00000030: 1f3d 86b7 12c5 98bf e65c b5f5 b901 bc3f
00000040: 5a3a 83a7 0457 c43f 8b4b 3d2c a8ed a5bf
00000050: 055c 46da 0ac9 cb3f 0bc5 441e ece9 bcbf
00000060: a591 b0bf 922f a03f f54e 30db bcfa a03f
00000070: 8f67 0f38 691b dc3f 5364 9840 b710 b63f
00000080: 5a80 8d0d e8e6 b13f 76a5 943a 9e9c c3bf
00000090: df2f aefd 3556 ac3f ee1c 5443 cf64 a0bf
000000a0: bfff d616 fb83 b63f 0424 0752 4b9d c33f
000000b0: 3f6c 7c9d ac46 b7bf cae9 c8ff 2705 abbf
000000c0: e6a2 6d06 dea9 a23f b5e2 4444 be4e d23f
000000d0: cee3 8c83 0377 c23f 3852 6bb3 62f4 a63f
000000e0: 4444 e5dc 078a c1bf 6616 233e 2f08 bdbf
000000f0: 7a2b 664e 5f26 8bbf 5b8b cc6f c0f4 adbf
00000100: 006b ac73 97a8 9b3f 7570 4a5c eddf acbf
00000110: 74a1 5448 6694 a1bf d932 bb1e 143a afbf
00000120: 1d44 fc10 e247 983f 85e1 0dfa 1368 b5bf
00000130: fc49 5258 6a27 b43f 831a eca3 101f c0bf
00000140: 1827 3ce0 6985 b6bf cc68 bd8f 1ca4 92bf
00000150: cc99 b630 590f ce3f 30f4 03e7 fb16 b6bf
00000160: 31cd b0f6 fb9c aabf b4be 2f18 cd8b a63f
00000170: 11e8 d42a 2715 953f 92b8 787c f2cd b2bf
00000180: 3717 aa84 f64a ac3f ad71 5083 0a51 d03f
00000190: 11eb 7388 1d1b 7b3f 0e26 439b c952 ad3f
000001a0: 7904 c1f0 cad4 da3f ef88 f5b9 586f d13f
000001b0: b1ed 5b78 94bb c9bf 8fec 0f09 d7d2 6f3f
000001c0: e73b a629 a416 c23f 2d8a 11af af69 babf
000001d0: 309b fef5 1bc5 aabf 9526 1f0d 3e9b 9abf
000001e0: 6bd1 fead 539e c7bf c979 a87e 29f7 a13f
000001f0: 0134 6d33 e92b aebf 74dc 0d54 0068 a13f
00000200: 44da 925d 270b d23f 65eb 7ffd 4901 b23f
00000210: d1b5 c47e b5a6 bebf 21b2 efb7 0f33 da3f
00000220: b6ac ef2c 9113 c03f 3582 ec79 c6ca 763f
00000230: e805 b110 d043 88bf 92fe 6a3b 58f1 9abf
00000240: 4f96 fa75 15ea ab3f d8ff 65ad 1e96 9f3f
00000250: 4b78 d92f 7e32 c53f 2bc9 f10b 346e c83f
00000260: f898 bcc0 fb8b d53f d2b1 4830 73d1 ba3f
00000270: aab5 b1f6 f94e c83f d824 55a3 26f4 c1bf
00000280: 5543 79ed c06a d3bf 7607 02d5 adad b73f
00000290: b400 8b56 eb7d bdbf 87b6 34c6 a776 93bf
000002a0: 60f4 8db9 2a02 babf 6246 065c d803 b2bf
000002b0: 37db 1a4a 811c b23f 8a7f a76d dce4 ba3f
000002c0: 815c 905c 96ea b63f d5c4 5a3f c492 c33f
000002d0: c202 7872 230e a73f ab9a 1f05 60a8 ba3f
000002e0: 67fc 0e08 63ac 74bf 6be0 5d29 9fee c1bf
000002f0: 3d36 a9a9 e4d6 c2bf 75c5 4372 a7cb 6bbf
00000300: e2db f2e1 c6ca b73f 58d0 2eab fe74 9abf
00000310: 8d5d 4acf 7c92 943f 53c6 8bb3 5cac 8ebf
00000320: 64e4 b742 963a 7e3f ef87 b106 fb2d cabf
00000330: e833 2e79 6b88 8cbf 8905 d680 a391 ca3f
00000340: a110 931f 4ddc c0bf ab0c 5744 1c7f b2bf
00000350: 56d2 8464 0a22 acbf ee09 945c f1cb 8f3f
00000360: 85e4 80d2 f419 97bf fa5f 6d32 2e01 94bf
00000370: dcaa 0259 32be b5bf b5db 4faa a166 80bf
00000380: c217 ede3 3592 bbbf ab7b f14e db34 9b3f
00000390: ee86 5fb9 1382 a7bf 1fa1 121e 26d7 a0bf
000003a0: 197c df59 53f4 c03f 6c70 4b86 5fbf b23f
000003b0: f5a1 4ad7 fcec 913f 78c3 a153 c7fb 9c3f
000003c0: 7e6c 1f51 1012 b0bf d721 5eb8 9c6c b5bf
000003d0: 8839 baed aff2 c43f c866 c401 2ba0 b13f
000003e0: 89a8 e680 51ca b03f 20e5 819a 3ceb a5bf
000003f0: a7b1 d85a b0af bf3f 67bd 7c6c b05e bf3f
-0.10370554077188267 0.06955397885315528 0.023400175959769502 0.09079584939130271 -0.03030540126782061 0.07704883700979934 -0.02418927426475392 0.10940134285680223
0.1589055841381704 -0.04282880344421532 0.21707282693816424 -0.11294437159519448 0.03161295499765807 0.033162976986344996 0.4391730353796612 0.08619256331475471
0.06992960291745601 -0.1532171045339898 0.055345236985061545 -0.03201911637193598 0.08795136745084074 0.1532377386595557 -0.09092215390084933 -0.0527737140405012
0.036452234539700076 0.28605610529806863 0.14425701068264946 0.04483326378036562 -0.1370248631087937 -0.11340613619821624 -0.013256783084917723 -0.058507932326640165
0.027010313449049583 -0.05639592887493531 -0.03433532364789729 -0.06098997950684799 0.023711712156970422 -0.08361935477103628 0.07872643142972174 -0.12594802860276752
-0.08797322964178667 -0.01820416095083814 0.23484339598253567 -0.08628820791268832 -0.05197894464836351 0.044035348131612834 0.02058850478099578 -0.07345500506264305
0.05525942201079064 0.254946354137952 0.006617656100611284 0.05727224369327298 0.4192378378975899 0.272421056366638 -0.20103698613079993 0.0038847160253659484
0.14131595643672698 -0.10317514442571314 -0.05228507402289606 -0.025982827711948337 -0.18451925273769673 0.035088822089381085 -0.058928763892801335 0.03399659181644035
0.28193077219058105 0.07033216895062606 -0.11973127694064735 0.409366540551476 0.12559714025642216 0.005564475343618859 -0.011848092564949078 -0.02631128180178039
0.054520292903629135 0.03084609921779688 0.16560342155838934 0.19086313803888663 0.33666890928215265 0.10475845269019793 0.18991016908277675 -0.14026339507316865
-0.30339072409428997 0.09249388170613124 -0.11520262587419233 -0.01900732180836553 -0.10159556417598159 -0.07037117239658522 0.07074745234681933 0.10505464245897947
0.0895170188890564 0.15291646092877068 0.04502974293064234 0.10413169980129548 -0.005047213403428597 -0.14009465713366195 -0.14718302044131973 -0.0033930082737405006
0.09293787971806425 -0.02583692474190999 0.020090055610663838 -0.014977192143734863 0.007380091624775795 -0.20452821566419696 -0.013932075153002502 0.20756953993626961
-0.13172306100580491 -0.07225205105264602 -0.05494720913921884 0.01552570880676726 -0.022559953067887512 -0.019535753085932563 -0.08493342087846706 -0.008008254060752987
-0.10769974531748885 0.0265688197072184 -0.045914284113463086 -0.0328914558134008 0.1324562252839037 0.07323262242010892 0.017505598678924945 0.02830420921276608
-0.06277563076530332 -0.08368854046978612 0.1636562262323873 0.0688502196611821 0.06558713337895673 -0.04281033884121599 0.1237745496552579 0.12253859184851522
